name: "TensorFlowToCaffe"
layer {
  name: "data"
  type: "Data"
  top: "data"
  top: "label"
  include {
    phase: TRAIN
  }
  transform_param {
    scale: 0.0078431368
    mean_value: 127.5 
    mean_value: 127.5
    mean_value: 127.5
    mirror: true
    crop_size: 299
  }
  data_param {
    source: "imagenet_rgb/ilsvrc12_train_lmdb"
    batch_size: 8
    backend: LMDB
  }
}
layer {
  name: "data"
  type: "Data"
  top: "data"
  top: "label"
  include {
    phase: TEST
  }
  transform_param {
    scale: 0.0078431368
    mean_value: 127.5 
    mean_value: 127.5
    mean_value: 127.5
    mirror: false
    crop_size: 299
  }
  data_param {
    source: "imagenet_rgb/ilsvrc12_val_lmdb"
    batch_size: 20
    backend: LMDB
  }
}
layer {
  name: "InceptionV3__InceptionV3__Conv2d_1a_3x3__Conv2D"
  type: "Convolution"
  bottom: "data"
  top: "InceptionV3__InceptionV3__Conv2d_1a_3x3__Conv2D"
  convolution_param {
    num_output: 32
    bias_term: false
    pad_h: 0
    pad_w: 0
    kernel_h: 3
    kernel_w: 3
    stride_h: 2
    stride_w: 2
  }
}
layer {
  name: "InceptionV3__InceptionV3__Conv2d_1a_3x3__BatchNorm__FusedBatchNorm"
  type: "BatchNorm"
  bottom: "InceptionV3__InceptionV3__Conv2d_1a_3x3__Conv2D"
  top: "InceptionV3__InceptionV3__Conv2d_1a_3x3__BatchNorm__FusedBatchNorm"
  batch_norm_param {
    use_global_stats: true
    eps: 0.0010000000475
  }
}
layer {
  name: "InceptionV3__InceptionV3__Conv2d_1a_3x3__BatchNorm__FusedBatchNorm__scale"
  type: "Scale"
  bottom: "InceptionV3__InceptionV3__Conv2d_1a_3x3__BatchNorm__FusedBatchNorm"
  top: "InceptionV3__InceptionV3__Conv2d_1a_3x3__BatchNorm__FusedBatchNorm__scale"
  scale_param {
    bias_term: true
  }
}
layer {
  name: "InceptionV3__InceptionV3__Conv2d_1a_3x3__Relu"
  type: "ReLU"
  bottom: "InceptionV3__InceptionV3__Conv2d_1a_3x3__BatchNorm__FusedBatchNorm__scale"
  top: "InceptionV3__InceptionV3__Conv2d_1a_3x3__Relu"
}
layer {
  name: "InceptionV3__InceptionV3__Conv2d_2a_3x3__Conv2D"
  type: "Convolution"
  bottom: "InceptionV3__InceptionV3__Conv2d_1a_3x3__Relu"
  top: "InceptionV3__InceptionV3__Conv2d_2a_3x3__Conv2D"
  convolution_param {
    num_output: 32
    bias_term: false
    pad_h: 0
    pad_w: 0
    kernel_h: 3
    kernel_w: 3
    stride_h: 1
    stride_w: 1
  }
}
layer {
  name: "InceptionV3__InceptionV3__Conv2d_2a_3x3__BatchNorm__FusedBatchNorm"
  type: "BatchNorm"
  bottom: "InceptionV3__InceptionV3__Conv2d_2a_3x3__Conv2D"
  top: "InceptionV3__InceptionV3__Conv2d_2a_3x3__BatchNorm__FusedBatchNorm"
  batch_norm_param {
    use_global_stats: true
    eps: 0.0010000000475
  }
}
layer {
  name: "InceptionV3__InceptionV3__Conv2d_2a_3x3__BatchNorm__FusedBatchNorm__scale"
  type: "Scale"
  bottom: "InceptionV3__InceptionV3__Conv2d_2a_3x3__BatchNorm__FusedBatchNorm"
  top: "InceptionV3__InceptionV3__Conv2d_2a_3x3__BatchNorm__FusedBatchNorm__scale"
  scale_param {
    bias_term: true
  }
}
layer {
  name: "InceptionV3__InceptionV3__Conv2d_2a_3x3__Relu"
  type: "ReLU"
  bottom: "InceptionV3__InceptionV3__Conv2d_2a_3x3__BatchNorm__FusedBatchNorm__scale"
  top: "InceptionV3__InceptionV3__Conv2d_2a_3x3__Relu"
}
layer {
  name: "InceptionV3__InceptionV3__Conv2d_2b_3x3__Conv2D"
  type: "Convolution"
  bottom: "InceptionV3__InceptionV3__Conv2d_2a_3x3__Relu"
  top: "InceptionV3__InceptionV3__Conv2d_2b_3x3__Conv2D"
  convolution_param {
    num_output: 64
    bias_term: false
    pad_h: 1
    pad_w: 1
    kernel_h: 3
    kernel_w: 3
    stride_h: 1
    stride_w: 1
    pad_type: 1
  }
}
layer {
  name: "InceptionV3__InceptionV3__Conv2d_2b_3x3__BatchNorm__FusedBatchNorm"
  type: "BatchNorm"
  bottom: "InceptionV3__InceptionV3__Conv2d_2b_3x3__Conv2D"
  top: "InceptionV3__InceptionV3__Conv2d_2b_3x3__BatchNorm__FusedBatchNorm"
  batch_norm_param {
    use_global_stats: true
    eps: 0.0010000000475
  }
}
layer {
  name: "InceptionV3__InceptionV3__Conv2d_2b_3x3__BatchNorm__FusedBatchNorm__scale"
  type: "Scale"
  bottom: "InceptionV3__InceptionV3__Conv2d_2b_3x3__BatchNorm__FusedBatchNorm"
  top: "InceptionV3__InceptionV3__Conv2d_2b_3x3__BatchNorm__FusedBatchNorm__scale"
  scale_param {
    bias_term: true
  }
}
layer {
  name: "InceptionV3__InceptionV3__Conv2d_2b_3x3__Relu"
  type: "ReLU"
  bottom: "InceptionV3__InceptionV3__Conv2d_2b_3x3__BatchNorm__FusedBatchNorm__scale"
  top: "InceptionV3__InceptionV3__Conv2d_2b_3x3__Relu"
}
layer {
  name: "InceptionV3__InceptionV3__MaxPool_3a_3x3__MaxPool"
  type: "Pooling"
  bottom: "InceptionV3__InceptionV3__Conv2d_2b_3x3__Relu"
  top: "InceptionV3__InceptionV3__MaxPool_3a_3x3__MaxPool"
  pooling_param {
    pool: MAX
    kernel_h: 3
    kernel_w: 3
    stride_h: 2
    stride_w: 2
    pad_h: 0
    pad_w: 0
    ceil_mode: false
  }
}
layer {
  name: "InceptionV3__InceptionV3__Conv2d_3b_1x1__Conv2D"
  type: "Convolution"
  bottom: "InceptionV3__InceptionV3__MaxPool_3a_3x3__MaxPool"
  top: "InceptionV3__InceptionV3__Conv2d_3b_1x1__Conv2D"
  convolution_param {
    num_output: 80
    bias_term: false
    pad_h: 0
    pad_w: 0
    kernel_h: 1
    kernel_w: 1
    stride_h: 1
    stride_w: 1
  }
}
layer {
  name: "InceptionV3__InceptionV3__Conv2d_3b_1x1__BatchNorm__FusedBatchNorm"
  type: "BatchNorm"
  bottom: "InceptionV3__InceptionV3__Conv2d_3b_1x1__Conv2D"
  top: "InceptionV3__InceptionV3__Conv2d_3b_1x1__BatchNorm__FusedBatchNorm"
  batch_norm_param {
    use_global_stats: true
    eps: 0.0010000000475
  }
}
layer {
  name: "InceptionV3__InceptionV3__Conv2d_3b_1x1__BatchNorm__FusedBatchNorm__scale"
  type: "Scale"
  bottom: "InceptionV3__InceptionV3__Conv2d_3b_1x1__BatchNorm__FusedBatchNorm"
  top: "InceptionV3__InceptionV3__Conv2d_3b_1x1__BatchNorm__FusedBatchNorm__scale"
  scale_param {
    bias_term: true
  }
}
layer {
  name: "InceptionV3__InceptionV3__Conv2d_3b_1x1__Relu"
  type: "ReLU"
  bottom: "InceptionV3__InceptionV3__Conv2d_3b_1x1__BatchNorm__FusedBatchNorm__scale"
  top: "InceptionV3__InceptionV3__Conv2d_3b_1x1__Relu"
}
layer {
  name: "InceptionV3__InceptionV3__Conv2d_4a_3x3__Conv2D"
  type: "Convolution"
  bottom: "InceptionV3__InceptionV3__Conv2d_3b_1x1__Relu"
  top: "InceptionV3__InceptionV3__Conv2d_4a_3x3__Conv2D"
  convolution_param {
    num_output: 192
    bias_term: false
    pad_h: 0
    pad_w: 0
    kernel_h: 3
    kernel_w: 3
    stride_h: 1
    stride_w: 1
  }
}
layer {
  name: "InceptionV3__InceptionV3__Conv2d_4a_3x3__BatchNorm__FusedBatchNorm"
  type: "BatchNorm"
  bottom: "InceptionV3__InceptionV3__Conv2d_4a_3x3__Conv2D"
  top: "InceptionV3__InceptionV3__Conv2d_4a_3x3__BatchNorm__FusedBatchNorm"
  batch_norm_param {
    use_global_stats: true
    eps: 0.0010000000475
  }
}
layer {
  name: "InceptionV3__InceptionV3__Conv2d_4a_3x3__BatchNorm__FusedBatchNorm__scale"
  type: "Scale"
  bottom: "InceptionV3__InceptionV3__Conv2d_4a_3x3__BatchNorm__FusedBatchNorm"
  top: "InceptionV3__InceptionV3__Conv2d_4a_3x3__BatchNorm__FusedBatchNorm__scale"
  scale_param {
    bias_term: true
  }
}
layer {
  name: "InceptionV3__InceptionV3__Conv2d_4a_3x3__Relu"
  type: "ReLU"
  bottom: "InceptionV3__InceptionV3__Conv2d_4a_3x3__BatchNorm__FusedBatchNorm__scale"
  top: "InceptionV3__InceptionV3__Conv2d_4a_3x3__Relu"
}
layer {
  name: "InceptionV3__InceptionV3__MaxPool_5a_3x3__MaxPool"
  type: "Pooling"
  bottom: "InceptionV3__InceptionV3__Conv2d_4a_3x3__Relu"
  top: "InceptionV3__InceptionV3__MaxPool_5a_3x3__MaxPool"
  pooling_param {
    pool: MAX
    kernel_h: 3
    kernel_w: 3
    stride_h: 2
    stride_w: 2
    pad_h: 0
    pad_w: 0
    ceil_mode: false
  }
}
layer {
  name: "InceptionV3__InceptionV3__Mixed_5b__Branch_0__Conv2d_0a_1x1__Conv2D"
  type: "Convolution"
  bottom: "InceptionV3__InceptionV3__MaxPool_5a_3x3__MaxPool"
  top: "InceptionV3__InceptionV3__Mixed_5b__Branch_0__Conv2d_0a_1x1__Conv2D"
  convolution_param {
    num_output: 64
    bias_term: false
    pad_h: 0
    pad_w: 0
    kernel_h: 1
    kernel_w: 1
    stride_h: 1
    stride_w: 1
    pad_type: 1
  }
}
layer {
  name: "InceptionV3__InceptionV3__Mixed_5b__Branch_1__Conv2d_0a_1x1__Conv2D"
  type: "Convolution"
  bottom: "InceptionV3__InceptionV3__MaxPool_5a_3x3__MaxPool"
  top: "InceptionV3__InceptionV3__Mixed_5b__Branch_1__Conv2d_0a_1x1__Conv2D"
  convolution_param {
    num_output: 48
    bias_term: false
    pad_h: 0
    pad_w: 0
    kernel_h: 1
    kernel_w: 1
    stride_h: 1
    stride_w: 1
    pad_type: 1
  }
}
layer {
  name: "InceptionV3__InceptionV3__Mixed_5b__Branch_2__Conv2d_0a_1x1__Conv2D"
  type: "Convolution"
  bottom: "InceptionV3__InceptionV3__MaxPool_5a_3x3__MaxPool"
  top: "InceptionV3__InceptionV3__Mixed_5b__Branch_2__Conv2d_0a_1x1__Conv2D"
  convolution_param {
    num_output: 64
    bias_term: false
    pad_h: 0
    pad_w: 0
    kernel_h: 1
    kernel_w: 1
    stride_h: 1
    stride_w: 1
    pad_type: 1
  }
}
layer {
  name: "InceptionV3__InceptionV3__Mixed_5b__Branch_3__AvgPool_0a_3x3__AvgPool"
  type: "Pooling"
  bottom: "InceptionV3__InceptionV3__MaxPool_5a_3x3__MaxPool"
  top: "InceptionV3__InceptionV3__Mixed_5b__Branch_3__AvgPool_0a_3x3__AvgPool"
  pooling_param {
    pool: AVE_TF
    kernel_h: 3
    kernel_w: 3
    stride_h: 1
    stride_w: 1
    pad_h: 1
    pad_w: 1
    pad_type: 1
  }
}
layer {
  name: "InceptionV3__InceptionV3__Mixed_5b__Branch_0__Conv2d_0a_1x1__BatchNorm__FusedBatchNorm"
  type: "BatchNorm"
  bottom: "InceptionV3__InceptionV3__Mixed_5b__Branch_0__Conv2d_0a_1x1__Conv2D"
  top: "InceptionV3__InceptionV3__Mixed_5b__Branch_0__Conv2d_0a_1x1__BatchNorm__FusedBatchNorm"
  batch_norm_param {
    use_global_stats: true
    eps: 0.0010000000475
  }
}
layer {
  name: "InceptionV3__InceptionV3__Mixed_5b__Branch_0__Conv2d_0a_1x1__BatchNorm__FusedBatchNorm__scale"
  type: "Scale"
  bottom: "InceptionV3__InceptionV3__Mixed_5b__Branch_0__Conv2d_0a_1x1__BatchNorm__FusedBatchNorm"
  top: "InceptionV3__InceptionV3__Mixed_5b__Branch_0__Conv2d_0a_1x1__BatchNorm__FusedBatchNorm__scale"
  scale_param {
    bias_term: true
  }
}
layer {
  name: "InceptionV3__InceptionV3__Mixed_5b__Branch_1__Conv2d_0a_1x1__BatchNorm__FusedBatchNorm"
  type: "BatchNorm"
  bottom: "InceptionV3__InceptionV3__Mixed_5b__Branch_1__Conv2d_0a_1x1__Conv2D"
  top: "InceptionV3__InceptionV3__Mixed_5b__Branch_1__Conv2d_0a_1x1__BatchNorm__FusedBatchNorm"
  batch_norm_param {
    use_global_stats: true
    eps: 0.0010000000475
  }
}
layer {
  name: "InceptionV3__InceptionV3__Mixed_5b__Branch_1__Conv2d_0a_1x1__BatchNorm__FusedBatchNorm__scale"
  type: "Scale"
  bottom: "InceptionV3__InceptionV3__Mixed_5b__Branch_1__Conv2d_0a_1x1__BatchNorm__FusedBatchNorm"
  top: "InceptionV3__InceptionV3__Mixed_5b__Branch_1__Conv2d_0a_1x1__BatchNorm__FusedBatchNorm__scale"
  scale_param {
    bias_term: true
  }
}
layer {
  name: "InceptionV3__InceptionV3__Mixed_5b__Branch_2__Conv2d_0a_1x1__BatchNorm__FusedBatchNorm"
  type: "BatchNorm"
  bottom: "InceptionV3__InceptionV3__Mixed_5b__Branch_2__Conv2d_0a_1x1__Conv2D"
  top: "InceptionV3__InceptionV3__Mixed_5b__Branch_2__Conv2d_0a_1x1__BatchNorm__FusedBatchNorm"
  batch_norm_param {
    use_global_stats: true
    eps: 0.0010000000475
  }
}
layer {
  name: "InceptionV3__InceptionV3__Mixed_5b__Branch_2__Conv2d_0a_1x1__BatchNorm__FusedBatchNorm__scale"
  type: "Scale"
  bottom: "InceptionV3__InceptionV3__Mixed_5b__Branch_2__Conv2d_0a_1x1__BatchNorm__FusedBatchNorm"
  top: "InceptionV3__InceptionV3__Mixed_5b__Branch_2__Conv2d_0a_1x1__BatchNorm__FusedBatchNorm__scale"
  scale_param {
    bias_term: true
  }
}
layer {
  name: "InceptionV3__InceptionV3__Mixed_5b__Branch_3__Conv2d_0b_1x1__Conv2D"
  type: "Convolution"
  bottom: "InceptionV3__InceptionV3__Mixed_5b__Branch_3__AvgPool_0a_3x3__AvgPool"
  top: "InceptionV3__InceptionV3__Mixed_5b__Branch_3__Conv2d_0b_1x1__Conv2D"
  convolution_param {
    num_output: 32
    bias_term: false
    pad_h: 0
    pad_w: 0
    kernel_h: 1
    kernel_w: 1
    stride_h: 1
    stride_w: 1
    pad_type: 1
  }
}
layer {
  name: "InceptionV3__InceptionV3__Mixed_5b__Branch_0__Conv2d_0a_1x1__Relu"
  type: "ReLU"
  bottom: "InceptionV3__InceptionV3__Mixed_5b__Branch_0__Conv2d_0a_1x1__BatchNorm__FusedBatchNorm__scale"
  top: "InceptionV3__InceptionV3__Mixed_5b__Branch_0__Conv2d_0a_1x1__Relu"
}
layer {
  name: "InceptionV3__InceptionV3__Mixed_5b__Branch_1__Conv2d_0a_1x1__Relu"
  type: "ReLU"
  bottom: "InceptionV3__InceptionV3__Mixed_5b__Branch_1__Conv2d_0a_1x1__BatchNorm__FusedBatchNorm__scale"
  top: "InceptionV3__InceptionV3__Mixed_5b__Branch_1__Conv2d_0a_1x1__Relu"
}
layer {
  name: "InceptionV3__InceptionV3__Mixed_5b__Branch_2__Conv2d_0a_1x1__Relu"
  type: "ReLU"
  bottom: "InceptionV3__InceptionV3__Mixed_5b__Branch_2__Conv2d_0a_1x1__BatchNorm__FusedBatchNorm__scale"
  top: "InceptionV3__InceptionV3__Mixed_5b__Branch_2__Conv2d_0a_1x1__Relu"
}
layer {
  name: "InceptionV3__InceptionV3__Mixed_5b__Branch_3__Conv2d_0b_1x1__BatchNorm__FusedBatchNorm"
  type: "BatchNorm"
  bottom: "InceptionV3__InceptionV3__Mixed_5b__Branch_3__Conv2d_0b_1x1__Conv2D"
  top: "InceptionV3__InceptionV3__Mixed_5b__Branch_3__Conv2d_0b_1x1__BatchNorm__FusedBatchNorm"
  batch_norm_param {
    use_global_stats: true
    eps: 0.0010000000475
  }
}
layer {
  name: "InceptionV3__InceptionV3__Mixed_5b__Branch_3__Conv2d_0b_1x1__BatchNorm__FusedBatchNorm__scale"
  type: "Scale"
  bottom: "InceptionV3__InceptionV3__Mixed_5b__Branch_3__Conv2d_0b_1x1__BatchNorm__FusedBatchNorm"
  top: "InceptionV3__InceptionV3__Mixed_5b__Branch_3__Conv2d_0b_1x1__BatchNorm__FusedBatchNorm__scale"
  scale_param {
    bias_term: true
  }
}
layer {
  name: "InceptionV3__InceptionV3__Mixed_5b__Branch_1__Conv2d_0b_5x5__Conv2D"
  type: "Convolution"
  bottom: "InceptionV3__InceptionV3__Mixed_5b__Branch_1__Conv2d_0a_1x1__Relu"
  top: "InceptionV3__InceptionV3__Mixed_5b__Branch_1__Conv2d_0b_5x5__Conv2D"
  convolution_param {
    num_output: 64
    bias_term: false
    pad_h: 2
    pad_w: 2
    kernel_h: 5
    kernel_w: 5
    stride_h: 1
    stride_w: 1
    pad_type: 1
  }
}
layer {
  name: "InceptionV3__InceptionV3__Mixed_5b__Branch_2__Conv2d_0b_3x3__Conv2D"
  type: "Convolution"
  bottom: "InceptionV3__InceptionV3__Mixed_5b__Branch_2__Conv2d_0a_1x1__Relu"
  top: "InceptionV3__InceptionV3__Mixed_5b__Branch_2__Conv2d_0b_3x3__Conv2D"
  convolution_param {
    num_output: 96
    bias_term: false
    pad_h: 1
    pad_w: 1
    kernel_h: 3
    kernel_w: 3
    stride_h: 1
    stride_w: 1
    pad_type: 1
  }
}
layer {
  name: "InceptionV3__InceptionV3__Mixed_5b__Branch_3__Conv2d_0b_1x1__Relu"
  type: "ReLU"
  bottom: "InceptionV3__InceptionV3__Mixed_5b__Branch_3__Conv2d_0b_1x1__BatchNorm__FusedBatchNorm__scale"
  top: "InceptionV3__InceptionV3__Mixed_5b__Branch_3__Conv2d_0b_1x1__Relu"
}
layer {
  name: "InceptionV3__InceptionV3__Mixed_5b__Branch_1__Conv2d_0b_5x5__BatchNorm__FusedBatchNorm"
  type: "BatchNorm"
  bottom: "InceptionV3__InceptionV3__Mixed_5b__Branch_1__Conv2d_0b_5x5__Conv2D"
  top: "InceptionV3__InceptionV3__Mixed_5b__Branch_1__Conv2d_0b_5x5__BatchNorm__FusedBatchNorm"
  batch_norm_param {
    use_global_stats: true
    eps: 0.0010000000475
  }
}
layer {
  name: "InceptionV3__InceptionV3__Mixed_5b__Branch_1__Conv2d_0b_5x5__BatchNorm__FusedBatchNorm__scale"
  type: "Scale"
  bottom: "InceptionV3__InceptionV3__Mixed_5b__Branch_1__Conv2d_0b_5x5__BatchNorm__FusedBatchNorm"
  top: "InceptionV3__InceptionV3__Mixed_5b__Branch_1__Conv2d_0b_5x5__BatchNorm__FusedBatchNorm__scale"
  scale_param {
    bias_term: true
  }
}
layer {
  name: "InceptionV3__InceptionV3__Mixed_5b__Branch_2__Conv2d_0b_3x3__BatchNorm__FusedBatchNorm"
  type: "BatchNorm"
  bottom: "InceptionV3__InceptionV3__Mixed_5b__Branch_2__Conv2d_0b_3x3__Conv2D"
  top: "InceptionV3__InceptionV3__Mixed_5b__Branch_2__Conv2d_0b_3x3__BatchNorm__FusedBatchNorm"
  batch_norm_param {
    use_global_stats: true
    eps: 0.0010000000475
  }
}
layer {
  name: "InceptionV3__InceptionV3__Mixed_5b__Branch_2__Conv2d_0b_3x3__BatchNorm__FusedBatchNorm__scale"
  type: "Scale"
  bottom: "InceptionV3__InceptionV3__Mixed_5b__Branch_2__Conv2d_0b_3x3__BatchNorm__FusedBatchNorm"
  top: "InceptionV3__InceptionV3__Mixed_5b__Branch_2__Conv2d_0b_3x3__BatchNorm__FusedBatchNorm__scale"
  scale_param {
    bias_term: true
  }
}
layer {
  name: "InceptionV3__InceptionV3__Mixed_5b__Branch_1__Conv2d_0b_5x5__Relu"
  type: "ReLU"
  bottom: "InceptionV3__InceptionV3__Mixed_5b__Branch_1__Conv2d_0b_5x5__BatchNorm__FusedBatchNorm__scale"
  top: "InceptionV3__InceptionV3__Mixed_5b__Branch_1__Conv2d_0b_5x5__Relu"
}
layer {
  name: "InceptionV3__InceptionV3__Mixed_5b__Branch_2__Conv2d_0b_3x3__Relu"
  type: "ReLU"
  bottom: "InceptionV3__InceptionV3__Mixed_5b__Branch_2__Conv2d_0b_3x3__BatchNorm__FusedBatchNorm__scale"
  top: "InceptionV3__InceptionV3__Mixed_5b__Branch_2__Conv2d_0b_3x3__Relu"
}
layer {
  name: "InceptionV3__InceptionV3__Mixed_5b__Branch_2__Conv2d_0c_3x3__Conv2D"
  type: "Convolution"
  bottom: "InceptionV3__InceptionV3__Mixed_5b__Branch_2__Conv2d_0b_3x3__Relu"
  top: "InceptionV3__InceptionV3__Mixed_5b__Branch_2__Conv2d_0c_3x3__Conv2D"
  convolution_param {
    num_output: 96
    bias_term: false
    pad_h: 1
    pad_w: 1
    kernel_h: 3
    kernel_w: 3
    stride_h: 1
    stride_w: 1
    pad_type: 1
  }
}
layer {
  name: "InceptionV3__InceptionV3__Mixed_5b__Branch_2__Conv2d_0c_3x3__BatchNorm__FusedBatchNorm"
  type: "BatchNorm"
  bottom: "InceptionV3__InceptionV3__Mixed_5b__Branch_2__Conv2d_0c_3x3__Conv2D"
  top: "InceptionV3__InceptionV3__Mixed_5b__Branch_2__Conv2d_0c_3x3__BatchNorm__FusedBatchNorm"
  batch_norm_param {
    use_global_stats: true
    eps: 0.0010000000475
  }
}
layer {
  name: "InceptionV3__InceptionV3__Mixed_5b__Branch_2__Conv2d_0c_3x3__BatchNorm__FusedBatchNorm__scale"
  type: "Scale"
  bottom: "InceptionV3__InceptionV3__Mixed_5b__Branch_2__Conv2d_0c_3x3__BatchNorm__FusedBatchNorm"
  top: "InceptionV3__InceptionV3__Mixed_5b__Branch_2__Conv2d_0c_3x3__BatchNorm__FusedBatchNorm__scale"
  scale_param {
    bias_term: true
  }
}
layer {
  name: "InceptionV3__InceptionV3__Mixed_5b__Branch_2__Conv2d_0c_3x3__Relu"
  type: "ReLU"
  bottom: "InceptionV3__InceptionV3__Mixed_5b__Branch_2__Conv2d_0c_3x3__BatchNorm__FusedBatchNorm__scale"
  top: "InceptionV3__InceptionV3__Mixed_5b__Branch_2__Conv2d_0c_3x3__Relu"
}
layer {
  name: "InceptionV3__InceptionV3__Mixed_5b__concat"
  type: "Concat"
  bottom: "InceptionV3__InceptionV3__Mixed_5b__Branch_0__Conv2d_0a_1x1__Relu"
  bottom: "InceptionV3__InceptionV3__Mixed_5b__Branch_1__Conv2d_0b_5x5__Relu"
  bottom: "InceptionV3__InceptionV3__Mixed_5b__Branch_2__Conv2d_0c_3x3__Relu"
  bottom: "InceptionV3__InceptionV3__Mixed_5b__Branch_3__Conv2d_0b_1x1__Relu"
  top: "InceptionV3__InceptionV3__Mixed_5b__concat"
  concat_param {
    axis: 1
  }
}
layer {
  name: "InceptionV3__InceptionV3__Mixed_5c__Branch_0__Conv2d_0a_1x1__Conv2D"
  type: "Convolution"
  bottom: "InceptionV3__InceptionV3__Mixed_5b__concat"
  top: "InceptionV3__InceptionV3__Mixed_5c__Branch_0__Conv2d_0a_1x1__Conv2D"
  convolution_param {
    num_output: 64
    bias_term: false
    pad_h: 0
    pad_w: 0
    kernel_h: 1
    kernel_w: 1
    stride_h: 1
    stride_w: 1
    pad_type: 1
  }
}
layer {
  name: "InceptionV3__InceptionV3__Mixed_5c__Branch_1__Conv2d_0b_1x1__Conv2D"
  type: "Convolution"
  bottom: "InceptionV3__InceptionV3__Mixed_5b__concat"
  top: "InceptionV3__InceptionV3__Mixed_5c__Branch_1__Conv2d_0b_1x1__Conv2D"
  convolution_param {
    num_output: 48
    bias_term: false
    pad_h: 0
    pad_w: 0
    kernel_h: 1
    kernel_w: 1
    stride_h: 1
    stride_w: 1
    pad_type: 1
  }
}
layer {
  name: "InceptionV3__InceptionV3__Mixed_5c__Branch_2__Conv2d_0a_1x1__Conv2D"
  type: "Convolution"
  bottom: "InceptionV3__InceptionV3__Mixed_5b__concat"
  top: "InceptionV3__InceptionV3__Mixed_5c__Branch_2__Conv2d_0a_1x1__Conv2D"
  convolution_param {
    num_output: 64
    bias_term: false
    pad_h: 0
    pad_w: 0
    kernel_h: 1
    kernel_w: 1
    stride_h: 1
    stride_w: 1
    pad_type: 1
  }
}
layer {
  name: "InceptionV3__InceptionV3__Mixed_5c__Branch_3__AvgPool_0a_3x3__AvgPool"
  type: "Pooling"
  bottom: "InceptionV3__InceptionV3__Mixed_5b__concat"
  top: "InceptionV3__InceptionV3__Mixed_5c__Branch_3__AvgPool_0a_3x3__AvgPool"
  pooling_param {
    pool: AVE_TF
    kernel_h: 3
    kernel_w: 3
    stride_h: 1
    stride_w: 1
    pad_h: 1
    pad_w: 1
    pad_type: 1
  }
}
layer {
  name: "InceptionV3__InceptionV3__Mixed_5c__Branch_0__Conv2d_0a_1x1__BatchNorm__FusedBatchNorm"
  type: "BatchNorm"
  bottom: "InceptionV3__InceptionV3__Mixed_5c__Branch_0__Conv2d_0a_1x1__Conv2D"
  top: "InceptionV3__InceptionV3__Mixed_5c__Branch_0__Conv2d_0a_1x1__BatchNorm__FusedBatchNorm"
  batch_norm_param {
    use_global_stats: true
    eps: 0.0010000000475
  }
}
layer {
  name: "InceptionV3__InceptionV3__Mixed_5c__Branch_0__Conv2d_0a_1x1__BatchNorm__FusedBatchNorm__scale"
  type: "Scale"
  bottom: "InceptionV3__InceptionV3__Mixed_5c__Branch_0__Conv2d_0a_1x1__BatchNorm__FusedBatchNorm"
  top: "InceptionV3__InceptionV3__Mixed_5c__Branch_0__Conv2d_0a_1x1__BatchNorm__FusedBatchNorm__scale"
  scale_param {
    bias_term: true
  }
}
layer {
  name: "InceptionV3__InceptionV3__Mixed_5c__Branch_1__Conv2d_0b_1x1__BatchNorm__FusedBatchNorm"
  type: "BatchNorm"
  bottom: "InceptionV3__InceptionV3__Mixed_5c__Branch_1__Conv2d_0b_1x1__Conv2D"
  top: "InceptionV3__InceptionV3__Mixed_5c__Branch_1__Conv2d_0b_1x1__BatchNorm__FusedBatchNorm"
  batch_norm_param {
    use_global_stats: true
    eps: 0.0010000000475
  }
}
layer {
  name: "InceptionV3__InceptionV3__Mixed_5c__Branch_1__Conv2d_0b_1x1__BatchNorm__FusedBatchNorm__scale"
  type: "Scale"
  bottom: "InceptionV3__InceptionV3__Mixed_5c__Branch_1__Conv2d_0b_1x1__BatchNorm__FusedBatchNorm"
  top: "InceptionV3__InceptionV3__Mixed_5c__Branch_1__Conv2d_0b_1x1__BatchNorm__FusedBatchNorm__scale"
  scale_param {
    bias_term: true
  }
}
layer {
  name: "InceptionV3__InceptionV3__Mixed_5c__Branch_2__Conv2d_0a_1x1__BatchNorm__FusedBatchNorm"
  type: "BatchNorm"
  bottom: "InceptionV3__InceptionV3__Mixed_5c__Branch_2__Conv2d_0a_1x1__Conv2D"
  top: "InceptionV3__InceptionV3__Mixed_5c__Branch_2__Conv2d_0a_1x1__BatchNorm__FusedBatchNorm"
  batch_norm_param {
    use_global_stats: true
    eps: 0.0010000000475
  }
}
layer {
  name: "InceptionV3__InceptionV3__Mixed_5c__Branch_2__Conv2d_0a_1x1__BatchNorm__FusedBatchNorm__scale"
  type: "Scale"
  bottom: "InceptionV3__InceptionV3__Mixed_5c__Branch_2__Conv2d_0a_1x1__BatchNorm__FusedBatchNorm"
  top: "InceptionV3__InceptionV3__Mixed_5c__Branch_2__Conv2d_0a_1x1__BatchNorm__FusedBatchNorm__scale"
  scale_param {
    bias_term: true
  }
}
layer {
  name: "InceptionV3__InceptionV3__Mixed_5c__Branch_3__Conv2d_0b_1x1__Conv2D"
  type: "Convolution"
  bottom: "InceptionV3__InceptionV3__Mixed_5c__Branch_3__AvgPool_0a_3x3__AvgPool"
  top: "InceptionV3__InceptionV3__Mixed_5c__Branch_3__Conv2d_0b_1x1__Conv2D"
  convolution_param {
    num_output: 64
    bias_term: false
    pad_h: 0
    pad_w: 0
    kernel_h: 1
    kernel_w: 1
    stride_h: 1
    stride_w: 1
    pad_type: 1
  }
}
layer {
  name: "InceptionV3__InceptionV3__Mixed_5c__Branch_0__Conv2d_0a_1x1__Relu"
  type: "ReLU"
  bottom: "InceptionV3__InceptionV3__Mixed_5c__Branch_0__Conv2d_0a_1x1__BatchNorm__FusedBatchNorm__scale"
  top: "InceptionV3__InceptionV3__Mixed_5c__Branch_0__Conv2d_0a_1x1__Relu"
}
layer {
  name: "InceptionV3__InceptionV3__Mixed_5c__Branch_1__Conv2d_0b_1x1__Relu"
  type: "ReLU"
  bottom: "InceptionV3__InceptionV3__Mixed_5c__Branch_1__Conv2d_0b_1x1__BatchNorm__FusedBatchNorm__scale"
  top: "InceptionV3__InceptionV3__Mixed_5c__Branch_1__Conv2d_0b_1x1__Relu"
}
layer {
  name: "InceptionV3__InceptionV3__Mixed_5c__Branch_2__Conv2d_0a_1x1__Relu"
  type: "ReLU"
  bottom: "InceptionV3__InceptionV3__Mixed_5c__Branch_2__Conv2d_0a_1x1__BatchNorm__FusedBatchNorm__scale"
  top: "InceptionV3__InceptionV3__Mixed_5c__Branch_2__Conv2d_0a_1x1__Relu"
}
layer {
  name: "InceptionV3__InceptionV3__Mixed_5c__Branch_3__Conv2d_0b_1x1__BatchNorm__FusedBatchNorm"
  type: "BatchNorm"
  bottom: "InceptionV3__InceptionV3__Mixed_5c__Branch_3__Conv2d_0b_1x1__Conv2D"
  top: "InceptionV3__InceptionV3__Mixed_5c__Branch_3__Conv2d_0b_1x1__BatchNorm__FusedBatchNorm"
  batch_norm_param {
    use_global_stats: true
    eps: 0.0010000000475
  }
}
layer {
  name: "InceptionV3__InceptionV3__Mixed_5c__Branch_3__Conv2d_0b_1x1__BatchNorm__FusedBatchNorm__scale"
  type: "Scale"
  bottom: "InceptionV3__InceptionV3__Mixed_5c__Branch_3__Conv2d_0b_1x1__BatchNorm__FusedBatchNorm"
  top: "InceptionV3__InceptionV3__Mixed_5c__Branch_3__Conv2d_0b_1x1__BatchNorm__FusedBatchNorm__scale"
  scale_param {
    bias_term: true
  }
}
layer {
  name: "InceptionV3__InceptionV3__Mixed_5c__Branch_1__Conv_1_0c_5x5__Conv2D"
  type: "Convolution"
  bottom: "InceptionV3__InceptionV3__Mixed_5c__Branch_1__Conv2d_0b_1x1__Relu"
  top: "InceptionV3__InceptionV3__Mixed_5c__Branch_1__Conv_1_0c_5x5__Conv2D"
  convolution_param {
    num_output: 64
    bias_term: false
    pad_h: 2
    pad_w: 2
    kernel_h: 5
    kernel_w: 5
    stride_h: 1
    stride_w: 1
    pad_type: 1
  }
}
layer {
  name: "InceptionV3__InceptionV3__Mixed_5c__Branch_2__Conv2d_0b_3x3__Conv2D"
  type: "Convolution"
  bottom: "InceptionV3__InceptionV3__Mixed_5c__Branch_2__Conv2d_0a_1x1__Relu"
  top: "InceptionV3__InceptionV3__Mixed_5c__Branch_2__Conv2d_0b_3x3__Conv2D"
  convolution_param {
    num_output: 96
    bias_term: false
    pad_h: 1
    pad_w: 1
    kernel_h: 3
    kernel_w: 3
    stride_h: 1
    stride_w: 1
    pad_type: 1
  }
}
layer {
  name: "InceptionV3__InceptionV3__Mixed_5c__Branch_3__Conv2d_0b_1x1__Relu"
  type: "ReLU"
  bottom: "InceptionV3__InceptionV3__Mixed_5c__Branch_3__Conv2d_0b_1x1__BatchNorm__FusedBatchNorm__scale"
  top: "InceptionV3__InceptionV3__Mixed_5c__Branch_3__Conv2d_0b_1x1__Relu"
}
layer {
  name: "InceptionV3__InceptionV3__Mixed_5c__Branch_1__Conv_1_0c_5x5__BatchNorm__FusedBatchNorm"
  type: "BatchNorm"
  bottom: "InceptionV3__InceptionV3__Mixed_5c__Branch_1__Conv_1_0c_5x5__Conv2D"
  top: "InceptionV3__InceptionV3__Mixed_5c__Branch_1__Conv_1_0c_5x5__BatchNorm__FusedBatchNorm"
  batch_norm_param {
    use_global_stats: true
    eps: 0.0010000000475
  }
}
layer {
  name: "InceptionV3__InceptionV3__Mixed_5c__Branch_1__Conv_1_0c_5x5__BatchNorm__FusedBatchNorm__scale"
  type: "Scale"
  bottom: "InceptionV3__InceptionV3__Mixed_5c__Branch_1__Conv_1_0c_5x5__BatchNorm__FusedBatchNorm"
  top: "InceptionV3__InceptionV3__Mixed_5c__Branch_1__Conv_1_0c_5x5__BatchNorm__FusedBatchNorm__scale"
  scale_param {
    bias_term: true
  }
}
layer {
  name: "InceptionV3__InceptionV3__Mixed_5c__Branch_2__Conv2d_0b_3x3__BatchNorm__FusedBatchNorm"
  type: "BatchNorm"
  bottom: "InceptionV3__InceptionV3__Mixed_5c__Branch_2__Conv2d_0b_3x3__Conv2D"
  top: "InceptionV3__InceptionV3__Mixed_5c__Branch_2__Conv2d_0b_3x3__BatchNorm__FusedBatchNorm"
  batch_norm_param {
    use_global_stats: true
    eps: 0.0010000000475
  }
}
layer {
  name: "InceptionV3__InceptionV3__Mixed_5c__Branch_2__Conv2d_0b_3x3__BatchNorm__FusedBatchNorm__scale"
  type: "Scale"
  bottom: "InceptionV3__InceptionV3__Mixed_5c__Branch_2__Conv2d_0b_3x3__BatchNorm__FusedBatchNorm"
  top: "InceptionV3__InceptionV3__Mixed_5c__Branch_2__Conv2d_0b_3x3__BatchNorm__FusedBatchNorm__scale"
  scale_param {
    bias_term: true
  }
}
layer {
  name: "InceptionV3__InceptionV3__Mixed_5c__Branch_1__Conv_1_0c_5x5__Relu"
  type: "ReLU"
  bottom: "InceptionV3__InceptionV3__Mixed_5c__Branch_1__Conv_1_0c_5x5__BatchNorm__FusedBatchNorm__scale"
  top: "InceptionV3__InceptionV3__Mixed_5c__Branch_1__Conv_1_0c_5x5__Relu"
}
layer {
  name: "InceptionV3__InceptionV3__Mixed_5c__Branch_2__Conv2d_0b_3x3__Relu"
  type: "ReLU"
  bottom: "InceptionV3__InceptionV3__Mixed_5c__Branch_2__Conv2d_0b_3x3__BatchNorm__FusedBatchNorm__scale"
  top: "InceptionV3__InceptionV3__Mixed_5c__Branch_2__Conv2d_0b_3x3__Relu"
}
layer {
  name: "InceptionV3__InceptionV3__Mixed_5c__Branch_2__Conv2d_0c_3x3__Conv2D"
  type: "Convolution"
  bottom: "InceptionV3__InceptionV3__Mixed_5c__Branch_2__Conv2d_0b_3x3__Relu"
  top: "InceptionV3__InceptionV3__Mixed_5c__Branch_2__Conv2d_0c_3x3__Conv2D"
  convolution_param {
    num_output: 96
    bias_term: false
    pad_h: 1
    pad_w: 1
    kernel_h: 3
    kernel_w: 3
    stride_h: 1
    stride_w: 1
    pad_type: 1
  }
}
layer {
  name: "InceptionV3__InceptionV3__Mixed_5c__Branch_2__Conv2d_0c_3x3__BatchNorm__FusedBatchNorm"
  type: "BatchNorm"
  bottom: "InceptionV3__InceptionV3__Mixed_5c__Branch_2__Conv2d_0c_3x3__Conv2D"
  top: "InceptionV3__InceptionV3__Mixed_5c__Branch_2__Conv2d_0c_3x3__BatchNorm__FusedBatchNorm"
  batch_norm_param {
    use_global_stats: true
    eps: 0.0010000000475
  }
}
layer {
  name: "InceptionV3__InceptionV3__Mixed_5c__Branch_2__Conv2d_0c_3x3__BatchNorm__FusedBatchNorm__scale"
  type: "Scale"
  bottom: "InceptionV3__InceptionV3__Mixed_5c__Branch_2__Conv2d_0c_3x3__BatchNorm__FusedBatchNorm"
  top: "InceptionV3__InceptionV3__Mixed_5c__Branch_2__Conv2d_0c_3x3__BatchNorm__FusedBatchNorm__scale"
  scale_param {
    bias_term: true
  }
}
layer {
  name: "InceptionV3__InceptionV3__Mixed_5c__Branch_2__Conv2d_0c_3x3__Relu"
  type: "ReLU"
  bottom: "InceptionV3__InceptionV3__Mixed_5c__Branch_2__Conv2d_0c_3x3__BatchNorm__FusedBatchNorm__scale"
  top: "InceptionV3__InceptionV3__Mixed_5c__Branch_2__Conv2d_0c_3x3__Relu"
}
layer {
  name: "InceptionV3__InceptionV3__Mixed_5c__concat"
  type: "Concat"
  bottom: "InceptionV3__InceptionV3__Mixed_5c__Branch_0__Conv2d_0a_1x1__Relu"
  bottom: "InceptionV3__InceptionV3__Mixed_5c__Branch_1__Conv_1_0c_5x5__Relu"
  bottom: "InceptionV3__InceptionV3__Mixed_5c__Branch_2__Conv2d_0c_3x3__Relu"
  bottom: "InceptionV3__InceptionV3__Mixed_5c__Branch_3__Conv2d_0b_1x1__Relu"
  top: "InceptionV3__InceptionV3__Mixed_5c__concat"
  concat_param {
    axis: 1
  }
}
layer {
  name: "InceptionV3__InceptionV3__Mixed_5d__Branch_0__Conv2d_0a_1x1__Conv2D"
  type: "Convolution"
  bottom: "InceptionV3__InceptionV3__Mixed_5c__concat"
  top: "InceptionV3__InceptionV3__Mixed_5d__Branch_0__Conv2d_0a_1x1__Conv2D"
  convolution_param {
    num_output: 64
    bias_term: false
    pad_h: 0
    pad_w: 0
    kernel_h: 1
    kernel_w: 1
    stride_h: 1
    stride_w: 1
    pad_type: 1
  }
}
layer {
  name: "InceptionV3__InceptionV3__Mixed_5d__Branch_1__Conv2d_0a_1x1__Conv2D"
  type: "Convolution"
  bottom: "InceptionV3__InceptionV3__Mixed_5c__concat"
  top: "InceptionV3__InceptionV3__Mixed_5d__Branch_1__Conv2d_0a_1x1__Conv2D"
  convolution_param {
    num_output: 48
    bias_term: false
    pad_h: 0
    pad_w: 0
    kernel_h: 1
    kernel_w: 1
    stride_h: 1
    stride_w: 1
    pad_type: 1
  }
}
layer {
  name: "InceptionV3__InceptionV3__Mixed_5d__Branch_2__Conv2d_0a_1x1__Conv2D"
  type: "Convolution"
  bottom: "InceptionV3__InceptionV3__Mixed_5c__concat"
  top: "InceptionV3__InceptionV3__Mixed_5d__Branch_2__Conv2d_0a_1x1__Conv2D"
  convolution_param {
    num_output: 64
    bias_term: false
    pad_h: 0
    pad_w: 0
    kernel_h: 1
    kernel_w: 1
    stride_h: 1
    stride_w: 1
    pad_type: 1
  }
}
layer {
  name: "InceptionV3__InceptionV3__Mixed_5d__Branch_3__AvgPool_0a_3x3__AvgPool"
  type: "Pooling"
  bottom: "InceptionV3__InceptionV3__Mixed_5c__concat"
  top: "InceptionV3__InceptionV3__Mixed_5d__Branch_3__AvgPool_0a_3x3__AvgPool"
  pooling_param {
    pool: AVE_TF
    kernel_h: 3
    kernel_w: 3
    stride_h: 1
    stride_w: 1
    pad_h: 1
    pad_w: 1
    pad_type: 1
  }
}
layer {
  name: "InceptionV3__InceptionV3__Mixed_5d__Branch_0__Conv2d_0a_1x1__BatchNorm__FusedBatchNorm"
  type: "BatchNorm"
  bottom: "InceptionV3__InceptionV3__Mixed_5d__Branch_0__Conv2d_0a_1x1__Conv2D"
  top: "InceptionV3__InceptionV3__Mixed_5d__Branch_0__Conv2d_0a_1x1__BatchNorm__FusedBatchNorm"
  batch_norm_param {
    use_global_stats: true
    eps: 0.0010000000475
  }
}
layer {
  name: "InceptionV3__InceptionV3__Mixed_5d__Branch_0__Conv2d_0a_1x1__BatchNorm__FusedBatchNorm__scale"
  type: "Scale"
  bottom: "InceptionV3__InceptionV3__Mixed_5d__Branch_0__Conv2d_0a_1x1__BatchNorm__FusedBatchNorm"
  top: "InceptionV3__InceptionV3__Mixed_5d__Branch_0__Conv2d_0a_1x1__BatchNorm__FusedBatchNorm__scale"
  scale_param {
    bias_term: true
  }
}
layer {
  name: "InceptionV3__InceptionV3__Mixed_5d__Branch_1__Conv2d_0a_1x1__BatchNorm__FusedBatchNorm"
  type: "BatchNorm"
  bottom: "InceptionV3__InceptionV3__Mixed_5d__Branch_1__Conv2d_0a_1x1__Conv2D"
  top: "InceptionV3__InceptionV3__Mixed_5d__Branch_1__Conv2d_0a_1x1__BatchNorm__FusedBatchNorm"
  batch_norm_param {
    use_global_stats: true
    eps: 0.0010000000475
  }
}
layer {
  name: "InceptionV3__InceptionV3__Mixed_5d__Branch_1__Conv2d_0a_1x1__BatchNorm__FusedBatchNorm__scale"
  type: "Scale"
  bottom: "InceptionV3__InceptionV3__Mixed_5d__Branch_1__Conv2d_0a_1x1__BatchNorm__FusedBatchNorm"
  top: "InceptionV3__InceptionV3__Mixed_5d__Branch_1__Conv2d_0a_1x1__BatchNorm__FusedBatchNorm__scale"
  scale_param {
    bias_term: true
  }
}
layer {
  name: "InceptionV3__InceptionV3__Mixed_5d__Branch_2__Conv2d_0a_1x1__BatchNorm__FusedBatchNorm"
  type: "BatchNorm"
  bottom: "InceptionV3__InceptionV3__Mixed_5d__Branch_2__Conv2d_0a_1x1__Conv2D"
  top: "InceptionV3__InceptionV3__Mixed_5d__Branch_2__Conv2d_0a_1x1__BatchNorm__FusedBatchNorm"
  batch_norm_param {
    use_global_stats: true
    eps: 0.0010000000475
  }
}
layer {
  name: "InceptionV3__InceptionV3__Mixed_5d__Branch_2__Conv2d_0a_1x1__BatchNorm__FusedBatchNorm__scale"
  type: "Scale"
  bottom: "InceptionV3__InceptionV3__Mixed_5d__Branch_2__Conv2d_0a_1x1__BatchNorm__FusedBatchNorm"
  top: "InceptionV3__InceptionV3__Mixed_5d__Branch_2__Conv2d_0a_1x1__BatchNorm__FusedBatchNorm__scale"
  scale_param {
    bias_term: true
  }
}
layer {
  name: "InceptionV3__InceptionV3__Mixed_5d__Branch_3__Conv2d_0b_1x1__Conv2D"
  type: "Convolution"
  bottom: "InceptionV3__InceptionV3__Mixed_5d__Branch_3__AvgPool_0a_3x3__AvgPool"
  top: "InceptionV3__InceptionV3__Mixed_5d__Branch_3__Conv2d_0b_1x1__Conv2D"
  convolution_param {
    num_output: 64
    bias_term: false
    pad_h: 0
    pad_w: 0
    kernel_h: 1
    kernel_w: 1
    stride_h: 1
    stride_w: 1
    pad_type: 1
  }
}
layer {
  name: "InceptionV3__InceptionV3__Mixed_5d__Branch_0__Conv2d_0a_1x1__Relu"
  type: "ReLU"
  bottom: "InceptionV3__InceptionV3__Mixed_5d__Branch_0__Conv2d_0a_1x1__BatchNorm__FusedBatchNorm__scale"
  top: "InceptionV3__InceptionV3__Mixed_5d__Branch_0__Conv2d_0a_1x1__Relu"
}
layer {
  name: "InceptionV3__InceptionV3__Mixed_5d__Branch_1__Conv2d_0a_1x1__Relu"
  type: "ReLU"
  bottom: "InceptionV3__InceptionV3__Mixed_5d__Branch_1__Conv2d_0a_1x1__BatchNorm__FusedBatchNorm__scale"
  top: "InceptionV3__InceptionV3__Mixed_5d__Branch_1__Conv2d_0a_1x1__Relu"
}
layer {
  name: "InceptionV3__InceptionV3__Mixed_5d__Branch_2__Conv2d_0a_1x1__Relu"
  type: "ReLU"
  bottom: "InceptionV3__InceptionV3__Mixed_5d__Branch_2__Conv2d_0a_1x1__BatchNorm__FusedBatchNorm__scale"
  top: "InceptionV3__InceptionV3__Mixed_5d__Branch_2__Conv2d_0a_1x1__Relu"
}
layer {
  name: "InceptionV3__InceptionV3__Mixed_5d__Branch_3__Conv2d_0b_1x1__BatchNorm__FusedBatchNorm"
  type: "BatchNorm"
  bottom: "InceptionV3__InceptionV3__Mixed_5d__Branch_3__Conv2d_0b_1x1__Conv2D"
  top: "InceptionV3__InceptionV3__Mixed_5d__Branch_3__Conv2d_0b_1x1__BatchNorm__FusedBatchNorm"
  batch_norm_param {
    use_global_stats: true
    eps: 0.0010000000475
  }
}
layer {
  name: "InceptionV3__InceptionV3__Mixed_5d__Branch_3__Conv2d_0b_1x1__BatchNorm__FusedBatchNorm__scale"
  type: "Scale"
  bottom: "InceptionV3__InceptionV3__Mixed_5d__Branch_3__Conv2d_0b_1x1__BatchNorm__FusedBatchNorm"
  top: "InceptionV3__InceptionV3__Mixed_5d__Branch_3__Conv2d_0b_1x1__BatchNorm__FusedBatchNorm__scale"
  scale_param {
    bias_term: true
  }
}
layer {
  name: "InceptionV3__InceptionV3__Mixed_5d__Branch_1__Conv2d_0b_5x5__Conv2D"
  type: "Convolution"
  bottom: "InceptionV3__InceptionV3__Mixed_5d__Branch_1__Conv2d_0a_1x1__Relu"
  top: "InceptionV3__InceptionV3__Mixed_5d__Branch_1__Conv2d_0b_5x5__Conv2D"
  convolution_param {
    num_output: 64
    bias_term: false
    pad_h: 2
    pad_w: 2
    kernel_h: 5
    kernel_w: 5
    stride_h: 1
    stride_w: 1
    pad_type: 1
  }
}
layer {
  name: "InceptionV3__InceptionV3__Mixed_5d__Branch_2__Conv2d_0b_3x3__Conv2D"
  type: "Convolution"
  bottom: "InceptionV3__InceptionV3__Mixed_5d__Branch_2__Conv2d_0a_1x1__Relu"
  top: "InceptionV3__InceptionV3__Mixed_5d__Branch_2__Conv2d_0b_3x3__Conv2D"
  convolution_param {
    num_output: 96
    bias_term: false
    pad_h: 1
    pad_w: 1
    kernel_h: 3
    kernel_w: 3
    stride_h: 1
    stride_w: 1
    pad_type: 1
  }
}
layer {
  name: "InceptionV3__InceptionV3__Mixed_5d__Branch_3__Conv2d_0b_1x1__Relu"
  type: "ReLU"
  bottom: "InceptionV3__InceptionV3__Mixed_5d__Branch_3__Conv2d_0b_1x1__BatchNorm__FusedBatchNorm__scale"
  top: "InceptionV3__InceptionV3__Mixed_5d__Branch_3__Conv2d_0b_1x1__Relu"
}
layer {
  name: "InceptionV3__InceptionV3__Mixed_5d__Branch_1__Conv2d_0b_5x5__BatchNorm__FusedBatchNorm"
  type: "BatchNorm"
  bottom: "InceptionV3__InceptionV3__Mixed_5d__Branch_1__Conv2d_0b_5x5__Conv2D"
  top: "InceptionV3__InceptionV3__Mixed_5d__Branch_1__Conv2d_0b_5x5__BatchNorm__FusedBatchNorm"
  batch_norm_param {
    use_global_stats: true
    eps: 0.0010000000475
  }
}
layer {
  name: "InceptionV3__InceptionV3__Mixed_5d__Branch_1__Conv2d_0b_5x5__BatchNorm__FusedBatchNorm__scale"
  type: "Scale"
  bottom: "InceptionV3__InceptionV3__Mixed_5d__Branch_1__Conv2d_0b_5x5__BatchNorm__FusedBatchNorm"
  top: "InceptionV3__InceptionV3__Mixed_5d__Branch_1__Conv2d_0b_5x5__BatchNorm__FusedBatchNorm__scale"
  scale_param {
    bias_term: true
  }
}
layer {
  name: "InceptionV3__InceptionV3__Mixed_5d__Branch_2__Conv2d_0b_3x3__BatchNorm__FusedBatchNorm"
  type: "BatchNorm"
  bottom: "InceptionV3__InceptionV3__Mixed_5d__Branch_2__Conv2d_0b_3x3__Conv2D"
  top: "InceptionV3__InceptionV3__Mixed_5d__Branch_2__Conv2d_0b_3x3__BatchNorm__FusedBatchNorm"
  batch_norm_param {
    use_global_stats: true
    eps: 0.0010000000475
  }
}
layer {
  name: "InceptionV3__InceptionV3__Mixed_5d__Branch_2__Conv2d_0b_3x3__BatchNorm__FusedBatchNorm__scale"
  type: "Scale"
  bottom: "InceptionV3__InceptionV3__Mixed_5d__Branch_2__Conv2d_0b_3x3__BatchNorm__FusedBatchNorm"
  top: "InceptionV3__InceptionV3__Mixed_5d__Branch_2__Conv2d_0b_3x3__BatchNorm__FusedBatchNorm__scale"
  scale_param {
    bias_term: true
  }
}
layer {
  name: "InceptionV3__InceptionV3__Mixed_5d__Branch_1__Conv2d_0b_5x5__Relu"
  type: "ReLU"
  bottom: "InceptionV3__InceptionV3__Mixed_5d__Branch_1__Conv2d_0b_5x5__BatchNorm__FusedBatchNorm__scale"
  top: "InceptionV3__InceptionV3__Mixed_5d__Branch_1__Conv2d_0b_5x5__Relu"
}
layer {
  name: "InceptionV3__InceptionV3__Mixed_5d__Branch_2__Conv2d_0b_3x3__Relu"
  type: "ReLU"
  bottom: "InceptionV3__InceptionV3__Mixed_5d__Branch_2__Conv2d_0b_3x3__BatchNorm__FusedBatchNorm__scale"
  top: "InceptionV3__InceptionV3__Mixed_5d__Branch_2__Conv2d_0b_3x3__Relu"
}
layer {
  name: "InceptionV3__InceptionV3__Mixed_5d__Branch_2__Conv2d_0c_3x3__Conv2D"
  type: "Convolution"
  bottom: "InceptionV3__InceptionV3__Mixed_5d__Branch_2__Conv2d_0b_3x3__Relu"
  top: "InceptionV3__InceptionV3__Mixed_5d__Branch_2__Conv2d_0c_3x3__Conv2D"
  convolution_param {
    num_output: 96
    bias_term: false
    pad_h: 1
    pad_w: 1
    kernel_h: 3
    kernel_w: 3
    stride_h: 1
    stride_w: 1
    pad_type: 1
  }
}
layer {
  name: "InceptionV3__InceptionV3__Mixed_5d__Branch_2__Conv2d_0c_3x3__BatchNorm__FusedBatchNorm"
  type: "BatchNorm"
  bottom: "InceptionV3__InceptionV3__Mixed_5d__Branch_2__Conv2d_0c_3x3__Conv2D"
  top: "InceptionV3__InceptionV3__Mixed_5d__Branch_2__Conv2d_0c_3x3__BatchNorm__FusedBatchNorm"
  batch_norm_param {
    use_global_stats: true
    eps: 0.0010000000475
  }
}
layer {
  name: "InceptionV3__InceptionV3__Mixed_5d__Branch_2__Conv2d_0c_3x3__BatchNorm__FusedBatchNorm__scale"
  type: "Scale"
  bottom: "InceptionV3__InceptionV3__Mixed_5d__Branch_2__Conv2d_0c_3x3__BatchNorm__FusedBatchNorm"
  top: "InceptionV3__InceptionV3__Mixed_5d__Branch_2__Conv2d_0c_3x3__BatchNorm__FusedBatchNorm__scale"
  scale_param {
    bias_term: true
  }
}
layer {
  name: "InceptionV3__InceptionV3__Mixed_5d__Branch_2__Conv2d_0c_3x3__Relu"
  type: "ReLU"
  bottom: "InceptionV3__InceptionV3__Mixed_5d__Branch_2__Conv2d_0c_3x3__BatchNorm__FusedBatchNorm__scale"
  top: "InceptionV3__InceptionV3__Mixed_5d__Branch_2__Conv2d_0c_3x3__Relu"
}
layer {
  name: "InceptionV3__InceptionV3__Mixed_5d__concat"
  type: "Concat"
  bottom: "InceptionV3__InceptionV3__Mixed_5d__Branch_0__Conv2d_0a_1x1__Relu"
  bottom: "InceptionV3__InceptionV3__Mixed_5d__Branch_1__Conv2d_0b_5x5__Relu"
  bottom: "InceptionV3__InceptionV3__Mixed_5d__Branch_2__Conv2d_0c_3x3__Relu"
  bottom: "InceptionV3__InceptionV3__Mixed_5d__Branch_3__Conv2d_0b_1x1__Relu"
  top: "InceptionV3__InceptionV3__Mixed_5d__concat"
  concat_param {
    axis: 1
  }
}
layer {
  name: "InceptionV3__InceptionV3__Mixed_6a__Branch_0__Conv2d_1a_1x1__Conv2D"
  type: "Convolution"
  bottom: "InceptionV3__InceptionV3__Mixed_5d__concat"
  top: "InceptionV3__InceptionV3__Mixed_6a__Branch_0__Conv2d_1a_1x1__Conv2D"
  convolution_param {
    num_output: 384
    bias_term: false
    pad_h: 0
    pad_w: 0
    kernel_h: 3
    kernel_w: 3
    stride_h: 2
    stride_w: 2
  }
}
layer {
  name: "InceptionV3__InceptionV3__Mixed_6a__Branch_1__Conv2d_0a_1x1__Conv2D"
  type: "Convolution"
  bottom: "InceptionV3__InceptionV3__Mixed_5d__concat"
  top: "InceptionV3__InceptionV3__Mixed_6a__Branch_1__Conv2d_0a_1x1__Conv2D"
  convolution_param {
    num_output: 64
    bias_term: false
    pad_h: 0
    pad_w: 0
    kernel_h: 1
    kernel_w: 1
    stride_h: 1
    stride_w: 1
    pad_type: 1
  }
}
layer {
  name: "InceptionV3__InceptionV3__Mixed_6a__Branch_2__MaxPool_1a_3x3__MaxPool"
  type: "Pooling"
  bottom: "InceptionV3__InceptionV3__Mixed_5d__concat"
  top: "InceptionV3__InceptionV3__Mixed_6a__Branch_2__MaxPool_1a_3x3__MaxPool"
  pooling_param {
    pool: MAX
    kernel_h: 3
    kernel_w: 3
    stride_h: 2
    stride_w: 2
    pad_h: 0
    pad_w: 0
    ceil_mode: false
  }
}
layer {
  name: "InceptionV3__InceptionV3__Mixed_6a__Branch_0__Conv2d_1a_1x1__BatchNorm__FusedBatchNorm"
  type: "BatchNorm"
  bottom: "InceptionV3__InceptionV3__Mixed_6a__Branch_0__Conv2d_1a_1x1__Conv2D"
  top: "InceptionV3__InceptionV3__Mixed_6a__Branch_0__Conv2d_1a_1x1__BatchNorm__FusedBatchNorm"
  batch_norm_param {
    use_global_stats: true
    eps: 0.0010000000475
  }
}
layer {
  name: "InceptionV3__InceptionV3__Mixed_6a__Branch_0__Conv2d_1a_1x1__BatchNorm__FusedBatchNorm__scale"
  type: "Scale"
  bottom: "InceptionV3__InceptionV3__Mixed_6a__Branch_0__Conv2d_1a_1x1__BatchNorm__FusedBatchNorm"
  top: "InceptionV3__InceptionV3__Mixed_6a__Branch_0__Conv2d_1a_1x1__BatchNorm__FusedBatchNorm__scale"
  scale_param {
    bias_term: true
  }
}
layer {
  name: "InceptionV3__InceptionV3__Mixed_6a__Branch_1__Conv2d_0a_1x1__BatchNorm__FusedBatchNorm"
  type: "BatchNorm"
  bottom: "InceptionV3__InceptionV3__Mixed_6a__Branch_1__Conv2d_0a_1x1__Conv2D"
  top: "InceptionV3__InceptionV3__Mixed_6a__Branch_1__Conv2d_0a_1x1__BatchNorm__FusedBatchNorm"
  batch_norm_param {
    use_global_stats: true
    eps: 0.0010000000475
  }
}
layer {
  name: "InceptionV3__InceptionV3__Mixed_6a__Branch_1__Conv2d_0a_1x1__BatchNorm__FusedBatchNorm__scale"
  type: "Scale"
  bottom: "InceptionV3__InceptionV3__Mixed_6a__Branch_1__Conv2d_0a_1x1__BatchNorm__FusedBatchNorm"
  top: "InceptionV3__InceptionV3__Mixed_6a__Branch_1__Conv2d_0a_1x1__BatchNorm__FusedBatchNorm__scale"
  scale_param {
    bias_term: true
  }
}
layer {
  name: "InceptionV3__InceptionV3__Mixed_6a__Branch_0__Conv2d_1a_1x1__Relu"
  type: "ReLU"
  bottom: "InceptionV3__InceptionV3__Mixed_6a__Branch_0__Conv2d_1a_1x1__BatchNorm__FusedBatchNorm__scale"
  top: "InceptionV3__InceptionV3__Mixed_6a__Branch_0__Conv2d_1a_1x1__Relu"
}
layer {
  name: "InceptionV3__InceptionV3__Mixed_6a__Branch_1__Conv2d_0a_1x1__Relu"
  type: "ReLU"
  bottom: "InceptionV3__InceptionV3__Mixed_6a__Branch_1__Conv2d_0a_1x1__BatchNorm__FusedBatchNorm__scale"
  top: "InceptionV3__InceptionV3__Mixed_6a__Branch_1__Conv2d_0a_1x1__Relu"
}
layer {
  name: "InceptionV3__InceptionV3__Mixed_6a__Branch_1__Conv2d_0b_3x3__Conv2D"
  type: "Convolution"
  bottom: "InceptionV3__InceptionV3__Mixed_6a__Branch_1__Conv2d_0a_1x1__Relu"
  top: "InceptionV3__InceptionV3__Mixed_6a__Branch_1__Conv2d_0b_3x3__Conv2D"
  convolution_param {
    num_output: 96
    bias_term: false
    pad_h: 1
    pad_w: 1
    kernel_h: 3
    kernel_w: 3
    stride_h: 1
    stride_w: 1
    pad_type: 1
  }
}
layer {
  name: "InceptionV3__InceptionV3__Mixed_6a__Branch_1__Conv2d_0b_3x3__BatchNorm__FusedBatchNorm"
  type: "BatchNorm"
  bottom: "InceptionV3__InceptionV3__Mixed_6a__Branch_1__Conv2d_0b_3x3__Conv2D"
  top: "InceptionV3__InceptionV3__Mixed_6a__Branch_1__Conv2d_0b_3x3__BatchNorm__FusedBatchNorm"
  batch_norm_param {
    use_global_stats: true
    eps: 0.0010000000475
  }
}
layer {
  name: "InceptionV3__InceptionV3__Mixed_6a__Branch_1__Conv2d_0b_3x3__BatchNorm__FusedBatchNorm__scale"
  type: "Scale"
  bottom: "InceptionV3__InceptionV3__Mixed_6a__Branch_1__Conv2d_0b_3x3__BatchNorm__FusedBatchNorm"
  top: "InceptionV3__InceptionV3__Mixed_6a__Branch_1__Conv2d_0b_3x3__BatchNorm__FusedBatchNorm__scale"
  scale_param {
    bias_term: true
  }
}
layer {
  name: "InceptionV3__InceptionV3__Mixed_6a__Branch_1__Conv2d_0b_3x3__Relu"
  type: "ReLU"
  bottom: "InceptionV3__InceptionV3__Mixed_6a__Branch_1__Conv2d_0b_3x3__BatchNorm__FusedBatchNorm__scale"
  top: "InceptionV3__InceptionV3__Mixed_6a__Branch_1__Conv2d_0b_3x3__Relu"
}
layer {
  name: "InceptionV3__InceptionV3__Mixed_6a__Branch_1__Conv2d_1a_1x1__Conv2D"
  type: "Convolution"
  bottom: "InceptionV3__InceptionV3__Mixed_6a__Branch_1__Conv2d_0b_3x3__Relu"
  top: "InceptionV3__InceptionV3__Mixed_6a__Branch_1__Conv2d_1a_1x1__Conv2D"
  convolution_param {
    num_output: 96
    bias_term: false
    pad_h: 0
    pad_w: 0
    kernel_h: 3
    kernel_w: 3
    stride_h: 2
    stride_w: 2
  }
}
layer {
  name: "InceptionV3__InceptionV3__Mixed_6a__Branch_1__Conv2d_1a_1x1__BatchNorm__FusedBatchNorm"
  type: "BatchNorm"
  bottom: "InceptionV3__InceptionV3__Mixed_6a__Branch_1__Conv2d_1a_1x1__Conv2D"
  top: "InceptionV3__InceptionV3__Mixed_6a__Branch_1__Conv2d_1a_1x1__BatchNorm__FusedBatchNorm"
  batch_norm_param {
    use_global_stats: true
    eps: 0.0010000000475
  }
}
layer {
  name: "InceptionV3__InceptionV3__Mixed_6a__Branch_1__Conv2d_1a_1x1__BatchNorm__FusedBatchNorm__scale"
  type: "Scale"
  bottom: "InceptionV3__InceptionV3__Mixed_6a__Branch_1__Conv2d_1a_1x1__BatchNorm__FusedBatchNorm"
  top: "InceptionV3__InceptionV3__Mixed_6a__Branch_1__Conv2d_1a_1x1__BatchNorm__FusedBatchNorm__scale"
  scale_param {
    bias_term: true
  }
}
layer {
  name: "InceptionV3__InceptionV3__Mixed_6a__Branch_1__Conv2d_1a_1x1__Relu"
  type: "ReLU"
  bottom: "InceptionV3__InceptionV3__Mixed_6a__Branch_1__Conv2d_1a_1x1__BatchNorm__FusedBatchNorm__scale"
  top: "InceptionV3__InceptionV3__Mixed_6a__Branch_1__Conv2d_1a_1x1__Relu"
}
layer {
  name: "InceptionV3__InceptionV3__Mixed_6a__concat"
  type: "Concat"
  bottom: "InceptionV3__InceptionV3__Mixed_6a__Branch_0__Conv2d_1a_1x1__Relu"
  bottom: "InceptionV3__InceptionV3__Mixed_6a__Branch_1__Conv2d_1a_1x1__Relu"
  bottom: "InceptionV3__InceptionV3__Mixed_6a__Branch_2__MaxPool_1a_3x3__MaxPool"
  top: "InceptionV3__InceptionV3__Mixed_6a__concat"
  concat_param {
    axis: 1
  }
}
layer {
  name: "InceptionV3__InceptionV3__Mixed_6b__Branch_0__Conv2d_0a_1x1__Conv2D"
  type: "Convolution"
  bottom: "InceptionV3__InceptionV3__Mixed_6a__concat"
  top: "InceptionV3__InceptionV3__Mixed_6b__Branch_0__Conv2d_0a_1x1__Conv2D"
  convolution_param {
    num_output: 192
    bias_term: false
    pad_h: 0
    pad_w: 0
    kernel_h: 1
    kernel_w: 1
    stride_h: 1
    stride_w: 1
    pad_type: 1
  }
}
layer {
  name: "InceptionV3__InceptionV3__Mixed_6b__Branch_1__Conv2d_0a_1x1__Conv2D"
  type: "Convolution"
  bottom: "InceptionV3__InceptionV3__Mixed_6a__concat"
  top: "InceptionV3__InceptionV3__Mixed_6b__Branch_1__Conv2d_0a_1x1__Conv2D"
  convolution_param {
    num_output: 128
    bias_term: false
    pad_h: 0
    pad_w: 0
    kernel_h: 1
    kernel_w: 1
    stride_h: 1
    stride_w: 1
    pad_type: 1
  }
}
layer {
  name: "InceptionV3__InceptionV3__Mixed_6b__Branch_2__Conv2d_0a_1x1__Conv2D"
  type: "Convolution"
  bottom: "InceptionV3__InceptionV3__Mixed_6a__concat"
  top: "InceptionV3__InceptionV3__Mixed_6b__Branch_2__Conv2d_0a_1x1__Conv2D"
  convolution_param {
    num_output: 128
    bias_term: false
    pad_h: 0
    pad_w: 0
    kernel_h: 1
    kernel_w: 1
    stride_h: 1
    stride_w: 1
    pad_type: 1
  }
}
layer {
  name: "InceptionV3__InceptionV3__Mixed_6b__Branch_3__AvgPool_0a_3x3__AvgPool"
  type: "Pooling"
  bottom: "InceptionV3__InceptionV3__Mixed_6a__concat"
  top: "InceptionV3__InceptionV3__Mixed_6b__Branch_3__AvgPool_0a_3x3__AvgPool"
  pooling_param {
    pool: AVE_TF
    kernel_h: 3
    kernel_w: 3
    stride_h: 1
    stride_w: 1
    pad_h: 1
    pad_w: 1
    pad_type: 1
  }
}
layer {
  name: "InceptionV3__InceptionV3__Mixed_6b__Branch_0__Conv2d_0a_1x1__BatchNorm__FusedBatchNorm"
  type: "BatchNorm"
  bottom: "InceptionV3__InceptionV3__Mixed_6b__Branch_0__Conv2d_0a_1x1__Conv2D"
  top: "InceptionV3__InceptionV3__Mixed_6b__Branch_0__Conv2d_0a_1x1__BatchNorm__FusedBatchNorm"
  batch_norm_param {
    use_global_stats: true
    eps: 0.0010000000475
  }
}
layer {
  name: "InceptionV3__InceptionV3__Mixed_6b__Branch_0__Conv2d_0a_1x1__BatchNorm__FusedBatchNorm__scale"
  type: "Scale"
  bottom: "InceptionV3__InceptionV3__Mixed_6b__Branch_0__Conv2d_0a_1x1__BatchNorm__FusedBatchNorm"
  top: "InceptionV3__InceptionV3__Mixed_6b__Branch_0__Conv2d_0a_1x1__BatchNorm__FusedBatchNorm__scale"
  scale_param {
    bias_term: true
  }
}
layer {
  name: "InceptionV3__InceptionV3__Mixed_6b__Branch_1__Conv2d_0a_1x1__BatchNorm__FusedBatchNorm"
  type: "BatchNorm"
  bottom: "InceptionV3__InceptionV3__Mixed_6b__Branch_1__Conv2d_0a_1x1__Conv2D"
  top: "InceptionV3__InceptionV3__Mixed_6b__Branch_1__Conv2d_0a_1x1__BatchNorm__FusedBatchNorm"
  batch_norm_param {
    use_global_stats: true
    eps: 0.0010000000475
  }
}
layer {
  name: "InceptionV3__InceptionV3__Mixed_6b__Branch_1__Conv2d_0a_1x1__BatchNorm__FusedBatchNorm__scale"
  type: "Scale"
  bottom: "InceptionV3__InceptionV3__Mixed_6b__Branch_1__Conv2d_0a_1x1__BatchNorm__FusedBatchNorm"
  top: "InceptionV3__InceptionV3__Mixed_6b__Branch_1__Conv2d_0a_1x1__BatchNorm__FusedBatchNorm__scale"
  scale_param {
    bias_term: true
  }
}
layer {
  name: "InceptionV3__InceptionV3__Mixed_6b__Branch_2__Conv2d_0a_1x1__BatchNorm__FusedBatchNorm"
  type: "BatchNorm"
  bottom: "InceptionV3__InceptionV3__Mixed_6b__Branch_2__Conv2d_0a_1x1__Conv2D"
  top: "InceptionV3__InceptionV3__Mixed_6b__Branch_2__Conv2d_0a_1x1__BatchNorm__FusedBatchNorm"
  batch_norm_param {
    use_global_stats: true
    eps: 0.0010000000475
  }
}
layer {
  name: "InceptionV3__InceptionV3__Mixed_6b__Branch_2__Conv2d_0a_1x1__BatchNorm__FusedBatchNorm__scale"
  type: "Scale"
  bottom: "InceptionV3__InceptionV3__Mixed_6b__Branch_2__Conv2d_0a_1x1__BatchNorm__FusedBatchNorm"
  top: "InceptionV3__InceptionV3__Mixed_6b__Branch_2__Conv2d_0a_1x1__BatchNorm__FusedBatchNorm__scale"
  scale_param {
    bias_term: true
  }
}
layer {
  name: "InceptionV3__InceptionV3__Mixed_6b__Branch_3__Conv2d_0b_1x1__Conv2D"
  type: "Convolution"
  bottom: "InceptionV3__InceptionV3__Mixed_6b__Branch_3__AvgPool_0a_3x3__AvgPool"
  top: "InceptionV3__InceptionV3__Mixed_6b__Branch_3__Conv2d_0b_1x1__Conv2D"
  convolution_param {
    num_output: 192
    bias_term: false
    pad_h: 0
    pad_w: 0
    kernel_h: 1
    kernel_w: 1
    stride_h: 1
    stride_w: 1
    pad_type: 1
  }
}
layer {
  name: "InceptionV3__InceptionV3__Mixed_6b__Branch_0__Conv2d_0a_1x1__Relu"
  type: "ReLU"
  bottom: "InceptionV3__InceptionV3__Mixed_6b__Branch_0__Conv2d_0a_1x1__BatchNorm__FusedBatchNorm__scale"
  top: "InceptionV3__InceptionV3__Mixed_6b__Branch_0__Conv2d_0a_1x1__Relu"
}
layer {
  name: "InceptionV3__InceptionV3__Mixed_6b__Branch_1__Conv2d_0a_1x1__Relu"
  type: "ReLU"
  bottom: "InceptionV3__InceptionV3__Mixed_6b__Branch_1__Conv2d_0a_1x1__BatchNorm__FusedBatchNorm__scale"
  top: "InceptionV3__InceptionV3__Mixed_6b__Branch_1__Conv2d_0a_1x1__Relu"
}
layer {
  name: "InceptionV3__InceptionV3__Mixed_6b__Branch_2__Conv2d_0a_1x1__Relu"
  type: "ReLU"
  bottom: "InceptionV3__InceptionV3__Mixed_6b__Branch_2__Conv2d_0a_1x1__BatchNorm__FusedBatchNorm__scale"
  top: "InceptionV3__InceptionV3__Mixed_6b__Branch_2__Conv2d_0a_1x1__Relu"
}
layer {
  name: "InceptionV3__InceptionV3__Mixed_6b__Branch_3__Conv2d_0b_1x1__BatchNorm__FusedBatchNorm"
  type: "BatchNorm"
  bottom: "InceptionV3__InceptionV3__Mixed_6b__Branch_3__Conv2d_0b_1x1__Conv2D"
  top: "InceptionV3__InceptionV3__Mixed_6b__Branch_3__Conv2d_0b_1x1__BatchNorm__FusedBatchNorm"
  batch_norm_param {
    use_global_stats: true
    eps: 0.0010000000475
  }
}
layer {
  name: "InceptionV3__InceptionV3__Mixed_6b__Branch_3__Conv2d_0b_1x1__BatchNorm__FusedBatchNorm__scale"
  type: "Scale"
  bottom: "InceptionV3__InceptionV3__Mixed_6b__Branch_3__Conv2d_0b_1x1__BatchNorm__FusedBatchNorm"
  top: "InceptionV3__InceptionV3__Mixed_6b__Branch_3__Conv2d_0b_1x1__BatchNorm__FusedBatchNorm__scale"
  scale_param {
    bias_term: true
  }
}
layer {
  name: "InceptionV3__InceptionV3__Mixed_6b__Branch_1__Conv2d_0b_1x7__Conv2D"
  type: "Convolution"
  bottom: "InceptionV3__InceptionV3__Mixed_6b__Branch_1__Conv2d_0a_1x1__Relu"
  top: "InceptionV3__InceptionV3__Mixed_6b__Branch_1__Conv2d_0b_1x7__Conv2D"
  convolution_param {
    num_output: 128
    bias_term: false
    pad_h: 0
    pad_w: 3
    kernel_h: 1
    kernel_w: 7
    stride_h: 1
    stride_w: 1
    pad_type: 1
  }
}
layer {
  name: "InceptionV3__InceptionV3__Mixed_6b__Branch_2__Conv2d_0b_7x1__Conv2D"
  type: "Convolution"
  bottom: "InceptionV3__InceptionV3__Mixed_6b__Branch_2__Conv2d_0a_1x1__Relu"
  top: "InceptionV3__InceptionV3__Mixed_6b__Branch_2__Conv2d_0b_7x1__Conv2D"
  convolution_param {
    num_output: 128
    bias_term: false
    pad_h: 3
    pad_w: 0
    kernel_h: 7
    kernel_w: 1
    stride_h: 1
    stride_w: 1
    pad_type: 1
  }
}
layer {
  name: "InceptionV3__InceptionV3__Mixed_6b__Branch_3__Conv2d_0b_1x1__Relu"
  type: "ReLU"
  bottom: "InceptionV3__InceptionV3__Mixed_6b__Branch_3__Conv2d_0b_1x1__BatchNorm__FusedBatchNorm__scale"
  top: "InceptionV3__InceptionV3__Mixed_6b__Branch_3__Conv2d_0b_1x1__Relu"
}
layer {
  name: "InceptionV3__InceptionV3__Mixed_6b__Branch_1__Conv2d_0b_1x7__BatchNorm__FusedBatchNorm"
  type: "BatchNorm"
  bottom: "InceptionV3__InceptionV3__Mixed_6b__Branch_1__Conv2d_0b_1x7__Conv2D"
  top: "InceptionV3__InceptionV3__Mixed_6b__Branch_1__Conv2d_0b_1x7__BatchNorm__FusedBatchNorm"
  batch_norm_param {
    use_global_stats: true
    eps: 0.0010000000475
  }
}
layer {
  name: "InceptionV3__InceptionV3__Mixed_6b__Branch_1__Conv2d_0b_1x7__BatchNorm__FusedBatchNorm__scale"
  type: "Scale"
  bottom: "InceptionV3__InceptionV3__Mixed_6b__Branch_1__Conv2d_0b_1x7__BatchNorm__FusedBatchNorm"
  top: "InceptionV3__InceptionV3__Mixed_6b__Branch_1__Conv2d_0b_1x7__BatchNorm__FusedBatchNorm__scale"
  scale_param {
    bias_term: true
  }
}
layer {
  name: "InceptionV3__InceptionV3__Mixed_6b__Branch_2__Conv2d_0b_7x1__BatchNorm__FusedBatchNorm"
  type: "BatchNorm"
  bottom: "InceptionV3__InceptionV3__Mixed_6b__Branch_2__Conv2d_0b_7x1__Conv2D"
  top: "InceptionV3__InceptionV3__Mixed_6b__Branch_2__Conv2d_0b_7x1__BatchNorm__FusedBatchNorm"
  batch_norm_param {
    use_global_stats: true
    eps: 0.0010000000475
  }
}
layer {
  name: "InceptionV3__InceptionV3__Mixed_6b__Branch_2__Conv2d_0b_7x1__BatchNorm__FusedBatchNorm__scale"
  type: "Scale"
  bottom: "InceptionV3__InceptionV3__Mixed_6b__Branch_2__Conv2d_0b_7x1__BatchNorm__FusedBatchNorm"
  top: "InceptionV3__InceptionV3__Mixed_6b__Branch_2__Conv2d_0b_7x1__BatchNorm__FusedBatchNorm__scale"
  scale_param {
    bias_term: true
  }
}
layer {
  name: "InceptionV3__InceptionV3__Mixed_6b__Branch_1__Conv2d_0b_1x7__Relu"
  type: "ReLU"
  bottom: "InceptionV3__InceptionV3__Mixed_6b__Branch_1__Conv2d_0b_1x7__BatchNorm__FusedBatchNorm__scale"
  top: "InceptionV3__InceptionV3__Mixed_6b__Branch_1__Conv2d_0b_1x7__Relu"
}
layer {
  name: "InceptionV3__InceptionV3__Mixed_6b__Branch_2__Conv2d_0b_7x1__Relu"
  type: "ReLU"
  bottom: "InceptionV3__InceptionV3__Mixed_6b__Branch_2__Conv2d_0b_7x1__BatchNorm__FusedBatchNorm__scale"
  top: "InceptionV3__InceptionV3__Mixed_6b__Branch_2__Conv2d_0b_7x1__Relu"
}
layer {
  name: "InceptionV3__InceptionV3__Mixed_6b__Branch_1__Conv2d_0c_7x1__Conv2D"
  type: "Convolution"
  bottom: "InceptionV3__InceptionV3__Mixed_6b__Branch_1__Conv2d_0b_1x7__Relu"
  top: "InceptionV3__InceptionV3__Mixed_6b__Branch_1__Conv2d_0c_7x1__Conv2D"
  convolution_param {
    num_output: 192
    bias_term: false
    pad_h: 3
    pad_w: 0
    kernel_h: 7
    kernel_w: 1
    stride_h: 1
    stride_w: 1
    pad_type: 1
  }
}
layer {
  name: "InceptionV3__InceptionV3__Mixed_6b__Branch_2__Conv2d_0c_1x7__Conv2D"
  type: "Convolution"
  bottom: "InceptionV3__InceptionV3__Mixed_6b__Branch_2__Conv2d_0b_7x1__Relu"
  top: "InceptionV3__InceptionV3__Mixed_6b__Branch_2__Conv2d_0c_1x7__Conv2D"
  convolution_param {
    num_output: 128
    bias_term: false
    pad_h: 0
    pad_w: 3
    kernel_h: 1
    kernel_w: 7
    stride_h: 1
    stride_w: 1
    pad_type: 1
  }
}
layer {
  name: "InceptionV3__InceptionV3__Mixed_6b__Branch_1__Conv2d_0c_7x1__BatchNorm__FusedBatchNorm"
  type: "BatchNorm"
  bottom: "InceptionV3__InceptionV3__Mixed_6b__Branch_1__Conv2d_0c_7x1__Conv2D"
  top: "InceptionV3__InceptionV3__Mixed_6b__Branch_1__Conv2d_0c_7x1__BatchNorm__FusedBatchNorm"
  batch_norm_param {
    use_global_stats: true
    eps: 0.0010000000475
  }
}
layer {
  name: "InceptionV3__InceptionV3__Mixed_6b__Branch_1__Conv2d_0c_7x1__BatchNorm__FusedBatchNorm__scale"
  type: "Scale"
  bottom: "InceptionV3__InceptionV3__Mixed_6b__Branch_1__Conv2d_0c_7x1__BatchNorm__FusedBatchNorm"
  top: "InceptionV3__InceptionV3__Mixed_6b__Branch_1__Conv2d_0c_7x1__BatchNorm__FusedBatchNorm__scale"
  scale_param {
    bias_term: true
  }
}
layer {
  name: "InceptionV3__InceptionV3__Mixed_6b__Branch_2__Conv2d_0c_1x7__BatchNorm__FusedBatchNorm"
  type: "BatchNorm"
  bottom: "InceptionV3__InceptionV3__Mixed_6b__Branch_2__Conv2d_0c_1x7__Conv2D"
  top: "InceptionV3__InceptionV3__Mixed_6b__Branch_2__Conv2d_0c_1x7__BatchNorm__FusedBatchNorm"
  batch_norm_param {
    use_global_stats: true
    eps: 0.0010000000475
  }
}
layer {
  name: "InceptionV3__InceptionV3__Mixed_6b__Branch_2__Conv2d_0c_1x7__BatchNorm__FusedBatchNorm__scale"
  type: "Scale"
  bottom: "InceptionV3__InceptionV3__Mixed_6b__Branch_2__Conv2d_0c_1x7__BatchNorm__FusedBatchNorm"
  top: "InceptionV3__InceptionV3__Mixed_6b__Branch_2__Conv2d_0c_1x7__BatchNorm__FusedBatchNorm__scale"
  scale_param {
    bias_term: true
  }
}
layer {
  name: "InceptionV3__InceptionV3__Mixed_6b__Branch_1__Conv2d_0c_7x1__Relu"
  type: "ReLU"
  bottom: "InceptionV3__InceptionV3__Mixed_6b__Branch_1__Conv2d_0c_7x1__BatchNorm__FusedBatchNorm__scale"
  top: "InceptionV3__InceptionV3__Mixed_6b__Branch_1__Conv2d_0c_7x1__Relu"
}
layer {
  name: "InceptionV3__InceptionV3__Mixed_6b__Branch_2__Conv2d_0c_1x7__Relu"
  type: "ReLU"
  bottom: "InceptionV3__InceptionV3__Mixed_6b__Branch_2__Conv2d_0c_1x7__BatchNorm__FusedBatchNorm__scale"
  top: "InceptionV3__InceptionV3__Mixed_6b__Branch_2__Conv2d_0c_1x7__Relu"
}
layer {
  name: "InceptionV3__InceptionV3__Mixed_6b__Branch_2__Conv2d_0d_7x1__Conv2D"
  type: "Convolution"
  bottom: "InceptionV3__InceptionV3__Mixed_6b__Branch_2__Conv2d_0c_1x7__Relu"
  top: "InceptionV3__InceptionV3__Mixed_6b__Branch_2__Conv2d_0d_7x1__Conv2D"
  convolution_param {
    num_output: 128
    bias_term: false
    pad_h: 3
    pad_w: 0
    kernel_h: 7
    kernel_w: 1
    stride_h: 1
    stride_w: 1
    pad_type: 1
  }
}
layer {
  name: "InceptionV3__InceptionV3__Mixed_6b__Branch_2__Conv2d_0d_7x1__BatchNorm__FusedBatchNorm"
  type: "BatchNorm"
  bottom: "InceptionV3__InceptionV3__Mixed_6b__Branch_2__Conv2d_0d_7x1__Conv2D"
  top: "InceptionV3__InceptionV3__Mixed_6b__Branch_2__Conv2d_0d_7x1__BatchNorm__FusedBatchNorm"
  batch_norm_param {
    use_global_stats: true
    eps: 0.0010000000475
  }
}
layer {
  name: "InceptionV3__InceptionV3__Mixed_6b__Branch_2__Conv2d_0d_7x1__BatchNorm__FusedBatchNorm__scale"
  type: "Scale"
  bottom: "InceptionV3__InceptionV3__Mixed_6b__Branch_2__Conv2d_0d_7x1__BatchNorm__FusedBatchNorm"
  top: "InceptionV3__InceptionV3__Mixed_6b__Branch_2__Conv2d_0d_7x1__BatchNorm__FusedBatchNorm__scale"
  scale_param {
    bias_term: true
  }
}
layer {
  name: "InceptionV3__InceptionV3__Mixed_6b__Branch_2__Conv2d_0d_7x1__Relu"
  type: "ReLU"
  bottom: "InceptionV3__InceptionV3__Mixed_6b__Branch_2__Conv2d_0d_7x1__BatchNorm__FusedBatchNorm__scale"
  top: "InceptionV3__InceptionV3__Mixed_6b__Branch_2__Conv2d_0d_7x1__Relu"
}
layer {
  name: "InceptionV3__InceptionV3__Mixed_6b__Branch_2__Conv2d_0e_1x7__Conv2D"
  type: "Convolution"
  bottom: "InceptionV3__InceptionV3__Mixed_6b__Branch_2__Conv2d_0d_7x1__Relu"
  top: "InceptionV3__InceptionV3__Mixed_6b__Branch_2__Conv2d_0e_1x7__Conv2D"
  convolution_param {
    num_output: 192
    bias_term: false
    pad_h: 0
    pad_w: 3
    kernel_h: 1
    kernel_w: 7
    stride_h: 1
    stride_w: 1
    pad_type: 1
  }
}
layer {
  name: "InceptionV3__InceptionV3__Mixed_6b__Branch_2__Conv2d_0e_1x7__BatchNorm__FusedBatchNorm"
  type: "BatchNorm"
  bottom: "InceptionV3__InceptionV3__Mixed_6b__Branch_2__Conv2d_0e_1x7__Conv2D"
  top: "InceptionV3__InceptionV3__Mixed_6b__Branch_2__Conv2d_0e_1x7__BatchNorm__FusedBatchNorm"
  batch_norm_param {
    use_global_stats: true
    eps: 0.0010000000475
  }
}
layer {
  name: "InceptionV3__InceptionV3__Mixed_6b__Branch_2__Conv2d_0e_1x7__BatchNorm__FusedBatchNorm__scale"
  type: "Scale"
  bottom: "InceptionV3__InceptionV3__Mixed_6b__Branch_2__Conv2d_0e_1x7__BatchNorm__FusedBatchNorm"
  top: "InceptionV3__InceptionV3__Mixed_6b__Branch_2__Conv2d_0e_1x7__BatchNorm__FusedBatchNorm__scale"
  scale_param {
    bias_term: true
  }
}
layer {
  name: "InceptionV3__InceptionV3__Mixed_6b__Branch_2__Conv2d_0e_1x7__Relu"
  type: "ReLU"
  bottom: "InceptionV3__InceptionV3__Mixed_6b__Branch_2__Conv2d_0e_1x7__BatchNorm__FusedBatchNorm__scale"
  top: "InceptionV3__InceptionV3__Mixed_6b__Branch_2__Conv2d_0e_1x7__Relu"
}
layer {
  name: "InceptionV3__InceptionV3__Mixed_6b__concat"
  type: "Concat"
  bottom: "InceptionV3__InceptionV3__Mixed_6b__Branch_0__Conv2d_0a_1x1__Relu"
  bottom: "InceptionV3__InceptionV3__Mixed_6b__Branch_1__Conv2d_0c_7x1__Relu"
  bottom: "InceptionV3__InceptionV3__Mixed_6b__Branch_2__Conv2d_0e_1x7__Relu"
  bottom: "InceptionV3__InceptionV3__Mixed_6b__Branch_3__Conv2d_0b_1x1__Relu"
  top: "InceptionV3__InceptionV3__Mixed_6b__concat"
  concat_param {
    axis: 1
  }
}
layer {
  name: "InceptionV3__InceptionV3__Mixed_6c__Branch_0__Conv2d_0a_1x1__Conv2D"
  type: "Convolution"
  bottom: "InceptionV3__InceptionV3__Mixed_6b__concat"
  top: "InceptionV3__InceptionV3__Mixed_6c__Branch_0__Conv2d_0a_1x1__Conv2D"
  convolution_param {
    num_output: 192
    bias_term: false
    pad_h: 0
    pad_w: 0
    kernel_h: 1
    kernel_w: 1
    stride_h: 1
    stride_w: 1
    pad_type: 1
  }
}
layer {
  name: "InceptionV3__InceptionV3__Mixed_6c__Branch_1__Conv2d_0a_1x1__Conv2D"
  type: "Convolution"
  bottom: "InceptionV3__InceptionV3__Mixed_6b__concat"
  top: "InceptionV3__InceptionV3__Mixed_6c__Branch_1__Conv2d_0a_1x1__Conv2D"
  convolution_param {
    num_output: 160
    bias_term: false
    pad_h: 0
    pad_w: 0
    kernel_h: 1
    kernel_w: 1
    stride_h: 1
    stride_w: 1
    pad_type: 1
  }
}
layer {
  name: "InceptionV3__InceptionV3__Mixed_6c__Branch_2__Conv2d_0a_1x1__Conv2D"
  type: "Convolution"
  bottom: "InceptionV3__InceptionV3__Mixed_6b__concat"
  top: "InceptionV3__InceptionV3__Mixed_6c__Branch_2__Conv2d_0a_1x1__Conv2D"
  convolution_param {
    num_output: 160
    bias_term: false
    pad_h: 0
    pad_w: 0
    kernel_h: 1
    kernel_w: 1
    stride_h: 1
    stride_w: 1
    pad_type: 1
  }
}
layer {
  name: "InceptionV3__InceptionV3__Mixed_6c__Branch_3__AvgPool_0a_3x3__AvgPool"
  type: "Pooling"
  bottom: "InceptionV3__InceptionV3__Mixed_6b__concat"
  top: "InceptionV3__InceptionV3__Mixed_6c__Branch_3__AvgPool_0a_3x3__AvgPool"
  pooling_param {
    pool: AVE_TF
    kernel_h: 3
    kernel_w: 3
    stride_h: 1
    stride_w: 1
    pad_h: 1
    pad_w: 1
    pad_type: 1
  }
}
layer {
  name: "InceptionV3__InceptionV3__Mixed_6c__Branch_0__Conv2d_0a_1x1__BatchNorm__FusedBatchNorm"
  type: "BatchNorm"
  bottom: "InceptionV3__InceptionV3__Mixed_6c__Branch_0__Conv2d_0a_1x1__Conv2D"
  top: "InceptionV3__InceptionV3__Mixed_6c__Branch_0__Conv2d_0a_1x1__BatchNorm__FusedBatchNorm"
  batch_norm_param {
    use_global_stats: true
    eps: 0.0010000000475
  }
}
layer {
  name: "InceptionV3__InceptionV3__Mixed_6c__Branch_0__Conv2d_0a_1x1__BatchNorm__FusedBatchNorm__scale"
  type: "Scale"
  bottom: "InceptionV3__InceptionV3__Mixed_6c__Branch_0__Conv2d_0a_1x1__BatchNorm__FusedBatchNorm"
  top: "InceptionV3__InceptionV3__Mixed_6c__Branch_0__Conv2d_0a_1x1__BatchNorm__FusedBatchNorm__scale"
  scale_param {
    bias_term: true
  }
}
layer {
  name: "InceptionV3__InceptionV3__Mixed_6c__Branch_1__Conv2d_0a_1x1__BatchNorm__FusedBatchNorm"
  type: "BatchNorm"
  bottom: "InceptionV3__InceptionV3__Mixed_6c__Branch_1__Conv2d_0a_1x1__Conv2D"
  top: "InceptionV3__InceptionV3__Mixed_6c__Branch_1__Conv2d_0a_1x1__BatchNorm__FusedBatchNorm"
  batch_norm_param {
    use_global_stats: true
    eps: 0.0010000000475
  }
}
layer {
  name: "InceptionV3__InceptionV3__Mixed_6c__Branch_1__Conv2d_0a_1x1__BatchNorm__FusedBatchNorm__scale"
  type: "Scale"
  bottom: "InceptionV3__InceptionV3__Mixed_6c__Branch_1__Conv2d_0a_1x1__BatchNorm__FusedBatchNorm"
  top: "InceptionV3__InceptionV3__Mixed_6c__Branch_1__Conv2d_0a_1x1__BatchNorm__FusedBatchNorm__scale"
  scale_param {
    bias_term: true
  }
}
layer {
  name: "InceptionV3__InceptionV3__Mixed_6c__Branch_2__Conv2d_0a_1x1__BatchNorm__FusedBatchNorm"
  type: "BatchNorm"
  bottom: "InceptionV3__InceptionV3__Mixed_6c__Branch_2__Conv2d_0a_1x1__Conv2D"
  top: "InceptionV3__InceptionV3__Mixed_6c__Branch_2__Conv2d_0a_1x1__BatchNorm__FusedBatchNorm"
  batch_norm_param {
    use_global_stats: true
    eps: 0.0010000000475
  }
}
layer {
  name: "InceptionV3__InceptionV3__Mixed_6c__Branch_2__Conv2d_0a_1x1__BatchNorm__FusedBatchNorm__scale"
  type: "Scale"
  bottom: "InceptionV3__InceptionV3__Mixed_6c__Branch_2__Conv2d_0a_1x1__BatchNorm__FusedBatchNorm"
  top: "InceptionV3__InceptionV3__Mixed_6c__Branch_2__Conv2d_0a_1x1__BatchNorm__FusedBatchNorm__scale"
  scale_param {
    bias_term: true
  }
}
layer {
  name: "InceptionV3__InceptionV3__Mixed_6c__Branch_3__Conv2d_0b_1x1__Conv2D"
  type: "Convolution"
  bottom: "InceptionV3__InceptionV3__Mixed_6c__Branch_3__AvgPool_0a_3x3__AvgPool"
  top: "InceptionV3__InceptionV3__Mixed_6c__Branch_3__Conv2d_0b_1x1__Conv2D"
  convolution_param {
    num_output: 192
    bias_term: false
    pad_h: 0
    pad_w: 0
    kernel_h: 1
    kernel_w: 1
    stride_h: 1
    stride_w: 1
    pad_type: 1
  }
}
layer {
  name: "InceptionV3__InceptionV3__Mixed_6c__Branch_0__Conv2d_0a_1x1__Relu"
  type: "ReLU"
  bottom: "InceptionV3__InceptionV3__Mixed_6c__Branch_0__Conv2d_0a_1x1__BatchNorm__FusedBatchNorm__scale"
  top: "InceptionV3__InceptionV3__Mixed_6c__Branch_0__Conv2d_0a_1x1__Relu"
}
layer {
  name: "InceptionV3__InceptionV3__Mixed_6c__Branch_1__Conv2d_0a_1x1__Relu"
  type: "ReLU"
  bottom: "InceptionV3__InceptionV3__Mixed_6c__Branch_1__Conv2d_0a_1x1__BatchNorm__FusedBatchNorm__scale"
  top: "InceptionV3__InceptionV3__Mixed_6c__Branch_1__Conv2d_0a_1x1__Relu"
}
layer {
  name: "InceptionV3__InceptionV3__Mixed_6c__Branch_2__Conv2d_0a_1x1__Relu"
  type: "ReLU"
  bottom: "InceptionV3__InceptionV3__Mixed_6c__Branch_2__Conv2d_0a_1x1__BatchNorm__FusedBatchNorm__scale"
  top: "InceptionV3__InceptionV3__Mixed_6c__Branch_2__Conv2d_0a_1x1__Relu"
}
layer {
  name: "InceptionV3__InceptionV3__Mixed_6c__Branch_3__Conv2d_0b_1x1__BatchNorm__FusedBatchNorm"
  type: "BatchNorm"
  bottom: "InceptionV3__InceptionV3__Mixed_6c__Branch_3__Conv2d_0b_1x1__Conv2D"
  top: "InceptionV3__InceptionV3__Mixed_6c__Branch_3__Conv2d_0b_1x1__BatchNorm__FusedBatchNorm"
  batch_norm_param {
    use_global_stats: true
    eps: 0.0010000000475
  }
}
layer {
  name: "InceptionV3__InceptionV3__Mixed_6c__Branch_3__Conv2d_0b_1x1__BatchNorm__FusedBatchNorm__scale"
  type: "Scale"
  bottom: "InceptionV3__InceptionV3__Mixed_6c__Branch_3__Conv2d_0b_1x1__BatchNorm__FusedBatchNorm"
  top: "InceptionV3__InceptionV3__Mixed_6c__Branch_3__Conv2d_0b_1x1__BatchNorm__FusedBatchNorm__scale"
  scale_param {
    bias_term: true
  }
}
layer {
  name: "InceptionV3__InceptionV3__Mixed_6c__Branch_1__Conv2d_0b_1x7__Conv2D"
  type: "Convolution"
  bottom: "InceptionV3__InceptionV3__Mixed_6c__Branch_1__Conv2d_0a_1x1__Relu"
  top: "InceptionV3__InceptionV3__Mixed_6c__Branch_1__Conv2d_0b_1x7__Conv2D"
  convolution_param {
    num_output: 160
    bias_term: false
    pad_h: 0
    pad_w: 3
    kernel_h: 1
    kernel_w: 7
    stride_h: 1
    stride_w: 1
    pad_type: 1
  }
}
layer {
  name: "InceptionV3__InceptionV3__Mixed_6c__Branch_2__Conv2d_0b_7x1__Conv2D"
  type: "Convolution"
  bottom: "InceptionV3__InceptionV3__Mixed_6c__Branch_2__Conv2d_0a_1x1__Relu"
  top: "InceptionV3__InceptionV3__Mixed_6c__Branch_2__Conv2d_0b_7x1__Conv2D"
  convolution_param {
    num_output: 160
    bias_term: false
    pad_h: 3
    pad_w: 0
    kernel_h: 7
    kernel_w: 1
    stride_h: 1
    stride_w: 1
    pad_type: 1
  }
}
layer {
  name: "InceptionV3__InceptionV3__Mixed_6c__Branch_3__Conv2d_0b_1x1__Relu"
  type: "ReLU"
  bottom: "InceptionV3__InceptionV3__Mixed_6c__Branch_3__Conv2d_0b_1x1__BatchNorm__FusedBatchNorm__scale"
  top: "InceptionV3__InceptionV3__Mixed_6c__Branch_3__Conv2d_0b_1x1__Relu"
}
layer {
  name: "InceptionV3__InceptionV3__Mixed_6c__Branch_1__Conv2d_0b_1x7__BatchNorm__FusedBatchNorm"
  type: "BatchNorm"
  bottom: "InceptionV3__InceptionV3__Mixed_6c__Branch_1__Conv2d_0b_1x7__Conv2D"
  top: "InceptionV3__InceptionV3__Mixed_6c__Branch_1__Conv2d_0b_1x7__BatchNorm__FusedBatchNorm"
  batch_norm_param {
    use_global_stats: true
    eps: 0.0010000000475
  }
}
layer {
  name: "InceptionV3__InceptionV3__Mixed_6c__Branch_1__Conv2d_0b_1x7__BatchNorm__FusedBatchNorm__scale"
  type: "Scale"
  bottom: "InceptionV3__InceptionV3__Mixed_6c__Branch_1__Conv2d_0b_1x7__BatchNorm__FusedBatchNorm"
  top: "InceptionV3__InceptionV3__Mixed_6c__Branch_1__Conv2d_0b_1x7__BatchNorm__FusedBatchNorm__scale"
  scale_param {
    bias_term: true
  }
}
layer {
  name: "InceptionV3__InceptionV3__Mixed_6c__Branch_2__Conv2d_0b_7x1__BatchNorm__FusedBatchNorm"
  type: "BatchNorm"
  bottom: "InceptionV3__InceptionV3__Mixed_6c__Branch_2__Conv2d_0b_7x1__Conv2D"
  top: "InceptionV3__InceptionV3__Mixed_6c__Branch_2__Conv2d_0b_7x1__BatchNorm__FusedBatchNorm"
  batch_norm_param {
    use_global_stats: true
    eps: 0.0010000000475
  }
}
layer {
  name: "InceptionV3__InceptionV3__Mixed_6c__Branch_2__Conv2d_0b_7x1__BatchNorm__FusedBatchNorm__scale"
  type: "Scale"
  bottom: "InceptionV3__InceptionV3__Mixed_6c__Branch_2__Conv2d_0b_7x1__BatchNorm__FusedBatchNorm"
  top: "InceptionV3__InceptionV3__Mixed_6c__Branch_2__Conv2d_0b_7x1__BatchNorm__FusedBatchNorm__scale"
  scale_param {
    bias_term: true
  }
}
layer {
  name: "InceptionV3__InceptionV3__Mixed_6c__Branch_1__Conv2d_0b_1x7__Relu"
  type: "ReLU"
  bottom: "InceptionV3__InceptionV3__Mixed_6c__Branch_1__Conv2d_0b_1x7__BatchNorm__FusedBatchNorm__scale"
  top: "InceptionV3__InceptionV3__Mixed_6c__Branch_1__Conv2d_0b_1x7__Relu"
}
layer {
  name: "InceptionV3__InceptionV3__Mixed_6c__Branch_2__Conv2d_0b_7x1__Relu"
  type: "ReLU"
  bottom: "InceptionV3__InceptionV3__Mixed_6c__Branch_2__Conv2d_0b_7x1__BatchNorm__FusedBatchNorm__scale"
  top: "InceptionV3__InceptionV3__Mixed_6c__Branch_2__Conv2d_0b_7x1__Relu"
}
layer {
  name: "InceptionV3__InceptionV3__Mixed_6c__Branch_1__Conv2d_0c_7x1__Conv2D"
  type: "Convolution"
  bottom: "InceptionV3__InceptionV3__Mixed_6c__Branch_1__Conv2d_0b_1x7__Relu"
  top: "InceptionV3__InceptionV3__Mixed_6c__Branch_1__Conv2d_0c_7x1__Conv2D"
  convolution_param {
    num_output: 192
    bias_term: false
    pad_h: 3
    pad_w: 0
    kernel_h: 7
    kernel_w: 1
    stride_h: 1
    stride_w: 1
    pad_type: 1
  }
}
layer {
  name: "InceptionV3__InceptionV3__Mixed_6c__Branch_2__Conv2d_0c_1x7__Conv2D"
  type: "Convolution"
  bottom: "InceptionV3__InceptionV3__Mixed_6c__Branch_2__Conv2d_0b_7x1__Relu"
  top: "InceptionV3__InceptionV3__Mixed_6c__Branch_2__Conv2d_0c_1x7__Conv2D"
  convolution_param {
    num_output: 160
    bias_term: false
    pad_h: 0
    pad_w: 3
    kernel_h: 1
    kernel_w: 7
    stride_h: 1
    stride_w: 1
    pad_type: 1
  }
}
layer {
  name: "InceptionV3__InceptionV3__Mixed_6c__Branch_1__Conv2d_0c_7x1__BatchNorm__FusedBatchNorm"
  type: "BatchNorm"
  bottom: "InceptionV3__InceptionV3__Mixed_6c__Branch_1__Conv2d_0c_7x1__Conv2D"
  top: "InceptionV3__InceptionV3__Mixed_6c__Branch_1__Conv2d_0c_7x1__BatchNorm__FusedBatchNorm"
  batch_norm_param {
    use_global_stats: true
    eps: 0.0010000000475
  }
}
layer {
  name: "InceptionV3__InceptionV3__Mixed_6c__Branch_1__Conv2d_0c_7x1__BatchNorm__FusedBatchNorm__scale"
  type: "Scale"
  bottom: "InceptionV3__InceptionV3__Mixed_6c__Branch_1__Conv2d_0c_7x1__BatchNorm__FusedBatchNorm"
  top: "InceptionV3__InceptionV3__Mixed_6c__Branch_1__Conv2d_0c_7x1__BatchNorm__FusedBatchNorm__scale"
  scale_param {
    bias_term: true
  }
}
layer {
  name: "InceptionV3__InceptionV3__Mixed_6c__Branch_2__Conv2d_0c_1x7__BatchNorm__FusedBatchNorm"
  type: "BatchNorm"
  bottom: "InceptionV3__InceptionV3__Mixed_6c__Branch_2__Conv2d_0c_1x7__Conv2D"
  top: "InceptionV3__InceptionV3__Mixed_6c__Branch_2__Conv2d_0c_1x7__BatchNorm__FusedBatchNorm"
  batch_norm_param {
    use_global_stats: true
    eps: 0.0010000000475
  }
}
layer {
  name: "InceptionV3__InceptionV3__Mixed_6c__Branch_2__Conv2d_0c_1x7__BatchNorm__FusedBatchNorm__scale"
  type: "Scale"
  bottom: "InceptionV3__InceptionV3__Mixed_6c__Branch_2__Conv2d_0c_1x7__BatchNorm__FusedBatchNorm"
  top: "InceptionV3__InceptionV3__Mixed_6c__Branch_2__Conv2d_0c_1x7__BatchNorm__FusedBatchNorm__scale"
  scale_param {
    bias_term: true
  }
}
layer {
  name: "InceptionV3__InceptionV3__Mixed_6c__Branch_1__Conv2d_0c_7x1__Relu"
  type: "ReLU"
  bottom: "InceptionV3__InceptionV3__Mixed_6c__Branch_1__Conv2d_0c_7x1__BatchNorm__FusedBatchNorm__scale"
  top: "InceptionV3__InceptionV3__Mixed_6c__Branch_1__Conv2d_0c_7x1__Relu"
}
layer {
  name: "InceptionV3__InceptionV3__Mixed_6c__Branch_2__Conv2d_0c_1x7__Relu"
  type: "ReLU"
  bottom: "InceptionV3__InceptionV3__Mixed_6c__Branch_2__Conv2d_0c_1x7__BatchNorm__FusedBatchNorm__scale"
  top: "InceptionV3__InceptionV3__Mixed_6c__Branch_2__Conv2d_0c_1x7__Relu"
}
layer {
  name: "InceptionV3__InceptionV3__Mixed_6c__Branch_2__Conv2d_0d_7x1__Conv2D"
  type: "Convolution"
  bottom: "InceptionV3__InceptionV3__Mixed_6c__Branch_2__Conv2d_0c_1x7__Relu"
  top: "InceptionV3__InceptionV3__Mixed_6c__Branch_2__Conv2d_0d_7x1__Conv2D"
  convolution_param {
    num_output: 160
    bias_term: false
    pad_h: 3
    pad_w: 0
    kernel_h: 7
    kernel_w: 1
    stride_h: 1
    stride_w: 1
    pad_type: 1
  }
}
layer {
  name: "InceptionV3__InceptionV3__Mixed_6c__Branch_2__Conv2d_0d_7x1__BatchNorm__FusedBatchNorm"
  type: "BatchNorm"
  bottom: "InceptionV3__InceptionV3__Mixed_6c__Branch_2__Conv2d_0d_7x1__Conv2D"
  top: "InceptionV3__InceptionV3__Mixed_6c__Branch_2__Conv2d_0d_7x1__BatchNorm__FusedBatchNorm"
  batch_norm_param {
    use_global_stats: true
    eps: 0.0010000000475
  }
}
layer {
  name: "InceptionV3__InceptionV3__Mixed_6c__Branch_2__Conv2d_0d_7x1__BatchNorm__FusedBatchNorm__scale"
  type: "Scale"
  bottom: "InceptionV3__InceptionV3__Mixed_6c__Branch_2__Conv2d_0d_7x1__BatchNorm__FusedBatchNorm"
  top: "InceptionV3__InceptionV3__Mixed_6c__Branch_2__Conv2d_0d_7x1__BatchNorm__FusedBatchNorm__scale"
  scale_param {
    bias_term: true
  }
}
layer {
  name: "InceptionV3__InceptionV3__Mixed_6c__Branch_2__Conv2d_0d_7x1__Relu"
  type: "ReLU"
  bottom: "InceptionV3__InceptionV3__Mixed_6c__Branch_2__Conv2d_0d_7x1__BatchNorm__FusedBatchNorm__scale"
  top: "InceptionV3__InceptionV3__Mixed_6c__Branch_2__Conv2d_0d_7x1__Relu"
}
layer {
  name: "InceptionV3__InceptionV3__Mixed_6c__Branch_2__Conv2d_0e_1x7__Conv2D"
  type: "Convolution"
  bottom: "InceptionV3__InceptionV3__Mixed_6c__Branch_2__Conv2d_0d_7x1__Relu"
  top: "InceptionV3__InceptionV3__Mixed_6c__Branch_2__Conv2d_0e_1x7__Conv2D"
  convolution_param {
    num_output: 192
    bias_term: false
    pad_h: 0
    pad_w: 3
    kernel_h: 1
    kernel_w: 7
    stride_h: 1
    stride_w: 1
    pad_type: 1
  }
}
layer {
  name: "InceptionV3__InceptionV3__Mixed_6c__Branch_2__Conv2d_0e_1x7__BatchNorm__FusedBatchNorm"
  type: "BatchNorm"
  bottom: "InceptionV3__InceptionV3__Mixed_6c__Branch_2__Conv2d_0e_1x7__Conv2D"
  top: "InceptionV3__InceptionV3__Mixed_6c__Branch_2__Conv2d_0e_1x7__BatchNorm__FusedBatchNorm"
  batch_norm_param {
    use_global_stats: true
    eps: 0.0010000000475
  }
}
layer {
  name: "InceptionV3__InceptionV3__Mixed_6c__Branch_2__Conv2d_0e_1x7__BatchNorm__FusedBatchNorm__scale"
  type: "Scale"
  bottom: "InceptionV3__InceptionV3__Mixed_6c__Branch_2__Conv2d_0e_1x7__BatchNorm__FusedBatchNorm"
  top: "InceptionV3__InceptionV3__Mixed_6c__Branch_2__Conv2d_0e_1x7__BatchNorm__FusedBatchNorm__scale"
  scale_param {
    bias_term: true
  }
}
layer {
  name: "InceptionV3__InceptionV3__Mixed_6c__Branch_2__Conv2d_0e_1x7__Relu"
  type: "ReLU"
  bottom: "InceptionV3__InceptionV3__Mixed_6c__Branch_2__Conv2d_0e_1x7__BatchNorm__FusedBatchNorm__scale"
  top: "InceptionV3__InceptionV3__Mixed_6c__Branch_2__Conv2d_0e_1x7__Relu"
}
layer {
  name: "InceptionV3__InceptionV3__Mixed_6c__concat"
  type: "Concat"
  bottom: "InceptionV3__InceptionV3__Mixed_6c__Branch_0__Conv2d_0a_1x1__Relu"
  bottom: "InceptionV3__InceptionV3__Mixed_6c__Branch_1__Conv2d_0c_7x1__Relu"
  bottom: "InceptionV3__InceptionV3__Mixed_6c__Branch_2__Conv2d_0e_1x7__Relu"
  bottom: "InceptionV3__InceptionV3__Mixed_6c__Branch_3__Conv2d_0b_1x1__Relu"
  top: "InceptionV3__InceptionV3__Mixed_6c__concat"
  concat_param {
    axis: 1
  }
}
layer {
  name: "InceptionV3__InceptionV3__Mixed_6d__Branch_0__Conv2d_0a_1x1__Conv2D"
  type: "Convolution"
  bottom: "InceptionV3__InceptionV3__Mixed_6c__concat"
  top: "InceptionV3__InceptionV3__Mixed_6d__Branch_0__Conv2d_0a_1x1__Conv2D"
  convolution_param {
    num_output: 192
    bias_term: false
    pad_h: 0
    pad_w: 0
    kernel_h: 1
    kernel_w: 1
    stride_h: 1
    stride_w: 1
    pad_type: 1
  }
}
layer {
  name: "InceptionV3__InceptionV3__Mixed_6d__Branch_1__Conv2d_0a_1x1__Conv2D"
  type: "Convolution"
  bottom: "InceptionV3__InceptionV3__Mixed_6c__concat"
  top: "InceptionV3__InceptionV3__Mixed_6d__Branch_1__Conv2d_0a_1x1__Conv2D"
  convolution_param {
    num_output: 160
    bias_term: false
    pad_h: 0
    pad_w: 0
    kernel_h: 1
    kernel_w: 1
    stride_h: 1
    stride_w: 1
    pad_type: 1
  }
}
layer {
  name: "InceptionV3__InceptionV3__Mixed_6d__Branch_2__Conv2d_0a_1x1__Conv2D"
  type: "Convolution"
  bottom: "InceptionV3__InceptionV3__Mixed_6c__concat"
  top: "InceptionV3__InceptionV3__Mixed_6d__Branch_2__Conv2d_0a_1x1__Conv2D"
  convolution_param {
    num_output: 160
    bias_term: false
    pad_h: 0
    pad_w: 0
    kernel_h: 1
    kernel_w: 1
    stride_h: 1
    stride_w: 1
    pad_type: 1
  }
}
layer {
  name: "InceptionV3__InceptionV3__Mixed_6d__Branch_3__AvgPool_0a_3x3__AvgPool"
  type: "Pooling"
  bottom: "InceptionV3__InceptionV3__Mixed_6c__concat"
  top: "InceptionV3__InceptionV3__Mixed_6d__Branch_3__AvgPool_0a_3x3__AvgPool"
  pooling_param {
    pool: AVE_TF
    kernel_h: 3
    kernel_w: 3
    stride_h: 1
    stride_w: 1
    pad_h: 1
    pad_w: 1
    pad_type: 1
  }
}
layer {
  name: "InceptionV3__InceptionV3__Mixed_6d__Branch_0__Conv2d_0a_1x1__BatchNorm__FusedBatchNorm"
  type: "BatchNorm"
  bottom: "InceptionV3__InceptionV3__Mixed_6d__Branch_0__Conv2d_0a_1x1__Conv2D"
  top: "InceptionV3__InceptionV3__Mixed_6d__Branch_0__Conv2d_0a_1x1__BatchNorm__FusedBatchNorm"
  batch_norm_param {
    use_global_stats: true
    eps: 0.0010000000475
  }
}
layer {
  name: "InceptionV3__InceptionV3__Mixed_6d__Branch_0__Conv2d_0a_1x1__BatchNorm__FusedBatchNorm__scale"
  type: "Scale"
  bottom: "InceptionV3__InceptionV3__Mixed_6d__Branch_0__Conv2d_0a_1x1__BatchNorm__FusedBatchNorm"
  top: "InceptionV3__InceptionV3__Mixed_6d__Branch_0__Conv2d_0a_1x1__BatchNorm__FusedBatchNorm__scale"
  scale_param {
    bias_term: true
  }
}
layer {
  name: "InceptionV3__InceptionV3__Mixed_6d__Branch_1__Conv2d_0a_1x1__BatchNorm__FusedBatchNorm"
  type: "BatchNorm"
  bottom: "InceptionV3__InceptionV3__Mixed_6d__Branch_1__Conv2d_0a_1x1__Conv2D"
  top: "InceptionV3__InceptionV3__Mixed_6d__Branch_1__Conv2d_0a_1x1__BatchNorm__FusedBatchNorm"
  batch_norm_param {
    use_global_stats: true
    eps: 0.0010000000475
  }
}
layer {
  name: "InceptionV3__InceptionV3__Mixed_6d__Branch_1__Conv2d_0a_1x1__BatchNorm__FusedBatchNorm__scale"
  type: "Scale"
  bottom: "InceptionV3__InceptionV3__Mixed_6d__Branch_1__Conv2d_0a_1x1__BatchNorm__FusedBatchNorm"
  top: "InceptionV3__InceptionV3__Mixed_6d__Branch_1__Conv2d_0a_1x1__BatchNorm__FusedBatchNorm__scale"
  scale_param {
    bias_term: true
  }
}
layer {
  name: "InceptionV3__InceptionV3__Mixed_6d__Branch_2__Conv2d_0a_1x1__BatchNorm__FusedBatchNorm"
  type: "BatchNorm"
  bottom: "InceptionV3__InceptionV3__Mixed_6d__Branch_2__Conv2d_0a_1x1__Conv2D"
  top: "InceptionV3__InceptionV3__Mixed_6d__Branch_2__Conv2d_0a_1x1__BatchNorm__FusedBatchNorm"
  batch_norm_param {
    use_global_stats: true
    eps: 0.0010000000475
  }
}
layer {
  name: "InceptionV3__InceptionV3__Mixed_6d__Branch_2__Conv2d_0a_1x1__BatchNorm__FusedBatchNorm__scale"
  type: "Scale"
  bottom: "InceptionV3__InceptionV3__Mixed_6d__Branch_2__Conv2d_0a_1x1__BatchNorm__FusedBatchNorm"
  top: "InceptionV3__InceptionV3__Mixed_6d__Branch_2__Conv2d_0a_1x1__BatchNorm__FusedBatchNorm__scale"
  scale_param {
    bias_term: true
  }
}
layer {
  name: "InceptionV3__InceptionV3__Mixed_6d__Branch_3__Conv2d_0b_1x1__Conv2D"
  type: "Convolution"
  bottom: "InceptionV3__InceptionV3__Mixed_6d__Branch_3__AvgPool_0a_3x3__AvgPool"
  top: "InceptionV3__InceptionV3__Mixed_6d__Branch_3__Conv2d_0b_1x1__Conv2D"
  convolution_param {
    num_output: 192
    bias_term: false
    pad_h: 0
    pad_w: 0
    kernel_h: 1
    kernel_w: 1
    stride_h: 1
    stride_w: 1
    pad_type: 1
  }
}
layer {
  name: "InceptionV3__InceptionV3__Mixed_6d__Branch_0__Conv2d_0a_1x1__Relu"
  type: "ReLU"
  bottom: "InceptionV3__InceptionV3__Mixed_6d__Branch_0__Conv2d_0a_1x1__BatchNorm__FusedBatchNorm__scale"
  top: "InceptionV3__InceptionV3__Mixed_6d__Branch_0__Conv2d_0a_1x1__Relu"
}
layer {
  name: "InceptionV3__InceptionV3__Mixed_6d__Branch_1__Conv2d_0a_1x1__Relu"
  type: "ReLU"
  bottom: "InceptionV3__InceptionV3__Mixed_6d__Branch_1__Conv2d_0a_1x1__BatchNorm__FusedBatchNorm__scale"
  top: "InceptionV3__InceptionV3__Mixed_6d__Branch_1__Conv2d_0a_1x1__Relu"
}
layer {
  name: "InceptionV3__InceptionV3__Mixed_6d__Branch_2__Conv2d_0a_1x1__Relu"
  type: "ReLU"
  bottom: "InceptionV3__InceptionV3__Mixed_6d__Branch_2__Conv2d_0a_1x1__BatchNorm__FusedBatchNorm__scale"
  top: "InceptionV3__InceptionV3__Mixed_6d__Branch_2__Conv2d_0a_1x1__Relu"
}
layer {
  name: "InceptionV3__InceptionV3__Mixed_6d__Branch_3__Conv2d_0b_1x1__BatchNorm__FusedBatchNorm"
  type: "BatchNorm"
  bottom: "InceptionV3__InceptionV3__Mixed_6d__Branch_3__Conv2d_0b_1x1__Conv2D"
  top: "InceptionV3__InceptionV3__Mixed_6d__Branch_3__Conv2d_0b_1x1__BatchNorm__FusedBatchNorm"
  batch_norm_param {
    use_global_stats: true
    eps: 0.0010000000475
  }
}
layer {
  name: "InceptionV3__InceptionV3__Mixed_6d__Branch_3__Conv2d_0b_1x1__BatchNorm__FusedBatchNorm__scale"
  type: "Scale"
  bottom: "InceptionV3__InceptionV3__Mixed_6d__Branch_3__Conv2d_0b_1x1__BatchNorm__FusedBatchNorm"
  top: "InceptionV3__InceptionV3__Mixed_6d__Branch_3__Conv2d_0b_1x1__BatchNorm__FusedBatchNorm__scale"
  scale_param {
    bias_term: true
  }
}
layer {
  name: "InceptionV3__InceptionV3__Mixed_6d__Branch_1__Conv2d_0b_1x7__Conv2D"
  type: "Convolution"
  bottom: "InceptionV3__InceptionV3__Mixed_6d__Branch_1__Conv2d_0a_1x1__Relu"
  top: "InceptionV3__InceptionV3__Mixed_6d__Branch_1__Conv2d_0b_1x7__Conv2D"
  convolution_param {
    num_output: 160
    bias_term: false
    pad_h: 0
    pad_w: 3
    kernel_h: 1
    kernel_w: 7
    stride_h: 1
    stride_w: 1
    pad_type: 1
  }
}
layer {
  name: "InceptionV3__InceptionV3__Mixed_6d__Branch_2__Conv2d_0b_7x1__Conv2D"
  type: "Convolution"
  bottom: "InceptionV3__InceptionV3__Mixed_6d__Branch_2__Conv2d_0a_1x1__Relu"
  top: "InceptionV3__InceptionV3__Mixed_6d__Branch_2__Conv2d_0b_7x1__Conv2D"
  convolution_param {
    num_output: 160
    bias_term: false
    pad_h: 3
    pad_w: 0
    kernel_h: 7
    kernel_w: 1
    stride_h: 1
    stride_w: 1
    pad_type: 1
  }
}
layer {
  name: "InceptionV3__InceptionV3__Mixed_6d__Branch_3__Conv2d_0b_1x1__Relu"
  type: "ReLU"
  bottom: "InceptionV3__InceptionV3__Mixed_6d__Branch_3__Conv2d_0b_1x1__BatchNorm__FusedBatchNorm__scale"
  top: "InceptionV3__InceptionV3__Mixed_6d__Branch_3__Conv2d_0b_1x1__Relu"
}
layer {
  name: "InceptionV3__InceptionV3__Mixed_6d__Branch_1__Conv2d_0b_1x7__BatchNorm__FusedBatchNorm"
  type: "BatchNorm"
  bottom: "InceptionV3__InceptionV3__Mixed_6d__Branch_1__Conv2d_0b_1x7__Conv2D"
  top: "InceptionV3__InceptionV3__Mixed_6d__Branch_1__Conv2d_0b_1x7__BatchNorm__FusedBatchNorm"
  batch_norm_param {
    use_global_stats: true
    eps: 0.0010000000475
  }
}
layer {
  name: "InceptionV3__InceptionV3__Mixed_6d__Branch_1__Conv2d_0b_1x7__BatchNorm__FusedBatchNorm__scale"
  type: "Scale"
  bottom: "InceptionV3__InceptionV3__Mixed_6d__Branch_1__Conv2d_0b_1x7__BatchNorm__FusedBatchNorm"
  top: "InceptionV3__InceptionV3__Mixed_6d__Branch_1__Conv2d_0b_1x7__BatchNorm__FusedBatchNorm__scale"
  scale_param {
    bias_term: true
  }
}
layer {
  name: "InceptionV3__InceptionV3__Mixed_6d__Branch_2__Conv2d_0b_7x1__BatchNorm__FusedBatchNorm"
  type: "BatchNorm"
  bottom: "InceptionV3__InceptionV3__Mixed_6d__Branch_2__Conv2d_0b_7x1__Conv2D"
  top: "InceptionV3__InceptionV3__Mixed_6d__Branch_2__Conv2d_0b_7x1__BatchNorm__FusedBatchNorm"
  batch_norm_param {
    use_global_stats: true
    eps: 0.0010000000475
  }
}
layer {
  name: "InceptionV3__InceptionV3__Mixed_6d__Branch_2__Conv2d_0b_7x1__BatchNorm__FusedBatchNorm__scale"
  type: "Scale"
  bottom: "InceptionV3__InceptionV3__Mixed_6d__Branch_2__Conv2d_0b_7x1__BatchNorm__FusedBatchNorm"
  top: "InceptionV3__InceptionV3__Mixed_6d__Branch_2__Conv2d_0b_7x1__BatchNorm__FusedBatchNorm__scale"
  scale_param {
    bias_term: true
  }
}
layer {
  name: "InceptionV3__InceptionV3__Mixed_6d__Branch_1__Conv2d_0b_1x7__Relu"
  type: "ReLU"
  bottom: "InceptionV3__InceptionV3__Mixed_6d__Branch_1__Conv2d_0b_1x7__BatchNorm__FusedBatchNorm__scale"
  top: "InceptionV3__InceptionV3__Mixed_6d__Branch_1__Conv2d_0b_1x7__Relu"
}
layer {
  name: "InceptionV3__InceptionV3__Mixed_6d__Branch_2__Conv2d_0b_7x1__Relu"
  type: "ReLU"
  bottom: "InceptionV3__InceptionV3__Mixed_6d__Branch_2__Conv2d_0b_7x1__BatchNorm__FusedBatchNorm__scale"
  top: "InceptionV3__InceptionV3__Mixed_6d__Branch_2__Conv2d_0b_7x1__Relu"
}
layer {
  name: "InceptionV3__InceptionV3__Mixed_6d__Branch_1__Conv2d_0c_7x1__Conv2D"
  type: "Convolution"
  bottom: "InceptionV3__InceptionV3__Mixed_6d__Branch_1__Conv2d_0b_1x7__Relu"
  top: "InceptionV3__InceptionV3__Mixed_6d__Branch_1__Conv2d_0c_7x1__Conv2D"
  convolution_param {
    num_output: 192
    bias_term: false
    pad_h: 3
    pad_w: 0
    kernel_h: 7
    kernel_w: 1
    stride_h: 1
    stride_w: 1
    pad_type: 1
  }
}
layer {
  name: "InceptionV3__InceptionV3__Mixed_6d__Branch_2__Conv2d_0c_1x7__Conv2D"
  type: "Convolution"
  bottom: "InceptionV3__InceptionV3__Mixed_6d__Branch_2__Conv2d_0b_7x1__Relu"
  top: "InceptionV3__InceptionV3__Mixed_6d__Branch_2__Conv2d_0c_1x7__Conv2D"
  convolution_param {
    num_output: 160
    bias_term: false
    pad_h: 0
    pad_w: 3
    kernel_h: 1
    kernel_w: 7
    stride_h: 1
    stride_w: 1
    pad_type: 1
  }
}
layer {
  name: "InceptionV3__InceptionV3__Mixed_6d__Branch_1__Conv2d_0c_7x1__BatchNorm__FusedBatchNorm"
  type: "BatchNorm"
  bottom: "InceptionV3__InceptionV3__Mixed_6d__Branch_1__Conv2d_0c_7x1__Conv2D"
  top: "InceptionV3__InceptionV3__Mixed_6d__Branch_1__Conv2d_0c_7x1__BatchNorm__FusedBatchNorm"
  batch_norm_param {
    use_global_stats: true
    eps: 0.0010000000475
  }
}
layer {
  name: "InceptionV3__InceptionV3__Mixed_6d__Branch_1__Conv2d_0c_7x1__BatchNorm__FusedBatchNorm__scale"
  type: "Scale"
  bottom: "InceptionV3__InceptionV3__Mixed_6d__Branch_1__Conv2d_0c_7x1__BatchNorm__FusedBatchNorm"
  top: "InceptionV3__InceptionV3__Mixed_6d__Branch_1__Conv2d_0c_7x1__BatchNorm__FusedBatchNorm__scale"
  scale_param {
    bias_term: true
  }
}
layer {
  name: "InceptionV3__InceptionV3__Mixed_6d__Branch_2__Conv2d_0c_1x7__BatchNorm__FusedBatchNorm"
  type: "BatchNorm"
  bottom: "InceptionV3__InceptionV3__Mixed_6d__Branch_2__Conv2d_0c_1x7__Conv2D"
  top: "InceptionV3__InceptionV3__Mixed_6d__Branch_2__Conv2d_0c_1x7__BatchNorm__FusedBatchNorm"
  batch_norm_param {
    use_global_stats: true
    eps: 0.0010000000475
  }
}
layer {
  name: "InceptionV3__InceptionV3__Mixed_6d__Branch_2__Conv2d_0c_1x7__BatchNorm__FusedBatchNorm__scale"
  type: "Scale"
  bottom: "InceptionV3__InceptionV3__Mixed_6d__Branch_2__Conv2d_0c_1x7__BatchNorm__FusedBatchNorm"
  top: "InceptionV3__InceptionV3__Mixed_6d__Branch_2__Conv2d_0c_1x7__BatchNorm__FusedBatchNorm__scale"
  scale_param {
    bias_term: true
  }
}
layer {
  name: "InceptionV3__InceptionV3__Mixed_6d__Branch_1__Conv2d_0c_7x1__Relu"
  type: "ReLU"
  bottom: "InceptionV3__InceptionV3__Mixed_6d__Branch_1__Conv2d_0c_7x1__BatchNorm__FusedBatchNorm__scale"
  top: "InceptionV3__InceptionV3__Mixed_6d__Branch_1__Conv2d_0c_7x1__Relu"
}
layer {
  name: "InceptionV3__InceptionV3__Mixed_6d__Branch_2__Conv2d_0c_1x7__Relu"
  type: "ReLU"
  bottom: "InceptionV3__InceptionV3__Mixed_6d__Branch_2__Conv2d_0c_1x7__BatchNorm__FusedBatchNorm__scale"
  top: "InceptionV3__InceptionV3__Mixed_6d__Branch_2__Conv2d_0c_1x7__Relu"
}
layer {
  name: "InceptionV3__InceptionV3__Mixed_6d__Branch_2__Conv2d_0d_7x1__Conv2D"
  type: "Convolution"
  bottom: "InceptionV3__InceptionV3__Mixed_6d__Branch_2__Conv2d_0c_1x7__Relu"
  top: "InceptionV3__InceptionV3__Mixed_6d__Branch_2__Conv2d_0d_7x1__Conv2D"
  convolution_param {
    num_output: 160
    bias_term: false
    pad_h: 3
    pad_w: 0
    kernel_h: 7
    kernel_w: 1
    stride_h: 1
    stride_w: 1
    pad_type: 1
  }
}
layer {
  name: "InceptionV3__InceptionV3__Mixed_6d__Branch_2__Conv2d_0d_7x1__BatchNorm__FusedBatchNorm"
  type: "BatchNorm"
  bottom: "InceptionV3__InceptionV3__Mixed_6d__Branch_2__Conv2d_0d_7x1__Conv2D"
  top: "InceptionV3__InceptionV3__Mixed_6d__Branch_2__Conv2d_0d_7x1__BatchNorm__FusedBatchNorm"
  batch_norm_param {
    use_global_stats: true
    eps: 0.0010000000475
  }
}
layer {
  name: "InceptionV3__InceptionV3__Mixed_6d__Branch_2__Conv2d_0d_7x1__BatchNorm__FusedBatchNorm__scale"
  type: "Scale"
  bottom: "InceptionV3__InceptionV3__Mixed_6d__Branch_2__Conv2d_0d_7x1__BatchNorm__FusedBatchNorm"
  top: "InceptionV3__InceptionV3__Mixed_6d__Branch_2__Conv2d_0d_7x1__BatchNorm__FusedBatchNorm__scale"
  scale_param {
    bias_term: true
  }
}
layer {
  name: "InceptionV3__InceptionV3__Mixed_6d__Branch_2__Conv2d_0d_7x1__Relu"
  type: "ReLU"
  bottom: "InceptionV3__InceptionV3__Mixed_6d__Branch_2__Conv2d_0d_7x1__BatchNorm__FusedBatchNorm__scale"
  top: "InceptionV3__InceptionV3__Mixed_6d__Branch_2__Conv2d_0d_7x1__Relu"
}
layer {
  name: "InceptionV3__InceptionV3__Mixed_6d__Branch_2__Conv2d_0e_1x7__Conv2D"
  type: "Convolution"
  bottom: "InceptionV3__InceptionV3__Mixed_6d__Branch_2__Conv2d_0d_7x1__Relu"
  top: "InceptionV3__InceptionV3__Mixed_6d__Branch_2__Conv2d_0e_1x7__Conv2D"
  convolution_param {
    num_output: 192
    bias_term: false
    pad_h: 0
    pad_w: 3
    kernel_h: 1
    kernel_w: 7
    stride_h: 1
    stride_w: 1
    pad_type: 1
  }
}
layer {
  name: "InceptionV3__InceptionV3__Mixed_6d__Branch_2__Conv2d_0e_1x7__BatchNorm__FusedBatchNorm"
  type: "BatchNorm"
  bottom: "InceptionV3__InceptionV3__Mixed_6d__Branch_2__Conv2d_0e_1x7__Conv2D"
  top: "InceptionV3__InceptionV3__Mixed_6d__Branch_2__Conv2d_0e_1x7__BatchNorm__FusedBatchNorm"
  batch_norm_param {
    use_global_stats: true
    eps: 0.0010000000475
  }
}
layer {
  name: "InceptionV3__InceptionV3__Mixed_6d__Branch_2__Conv2d_0e_1x7__BatchNorm__FusedBatchNorm__scale"
  type: "Scale"
  bottom: "InceptionV3__InceptionV3__Mixed_6d__Branch_2__Conv2d_0e_1x7__BatchNorm__FusedBatchNorm"
  top: "InceptionV3__InceptionV3__Mixed_6d__Branch_2__Conv2d_0e_1x7__BatchNorm__FusedBatchNorm__scale"
  scale_param {
    bias_term: true
  }
}
layer {
  name: "InceptionV3__InceptionV3__Mixed_6d__Branch_2__Conv2d_0e_1x7__Relu"
  type: "ReLU"
  bottom: "InceptionV3__InceptionV3__Mixed_6d__Branch_2__Conv2d_0e_1x7__BatchNorm__FusedBatchNorm__scale"
  top: "InceptionV3__InceptionV3__Mixed_6d__Branch_2__Conv2d_0e_1x7__Relu"
}
layer {
  name: "InceptionV3__InceptionV3__Mixed_6d__concat"
  type: "Concat"
  bottom: "InceptionV3__InceptionV3__Mixed_6d__Branch_0__Conv2d_0a_1x1__Relu"
  bottom: "InceptionV3__InceptionV3__Mixed_6d__Branch_1__Conv2d_0c_7x1__Relu"
  bottom: "InceptionV3__InceptionV3__Mixed_6d__Branch_2__Conv2d_0e_1x7__Relu"
  bottom: "InceptionV3__InceptionV3__Mixed_6d__Branch_3__Conv2d_0b_1x1__Relu"
  top: "InceptionV3__InceptionV3__Mixed_6d__concat"
  concat_param {
    axis: 1
  }
}
layer {
  name: "InceptionV3__InceptionV3__Mixed_6e__Branch_0__Conv2d_0a_1x1__Conv2D"
  type: "Convolution"
  bottom: "InceptionV3__InceptionV3__Mixed_6d__concat"
  top: "InceptionV3__InceptionV3__Mixed_6e__Branch_0__Conv2d_0a_1x1__Conv2D"
  convolution_param {
    num_output: 192
    bias_term: false
    pad_h: 0
    pad_w: 0
    kernel_h: 1
    kernel_w: 1
    stride_h: 1
    stride_w: 1
    pad_type: 1
  }
}
layer {
  name: "InceptionV3__InceptionV3__Mixed_6e__Branch_1__Conv2d_0a_1x1__Conv2D"
  type: "Convolution"
  bottom: "InceptionV3__InceptionV3__Mixed_6d__concat"
  top: "InceptionV3__InceptionV3__Mixed_6e__Branch_1__Conv2d_0a_1x1__Conv2D"
  convolution_param {
    num_output: 192
    bias_term: false
    pad_h: 0
    pad_w: 0
    kernel_h: 1
    kernel_w: 1
    stride_h: 1
    stride_w: 1
    pad_type: 1
  }
}
layer {
  name: "InceptionV3__InceptionV3__Mixed_6e__Branch_2__Conv2d_0a_1x1__Conv2D"
  type: "Convolution"
  bottom: "InceptionV3__InceptionV3__Mixed_6d__concat"
  top: "InceptionV3__InceptionV3__Mixed_6e__Branch_2__Conv2d_0a_1x1__Conv2D"
  convolution_param {
    num_output: 192
    bias_term: false
    pad_h: 0
    pad_w: 0
    kernel_h: 1
    kernel_w: 1
    stride_h: 1
    stride_w: 1
    pad_type: 1
  }
}
layer {
  name: "InceptionV3__InceptionV3__Mixed_6e__Branch_3__AvgPool_0a_3x3__AvgPool"
  type: "Pooling"
  bottom: "InceptionV3__InceptionV3__Mixed_6d__concat"
  top: "InceptionV3__InceptionV3__Mixed_6e__Branch_3__AvgPool_0a_3x3__AvgPool"
  pooling_param {
    pool: AVE_TF
    kernel_h: 3
    kernel_w: 3
    stride_h: 1
    stride_w: 1
    pad_h: 1
    pad_w: 1
    pad_type: 1
  }
}
layer {
  name: "InceptionV3__InceptionV3__Mixed_6e__Branch_0__Conv2d_0a_1x1__BatchNorm__FusedBatchNorm"
  type: "BatchNorm"
  bottom: "InceptionV3__InceptionV3__Mixed_6e__Branch_0__Conv2d_0a_1x1__Conv2D"
  top: "InceptionV3__InceptionV3__Mixed_6e__Branch_0__Conv2d_0a_1x1__BatchNorm__FusedBatchNorm"
  batch_norm_param {
    use_global_stats: true
    eps: 0.0010000000475
  }
}
layer {
  name: "InceptionV3__InceptionV3__Mixed_6e__Branch_0__Conv2d_0a_1x1__BatchNorm__FusedBatchNorm__scale"
  type: "Scale"
  bottom: "InceptionV3__InceptionV3__Mixed_6e__Branch_0__Conv2d_0a_1x1__BatchNorm__FusedBatchNorm"
  top: "InceptionV3__InceptionV3__Mixed_6e__Branch_0__Conv2d_0a_1x1__BatchNorm__FusedBatchNorm__scale"
  scale_param {
    bias_term: true
  }
}
layer {
  name: "InceptionV3__InceptionV3__Mixed_6e__Branch_1__Conv2d_0a_1x1__BatchNorm__FusedBatchNorm"
  type: "BatchNorm"
  bottom: "InceptionV3__InceptionV3__Mixed_6e__Branch_1__Conv2d_0a_1x1__Conv2D"
  top: "InceptionV3__InceptionV3__Mixed_6e__Branch_1__Conv2d_0a_1x1__BatchNorm__FusedBatchNorm"
  batch_norm_param {
    use_global_stats: true
    eps: 0.0010000000475
  }
}
layer {
  name: "InceptionV3__InceptionV3__Mixed_6e__Branch_1__Conv2d_0a_1x1__BatchNorm__FusedBatchNorm__scale"
  type: "Scale"
  bottom: "InceptionV3__InceptionV3__Mixed_6e__Branch_1__Conv2d_0a_1x1__BatchNorm__FusedBatchNorm"
  top: "InceptionV3__InceptionV3__Mixed_6e__Branch_1__Conv2d_0a_1x1__BatchNorm__FusedBatchNorm__scale"
  scale_param {
    bias_term: true
  }
}
layer {
  name: "InceptionV3__InceptionV3__Mixed_6e__Branch_2__Conv2d_0a_1x1__BatchNorm__FusedBatchNorm"
  type: "BatchNorm"
  bottom: "InceptionV3__InceptionV3__Mixed_6e__Branch_2__Conv2d_0a_1x1__Conv2D"
  top: "InceptionV3__InceptionV3__Mixed_6e__Branch_2__Conv2d_0a_1x1__BatchNorm__FusedBatchNorm"
  batch_norm_param {
    use_global_stats: true
    eps: 0.0010000000475
  }
}
layer {
  name: "InceptionV3__InceptionV3__Mixed_6e__Branch_2__Conv2d_0a_1x1__BatchNorm__FusedBatchNorm__scale"
  type: "Scale"
  bottom: "InceptionV3__InceptionV3__Mixed_6e__Branch_2__Conv2d_0a_1x1__BatchNorm__FusedBatchNorm"
  top: "InceptionV3__InceptionV3__Mixed_6e__Branch_2__Conv2d_0a_1x1__BatchNorm__FusedBatchNorm__scale"
  scale_param {
    bias_term: true
  }
}
layer {
  name: "InceptionV3__InceptionV3__Mixed_6e__Branch_3__Conv2d_0b_1x1__Conv2D"
  type: "Convolution"
  bottom: "InceptionV3__InceptionV3__Mixed_6e__Branch_3__AvgPool_0a_3x3__AvgPool"
  top: "InceptionV3__InceptionV3__Mixed_6e__Branch_3__Conv2d_0b_1x1__Conv2D"
  convolution_param {
    num_output: 192
    bias_term: false
    pad_h: 0
    pad_w: 0
    kernel_h: 1
    kernel_w: 1
    stride_h: 1
    stride_w: 1
    pad_type: 1
  }
}
layer {
  name: "InceptionV3__InceptionV3__Mixed_6e__Branch_0__Conv2d_0a_1x1__Relu"
  type: "ReLU"
  bottom: "InceptionV3__InceptionV3__Mixed_6e__Branch_0__Conv2d_0a_1x1__BatchNorm__FusedBatchNorm__scale"
  top: "InceptionV3__InceptionV3__Mixed_6e__Branch_0__Conv2d_0a_1x1__Relu"
}
layer {
  name: "InceptionV3__InceptionV3__Mixed_6e__Branch_1__Conv2d_0a_1x1__Relu"
  type: "ReLU"
  bottom: "InceptionV3__InceptionV3__Mixed_6e__Branch_1__Conv2d_0a_1x1__BatchNorm__FusedBatchNorm__scale"
  top: "InceptionV3__InceptionV3__Mixed_6e__Branch_1__Conv2d_0a_1x1__Relu"
}
layer {
  name: "InceptionV3__InceptionV3__Mixed_6e__Branch_2__Conv2d_0a_1x1__Relu"
  type: "ReLU"
  bottom: "InceptionV3__InceptionV3__Mixed_6e__Branch_2__Conv2d_0a_1x1__BatchNorm__FusedBatchNorm__scale"
  top: "InceptionV3__InceptionV3__Mixed_6e__Branch_2__Conv2d_0a_1x1__Relu"
}
layer {
  name: "InceptionV3__InceptionV3__Mixed_6e__Branch_3__Conv2d_0b_1x1__BatchNorm__FusedBatchNorm"
  type: "BatchNorm"
  bottom: "InceptionV3__InceptionV3__Mixed_6e__Branch_3__Conv2d_0b_1x1__Conv2D"
  top: "InceptionV3__InceptionV3__Mixed_6e__Branch_3__Conv2d_0b_1x1__BatchNorm__FusedBatchNorm"
  batch_norm_param {
    use_global_stats: true
    eps: 0.0010000000475
  }
}
layer {
  name: "InceptionV3__InceptionV3__Mixed_6e__Branch_3__Conv2d_0b_1x1__BatchNorm__FusedBatchNorm__scale"
  type: "Scale"
  bottom: "InceptionV3__InceptionV3__Mixed_6e__Branch_3__Conv2d_0b_1x1__BatchNorm__FusedBatchNorm"
  top: "InceptionV3__InceptionV3__Mixed_6e__Branch_3__Conv2d_0b_1x1__BatchNorm__FusedBatchNorm__scale"
  scale_param {
    bias_term: true
  }
}
layer {
  name: "InceptionV3__InceptionV3__Mixed_6e__Branch_1__Conv2d_0b_1x7__Conv2D"
  type: "Convolution"
  bottom: "InceptionV3__InceptionV3__Mixed_6e__Branch_1__Conv2d_0a_1x1__Relu"
  top: "InceptionV3__InceptionV3__Mixed_6e__Branch_1__Conv2d_0b_1x7__Conv2D"
  convolution_param {
    num_output: 192
    bias_term: false
    pad_h: 0
    pad_w: 3
    kernel_h: 1
    kernel_w: 7
    stride_h: 1
    stride_w: 1
    pad_type: 1
  }
}
layer {
  name: "InceptionV3__InceptionV3__Mixed_6e__Branch_2__Conv2d_0b_7x1__Conv2D"
  type: "Convolution"
  bottom: "InceptionV3__InceptionV3__Mixed_6e__Branch_2__Conv2d_0a_1x1__Relu"
  top: "InceptionV3__InceptionV3__Mixed_6e__Branch_2__Conv2d_0b_7x1__Conv2D"
  convolution_param {
    num_output: 192
    bias_term: false
    pad_h: 3
    pad_w: 0
    kernel_h: 7
    kernel_w: 1
    stride_h: 1
    stride_w: 1
    pad_type: 1
  }
}
layer {
  name: "InceptionV3__InceptionV3__Mixed_6e__Branch_3__Conv2d_0b_1x1__Relu"
  type: "ReLU"
  bottom: "InceptionV3__InceptionV3__Mixed_6e__Branch_3__Conv2d_0b_1x1__BatchNorm__FusedBatchNorm__scale"
  top: "InceptionV3__InceptionV3__Mixed_6e__Branch_3__Conv2d_0b_1x1__Relu"
}
layer {
  name: "InceptionV3__InceptionV3__Mixed_6e__Branch_1__Conv2d_0b_1x7__BatchNorm__FusedBatchNorm"
  type: "BatchNorm"
  bottom: "InceptionV3__InceptionV3__Mixed_6e__Branch_1__Conv2d_0b_1x7__Conv2D"
  top: "InceptionV3__InceptionV3__Mixed_6e__Branch_1__Conv2d_0b_1x7__BatchNorm__FusedBatchNorm"
  batch_norm_param {
    use_global_stats: true
    eps: 0.0010000000475
  }
}
layer {
  name: "InceptionV3__InceptionV3__Mixed_6e__Branch_1__Conv2d_0b_1x7__BatchNorm__FusedBatchNorm__scale"
  type: "Scale"
  bottom: "InceptionV3__InceptionV3__Mixed_6e__Branch_1__Conv2d_0b_1x7__BatchNorm__FusedBatchNorm"
  top: "InceptionV3__InceptionV3__Mixed_6e__Branch_1__Conv2d_0b_1x7__BatchNorm__FusedBatchNorm__scale"
  scale_param {
    bias_term: true
  }
}
layer {
  name: "InceptionV3__InceptionV3__Mixed_6e__Branch_2__Conv2d_0b_7x1__BatchNorm__FusedBatchNorm"
  type: "BatchNorm"
  bottom: "InceptionV3__InceptionV3__Mixed_6e__Branch_2__Conv2d_0b_7x1__Conv2D"
  top: "InceptionV3__InceptionV3__Mixed_6e__Branch_2__Conv2d_0b_7x1__BatchNorm__FusedBatchNorm"
  batch_norm_param {
    use_global_stats: true
    eps: 0.0010000000475
  }
}
layer {
  name: "InceptionV3__InceptionV3__Mixed_6e__Branch_2__Conv2d_0b_7x1__BatchNorm__FusedBatchNorm__scale"
  type: "Scale"
  bottom: "InceptionV3__InceptionV3__Mixed_6e__Branch_2__Conv2d_0b_7x1__BatchNorm__FusedBatchNorm"
  top: "InceptionV3__InceptionV3__Mixed_6e__Branch_2__Conv2d_0b_7x1__BatchNorm__FusedBatchNorm__scale"
  scale_param {
    bias_term: true
  }
}
layer {
  name: "InceptionV3__InceptionV3__Mixed_6e__Branch_1__Conv2d_0b_1x7__Relu"
  type: "ReLU"
  bottom: "InceptionV3__InceptionV3__Mixed_6e__Branch_1__Conv2d_0b_1x7__BatchNorm__FusedBatchNorm__scale"
  top: "InceptionV3__InceptionV3__Mixed_6e__Branch_1__Conv2d_0b_1x7__Relu"
}
layer {
  name: "InceptionV3__InceptionV3__Mixed_6e__Branch_2__Conv2d_0b_7x1__Relu"
  type: "ReLU"
  bottom: "InceptionV3__InceptionV3__Mixed_6e__Branch_2__Conv2d_0b_7x1__BatchNorm__FusedBatchNorm__scale"
  top: "InceptionV3__InceptionV3__Mixed_6e__Branch_2__Conv2d_0b_7x1__Relu"
}
layer {
  name: "InceptionV3__InceptionV3__Mixed_6e__Branch_1__Conv2d_0c_7x1__Conv2D"
  type: "Convolution"
  bottom: "InceptionV3__InceptionV3__Mixed_6e__Branch_1__Conv2d_0b_1x7__Relu"
  top: "InceptionV3__InceptionV3__Mixed_6e__Branch_1__Conv2d_0c_7x1__Conv2D"
  convolution_param {
    num_output: 192
    bias_term: false
    pad_h: 3
    pad_w: 0
    kernel_h: 7
    kernel_w: 1
    stride_h: 1
    stride_w: 1
    pad_type: 1
  }
}
layer {
  name: "InceptionV3__InceptionV3__Mixed_6e__Branch_2__Conv2d_0c_1x7__Conv2D"
  type: "Convolution"
  bottom: "InceptionV3__InceptionV3__Mixed_6e__Branch_2__Conv2d_0b_7x1__Relu"
  top: "InceptionV3__InceptionV3__Mixed_6e__Branch_2__Conv2d_0c_1x7__Conv2D"
  convolution_param {
    num_output: 192
    bias_term: false
    pad_h: 0
    pad_w: 3
    kernel_h: 1
    kernel_w: 7
    stride_h: 1
    stride_w: 1
    pad_type: 1
  }
}
layer {
  name: "InceptionV3__InceptionV3__Mixed_6e__Branch_1__Conv2d_0c_7x1__BatchNorm__FusedBatchNorm"
  type: "BatchNorm"
  bottom: "InceptionV3__InceptionV3__Mixed_6e__Branch_1__Conv2d_0c_7x1__Conv2D"
  top: "InceptionV3__InceptionV3__Mixed_6e__Branch_1__Conv2d_0c_7x1__BatchNorm__FusedBatchNorm"
  batch_norm_param {
    use_global_stats: true
    eps: 0.0010000000475
  }
}
layer {
  name: "InceptionV3__InceptionV3__Mixed_6e__Branch_1__Conv2d_0c_7x1__BatchNorm__FusedBatchNorm__scale"
  type: "Scale"
  bottom: "InceptionV3__InceptionV3__Mixed_6e__Branch_1__Conv2d_0c_7x1__BatchNorm__FusedBatchNorm"
  top: "InceptionV3__InceptionV3__Mixed_6e__Branch_1__Conv2d_0c_7x1__BatchNorm__FusedBatchNorm__scale"
  scale_param {
    bias_term: true
  }
}
layer {
  name: "InceptionV3__InceptionV3__Mixed_6e__Branch_2__Conv2d_0c_1x7__BatchNorm__FusedBatchNorm"
  type: "BatchNorm"
  bottom: "InceptionV3__InceptionV3__Mixed_6e__Branch_2__Conv2d_0c_1x7__Conv2D"
  top: "InceptionV3__InceptionV3__Mixed_6e__Branch_2__Conv2d_0c_1x7__BatchNorm__FusedBatchNorm"
  batch_norm_param {
    use_global_stats: true
    eps: 0.0010000000475
  }
}
layer {
  name: "InceptionV3__InceptionV3__Mixed_6e__Branch_2__Conv2d_0c_1x7__BatchNorm__FusedBatchNorm__scale"
  type: "Scale"
  bottom: "InceptionV3__InceptionV3__Mixed_6e__Branch_2__Conv2d_0c_1x7__BatchNorm__FusedBatchNorm"
  top: "InceptionV3__InceptionV3__Mixed_6e__Branch_2__Conv2d_0c_1x7__BatchNorm__FusedBatchNorm__scale"
  scale_param {
    bias_term: true
  }
}
layer {
  name: "InceptionV3__InceptionV3__Mixed_6e__Branch_1__Conv2d_0c_7x1__Relu"
  type: "ReLU"
  bottom: "InceptionV3__InceptionV3__Mixed_6e__Branch_1__Conv2d_0c_7x1__BatchNorm__FusedBatchNorm__scale"
  top: "InceptionV3__InceptionV3__Mixed_6e__Branch_1__Conv2d_0c_7x1__Relu"
}
layer {
  name: "InceptionV3__InceptionV3__Mixed_6e__Branch_2__Conv2d_0c_1x7__Relu"
  type: "ReLU"
  bottom: "InceptionV3__InceptionV3__Mixed_6e__Branch_2__Conv2d_0c_1x7__BatchNorm__FusedBatchNorm__scale"
  top: "InceptionV3__InceptionV3__Mixed_6e__Branch_2__Conv2d_0c_1x7__Relu"
}
layer {
  name: "InceptionV3__InceptionV3__Mixed_6e__Branch_2__Conv2d_0d_7x1__Conv2D"
  type: "Convolution"
  bottom: "InceptionV3__InceptionV3__Mixed_6e__Branch_2__Conv2d_0c_1x7__Relu"
  top: "InceptionV3__InceptionV3__Mixed_6e__Branch_2__Conv2d_0d_7x1__Conv2D"
  convolution_param {
    num_output: 192
    bias_term: false
    pad_h: 3
    pad_w: 0
    kernel_h: 7
    kernel_w: 1
    stride_h: 1
    stride_w: 1
    pad_type: 1
  }
}
layer {
  name: "InceptionV3__InceptionV3__Mixed_6e__Branch_2__Conv2d_0d_7x1__BatchNorm__FusedBatchNorm"
  type: "BatchNorm"
  bottom: "InceptionV3__InceptionV3__Mixed_6e__Branch_2__Conv2d_0d_7x1__Conv2D"
  top: "InceptionV3__InceptionV3__Mixed_6e__Branch_2__Conv2d_0d_7x1__BatchNorm__FusedBatchNorm"
  batch_norm_param {
    use_global_stats: true
    eps: 0.0010000000475
  }
}
layer {
  name: "InceptionV3__InceptionV3__Mixed_6e__Branch_2__Conv2d_0d_7x1__BatchNorm__FusedBatchNorm__scale"
  type: "Scale"
  bottom: "InceptionV3__InceptionV3__Mixed_6e__Branch_2__Conv2d_0d_7x1__BatchNorm__FusedBatchNorm"
  top: "InceptionV3__InceptionV3__Mixed_6e__Branch_2__Conv2d_0d_7x1__BatchNorm__FusedBatchNorm__scale"
  scale_param {
    bias_term: true
  }
}
layer {
  name: "InceptionV3__InceptionV3__Mixed_6e__Branch_2__Conv2d_0d_7x1__Relu"
  type: "ReLU"
  bottom: "InceptionV3__InceptionV3__Mixed_6e__Branch_2__Conv2d_0d_7x1__BatchNorm__FusedBatchNorm__scale"
  top: "InceptionV3__InceptionV3__Mixed_6e__Branch_2__Conv2d_0d_7x1__Relu"
}
layer {
  name: "InceptionV3__InceptionV3__Mixed_6e__Branch_2__Conv2d_0e_1x7__Conv2D"
  type: "Convolution"
  bottom: "InceptionV3__InceptionV3__Mixed_6e__Branch_2__Conv2d_0d_7x1__Relu"
  top: "InceptionV3__InceptionV3__Mixed_6e__Branch_2__Conv2d_0e_1x7__Conv2D"
  convolution_param {
    num_output: 192
    bias_term: false
    pad_h: 0
    pad_w: 3
    kernel_h: 1
    kernel_w: 7
    stride_h: 1
    stride_w: 1
    pad_type: 1
  }
}
layer {
  name: "InceptionV3__InceptionV3__Mixed_6e__Branch_2__Conv2d_0e_1x7__BatchNorm__FusedBatchNorm"
  type: "BatchNorm"
  bottom: "InceptionV3__InceptionV3__Mixed_6e__Branch_2__Conv2d_0e_1x7__Conv2D"
  top: "InceptionV3__InceptionV3__Mixed_6e__Branch_2__Conv2d_0e_1x7__BatchNorm__FusedBatchNorm"
  batch_norm_param {
    use_global_stats: true
    eps: 0.0010000000475
  }
}
layer {
  name: "InceptionV3__InceptionV3__Mixed_6e__Branch_2__Conv2d_0e_1x7__BatchNorm__FusedBatchNorm__scale"
  type: "Scale"
  bottom: "InceptionV3__InceptionV3__Mixed_6e__Branch_2__Conv2d_0e_1x7__BatchNorm__FusedBatchNorm"
  top: "InceptionV3__InceptionV3__Mixed_6e__Branch_2__Conv2d_0e_1x7__BatchNorm__FusedBatchNorm__scale"
  scale_param {
    bias_term: true
  }
}
layer {
  name: "InceptionV3__InceptionV3__Mixed_6e__Branch_2__Conv2d_0e_1x7__Relu"
  type: "ReLU"
  bottom: "InceptionV3__InceptionV3__Mixed_6e__Branch_2__Conv2d_0e_1x7__BatchNorm__FusedBatchNorm__scale"
  top: "InceptionV3__InceptionV3__Mixed_6e__Branch_2__Conv2d_0e_1x7__Relu"
}
layer {
  name: "InceptionV3__InceptionV3__Mixed_6e__concat"
  type: "Concat"
  bottom: "InceptionV3__InceptionV3__Mixed_6e__Branch_0__Conv2d_0a_1x1__Relu"
  bottom: "InceptionV3__InceptionV3__Mixed_6e__Branch_1__Conv2d_0c_7x1__Relu"
  bottom: "InceptionV3__InceptionV3__Mixed_6e__Branch_2__Conv2d_0e_1x7__Relu"
  bottom: "InceptionV3__InceptionV3__Mixed_6e__Branch_3__Conv2d_0b_1x1__Relu"
  top: "InceptionV3__InceptionV3__Mixed_6e__concat"
  concat_param {
    axis: 1
  }
}
layer {
  name: "InceptionV3__InceptionV3__Mixed_7a__Branch_0__Conv2d_0a_1x1__Conv2D"
  type: "Convolution"
  bottom: "InceptionV3__InceptionV3__Mixed_6e__concat"
  top: "InceptionV3__InceptionV3__Mixed_7a__Branch_0__Conv2d_0a_1x1__Conv2D"
  convolution_param {
    num_output: 192
    bias_term: false
    pad_h: 0
    pad_w: 0
    kernel_h: 1
    kernel_w: 1
    stride_h: 1
    stride_w: 1
    pad_type: 1
  }
}
layer {
  name: "InceptionV3__InceptionV3__Mixed_7a__Branch_1__Conv2d_0a_1x1__Conv2D"
  type: "Convolution"
  bottom: "InceptionV3__InceptionV3__Mixed_6e__concat"
  top: "InceptionV3__InceptionV3__Mixed_7a__Branch_1__Conv2d_0a_1x1__Conv2D"
  convolution_param {
    num_output: 192
    bias_term: false
    pad_h: 0
    pad_w: 0
    kernel_h: 1
    kernel_w: 1
    stride_h: 1
    stride_w: 1
    pad_type: 1
  }
}
layer {
  name: "InceptionV3__InceptionV3__Mixed_7a__Branch_2__MaxPool_1a_3x3__MaxPool"
  type: "Pooling"
  bottom: "InceptionV3__InceptionV3__Mixed_6e__concat"
  top: "InceptionV3__InceptionV3__Mixed_7a__Branch_2__MaxPool_1a_3x3__MaxPool"
  pooling_param {
    pool: MAX
    kernel_h: 3
    kernel_w: 3
    stride_h: 2
    stride_w: 2
    pad_h: 0
    pad_w: 0
    ceil_mode: false
  }
}
layer {
  name: "InceptionV3__AuxLogits__AvgPool_1a_5x5__AvgPool"
  type: "Pooling"
  bottom: "InceptionV3__InceptionV3__Mixed_6e__concat"
  top: "InceptionV3__AuxLogits__AvgPool_1a_5x5__AvgPool"
  pooling_param {
    pool: AVE_TF
    kernel_h: 5
    kernel_w: 5
    stride_h: 3
    stride_w: 3
    pad_h: 0
    pad_w: 0
    ceil_mode: false
  }
}
layer {
  name: "InceptionV3__InceptionV3__Mixed_7a__Branch_0__Conv2d_0a_1x1__BatchNorm__FusedBatchNorm"
  type: "BatchNorm"
  bottom: "InceptionV3__InceptionV3__Mixed_7a__Branch_0__Conv2d_0a_1x1__Conv2D"
  top: "InceptionV3__InceptionV3__Mixed_7a__Branch_0__Conv2d_0a_1x1__BatchNorm__FusedBatchNorm"
  batch_norm_param {
    use_global_stats: true
    eps: 0.0010000000475
  }
}
layer {
  name: "InceptionV3__InceptionV3__Mixed_7a__Branch_0__Conv2d_0a_1x1__BatchNorm__FusedBatchNorm__scale"
  type: "Scale"
  bottom: "InceptionV3__InceptionV3__Mixed_7a__Branch_0__Conv2d_0a_1x1__BatchNorm__FusedBatchNorm"
  top: "InceptionV3__InceptionV3__Mixed_7a__Branch_0__Conv2d_0a_1x1__BatchNorm__FusedBatchNorm__scale"
  scale_param {
    bias_term: true
  }
}
layer {
  name: "InceptionV3__InceptionV3__Mixed_7a__Branch_1__Conv2d_0a_1x1__BatchNorm__FusedBatchNorm"
  type: "BatchNorm"
  bottom: "InceptionV3__InceptionV3__Mixed_7a__Branch_1__Conv2d_0a_1x1__Conv2D"
  top: "InceptionV3__InceptionV3__Mixed_7a__Branch_1__Conv2d_0a_1x1__BatchNorm__FusedBatchNorm"
  batch_norm_param {
    use_global_stats: true
    eps: 0.0010000000475
  }
}
layer {
  name: "InceptionV3__InceptionV3__Mixed_7a__Branch_1__Conv2d_0a_1x1__BatchNorm__FusedBatchNorm__scale"
  type: "Scale"
  bottom: "InceptionV3__InceptionV3__Mixed_7a__Branch_1__Conv2d_0a_1x1__BatchNorm__FusedBatchNorm"
  top: "InceptionV3__InceptionV3__Mixed_7a__Branch_1__Conv2d_0a_1x1__BatchNorm__FusedBatchNorm__scale"
  scale_param {
    bias_term: true
  }
}
layer {
  name: "InceptionV3__AuxLogits__Conv2d_1b_1x1__Conv2D"
  type: "Convolution"
  bottom: "InceptionV3__AuxLogits__AvgPool_1a_5x5__AvgPool"
  top: "InceptionV3__AuxLogits__Conv2d_1b_1x1__Conv2D"
  convolution_param {
    num_output: 128
    bias_term: false
    pad_h: 0
    pad_w: 0
    kernel_h: 1
    kernel_w: 1
    stride_h: 1
    stride_w: 1
    pad_type: 1
  }
}
layer {
  name: "InceptionV3__InceptionV3__Mixed_7a__Branch_0__Conv2d_0a_1x1__Relu"
  type: "ReLU"
  bottom: "InceptionV3__InceptionV3__Mixed_7a__Branch_0__Conv2d_0a_1x1__BatchNorm__FusedBatchNorm__scale"
  top: "InceptionV3__InceptionV3__Mixed_7a__Branch_0__Conv2d_0a_1x1__Relu"
}
layer {
  name: "InceptionV3__InceptionV3__Mixed_7a__Branch_1__Conv2d_0a_1x1__Relu"
  type: "ReLU"
  bottom: "InceptionV3__InceptionV3__Mixed_7a__Branch_1__Conv2d_0a_1x1__BatchNorm__FusedBatchNorm__scale"
  top: "InceptionV3__InceptionV3__Mixed_7a__Branch_1__Conv2d_0a_1x1__Relu"
}
layer {
  name: "InceptionV3__AuxLogits__Conv2d_1b_1x1__BatchNorm__FusedBatchNorm"
  type: "BatchNorm"
  bottom: "InceptionV3__AuxLogits__Conv2d_1b_1x1__Conv2D"
  top: "InceptionV3__AuxLogits__Conv2d_1b_1x1__BatchNorm__FusedBatchNorm"
  batch_norm_param {
    use_global_stats: true
    eps: 0.0010000000475
  }
}
layer {
  name: "InceptionV3__AuxLogits__Conv2d_1b_1x1__BatchNorm__FusedBatchNorm__scale"
  type: "Scale"
  bottom: "InceptionV3__AuxLogits__Conv2d_1b_1x1__BatchNorm__FusedBatchNorm"
  top: "InceptionV3__AuxLogits__Conv2d_1b_1x1__BatchNorm__FusedBatchNorm__scale"
  scale_param {
    bias_term: true
  }
}
layer {
  name: "InceptionV3__InceptionV3__Mixed_7a__Branch_0__Conv2d_1a_3x3__Conv2D"
  type: "Convolution"
  bottom: "InceptionV3__InceptionV3__Mixed_7a__Branch_0__Conv2d_0a_1x1__Relu"
  top: "InceptionV3__InceptionV3__Mixed_7a__Branch_0__Conv2d_1a_3x3__Conv2D"
  convolution_param {
    num_output: 320
    bias_term: false
    pad_h: 0
    pad_w: 0
    kernel_h: 3
    kernel_w: 3
    stride_h: 2
    stride_w: 2
  }
}
layer {
  name: "InceptionV3__InceptionV3__Mixed_7a__Branch_1__Conv2d_0b_1x7__Conv2D"
  type: "Convolution"
  bottom: "InceptionV3__InceptionV3__Mixed_7a__Branch_1__Conv2d_0a_1x1__Relu"
  top: "InceptionV3__InceptionV3__Mixed_7a__Branch_1__Conv2d_0b_1x7__Conv2D"
  convolution_param {
    num_output: 192
    bias_term: false
    pad_h: 0
    pad_w: 3
    kernel_h: 1
    kernel_w: 7
    stride_h: 1
    stride_w: 1
    pad_type: 1
  }
}
layer {
  name: "InceptionV3__AuxLogits__Conv2d_1b_1x1__Relu"
  type: "ReLU"
  bottom: "InceptionV3__AuxLogits__Conv2d_1b_1x1__BatchNorm__FusedBatchNorm__scale"
  top: "InceptionV3__AuxLogits__Conv2d_1b_1x1__Relu"
}
layer {
  name: "InceptionV3__InceptionV3__Mixed_7a__Branch_0__Conv2d_1a_3x3__BatchNorm__FusedBatchNorm"
  type: "BatchNorm"
  bottom: "InceptionV3__InceptionV3__Mixed_7a__Branch_0__Conv2d_1a_3x3__Conv2D"
  top: "InceptionV3__InceptionV3__Mixed_7a__Branch_0__Conv2d_1a_3x3__BatchNorm__FusedBatchNorm"
  batch_norm_param {
    use_global_stats: true
    eps: 0.0010000000475
  }
}
layer {
  name: "InceptionV3__InceptionV3__Mixed_7a__Branch_0__Conv2d_1a_3x3__BatchNorm__FusedBatchNorm__scale"
  type: "Scale"
  bottom: "InceptionV3__InceptionV3__Mixed_7a__Branch_0__Conv2d_1a_3x3__BatchNorm__FusedBatchNorm"
  top: "InceptionV3__InceptionV3__Mixed_7a__Branch_0__Conv2d_1a_3x3__BatchNorm__FusedBatchNorm__scale"
  scale_param {
    bias_term: true
  }
}
layer {
  name: "InceptionV3__InceptionV3__Mixed_7a__Branch_1__Conv2d_0b_1x7__BatchNorm__FusedBatchNorm"
  type: "BatchNorm"
  bottom: "InceptionV3__InceptionV3__Mixed_7a__Branch_1__Conv2d_0b_1x7__Conv2D"
  top: "InceptionV3__InceptionV3__Mixed_7a__Branch_1__Conv2d_0b_1x7__BatchNorm__FusedBatchNorm"
  batch_norm_param {
    use_global_stats: true
    eps: 0.0010000000475
  }
}
layer {
  name: "InceptionV3__InceptionV3__Mixed_7a__Branch_1__Conv2d_0b_1x7__BatchNorm__FusedBatchNorm__scale"
  type: "Scale"
  bottom: "InceptionV3__InceptionV3__Mixed_7a__Branch_1__Conv2d_0b_1x7__BatchNorm__FusedBatchNorm"
  top: "InceptionV3__InceptionV3__Mixed_7a__Branch_1__Conv2d_0b_1x7__BatchNorm__FusedBatchNorm__scale"
  scale_param {
    bias_term: true
  }
}
layer {
  name: "InceptionV3__AuxLogits__Conv2d_2a_5x5__Conv2D"
  type: "Convolution"
  bottom: "InceptionV3__AuxLogits__Conv2d_1b_1x1__Relu"
  top: "InceptionV3__AuxLogits__Conv2d_2a_5x5__Conv2D"
  convolution_param {
    num_output: 768
    bias_term: false
    pad_h: 0
    pad_w: 0
    kernel_h: 5
    kernel_w: 5
    stride_h: 1
    stride_w: 1
  }
}
layer {
  name: "InceptionV3__InceptionV3__Mixed_7a__Branch_0__Conv2d_1a_3x3__Relu"
  type: "ReLU"
  bottom: "InceptionV3__InceptionV3__Mixed_7a__Branch_0__Conv2d_1a_3x3__BatchNorm__FusedBatchNorm__scale"
  top: "InceptionV3__InceptionV3__Mixed_7a__Branch_0__Conv2d_1a_3x3__Relu"
}
layer {
  name: "InceptionV3__InceptionV3__Mixed_7a__Branch_1__Conv2d_0b_1x7__Relu"
  type: "ReLU"
  bottom: "InceptionV3__InceptionV3__Mixed_7a__Branch_1__Conv2d_0b_1x7__BatchNorm__FusedBatchNorm__scale"
  top: "InceptionV3__InceptionV3__Mixed_7a__Branch_1__Conv2d_0b_1x7__Relu"
}
layer {
  name: "InceptionV3__AuxLogits__Conv2d_2a_5x5__BatchNorm__FusedBatchNorm"
  type: "BatchNorm"
  bottom: "InceptionV3__AuxLogits__Conv2d_2a_5x5__Conv2D"
  top: "InceptionV3__AuxLogits__Conv2d_2a_5x5__BatchNorm__FusedBatchNorm"
  batch_norm_param {
    use_global_stats: true
    eps: 0.0010000000475
  }
}
layer {
  name: "InceptionV3__AuxLogits__Conv2d_2a_5x5__BatchNorm__FusedBatchNorm__scale"
  type: "Scale"
  bottom: "InceptionV3__AuxLogits__Conv2d_2a_5x5__BatchNorm__FusedBatchNorm"
  top: "InceptionV3__AuxLogits__Conv2d_2a_5x5__BatchNorm__FusedBatchNorm__scale"
  scale_param {
    bias_term: true
  }
}
layer {
  name: "InceptionV3__InceptionV3__Mixed_7a__Branch_1__Conv2d_0c_7x1__Conv2D"
  type: "Convolution"
  bottom: "InceptionV3__InceptionV3__Mixed_7a__Branch_1__Conv2d_0b_1x7__Relu"
  top: "InceptionV3__InceptionV3__Mixed_7a__Branch_1__Conv2d_0c_7x1__Conv2D"
  convolution_param {
    num_output: 192
    bias_term: false
    pad_h: 3
    pad_w: 0
    kernel_h: 7
    kernel_w: 1
    stride_h: 1
    stride_w: 1
    pad_type: 1
  }
}
layer {
  name: "InceptionV3__AuxLogits__Conv2d_2a_5x5__Relu"
  type: "ReLU"
  bottom: "InceptionV3__AuxLogits__Conv2d_2a_5x5__BatchNorm__FusedBatchNorm__scale"
  top: "InceptionV3__AuxLogits__Conv2d_2a_5x5__Relu"
}
layer {
  name: "InceptionV3__InceptionV3__Mixed_7a__Branch_1__Conv2d_0c_7x1__BatchNorm__FusedBatchNorm"
  type: "BatchNorm"
  bottom: "InceptionV3__InceptionV3__Mixed_7a__Branch_1__Conv2d_0c_7x1__Conv2D"
  top: "InceptionV3__InceptionV3__Mixed_7a__Branch_1__Conv2d_0c_7x1__BatchNorm__FusedBatchNorm"
  batch_norm_param {
    use_global_stats: true
    eps: 0.0010000000475
  }
}
layer {
  name: "InceptionV3__InceptionV3__Mixed_7a__Branch_1__Conv2d_0c_7x1__BatchNorm__FusedBatchNorm__scale"
  type: "Scale"
  bottom: "InceptionV3__InceptionV3__Mixed_7a__Branch_1__Conv2d_0c_7x1__BatchNorm__FusedBatchNorm"
  top: "InceptionV3__InceptionV3__Mixed_7a__Branch_1__Conv2d_0c_7x1__BatchNorm__FusedBatchNorm__scale"
  scale_param {
    bias_term: true
  }
}
layer {
  name: "InceptionV3__AuxLogits__Conv2d_2b_1x1__Conv2D"
  type: "Convolution"
  bottom: "InceptionV3__AuxLogits__Conv2d_2a_5x5__Relu"
  top: "InceptionV3__AuxLogits__Conv2d_2b_1x1__Conv2D"
  convolution_param {
    num_output: 1001
    bias_term: false
    pad_h: 0
    pad_w: 0
    kernel_h: 1
    kernel_w: 1
    stride_h: 1
    stride_w: 1
    pad_type: 1
  }
}
layer {
  name: "InceptionV3__InceptionV3__Mixed_7a__Branch_1__Conv2d_0c_7x1__Relu"
  type: "ReLU"
  bottom: "InceptionV3__InceptionV3__Mixed_7a__Branch_1__Conv2d_0c_7x1__BatchNorm__FusedBatchNorm__scale"
  top: "InceptionV3__InceptionV3__Mixed_7a__Branch_1__Conv2d_0c_7x1__Relu"
}
layer {
  name: "InceptionV3__AuxLogits__Conv2d_2b_1x1__BiasAdd"
  type: "Bias"
  bottom: "InceptionV3__AuxLogits__Conv2d_2b_1x1__Conv2D"
  top: "InceptionV3__AuxLogits__Conv2d_2b_1x1__BiasAdd"
}
layer {
  name: "InceptionV3__InceptionV3__Mixed_7a__Branch_1__Conv2d_1a_3x3__Conv2D"
  type: "Convolution"
  bottom: "InceptionV3__InceptionV3__Mixed_7a__Branch_1__Conv2d_0c_7x1__Relu"
  top: "InceptionV3__InceptionV3__Mixed_7a__Branch_1__Conv2d_1a_3x3__Conv2D"
  convolution_param {
    num_output: 192
    bias_term: false
    pad_h: 0
    pad_w: 0
    kernel_h: 3
    kernel_w: 3
    stride_h: 2
    stride_w: 2
  }
}
layer {
  name: "InceptionV3__AuxLogits__SpatialSqueeze"
  type: "Flatten"
  bottom: "InceptionV3__AuxLogits__Conv2d_2b_1x1__BiasAdd"
  top: "InceptionV3__AuxLogits__SpatialSqueeze"
}
layer {
  name: "InceptionV3__InceptionV3__Mixed_7a__Branch_1__Conv2d_1a_3x3__BatchNorm__FusedBatchNorm"
  type: "BatchNorm"
  bottom: "InceptionV3__InceptionV3__Mixed_7a__Branch_1__Conv2d_1a_3x3__Conv2D"
  top: "InceptionV3__InceptionV3__Mixed_7a__Branch_1__Conv2d_1a_3x3__BatchNorm__FusedBatchNorm"
  batch_norm_param {
    use_global_stats: true
    eps: 0.0010000000475
  }
}
layer {
  name: "InceptionV3__InceptionV3__Mixed_7a__Branch_1__Conv2d_1a_3x3__BatchNorm__FusedBatchNorm__scale"
  type: "Scale"
  bottom: "InceptionV3__InceptionV3__Mixed_7a__Branch_1__Conv2d_1a_3x3__BatchNorm__FusedBatchNorm"
  top: "InceptionV3__InceptionV3__Mixed_7a__Branch_1__Conv2d_1a_3x3__BatchNorm__FusedBatchNorm__scale"
  scale_param {
    bias_term: true
  }
}
layer {
  name: "InceptionV3__InceptionV3__Mixed_7a__Branch_1__Conv2d_1a_3x3__Relu"
  type: "ReLU"
  bottom: "InceptionV3__InceptionV3__Mixed_7a__Branch_1__Conv2d_1a_3x3__BatchNorm__FusedBatchNorm__scale"
  top: "InceptionV3__InceptionV3__Mixed_7a__Branch_1__Conv2d_1a_3x3__Relu"
}
layer {
  name: "InceptionV3__InceptionV3__Mixed_7a__concat"
  type: "Concat"
  bottom: "InceptionV3__InceptionV3__Mixed_7a__Branch_0__Conv2d_1a_3x3__Relu"
  bottom: "InceptionV3__InceptionV3__Mixed_7a__Branch_1__Conv2d_1a_3x3__Relu"
  bottom: "InceptionV3__InceptionV3__Mixed_7a__Branch_2__MaxPool_1a_3x3__MaxPool"
  top: "InceptionV3__InceptionV3__Mixed_7a__concat"
  concat_param {
    axis: 1
  }
}
layer {
  name: "InceptionV3__InceptionV3__Mixed_7b__Branch_0__Conv2d_0a_1x1__Conv2D"
  type: "Convolution"
  bottom: "InceptionV3__InceptionV3__Mixed_7a__concat"
  top: "InceptionV3__InceptionV3__Mixed_7b__Branch_0__Conv2d_0a_1x1__Conv2D"
  convolution_param {
    num_output: 320
    bias_term: false
    pad_h: 0
    pad_w: 0
    kernel_h: 1
    kernel_w: 1
    stride_h: 1
    stride_w: 1
    pad_type: 1
  }
}
layer {
  name: "InceptionV3__InceptionV3__Mixed_7b__Branch_1__Conv2d_0a_1x1__Conv2D"
  type: "Convolution"
  bottom: "InceptionV3__InceptionV3__Mixed_7a__concat"
  top: "InceptionV3__InceptionV3__Mixed_7b__Branch_1__Conv2d_0a_1x1__Conv2D"
  convolution_param {
    num_output: 384
    bias_term: false
    pad_h: 0
    pad_w: 0
    kernel_h: 1
    kernel_w: 1
    stride_h: 1
    stride_w: 1
    pad_type: 1
  }
}
layer {
  name: "InceptionV3__InceptionV3__Mixed_7b__Branch_2__Conv2d_0a_1x1__Conv2D"
  type: "Convolution"
  bottom: "InceptionV3__InceptionV3__Mixed_7a__concat"
  top: "InceptionV3__InceptionV3__Mixed_7b__Branch_2__Conv2d_0a_1x1__Conv2D"
  convolution_param {
    num_output: 448
    bias_term: false
    pad_h: 0
    pad_w: 0
    kernel_h: 1
    kernel_w: 1
    stride_h: 1
    stride_w: 1
    pad_type: 1
  }
}
layer {
  name: "InceptionV3__InceptionV3__Mixed_7b__Branch_3__AvgPool_0a_3x3__AvgPool"
  type: "Pooling"
  bottom: "InceptionV3__InceptionV3__Mixed_7a__concat"
  top: "InceptionV3__InceptionV3__Mixed_7b__Branch_3__AvgPool_0a_3x3__AvgPool"
  pooling_param {
    pool: AVE_TF
    kernel_h: 3
    kernel_w: 3
    stride_h: 1
    stride_w: 1
    pad_h: 1
    pad_w: 1
    pad_type: 1
  }
}
layer {
  name: "InceptionV3__InceptionV3__Mixed_7b__Branch_0__Conv2d_0a_1x1__BatchNorm__FusedBatchNorm"
  type: "BatchNorm"
  bottom: "InceptionV3__InceptionV3__Mixed_7b__Branch_0__Conv2d_0a_1x1__Conv2D"
  top: "InceptionV3__InceptionV3__Mixed_7b__Branch_0__Conv2d_0a_1x1__BatchNorm__FusedBatchNorm"
  batch_norm_param {
    use_global_stats: true
    eps: 0.0010000000475
  }
}
layer {
  name: "InceptionV3__InceptionV3__Mixed_7b__Branch_0__Conv2d_0a_1x1__BatchNorm__FusedBatchNorm__scale"
  type: "Scale"
  bottom: "InceptionV3__InceptionV3__Mixed_7b__Branch_0__Conv2d_0a_1x1__BatchNorm__FusedBatchNorm"
  top: "InceptionV3__InceptionV3__Mixed_7b__Branch_0__Conv2d_0a_1x1__BatchNorm__FusedBatchNorm__scale"
  scale_param {
    bias_term: true
  }
}
layer {
  name: "InceptionV3__InceptionV3__Mixed_7b__Branch_1__Conv2d_0a_1x1__BatchNorm__FusedBatchNorm"
  type: "BatchNorm"
  bottom: "InceptionV3__InceptionV3__Mixed_7b__Branch_1__Conv2d_0a_1x1__Conv2D"
  top: "InceptionV3__InceptionV3__Mixed_7b__Branch_1__Conv2d_0a_1x1__BatchNorm__FusedBatchNorm"
  batch_norm_param {
    use_global_stats: true
    eps: 0.0010000000475
  }
}
layer {
  name: "InceptionV3__InceptionV3__Mixed_7b__Branch_1__Conv2d_0a_1x1__BatchNorm__FusedBatchNorm__scale"
  type: "Scale"
  bottom: "InceptionV3__InceptionV3__Mixed_7b__Branch_1__Conv2d_0a_1x1__BatchNorm__FusedBatchNorm"
  top: "InceptionV3__InceptionV3__Mixed_7b__Branch_1__Conv2d_0a_1x1__BatchNorm__FusedBatchNorm__scale"
  scale_param {
    bias_term: true
  }
}
layer {
  name: "InceptionV3__InceptionV3__Mixed_7b__Branch_2__Conv2d_0a_1x1__BatchNorm__FusedBatchNorm"
  type: "BatchNorm"
  bottom: "InceptionV3__InceptionV3__Mixed_7b__Branch_2__Conv2d_0a_1x1__Conv2D"
  top: "InceptionV3__InceptionV3__Mixed_7b__Branch_2__Conv2d_0a_1x1__BatchNorm__FusedBatchNorm"
  batch_norm_param {
    use_global_stats: true
    eps: 0.0010000000475
  }
}
layer {
  name: "InceptionV3__InceptionV3__Mixed_7b__Branch_2__Conv2d_0a_1x1__BatchNorm__FusedBatchNorm__scale"
  type: "Scale"
  bottom: "InceptionV3__InceptionV3__Mixed_7b__Branch_2__Conv2d_0a_1x1__BatchNorm__FusedBatchNorm"
  top: "InceptionV3__InceptionV3__Mixed_7b__Branch_2__Conv2d_0a_1x1__BatchNorm__FusedBatchNorm__scale"
  scale_param {
    bias_term: true
  }
}
layer {
  name: "InceptionV3__InceptionV3__Mixed_7b__Branch_3__Conv2d_0b_1x1__Conv2D"
  type: "Convolution"
  bottom: "InceptionV3__InceptionV3__Mixed_7b__Branch_3__AvgPool_0a_3x3__AvgPool"
  top: "InceptionV3__InceptionV3__Mixed_7b__Branch_3__Conv2d_0b_1x1__Conv2D"
  convolution_param {
    num_output: 192
    bias_term: false
    pad_h: 0
    pad_w: 0
    kernel_h: 1
    kernel_w: 1
    stride_h: 1
    stride_w: 1
    pad_type: 1
  }
}
layer {
  name: "InceptionV3__InceptionV3__Mixed_7b__Branch_0__Conv2d_0a_1x1__Relu"
  type: "ReLU"
  bottom: "InceptionV3__InceptionV3__Mixed_7b__Branch_0__Conv2d_0a_1x1__BatchNorm__FusedBatchNorm__scale"
  top: "InceptionV3__InceptionV3__Mixed_7b__Branch_0__Conv2d_0a_1x1__Relu"
}
layer {
  name: "InceptionV3__InceptionV3__Mixed_7b__Branch_1__Conv2d_0a_1x1__Relu"
  type: "ReLU"
  bottom: "InceptionV3__InceptionV3__Mixed_7b__Branch_1__Conv2d_0a_1x1__BatchNorm__FusedBatchNorm__scale"
  top: "InceptionV3__InceptionV3__Mixed_7b__Branch_1__Conv2d_0a_1x1__Relu"
}
layer {
  name: "InceptionV3__InceptionV3__Mixed_7b__Branch_2__Conv2d_0a_1x1__Relu"
  type: "ReLU"
  bottom: "InceptionV3__InceptionV3__Mixed_7b__Branch_2__Conv2d_0a_1x1__BatchNorm__FusedBatchNorm__scale"
  top: "InceptionV3__InceptionV3__Mixed_7b__Branch_2__Conv2d_0a_1x1__Relu"
}
layer {
  name: "InceptionV3__InceptionV3__Mixed_7b__Branch_3__Conv2d_0b_1x1__BatchNorm__FusedBatchNorm"
  type: "BatchNorm"
  bottom: "InceptionV3__InceptionV3__Mixed_7b__Branch_3__Conv2d_0b_1x1__Conv2D"
  top: "InceptionV3__InceptionV3__Mixed_7b__Branch_3__Conv2d_0b_1x1__BatchNorm__FusedBatchNorm"
  batch_norm_param {
    use_global_stats: true
    eps: 0.0010000000475
  }
}
layer {
  name: "InceptionV3__InceptionV3__Mixed_7b__Branch_3__Conv2d_0b_1x1__BatchNorm__FusedBatchNorm__scale"
  type: "Scale"
  bottom: "InceptionV3__InceptionV3__Mixed_7b__Branch_3__Conv2d_0b_1x1__BatchNorm__FusedBatchNorm"
  top: "InceptionV3__InceptionV3__Mixed_7b__Branch_3__Conv2d_0b_1x1__BatchNorm__FusedBatchNorm__scale"
  scale_param {
    bias_term: true
  }
}
layer {
  name: "InceptionV3__InceptionV3__Mixed_7b__Branch_1__Conv2d_0b_1x3__Conv2D"
  type: "Convolution"
  bottom: "InceptionV3__InceptionV3__Mixed_7b__Branch_1__Conv2d_0a_1x1__Relu"
  top: "InceptionV3__InceptionV3__Mixed_7b__Branch_1__Conv2d_0b_1x3__Conv2D"
  convolution_param {
    num_output: 384
    bias_term: false
    pad_h: 0
    pad_w: 1
    kernel_h: 1
    kernel_w: 3
    stride_h: 1
    stride_w: 1
    pad_type: 1
  }
}
layer {
  name: "InceptionV3__InceptionV3__Mixed_7b__Branch_1__Conv2d_0b_3x1__Conv2D"
  type: "Convolution"
  bottom: "InceptionV3__InceptionV3__Mixed_7b__Branch_1__Conv2d_0a_1x1__Relu"
  top: "InceptionV3__InceptionV3__Mixed_7b__Branch_1__Conv2d_0b_3x1__Conv2D"
  convolution_param {
    num_output: 384
    bias_term: false
    pad_h: 1
    pad_w: 0
    kernel_h: 3
    kernel_w: 1
    stride_h: 1
    stride_w: 1
    pad_type: 1
  }
}
layer {
  name: "InceptionV3__InceptionV3__Mixed_7b__Branch_2__Conv2d_0b_3x3__Conv2D"
  type: "Convolution"
  bottom: "InceptionV3__InceptionV3__Mixed_7b__Branch_2__Conv2d_0a_1x1__Relu"
  top: "InceptionV3__InceptionV3__Mixed_7b__Branch_2__Conv2d_0b_3x3__Conv2D"
  convolution_param {
    num_output: 384
    bias_term: false
    pad_h: 1
    pad_w: 1
    kernel_h: 3
    kernel_w: 3
    stride_h: 1
    stride_w: 1
    pad_type: 1
  }
}
layer {
  name: "InceptionV3__InceptionV3__Mixed_7b__Branch_3__Conv2d_0b_1x1__Relu"
  type: "ReLU"
  bottom: "InceptionV3__InceptionV3__Mixed_7b__Branch_3__Conv2d_0b_1x1__BatchNorm__FusedBatchNorm__scale"
  top: "InceptionV3__InceptionV3__Mixed_7b__Branch_3__Conv2d_0b_1x1__Relu"
}
layer {
  name: "InceptionV3__InceptionV3__Mixed_7b__Branch_1__Conv2d_0b_1x3__BatchNorm__FusedBatchNorm"
  type: "BatchNorm"
  bottom: "InceptionV3__InceptionV3__Mixed_7b__Branch_1__Conv2d_0b_1x3__Conv2D"
  top: "InceptionV3__InceptionV3__Mixed_7b__Branch_1__Conv2d_0b_1x3__BatchNorm__FusedBatchNorm"
  batch_norm_param {
    use_global_stats: true
    eps: 0.0010000000475
  }
}
layer {
  name: "InceptionV3__InceptionV3__Mixed_7b__Branch_1__Conv2d_0b_1x3__BatchNorm__FusedBatchNorm__scale"
  type: "Scale"
  bottom: "InceptionV3__InceptionV3__Mixed_7b__Branch_1__Conv2d_0b_1x3__BatchNorm__FusedBatchNorm"
  top: "InceptionV3__InceptionV3__Mixed_7b__Branch_1__Conv2d_0b_1x3__BatchNorm__FusedBatchNorm__scale"
  scale_param {
    bias_term: true
  }
}
layer {
  name: "InceptionV3__InceptionV3__Mixed_7b__Branch_1__Conv2d_0b_3x1__BatchNorm__FusedBatchNorm"
  type: "BatchNorm"
  bottom: "InceptionV3__InceptionV3__Mixed_7b__Branch_1__Conv2d_0b_3x1__Conv2D"
  top: "InceptionV3__InceptionV3__Mixed_7b__Branch_1__Conv2d_0b_3x1__BatchNorm__FusedBatchNorm"
  batch_norm_param {
    use_global_stats: true
    eps: 0.0010000000475
  }
}
layer {
  name: "InceptionV3__InceptionV3__Mixed_7b__Branch_1__Conv2d_0b_3x1__BatchNorm__FusedBatchNorm__scale"
  type: "Scale"
  bottom: "InceptionV3__InceptionV3__Mixed_7b__Branch_1__Conv2d_0b_3x1__BatchNorm__FusedBatchNorm"
  top: "InceptionV3__InceptionV3__Mixed_7b__Branch_1__Conv2d_0b_3x1__BatchNorm__FusedBatchNorm__scale"
  scale_param {
    bias_term: true
  }
}
layer {
  name: "InceptionV3__InceptionV3__Mixed_7b__Branch_2__Conv2d_0b_3x3__BatchNorm__FusedBatchNorm"
  type: "BatchNorm"
  bottom: "InceptionV3__InceptionV3__Mixed_7b__Branch_2__Conv2d_0b_3x3__Conv2D"
  top: "InceptionV3__InceptionV3__Mixed_7b__Branch_2__Conv2d_0b_3x3__BatchNorm__FusedBatchNorm"
  batch_norm_param {
    use_global_stats: true
    eps: 0.0010000000475
  }
}
layer {
  name: "InceptionV3__InceptionV3__Mixed_7b__Branch_2__Conv2d_0b_3x3__BatchNorm__FusedBatchNorm__scale"
  type: "Scale"
  bottom: "InceptionV3__InceptionV3__Mixed_7b__Branch_2__Conv2d_0b_3x3__BatchNorm__FusedBatchNorm"
  top: "InceptionV3__InceptionV3__Mixed_7b__Branch_2__Conv2d_0b_3x3__BatchNorm__FusedBatchNorm__scale"
  scale_param {
    bias_term: true
  }
}
layer {
  name: "InceptionV3__InceptionV3__Mixed_7b__Branch_1__Conv2d_0b_1x3__Relu"
  type: "ReLU"
  bottom: "InceptionV3__InceptionV3__Mixed_7b__Branch_1__Conv2d_0b_1x3__BatchNorm__FusedBatchNorm__scale"
  top: "InceptionV3__InceptionV3__Mixed_7b__Branch_1__Conv2d_0b_1x3__Relu"
}
layer {
  name: "InceptionV3__InceptionV3__Mixed_7b__Branch_1__Conv2d_0b_3x1__Relu"
  type: "ReLU"
  bottom: "InceptionV3__InceptionV3__Mixed_7b__Branch_1__Conv2d_0b_3x1__BatchNorm__FusedBatchNorm__scale"
  top: "InceptionV3__InceptionV3__Mixed_7b__Branch_1__Conv2d_0b_3x1__Relu"
}
layer {
  name: "InceptionV3__InceptionV3__Mixed_7b__Branch_2__Conv2d_0b_3x3__Relu"
  type: "ReLU"
  bottom: "InceptionV3__InceptionV3__Mixed_7b__Branch_2__Conv2d_0b_3x3__BatchNorm__FusedBatchNorm__scale"
  top: "InceptionV3__InceptionV3__Mixed_7b__Branch_2__Conv2d_0b_3x3__Relu"
}
layer {
  name: "InceptionV3__InceptionV3__Mixed_7b__Branch_1__concat"
  type: "Concat"
  bottom: "InceptionV3__InceptionV3__Mixed_7b__Branch_1__Conv2d_0b_1x3__Relu"
  bottom: "InceptionV3__InceptionV3__Mixed_7b__Branch_1__Conv2d_0b_3x1__Relu"
  top: "InceptionV3__InceptionV3__Mixed_7b__Branch_1__concat"
  concat_param {
    axis: 1
  }
}
layer {
  name: "InceptionV3__InceptionV3__Mixed_7b__Branch_2__Conv2d_0c_1x3__Conv2D"
  type: "Convolution"
  bottom: "InceptionV3__InceptionV3__Mixed_7b__Branch_2__Conv2d_0b_3x3__Relu"
  top: "InceptionV3__InceptionV3__Mixed_7b__Branch_2__Conv2d_0c_1x3__Conv2D"
  convolution_param {
    num_output: 384
    bias_term: false
    pad_h: 0
    pad_w: 1
    kernel_h: 1
    kernel_w: 3
    stride_h: 1
    stride_w: 1
    pad_type: 1
  }
}
layer {
  name: "InceptionV3__InceptionV3__Mixed_7b__Branch_2__Conv2d_0d_3x1__Conv2D"
  type: "Convolution"
  bottom: "InceptionV3__InceptionV3__Mixed_7b__Branch_2__Conv2d_0b_3x3__Relu"
  top: "InceptionV3__InceptionV3__Mixed_7b__Branch_2__Conv2d_0d_3x1__Conv2D"
  convolution_param {
    num_output: 384
    bias_term: false
    pad_h: 1
    pad_w: 0
    kernel_h: 3
    kernel_w: 1
    stride_h: 1
    stride_w: 1
    pad_type: 1
  }
}
layer {
  name: "InceptionV3__InceptionV3__Mixed_7b__Branch_2__Conv2d_0c_1x3__BatchNorm__FusedBatchNorm"
  type: "BatchNorm"
  bottom: "InceptionV3__InceptionV3__Mixed_7b__Branch_2__Conv2d_0c_1x3__Conv2D"
  top: "InceptionV3__InceptionV3__Mixed_7b__Branch_2__Conv2d_0c_1x3__BatchNorm__FusedBatchNorm"
  batch_norm_param {
    use_global_stats: true
    eps: 0.0010000000475
  }
}
layer {
  name: "InceptionV3__InceptionV3__Mixed_7b__Branch_2__Conv2d_0c_1x3__BatchNorm__FusedBatchNorm__scale"
  type: "Scale"
  bottom: "InceptionV3__InceptionV3__Mixed_7b__Branch_2__Conv2d_0c_1x3__BatchNorm__FusedBatchNorm"
  top: "InceptionV3__InceptionV3__Mixed_7b__Branch_2__Conv2d_0c_1x3__BatchNorm__FusedBatchNorm__scale"
  scale_param {
    bias_term: true
  }
}
layer {
  name: "InceptionV3__InceptionV3__Mixed_7b__Branch_2__Conv2d_0d_3x1__BatchNorm__FusedBatchNorm"
  type: "BatchNorm"
  bottom: "InceptionV3__InceptionV3__Mixed_7b__Branch_2__Conv2d_0d_3x1__Conv2D"
  top: "InceptionV3__InceptionV3__Mixed_7b__Branch_2__Conv2d_0d_3x1__BatchNorm__FusedBatchNorm"
  batch_norm_param {
    use_global_stats: true
    eps: 0.0010000000475
  }
}
layer {
  name: "InceptionV3__InceptionV3__Mixed_7b__Branch_2__Conv2d_0d_3x1__BatchNorm__FusedBatchNorm__scale"
  type: "Scale"
  bottom: "InceptionV3__InceptionV3__Mixed_7b__Branch_2__Conv2d_0d_3x1__BatchNorm__FusedBatchNorm"
  top: "InceptionV3__InceptionV3__Mixed_7b__Branch_2__Conv2d_0d_3x1__BatchNorm__FusedBatchNorm__scale"
  scale_param {
    bias_term: true
  }
}
layer {
  name: "InceptionV3__InceptionV3__Mixed_7b__Branch_2__Conv2d_0c_1x3__Relu"
  type: "ReLU"
  bottom: "InceptionV3__InceptionV3__Mixed_7b__Branch_2__Conv2d_0c_1x3__BatchNorm__FusedBatchNorm__scale"
  top: "InceptionV3__InceptionV3__Mixed_7b__Branch_2__Conv2d_0c_1x3__Relu"
}
layer {
  name: "InceptionV3__InceptionV3__Mixed_7b__Branch_2__Conv2d_0d_3x1__Relu"
  type: "ReLU"
  bottom: "InceptionV3__InceptionV3__Mixed_7b__Branch_2__Conv2d_0d_3x1__BatchNorm__FusedBatchNorm__scale"
  top: "InceptionV3__InceptionV3__Mixed_7b__Branch_2__Conv2d_0d_3x1__Relu"
}
layer {
  name: "InceptionV3__InceptionV3__Mixed_7b__Branch_2__concat"
  type: "Concat"
  bottom: "InceptionV3__InceptionV3__Mixed_7b__Branch_2__Conv2d_0c_1x3__Relu"
  bottom: "InceptionV3__InceptionV3__Mixed_7b__Branch_2__Conv2d_0d_3x1__Relu"
  top: "InceptionV3__InceptionV3__Mixed_7b__Branch_2__concat"
  concat_param {
    axis: 1
  }
}
layer {
  name: "InceptionV3__InceptionV3__Mixed_7b__concat"
  type: "Concat"
  bottom: "InceptionV3__InceptionV3__Mixed_7b__Branch_0__Conv2d_0a_1x1__Relu"
  bottom: "InceptionV3__InceptionV3__Mixed_7b__Branch_1__concat"
  bottom: "InceptionV3__InceptionV3__Mixed_7b__Branch_2__concat"
  bottom: "InceptionV3__InceptionV3__Mixed_7b__Branch_3__Conv2d_0b_1x1__Relu"
  top: "InceptionV3__InceptionV3__Mixed_7b__concat"
  concat_param {
    axis: 1
  }
}
layer {
  name: "InceptionV3__InceptionV3__Mixed_7c__Branch_0__Conv2d_0a_1x1__Conv2D"
  type: "Convolution"
  bottom: "InceptionV3__InceptionV3__Mixed_7b__concat"
  top: "InceptionV3__InceptionV3__Mixed_7c__Branch_0__Conv2d_0a_1x1__Conv2D"
  convolution_param {
    num_output: 320
    bias_term: false
    pad_h: 0
    pad_w: 0
    kernel_h: 1
    kernel_w: 1
    stride_h: 1
    stride_w: 1
    pad_type: 1
  }
}
layer {
  name: "InceptionV3__InceptionV3__Mixed_7c__Branch_1__Conv2d_0a_1x1__Conv2D"
  type: "Convolution"
  bottom: "InceptionV3__InceptionV3__Mixed_7b__concat"
  top: "InceptionV3__InceptionV3__Mixed_7c__Branch_1__Conv2d_0a_1x1__Conv2D"
  convolution_param {
    num_output: 384
    bias_term: false
    pad_h: 0
    pad_w: 0
    kernel_h: 1
    kernel_w: 1
    stride_h: 1
    stride_w: 1
    pad_type: 1
  }
}
layer {
  name: "InceptionV3__InceptionV3__Mixed_7c__Branch_2__Conv2d_0a_1x1__Conv2D"
  type: "Convolution"
  bottom: "InceptionV3__InceptionV3__Mixed_7b__concat"
  top: "InceptionV3__InceptionV3__Mixed_7c__Branch_2__Conv2d_0a_1x1__Conv2D"
  convolution_param {
    num_output: 448
    bias_term: false
    pad_h: 0
    pad_w: 0
    kernel_h: 1
    kernel_w: 1
    stride_h: 1
    stride_w: 1
    pad_type: 1
  }
}
layer {
  name: "InceptionV3__InceptionV3__Mixed_7c__Branch_3__AvgPool_0a_3x3__AvgPool"
  type: "Pooling"
  bottom: "InceptionV3__InceptionV3__Mixed_7b__concat"
  top: "InceptionV3__InceptionV3__Mixed_7c__Branch_3__AvgPool_0a_3x3__AvgPool"
  pooling_param {
    pool: AVE_TF
    kernel_h: 3
    kernel_w: 3
    stride_h: 1
    stride_w: 1
    pad_h: 1
    pad_w: 1
    pad_type: 1
  }
}
layer {
  name: "InceptionV3__InceptionV3__Mixed_7c__Branch_0__Conv2d_0a_1x1__BatchNorm__FusedBatchNorm"
  type: "BatchNorm"
  bottom: "InceptionV3__InceptionV3__Mixed_7c__Branch_0__Conv2d_0a_1x1__Conv2D"
  top: "InceptionV3__InceptionV3__Mixed_7c__Branch_0__Conv2d_0a_1x1__BatchNorm__FusedBatchNorm"
  batch_norm_param {
    use_global_stats: true
    eps: 0.0010000000475
  }
}
layer {
  name: "InceptionV3__InceptionV3__Mixed_7c__Branch_0__Conv2d_0a_1x1__BatchNorm__FusedBatchNorm__scale"
  type: "Scale"
  bottom: "InceptionV3__InceptionV3__Mixed_7c__Branch_0__Conv2d_0a_1x1__BatchNorm__FusedBatchNorm"
  top: "InceptionV3__InceptionV3__Mixed_7c__Branch_0__Conv2d_0a_1x1__BatchNorm__FusedBatchNorm__scale"
  scale_param {
    bias_term: true
  }
}
layer {
  name: "InceptionV3__InceptionV3__Mixed_7c__Branch_1__Conv2d_0a_1x1__BatchNorm__FusedBatchNorm"
  type: "BatchNorm"
  bottom: "InceptionV3__InceptionV3__Mixed_7c__Branch_1__Conv2d_0a_1x1__Conv2D"
  top: "InceptionV3__InceptionV3__Mixed_7c__Branch_1__Conv2d_0a_1x1__BatchNorm__FusedBatchNorm"
  batch_norm_param {
    use_global_stats: true
    eps: 0.0010000000475
  }
}
layer {
  name: "InceptionV3__InceptionV3__Mixed_7c__Branch_1__Conv2d_0a_1x1__BatchNorm__FusedBatchNorm__scale"
  type: "Scale"
  bottom: "InceptionV3__InceptionV3__Mixed_7c__Branch_1__Conv2d_0a_1x1__BatchNorm__FusedBatchNorm"
  top: "InceptionV3__InceptionV3__Mixed_7c__Branch_1__Conv2d_0a_1x1__BatchNorm__FusedBatchNorm__scale"
  scale_param {
    bias_term: true
  }
}
layer {
  name: "InceptionV3__InceptionV3__Mixed_7c__Branch_2__Conv2d_0a_1x1__BatchNorm__FusedBatchNorm"
  type: "BatchNorm"
  bottom: "InceptionV3__InceptionV3__Mixed_7c__Branch_2__Conv2d_0a_1x1__Conv2D"
  top: "InceptionV3__InceptionV3__Mixed_7c__Branch_2__Conv2d_0a_1x1__BatchNorm__FusedBatchNorm"
  batch_norm_param {
    use_global_stats: true
    eps: 0.0010000000475
  }
}
layer {
  name: "InceptionV3__InceptionV3__Mixed_7c__Branch_2__Conv2d_0a_1x1__BatchNorm__FusedBatchNorm__scale"
  type: "Scale"
  bottom: "InceptionV3__InceptionV3__Mixed_7c__Branch_2__Conv2d_0a_1x1__BatchNorm__FusedBatchNorm"
  top: "InceptionV3__InceptionV3__Mixed_7c__Branch_2__Conv2d_0a_1x1__BatchNorm__FusedBatchNorm__scale"
  scale_param {
    bias_term: true
  }
}
layer {
  name: "InceptionV3__InceptionV3__Mixed_7c__Branch_3__Conv2d_0b_1x1__Conv2D"
  type: "Convolution"
  bottom: "InceptionV3__InceptionV3__Mixed_7c__Branch_3__AvgPool_0a_3x3__AvgPool"
  top: "InceptionV3__InceptionV3__Mixed_7c__Branch_3__Conv2d_0b_1x1__Conv2D"
  convolution_param {
    num_output: 192
    bias_term: false
    pad_h: 0
    pad_w: 0
    kernel_h: 1
    kernel_w: 1
    stride_h: 1
    stride_w: 1
    pad_type: 1
  }
}
layer {
  name: "InceptionV3__InceptionV3__Mixed_7c__Branch_0__Conv2d_0a_1x1__Relu"
  type: "ReLU"
  bottom: "InceptionV3__InceptionV3__Mixed_7c__Branch_0__Conv2d_0a_1x1__BatchNorm__FusedBatchNorm__scale"
  top: "InceptionV3__InceptionV3__Mixed_7c__Branch_0__Conv2d_0a_1x1__Relu"
}
layer {
  name: "InceptionV3__InceptionV3__Mixed_7c__Branch_1__Conv2d_0a_1x1__Relu"
  type: "ReLU"
  bottom: "InceptionV3__InceptionV3__Mixed_7c__Branch_1__Conv2d_0a_1x1__BatchNorm__FusedBatchNorm__scale"
  top: "InceptionV3__InceptionV3__Mixed_7c__Branch_1__Conv2d_0a_1x1__Relu"
}
layer {
  name: "InceptionV3__InceptionV3__Mixed_7c__Branch_2__Conv2d_0a_1x1__Relu"
  type: "ReLU"
  bottom: "InceptionV3__InceptionV3__Mixed_7c__Branch_2__Conv2d_0a_1x1__BatchNorm__FusedBatchNorm__scale"
  top: "InceptionV3__InceptionV3__Mixed_7c__Branch_2__Conv2d_0a_1x1__Relu"
}
layer {
  name: "InceptionV3__InceptionV3__Mixed_7c__Branch_3__Conv2d_0b_1x1__BatchNorm__FusedBatchNorm"
  type: "BatchNorm"
  bottom: "InceptionV3__InceptionV3__Mixed_7c__Branch_3__Conv2d_0b_1x1__Conv2D"
  top: "InceptionV3__InceptionV3__Mixed_7c__Branch_3__Conv2d_0b_1x1__BatchNorm__FusedBatchNorm"
  batch_norm_param {
    use_global_stats: true
    eps: 0.0010000000475
  }
}
layer {
  name: "InceptionV3__InceptionV3__Mixed_7c__Branch_3__Conv2d_0b_1x1__BatchNorm__FusedBatchNorm__scale"
  type: "Scale"
  bottom: "InceptionV3__InceptionV3__Mixed_7c__Branch_3__Conv2d_0b_1x1__BatchNorm__FusedBatchNorm"
  top: "InceptionV3__InceptionV3__Mixed_7c__Branch_3__Conv2d_0b_1x1__BatchNorm__FusedBatchNorm__scale"
  scale_param {
    bias_term: true
  }
}
layer {
  name: "InceptionV3__InceptionV3__Mixed_7c__Branch_1__Conv2d_0b_1x3__Conv2D"
  type: "Convolution"
  bottom: "InceptionV3__InceptionV3__Mixed_7c__Branch_1__Conv2d_0a_1x1__Relu"
  top: "InceptionV3__InceptionV3__Mixed_7c__Branch_1__Conv2d_0b_1x3__Conv2D"
  convolution_param {
    num_output: 384
    bias_term: false
    pad_h: 0
    pad_w: 1
    kernel_h: 1
    kernel_w: 3
    stride_h: 1
    stride_w: 1
    pad_type: 1
  }
}
layer {
  name: "InceptionV3__InceptionV3__Mixed_7c__Branch_1__Conv2d_0c_3x1__Conv2D"
  type: "Convolution"
  bottom: "InceptionV3__InceptionV3__Mixed_7c__Branch_1__Conv2d_0a_1x1__Relu"
  top: "InceptionV3__InceptionV3__Mixed_7c__Branch_1__Conv2d_0c_3x1__Conv2D"
  convolution_param {
    num_output: 384
    bias_term: false
    pad_h: 1
    pad_w: 0
    kernel_h: 3
    kernel_w: 1
    stride_h: 1
    stride_w: 1
    pad_type: 1
  }
}
layer {
  name: "InceptionV3__InceptionV3__Mixed_7c__Branch_2__Conv2d_0b_3x3__Conv2D"
  type: "Convolution"
  bottom: "InceptionV3__InceptionV3__Mixed_7c__Branch_2__Conv2d_0a_1x1__Relu"
  top: "InceptionV3__InceptionV3__Mixed_7c__Branch_2__Conv2d_0b_3x3__Conv2D"
  convolution_param {
    num_output: 384
    bias_term: false
    pad_h: 1
    pad_w: 1
    kernel_h: 3
    kernel_w: 3
    stride_h: 1
    stride_w: 1
    pad_type: 1
  }
}
layer {
  name: "InceptionV3__InceptionV3__Mixed_7c__Branch_3__Conv2d_0b_1x1__Relu"
  type: "ReLU"
  bottom: "InceptionV3__InceptionV3__Mixed_7c__Branch_3__Conv2d_0b_1x1__BatchNorm__FusedBatchNorm__scale"
  top: "InceptionV3__InceptionV3__Mixed_7c__Branch_3__Conv2d_0b_1x1__Relu"
}
layer {
  name: "InceptionV3__InceptionV3__Mixed_7c__Branch_1__Conv2d_0b_1x3__BatchNorm__FusedBatchNorm"
  type: "BatchNorm"
  bottom: "InceptionV3__InceptionV3__Mixed_7c__Branch_1__Conv2d_0b_1x3__Conv2D"
  top: "InceptionV3__InceptionV3__Mixed_7c__Branch_1__Conv2d_0b_1x3__BatchNorm__FusedBatchNorm"
  batch_norm_param {
    use_global_stats: true
    eps: 0.0010000000475
  }
}
layer {
  name: "InceptionV3__InceptionV3__Mixed_7c__Branch_1__Conv2d_0b_1x3__BatchNorm__FusedBatchNorm__scale"
  type: "Scale"
  bottom: "InceptionV3__InceptionV3__Mixed_7c__Branch_1__Conv2d_0b_1x3__BatchNorm__FusedBatchNorm"
  top: "InceptionV3__InceptionV3__Mixed_7c__Branch_1__Conv2d_0b_1x3__BatchNorm__FusedBatchNorm__scale"
  scale_param {
    bias_term: true
  }
}
layer {
  name: "InceptionV3__InceptionV3__Mixed_7c__Branch_1__Conv2d_0c_3x1__BatchNorm__FusedBatchNorm"
  type: "BatchNorm"
  bottom: "InceptionV3__InceptionV3__Mixed_7c__Branch_1__Conv2d_0c_3x1__Conv2D"
  top: "InceptionV3__InceptionV3__Mixed_7c__Branch_1__Conv2d_0c_3x1__BatchNorm__FusedBatchNorm"
  batch_norm_param {
    use_global_stats: true
    eps: 0.0010000000475
  }
}
layer {
  name: "InceptionV3__InceptionV3__Mixed_7c__Branch_1__Conv2d_0c_3x1__BatchNorm__FusedBatchNorm__scale"
  type: "Scale"
  bottom: "InceptionV3__InceptionV3__Mixed_7c__Branch_1__Conv2d_0c_3x1__BatchNorm__FusedBatchNorm"
  top: "InceptionV3__InceptionV3__Mixed_7c__Branch_1__Conv2d_0c_3x1__BatchNorm__FusedBatchNorm__scale"
  scale_param {
    bias_term: true
  }
}
layer {
  name: "InceptionV3__InceptionV3__Mixed_7c__Branch_2__Conv2d_0b_3x3__BatchNorm__FusedBatchNorm"
  type: "BatchNorm"
  bottom: "InceptionV3__InceptionV3__Mixed_7c__Branch_2__Conv2d_0b_3x3__Conv2D"
  top: "InceptionV3__InceptionV3__Mixed_7c__Branch_2__Conv2d_0b_3x3__BatchNorm__FusedBatchNorm"
  batch_norm_param {
    use_global_stats: true
    eps: 0.0010000000475
  }
}
layer {
  name: "InceptionV3__InceptionV3__Mixed_7c__Branch_2__Conv2d_0b_3x3__BatchNorm__FusedBatchNorm__scale"
  type: "Scale"
  bottom: "InceptionV3__InceptionV3__Mixed_7c__Branch_2__Conv2d_0b_3x3__BatchNorm__FusedBatchNorm"
  top: "InceptionV3__InceptionV3__Mixed_7c__Branch_2__Conv2d_0b_3x3__BatchNorm__FusedBatchNorm__scale"
  scale_param {
    bias_term: true
  }
}
layer {
  name: "InceptionV3__InceptionV3__Mixed_7c__Branch_1__Conv2d_0b_1x3__Relu"
  type: "ReLU"
  bottom: "InceptionV3__InceptionV3__Mixed_7c__Branch_1__Conv2d_0b_1x3__BatchNorm__FusedBatchNorm__scale"
  top: "InceptionV3__InceptionV3__Mixed_7c__Branch_1__Conv2d_0b_1x3__Relu"
}
layer {
  name: "InceptionV3__InceptionV3__Mixed_7c__Branch_1__Conv2d_0c_3x1__Relu"
  type: "ReLU"
  bottom: "InceptionV3__InceptionV3__Mixed_7c__Branch_1__Conv2d_0c_3x1__BatchNorm__FusedBatchNorm__scale"
  top: "InceptionV3__InceptionV3__Mixed_7c__Branch_1__Conv2d_0c_3x1__Relu"
}
layer {
  name: "InceptionV3__InceptionV3__Mixed_7c__Branch_2__Conv2d_0b_3x3__Relu"
  type: "ReLU"
  bottom: "InceptionV3__InceptionV3__Mixed_7c__Branch_2__Conv2d_0b_3x3__BatchNorm__FusedBatchNorm__scale"
  top: "InceptionV3__InceptionV3__Mixed_7c__Branch_2__Conv2d_0b_3x3__Relu"
}
layer {
  name: "InceptionV3__InceptionV3__Mixed_7c__Branch_1__concat"
  type: "Concat"
  bottom: "InceptionV3__InceptionV3__Mixed_7c__Branch_1__Conv2d_0b_1x3__Relu"
  bottom: "InceptionV3__InceptionV3__Mixed_7c__Branch_1__Conv2d_0c_3x1__Relu"
  top: "InceptionV3__InceptionV3__Mixed_7c__Branch_1__concat"
  concat_param {
    axis: 1
  }
}
layer {
  name: "InceptionV3__InceptionV3__Mixed_7c__Branch_2__Conv2d_0c_1x3__Conv2D"
  type: "Convolution"
  bottom: "InceptionV3__InceptionV3__Mixed_7c__Branch_2__Conv2d_0b_3x3__Relu"
  top: "InceptionV3__InceptionV3__Mixed_7c__Branch_2__Conv2d_0c_1x3__Conv2D"
  convolution_param {
    num_output: 384
    bias_term: false
    pad_h: 0
    pad_w: 1
    kernel_h: 1
    kernel_w: 3
    stride_h: 1
    stride_w: 1
    pad_type: 1
  }
}
layer {
  name: "InceptionV3__InceptionV3__Mixed_7c__Branch_2__Conv2d_0d_3x1__Conv2D"
  type: "Convolution"
  bottom: "InceptionV3__InceptionV3__Mixed_7c__Branch_2__Conv2d_0b_3x3__Relu"
  top: "InceptionV3__InceptionV3__Mixed_7c__Branch_2__Conv2d_0d_3x1__Conv2D"
  convolution_param {
    num_output: 384
    bias_term: false
    pad_h: 1
    pad_w: 0
    kernel_h: 3
    kernel_w: 1
    stride_h: 1
    stride_w: 1
    pad_type: 1
  }
}
layer {
  name: "InceptionV3__InceptionV3__Mixed_7c__Branch_2__Conv2d_0c_1x3__BatchNorm__FusedBatchNorm"
  type: "BatchNorm"
  bottom: "InceptionV3__InceptionV3__Mixed_7c__Branch_2__Conv2d_0c_1x3__Conv2D"
  top: "InceptionV3__InceptionV3__Mixed_7c__Branch_2__Conv2d_0c_1x3__BatchNorm__FusedBatchNorm"
  batch_norm_param {
    use_global_stats: true
    eps: 0.0010000000475
  }
}
layer {
  name: "InceptionV3__InceptionV3__Mixed_7c__Branch_2__Conv2d_0c_1x3__BatchNorm__FusedBatchNorm__scale"
  type: "Scale"
  bottom: "InceptionV3__InceptionV3__Mixed_7c__Branch_2__Conv2d_0c_1x3__BatchNorm__FusedBatchNorm"
  top: "InceptionV3__InceptionV3__Mixed_7c__Branch_2__Conv2d_0c_1x3__BatchNorm__FusedBatchNorm__scale"
  scale_param {
    bias_term: true
  }
}
layer {
  name: "InceptionV3__InceptionV3__Mixed_7c__Branch_2__Conv2d_0d_3x1__BatchNorm__FusedBatchNorm"
  type: "BatchNorm"
  bottom: "InceptionV3__InceptionV3__Mixed_7c__Branch_2__Conv2d_0d_3x1__Conv2D"
  top: "InceptionV3__InceptionV3__Mixed_7c__Branch_2__Conv2d_0d_3x1__BatchNorm__FusedBatchNorm"
  batch_norm_param {
    use_global_stats: true
    eps: 0.0010000000475
  }
}
layer {
  name: "InceptionV3__InceptionV3__Mixed_7c__Branch_2__Conv2d_0d_3x1__BatchNorm__FusedBatchNorm__scale"
  type: "Scale"
  bottom: "InceptionV3__InceptionV3__Mixed_7c__Branch_2__Conv2d_0d_3x1__BatchNorm__FusedBatchNorm"
  top: "InceptionV3__InceptionV3__Mixed_7c__Branch_2__Conv2d_0d_3x1__BatchNorm__FusedBatchNorm__scale"
  scale_param {
    bias_term: true
  }
}
layer {
  name: "InceptionV3__InceptionV3__Mixed_7c__Branch_2__Conv2d_0c_1x3__Relu"
  type: "ReLU"
  bottom: "InceptionV3__InceptionV3__Mixed_7c__Branch_2__Conv2d_0c_1x3__BatchNorm__FusedBatchNorm__scale"
  top: "InceptionV3__InceptionV3__Mixed_7c__Branch_2__Conv2d_0c_1x3__Relu"
}
layer {
  name: "InceptionV3__InceptionV3__Mixed_7c__Branch_2__Conv2d_0d_3x1__Relu"
  type: "ReLU"
  bottom: "InceptionV3__InceptionV3__Mixed_7c__Branch_2__Conv2d_0d_3x1__BatchNorm__FusedBatchNorm__scale"
  top: "InceptionV3__InceptionV3__Mixed_7c__Branch_2__Conv2d_0d_3x1__Relu"
}
layer {
  name: "InceptionV3__InceptionV3__Mixed_7c__Branch_2__concat"
  type: "Concat"
  bottom: "InceptionV3__InceptionV3__Mixed_7c__Branch_2__Conv2d_0c_1x3__Relu"
  bottom: "InceptionV3__InceptionV3__Mixed_7c__Branch_2__Conv2d_0d_3x1__Relu"
  top: "InceptionV3__InceptionV3__Mixed_7c__Branch_2__concat"
  concat_param {
    axis: 1
  }
}
layer {
  name: "InceptionV3__InceptionV3__Mixed_7c__concat"
  type: "Concat"
  bottom: "InceptionV3__InceptionV3__Mixed_7c__Branch_0__Conv2d_0a_1x1__Relu"
  bottom: "InceptionV3__InceptionV3__Mixed_7c__Branch_1__concat"
  bottom: "InceptionV3__InceptionV3__Mixed_7c__Branch_2__concat"
  bottom: "InceptionV3__InceptionV3__Mixed_7c__Branch_3__Conv2d_0b_1x1__Relu"
  top: "InceptionV3__InceptionV3__Mixed_7c__concat"
  concat_param {
    axis: 1
  }
}
layer {
  name: "InceptionV3__Logits__AvgPool_1a_8x8__AvgPool"
  type: "Pooling"
  bottom: "InceptionV3__InceptionV3__Mixed_7c__concat"
  top: "InceptionV3__Logits__AvgPool_1a_8x8__AvgPool"
  pooling_param {
    pool: AVE_TF
    kernel_h: 8
    kernel_w: 8
    stride_h: 2
    stride_w: 2
    pad_h: 0
    pad_w: 0
    ceil_mode: false
  }
}
layer {
  name: "InceptionV3__Logits__Conv2d_1c_1x1__Conv2D"
  type: "Convolution"
  bottom: "InceptionV3__Logits__AvgPool_1a_8x8__AvgPool"
  top: "InceptionV3__Logits__Conv2d_1c_1x1__Conv2D"
  convolution_param {
    num_output: 1001
    bias_term: false
    pad_h: 0
    pad_w: 0
    kernel_h: 1
    kernel_w: 1
    stride_h: 1
    stride_w: 1
    pad_type: 1
  }
}
layer {
  name: "InceptionV3__Logits__Conv2d_1c_1x1__BiasAdd"
  type: "Bias"
  bottom: "InceptionV3__Logits__Conv2d_1c_1x1__Conv2D"
  top: "InceptionV3__Logits__Conv2d_1c_1x1__BiasAdd"
}
layer {
  name: "InceptionV3__Logits__SpatialSqueeze"
  type: "Flatten"
  bottom: "InceptionV3__Logits__Conv2d_1c_1x1__BiasAdd"
  top: "InceptionV3__Logits__SpatialSqueeze"
}
layer {
  name: "InceptionV3__Predictions__Reshape"
  type: "Reshape"
  bottom: "InceptionV3__Logits__SpatialSqueeze"
  top: "InceptionV3__Predictions__Reshape"
  reshape_param {
    shape {
      dim: -1
      dim: 1001
    }
  }
}
#layer {
#  name: "InceptionV3__Predictions__Softmax"
#  type: "Softmax"
#  bottom: "InceptionV3__Predictions__Reshape"
#  top: "InceptionV3__Predictions__Softmax"
#}
#layer {
#  name: "InceptionV3__Predictions__Reshape_1"
#  type: "Reshape"
#  bottom: "InceptionV3__Predictions__Softmax"
#  top: "InceptionV3__Predictions__Reshape_1"
#  reshape_param {
#    shape {
#      dim: 1
#      dim: 1001
#    }
#  }
#}
layer {
  name: "loss"
  type: "SoftmaxWithLoss"
  bottom: "InceptionV3__Predictions__Reshape"
  bottom: "label"
  top: "loss"
}
layer {
  name: "accuracy"
  type: "Accuracy"
  bottom: "InceptionV3__AuxLogits__SpatialSqueeze"
  bottom: "label"
  top: "accuracy"
}
layer {
  name: "accuracy@1"
  type: "Accuracy"
  bottom: "InceptionV3__Predictions__Reshape"
  bottom: "label"
  top: "accuracy@1"
  include {
    phase: TEST
  }
}
layer {
  name: "accuracy@5"
  type: "Accuracy"
  bottom: "InceptionV3__Predictions__Reshape"
  bottom: "label"
  top: "accuracy@5"
  include {
    phase: TEST
  }
  accuracy_param {
    top_k: 5
  }
}
