name: "TensorFlowToSynopsysCaffe"
input: "data"
input_dim: 1
input_dim: 3
input_dim: 160
input_dim: 160
layer {
  name: "InceptionResnetV1__Conv2d_1a_3x3__convolution"
  type: "Convolution"
  bottom: "data"
  top: "InceptionResnetV1__Conv2d_1a_3x3__convolution"
  convolution_param {
    num_output: 32
    bias_term: false
    kernel_h: 3
    kernel_w: 3
    stride_h: 2
    stride_w: 2
    pad_l: 0
    pad_r: 0
    pad_t: 0
    pad_b: 0
  }
}
layer {
  name: "InceptionResnetV1__Conv2d_1a_3x3__BatchNorm__batchnorm__add_1"
  type: "BatchNorm"
  bottom: "InceptionResnetV1__Conv2d_1a_3x3__convolution"
  top: "InceptionResnetV1__Conv2d_1a_3x3__BatchNorm__batchnorm__add_1"
  batch_norm_param {
    use_global_stats: true
    eps: 0.0010000000475
  }
}
layer {
  name: "InceptionResnetV1__Conv2d_1a_3x3__BatchNorm__batchnorm__add_1__scale"
  type: "Scale"
  bottom: "InceptionResnetV1__Conv2d_1a_3x3__BatchNorm__batchnorm__add_1"
  top: "InceptionResnetV1__Conv2d_1a_3x3__BatchNorm__batchnorm__add_1__scale"
  scale_param {
    bias_term: true
  }
}
layer {
  name: "InceptionResnetV1__Conv2d_1a_3x3__Relu"
  type: "ReLU"
  bottom: "InceptionResnetV1__Conv2d_1a_3x3__BatchNorm__batchnorm__add_1__scale"
  top: "InceptionResnetV1__Conv2d_1a_3x3__Relu"
}
layer {
  name: "InceptionResnetV1__Conv2d_2a_3x3__convolution"
  type: "Convolution"
  bottom: "InceptionResnetV1__Conv2d_1a_3x3__Relu"
  top: "InceptionResnetV1__Conv2d_2a_3x3__convolution"
  convolution_param {
    num_output: 32
    bias_term: false
    kernel_h: 3
    kernel_w: 3
    stride_h: 1
    stride_w: 1
    pad_l: 0
    pad_r: 0
    pad_t: 0
    pad_b: 0
  }
}
layer {
  name: "InceptionResnetV1__Conv2d_2a_3x3__BatchNorm__batchnorm__add_1"
  type: "BatchNorm"
  bottom: "InceptionResnetV1__Conv2d_2a_3x3__convolution"
  top: "InceptionResnetV1__Conv2d_2a_3x3__BatchNorm__batchnorm__add_1"
  batch_norm_param {
    use_global_stats: true
    eps: 0.0010000000475
  }
}
layer {
  name: "InceptionResnetV1__Conv2d_2a_3x3__BatchNorm__batchnorm__add_1__scale"
  type: "Scale"
  bottom: "InceptionResnetV1__Conv2d_2a_3x3__BatchNorm__batchnorm__add_1"
  top: "InceptionResnetV1__Conv2d_2a_3x3__BatchNorm__batchnorm__add_1__scale"
  scale_param {
    bias_term: true
  }
}
layer {
  name: "InceptionResnetV1__Conv2d_2a_3x3__Relu"
  type: "ReLU"
  bottom: "InceptionResnetV1__Conv2d_2a_3x3__BatchNorm__batchnorm__add_1__scale"
  top: "InceptionResnetV1__Conv2d_2a_3x3__Relu"
}
layer {
  name: "InceptionResnetV1__Conv2d_2b_3x3__convolution"
  type: "Convolution"
  bottom: "InceptionResnetV1__Conv2d_2a_3x3__Relu"
  top: "InceptionResnetV1__Conv2d_2b_3x3__convolution"
  convolution_param {
    num_output: 64
    bias_term: false
    kernel_h: 3
    kernel_w: 3
    stride_h: 1
    stride_w: 1
    pad_l: 1
    pad_r: 1
    pad_t: 1
    pad_b: 1
  }
}
layer {
  name: "InceptionResnetV1__Conv2d_2b_3x3__BatchNorm__batchnorm__add_1"
  type: "BatchNorm"
  bottom: "InceptionResnetV1__Conv2d_2b_3x3__convolution"
  top: "InceptionResnetV1__Conv2d_2b_3x3__BatchNorm__batchnorm__add_1"
  batch_norm_param {
    use_global_stats: true
    eps: 0.0010000000475
  }
}
layer {
  name: "InceptionResnetV1__Conv2d_2b_3x3__BatchNorm__batchnorm__add_1__scale"
  type: "Scale"
  bottom: "InceptionResnetV1__Conv2d_2b_3x3__BatchNorm__batchnorm__add_1"
  top: "InceptionResnetV1__Conv2d_2b_3x3__BatchNorm__batchnorm__add_1__scale"
  scale_param {
    bias_term: true
  }
}
layer {
  name: "InceptionResnetV1__Conv2d_2b_3x3__Relu"
  type: "ReLU"
  bottom: "InceptionResnetV1__Conv2d_2b_3x3__BatchNorm__batchnorm__add_1__scale"
  top: "InceptionResnetV1__Conv2d_2b_3x3__Relu"
}
layer {
  name: "InceptionResnetV1__MaxPool_3a_3x3__MaxPool"
  type: "Pooling"
  bottom: "InceptionResnetV1__Conv2d_2b_3x3__Relu"
  top: "InceptionResnetV1__MaxPool_3a_3x3__MaxPool"
  pooling_param {
    pool: MAX
    kernel_h: 3
    kernel_w: 3
    stride_h: 2
    stride_w: 2
    ceil_mode: false
    pad_l: 0
    pad_r: 0
    pad_t: 0
    pad_b: 0
  }
}
layer {
  name: "InceptionResnetV1__Conv2d_3b_1x1__convolution"
  type: "Convolution"
  bottom: "InceptionResnetV1__MaxPool_3a_3x3__MaxPool"
  top: "InceptionResnetV1__Conv2d_3b_1x1__convolution"
  convolution_param {
    num_output: 80
    bias_term: false
    kernel_h: 1
    kernel_w: 1
    stride_h: 1
    stride_w: 1
    pad_l: 0
    pad_r: 0
    pad_t: 0
    pad_b: 0
  }
}
layer {
  name: "InceptionResnetV1__Conv2d_3b_1x1__BatchNorm__batchnorm__add_1"
  type: "BatchNorm"
  bottom: "InceptionResnetV1__Conv2d_3b_1x1__convolution"
  top: "InceptionResnetV1__Conv2d_3b_1x1__BatchNorm__batchnorm__add_1"
  batch_norm_param {
    use_global_stats: true
    eps: 0.0010000000475
  }
}
layer {
  name: "InceptionResnetV1__Conv2d_3b_1x1__BatchNorm__batchnorm__add_1__scale"
  type: "Scale"
  bottom: "InceptionResnetV1__Conv2d_3b_1x1__BatchNorm__batchnorm__add_1"
  top: "InceptionResnetV1__Conv2d_3b_1x1__BatchNorm__batchnorm__add_1__scale"
  scale_param {
    bias_term: true
  }
}
layer {
  name: "InceptionResnetV1__Conv2d_3b_1x1__Relu"
  type: "ReLU"
  bottom: "InceptionResnetV1__Conv2d_3b_1x1__BatchNorm__batchnorm__add_1__scale"
  top: "InceptionResnetV1__Conv2d_3b_1x1__Relu"
}
layer {
  name: "InceptionResnetV1__Conv2d_4a_3x3__convolution"
  type: "Convolution"
  bottom: "InceptionResnetV1__Conv2d_3b_1x1__Relu"
  top: "InceptionResnetV1__Conv2d_4a_3x3__convolution"
  convolution_param {
    num_output: 192
    bias_term: false
    kernel_h: 3
    kernel_w: 3
    stride_h: 1
    stride_w: 1
    pad_l: 0
    pad_r: 0
    pad_t: 0
    pad_b: 0
  }
}
layer {
  name: "InceptionResnetV1__Conv2d_4a_3x3__BatchNorm__batchnorm__add_1"
  type: "BatchNorm"
  bottom: "InceptionResnetV1__Conv2d_4a_3x3__convolution"
  top: "InceptionResnetV1__Conv2d_4a_3x3__BatchNorm__batchnorm__add_1"
  batch_norm_param {
    use_global_stats: true
    eps: 0.0010000000475
  }
}
layer {
  name: "InceptionResnetV1__Conv2d_4a_3x3__BatchNorm__batchnorm__add_1__scale"
  type: "Scale"
  bottom: "InceptionResnetV1__Conv2d_4a_3x3__BatchNorm__batchnorm__add_1"
  top: "InceptionResnetV1__Conv2d_4a_3x3__BatchNorm__batchnorm__add_1__scale"
  scale_param {
    bias_term: true
  }
}
layer {
  name: "InceptionResnetV1__Conv2d_4a_3x3__Relu"
  type: "ReLU"
  bottom: "InceptionResnetV1__Conv2d_4a_3x3__BatchNorm__batchnorm__add_1__scale"
  top: "InceptionResnetV1__Conv2d_4a_3x3__Relu"
}
layer {
  name: "InceptionResnetV1__Conv2d_4b_3x3__convolution"
  type: "Convolution"
  bottom: "InceptionResnetV1__Conv2d_4a_3x3__Relu"
  top: "InceptionResnetV1__Conv2d_4b_3x3__convolution"
  convolution_param {
    num_output: 256
    bias_term: false
    kernel_h: 3
    kernel_w: 3
    stride_h: 2
    stride_w: 2
    pad_l: 0
    pad_r: 0
    pad_t: 0
    pad_b: 0
  }
}
layer {
  name: "InceptionResnetV1__Conv2d_4b_3x3__BatchNorm__batchnorm__add_1"
  type: "BatchNorm"
  bottom: "InceptionResnetV1__Conv2d_4b_3x3__convolution"
  top: "InceptionResnetV1__Conv2d_4b_3x3__BatchNorm__batchnorm__add_1"
  batch_norm_param {
    use_global_stats: true
    eps: 0.0010000000475
  }
}
layer {
  name: "InceptionResnetV1__Conv2d_4b_3x3__BatchNorm__batchnorm__add_1__scale"
  type: "Scale"
  bottom: "InceptionResnetV1__Conv2d_4b_3x3__BatchNorm__batchnorm__add_1"
  top: "InceptionResnetV1__Conv2d_4b_3x3__BatchNorm__batchnorm__add_1__scale"
  scale_param {
    bias_term: true
  }
}
layer {
  name: "InceptionResnetV1__Conv2d_4b_3x3__Relu"
  type: "ReLU"
  bottom: "InceptionResnetV1__Conv2d_4b_3x3__BatchNorm__batchnorm__add_1__scale"
  top: "InceptionResnetV1__Conv2d_4b_3x3__Relu"
}
layer {
  name: "InceptionResnetV1__Repeat__block35_1__Branch_2__Conv2d_0a_1x1__convolution"
  type: "Convolution"
  bottom: "InceptionResnetV1__Conv2d_4b_3x3__Relu"
  top: "InceptionResnetV1__Repeat__block35_1__Branch_2__Conv2d_0a_1x1__convolution"
  convolution_param {
    num_output: 32
    bias_term: false
    kernel_h: 1
    kernel_w: 1
    stride_h: 1
    stride_w: 1
    pad_l: 0
    pad_r: 0
    pad_t: 0
    pad_b: 0
  }
}
layer {
  name: "InceptionResnetV1__Repeat__block35_1__Branch_1__Conv2d_0a_1x1__convolution"
  type: "Convolution"
  bottom: "InceptionResnetV1__Conv2d_4b_3x3__Relu"
  top: "InceptionResnetV1__Repeat__block35_1__Branch_1__Conv2d_0a_1x1__convolution"
  convolution_param {
    num_output: 32
    bias_term: false
    kernel_h: 1
    kernel_w: 1
    stride_h: 1
    stride_w: 1
    pad_l: 0
    pad_r: 0
    pad_t: 0
    pad_b: 0
  }
}
layer {
  name: "InceptionResnetV1__Repeat__block35_1__Branch_0__Conv2d_1x1__convolution"
  type: "Convolution"
  bottom: "InceptionResnetV1__Conv2d_4b_3x3__Relu"
  top: "InceptionResnetV1__Repeat__block35_1__Branch_0__Conv2d_1x1__convolution"
  convolution_param {
    num_output: 32
    bias_term: false
    kernel_h: 1
    kernel_w: 1
    stride_h: 1
    stride_w: 1
    pad_l: 0
    pad_r: 0
    pad_t: 0
    pad_b: 0
  }
}
layer {
  name: "InceptionResnetV1__Repeat__block35_1__Branch_2__Conv2d_0a_1x1__BatchNorm__batchnorm__add_1"
  type: "BatchNorm"
  bottom: "InceptionResnetV1__Repeat__block35_1__Branch_2__Conv2d_0a_1x1__convolution"
  top: "InceptionResnetV1__Repeat__block35_1__Branch_2__Conv2d_0a_1x1__BatchNorm__batchnorm__add_1"
  batch_norm_param {
    use_global_stats: true
    eps: 0.0010000000475
  }
}
layer {
  name: "InceptionResnetV1__Repeat__block35_1__Branch_2__Conv2d_0a_1x1__BatchNorm__batchnorm__add_1__scale"
  type: "Scale"
  bottom: "InceptionResnetV1__Repeat__block35_1__Branch_2__Conv2d_0a_1x1__BatchNorm__batchnorm__add_1"
  top: "InceptionResnetV1__Repeat__block35_1__Branch_2__Conv2d_0a_1x1__BatchNorm__batchnorm__add_1__scale"
  scale_param {
    bias_term: true
  }
}
layer {
  name: "InceptionResnetV1__Repeat__block35_1__Branch_1__Conv2d_0a_1x1__BatchNorm__batchnorm__add_1"
  type: "BatchNorm"
  bottom: "InceptionResnetV1__Repeat__block35_1__Branch_1__Conv2d_0a_1x1__convolution"
  top: "InceptionResnetV1__Repeat__block35_1__Branch_1__Conv2d_0a_1x1__BatchNorm__batchnorm__add_1"
  batch_norm_param {
    use_global_stats: true
    eps: 0.0010000000475
  }
}
layer {
  name: "InceptionResnetV1__Repeat__block35_1__Branch_1__Conv2d_0a_1x1__BatchNorm__batchnorm__add_1__scale"
  type: "Scale"
  bottom: "InceptionResnetV1__Repeat__block35_1__Branch_1__Conv2d_0a_1x1__BatchNorm__batchnorm__add_1"
  top: "InceptionResnetV1__Repeat__block35_1__Branch_1__Conv2d_0a_1x1__BatchNorm__batchnorm__add_1__scale"
  scale_param {
    bias_term: true
  }
}
layer {
  name: "InceptionResnetV1__Repeat__block35_1__Branch_0__Conv2d_1x1__BatchNorm__batchnorm__add_1"
  type: "BatchNorm"
  bottom: "InceptionResnetV1__Repeat__block35_1__Branch_0__Conv2d_1x1__convolution"
  top: "InceptionResnetV1__Repeat__block35_1__Branch_0__Conv2d_1x1__BatchNorm__batchnorm__add_1"
  batch_norm_param {
    use_global_stats: true
    eps: 0.0010000000475
  }
}
layer {
  name: "InceptionResnetV1__Repeat__block35_1__Branch_0__Conv2d_1x1__BatchNorm__batchnorm__add_1__scale"
  type: "Scale"
  bottom: "InceptionResnetV1__Repeat__block35_1__Branch_0__Conv2d_1x1__BatchNorm__batchnorm__add_1"
  top: "InceptionResnetV1__Repeat__block35_1__Branch_0__Conv2d_1x1__BatchNorm__batchnorm__add_1__scale"
  scale_param {
    bias_term: true
  }
}
layer {
  name: "InceptionResnetV1__Repeat__block35_1__Branch_2__Conv2d_0a_1x1__Relu"
  type: "ReLU"
  bottom: "InceptionResnetV1__Repeat__block35_1__Branch_2__Conv2d_0a_1x1__BatchNorm__batchnorm__add_1__scale"
  top: "InceptionResnetV1__Repeat__block35_1__Branch_2__Conv2d_0a_1x1__Relu"
}
layer {
  name: "InceptionResnetV1__Repeat__block35_1__Branch_1__Conv2d_0a_1x1__Relu"
  type: "ReLU"
  bottom: "InceptionResnetV1__Repeat__block35_1__Branch_1__Conv2d_0a_1x1__BatchNorm__batchnorm__add_1__scale"
  top: "InceptionResnetV1__Repeat__block35_1__Branch_1__Conv2d_0a_1x1__Relu"
}
layer {
  name: "InceptionResnetV1__Repeat__block35_1__Branch_0__Conv2d_1x1__Relu"
  type: "ReLU"
  bottom: "InceptionResnetV1__Repeat__block35_1__Branch_0__Conv2d_1x1__BatchNorm__batchnorm__add_1__scale"
  top: "InceptionResnetV1__Repeat__block35_1__Branch_0__Conv2d_1x1__Relu"
}
layer {
  name: "InceptionResnetV1__Repeat__block35_1__Branch_2__Conv2d_0b_3x3__convolution"
  type: "Convolution"
  bottom: "InceptionResnetV1__Repeat__block35_1__Branch_2__Conv2d_0a_1x1__Relu"
  top: "InceptionResnetV1__Repeat__block35_1__Branch_2__Conv2d_0b_3x3__convolution"
  convolution_param {
    num_output: 32
    bias_term: false
    kernel_h: 3
    kernel_w: 3
    stride_h: 1
    stride_w: 1
    pad_l: 1
    pad_r: 1
    pad_t: 1
    pad_b: 1
  }
}
layer {
  name: "InceptionResnetV1__Repeat__block35_1__Branch_1__Conv2d_0b_3x3__convolution"
  type: "Convolution"
  bottom: "InceptionResnetV1__Repeat__block35_1__Branch_1__Conv2d_0a_1x1__Relu"
  top: "InceptionResnetV1__Repeat__block35_1__Branch_1__Conv2d_0b_3x3__convolution"
  convolution_param {
    num_output: 32
    bias_term: false
    kernel_h: 3
    kernel_w: 3
    stride_h: 1
    stride_w: 1
    pad_l: 1
    pad_r: 1
    pad_t: 1
    pad_b: 1
  }
}
layer {
  name: "InceptionResnetV1__Repeat__block35_1__Branch_2__Conv2d_0b_3x3__BatchNorm__batchnorm__add_1"
  type: "BatchNorm"
  bottom: "InceptionResnetV1__Repeat__block35_1__Branch_2__Conv2d_0b_3x3__convolution"
  top: "InceptionResnetV1__Repeat__block35_1__Branch_2__Conv2d_0b_3x3__BatchNorm__batchnorm__add_1"
  batch_norm_param {
    use_global_stats: true
    eps: 0.0010000000475
  }
}
layer {
  name: "InceptionResnetV1__Repeat__block35_1__Branch_2__Conv2d_0b_3x3__BatchNorm__batchnorm__add_1__scale"
  type: "Scale"
  bottom: "InceptionResnetV1__Repeat__block35_1__Branch_2__Conv2d_0b_3x3__BatchNorm__batchnorm__add_1"
  top: "InceptionResnetV1__Repeat__block35_1__Branch_2__Conv2d_0b_3x3__BatchNorm__batchnorm__add_1__scale"
  scale_param {
    bias_term: true
  }
}
layer {
  name: "InceptionResnetV1__Repeat__block35_1__Branch_1__Conv2d_0b_3x3__BatchNorm__batchnorm__add_1"
  type: "BatchNorm"
  bottom: "InceptionResnetV1__Repeat__block35_1__Branch_1__Conv2d_0b_3x3__convolution"
  top: "InceptionResnetV1__Repeat__block35_1__Branch_1__Conv2d_0b_3x3__BatchNorm__batchnorm__add_1"
  batch_norm_param {
    use_global_stats: true
    eps: 0.0010000000475
  }
}
layer {
  name: "InceptionResnetV1__Repeat__block35_1__Branch_1__Conv2d_0b_3x3__BatchNorm__batchnorm__add_1__scale"
  type: "Scale"
  bottom: "InceptionResnetV1__Repeat__block35_1__Branch_1__Conv2d_0b_3x3__BatchNorm__batchnorm__add_1"
  top: "InceptionResnetV1__Repeat__block35_1__Branch_1__Conv2d_0b_3x3__BatchNorm__batchnorm__add_1__scale"
  scale_param {
    bias_term: true
  }
}
layer {
  name: "InceptionResnetV1__Repeat__block35_1__Branch_2__Conv2d_0b_3x3__Relu"
  type: "ReLU"
  bottom: "InceptionResnetV1__Repeat__block35_1__Branch_2__Conv2d_0b_3x3__BatchNorm__batchnorm__add_1__scale"
  top: "InceptionResnetV1__Repeat__block35_1__Branch_2__Conv2d_0b_3x3__Relu"
}
layer {
  name: "InceptionResnetV1__Repeat__block35_1__Branch_1__Conv2d_0b_3x3__Relu"
  type: "ReLU"
  bottom: "InceptionResnetV1__Repeat__block35_1__Branch_1__Conv2d_0b_3x3__BatchNorm__batchnorm__add_1__scale"
  top: "InceptionResnetV1__Repeat__block35_1__Branch_1__Conv2d_0b_3x3__Relu"
}
layer {
  name: "InceptionResnetV1__Repeat__block35_1__Branch_2__Conv2d_0c_3x3__convolution"
  type: "Convolution"
  bottom: "InceptionResnetV1__Repeat__block35_1__Branch_2__Conv2d_0b_3x3__Relu"
  top: "InceptionResnetV1__Repeat__block35_1__Branch_2__Conv2d_0c_3x3__convolution"
  convolution_param {
    num_output: 32
    bias_term: false
    kernel_h: 3
    kernel_w: 3
    stride_h: 1
    stride_w: 1
    pad_l: 1
    pad_r: 1
    pad_t: 1
    pad_b: 1
  }
}
layer {
  name: "InceptionResnetV1__Repeat__block35_1__Branch_2__Conv2d_0c_3x3__BatchNorm__batchnorm__add_1"
  type: "BatchNorm"
  bottom: "InceptionResnetV1__Repeat__block35_1__Branch_2__Conv2d_0c_3x3__convolution"
  top: "InceptionResnetV1__Repeat__block35_1__Branch_2__Conv2d_0c_3x3__BatchNorm__batchnorm__add_1"
  batch_norm_param {
    use_global_stats: true
    eps: 0.0010000000475
  }
}
layer {
  name: "InceptionResnetV1__Repeat__block35_1__Branch_2__Conv2d_0c_3x3__BatchNorm__batchnorm__add_1__scale"
  type: "Scale"
  bottom: "InceptionResnetV1__Repeat__block35_1__Branch_2__Conv2d_0c_3x3__BatchNorm__batchnorm__add_1"
  top: "InceptionResnetV1__Repeat__block35_1__Branch_2__Conv2d_0c_3x3__BatchNorm__batchnorm__add_1__scale"
  scale_param {
    bias_term: true
  }
}
layer {
  name: "InceptionResnetV1__Repeat__block35_1__Branch_2__Conv2d_0c_3x3__Relu"
  type: "ReLU"
  bottom: "InceptionResnetV1__Repeat__block35_1__Branch_2__Conv2d_0c_3x3__BatchNorm__batchnorm__add_1__scale"
  top: "InceptionResnetV1__Repeat__block35_1__Branch_2__Conv2d_0c_3x3__Relu"
}
layer {
  name: "InceptionResnetV1__Repeat__block35_1__concat"
  type: "Concat"
  bottom: "InceptionResnetV1__Repeat__block35_1__Branch_0__Conv2d_1x1__Relu"
  bottom: "InceptionResnetV1__Repeat__block35_1__Branch_1__Conv2d_0b_3x3__Relu"
  bottom: "InceptionResnetV1__Repeat__block35_1__Branch_2__Conv2d_0c_3x3__Relu"
  top: "InceptionResnetV1__Repeat__block35_1__concat"
  concat_param {
    axis: 1
  }
}
layer {
  name: "InceptionResnetV1__Repeat__block35_1__Conv2d_1x1__convolution"
  type: "Convolution"
  bottom: "InceptionResnetV1__Repeat__block35_1__concat"
  top: "InceptionResnetV1__Repeat__block35_1__Conv2d_1x1__convolution"
  convolution_param {
    num_output: 256
    bias_term: false
    kernel_h: 1
    kernel_w: 1
    stride_h: 1
    stride_w: 1
    pad_l: 0
    pad_r: 0
    pad_t: 0
    pad_b: 0
  }
}
layer {
  name: "InceptionResnetV1__Repeat__block35_1__Conv2d_1x1__BiasAdd"
  type: "Bias"
  bottom: "InceptionResnetV1__Repeat__block35_1__Conv2d_1x1__convolution"
  top: "InceptionResnetV1__Repeat__block35_1__Conv2d_1x1__BiasAdd"
}
layer {
  name: "InceptionResnetV1__Repeat__block35_1__mul"
  type: "Power"
  bottom: "InceptionResnetV1__Repeat__block35_1__Conv2d_1x1__BiasAdd"
  top: "InceptionResnetV1__Repeat__block35_1__mul"
  power_param {
    scale: 0.170000001788
  }
}
layer {
  name: "InceptionResnetV1__Repeat__block35_1__add"
  type: "Eltwise"
  bottom: "InceptionResnetV1__Conv2d_4b_3x3__Relu"
  bottom: "InceptionResnetV1__Repeat__block35_1__mul"
  top: "InceptionResnetV1__Repeat__block35_1__add"
  eltwise_param {
    operation: SUM
  }
}
layer {
  name: "InceptionResnetV1__Repeat__block35_1__Relu"
  type: "ReLU"
  bottom: "InceptionResnetV1__Repeat__block35_1__add"
  top: "InceptionResnetV1__Repeat__block35_1__Relu"
}
layer {
  name: "InceptionResnetV1__Repeat__block35_2__Branch_2__Conv2d_0a_1x1__convolution"
  type: "Convolution"
  bottom: "InceptionResnetV1__Repeat__block35_1__Relu"
  top: "InceptionResnetV1__Repeat__block35_2__Branch_2__Conv2d_0a_1x1__convolution"
  convolution_param {
    num_output: 32
    bias_term: false
    kernel_h: 1
    kernel_w: 1
    stride_h: 1
    stride_w: 1
    pad_l: 0
    pad_r: 0
    pad_t: 0
    pad_b: 0
  }
}
layer {
  name: "InceptionResnetV1__Repeat__block35_2__Branch_1__Conv2d_0a_1x1__convolution"
  type: "Convolution"
  bottom: "InceptionResnetV1__Repeat__block35_1__Relu"
  top: "InceptionResnetV1__Repeat__block35_2__Branch_1__Conv2d_0a_1x1__convolution"
  convolution_param {
    num_output: 32
    bias_term: false
    kernel_h: 1
    kernel_w: 1
    stride_h: 1
    stride_w: 1
    pad_l: 0
    pad_r: 0
    pad_t: 0
    pad_b: 0
  }
}
layer {
  name: "InceptionResnetV1__Repeat__block35_2__Branch_0__Conv2d_1x1__convolution"
  type: "Convolution"
  bottom: "InceptionResnetV1__Repeat__block35_1__Relu"
  top: "InceptionResnetV1__Repeat__block35_2__Branch_0__Conv2d_1x1__convolution"
  convolution_param {
    num_output: 32
    bias_term: false
    kernel_h: 1
    kernel_w: 1
    stride_h: 1
    stride_w: 1
    pad_l: 0
    pad_r: 0
    pad_t: 0
    pad_b: 0
  }
}
layer {
  name: "InceptionResnetV1__Repeat__block35_2__Branch_2__Conv2d_0a_1x1__BatchNorm__batchnorm__add_1"
  type: "BatchNorm"
  bottom: "InceptionResnetV1__Repeat__block35_2__Branch_2__Conv2d_0a_1x1__convolution"
  top: "InceptionResnetV1__Repeat__block35_2__Branch_2__Conv2d_0a_1x1__BatchNorm__batchnorm__add_1"
  batch_norm_param {
    use_global_stats: true
    eps: 0.0010000000475
  }
}
layer {
  name: "InceptionResnetV1__Repeat__block35_2__Branch_2__Conv2d_0a_1x1__BatchNorm__batchnorm__add_1__scale"
  type: "Scale"
  bottom: "InceptionResnetV1__Repeat__block35_2__Branch_2__Conv2d_0a_1x1__BatchNorm__batchnorm__add_1"
  top: "InceptionResnetV1__Repeat__block35_2__Branch_2__Conv2d_0a_1x1__BatchNorm__batchnorm__add_1__scale"
  scale_param {
    bias_term: true
  }
}
layer {
  name: "InceptionResnetV1__Repeat__block35_2__Branch_1__Conv2d_0a_1x1__BatchNorm__batchnorm__add_1"
  type: "BatchNorm"
  bottom: "InceptionResnetV1__Repeat__block35_2__Branch_1__Conv2d_0a_1x1__convolution"
  top: "InceptionResnetV1__Repeat__block35_2__Branch_1__Conv2d_0a_1x1__BatchNorm__batchnorm__add_1"
  batch_norm_param {
    use_global_stats: true
    eps: 0.0010000000475
  }
}
layer {
  name: "InceptionResnetV1__Repeat__block35_2__Branch_1__Conv2d_0a_1x1__BatchNorm__batchnorm__add_1__scale"
  type: "Scale"
  bottom: "InceptionResnetV1__Repeat__block35_2__Branch_1__Conv2d_0a_1x1__BatchNorm__batchnorm__add_1"
  top: "InceptionResnetV1__Repeat__block35_2__Branch_1__Conv2d_0a_1x1__BatchNorm__batchnorm__add_1__scale"
  scale_param {
    bias_term: true
  }
}
layer {
  name: "InceptionResnetV1__Repeat__block35_2__Branch_0__Conv2d_1x1__BatchNorm__batchnorm__add_1"
  type: "BatchNorm"
  bottom: "InceptionResnetV1__Repeat__block35_2__Branch_0__Conv2d_1x1__convolution"
  top: "InceptionResnetV1__Repeat__block35_2__Branch_0__Conv2d_1x1__BatchNorm__batchnorm__add_1"
  batch_norm_param {
    use_global_stats: true
    eps: 0.0010000000475
  }
}
layer {
  name: "InceptionResnetV1__Repeat__block35_2__Branch_0__Conv2d_1x1__BatchNorm__batchnorm__add_1__scale"
  type: "Scale"
  bottom: "InceptionResnetV1__Repeat__block35_2__Branch_0__Conv2d_1x1__BatchNorm__batchnorm__add_1"
  top: "InceptionResnetV1__Repeat__block35_2__Branch_0__Conv2d_1x1__BatchNorm__batchnorm__add_1__scale"
  scale_param {
    bias_term: true
  }
}
layer {
  name: "InceptionResnetV1__Repeat__block35_2__Branch_2__Conv2d_0a_1x1__Relu"
  type: "ReLU"
  bottom: "InceptionResnetV1__Repeat__block35_2__Branch_2__Conv2d_0a_1x1__BatchNorm__batchnorm__add_1__scale"
  top: "InceptionResnetV1__Repeat__block35_2__Branch_2__Conv2d_0a_1x1__Relu"
}
layer {
  name: "InceptionResnetV1__Repeat__block35_2__Branch_1__Conv2d_0a_1x1__Relu"
  type: "ReLU"
  bottom: "InceptionResnetV1__Repeat__block35_2__Branch_1__Conv2d_0a_1x1__BatchNorm__batchnorm__add_1__scale"
  top: "InceptionResnetV1__Repeat__block35_2__Branch_1__Conv2d_0a_1x1__Relu"
}
layer {
  name: "InceptionResnetV1__Repeat__block35_2__Branch_0__Conv2d_1x1__Relu"
  type: "ReLU"
  bottom: "InceptionResnetV1__Repeat__block35_2__Branch_0__Conv2d_1x1__BatchNorm__batchnorm__add_1__scale"
  top: "InceptionResnetV1__Repeat__block35_2__Branch_0__Conv2d_1x1__Relu"
}
layer {
  name: "InceptionResnetV1__Repeat__block35_2__Branch_2__Conv2d_0b_3x3__convolution"
  type: "Convolution"
  bottom: "InceptionResnetV1__Repeat__block35_2__Branch_2__Conv2d_0a_1x1__Relu"
  top: "InceptionResnetV1__Repeat__block35_2__Branch_2__Conv2d_0b_3x3__convolution"
  convolution_param {
    num_output: 32
    bias_term: false
    kernel_h: 3
    kernel_w: 3
    stride_h: 1
    stride_w: 1
    pad_l: 1
    pad_r: 1
    pad_t: 1
    pad_b: 1
  }
}
layer {
  name: "InceptionResnetV1__Repeat__block35_2__Branch_1__Conv2d_0b_3x3__convolution"
  type: "Convolution"
  bottom: "InceptionResnetV1__Repeat__block35_2__Branch_1__Conv2d_0a_1x1__Relu"
  top: "InceptionResnetV1__Repeat__block35_2__Branch_1__Conv2d_0b_3x3__convolution"
  convolution_param {
    num_output: 32
    bias_term: false
    kernel_h: 3
    kernel_w: 3
    stride_h: 1
    stride_w: 1
    pad_l: 1
    pad_r: 1
    pad_t: 1
    pad_b: 1
  }
}
layer {
  name: "InceptionResnetV1__Repeat__block35_2__Branch_2__Conv2d_0b_3x3__BatchNorm__batchnorm__add_1"
  type: "BatchNorm"
  bottom: "InceptionResnetV1__Repeat__block35_2__Branch_2__Conv2d_0b_3x3__convolution"
  top: "InceptionResnetV1__Repeat__block35_2__Branch_2__Conv2d_0b_3x3__BatchNorm__batchnorm__add_1"
  batch_norm_param {
    use_global_stats: true
    eps: 0.0010000000475
  }
}
layer {
  name: "InceptionResnetV1__Repeat__block35_2__Branch_2__Conv2d_0b_3x3__BatchNorm__batchnorm__add_1__scale"
  type: "Scale"
  bottom: "InceptionResnetV1__Repeat__block35_2__Branch_2__Conv2d_0b_3x3__BatchNorm__batchnorm__add_1"
  top: "InceptionResnetV1__Repeat__block35_2__Branch_2__Conv2d_0b_3x3__BatchNorm__batchnorm__add_1__scale"
  scale_param {
    bias_term: true
  }
}
layer {
  name: "InceptionResnetV1__Repeat__block35_2__Branch_1__Conv2d_0b_3x3__BatchNorm__batchnorm__add_1"
  type: "BatchNorm"
  bottom: "InceptionResnetV1__Repeat__block35_2__Branch_1__Conv2d_0b_3x3__convolution"
  top: "InceptionResnetV1__Repeat__block35_2__Branch_1__Conv2d_0b_3x3__BatchNorm__batchnorm__add_1"
  batch_norm_param {
    use_global_stats: true
    eps: 0.0010000000475
  }
}
layer {
  name: "InceptionResnetV1__Repeat__block35_2__Branch_1__Conv2d_0b_3x3__BatchNorm__batchnorm__add_1__scale"
  type: "Scale"
  bottom: "InceptionResnetV1__Repeat__block35_2__Branch_1__Conv2d_0b_3x3__BatchNorm__batchnorm__add_1"
  top: "InceptionResnetV1__Repeat__block35_2__Branch_1__Conv2d_0b_3x3__BatchNorm__batchnorm__add_1__scale"
  scale_param {
    bias_term: true
  }
}
layer {
  name: "InceptionResnetV1__Repeat__block35_2__Branch_2__Conv2d_0b_3x3__Relu"
  type: "ReLU"
  bottom: "InceptionResnetV1__Repeat__block35_2__Branch_2__Conv2d_0b_3x3__BatchNorm__batchnorm__add_1__scale"
  top: "InceptionResnetV1__Repeat__block35_2__Branch_2__Conv2d_0b_3x3__Relu"
}
layer {
  name: "InceptionResnetV1__Repeat__block35_2__Branch_1__Conv2d_0b_3x3__Relu"
  type: "ReLU"
  bottom: "InceptionResnetV1__Repeat__block35_2__Branch_1__Conv2d_0b_3x3__BatchNorm__batchnorm__add_1__scale"
  top: "InceptionResnetV1__Repeat__block35_2__Branch_1__Conv2d_0b_3x3__Relu"
}
layer {
  name: "InceptionResnetV1__Repeat__block35_2__Branch_2__Conv2d_0c_3x3__convolution"
  type: "Convolution"
  bottom: "InceptionResnetV1__Repeat__block35_2__Branch_2__Conv2d_0b_3x3__Relu"
  top: "InceptionResnetV1__Repeat__block35_2__Branch_2__Conv2d_0c_3x3__convolution"
  convolution_param {
    num_output: 32
    bias_term: false
    kernel_h: 3
    kernel_w: 3
    stride_h: 1
    stride_w: 1
    pad_l: 1
    pad_r: 1
    pad_t: 1
    pad_b: 1
  }
}
layer {
  name: "InceptionResnetV1__Repeat__block35_2__Branch_2__Conv2d_0c_3x3__BatchNorm__batchnorm__add_1"
  type: "BatchNorm"
  bottom: "InceptionResnetV1__Repeat__block35_2__Branch_2__Conv2d_0c_3x3__convolution"
  top: "InceptionResnetV1__Repeat__block35_2__Branch_2__Conv2d_0c_3x3__BatchNorm__batchnorm__add_1"
  batch_norm_param {
    use_global_stats: true
    eps: 0.0010000000475
  }
}
layer {
  name: "InceptionResnetV1__Repeat__block35_2__Branch_2__Conv2d_0c_3x3__BatchNorm__batchnorm__add_1__scale"
  type: "Scale"
  bottom: "InceptionResnetV1__Repeat__block35_2__Branch_2__Conv2d_0c_3x3__BatchNorm__batchnorm__add_1"
  top: "InceptionResnetV1__Repeat__block35_2__Branch_2__Conv2d_0c_3x3__BatchNorm__batchnorm__add_1__scale"
  scale_param {
    bias_term: true
  }
}
layer {
  name: "InceptionResnetV1__Repeat__block35_2__Branch_2__Conv2d_0c_3x3__Relu"
  type: "ReLU"
  bottom: "InceptionResnetV1__Repeat__block35_2__Branch_2__Conv2d_0c_3x3__BatchNorm__batchnorm__add_1__scale"
  top: "InceptionResnetV1__Repeat__block35_2__Branch_2__Conv2d_0c_3x3__Relu"
}
layer {
  name: "InceptionResnetV1__Repeat__block35_2__concat"
  type: "Concat"
  bottom: "InceptionResnetV1__Repeat__block35_2__Branch_0__Conv2d_1x1__Relu"
  bottom: "InceptionResnetV1__Repeat__block35_2__Branch_1__Conv2d_0b_3x3__Relu"
  bottom: "InceptionResnetV1__Repeat__block35_2__Branch_2__Conv2d_0c_3x3__Relu"
  top: "InceptionResnetV1__Repeat__block35_2__concat"
  concat_param {
    axis: 1
  }
}
layer {
  name: "InceptionResnetV1__Repeat__block35_2__Conv2d_1x1__convolution"
  type: "Convolution"
  bottom: "InceptionResnetV1__Repeat__block35_2__concat"
  top: "InceptionResnetV1__Repeat__block35_2__Conv2d_1x1__convolution"
  convolution_param {
    num_output: 256
    bias_term: false
    kernel_h: 1
    kernel_w: 1
    stride_h: 1
    stride_w: 1
    pad_l: 0
    pad_r: 0
    pad_t: 0
    pad_b: 0
  }
}
layer {
  name: "InceptionResnetV1__Repeat__block35_2__Conv2d_1x1__BiasAdd"
  type: "Bias"
  bottom: "InceptionResnetV1__Repeat__block35_2__Conv2d_1x1__convolution"
  top: "InceptionResnetV1__Repeat__block35_2__Conv2d_1x1__BiasAdd"
}
layer {
  name: "InceptionResnetV1__Repeat__block35_2__mul"
  type: "Power"
  bottom: "InceptionResnetV1__Repeat__block35_2__Conv2d_1x1__BiasAdd"
  top: "InceptionResnetV1__Repeat__block35_2__mul"
  power_param {
    scale: 0.170000001788
  }
}
layer {
  name: "InceptionResnetV1__Repeat__block35_2__add"
  type: "Eltwise"
  bottom: "InceptionResnetV1__Repeat__block35_1__Relu"
  bottom: "InceptionResnetV1__Repeat__block35_2__mul"
  top: "InceptionResnetV1__Repeat__block35_2__add"
  eltwise_param {
    operation: SUM
  }
}
layer {
  name: "InceptionResnetV1__Repeat__block35_2__Relu"
  type: "ReLU"
  bottom: "InceptionResnetV1__Repeat__block35_2__add"
  top: "InceptionResnetV1__Repeat__block35_2__Relu"
}
layer {
  name: "InceptionResnetV1__Repeat__block35_3__Branch_2__Conv2d_0a_1x1__convolution"
  type: "Convolution"
  bottom: "InceptionResnetV1__Repeat__block35_2__Relu"
  top: "InceptionResnetV1__Repeat__block35_3__Branch_2__Conv2d_0a_1x1__convolution"
  convolution_param {
    num_output: 32
    bias_term: false
    kernel_h: 1
    kernel_w: 1
    stride_h: 1
    stride_w: 1
    pad_l: 0
    pad_r: 0
    pad_t: 0
    pad_b: 0
  }
}
layer {
  name: "InceptionResnetV1__Repeat__block35_3__Branch_1__Conv2d_0a_1x1__convolution"
  type: "Convolution"
  bottom: "InceptionResnetV1__Repeat__block35_2__Relu"
  top: "InceptionResnetV1__Repeat__block35_3__Branch_1__Conv2d_0a_1x1__convolution"
  convolution_param {
    num_output: 32
    bias_term: false
    kernel_h: 1
    kernel_w: 1
    stride_h: 1
    stride_w: 1
    pad_l: 0
    pad_r: 0
    pad_t: 0
    pad_b: 0
  }
}
layer {
  name: "InceptionResnetV1__Repeat__block35_3__Branch_0__Conv2d_1x1__convolution"
  type: "Convolution"
  bottom: "InceptionResnetV1__Repeat__block35_2__Relu"
  top: "InceptionResnetV1__Repeat__block35_3__Branch_0__Conv2d_1x1__convolution"
  convolution_param {
    num_output: 32
    bias_term: false
    kernel_h: 1
    kernel_w: 1
    stride_h: 1
    stride_w: 1
    pad_l: 0
    pad_r: 0
    pad_t: 0
    pad_b: 0
  }
}
layer {
  name: "InceptionResnetV1__Repeat__block35_3__Branch_2__Conv2d_0a_1x1__BatchNorm__batchnorm__add_1"
  type: "BatchNorm"
  bottom: "InceptionResnetV1__Repeat__block35_3__Branch_2__Conv2d_0a_1x1__convolution"
  top: "InceptionResnetV1__Repeat__block35_3__Branch_2__Conv2d_0a_1x1__BatchNorm__batchnorm__add_1"
  batch_norm_param {
    use_global_stats: true
    eps: 0.0010000000475
  }
}
layer {
  name: "InceptionResnetV1__Repeat__block35_3__Branch_2__Conv2d_0a_1x1__BatchNorm__batchnorm__add_1__scale"
  type: "Scale"
  bottom: "InceptionResnetV1__Repeat__block35_3__Branch_2__Conv2d_0a_1x1__BatchNorm__batchnorm__add_1"
  top: "InceptionResnetV1__Repeat__block35_3__Branch_2__Conv2d_0a_1x1__BatchNorm__batchnorm__add_1__scale"
  scale_param {
    bias_term: true
  }
}
layer {
  name: "InceptionResnetV1__Repeat__block35_3__Branch_1__Conv2d_0a_1x1__BatchNorm__batchnorm__add_1"
  type: "BatchNorm"
  bottom: "InceptionResnetV1__Repeat__block35_3__Branch_1__Conv2d_0a_1x1__convolution"
  top: "InceptionResnetV1__Repeat__block35_3__Branch_1__Conv2d_0a_1x1__BatchNorm__batchnorm__add_1"
  batch_norm_param {
    use_global_stats: true
    eps: 0.0010000000475
  }
}
layer {
  name: "InceptionResnetV1__Repeat__block35_3__Branch_1__Conv2d_0a_1x1__BatchNorm__batchnorm__add_1__scale"
  type: "Scale"
  bottom: "InceptionResnetV1__Repeat__block35_3__Branch_1__Conv2d_0a_1x1__BatchNorm__batchnorm__add_1"
  top: "InceptionResnetV1__Repeat__block35_3__Branch_1__Conv2d_0a_1x1__BatchNorm__batchnorm__add_1__scale"
  scale_param {
    bias_term: true
  }
}
layer {
  name: "InceptionResnetV1__Repeat__block35_3__Branch_0__Conv2d_1x1__BatchNorm__batchnorm__add_1"
  type: "BatchNorm"
  bottom: "InceptionResnetV1__Repeat__block35_3__Branch_0__Conv2d_1x1__convolution"
  top: "InceptionResnetV1__Repeat__block35_3__Branch_0__Conv2d_1x1__BatchNorm__batchnorm__add_1"
  batch_norm_param {
    use_global_stats: true
    eps: 0.0010000000475
  }
}
layer {
  name: "InceptionResnetV1__Repeat__block35_3__Branch_0__Conv2d_1x1__BatchNorm__batchnorm__add_1__scale"
  type: "Scale"
  bottom: "InceptionResnetV1__Repeat__block35_3__Branch_0__Conv2d_1x1__BatchNorm__batchnorm__add_1"
  top: "InceptionResnetV1__Repeat__block35_3__Branch_0__Conv2d_1x1__BatchNorm__batchnorm__add_1__scale"
  scale_param {
    bias_term: true
  }
}
layer {
  name: "InceptionResnetV1__Repeat__block35_3__Branch_2__Conv2d_0a_1x1__Relu"
  type: "ReLU"
  bottom: "InceptionResnetV1__Repeat__block35_3__Branch_2__Conv2d_0a_1x1__BatchNorm__batchnorm__add_1__scale"
  top: "InceptionResnetV1__Repeat__block35_3__Branch_2__Conv2d_0a_1x1__Relu"
}
layer {
  name: "InceptionResnetV1__Repeat__block35_3__Branch_1__Conv2d_0a_1x1__Relu"
  type: "ReLU"
  bottom: "InceptionResnetV1__Repeat__block35_3__Branch_1__Conv2d_0a_1x1__BatchNorm__batchnorm__add_1__scale"
  top: "InceptionResnetV1__Repeat__block35_3__Branch_1__Conv2d_0a_1x1__Relu"
}
layer {
  name: "InceptionResnetV1__Repeat__block35_3__Branch_0__Conv2d_1x1__Relu"
  type: "ReLU"
  bottom: "InceptionResnetV1__Repeat__block35_3__Branch_0__Conv2d_1x1__BatchNorm__batchnorm__add_1__scale"
  top: "InceptionResnetV1__Repeat__block35_3__Branch_0__Conv2d_1x1__Relu"
}
layer {
  name: "InceptionResnetV1__Repeat__block35_3__Branch_2__Conv2d_0b_3x3__convolution"
  type: "Convolution"
  bottom: "InceptionResnetV1__Repeat__block35_3__Branch_2__Conv2d_0a_1x1__Relu"
  top: "InceptionResnetV1__Repeat__block35_3__Branch_2__Conv2d_0b_3x3__convolution"
  convolution_param {
    num_output: 32
    bias_term: false
    kernel_h: 3
    kernel_w: 3
    stride_h: 1
    stride_w: 1
    pad_l: 1
    pad_r: 1
    pad_t: 1
    pad_b: 1
  }
}
layer {
  name: "InceptionResnetV1__Repeat__block35_3__Branch_1__Conv2d_0b_3x3__convolution"
  type: "Convolution"
  bottom: "InceptionResnetV1__Repeat__block35_3__Branch_1__Conv2d_0a_1x1__Relu"
  top: "InceptionResnetV1__Repeat__block35_3__Branch_1__Conv2d_0b_3x3__convolution"
  convolution_param {
    num_output: 32
    bias_term: false
    kernel_h: 3
    kernel_w: 3
    stride_h: 1
    stride_w: 1
    pad_l: 1
    pad_r: 1
    pad_t: 1
    pad_b: 1
  }
}
layer {
  name: "InceptionResnetV1__Repeat__block35_3__Branch_2__Conv2d_0b_3x3__BatchNorm__batchnorm__add_1"
  type: "BatchNorm"
  bottom: "InceptionResnetV1__Repeat__block35_3__Branch_2__Conv2d_0b_3x3__convolution"
  top: "InceptionResnetV1__Repeat__block35_3__Branch_2__Conv2d_0b_3x3__BatchNorm__batchnorm__add_1"
  batch_norm_param {
    use_global_stats: true
    eps: 0.0010000000475
  }
}
layer {
  name: "InceptionResnetV1__Repeat__block35_3__Branch_2__Conv2d_0b_3x3__BatchNorm__batchnorm__add_1__scale"
  type: "Scale"
  bottom: "InceptionResnetV1__Repeat__block35_3__Branch_2__Conv2d_0b_3x3__BatchNorm__batchnorm__add_1"
  top: "InceptionResnetV1__Repeat__block35_3__Branch_2__Conv2d_0b_3x3__BatchNorm__batchnorm__add_1__scale"
  scale_param {
    bias_term: true
  }
}
layer {
  name: "InceptionResnetV1__Repeat__block35_3__Branch_1__Conv2d_0b_3x3__BatchNorm__batchnorm__add_1"
  type: "BatchNorm"
  bottom: "InceptionResnetV1__Repeat__block35_3__Branch_1__Conv2d_0b_3x3__convolution"
  top: "InceptionResnetV1__Repeat__block35_3__Branch_1__Conv2d_0b_3x3__BatchNorm__batchnorm__add_1"
  batch_norm_param {
    use_global_stats: true
    eps: 0.0010000000475
  }
}
layer {
  name: "InceptionResnetV1__Repeat__block35_3__Branch_1__Conv2d_0b_3x3__BatchNorm__batchnorm__add_1__scale"
  type: "Scale"
  bottom: "InceptionResnetV1__Repeat__block35_3__Branch_1__Conv2d_0b_3x3__BatchNorm__batchnorm__add_1"
  top: "InceptionResnetV1__Repeat__block35_3__Branch_1__Conv2d_0b_3x3__BatchNorm__batchnorm__add_1__scale"
  scale_param {
    bias_term: true
  }
}
layer {
  name: "InceptionResnetV1__Repeat__block35_3__Branch_2__Conv2d_0b_3x3__Relu"
  type: "ReLU"
  bottom: "InceptionResnetV1__Repeat__block35_3__Branch_2__Conv2d_0b_3x3__BatchNorm__batchnorm__add_1__scale"
  top: "InceptionResnetV1__Repeat__block35_3__Branch_2__Conv2d_0b_3x3__Relu"
}
layer {
  name: "InceptionResnetV1__Repeat__block35_3__Branch_1__Conv2d_0b_3x3__Relu"
  type: "ReLU"
  bottom: "InceptionResnetV1__Repeat__block35_3__Branch_1__Conv2d_0b_3x3__BatchNorm__batchnorm__add_1__scale"
  top: "InceptionResnetV1__Repeat__block35_3__Branch_1__Conv2d_0b_3x3__Relu"
}
layer {
  name: "InceptionResnetV1__Repeat__block35_3__Branch_2__Conv2d_0c_3x3__convolution"
  type: "Convolution"
  bottom: "InceptionResnetV1__Repeat__block35_3__Branch_2__Conv2d_0b_3x3__Relu"
  top: "InceptionResnetV1__Repeat__block35_3__Branch_2__Conv2d_0c_3x3__convolution"
  convolution_param {
    num_output: 32
    bias_term: false
    kernel_h: 3
    kernel_w: 3
    stride_h: 1
    stride_w: 1
    pad_l: 1
    pad_r: 1
    pad_t: 1
    pad_b: 1
  }
}
layer {
  name: "InceptionResnetV1__Repeat__block35_3__Branch_2__Conv2d_0c_3x3__BatchNorm__batchnorm__add_1"
  type: "BatchNorm"
  bottom: "InceptionResnetV1__Repeat__block35_3__Branch_2__Conv2d_0c_3x3__convolution"
  top: "InceptionResnetV1__Repeat__block35_3__Branch_2__Conv2d_0c_3x3__BatchNorm__batchnorm__add_1"
  batch_norm_param {
    use_global_stats: true
    eps: 0.0010000000475
  }
}
layer {
  name: "InceptionResnetV1__Repeat__block35_3__Branch_2__Conv2d_0c_3x3__BatchNorm__batchnorm__add_1__scale"
  type: "Scale"
  bottom: "InceptionResnetV1__Repeat__block35_3__Branch_2__Conv2d_0c_3x3__BatchNorm__batchnorm__add_1"
  top: "InceptionResnetV1__Repeat__block35_3__Branch_2__Conv2d_0c_3x3__BatchNorm__batchnorm__add_1__scale"
  scale_param {
    bias_term: true
  }
}
layer {
  name: "InceptionResnetV1__Repeat__block35_3__Branch_2__Conv2d_0c_3x3__Relu"
  type: "ReLU"
  bottom: "InceptionResnetV1__Repeat__block35_3__Branch_2__Conv2d_0c_3x3__BatchNorm__batchnorm__add_1__scale"
  top: "InceptionResnetV1__Repeat__block35_3__Branch_2__Conv2d_0c_3x3__Relu"
}
layer {
  name: "InceptionResnetV1__Repeat__block35_3__concat"
  type: "Concat"
  bottom: "InceptionResnetV1__Repeat__block35_3__Branch_0__Conv2d_1x1__Relu"
  bottom: "InceptionResnetV1__Repeat__block35_3__Branch_1__Conv2d_0b_3x3__Relu"
  bottom: "InceptionResnetV1__Repeat__block35_3__Branch_2__Conv2d_0c_3x3__Relu"
  top: "InceptionResnetV1__Repeat__block35_3__concat"
  concat_param {
    axis: 1
  }
}
layer {
  name: "InceptionResnetV1__Repeat__block35_3__Conv2d_1x1__convolution"
  type: "Convolution"
  bottom: "InceptionResnetV1__Repeat__block35_3__concat"
  top: "InceptionResnetV1__Repeat__block35_3__Conv2d_1x1__convolution"
  convolution_param {
    num_output: 256
    bias_term: false
    kernel_h: 1
    kernel_w: 1
    stride_h: 1
    stride_w: 1
    pad_l: 0
    pad_r: 0
    pad_t: 0
    pad_b: 0
  }
}
layer {
  name: "InceptionResnetV1__Repeat__block35_3__Conv2d_1x1__BiasAdd"
  type: "Bias"
  bottom: "InceptionResnetV1__Repeat__block35_3__Conv2d_1x1__convolution"
  top: "InceptionResnetV1__Repeat__block35_3__Conv2d_1x1__BiasAdd"
}
layer {
  name: "InceptionResnetV1__Repeat__block35_3__mul"
  type: "Power"
  bottom: "InceptionResnetV1__Repeat__block35_3__Conv2d_1x1__BiasAdd"
  top: "InceptionResnetV1__Repeat__block35_3__mul"
  power_param {
    scale: 0.170000001788
  }
}
layer {
  name: "InceptionResnetV1__Repeat__block35_3__add"
  type: "Eltwise"
  bottom: "InceptionResnetV1__Repeat__block35_2__Relu"
  bottom: "InceptionResnetV1__Repeat__block35_3__mul"
  top: "InceptionResnetV1__Repeat__block35_3__add"
  eltwise_param {
    operation: SUM
  }
}
layer {
  name: "InceptionResnetV1__Repeat__block35_3__Relu"
  type: "ReLU"
  bottom: "InceptionResnetV1__Repeat__block35_3__add"
  top: "InceptionResnetV1__Repeat__block35_3__Relu"
}
layer {
  name: "InceptionResnetV1__Repeat__block35_4__Branch_2__Conv2d_0a_1x1__convolution"
  type: "Convolution"
  bottom: "InceptionResnetV1__Repeat__block35_3__Relu"
  top: "InceptionResnetV1__Repeat__block35_4__Branch_2__Conv2d_0a_1x1__convolution"
  convolution_param {
    num_output: 32
    bias_term: false
    kernel_h: 1
    kernel_w: 1
    stride_h: 1
    stride_w: 1
    pad_l: 0
    pad_r: 0
    pad_t: 0
    pad_b: 0
  }
}
layer {
  name: "InceptionResnetV1__Repeat__block35_4__Branch_1__Conv2d_0a_1x1__convolution"
  type: "Convolution"
  bottom: "InceptionResnetV1__Repeat__block35_3__Relu"
  top: "InceptionResnetV1__Repeat__block35_4__Branch_1__Conv2d_0a_1x1__convolution"
  convolution_param {
    num_output: 32
    bias_term: false
    kernel_h: 1
    kernel_w: 1
    stride_h: 1
    stride_w: 1
    pad_l: 0
    pad_r: 0
    pad_t: 0
    pad_b: 0
  }
}
layer {
  name: "InceptionResnetV1__Repeat__block35_4__Branch_0__Conv2d_1x1__convolution"
  type: "Convolution"
  bottom: "InceptionResnetV1__Repeat__block35_3__Relu"
  top: "InceptionResnetV1__Repeat__block35_4__Branch_0__Conv2d_1x1__convolution"
  convolution_param {
    num_output: 32
    bias_term: false
    kernel_h: 1
    kernel_w: 1
    stride_h: 1
    stride_w: 1
    pad_l: 0
    pad_r: 0
    pad_t: 0
    pad_b: 0
  }
}
layer {
  name: "InceptionResnetV1__Repeat__block35_4__Branch_2__Conv2d_0a_1x1__BatchNorm__batchnorm__add_1"
  type: "BatchNorm"
  bottom: "InceptionResnetV1__Repeat__block35_4__Branch_2__Conv2d_0a_1x1__convolution"
  top: "InceptionResnetV1__Repeat__block35_4__Branch_2__Conv2d_0a_1x1__BatchNorm__batchnorm__add_1"
  batch_norm_param {
    use_global_stats: true
    eps: 0.0010000000475
  }
}
layer {
  name: "InceptionResnetV1__Repeat__block35_4__Branch_2__Conv2d_0a_1x1__BatchNorm__batchnorm__add_1__scale"
  type: "Scale"
  bottom: "InceptionResnetV1__Repeat__block35_4__Branch_2__Conv2d_0a_1x1__BatchNorm__batchnorm__add_1"
  top: "InceptionResnetV1__Repeat__block35_4__Branch_2__Conv2d_0a_1x1__BatchNorm__batchnorm__add_1__scale"
  scale_param {
    bias_term: true
  }
}
layer {
  name: "InceptionResnetV1__Repeat__block35_4__Branch_1__Conv2d_0a_1x1__BatchNorm__batchnorm__add_1"
  type: "BatchNorm"
  bottom: "InceptionResnetV1__Repeat__block35_4__Branch_1__Conv2d_0a_1x1__convolution"
  top: "InceptionResnetV1__Repeat__block35_4__Branch_1__Conv2d_0a_1x1__BatchNorm__batchnorm__add_1"
  batch_norm_param {
    use_global_stats: true
    eps: 0.0010000000475
  }
}
layer {
  name: "InceptionResnetV1__Repeat__block35_4__Branch_1__Conv2d_0a_1x1__BatchNorm__batchnorm__add_1__scale"
  type: "Scale"
  bottom: "InceptionResnetV1__Repeat__block35_4__Branch_1__Conv2d_0a_1x1__BatchNorm__batchnorm__add_1"
  top: "InceptionResnetV1__Repeat__block35_4__Branch_1__Conv2d_0a_1x1__BatchNorm__batchnorm__add_1__scale"
  scale_param {
    bias_term: true
  }
}
layer {
  name: "InceptionResnetV1__Repeat__block35_4__Branch_0__Conv2d_1x1__BatchNorm__batchnorm__add_1"
  type: "BatchNorm"
  bottom: "InceptionResnetV1__Repeat__block35_4__Branch_0__Conv2d_1x1__convolution"
  top: "InceptionResnetV1__Repeat__block35_4__Branch_0__Conv2d_1x1__BatchNorm__batchnorm__add_1"
  batch_norm_param {
    use_global_stats: true
    eps: 0.0010000000475
  }
}
layer {
  name: "InceptionResnetV1__Repeat__block35_4__Branch_0__Conv2d_1x1__BatchNorm__batchnorm__add_1__scale"
  type: "Scale"
  bottom: "InceptionResnetV1__Repeat__block35_4__Branch_0__Conv2d_1x1__BatchNorm__batchnorm__add_1"
  top: "InceptionResnetV1__Repeat__block35_4__Branch_0__Conv2d_1x1__BatchNorm__batchnorm__add_1__scale"
  scale_param {
    bias_term: true
  }
}
layer {
  name: "InceptionResnetV1__Repeat__block35_4__Branch_2__Conv2d_0a_1x1__Relu"
  type: "ReLU"
  bottom: "InceptionResnetV1__Repeat__block35_4__Branch_2__Conv2d_0a_1x1__BatchNorm__batchnorm__add_1__scale"
  top: "InceptionResnetV1__Repeat__block35_4__Branch_2__Conv2d_0a_1x1__Relu"
}
layer {
  name: "InceptionResnetV1__Repeat__block35_4__Branch_1__Conv2d_0a_1x1__Relu"
  type: "ReLU"
  bottom: "InceptionResnetV1__Repeat__block35_4__Branch_1__Conv2d_0a_1x1__BatchNorm__batchnorm__add_1__scale"
  top: "InceptionResnetV1__Repeat__block35_4__Branch_1__Conv2d_0a_1x1__Relu"
}
layer {
  name: "InceptionResnetV1__Repeat__block35_4__Branch_0__Conv2d_1x1__Relu"
  type: "ReLU"
  bottom: "InceptionResnetV1__Repeat__block35_4__Branch_0__Conv2d_1x1__BatchNorm__batchnorm__add_1__scale"
  top: "InceptionResnetV1__Repeat__block35_4__Branch_0__Conv2d_1x1__Relu"
}
layer {
  name: "InceptionResnetV1__Repeat__block35_4__Branch_2__Conv2d_0b_3x3__convolution"
  type: "Convolution"
  bottom: "InceptionResnetV1__Repeat__block35_4__Branch_2__Conv2d_0a_1x1__Relu"
  top: "InceptionResnetV1__Repeat__block35_4__Branch_2__Conv2d_0b_3x3__convolution"
  convolution_param {
    num_output: 32
    bias_term: false
    kernel_h: 3
    kernel_w: 3
    stride_h: 1
    stride_w: 1
    pad_l: 1
    pad_r: 1
    pad_t: 1
    pad_b: 1
  }
}
layer {
  name: "InceptionResnetV1__Repeat__block35_4__Branch_1__Conv2d_0b_3x3__convolution"
  type: "Convolution"
  bottom: "InceptionResnetV1__Repeat__block35_4__Branch_1__Conv2d_0a_1x1__Relu"
  top: "InceptionResnetV1__Repeat__block35_4__Branch_1__Conv2d_0b_3x3__convolution"
  convolution_param {
    num_output: 32
    bias_term: false
    kernel_h: 3
    kernel_w: 3
    stride_h: 1
    stride_w: 1
    pad_l: 1
    pad_r: 1
    pad_t: 1
    pad_b: 1
  }
}
layer {
  name: "InceptionResnetV1__Repeat__block35_4__Branch_2__Conv2d_0b_3x3__BatchNorm__batchnorm__add_1"
  type: "BatchNorm"
  bottom: "InceptionResnetV1__Repeat__block35_4__Branch_2__Conv2d_0b_3x3__convolution"
  top: "InceptionResnetV1__Repeat__block35_4__Branch_2__Conv2d_0b_3x3__BatchNorm__batchnorm__add_1"
  batch_norm_param {
    use_global_stats: true
    eps: 0.0010000000475
  }
}
layer {
  name: "InceptionResnetV1__Repeat__block35_4__Branch_2__Conv2d_0b_3x3__BatchNorm__batchnorm__add_1__scale"
  type: "Scale"
  bottom: "InceptionResnetV1__Repeat__block35_4__Branch_2__Conv2d_0b_3x3__BatchNorm__batchnorm__add_1"
  top: "InceptionResnetV1__Repeat__block35_4__Branch_2__Conv2d_0b_3x3__BatchNorm__batchnorm__add_1__scale"
  scale_param {
    bias_term: true
  }
}
layer {
  name: "InceptionResnetV1__Repeat__block35_4__Branch_1__Conv2d_0b_3x3__BatchNorm__batchnorm__add_1"
  type: "BatchNorm"
  bottom: "InceptionResnetV1__Repeat__block35_4__Branch_1__Conv2d_0b_3x3__convolution"
  top: "InceptionResnetV1__Repeat__block35_4__Branch_1__Conv2d_0b_3x3__BatchNorm__batchnorm__add_1"
  batch_norm_param {
    use_global_stats: true
    eps: 0.0010000000475
  }
}
layer {
  name: "InceptionResnetV1__Repeat__block35_4__Branch_1__Conv2d_0b_3x3__BatchNorm__batchnorm__add_1__scale"
  type: "Scale"
  bottom: "InceptionResnetV1__Repeat__block35_4__Branch_1__Conv2d_0b_3x3__BatchNorm__batchnorm__add_1"
  top: "InceptionResnetV1__Repeat__block35_4__Branch_1__Conv2d_0b_3x3__BatchNorm__batchnorm__add_1__scale"
  scale_param {
    bias_term: true
  }
}
layer {
  name: "InceptionResnetV1__Repeat__block35_4__Branch_2__Conv2d_0b_3x3__Relu"
  type: "ReLU"
  bottom: "InceptionResnetV1__Repeat__block35_4__Branch_2__Conv2d_0b_3x3__BatchNorm__batchnorm__add_1__scale"
  top: "InceptionResnetV1__Repeat__block35_4__Branch_2__Conv2d_0b_3x3__Relu"
}
layer {
  name: "InceptionResnetV1__Repeat__block35_4__Branch_1__Conv2d_0b_3x3__Relu"
  type: "ReLU"
  bottom: "InceptionResnetV1__Repeat__block35_4__Branch_1__Conv2d_0b_3x3__BatchNorm__batchnorm__add_1__scale"
  top: "InceptionResnetV1__Repeat__block35_4__Branch_1__Conv2d_0b_3x3__Relu"
}
layer {
  name: "InceptionResnetV1__Repeat__block35_4__Branch_2__Conv2d_0c_3x3__convolution"
  type: "Convolution"
  bottom: "InceptionResnetV1__Repeat__block35_4__Branch_2__Conv2d_0b_3x3__Relu"
  top: "InceptionResnetV1__Repeat__block35_4__Branch_2__Conv2d_0c_3x3__convolution"
  convolution_param {
    num_output: 32
    bias_term: false
    kernel_h: 3
    kernel_w: 3
    stride_h: 1
    stride_w: 1
    pad_l: 1
    pad_r: 1
    pad_t: 1
    pad_b: 1
  }
}
layer {
  name: "InceptionResnetV1__Repeat__block35_4__Branch_2__Conv2d_0c_3x3__BatchNorm__batchnorm__add_1"
  type: "BatchNorm"
  bottom: "InceptionResnetV1__Repeat__block35_4__Branch_2__Conv2d_0c_3x3__convolution"
  top: "InceptionResnetV1__Repeat__block35_4__Branch_2__Conv2d_0c_3x3__BatchNorm__batchnorm__add_1"
  batch_norm_param {
    use_global_stats: true
    eps: 0.0010000000475
  }
}
layer {
  name: "InceptionResnetV1__Repeat__block35_4__Branch_2__Conv2d_0c_3x3__BatchNorm__batchnorm__add_1__scale"
  type: "Scale"
  bottom: "InceptionResnetV1__Repeat__block35_4__Branch_2__Conv2d_0c_3x3__BatchNorm__batchnorm__add_1"
  top: "InceptionResnetV1__Repeat__block35_4__Branch_2__Conv2d_0c_3x3__BatchNorm__batchnorm__add_1__scale"
  scale_param {
    bias_term: true
  }
}
layer {
  name: "InceptionResnetV1__Repeat__block35_4__Branch_2__Conv2d_0c_3x3__Relu"
  type: "ReLU"
  bottom: "InceptionResnetV1__Repeat__block35_4__Branch_2__Conv2d_0c_3x3__BatchNorm__batchnorm__add_1__scale"
  top: "InceptionResnetV1__Repeat__block35_4__Branch_2__Conv2d_0c_3x3__Relu"
}
layer {
  name: "InceptionResnetV1__Repeat__block35_4__concat"
  type: "Concat"
  bottom: "InceptionResnetV1__Repeat__block35_4__Branch_0__Conv2d_1x1__Relu"
  bottom: "InceptionResnetV1__Repeat__block35_4__Branch_1__Conv2d_0b_3x3__Relu"
  bottom: "InceptionResnetV1__Repeat__block35_4__Branch_2__Conv2d_0c_3x3__Relu"
  top: "InceptionResnetV1__Repeat__block35_4__concat"
  concat_param {
    axis: 1
  }
}
layer {
  name: "InceptionResnetV1__Repeat__block35_4__Conv2d_1x1__convolution"
  type: "Convolution"
  bottom: "InceptionResnetV1__Repeat__block35_4__concat"
  top: "InceptionResnetV1__Repeat__block35_4__Conv2d_1x1__convolution"
  convolution_param {
    num_output: 256
    bias_term: false
    kernel_h: 1
    kernel_w: 1
    stride_h: 1
    stride_w: 1
    pad_l: 0
    pad_r: 0
    pad_t: 0
    pad_b: 0
  }
}
layer {
  name: "InceptionResnetV1__Repeat__block35_4__Conv2d_1x1__BiasAdd"
  type: "Bias"
  bottom: "InceptionResnetV1__Repeat__block35_4__Conv2d_1x1__convolution"
  top: "InceptionResnetV1__Repeat__block35_4__Conv2d_1x1__BiasAdd"
}
layer {
  name: "InceptionResnetV1__Repeat__block35_4__mul"
  type: "Power"
  bottom: "InceptionResnetV1__Repeat__block35_4__Conv2d_1x1__BiasAdd"
  top: "InceptionResnetV1__Repeat__block35_4__mul"
  power_param {
    scale: 0.170000001788
  }
}
layer {
  name: "InceptionResnetV1__Repeat__block35_4__add"
  type: "Eltwise"
  bottom: "InceptionResnetV1__Repeat__block35_3__Relu"
  bottom: "InceptionResnetV1__Repeat__block35_4__mul"
  top: "InceptionResnetV1__Repeat__block35_4__add"
  eltwise_param {
    operation: SUM
  }
}
layer {
  name: "InceptionResnetV1__Repeat__block35_4__Relu"
  type: "ReLU"
  bottom: "InceptionResnetV1__Repeat__block35_4__add"
  top: "InceptionResnetV1__Repeat__block35_4__Relu"
}
layer {
  name: "InceptionResnetV1__Repeat__block35_5__Branch_2__Conv2d_0a_1x1__convolution"
  type: "Convolution"
  bottom: "InceptionResnetV1__Repeat__block35_4__Relu"
  top: "InceptionResnetV1__Repeat__block35_5__Branch_2__Conv2d_0a_1x1__convolution"
  convolution_param {
    num_output: 32
    bias_term: false
    kernel_h: 1
    kernel_w: 1
    stride_h: 1
    stride_w: 1
    pad_l: 0
    pad_r: 0
    pad_t: 0
    pad_b: 0
  }
}
layer {
  name: "InceptionResnetV1__Repeat__block35_5__Branch_1__Conv2d_0a_1x1__convolution"
  type: "Convolution"
  bottom: "InceptionResnetV1__Repeat__block35_4__Relu"
  top: "InceptionResnetV1__Repeat__block35_5__Branch_1__Conv2d_0a_1x1__convolution"
  convolution_param {
    num_output: 32
    bias_term: false
    kernel_h: 1
    kernel_w: 1
    stride_h: 1
    stride_w: 1
    pad_l: 0
    pad_r: 0
    pad_t: 0
    pad_b: 0
  }
}
layer {
  name: "InceptionResnetV1__Repeat__block35_5__Branch_0__Conv2d_1x1__convolution"
  type: "Convolution"
  bottom: "InceptionResnetV1__Repeat__block35_4__Relu"
  top: "InceptionResnetV1__Repeat__block35_5__Branch_0__Conv2d_1x1__convolution"
  convolution_param {
    num_output: 32
    bias_term: false
    kernel_h: 1
    kernel_w: 1
    stride_h: 1
    stride_w: 1
    pad_l: 0
    pad_r: 0
    pad_t: 0
    pad_b: 0
  }
}
layer {
  name: "InceptionResnetV1__Repeat__block35_5__Branch_2__Conv2d_0a_1x1__BatchNorm__batchnorm__add_1"
  type: "BatchNorm"
  bottom: "InceptionResnetV1__Repeat__block35_5__Branch_2__Conv2d_0a_1x1__convolution"
  top: "InceptionResnetV1__Repeat__block35_5__Branch_2__Conv2d_0a_1x1__BatchNorm__batchnorm__add_1"
  batch_norm_param {
    use_global_stats: true
    eps: 0.0010000000475
  }
}
layer {
  name: "InceptionResnetV1__Repeat__block35_5__Branch_2__Conv2d_0a_1x1__BatchNorm__batchnorm__add_1__scale"
  type: "Scale"
  bottom: "InceptionResnetV1__Repeat__block35_5__Branch_2__Conv2d_0a_1x1__BatchNorm__batchnorm__add_1"
  top: "InceptionResnetV1__Repeat__block35_5__Branch_2__Conv2d_0a_1x1__BatchNorm__batchnorm__add_1__scale"
  scale_param {
    bias_term: true
  }
}
layer {
  name: "InceptionResnetV1__Repeat__block35_5__Branch_1__Conv2d_0a_1x1__BatchNorm__batchnorm__add_1"
  type: "BatchNorm"
  bottom: "InceptionResnetV1__Repeat__block35_5__Branch_1__Conv2d_0a_1x1__convolution"
  top: "InceptionResnetV1__Repeat__block35_5__Branch_1__Conv2d_0a_1x1__BatchNorm__batchnorm__add_1"
  batch_norm_param {
    use_global_stats: true
    eps: 0.0010000000475
  }
}
layer {
  name: "InceptionResnetV1__Repeat__block35_5__Branch_1__Conv2d_0a_1x1__BatchNorm__batchnorm__add_1__scale"
  type: "Scale"
  bottom: "InceptionResnetV1__Repeat__block35_5__Branch_1__Conv2d_0a_1x1__BatchNorm__batchnorm__add_1"
  top: "InceptionResnetV1__Repeat__block35_5__Branch_1__Conv2d_0a_1x1__BatchNorm__batchnorm__add_1__scale"
  scale_param {
    bias_term: true
  }
}
layer {
  name: "InceptionResnetV1__Repeat__block35_5__Branch_0__Conv2d_1x1__BatchNorm__batchnorm__add_1"
  type: "BatchNorm"
  bottom: "InceptionResnetV1__Repeat__block35_5__Branch_0__Conv2d_1x1__convolution"
  top: "InceptionResnetV1__Repeat__block35_5__Branch_0__Conv2d_1x1__BatchNorm__batchnorm__add_1"
  batch_norm_param {
    use_global_stats: true
    eps: 0.0010000000475
  }
}
layer {
  name: "InceptionResnetV1__Repeat__block35_5__Branch_0__Conv2d_1x1__BatchNorm__batchnorm__add_1__scale"
  type: "Scale"
  bottom: "InceptionResnetV1__Repeat__block35_5__Branch_0__Conv2d_1x1__BatchNorm__batchnorm__add_1"
  top: "InceptionResnetV1__Repeat__block35_5__Branch_0__Conv2d_1x1__BatchNorm__batchnorm__add_1__scale"
  scale_param {
    bias_term: true
  }
}
layer {
  name: "InceptionResnetV1__Repeat__block35_5__Branch_2__Conv2d_0a_1x1__Relu"
  type: "ReLU"
  bottom: "InceptionResnetV1__Repeat__block35_5__Branch_2__Conv2d_0a_1x1__BatchNorm__batchnorm__add_1__scale"
  top: "InceptionResnetV1__Repeat__block35_5__Branch_2__Conv2d_0a_1x1__Relu"
}
layer {
  name: "InceptionResnetV1__Repeat__block35_5__Branch_1__Conv2d_0a_1x1__Relu"
  type: "ReLU"
  bottom: "InceptionResnetV1__Repeat__block35_5__Branch_1__Conv2d_0a_1x1__BatchNorm__batchnorm__add_1__scale"
  top: "InceptionResnetV1__Repeat__block35_5__Branch_1__Conv2d_0a_1x1__Relu"
}
layer {
  name: "InceptionResnetV1__Repeat__block35_5__Branch_0__Conv2d_1x1__Relu"
  type: "ReLU"
  bottom: "InceptionResnetV1__Repeat__block35_5__Branch_0__Conv2d_1x1__BatchNorm__batchnorm__add_1__scale"
  top: "InceptionResnetV1__Repeat__block35_5__Branch_0__Conv2d_1x1__Relu"
}
layer {
  name: "InceptionResnetV1__Repeat__block35_5__Branch_2__Conv2d_0b_3x3__convolution"
  type: "Convolution"
  bottom: "InceptionResnetV1__Repeat__block35_5__Branch_2__Conv2d_0a_1x1__Relu"
  top: "InceptionResnetV1__Repeat__block35_5__Branch_2__Conv2d_0b_3x3__convolution"
  convolution_param {
    num_output: 32
    bias_term: false
    kernel_h: 3
    kernel_w: 3
    stride_h: 1
    stride_w: 1
    pad_l: 1
    pad_r: 1
    pad_t: 1
    pad_b: 1
  }
}
layer {
  name: "InceptionResnetV1__Repeat__block35_5__Branch_1__Conv2d_0b_3x3__convolution"
  type: "Convolution"
  bottom: "InceptionResnetV1__Repeat__block35_5__Branch_1__Conv2d_0a_1x1__Relu"
  top: "InceptionResnetV1__Repeat__block35_5__Branch_1__Conv2d_0b_3x3__convolution"
  convolution_param {
    num_output: 32
    bias_term: false
    kernel_h: 3
    kernel_w: 3
    stride_h: 1
    stride_w: 1
    pad_l: 1
    pad_r: 1
    pad_t: 1
    pad_b: 1
  }
}
layer {
  name: "InceptionResnetV1__Repeat__block35_5__Branch_2__Conv2d_0b_3x3__BatchNorm__batchnorm__add_1"
  type: "BatchNorm"
  bottom: "InceptionResnetV1__Repeat__block35_5__Branch_2__Conv2d_0b_3x3__convolution"
  top: "InceptionResnetV1__Repeat__block35_5__Branch_2__Conv2d_0b_3x3__BatchNorm__batchnorm__add_1"
  batch_norm_param {
    use_global_stats: true
    eps: 0.0010000000475
  }
}
layer {
  name: "InceptionResnetV1__Repeat__block35_5__Branch_2__Conv2d_0b_3x3__BatchNorm__batchnorm__add_1__scale"
  type: "Scale"
  bottom: "InceptionResnetV1__Repeat__block35_5__Branch_2__Conv2d_0b_3x3__BatchNorm__batchnorm__add_1"
  top: "InceptionResnetV1__Repeat__block35_5__Branch_2__Conv2d_0b_3x3__BatchNorm__batchnorm__add_1__scale"
  scale_param {
    bias_term: true
  }
}
layer {
  name: "InceptionResnetV1__Repeat__block35_5__Branch_1__Conv2d_0b_3x3__BatchNorm__batchnorm__add_1"
  type: "BatchNorm"
  bottom: "InceptionResnetV1__Repeat__block35_5__Branch_1__Conv2d_0b_3x3__convolution"
  top: "InceptionResnetV1__Repeat__block35_5__Branch_1__Conv2d_0b_3x3__BatchNorm__batchnorm__add_1"
  batch_norm_param {
    use_global_stats: true
    eps: 0.0010000000475
  }
}
layer {
  name: "InceptionResnetV1__Repeat__block35_5__Branch_1__Conv2d_0b_3x3__BatchNorm__batchnorm__add_1__scale"
  type: "Scale"
  bottom: "InceptionResnetV1__Repeat__block35_5__Branch_1__Conv2d_0b_3x3__BatchNorm__batchnorm__add_1"
  top: "InceptionResnetV1__Repeat__block35_5__Branch_1__Conv2d_0b_3x3__BatchNorm__batchnorm__add_1__scale"
  scale_param {
    bias_term: true
  }
}
layer {
  name: "InceptionResnetV1__Repeat__block35_5__Branch_2__Conv2d_0b_3x3__Relu"
  type: "ReLU"
  bottom: "InceptionResnetV1__Repeat__block35_5__Branch_2__Conv2d_0b_3x3__BatchNorm__batchnorm__add_1__scale"
  top: "InceptionResnetV1__Repeat__block35_5__Branch_2__Conv2d_0b_3x3__Relu"
}
layer {
  name: "InceptionResnetV1__Repeat__block35_5__Branch_1__Conv2d_0b_3x3__Relu"
  type: "ReLU"
  bottom: "InceptionResnetV1__Repeat__block35_5__Branch_1__Conv2d_0b_3x3__BatchNorm__batchnorm__add_1__scale"
  top: "InceptionResnetV1__Repeat__block35_5__Branch_1__Conv2d_0b_3x3__Relu"
}
layer {
  name: "InceptionResnetV1__Repeat__block35_5__Branch_2__Conv2d_0c_3x3__convolution"
  type: "Convolution"
  bottom: "InceptionResnetV1__Repeat__block35_5__Branch_2__Conv2d_0b_3x3__Relu"
  top: "InceptionResnetV1__Repeat__block35_5__Branch_2__Conv2d_0c_3x3__convolution"
  convolution_param {
    num_output: 32
    bias_term: false
    kernel_h: 3
    kernel_w: 3
    stride_h: 1
    stride_w: 1
    pad_l: 1
    pad_r: 1
    pad_t: 1
    pad_b: 1
  }
}
layer {
  name: "InceptionResnetV1__Repeat__block35_5__Branch_2__Conv2d_0c_3x3__BatchNorm__batchnorm__add_1"
  type: "BatchNorm"
  bottom: "InceptionResnetV1__Repeat__block35_5__Branch_2__Conv2d_0c_3x3__convolution"
  top: "InceptionResnetV1__Repeat__block35_5__Branch_2__Conv2d_0c_3x3__BatchNorm__batchnorm__add_1"
  batch_norm_param {
    use_global_stats: true
    eps: 0.0010000000475
  }
}
layer {
  name: "InceptionResnetV1__Repeat__block35_5__Branch_2__Conv2d_0c_3x3__BatchNorm__batchnorm__add_1__scale"
  type: "Scale"
  bottom: "InceptionResnetV1__Repeat__block35_5__Branch_2__Conv2d_0c_3x3__BatchNorm__batchnorm__add_1"
  top: "InceptionResnetV1__Repeat__block35_5__Branch_2__Conv2d_0c_3x3__BatchNorm__batchnorm__add_1__scale"
  scale_param {
    bias_term: true
  }
}
layer {
  name: "InceptionResnetV1__Repeat__block35_5__Branch_2__Conv2d_0c_3x3__Relu"
  type: "ReLU"
  bottom: "InceptionResnetV1__Repeat__block35_5__Branch_2__Conv2d_0c_3x3__BatchNorm__batchnorm__add_1__scale"
  top: "InceptionResnetV1__Repeat__block35_5__Branch_2__Conv2d_0c_3x3__Relu"
}
layer {
  name: "InceptionResnetV1__Repeat__block35_5__concat"
  type: "Concat"
  bottom: "InceptionResnetV1__Repeat__block35_5__Branch_0__Conv2d_1x1__Relu"
  bottom: "InceptionResnetV1__Repeat__block35_5__Branch_1__Conv2d_0b_3x3__Relu"
  bottom: "InceptionResnetV1__Repeat__block35_5__Branch_2__Conv2d_0c_3x3__Relu"
  top: "InceptionResnetV1__Repeat__block35_5__concat"
  concat_param {
    axis: 1
  }
}
layer {
  name: "InceptionResnetV1__Repeat__block35_5__Conv2d_1x1__convolution"
  type: "Convolution"
  bottom: "InceptionResnetV1__Repeat__block35_5__concat"
  top: "InceptionResnetV1__Repeat__block35_5__Conv2d_1x1__convolution"
  convolution_param {
    num_output: 256
    bias_term: false
    kernel_h: 1
    kernel_w: 1
    stride_h: 1
    stride_w: 1
    pad_l: 0
    pad_r: 0
    pad_t: 0
    pad_b: 0
  }
}
layer {
  name: "InceptionResnetV1__Repeat__block35_5__Conv2d_1x1__BiasAdd"
  type: "Bias"
  bottom: "InceptionResnetV1__Repeat__block35_5__Conv2d_1x1__convolution"
  top: "InceptionResnetV1__Repeat__block35_5__Conv2d_1x1__BiasAdd"
}
layer {
  name: "InceptionResnetV1__Repeat__block35_5__mul"
  type: "Power"
  bottom: "InceptionResnetV1__Repeat__block35_5__Conv2d_1x1__BiasAdd"
  top: "InceptionResnetV1__Repeat__block35_5__mul"
  power_param {
    scale: 0.170000001788
  }
}
layer {
  name: "InceptionResnetV1__Repeat__block35_5__add"
  type: "Eltwise"
  bottom: "InceptionResnetV1__Repeat__block35_4__Relu"
  bottom: "InceptionResnetV1__Repeat__block35_5__mul"
  top: "InceptionResnetV1__Repeat__block35_5__add"
  eltwise_param {
    operation: SUM
  }
}
layer {
  name: "InceptionResnetV1__Repeat__block35_5__Relu"
  type: "ReLU"
  bottom: "InceptionResnetV1__Repeat__block35_5__add"
  top: "InceptionResnetV1__Repeat__block35_5__Relu"
}
layer {
  name: "InceptionResnetV1__Mixed_6a__Branch_2__MaxPool_1a_3x3__MaxPool"
  type: "Pooling"
  bottom: "InceptionResnetV1__Repeat__block35_5__Relu"
  top: "InceptionResnetV1__Mixed_6a__Branch_2__MaxPool_1a_3x3__MaxPool"
  pooling_param {
    pool: MAX
    kernel_h: 3
    kernel_w: 3
    stride_h: 2
    stride_w: 2
    ceil_mode: false
    pad_l: 0
    pad_r: 0
    pad_t: 0
    pad_b: 0
  }
}
layer {
  name: "InceptionResnetV1__Mixed_6a__Branch_1__Conv2d_0a_1x1__convolution"
  type: "Convolution"
  bottom: "InceptionResnetV1__Repeat__block35_5__Relu"
  top: "InceptionResnetV1__Mixed_6a__Branch_1__Conv2d_0a_1x1__convolution"
  convolution_param {
    num_output: 192
    bias_term: false
    kernel_h: 1
    kernel_w: 1
    stride_h: 1
    stride_w: 1
    pad_l: 0
    pad_r: 0
    pad_t: 0
    pad_b: 0
  }
}
layer {
  name: "InceptionResnetV1__Mixed_6a__Branch_0__Conv2d_1a_3x3__convolution"
  type: "Convolution"
  bottom: "InceptionResnetV1__Repeat__block35_5__Relu"
  top: "InceptionResnetV1__Mixed_6a__Branch_0__Conv2d_1a_3x3__convolution"
  convolution_param {
    num_output: 384
    bias_term: false
    kernel_h: 3
    kernel_w: 3
    stride_h: 2
    stride_w: 2
    pad_l: 0
    pad_r: 0
    pad_t: 0
    pad_b: 0
  }
}
layer {
  name: "InceptionResnetV1__Mixed_6a__Branch_1__Conv2d_0a_1x1__BatchNorm__batchnorm__add_1"
  type: "BatchNorm"
  bottom: "InceptionResnetV1__Mixed_6a__Branch_1__Conv2d_0a_1x1__convolution"
  top: "InceptionResnetV1__Mixed_6a__Branch_1__Conv2d_0a_1x1__BatchNorm__batchnorm__add_1"
  batch_norm_param {
    use_global_stats: true
    eps: 0.0010000000475
  }
}
layer {
  name: "InceptionResnetV1__Mixed_6a__Branch_1__Conv2d_0a_1x1__BatchNorm__batchnorm__add_1__scale"
  type: "Scale"
  bottom: "InceptionResnetV1__Mixed_6a__Branch_1__Conv2d_0a_1x1__BatchNorm__batchnorm__add_1"
  top: "InceptionResnetV1__Mixed_6a__Branch_1__Conv2d_0a_1x1__BatchNorm__batchnorm__add_1__scale"
  scale_param {
    bias_term: true
  }
}
layer {
  name: "InceptionResnetV1__Mixed_6a__Branch_0__Conv2d_1a_3x3__BatchNorm__batchnorm__add_1"
  type: "BatchNorm"
  bottom: "InceptionResnetV1__Mixed_6a__Branch_0__Conv2d_1a_3x3__convolution"
  top: "InceptionResnetV1__Mixed_6a__Branch_0__Conv2d_1a_3x3__BatchNorm__batchnorm__add_1"
  batch_norm_param {
    use_global_stats: true
    eps: 0.0010000000475
  }
}
layer {
  name: "InceptionResnetV1__Mixed_6a__Branch_0__Conv2d_1a_3x3__BatchNorm__batchnorm__add_1__scale"
  type: "Scale"
  bottom: "InceptionResnetV1__Mixed_6a__Branch_0__Conv2d_1a_3x3__BatchNorm__batchnorm__add_1"
  top: "InceptionResnetV1__Mixed_6a__Branch_0__Conv2d_1a_3x3__BatchNorm__batchnorm__add_1__scale"
  scale_param {
    bias_term: true
  }
}
layer {
  name: "InceptionResnetV1__Mixed_6a__Branch_1__Conv2d_0a_1x1__Relu"
  type: "ReLU"
  bottom: "InceptionResnetV1__Mixed_6a__Branch_1__Conv2d_0a_1x1__BatchNorm__batchnorm__add_1__scale"
  top: "InceptionResnetV1__Mixed_6a__Branch_1__Conv2d_0a_1x1__Relu"
}
layer {
  name: "InceptionResnetV1__Mixed_6a__Branch_0__Conv2d_1a_3x3__Relu"
  type: "ReLU"
  bottom: "InceptionResnetV1__Mixed_6a__Branch_0__Conv2d_1a_3x3__BatchNorm__batchnorm__add_1__scale"
  top: "InceptionResnetV1__Mixed_6a__Branch_0__Conv2d_1a_3x3__Relu"
}
layer {
  name: "InceptionResnetV1__Mixed_6a__Branch_1__Conv2d_0b_3x3__convolution"
  type: "Convolution"
  bottom: "InceptionResnetV1__Mixed_6a__Branch_1__Conv2d_0a_1x1__Relu"
  top: "InceptionResnetV1__Mixed_6a__Branch_1__Conv2d_0b_3x3__convolution"
  convolution_param {
    num_output: 192
    bias_term: false
    kernel_h: 3
    kernel_w: 3
    stride_h: 1
    stride_w: 1
    pad_l: 1
    pad_r: 1
    pad_t: 1
    pad_b: 1
  }
}
layer {
  name: "InceptionResnetV1__Mixed_6a__Branch_1__Conv2d_0b_3x3__BatchNorm__batchnorm__add_1"
  type: "BatchNorm"
  bottom: "InceptionResnetV1__Mixed_6a__Branch_1__Conv2d_0b_3x3__convolution"
  top: "InceptionResnetV1__Mixed_6a__Branch_1__Conv2d_0b_3x3__BatchNorm__batchnorm__add_1"
  batch_norm_param {
    use_global_stats: true
    eps: 0.0010000000475
  }
}
layer {
  name: "InceptionResnetV1__Mixed_6a__Branch_1__Conv2d_0b_3x3__BatchNorm__batchnorm__add_1__scale"
  type: "Scale"
  bottom: "InceptionResnetV1__Mixed_6a__Branch_1__Conv2d_0b_3x3__BatchNorm__batchnorm__add_1"
  top: "InceptionResnetV1__Mixed_6a__Branch_1__Conv2d_0b_3x3__BatchNorm__batchnorm__add_1__scale"
  scale_param {
    bias_term: true
  }
}
layer {
  name: "InceptionResnetV1__Mixed_6a__Branch_1__Conv2d_0b_3x3__Relu"
  type: "ReLU"
  bottom: "InceptionResnetV1__Mixed_6a__Branch_1__Conv2d_0b_3x3__BatchNorm__batchnorm__add_1__scale"
  top: "InceptionResnetV1__Mixed_6a__Branch_1__Conv2d_0b_3x3__Relu"
}
layer {
  name: "InceptionResnetV1__Mixed_6a__Branch_1__Conv2d_1a_3x3__convolution"
  type: "Convolution"
  bottom: "InceptionResnetV1__Mixed_6a__Branch_1__Conv2d_0b_3x3__Relu"
  top: "InceptionResnetV1__Mixed_6a__Branch_1__Conv2d_1a_3x3__convolution"
  convolution_param {
    num_output: 256
    bias_term: false
    kernel_h: 3
    kernel_w: 3
    stride_h: 2
    stride_w: 2
    pad_l: 0
    pad_r: 0
    pad_t: 0
    pad_b: 0
  }
}
layer {
  name: "InceptionResnetV1__Mixed_6a__Branch_1__Conv2d_1a_3x3__BatchNorm__batchnorm__add_1"
  type: "BatchNorm"
  bottom: "InceptionResnetV1__Mixed_6a__Branch_1__Conv2d_1a_3x3__convolution"
  top: "InceptionResnetV1__Mixed_6a__Branch_1__Conv2d_1a_3x3__BatchNorm__batchnorm__add_1"
  batch_norm_param {
    use_global_stats: true
    eps: 0.0010000000475
  }
}
layer {
  name: "InceptionResnetV1__Mixed_6a__Branch_1__Conv2d_1a_3x3__BatchNorm__batchnorm__add_1__scale"
  type: "Scale"
  bottom: "InceptionResnetV1__Mixed_6a__Branch_1__Conv2d_1a_3x3__BatchNorm__batchnorm__add_1"
  top: "InceptionResnetV1__Mixed_6a__Branch_1__Conv2d_1a_3x3__BatchNorm__batchnorm__add_1__scale"
  scale_param {
    bias_term: true
  }
}
layer {
  name: "InceptionResnetV1__Mixed_6a__Branch_1__Conv2d_1a_3x3__Relu"
  type: "ReLU"
  bottom: "InceptionResnetV1__Mixed_6a__Branch_1__Conv2d_1a_3x3__BatchNorm__batchnorm__add_1__scale"
  top: "InceptionResnetV1__Mixed_6a__Branch_1__Conv2d_1a_3x3__Relu"
}
layer {
  name: "InceptionResnetV1__Mixed_6a__concat"
  type: "Concat"
  bottom: "InceptionResnetV1__Mixed_6a__Branch_0__Conv2d_1a_3x3__Relu"
  bottom: "InceptionResnetV1__Mixed_6a__Branch_1__Conv2d_1a_3x3__Relu"
  bottom: "InceptionResnetV1__Mixed_6a__Branch_2__MaxPool_1a_3x3__MaxPool"
  top: "InceptionResnetV1__Mixed_6a__concat"
  concat_param {
    axis: 1
  }
}
layer {
  name: "InceptionResnetV1__Repeat_1__block17_1__Branch_1__Conv2d_0a_1x1__convolution"
  type: "Convolution"
  bottom: "InceptionResnetV1__Mixed_6a__concat"
  top: "InceptionResnetV1__Repeat_1__block17_1__Branch_1__Conv2d_0a_1x1__convolution"
  convolution_param {
    num_output: 128
    bias_term: false
    kernel_h: 1
    kernel_w: 1
    stride_h: 1
    stride_w: 1
    pad_l: 0
    pad_r: 0
    pad_t: 0
    pad_b: 0
  }
}
layer {
  name: "InceptionResnetV1__Repeat_1__block17_1__Branch_0__Conv2d_1x1__convolution"
  type: "Convolution"
  bottom: "InceptionResnetV1__Mixed_6a__concat"
  top: "InceptionResnetV1__Repeat_1__block17_1__Branch_0__Conv2d_1x1__convolution"
  convolution_param {
    num_output: 128
    bias_term: false
    kernel_h: 1
    kernel_w: 1
    stride_h: 1
    stride_w: 1
    pad_l: 0
    pad_r: 0
    pad_t: 0
    pad_b: 0
  }
}
layer {
  name: "InceptionResnetV1__Repeat_1__block17_1__Branch_1__Conv2d_0a_1x1__BatchNorm__batchnorm__add_1"
  type: "BatchNorm"
  bottom: "InceptionResnetV1__Repeat_1__block17_1__Branch_1__Conv2d_0a_1x1__convolution"
  top: "InceptionResnetV1__Repeat_1__block17_1__Branch_1__Conv2d_0a_1x1__BatchNorm__batchnorm__add_1"
  batch_norm_param {
    use_global_stats: true
    eps: 0.0010000000475
  }
}
layer {
  name: "InceptionResnetV1__Repeat_1__block17_1__Branch_1__Conv2d_0a_1x1__BatchNorm__batchnorm__add_1__scale"
  type: "Scale"
  bottom: "InceptionResnetV1__Repeat_1__block17_1__Branch_1__Conv2d_0a_1x1__BatchNorm__batchnorm__add_1"
  top: "InceptionResnetV1__Repeat_1__block17_1__Branch_1__Conv2d_0a_1x1__BatchNorm__batchnorm__add_1__scale"
  scale_param {
    bias_term: true
  }
}
layer {
  name: "InceptionResnetV1__Repeat_1__block17_1__Branch_0__Conv2d_1x1__BatchNorm__batchnorm__add_1"
  type: "BatchNorm"
  bottom: "InceptionResnetV1__Repeat_1__block17_1__Branch_0__Conv2d_1x1__convolution"
  top: "InceptionResnetV1__Repeat_1__block17_1__Branch_0__Conv2d_1x1__BatchNorm__batchnorm__add_1"
  batch_norm_param {
    use_global_stats: true
    eps: 0.0010000000475
  }
}
layer {
  name: "InceptionResnetV1__Repeat_1__block17_1__Branch_0__Conv2d_1x1__BatchNorm__batchnorm__add_1__scale"
  type: "Scale"
  bottom: "InceptionResnetV1__Repeat_1__block17_1__Branch_0__Conv2d_1x1__BatchNorm__batchnorm__add_1"
  top: "InceptionResnetV1__Repeat_1__block17_1__Branch_0__Conv2d_1x1__BatchNorm__batchnorm__add_1__scale"
  scale_param {
    bias_term: true
  }
}
layer {
  name: "InceptionResnetV1__Repeat_1__block17_1__Branch_1__Conv2d_0a_1x1__Relu"
  type: "ReLU"
  bottom: "InceptionResnetV1__Repeat_1__block17_1__Branch_1__Conv2d_0a_1x1__BatchNorm__batchnorm__add_1__scale"
  top: "InceptionResnetV1__Repeat_1__block17_1__Branch_1__Conv2d_0a_1x1__Relu"
}
layer {
  name: "InceptionResnetV1__Repeat_1__block17_1__Branch_0__Conv2d_1x1__Relu"
  type: "ReLU"
  bottom: "InceptionResnetV1__Repeat_1__block17_1__Branch_0__Conv2d_1x1__BatchNorm__batchnorm__add_1__scale"
  top: "InceptionResnetV1__Repeat_1__block17_1__Branch_0__Conv2d_1x1__Relu"
}
layer {
  name: "InceptionResnetV1__Repeat_1__block17_1__Branch_1__Conv2d_0b_1x7__convolution"
  type: "Convolution"
  bottom: "InceptionResnetV1__Repeat_1__block17_1__Branch_1__Conv2d_0a_1x1__Relu"
  top: "InceptionResnetV1__Repeat_1__block17_1__Branch_1__Conv2d_0b_1x7__convolution"
  convolution_param {
    num_output: 128
    bias_term: false
    kernel_h: 1
    kernel_w: 7
    stride_h: 1
    stride_w: 1
    pad_l: 3
    pad_r: 3
    pad_t: 0
    pad_b: 0
  }
}
layer {
  name: "InceptionResnetV1__Repeat_1__block17_1__Branch_1__Conv2d_0b_1x7__BatchNorm__batchnorm__add_1"
  type: "BatchNorm"
  bottom: "InceptionResnetV1__Repeat_1__block17_1__Branch_1__Conv2d_0b_1x7__convolution"
  top: "InceptionResnetV1__Repeat_1__block17_1__Branch_1__Conv2d_0b_1x7__BatchNorm__batchnorm__add_1"
  batch_norm_param {
    use_global_stats: true
    eps: 0.0010000000475
  }
}
layer {
  name: "InceptionResnetV1__Repeat_1__block17_1__Branch_1__Conv2d_0b_1x7__BatchNorm__batchnorm__add_1__scale"
  type: "Scale"
  bottom: "InceptionResnetV1__Repeat_1__block17_1__Branch_1__Conv2d_0b_1x7__BatchNorm__batchnorm__add_1"
  top: "InceptionResnetV1__Repeat_1__block17_1__Branch_1__Conv2d_0b_1x7__BatchNorm__batchnorm__add_1__scale"
  scale_param {
    bias_term: true
  }
}
layer {
  name: "InceptionResnetV1__Repeat_1__block17_1__Branch_1__Conv2d_0b_1x7__Relu"
  type: "ReLU"
  bottom: "InceptionResnetV1__Repeat_1__block17_1__Branch_1__Conv2d_0b_1x7__BatchNorm__batchnorm__add_1__scale"
  top: "InceptionResnetV1__Repeat_1__block17_1__Branch_1__Conv2d_0b_1x7__Relu"
}
layer {
  name: "InceptionResnetV1__Repeat_1__block17_1__Branch_1__Conv2d_0c_7x1__convolution"
  type: "Convolution"
  bottom: "InceptionResnetV1__Repeat_1__block17_1__Branch_1__Conv2d_0b_1x7__Relu"
  top: "InceptionResnetV1__Repeat_1__block17_1__Branch_1__Conv2d_0c_7x1__convolution"
  convolution_param {
    num_output: 128
    bias_term: false
    kernel_h: 7
    kernel_w: 1
    stride_h: 1
    stride_w: 1
    pad_l: 0
    pad_r: 0
    pad_t: 3
    pad_b: 3
  }
}
layer {
  name: "InceptionResnetV1__Repeat_1__block17_1__Branch_1__Conv2d_0c_7x1__BatchNorm__batchnorm__add_1"
  type: "BatchNorm"
  bottom: "InceptionResnetV1__Repeat_1__block17_1__Branch_1__Conv2d_0c_7x1__convolution"
  top: "InceptionResnetV1__Repeat_1__block17_1__Branch_1__Conv2d_0c_7x1__BatchNorm__batchnorm__add_1"
  batch_norm_param {
    use_global_stats: true
    eps: 0.0010000000475
  }
}
layer {
  name: "InceptionResnetV1__Repeat_1__block17_1__Branch_1__Conv2d_0c_7x1__BatchNorm__batchnorm__add_1__scale"
  type: "Scale"
  bottom: "InceptionResnetV1__Repeat_1__block17_1__Branch_1__Conv2d_0c_7x1__BatchNorm__batchnorm__add_1"
  top: "InceptionResnetV1__Repeat_1__block17_1__Branch_1__Conv2d_0c_7x1__BatchNorm__batchnorm__add_1__scale"
  scale_param {
    bias_term: true
  }
}
layer {
  name: "InceptionResnetV1__Repeat_1__block17_1__Branch_1__Conv2d_0c_7x1__Relu"
  type: "ReLU"
  bottom: "InceptionResnetV1__Repeat_1__block17_1__Branch_1__Conv2d_0c_7x1__BatchNorm__batchnorm__add_1__scale"
  top: "InceptionResnetV1__Repeat_1__block17_1__Branch_1__Conv2d_0c_7x1__Relu"
}
layer {
  name: "InceptionResnetV1__Repeat_1__block17_1__concat"
  type: "Concat"
  bottom: "InceptionResnetV1__Repeat_1__block17_1__Branch_0__Conv2d_1x1__Relu"
  bottom: "InceptionResnetV1__Repeat_1__block17_1__Branch_1__Conv2d_0c_7x1__Relu"
  top: "InceptionResnetV1__Repeat_1__block17_1__concat"
  concat_param {
    axis: 1
  }
}
layer {
  name: "InceptionResnetV1__Repeat_1__block17_1__Conv2d_1x1__convolution"
  type: "Convolution"
  bottom: "InceptionResnetV1__Repeat_1__block17_1__concat"
  top: "InceptionResnetV1__Repeat_1__block17_1__Conv2d_1x1__convolution"
  convolution_param {
    num_output: 896
    bias_term: false
    kernel_h: 1
    kernel_w: 1
    stride_h: 1
    stride_w: 1
    pad_l: 0
    pad_r: 0
    pad_t: 0
    pad_b: 0
  }
}
layer {
  name: "InceptionResnetV1__Repeat_1__block17_1__Conv2d_1x1__BiasAdd"
  type: "Bias"
  bottom: "InceptionResnetV1__Repeat_1__block17_1__Conv2d_1x1__convolution"
  top: "InceptionResnetV1__Repeat_1__block17_1__Conv2d_1x1__BiasAdd"
}
layer {
  name: "InceptionResnetV1__Repeat_1__block17_1__mul"
  type: "Power"
  bottom: "InceptionResnetV1__Repeat_1__block17_1__Conv2d_1x1__BiasAdd"
  top: "InceptionResnetV1__Repeat_1__block17_1__mul"
  power_param {
    scale: 0.10000000149
  }
}
layer {
  name: "InceptionResnetV1__Repeat_1__block17_1__add"
  type: "Eltwise"
  bottom: "InceptionResnetV1__Mixed_6a__concat"
  bottom: "InceptionResnetV1__Repeat_1__block17_1__mul"
  top: "InceptionResnetV1__Repeat_1__block17_1__add"
  eltwise_param {
    operation: SUM
  }
}
layer {
  name: "InceptionResnetV1__Repeat_1__block17_1__Relu"
  type: "ReLU"
  bottom: "InceptionResnetV1__Repeat_1__block17_1__add"
  top: "InceptionResnetV1__Repeat_1__block17_1__Relu"
}
layer {
  name: "InceptionResnetV1__Repeat_1__block17_2__Branch_1__Conv2d_0a_1x1__convolution"
  type: "Convolution"
  bottom: "InceptionResnetV1__Repeat_1__block17_1__Relu"
  top: "InceptionResnetV1__Repeat_1__block17_2__Branch_1__Conv2d_0a_1x1__convolution"
  convolution_param {
    num_output: 128
    bias_term: false
    kernel_h: 1
    kernel_w: 1
    stride_h: 1
    stride_w: 1
    pad_l: 0
    pad_r: 0
    pad_t: 0
    pad_b: 0
  }
}
layer {
  name: "InceptionResnetV1__Repeat_1__block17_2__Branch_0__Conv2d_1x1__convolution"
  type: "Convolution"
  bottom: "InceptionResnetV1__Repeat_1__block17_1__Relu"
  top: "InceptionResnetV1__Repeat_1__block17_2__Branch_0__Conv2d_1x1__convolution"
  convolution_param {
    num_output: 128
    bias_term: false
    kernel_h: 1
    kernel_w: 1
    stride_h: 1
    stride_w: 1
    pad_l: 0
    pad_r: 0
    pad_t: 0
    pad_b: 0
  }
}
layer {
  name: "InceptionResnetV1__Repeat_1__block17_2__Branch_1__Conv2d_0a_1x1__BatchNorm__batchnorm__add_1"
  type: "BatchNorm"
  bottom: "InceptionResnetV1__Repeat_1__block17_2__Branch_1__Conv2d_0a_1x1__convolution"
  top: "InceptionResnetV1__Repeat_1__block17_2__Branch_1__Conv2d_0a_1x1__BatchNorm__batchnorm__add_1"
  batch_norm_param {
    use_global_stats: true
    eps: 0.0010000000475
  }
}
layer {
  name: "InceptionResnetV1__Repeat_1__block17_2__Branch_1__Conv2d_0a_1x1__BatchNorm__batchnorm__add_1__scale"
  type: "Scale"
  bottom: "InceptionResnetV1__Repeat_1__block17_2__Branch_1__Conv2d_0a_1x1__BatchNorm__batchnorm__add_1"
  top: "InceptionResnetV1__Repeat_1__block17_2__Branch_1__Conv2d_0a_1x1__BatchNorm__batchnorm__add_1__scale"
  scale_param {
    bias_term: true
  }
}
layer {
  name: "InceptionResnetV1__Repeat_1__block17_2__Branch_0__Conv2d_1x1__BatchNorm__batchnorm__add_1"
  type: "BatchNorm"
  bottom: "InceptionResnetV1__Repeat_1__block17_2__Branch_0__Conv2d_1x1__convolution"
  top: "InceptionResnetV1__Repeat_1__block17_2__Branch_0__Conv2d_1x1__BatchNorm__batchnorm__add_1"
  batch_norm_param {
    use_global_stats: true
    eps: 0.0010000000475
  }
}
layer {
  name: "InceptionResnetV1__Repeat_1__block17_2__Branch_0__Conv2d_1x1__BatchNorm__batchnorm__add_1__scale"
  type: "Scale"
  bottom: "InceptionResnetV1__Repeat_1__block17_2__Branch_0__Conv2d_1x1__BatchNorm__batchnorm__add_1"
  top: "InceptionResnetV1__Repeat_1__block17_2__Branch_0__Conv2d_1x1__BatchNorm__batchnorm__add_1__scale"
  scale_param {
    bias_term: true
  }
}
layer {
  name: "InceptionResnetV1__Repeat_1__block17_2__Branch_1__Conv2d_0a_1x1__Relu"
  type: "ReLU"
  bottom: "InceptionResnetV1__Repeat_1__block17_2__Branch_1__Conv2d_0a_1x1__BatchNorm__batchnorm__add_1__scale"
  top: "InceptionResnetV1__Repeat_1__block17_2__Branch_1__Conv2d_0a_1x1__Relu"
}
layer {
  name: "InceptionResnetV1__Repeat_1__block17_2__Branch_0__Conv2d_1x1__Relu"
  type: "ReLU"
  bottom: "InceptionResnetV1__Repeat_1__block17_2__Branch_0__Conv2d_1x1__BatchNorm__batchnorm__add_1__scale"
  top: "InceptionResnetV1__Repeat_1__block17_2__Branch_0__Conv2d_1x1__Relu"
}
layer {
  name: "InceptionResnetV1__Repeat_1__block17_2__Branch_1__Conv2d_0b_1x7__convolution"
  type: "Convolution"
  bottom: "InceptionResnetV1__Repeat_1__block17_2__Branch_1__Conv2d_0a_1x1__Relu"
  top: "InceptionResnetV1__Repeat_1__block17_2__Branch_1__Conv2d_0b_1x7__convolution"
  convolution_param {
    num_output: 128
    bias_term: false
    kernel_h: 1
    kernel_w: 7
    stride_h: 1
    stride_w: 1
    pad_l: 3
    pad_r: 3
    pad_t: 0
    pad_b: 0
  }
}
layer {
  name: "InceptionResnetV1__Repeat_1__block17_2__Branch_1__Conv2d_0b_1x7__BatchNorm__batchnorm__add_1"
  type: "BatchNorm"
  bottom: "InceptionResnetV1__Repeat_1__block17_2__Branch_1__Conv2d_0b_1x7__convolution"
  top: "InceptionResnetV1__Repeat_1__block17_2__Branch_1__Conv2d_0b_1x7__BatchNorm__batchnorm__add_1"
  batch_norm_param {
    use_global_stats: true
    eps: 0.0010000000475
  }
}
layer {
  name: "InceptionResnetV1__Repeat_1__block17_2__Branch_1__Conv2d_0b_1x7__BatchNorm__batchnorm__add_1__scale"
  type: "Scale"
  bottom: "InceptionResnetV1__Repeat_1__block17_2__Branch_1__Conv2d_0b_1x7__BatchNorm__batchnorm__add_1"
  top: "InceptionResnetV1__Repeat_1__block17_2__Branch_1__Conv2d_0b_1x7__BatchNorm__batchnorm__add_1__scale"
  scale_param {
    bias_term: true
  }
}
layer {
  name: "InceptionResnetV1__Repeat_1__block17_2__Branch_1__Conv2d_0b_1x7__Relu"
  type: "ReLU"
  bottom: "InceptionResnetV1__Repeat_1__block17_2__Branch_1__Conv2d_0b_1x7__BatchNorm__batchnorm__add_1__scale"
  top: "InceptionResnetV1__Repeat_1__block17_2__Branch_1__Conv2d_0b_1x7__Relu"
}
layer {
  name: "InceptionResnetV1__Repeat_1__block17_2__Branch_1__Conv2d_0c_7x1__convolution"
  type: "Convolution"
  bottom: "InceptionResnetV1__Repeat_1__block17_2__Branch_1__Conv2d_0b_1x7__Relu"
  top: "InceptionResnetV1__Repeat_1__block17_2__Branch_1__Conv2d_0c_7x1__convolution"
  convolution_param {
    num_output: 128
    bias_term: false
    kernel_h: 7
    kernel_w: 1
    stride_h: 1
    stride_w: 1
    pad_l: 0
    pad_r: 0
    pad_t: 3
    pad_b: 3
  }
}
layer {
  name: "InceptionResnetV1__Repeat_1__block17_2__Branch_1__Conv2d_0c_7x1__BatchNorm__batchnorm__add_1"
  type: "BatchNorm"
  bottom: "InceptionResnetV1__Repeat_1__block17_2__Branch_1__Conv2d_0c_7x1__convolution"
  top: "InceptionResnetV1__Repeat_1__block17_2__Branch_1__Conv2d_0c_7x1__BatchNorm__batchnorm__add_1"
  batch_norm_param {
    use_global_stats: true
    eps: 0.0010000000475
  }
}
layer {
  name: "InceptionResnetV1__Repeat_1__block17_2__Branch_1__Conv2d_0c_7x1__BatchNorm__batchnorm__add_1__scale"
  type: "Scale"
  bottom: "InceptionResnetV1__Repeat_1__block17_2__Branch_1__Conv2d_0c_7x1__BatchNorm__batchnorm__add_1"
  top: "InceptionResnetV1__Repeat_1__block17_2__Branch_1__Conv2d_0c_7x1__BatchNorm__batchnorm__add_1__scale"
  scale_param {
    bias_term: true
  }
}
layer {
  name: "InceptionResnetV1__Repeat_1__block17_2__Branch_1__Conv2d_0c_7x1__Relu"
  type: "ReLU"
  bottom: "InceptionResnetV1__Repeat_1__block17_2__Branch_1__Conv2d_0c_7x1__BatchNorm__batchnorm__add_1__scale"
  top: "InceptionResnetV1__Repeat_1__block17_2__Branch_1__Conv2d_0c_7x1__Relu"
}
layer {
  name: "InceptionResnetV1__Repeat_1__block17_2__concat"
  type: "Concat"
  bottom: "InceptionResnetV1__Repeat_1__block17_2__Branch_0__Conv2d_1x1__Relu"
  bottom: "InceptionResnetV1__Repeat_1__block17_2__Branch_1__Conv2d_0c_7x1__Relu"
  top: "InceptionResnetV1__Repeat_1__block17_2__concat"
  concat_param {
    axis: 1
  }
}
layer {
  name: "InceptionResnetV1__Repeat_1__block17_2__Conv2d_1x1__convolution"
  type: "Convolution"
  bottom: "InceptionResnetV1__Repeat_1__block17_2__concat"
  top: "InceptionResnetV1__Repeat_1__block17_2__Conv2d_1x1__convolution"
  convolution_param {
    num_output: 896
    bias_term: false
    kernel_h: 1
    kernel_w: 1
    stride_h: 1
    stride_w: 1
    pad_l: 0
    pad_r: 0
    pad_t: 0
    pad_b: 0
  }
}
layer {
  name: "InceptionResnetV1__Repeat_1__block17_2__Conv2d_1x1__BiasAdd"
  type: "Bias"
  bottom: "InceptionResnetV1__Repeat_1__block17_2__Conv2d_1x1__convolution"
  top: "InceptionResnetV1__Repeat_1__block17_2__Conv2d_1x1__BiasAdd"
}
layer {
  name: "InceptionResnetV1__Repeat_1__block17_2__mul"
  type: "Power"
  bottom: "InceptionResnetV1__Repeat_1__block17_2__Conv2d_1x1__BiasAdd"
  top: "InceptionResnetV1__Repeat_1__block17_2__mul"
  power_param {
    scale: 0.10000000149
  }
}
layer {
  name: "InceptionResnetV1__Repeat_1__block17_2__add"
  type: "Eltwise"
  bottom: "InceptionResnetV1__Repeat_1__block17_1__Relu"
  bottom: "InceptionResnetV1__Repeat_1__block17_2__mul"
  top: "InceptionResnetV1__Repeat_1__block17_2__add"
  eltwise_param {
    operation: SUM
  }
}
layer {
  name: "InceptionResnetV1__Repeat_1__block17_2__Relu"
  type: "ReLU"
  bottom: "InceptionResnetV1__Repeat_1__block17_2__add"
  top: "InceptionResnetV1__Repeat_1__block17_2__Relu"
}
layer {
  name: "InceptionResnetV1__Repeat_1__block17_3__Branch_1__Conv2d_0a_1x1__convolution"
  type: "Convolution"
  bottom: "InceptionResnetV1__Repeat_1__block17_2__Relu"
  top: "InceptionResnetV1__Repeat_1__block17_3__Branch_1__Conv2d_0a_1x1__convolution"
  convolution_param {
    num_output: 128
    bias_term: false
    kernel_h: 1
    kernel_w: 1
    stride_h: 1
    stride_w: 1
    pad_l: 0
    pad_r: 0
    pad_t: 0
    pad_b: 0
  }
}
layer {
  name: "InceptionResnetV1__Repeat_1__block17_3__Branch_0__Conv2d_1x1__convolution"
  type: "Convolution"
  bottom: "InceptionResnetV1__Repeat_1__block17_2__Relu"
  top: "InceptionResnetV1__Repeat_1__block17_3__Branch_0__Conv2d_1x1__convolution"
  convolution_param {
    num_output: 128
    bias_term: false
    kernel_h: 1
    kernel_w: 1
    stride_h: 1
    stride_w: 1
    pad_l: 0
    pad_r: 0
    pad_t: 0
    pad_b: 0
  }
}
layer {
  name: "InceptionResnetV1__Repeat_1__block17_3__Branch_1__Conv2d_0a_1x1__BatchNorm__batchnorm__add_1"
  type: "BatchNorm"
  bottom: "InceptionResnetV1__Repeat_1__block17_3__Branch_1__Conv2d_0a_1x1__convolution"
  top: "InceptionResnetV1__Repeat_1__block17_3__Branch_1__Conv2d_0a_1x1__BatchNorm__batchnorm__add_1"
  batch_norm_param {
    use_global_stats: true
    eps: 0.0010000000475
  }
}
layer {
  name: "InceptionResnetV1__Repeat_1__block17_3__Branch_1__Conv2d_0a_1x1__BatchNorm__batchnorm__add_1__scale"
  type: "Scale"
  bottom: "InceptionResnetV1__Repeat_1__block17_3__Branch_1__Conv2d_0a_1x1__BatchNorm__batchnorm__add_1"
  top: "InceptionResnetV1__Repeat_1__block17_3__Branch_1__Conv2d_0a_1x1__BatchNorm__batchnorm__add_1__scale"
  scale_param {
    bias_term: true
  }
}
layer {
  name: "InceptionResnetV1__Repeat_1__block17_3__Branch_0__Conv2d_1x1__BatchNorm__batchnorm__add_1"
  type: "BatchNorm"
  bottom: "InceptionResnetV1__Repeat_1__block17_3__Branch_0__Conv2d_1x1__convolution"
  top: "InceptionResnetV1__Repeat_1__block17_3__Branch_0__Conv2d_1x1__BatchNorm__batchnorm__add_1"
  batch_norm_param {
    use_global_stats: true
    eps: 0.0010000000475
  }
}
layer {
  name: "InceptionResnetV1__Repeat_1__block17_3__Branch_0__Conv2d_1x1__BatchNorm__batchnorm__add_1__scale"
  type: "Scale"
  bottom: "InceptionResnetV1__Repeat_1__block17_3__Branch_0__Conv2d_1x1__BatchNorm__batchnorm__add_1"
  top: "InceptionResnetV1__Repeat_1__block17_3__Branch_0__Conv2d_1x1__BatchNorm__batchnorm__add_1__scale"
  scale_param {
    bias_term: true
  }
}
layer {
  name: "InceptionResnetV1__Repeat_1__block17_3__Branch_1__Conv2d_0a_1x1__Relu"
  type: "ReLU"
  bottom: "InceptionResnetV1__Repeat_1__block17_3__Branch_1__Conv2d_0a_1x1__BatchNorm__batchnorm__add_1__scale"
  top: "InceptionResnetV1__Repeat_1__block17_3__Branch_1__Conv2d_0a_1x1__Relu"
}
layer {
  name: "InceptionResnetV1__Repeat_1__block17_3__Branch_0__Conv2d_1x1__Relu"
  type: "ReLU"
  bottom: "InceptionResnetV1__Repeat_1__block17_3__Branch_0__Conv2d_1x1__BatchNorm__batchnorm__add_1__scale"
  top: "InceptionResnetV1__Repeat_1__block17_3__Branch_0__Conv2d_1x1__Relu"
}
layer {
  name: "InceptionResnetV1__Repeat_1__block17_3__Branch_1__Conv2d_0b_1x7__convolution"
  type: "Convolution"
  bottom: "InceptionResnetV1__Repeat_1__block17_3__Branch_1__Conv2d_0a_1x1__Relu"
  top: "InceptionResnetV1__Repeat_1__block17_3__Branch_1__Conv2d_0b_1x7__convolution"
  convolution_param {
    num_output: 128
    bias_term: false
    kernel_h: 1
    kernel_w: 7
    stride_h: 1
    stride_w: 1
    pad_l: 3
    pad_r: 3
    pad_t: 0
    pad_b: 0
  }
}
layer {
  name: "InceptionResnetV1__Repeat_1__block17_3__Branch_1__Conv2d_0b_1x7__BatchNorm__batchnorm__add_1"
  type: "BatchNorm"
  bottom: "InceptionResnetV1__Repeat_1__block17_3__Branch_1__Conv2d_0b_1x7__convolution"
  top: "InceptionResnetV1__Repeat_1__block17_3__Branch_1__Conv2d_0b_1x7__BatchNorm__batchnorm__add_1"
  batch_norm_param {
    use_global_stats: true
    eps: 0.0010000000475
  }
}
layer {
  name: "InceptionResnetV1__Repeat_1__block17_3__Branch_1__Conv2d_0b_1x7__BatchNorm__batchnorm__add_1__scale"
  type: "Scale"
  bottom: "InceptionResnetV1__Repeat_1__block17_3__Branch_1__Conv2d_0b_1x7__BatchNorm__batchnorm__add_1"
  top: "InceptionResnetV1__Repeat_1__block17_3__Branch_1__Conv2d_0b_1x7__BatchNorm__batchnorm__add_1__scale"
  scale_param {
    bias_term: true
  }
}
layer {
  name: "InceptionResnetV1__Repeat_1__block17_3__Branch_1__Conv2d_0b_1x7__Relu"
  type: "ReLU"
  bottom: "InceptionResnetV1__Repeat_1__block17_3__Branch_1__Conv2d_0b_1x7__BatchNorm__batchnorm__add_1__scale"
  top: "InceptionResnetV1__Repeat_1__block17_3__Branch_1__Conv2d_0b_1x7__Relu"
}
layer {
  name: "InceptionResnetV1__Repeat_1__block17_3__Branch_1__Conv2d_0c_7x1__convolution"
  type: "Convolution"
  bottom: "InceptionResnetV1__Repeat_1__block17_3__Branch_1__Conv2d_0b_1x7__Relu"
  top: "InceptionResnetV1__Repeat_1__block17_3__Branch_1__Conv2d_0c_7x1__convolution"
  convolution_param {
    num_output: 128
    bias_term: false
    kernel_h: 7
    kernel_w: 1
    stride_h: 1
    stride_w: 1
    pad_l: 0
    pad_r: 0
    pad_t: 3
    pad_b: 3
  }
}
layer {
  name: "InceptionResnetV1__Repeat_1__block17_3__Branch_1__Conv2d_0c_7x1__BatchNorm__batchnorm__add_1"
  type: "BatchNorm"
  bottom: "InceptionResnetV1__Repeat_1__block17_3__Branch_1__Conv2d_0c_7x1__convolution"
  top: "InceptionResnetV1__Repeat_1__block17_3__Branch_1__Conv2d_0c_7x1__BatchNorm__batchnorm__add_1"
  batch_norm_param {
    use_global_stats: true
    eps: 0.0010000000475
  }
}
layer {
  name: "InceptionResnetV1__Repeat_1__block17_3__Branch_1__Conv2d_0c_7x1__BatchNorm__batchnorm__add_1__scale"
  type: "Scale"
  bottom: "InceptionResnetV1__Repeat_1__block17_3__Branch_1__Conv2d_0c_7x1__BatchNorm__batchnorm__add_1"
  top: "InceptionResnetV1__Repeat_1__block17_3__Branch_1__Conv2d_0c_7x1__BatchNorm__batchnorm__add_1__scale"
  scale_param {
    bias_term: true
  }
}
layer {
  name: "InceptionResnetV1__Repeat_1__block17_3__Branch_1__Conv2d_0c_7x1__Relu"
  type: "ReLU"
  bottom: "InceptionResnetV1__Repeat_1__block17_3__Branch_1__Conv2d_0c_7x1__BatchNorm__batchnorm__add_1__scale"
  top: "InceptionResnetV1__Repeat_1__block17_3__Branch_1__Conv2d_0c_7x1__Relu"
}
layer {
  name: "InceptionResnetV1__Repeat_1__block17_3__concat"
  type: "Concat"
  bottom: "InceptionResnetV1__Repeat_1__block17_3__Branch_0__Conv2d_1x1__Relu"
  bottom: "InceptionResnetV1__Repeat_1__block17_3__Branch_1__Conv2d_0c_7x1__Relu"
  top: "InceptionResnetV1__Repeat_1__block17_3__concat"
  concat_param {
    axis: 1
  }
}
layer {
  name: "InceptionResnetV1__Repeat_1__block17_3__Conv2d_1x1__convolution"
  type: "Convolution"
  bottom: "InceptionResnetV1__Repeat_1__block17_3__concat"
  top: "InceptionResnetV1__Repeat_1__block17_3__Conv2d_1x1__convolution"
  convolution_param {
    num_output: 896
    bias_term: false
    kernel_h: 1
    kernel_w: 1
    stride_h: 1
    stride_w: 1
    pad_l: 0
    pad_r: 0
    pad_t: 0
    pad_b: 0
  }
}
layer {
  name: "InceptionResnetV1__Repeat_1__block17_3__Conv2d_1x1__BiasAdd"
  type: "Bias"
  bottom: "InceptionResnetV1__Repeat_1__block17_3__Conv2d_1x1__convolution"
  top: "InceptionResnetV1__Repeat_1__block17_3__Conv2d_1x1__BiasAdd"
}
layer {
  name: "InceptionResnetV1__Repeat_1__block17_3__mul"
  type: "Power"
  bottom: "InceptionResnetV1__Repeat_1__block17_3__Conv2d_1x1__BiasAdd"
  top: "InceptionResnetV1__Repeat_1__block17_3__mul"
  power_param {
    scale: 0.10000000149
  }
}
layer {
  name: "InceptionResnetV1__Repeat_1__block17_3__add"
  type: "Eltwise"
  bottom: "InceptionResnetV1__Repeat_1__block17_2__Relu"
  bottom: "InceptionResnetV1__Repeat_1__block17_3__mul"
  top: "InceptionResnetV1__Repeat_1__block17_3__add"
  eltwise_param {
    operation: SUM
  }
}
layer {
  name: "InceptionResnetV1__Repeat_1__block17_3__Relu"
  type: "ReLU"
  bottom: "InceptionResnetV1__Repeat_1__block17_3__add"
  top: "InceptionResnetV1__Repeat_1__block17_3__Relu"
}
layer {
  name: "InceptionResnetV1__Repeat_1__block17_4__Branch_1__Conv2d_0a_1x1__convolution"
  type: "Convolution"
  bottom: "InceptionResnetV1__Repeat_1__block17_3__Relu"
  top: "InceptionResnetV1__Repeat_1__block17_4__Branch_1__Conv2d_0a_1x1__convolution"
  convolution_param {
    num_output: 128
    bias_term: false
    kernel_h: 1
    kernel_w: 1
    stride_h: 1
    stride_w: 1
    pad_l: 0
    pad_r: 0
    pad_t: 0
    pad_b: 0
  }
}
layer {
  name: "InceptionResnetV1__Repeat_1__block17_4__Branch_0__Conv2d_1x1__convolution"
  type: "Convolution"
  bottom: "InceptionResnetV1__Repeat_1__block17_3__Relu"
  top: "InceptionResnetV1__Repeat_1__block17_4__Branch_0__Conv2d_1x1__convolution"
  convolution_param {
    num_output: 128
    bias_term: false
    kernel_h: 1
    kernel_w: 1
    stride_h: 1
    stride_w: 1
    pad_l: 0
    pad_r: 0
    pad_t: 0
    pad_b: 0
  }
}
layer {
  name: "InceptionResnetV1__Repeat_1__block17_4__Branch_1__Conv2d_0a_1x1__BatchNorm__batchnorm__add_1"
  type: "BatchNorm"
  bottom: "InceptionResnetV1__Repeat_1__block17_4__Branch_1__Conv2d_0a_1x1__convolution"
  top: "InceptionResnetV1__Repeat_1__block17_4__Branch_1__Conv2d_0a_1x1__BatchNorm__batchnorm__add_1"
  batch_norm_param {
    use_global_stats: true
    eps: 0.0010000000475
  }
}
layer {
  name: "InceptionResnetV1__Repeat_1__block17_4__Branch_1__Conv2d_0a_1x1__BatchNorm__batchnorm__add_1__scale"
  type: "Scale"
  bottom: "InceptionResnetV1__Repeat_1__block17_4__Branch_1__Conv2d_0a_1x1__BatchNorm__batchnorm__add_1"
  top: "InceptionResnetV1__Repeat_1__block17_4__Branch_1__Conv2d_0a_1x1__BatchNorm__batchnorm__add_1__scale"
  scale_param {
    bias_term: true
  }
}
layer {
  name: "InceptionResnetV1__Repeat_1__block17_4__Branch_0__Conv2d_1x1__BatchNorm__batchnorm__add_1"
  type: "BatchNorm"
  bottom: "InceptionResnetV1__Repeat_1__block17_4__Branch_0__Conv2d_1x1__convolution"
  top: "InceptionResnetV1__Repeat_1__block17_4__Branch_0__Conv2d_1x1__BatchNorm__batchnorm__add_1"
  batch_norm_param {
    use_global_stats: true
    eps: 0.0010000000475
  }
}
layer {
  name: "InceptionResnetV1__Repeat_1__block17_4__Branch_0__Conv2d_1x1__BatchNorm__batchnorm__add_1__scale"
  type: "Scale"
  bottom: "InceptionResnetV1__Repeat_1__block17_4__Branch_0__Conv2d_1x1__BatchNorm__batchnorm__add_1"
  top: "InceptionResnetV1__Repeat_1__block17_4__Branch_0__Conv2d_1x1__BatchNorm__batchnorm__add_1__scale"
  scale_param {
    bias_term: true
  }
}
layer {
  name: "InceptionResnetV1__Repeat_1__block17_4__Branch_1__Conv2d_0a_1x1__Relu"
  type: "ReLU"
  bottom: "InceptionResnetV1__Repeat_1__block17_4__Branch_1__Conv2d_0a_1x1__BatchNorm__batchnorm__add_1__scale"
  top: "InceptionResnetV1__Repeat_1__block17_4__Branch_1__Conv2d_0a_1x1__Relu"
}
layer {
  name: "InceptionResnetV1__Repeat_1__block17_4__Branch_0__Conv2d_1x1__Relu"
  type: "ReLU"
  bottom: "InceptionResnetV1__Repeat_1__block17_4__Branch_0__Conv2d_1x1__BatchNorm__batchnorm__add_1__scale"
  top: "InceptionResnetV1__Repeat_1__block17_4__Branch_0__Conv2d_1x1__Relu"
}
layer {
  name: "InceptionResnetV1__Repeat_1__block17_4__Branch_1__Conv2d_0b_1x7__convolution"
  type: "Convolution"
  bottom: "InceptionResnetV1__Repeat_1__block17_4__Branch_1__Conv2d_0a_1x1__Relu"
  top: "InceptionResnetV1__Repeat_1__block17_4__Branch_1__Conv2d_0b_1x7__convolution"
  convolution_param {
    num_output: 128
    bias_term: false
    kernel_h: 1
    kernel_w: 7
    stride_h: 1
    stride_w: 1
    pad_l: 3
    pad_r: 3
    pad_t: 0
    pad_b: 0
  }
}
layer {
  name: "InceptionResnetV1__Repeat_1__block17_4__Branch_1__Conv2d_0b_1x7__BatchNorm__batchnorm__add_1"
  type: "BatchNorm"
  bottom: "InceptionResnetV1__Repeat_1__block17_4__Branch_1__Conv2d_0b_1x7__convolution"
  top: "InceptionResnetV1__Repeat_1__block17_4__Branch_1__Conv2d_0b_1x7__BatchNorm__batchnorm__add_1"
  batch_norm_param {
    use_global_stats: true
    eps: 0.0010000000475
  }
}
layer {
  name: "InceptionResnetV1__Repeat_1__block17_4__Branch_1__Conv2d_0b_1x7__BatchNorm__batchnorm__add_1__scale"
  type: "Scale"
  bottom: "InceptionResnetV1__Repeat_1__block17_4__Branch_1__Conv2d_0b_1x7__BatchNorm__batchnorm__add_1"
  top: "InceptionResnetV1__Repeat_1__block17_4__Branch_1__Conv2d_0b_1x7__BatchNorm__batchnorm__add_1__scale"
  scale_param {
    bias_term: true
  }
}
layer {
  name: "InceptionResnetV1__Repeat_1__block17_4__Branch_1__Conv2d_0b_1x7__Relu"
  type: "ReLU"
  bottom: "InceptionResnetV1__Repeat_1__block17_4__Branch_1__Conv2d_0b_1x7__BatchNorm__batchnorm__add_1__scale"
  top: "InceptionResnetV1__Repeat_1__block17_4__Branch_1__Conv2d_0b_1x7__Relu"
}
layer {
  name: "InceptionResnetV1__Repeat_1__block17_4__Branch_1__Conv2d_0c_7x1__convolution"
  type: "Convolution"
  bottom: "InceptionResnetV1__Repeat_1__block17_4__Branch_1__Conv2d_0b_1x7__Relu"
  top: "InceptionResnetV1__Repeat_1__block17_4__Branch_1__Conv2d_0c_7x1__convolution"
  convolution_param {
    num_output: 128
    bias_term: false
    kernel_h: 7
    kernel_w: 1
    stride_h: 1
    stride_w: 1
    pad_l: 0
    pad_r: 0
    pad_t: 3
    pad_b: 3
  }
}
layer {
  name: "InceptionResnetV1__Repeat_1__block17_4__Branch_1__Conv2d_0c_7x1__BatchNorm__batchnorm__add_1"
  type: "BatchNorm"
  bottom: "InceptionResnetV1__Repeat_1__block17_4__Branch_1__Conv2d_0c_7x1__convolution"
  top: "InceptionResnetV1__Repeat_1__block17_4__Branch_1__Conv2d_0c_7x1__BatchNorm__batchnorm__add_1"
  batch_norm_param {
    use_global_stats: true
    eps: 0.0010000000475
  }
}
layer {
  name: "InceptionResnetV1__Repeat_1__block17_4__Branch_1__Conv2d_0c_7x1__BatchNorm__batchnorm__add_1__scale"
  type: "Scale"
  bottom: "InceptionResnetV1__Repeat_1__block17_4__Branch_1__Conv2d_0c_7x1__BatchNorm__batchnorm__add_1"
  top: "InceptionResnetV1__Repeat_1__block17_4__Branch_1__Conv2d_0c_7x1__BatchNorm__batchnorm__add_1__scale"
  scale_param {
    bias_term: true
  }
}
layer {
  name: "InceptionResnetV1__Repeat_1__block17_4__Branch_1__Conv2d_0c_7x1__Relu"
  type: "ReLU"
  bottom: "InceptionResnetV1__Repeat_1__block17_4__Branch_1__Conv2d_0c_7x1__BatchNorm__batchnorm__add_1__scale"
  top: "InceptionResnetV1__Repeat_1__block17_4__Branch_1__Conv2d_0c_7x1__Relu"
}
layer {
  name: "InceptionResnetV1__Repeat_1__block17_4__concat"
  type: "Concat"
  bottom: "InceptionResnetV1__Repeat_1__block17_4__Branch_0__Conv2d_1x1__Relu"
  bottom: "InceptionResnetV1__Repeat_1__block17_4__Branch_1__Conv2d_0c_7x1__Relu"
  top: "InceptionResnetV1__Repeat_1__block17_4__concat"
  concat_param {
    axis: 1
  }
}
layer {
  name: "InceptionResnetV1__Repeat_1__block17_4__Conv2d_1x1__convolution"
  type: "Convolution"
  bottom: "InceptionResnetV1__Repeat_1__block17_4__concat"
  top: "InceptionResnetV1__Repeat_1__block17_4__Conv2d_1x1__convolution"
  convolution_param {
    num_output: 896
    bias_term: false
    kernel_h: 1
    kernel_w: 1
    stride_h: 1
    stride_w: 1
    pad_l: 0
    pad_r: 0
    pad_t: 0
    pad_b: 0
  }
}
layer {
  name: "InceptionResnetV1__Repeat_1__block17_4__Conv2d_1x1__BiasAdd"
  type: "Bias"
  bottom: "InceptionResnetV1__Repeat_1__block17_4__Conv2d_1x1__convolution"
  top: "InceptionResnetV1__Repeat_1__block17_4__Conv2d_1x1__BiasAdd"
}
layer {
  name: "InceptionResnetV1__Repeat_1__block17_4__mul"
  type: "Power"
  bottom: "InceptionResnetV1__Repeat_1__block17_4__Conv2d_1x1__BiasAdd"
  top: "InceptionResnetV1__Repeat_1__block17_4__mul"
  power_param {
    scale: 0.10000000149
  }
}
layer {
  name: "InceptionResnetV1__Repeat_1__block17_4__add"
  type: "Eltwise"
  bottom: "InceptionResnetV1__Repeat_1__block17_3__Relu"
  bottom: "InceptionResnetV1__Repeat_1__block17_4__mul"
  top: "InceptionResnetV1__Repeat_1__block17_4__add"
  eltwise_param {
    operation: SUM
  }
}
layer {
  name: "InceptionResnetV1__Repeat_1__block17_4__Relu"
  type: "ReLU"
  bottom: "InceptionResnetV1__Repeat_1__block17_4__add"
  top: "InceptionResnetV1__Repeat_1__block17_4__Relu"
}
layer {
  name: "InceptionResnetV1__Repeat_1__block17_5__Branch_1__Conv2d_0a_1x1__convolution"
  type: "Convolution"
  bottom: "InceptionResnetV1__Repeat_1__block17_4__Relu"
  top: "InceptionResnetV1__Repeat_1__block17_5__Branch_1__Conv2d_0a_1x1__convolution"
  convolution_param {
    num_output: 128
    bias_term: false
    kernel_h: 1
    kernel_w: 1
    stride_h: 1
    stride_w: 1
    pad_l: 0
    pad_r: 0
    pad_t: 0
    pad_b: 0
  }
}
layer {
  name: "InceptionResnetV1__Repeat_1__block17_5__Branch_0__Conv2d_1x1__convolution"
  type: "Convolution"
  bottom: "InceptionResnetV1__Repeat_1__block17_4__Relu"
  top: "InceptionResnetV1__Repeat_1__block17_5__Branch_0__Conv2d_1x1__convolution"
  convolution_param {
    num_output: 128
    bias_term: false
    kernel_h: 1
    kernel_w: 1
    stride_h: 1
    stride_w: 1
    pad_l: 0
    pad_r: 0
    pad_t: 0
    pad_b: 0
  }
}
layer {
  name: "InceptionResnetV1__Repeat_1__block17_5__Branch_1__Conv2d_0a_1x1__BatchNorm__batchnorm__add_1"
  type: "BatchNorm"
  bottom: "InceptionResnetV1__Repeat_1__block17_5__Branch_1__Conv2d_0a_1x1__convolution"
  top: "InceptionResnetV1__Repeat_1__block17_5__Branch_1__Conv2d_0a_1x1__BatchNorm__batchnorm__add_1"
  batch_norm_param {
    use_global_stats: true
    eps: 0.0010000000475
  }
}
layer {
  name: "InceptionResnetV1__Repeat_1__block17_5__Branch_1__Conv2d_0a_1x1__BatchNorm__batchnorm__add_1__scale"
  type: "Scale"
  bottom: "InceptionResnetV1__Repeat_1__block17_5__Branch_1__Conv2d_0a_1x1__BatchNorm__batchnorm__add_1"
  top: "InceptionResnetV1__Repeat_1__block17_5__Branch_1__Conv2d_0a_1x1__BatchNorm__batchnorm__add_1__scale"
  scale_param {
    bias_term: true
  }
}
layer {
  name: "InceptionResnetV1__Repeat_1__block17_5__Branch_0__Conv2d_1x1__BatchNorm__batchnorm__add_1"
  type: "BatchNorm"
  bottom: "InceptionResnetV1__Repeat_1__block17_5__Branch_0__Conv2d_1x1__convolution"
  top: "InceptionResnetV1__Repeat_1__block17_5__Branch_0__Conv2d_1x1__BatchNorm__batchnorm__add_1"
  batch_norm_param {
    use_global_stats: true
    eps: 0.0010000000475
  }
}
layer {
  name: "InceptionResnetV1__Repeat_1__block17_5__Branch_0__Conv2d_1x1__BatchNorm__batchnorm__add_1__scale"
  type: "Scale"
  bottom: "InceptionResnetV1__Repeat_1__block17_5__Branch_0__Conv2d_1x1__BatchNorm__batchnorm__add_1"
  top: "InceptionResnetV1__Repeat_1__block17_5__Branch_0__Conv2d_1x1__BatchNorm__batchnorm__add_1__scale"
  scale_param {
    bias_term: true
  }
}
layer {
  name: "InceptionResnetV1__Repeat_1__block17_5__Branch_1__Conv2d_0a_1x1__Relu"
  type: "ReLU"
  bottom: "InceptionResnetV1__Repeat_1__block17_5__Branch_1__Conv2d_0a_1x1__BatchNorm__batchnorm__add_1__scale"
  top: "InceptionResnetV1__Repeat_1__block17_5__Branch_1__Conv2d_0a_1x1__Relu"
}
layer {
  name: "InceptionResnetV1__Repeat_1__block17_5__Branch_0__Conv2d_1x1__Relu"
  type: "ReLU"
  bottom: "InceptionResnetV1__Repeat_1__block17_5__Branch_0__Conv2d_1x1__BatchNorm__batchnorm__add_1__scale"
  top: "InceptionResnetV1__Repeat_1__block17_5__Branch_0__Conv2d_1x1__Relu"
}
layer {
  name: "InceptionResnetV1__Repeat_1__block17_5__Branch_1__Conv2d_0b_1x7__convolution"
  type: "Convolution"
  bottom: "InceptionResnetV1__Repeat_1__block17_5__Branch_1__Conv2d_0a_1x1__Relu"
  top: "InceptionResnetV1__Repeat_1__block17_5__Branch_1__Conv2d_0b_1x7__convolution"
  convolution_param {
    num_output: 128
    bias_term: false
    kernel_h: 1
    kernel_w: 7
    stride_h: 1
    stride_w: 1
    pad_l: 3
    pad_r: 3
    pad_t: 0
    pad_b: 0
  }
}
layer {
  name: "InceptionResnetV1__Repeat_1__block17_5__Branch_1__Conv2d_0b_1x7__BatchNorm__batchnorm__add_1"
  type: "BatchNorm"
  bottom: "InceptionResnetV1__Repeat_1__block17_5__Branch_1__Conv2d_0b_1x7__convolution"
  top: "InceptionResnetV1__Repeat_1__block17_5__Branch_1__Conv2d_0b_1x7__BatchNorm__batchnorm__add_1"
  batch_norm_param {
    use_global_stats: true
    eps: 0.0010000000475
  }
}
layer {
  name: "InceptionResnetV1__Repeat_1__block17_5__Branch_1__Conv2d_0b_1x7__BatchNorm__batchnorm__add_1__scale"
  type: "Scale"
  bottom: "InceptionResnetV1__Repeat_1__block17_5__Branch_1__Conv2d_0b_1x7__BatchNorm__batchnorm__add_1"
  top: "InceptionResnetV1__Repeat_1__block17_5__Branch_1__Conv2d_0b_1x7__BatchNorm__batchnorm__add_1__scale"
  scale_param {
    bias_term: true
  }
}
layer {
  name: "InceptionResnetV1__Repeat_1__block17_5__Branch_1__Conv2d_0b_1x7__Relu"
  type: "ReLU"
  bottom: "InceptionResnetV1__Repeat_1__block17_5__Branch_1__Conv2d_0b_1x7__BatchNorm__batchnorm__add_1__scale"
  top: "InceptionResnetV1__Repeat_1__block17_5__Branch_1__Conv2d_0b_1x7__Relu"
}
layer {
  name: "InceptionResnetV1__Repeat_1__block17_5__Branch_1__Conv2d_0c_7x1__convolution"
  type: "Convolution"
  bottom: "InceptionResnetV1__Repeat_1__block17_5__Branch_1__Conv2d_0b_1x7__Relu"
  top: "InceptionResnetV1__Repeat_1__block17_5__Branch_1__Conv2d_0c_7x1__convolution"
  convolution_param {
    num_output: 128
    bias_term: false
    kernel_h: 7
    kernel_w: 1
    stride_h: 1
    stride_w: 1
    pad_l: 0
    pad_r: 0
    pad_t: 3
    pad_b: 3
  }
}
layer {
  name: "InceptionResnetV1__Repeat_1__block17_5__Branch_1__Conv2d_0c_7x1__BatchNorm__batchnorm__add_1"
  type: "BatchNorm"
  bottom: "InceptionResnetV1__Repeat_1__block17_5__Branch_1__Conv2d_0c_7x1__convolution"
  top: "InceptionResnetV1__Repeat_1__block17_5__Branch_1__Conv2d_0c_7x1__BatchNorm__batchnorm__add_1"
  batch_norm_param {
    use_global_stats: true
    eps: 0.0010000000475
  }
}
layer {
  name: "InceptionResnetV1__Repeat_1__block17_5__Branch_1__Conv2d_0c_7x1__BatchNorm__batchnorm__add_1__scale"
  type: "Scale"
  bottom: "InceptionResnetV1__Repeat_1__block17_5__Branch_1__Conv2d_0c_7x1__BatchNorm__batchnorm__add_1"
  top: "InceptionResnetV1__Repeat_1__block17_5__Branch_1__Conv2d_0c_7x1__BatchNorm__batchnorm__add_1__scale"
  scale_param {
    bias_term: true
  }
}
layer {
  name: "InceptionResnetV1__Repeat_1__block17_5__Branch_1__Conv2d_0c_7x1__Relu"
  type: "ReLU"
  bottom: "InceptionResnetV1__Repeat_1__block17_5__Branch_1__Conv2d_0c_7x1__BatchNorm__batchnorm__add_1__scale"
  top: "InceptionResnetV1__Repeat_1__block17_5__Branch_1__Conv2d_0c_7x1__Relu"
}
layer {
  name: "InceptionResnetV1__Repeat_1__block17_5__concat"
  type: "Concat"
  bottom: "InceptionResnetV1__Repeat_1__block17_5__Branch_0__Conv2d_1x1__Relu"
  bottom: "InceptionResnetV1__Repeat_1__block17_5__Branch_1__Conv2d_0c_7x1__Relu"
  top: "InceptionResnetV1__Repeat_1__block17_5__concat"
  concat_param {
    axis: 1
  }
}
layer {
  name: "InceptionResnetV1__Repeat_1__block17_5__Conv2d_1x1__convolution"
  type: "Convolution"
  bottom: "InceptionResnetV1__Repeat_1__block17_5__concat"
  top: "InceptionResnetV1__Repeat_1__block17_5__Conv2d_1x1__convolution"
  convolution_param {
    num_output: 896
    bias_term: false
    kernel_h: 1
    kernel_w: 1
    stride_h: 1
    stride_w: 1
    pad_l: 0
    pad_r: 0
    pad_t: 0
    pad_b: 0
  }
}
layer {
  name: "InceptionResnetV1__Repeat_1__block17_5__Conv2d_1x1__BiasAdd"
  type: "Bias"
  bottom: "InceptionResnetV1__Repeat_1__block17_5__Conv2d_1x1__convolution"
  top: "InceptionResnetV1__Repeat_1__block17_5__Conv2d_1x1__BiasAdd"
}
layer {
  name: "InceptionResnetV1__Repeat_1__block17_5__mul"
  type: "Power"
  bottom: "InceptionResnetV1__Repeat_1__block17_5__Conv2d_1x1__BiasAdd"
  top: "InceptionResnetV1__Repeat_1__block17_5__mul"
  power_param {
    scale: 0.10000000149
  }
}
layer {
  name: "InceptionResnetV1__Repeat_1__block17_5__add"
  type: "Eltwise"
  bottom: "InceptionResnetV1__Repeat_1__block17_4__Relu"
  bottom: "InceptionResnetV1__Repeat_1__block17_5__mul"
  top: "InceptionResnetV1__Repeat_1__block17_5__add"
  eltwise_param {
    operation: SUM
  }
}
layer {
  name: "InceptionResnetV1__Repeat_1__block17_5__Relu"
  type: "ReLU"
  bottom: "InceptionResnetV1__Repeat_1__block17_5__add"
  top: "InceptionResnetV1__Repeat_1__block17_5__Relu"
}
layer {
  name: "InceptionResnetV1__Repeat_1__block17_6__Branch_1__Conv2d_0a_1x1__convolution"
  type: "Convolution"
  bottom: "InceptionResnetV1__Repeat_1__block17_5__Relu"
  top: "InceptionResnetV1__Repeat_1__block17_6__Branch_1__Conv2d_0a_1x1__convolution"
  convolution_param {
    num_output: 128
    bias_term: false
    kernel_h: 1
    kernel_w: 1
    stride_h: 1
    stride_w: 1
    pad_l: 0
    pad_r: 0
    pad_t: 0
    pad_b: 0
  }
}
layer {
  name: "InceptionResnetV1__Repeat_1__block17_6__Branch_0__Conv2d_1x1__convolution"
  type: "Convolution"
  bottom: "InceptionResnetV1__Repeat_1__block17_5__Relu"
  top: "InceptionResnetV1__Repeat_1__block17_6__Branch_0__Conv2d_1x1__convolution"
  convolution_param {
    num_output: 128
    bias_term: false
    kernel_h: 1
    kernel_w: 1
    stride_h: 1
    stride_w: 1
    pad_l: 0
    pad_r: 0
    pad_t: 0
    pad_b: 0
  }
}
layer {
  name: "InceptionResnetV1__Repeat_1__block17_6__Branch_1__Conv2d_0a_1x1__BatchNorm__batchnorm__add_1"
  type: "BatchNorm"
  bottom: "InceptionResnetV1__Repeat_1__block17_6__Branch_1__Conv2d_0a_1x1__convolution"
  top: "InceptionResnetV1__Repeat_1__block17_6__Branch_1__Conv2d_0a_1x1__BatchNorm__batchnorm__add_1"
  batch_norm_param {
    use_global_stats: true
    eps: 0.0010000000475
  }
}
layer {
  name: "InceptionResnetV1__Repeat_1__block17_6__Branch_1__Conv2d_0a_1x1__BatchNorm__batchnorm__add_1__scale"
  type: "Scale"
  bottom: "InceptionResnetV1__Repeat_1__block17_6__Branch_1__Conv2d_0a_1x1__BatchNorm__batchnorm__add_1"
  top: "InceptionResnetV1__Repeat_1__block17_6__Branch_1__Conv2d_0a_1x1__BatchNorm__batchnorm__add_1__scale"
  scale_param {
    bias_term: true
  }
}
layer {
  name: "InceptionResnetV1__Repeat_1__block17_6__Branch_0__Conv2d_1x1__BatchNorm__batchnorm__add_1"
  type: "BatchNorm"
  bottom: "InceptionResnetV1__Repeat_1__block17_6__Branch_0__Conv2d_1x1__convolution"
  top: "InceptionResnetV1__Repeat_1__block17_6__Branch_0__Conv2d_1x1__BatchNorm__batchnorm__add_1"
  batch_norm_param {
    use_global_stats: true
    eps: 0.0010000000475
  }
}
layer {
  name: "InceptionResnetV1__Repeat_1__block17_6__Branch_0__Conv2d_1x1__BatchNorm__batchnorm__add_1__scale"
  type: "Scale"
  bottom: "InceptionResnetV1__Repeat_1__block17_6__Branch_0__Conv2d_1x1__BatchNorm__batchnorm__add_1"
  top: "InceptionResnetV1__Repeat_1__block17_6__Branch_0__Conv2d_1x1__BatchNorm__batchnorm__add_1__scale"
  scale_param {
    bias_term: true
  }
}
layer {
  name: "InceptionResnetV1__Repeat_1__block17_6__Branch_1__Conv2d_0a_1x1__Relu"
  type: "ReLU"
  bottom: "InceptionResnetV1__Repeat_1__block17_6__Branch_1__Conv2d_0a_1x1__BatchNorm__batchnorm__add_1__scale"
  top: "InceptionResnetV1__Repeat_1__block17_6__Branch_1__Conv2d_0a_1x1__Relu"
}
layer {
  name: "InceptionResnetV1__Repeat_1__block17_6__Branch_0__Conv2d_1x1__Relu"
  type: "ReLU"
  bottom: "InceptionResnetV1__Repeat_1__block17_6__Branch_0__Conv2d_1x1__BatchNorm__batchnorm__add_1__scale"
  top: "InceptionResnetV1__Repeat_1__block17_6__Branch_0__Conv2d_1x1__Relu"
}
layer {
  name: "InceptionResnetV1__Repeat_1__block17_6__Branch_1__Conv2d_0b_1x7__convolution"
  type: "Convolution"
  bottom: "InceptionResnetV1__Repeat_1__block17_6__Branch_1__Conv2d_0a_1x1__Relu"
  top: "InceptionResnetV1__Repeat_1__block17_6__Branch_1__Conv2d_0b_1x7__convolution"
  convolution_param {
    num_output: 128
    bias_term: false
    kernel_h: 1
    kernel_w: 7
    stride_h: 1
    stride_w: 1
    pad_l: 3
    pad_r: 3
    pad_t: 0
    pad_b: 0
  }
}
layer {
  name: "InceptionResnetV1__Repeat_1__block17_6__Branch_1__Conv2d_0b_1x7__BatchNorm__batchnorm__add_1"
  type: "BatchNorm"
  bottom: "InceptionResnetV1__Repeat_1__block17_6__Branch_1__Conv2d_0b_1x7__convolution"
  top: "InceptionResnetV1__Repeat_1__block17_6__Branch_1__Conv2d_0b_1x7__BatchNorm__batchnorm__add_1"
  batch_norm_param {
    use_global_stats: true
    eps: 0.0010000000475
  }
}
layer {
  name: "InceptionResnetV1__Repeat_1__block17_6__Branch_1__Conv2d_0b_1x7__BatchNorm__batchnorm__add_1__scale"
  type: "Scale"
  bottom: "InceptionResnetV1__Repeat_1__block17_6__Branch_1__Conv2d_0b_1x7__BatchNorm__batchnorm__add_1"
  top: "InceptionResnetV1__Repeat_1__block17_6__Branch_1__Conv2d_0b_1x7__BatchNorm__batchnorm__add_1__scale"
  scale_param {
    bias_term: true
  }
}
layer {
  name: "InceptionResnetV1__Repeat_1__block17_6__Branch_1__Conv2d_0b_1x7__Relu"
  type: "ReLU"
  bottom: "InceptionResnetV1__Repeat_1__block17_6__Branch_1__Conv2d_0b_1x7__BatchNorm__batchnorm__add_1__scale"
  top: "InceptionResnetV1__Repeat_1__block17_6__Branch_1__Conv2d_0b_1x7__Relu"
}
layer {
  name: "InceptionResnetV1__Repeat_1__block17_6__Branch_1__Conv2d_0c_7x1__convolution"
  type: "Convolution"
  bottom: "InceptionResnetV1__Repeat_1__block17_6__Branch_1__Conv2d_0b_1x7__Relu"
  top: "InceptionResnetV1__Repeat_1__block17_6__Branch_1__Conv2d_0c_7x1__convolution"
  convolution_param {
    num_output: 128
    bias_term: false
    kernel_h: 7
    kernel_w: 1
    stride_h: 1
    stride_w: 1
    pad_l: 0
    pad_r: 0
    pad_t: 3
    pad_b: 3
  }
}
layer {
  name: "InceptionResnetV1__Repeat_1__block17_6__Branch_1__Conv2d_0c_7x1__BatchNorm__batchnorm__add_1"
  type: "BatchNorm"
  bottom: "InceptionResnetV1__Repeat_1__block17_6__Branch_1__Conv2d_0c_7x1__convolution"
  top: "InceptionResnetV1__Repeat_1__block17_6__Branch_1__Conv2d_0c_7x1__BatchNorm__batchnorm__add_1"
  batch_norm_param {
    use_global_stats: true
    eps: 0.0010000000475
  }
}
layer {
  name: "InceptionResnetV1__Repeat_1__block17_6__Branch_1__Conv2d_0c_7x1__BatchNorm__batchnorm__add_1__scale"
  type: "Scale"
  bottom: "InceptionResnetV1__Repeat_1__block17_6__Branch_1__Conv2d_0c_7x1__BatchNorm__batchnorm__add_1"
  top: "InceptionResnetV1__Repeat_1__block17_6__Branch_1__Conv2d_0c_7x1__BatchNorm__batchnorm__add_1__scale"
  scale_param {
    bias_term: true
  }
}
layer {
  name: "InceptionResnetV1__Repeat_1__block17_6__Branch_1__Conv2d_0c_7x1__Relu"
  type: "ReLU"
  bottom: "InceptionResnetV1__Repeat_1__block17_6__Branch_1__Conv2d_0c_7x1__BatchNorm__batchnorm__add_1__scale"
  top: "InceptionResnetV1__Repeat_1__block17_6__Branch_1__Conv2d_0c_7x1__Relu"
}
layer {
  name: "InceptionResnetV1__Repeat_1__block17_6__concat"
  type: "Concat"
  bottom: "InceptionResnetV1__Repeat_1__block17_6__Branch_0__Conv2d_1x1__Relu"
  bottom: "InceptionResnetV1__Repeat_1__block17_6__Branch_1__Conv2d_0c_7x1__Relu"
  top: "InceptionResnetV1__Repeat_1__block17_6__concat"
  concat_param {
    axis: 1
  }
}
layer {
  name: "InceptionResnetV1__Repeat_1__block17_6__Conv2d_1x1__convolution"
  type: "Convolution"
  bottom: "InceptionResnetV1__Repeat_1__block17_6__concat"
  top: "InceptionResnetV1__Repeat_1__block17_6__Conv2d_1x1__convolution"
  convolution_param {
    num_output: 896
    bias_term: false
    kernel_h: 1
    kernel_w: 1
    stride_h: 1
    stride_w: 1
    pad_l: 0
    pad_r: 0
    pad_t: 0
    pad_b: 0
  }
}
layer {
  name: "InceptionResnetV1__Repeat_1__block17_6__Conv2d_1x1__BiasAdd"
  type: "Bias"
  bottom: "InceptionResnetV1__Repeat_1__block17_6__Conv2d_1x1__convolution"
  top: "InceptionResnetV1__Repeat_1__block17_6__Conv2d_1x1__BiasAdd"
}
layer {
  name: "InceptionResnetV1__Repeat_1__block17_6__mul"
  type: "Power"
  bottom: "InceptionResnetV1__Repeat_1__block17_6__Conv2d_1x1__BiasAdd"
  top: "InceptionResnetV1__Repeat_1__block17_6__mul"
  power_param {
    scale: 0.10000000149
  }
}
layer {
  name: "InceptionResnetV1__Repeat_1__block17_6__add"
  type: "Eltwise"
  bottom: "InceptionResnetV1__Repeat_1__block17_5__Relu"
  bottom: "InceptionResnetV1__Repeat_1__block17_6__mul"
  top: "InceptionResnetV1__Repeat_1__block17_6__add"
  eltwise_param {
    operation: SUM
  }
}
layer {
  name: "InceptionResnetV1__Repeat_1__block17_6__Relu"
  type: "ReLU"
  bottom: "InceptionResnetV1__Repeat_1__block17_6__add"
  top: "InceptionResnetV1__Repeat_1__block17_6__Relu"
}
layer {
  name: "InceptionResnetV1__Repeat_1__block17_7__Branch_1__Conv2d_0a_1x1__convolution"
  type: "Convolution"
  bottom: "InceptionResnetV1__Repeat_1__block17_6__Relu"
  top: "InceptionResnetV1__Repeat_1__block17_7__Branch_1__Conv2d_0a_1x1__convolution"
  convolution_param {
    num_output: 128
    bias_term: false
    kernel_h: 1
    kernel_w: 1
    stride_h: 1
    stride_w: 1
    pad_l: 0
    pad_r: 0
    pad_t: 0
    pad_b: 0
  }
}
layer {
  name: "InceptionResnetV1__Repeat_1__block17_7__Branch_0__Conv2d_1x1__convolution"
  type: "Convolution"
  bottom: "InceptionResnetV1__Repeat_1__block17_6__Relu"
  top: "InceptionResnetV1__Repeat_1__block17_7__Branch_0__Conv2d_1x1__convolution"
  convolution_param {
    num_output: 128
    bias_term: false
    kernel_h: 1
    kernel_w: 1
    stride_h: 1
    stride_w: 1
    pad_l: 0
    pad_r: 0
    pad_t: 0
    pad_b: 0
  }
}
layer {
  name: "InceptionResnetV1__Repeat_1__block17_7__Branch_1__Conv2d_0a_1x1__BatchNorm__batchnorm__add_1"
  type: "BatchNorm"
  bottom: "InceptionResnetV1__Repeat_1__block17_7__Branch_1__Conv2d_0a_1x1__convolution"
  top: "InceptionResnetV1__Repeat_1__block17_7__Branch_1__Conv2d_0a_1x1__BatchNorm__batchnorm__add_1"
  batch_norm_param {
    use_global_stats: true
    eps: 0.0010000000475
  }
}
layer {
  name: "InceptionResnetV1__Repeat_1__block17_7__Branch_1__Conv2d_0a_1x1__BatchNorm__batchnorm__add_1__scale"
  type: "Scale"
  bottom: "InceptionResnetV1__Repeat_1__block17_7__Branch_1__Conv2d_0a_1x1__BatchNorm__batchnorm__add_1"
  top: "InceptionResnetV1__Repeat_1__block17_7__Branch_1__Conv2d_0a_1x1__BatchNorm__batchnorm__add_1__scale"
  scale_param {
    bias_term: true
  }
}
layer {
  name: "InceptionResnetV1__Repeat_1__block17_7__Branch_0__Conv2d_1x1__BatchNorm__batchnorm__add_1"
  type: "BatchNorm"
  bottom: "InceptionResnetV1__Repeat_1__block17_7__Branch_0__Conv2d_1x1__convolution"
  top: "InceptionResnetV1__Repeat_1__block17_7__Branch_0__Conv2d_1x1__BatchNorm__batchnorm__add_1"
  batch_norm_param {
    use_global_stats: true
    eps: 0.0010000000475
  }
}
layer {
  name: "InceptionResnetV1__Repeat_1__block17_7__Branch_0__Conv2d_1x1__BatchNorm__batchnorm__add_1__scale"
  type: "Scale"
  bottom: "InceptionResnetV1__Repeat_1__block17_7__Branch_0__Conv2d_1x1__BatchNorm__batchnorm__add_1"
  top: "InceptionResnetV1__Repeat_1__block17_7__Branch_0__Conv2d_1x1__BatchNorm__batchnorm__add_1__scale"
  scale_param {
    bias_term: true
  }
}
layer {
  name: "InceptionResnetV1__Repeat_1__block17_7__Branch_1__Conv2d_0a_1x1__Relu"
  type: "ReLU"
  bottom: "InceptionResnetV1__Repeat_1__block17_7__Branch_1__Conv2d_0a_1x1__BatchNorm__batchnorm__add_1__scale"
  top: "InceptionResnetV1__Repeat_1__block17_7__Branch_1__Conv2d_0a_1x1__Relu"
}
layer {
  name: "InceptionResnetV1__Repeat_1__block17_7__Branch_0__Conv2d_1x1__Relu"
  type: "ReLU"
  bottom: "InceptionResnetV1__Repeat_1__block17_7__Branch_0__Conv2d_1x1__BatchNorm__batchnorm__add_1__scale"
  top: "InceptionResnetV1__Repeat_1__block17_7__Branch_0__Conv2d_1x1__Relu"
}
layer {
  name: "InceptionResnetV1__Repeat_1__block17_7__Branch_1__Conv2d_0b_1x7__convolution"
  type: "Convolution"
  bottom: "InceptionResnetV1__Repeat_1__block17_7__Branch_1__Conv2d_0a_1x1__Relu"
  top: "InceptionResnetV1__Repeat_1__block17_7__Branch_1__Conv2d_0b_1x7__convolution"
  convolution_param {
    num_output: 128
    bias_term: false
    kernel_h: 1
    kernel_w: 7
    stride_h: 1
    stride_w: 1
    pad_l: 3
    pad_r: 3
    pad_t: 0
    pad_b: 0
  }
}
layer {
  name: "InceptionResnetV1__Repeat_1__block17_7__Branch_1__Conv2d_0b_1x7__BatchNorm__batchnorm__add_1"
  type: "BatchNorm"
  bottom: "InceptionResnetV1__Repeat_1__block17_7__Branch_1__Conv2d_0b_1x7__convolution"
  top: "InceptionResnetV1__Repeat_1__block17_7__Branch_1__Conv2d_0b_1x7__BatchNorm__batchnorm__add_1"
  batch_norm_param {
    use_global_stats: true
    eps: 0.0010000000475
  }
}
layer {
  name: "InceptionResnetV1__Repeat_1__block17_7__Branch_1__Conv2d_0b_1x7__BatchNorm__batchnorm__add_1__scale"
  type: "Scale"
  bottom: "InceptionResnetV1__Repeat_1__block17_7__Branch_1__Conv2d_0b_1x7__BatchNorm__batchnorm__add_1"
  top: "InceptionResnetV1__Repeat_1__block17_7__Branch_1__Conv2d_0b_1x7__BatchNorm__batchnorm__add_1__scale"
  scale_param {
    bias_term: true
  }
}
layer {
  name: "InceptionResnetV1__Repeat_1__block17_7__Branch_1__Conv2d_0b_1x7__Relu"
  type: "ReLU"
  bottom: "InceptionResnetV1__Repeat_1__block17_7__Branch_1__Conv2d_0b_1x7__BatchNorm__batchnorm__add_1__scale"
  top: "InceptionResnetV1__Repeat_1__block17_7__Branch_1__Conv2d_0b_1x7__Relu"
}
layer {
  name: "InceptionResnetV1__Repeat_1__block17_7__Branch_1__Conv2d_0c_7x1__convolution"
  type: "Convolution"
  bottom: "InceptionResnetV1__Repeat_1__block17_7__Branch_1__Conv2d_0b_1x7__Relu"
  top: "InceptionResnetV1__Repeat_1__block17_7__Branch_1__Conv2d_0c_7x1__convolution"
  convolution_param {
    num_output: 128
    bias_term: false
    kernel_h: 7
    kernel_w: 1
    stride_h: 1
    stride_w: 1
    pad_l: 0
    pad_r: 0
    pad_t: 3
    pad_b: 3
  }
}
layer {
  name: "InceptionResnetV1__Repeat_1__block17_7__Branch_1__Conv2d_0c_7x1__BatchNorm__batchnorm__add_1"
  type: "BatchNorm"
  bottom: "InceptionResnetV1__Repeat_1__block17_7__Branch_1__Conv2d_0c_7x1__convolution"
  top: "InceptionResnetV1__Repeat_1__block17_7__Branch_1__Conv2d_0c_7x1__BatchNorm__batchnorm__add_1"
  batch_norm_param {
    use_global_stats: true
    eps: 0.0010000000475
  }
}
layer {
  name: "InceptionResnetV1__Repeat_1__block17_7__Branch_1__Conv2d_0c_7x1__BatchNorm__batchnorm__add_1__scale"
  type: "Scale"
  bottom: "InceptionResnetV1__Repeat_1__block17_7__Branch_1__Conv2d_0c_7x1__BatchNorm__batchnorm__add_1"
  top: "InceptionResnetV1__Repeat_1__block17_7__Branch_1__Conv2d_0c_7x1__BatchNorm__batchnorm__add_1__scale"
  scale_param {
    bias_term: true
  }
}
layer {
  name: "InceptionResnetV1__Repeat_1__block17_7__Branch_1__Conv2d_0c_7x1__Relu"
  type: "ReLU"
  bottom: "InceptionResnetV1__Repeat_1__block17_7__Branch_1__Conv2d_0c_7x1__BatchNorm__batchnorm__add_1__scale"
  top: "InceptionResnetV1__Repeat_1__block17_7__Branch_1__Conv2d_0c_7x1__Relu"
}
layer {
  name: "InceptionResnetV1__Repeat_1__block17_7__concat"
  type: "Concat"
  bottom: "InceptionResnetV1__Repeat_1__block17_7__Branch_0__Conv2d_1x1__Relu"
  bottom: "InceptionResnetV1__Repeat_1__block17_7__Branch_1__Conv2d_0c_7x1__Relu"
  top: "InceptionResnetV1__Repeat_1__block17_7__concat"
  concat_param {
    axis: 1
  }
}
layer {
  name: "InceptionResnetV1__Repeat_1__block17_7__Conv2d_1x1__convolution"
  type: "Convolution"
  bottom: "InceptionResnetV1__Repeat_1__block17_7__concat"
  top: "InceptionResnetV1__Repeat_1__block17_7__Conv2d_1x1__convolution"
  convolution_param {
    num_output: 896
    bias_term: false
    kernel_h: 1
    kernel_w: 1
    stride_h: 1
    stride_w: 1
    pad_l: 0
    pad_r: 0
    pad_t: 0
    pad_b: 0
  }
}
layer {
  name: "InceptionResnetV1__Repeat_1__block17_7__Conv2d_1x1__BiasAdd"
  type: "Bias"
  bottom: "InceptionResnetV1__Repeat_1__block17_7__Conv2d_1x1__convolution"
  top: "InceptionResnetV1__Repeat_1__block17_7__Conv2d_1x1__BiasAdd"
}
layer {
  name: "InceptionResnetV1__Repeat_1__block17_7__mul"
  type: "Power"
  bottom: "InceptionResnetV1__Repeat_1__block17_7__Conv2d_1x1__BiasAdd"
  top: "InceptionResnetV1__Repeat_1__block17_7__mul"
  power_param {
    scale: 0.10000000149
  }
}
layer {
  name: "InceptionResnetV1__Repeat_1__block17_7__add"
  type: "Eltwise"
  bottom: "InceptionResnetV1__Repeat_1__block17_6__Relu"
  bottom: "InceptionResnetV1__Repeat_1__block17_7__mul"
  top: "InceptionResnetV1__Repeat_1__block17_7__add"
  eltwise_param {
    operation: SUM
  }
}
layer {
  name: "InceptionResnetV1__Repeat_1__block17_7__Relu"
  type: "ReLU"
  bottom: "InceptionResnetV1__Repeat_1__block17_7__add"
  top: "InceptionResnetV1__Repeat_1__block17_7__Relu"
}
layer {
  name: "InceptionResnetV1__Repeat_1__block17_8__Branch_1__Conv2d_0a_1x1__convolution"
  type: "Convolution"
  bottom: "InceptionResnetV1__Repeat_1__block17_7__Relu"
  top: "InceptionResnetV1__Repeat_1__block17_8__Branch_1__Conv2d_0a_1x1__convolution"
  convolution_param {
    num_output: 128
    bias_term: false
    kernel_h: 1
    kernel_w: 1
    stride_h: 1
    stride_w: 1
    pad_l: 0
    pad_r: 0
    pad_t: 0
    pad_b: 0
  }
}
layer {
  name: "InceptionResnetV1__Repeat_1__block17_8__Branch_0__Conv2d_1x1__convolution"
  type: "Convolution"
  bottom: "InceptionResnetV1__Repeat_1__block17_7__Relu"
  top: "InceptionResnetV1__Repeat_1__block17_8__Branch_0__Conv2d_1x1__convolution"
  convolution_param {
    num_output: 128
    bias_term: false
    kernel_h: 1
    kernel_w: 1
    stride_h: 1
    stride_w: 1
    pad_l: 0
    pad_r: 0
    pad_t: 0
    pad_b: 0
  }
}
layer {
  name: "InceptionResnetV1__Repeat_1__block17_8__Branch_1__Conv2d_0a_1x1__BatchNorm__batchnorm__add_1"
  type: "BatchNorm"
  bottom: "InceptionResnetV1__Repeat_1__block17_8__Branch_1__Conv2d_0a_1x1__convolution"
  top: "InceptionResnetV1__Repeat_1__block17_8__Branch_1__Conv2d_0a_1x1__BatchNorm__batchnorm__add_1"
  batch_norm_param {
    use_global_stats: true
    eps: 0.0010000000475
  }
}
layer {
  name: "InceptionResnetV1__Repeat_1__block17_8__Branch_1__Conv2d_0a_1x1__BatchNorm__batchnorm__add_1__scale"
  type: "Scale"
  bottom: "InceptionResnetV1__Repeat_1__block17_8__Branch_1__Conv2d_0a_1x1__BatchNorm__batchnorm__add_1"
  top: "InceptionResnetV1__Repeat_1__block17_8__Branch_1__Conv2d_0a_1x1__BatchNorm__batchnorm__add_1__scale"
  scale_param {
    bias_term: true
  }
}
layer {
  name: "InceptionResnetV1__Repeat_1__block17_8__Branch_0__Conv2d_1x1__BatchNorm__batchnorm__add_1"
  type: "BatchNorm"
  bottom: "InceptionResnetV1__Repeat_1__block17_8__Branch_0__Conv2d_1x1__convolution"
  top: "InceptionResnetV1__Repeat_1__block17_8__Branch_0__Conv2d_1x1__BatchNorm__batchnorm__add_1"
  batch_norm_param {
    use_global_stats: true
    eps: 0.0010000000475
  }
}
layer {
  name: "InceptionResnetV1__Repeat_1__block17_8__Branch_0__Conv2d_1x1__BatchNorm__batchnorm__add_1__scale"
  type: "Scale"
  bottom: "InceptionResnetV1__Repeat_1__block17_8__Branch_0__Conv2d_1x1__BatchNorm__batchnorm__add_1"
  top: "InceptionResnetV1__Repeat_1__block17_8__Branch_0__Conv2d_1x1__BatchNorm__batchnorm__add_1__scale"
  scale_param {
    bias_term: true
  }
}
layer {
  name: "InceptionResnetV1__Repeat_1__block17_8__Branch_1__Conv2d_0a_1x1__Relu"
  type: "ReLU"
  bottom: "InceptionResnetV1__Repeat_1__block17_8__Branch_1__Conv2d_0a_1x1__BatchNorm__batchnorm__add_1__scale"
  top: "InceptionResnetV1__Repeat_1__block17_8__Branch_1__Conv2d_0a_1x1__Relu"
}
layer {
  name: "InceptionResnetV1__Repeat_1__block17_8__Branch_0__Conv2d_1x1__Relu"
  type: "ReLU"
  bottom: "InceptionResnetV1__Repeat_1__block17_8__Branch_0__Conv2d_1x1__BatchNorm__batchnorm__add_1__scale"
  top: "InceptionResnetV1__Repeat_1__block17_8__Branch_0__Conv2d_1x1__Relu"
}
layer {
  name: "InceptionResnetV1__Repeat_1__block17_8__Branch_1__Conv2d_0b_1x7__convolution"
  type: "Convolution"
  bottom: "InceptionResnetV1__Repeat_1__block17_8__Branch_1__Conv2d_0a_1x1__Relu"
  top: "InceptionResnetV1__Repeat_1__block17_8__Branch_1__Conv2d_0b_1x7__convolution"
  convolution_param {
    num_output: 128
    bias_term: false
    kernel_h: 1
    kernel_w: 7
    stride_h: 1
    stride_w: 1
    pad_l: 3
    pad_r: 3
    pad_t: 0
    pad_b: 0
  }
}
layer {
  name: "InceptionResnetV1__Repeat_1__block17_8__Branch_1__Conv2d_0b_1x7__BatchNorm__batchnorm__add_1"
  type: "BatchNorm"
  bottom: "InceptionResnetV1__Repeat_1__block17_8__Branch_1__Conv2d_0b_1x7__convolution"
  top: "InceptionResnetV1__Repeat_1__block17_8__Branch_1__Conv2d_0b_1x7__BatchNorm__batchnorm__add_1"
  batch_norm_param {
    use_global_stats: true
    eps: 0.0010000000475
  }
}
layer {
  name: "InceptionResnetV1__Repeat_1__block17_8__Branch_1__Conv2d_0b_1x7__BatchNorm__batchnorm__add_1__scale"
  type: "Scale"
  bottom: "InceptionResnetV1__Repeat_1__block17_8__Branch_1__Conv2d_0b_1x7__BatchNorm__batchnorm__add_1"
  top: "InceptionResnetV1__Repeat_1__block17_8__Branch_1__Conv2d_0b_1x7__BatchNorm__batchnorm__add_1__scale"
  scale_param {
    bias_term: true
  }
}
layer {
  name: "InceptionResnetV1__Repeat_1__block17_8__Branch_1__Conv2d_0b_1x7__Relu"
  type: "ReLU"
  bottom: "InceptionResnetV1__Repeat_1__block17_8__Branch_1__Conv2d_0b_1x7__BatchNorm__batchnorm__add_1__scale"
  top: "InceptionResnetV1__Repeat_1__block17_8__Branch_1__Conv2d_0b_1x7__Relu"
}
layer {
  name: "InceptionResnetV1__Repeat_1__block17_8__Branch_1__Conv2d_0c_7x1__convolution"
  type: "Convolution"
  bottom: "InceptionResnetV1__Repeat_1__block17_8__Branch_1__Conv2d_0b_1x7__Relu"
  top: "InceptionResnetV1__Repeat_1__block17_8__Branch_1__Conv2d_0c_7x1__convolution"
  convolution_param {
    num_output: 128
    bias_term: false
    kernel_h: 7
    kernel_w: 1
    stride_h: 1
    stride_w: 1
    pad_l: 0
    pad_r: 0
    pad_t: 3
    pad_b: 3
  }
}
layer {
  name: "InceptionResnetV1__Repeat_1__block17_8__Branch_1__Conv2d_0c_7x1__BatchNorm__batchnorm__add_1"
  type: "BatchNorm"
  bottom: "InceptionResnetV1__Repeat_1__block17_8__Branch_1__Conv2d_0c_7x1__convolution"
  top: "InceptionResnetV1__Repeat_1__block17_8__Branch_1__Conv2d_0c_7x1__BatchNorm__batchnorm__add_1"
  batch_norm_param {
    use_global_stats: true
    eps: 0.0010000000475
  }
}
layer {
  name: "InceptionResnetV1__Repeat_1__block17_8__Branch_1__Conv2d_0c_7x1__BatchNorm__batchnorm__add_1__scale"
  type: "Scale"
  bottom: "InceptionResnetV1__Repeat_1__block17_8__Branch_1__Conv2d_0c_7x1__BatchNorm__batchnorm__add_1"
  top: "InceptionResnetV1__Repeat_1__block17_8__Branch_1__Conv2d_0c_7x1__BatchNorm__batchnorm__add_1__scale"
  scale_param {
    bias_term: true
  }
}
layer {
  name: "InceptionResnetV1__Repeat_1__block17_8__Branch_1__Conv2d_0c_7x1__Relu"
  type: "ReLU"
  bottom: "InceptionResnetV1__Repeat_1__block17_8__Branch_1__Conv2d_0c_7x1__BatchNorm__batchnorm__add_1__scale"
  top: "InceptionResnetV1__Repeat_1__block17_8__Branch_1__Conv2d_0c_7x1__Relu"
}
layer {
  name: "InceptionResnetV1__Repeat_1__block17_8__concat"
  type: "Concat"
  bottom: "InceptionResnetV1__Repeat_1__block17_8__Branch_0__Conv2d_1x1__Relu"
  bottom: "InceptionResnetV1__Repeat_1__block17_8__Branch_1__Conv2d_0c_7x1__Relu"
  top: "InceptionResnetV1__Repeat_1__block17_8__concat"
  concat_param {
    axis: 1
  }
}
layer {
  name: "InceptionResnetV1__Repeat_1__block17_8__Conv2d_1x1__convolution"
  type: "Convolution"
  bottom: "InceptionResnetV1__Repeat_1__block17_8__concat"
  top: "InceptionResnetV1__Repeat_1__block17_8__Conv2d_1x1__convolution"
  convolution_param {
    num_output: 896
    bias_term: false
    kernel_h: 1
    kernel_w: 1
    stride_h: 1
    stride_w: 1
    pad_l: 0
    pad_r: 0
    pad_t: 0
    pad_b: 0
  }
}
layer {
  name: "InceptionResnetV1__Repeat_1__block17_8__Conv2d_1x1__BiasAdd"
  type: "Bias"
  bottom: "InceptionResnetV1__Repeat_1__block17_8__Conv2d_1x1__convolution"
  top: "InceptionResnetV1__Repeat_1__block17_8__Conv2d_1x1__BiasAdd"
}
layer {
  name: "InceptionResnetV1__Repeat_1__block17_8__mul"
  type: "Power"
  bottom: "InceptionResnetV1__Repeat_1__block17_8__Conv2d_1x1__BiasAdd"
  top: "InceptionResnetV1__Repeat_1__block17_8__mul"
  power_param {
    scale: 0.10000000149
  }
}
layer {
  name: "InceptionResnetV1__Repeat_1__block17_8__add"
  type: "Eltwise"
  bottom: "InceptionResnetV1__Repeat_1__block17_7__Relu"
  bottom: "InceptionResnetV1__Repeat_1__block17_8__mul"
  top: "InceptionResnetV1__Repeat_1__block17_8__add"
  eltwise_param {
    operation: SUM
  }
}
layer {
  name: "InceptionResnetV1__Repeat_1__block17_8__Relu"
  type: "ReLU"
  bottom: "InceptionResnetV1__Repeat_1__block17_8__add"
  top: "InceptionResnetV1__Repeat_1__block17_8__Relu"
}
layer {
  name: "InceptionResnetV1__Repeat_1__block17_9__Branch_1__Conv2d_0a_1x1__convolution"
  type: "Convolution"
  bottom: "InceptionResnetV1__Repeat_1__block17_8__Relu"
  top: "InceptionResnetV1__Repeat_1__block17_9__Branch_1__Conv2d_0a_1x1__convolution"
  convolution_param {
    num_output: 128
    bias_term: false
    kernel_h: 1
    kernel_w: 1
    stride_h: 1
    stride_w: 1
    pad_l: 0
    pad_r: 0
    pad_t: 0
    pad_b: 0
  }
}
layer {
  name: "InceptionResnetV1__Repeat_1__block17_9__Branch_0__Conv2d_1x1__convolution"
  type: "Convolution"
  bottom: "InceptionResnetV1__Repeat_1__block17_8__Relu"
  top: "InceptionResnetV1__Repeat_1__block17_9__Branch_0__Conv2d_1x1__convolution"
  convolution_param {
    num_output: 128
    bias_term: false
    kernel_h: 1
    kernel_w: 1
    stride_h: 1
    stride_w: 1
    pad_l: 0
    pad_r: 0
    pad_t: 0
    pad_b: 0
  }
}
layer {
  name: "InceptionResnetV1__Repeat_1__block17_9__Branch_1__Conv2d_0a_1x1__BatchNorm__batchnorm__add_1"
  type: "BatchNorm"
  bottom: "InceptionResnetV1__Repeat_1__block17_9__Branch_1__Conv2d_0a_1x1__convolution"
  top: "InceptionResnetV1__Repeat_1__block17_9__Branch_1__Conv2d_0a_1x1__BatchNorm__batchnorm__add_1"
  batch_norm_param {
    use_global_stats: true
    eps: 0.0010000000475
  }
}
layer {
  name: "InceptionResnetV1__Repeat_1__block17_9__Branch_1__Conv2d_0a_1x1__BatchNorm__batchnorm__add_1__scale"
  type: "Scale"
  bottom: "InceptionResnetV1__Repeat_1__block17_9__Branch_1__Conv2d_0a_1x1__BatchNorm__batchnorm__add_1"
  top: "InceptionResnetV1__Repeat_1__block17_9__Branch_1__Conv2d_0a_1x1__BatchNorm__batchnorm__add_1__scale"
  scale_param {
    bias_term: true
  }
}
layer {
  name: "InceptionResnetV1__Repeat_1__block17_9__Branch_0__Conv2d_1x1__BatchNorm__batchnorm__add_1"
  type: "BatchNorm"
  bottom: "InceptionResnetV1__Repeat_1__block17_9__Branch_0__Conv2d_1x1__convolution"
  top: "InceptionResnetV1__Repeat_1__block17_9__Branch_0__Conv2d_1x1__BatchNorm__batchnorm__add_1"
  batch_norm_param {
    use_global_stats: true
    eps: 0.0010000000475
  }
}
layer {
  name: "InceptionResnetV1__Repeat_1__block17_9__Branch_0__Conv2d_1x1__BatchNorm__batchnorm__add_1__scale"
  type: "Scale"
  bottom: "InceptionResnetV1__Repeat_1__block17_9__Branch_0__Conv2d_1x1__BatchNorm__batchnorm__add_1"
  top: "InceptionResnetV1__Repeat_1__block17_9__Branch_0__Conv2d_1x1__BatchNorm__batchnorm__add_1__scale"
  scale_param {
    bias_term: true
  }
}
layer {
  name: "InceptionResnetV1__Repeat_1__block17_9__Branch_1__Conv2d_0a_1x1__Relu"
  type: "ReLU"
  bottom: "InceptionResnetV1__Repeat_1__block17_9__Branch_1__Conv2d_0a_1x1__BatchNorm__batchnorm__add_1__scale"
  top: "InceptionResnetV1__Repeat_1__block17_9__Branch_1__Conv2d_0a_1x1__Relu"
}
layer {
  name: "InceptionResnetV1__Repeat_1__block17_9__Branch_0__Conv2d_1x1__Relu"
  type: "ReLU"
  bottom: "InceptionResnetV1__Repeat_1__block17_9__Branch_0__Conv2d_1x1__BatchNorm__batchnorm__add_1__scale"
  top: "InceptionResnetV1__Repeat_1__block17_9__Branch_0__Conv2d_1x1__Relu"
}
layer {
  name: "InceptionResnetV1__Repeat_1__block17_9__Branch_1__Conv2d_0b_1x7__convolution"
  type: "Convolution"
  bottom: "InceptionResnetV1__Repeat_1__block17_9__Branch_1__Conv2d_0a_1x1__Relu"
  top: "InceptionResnetV1__Repeat_1__block17_9__Branch_1__Conv2d_0b_1x7__convolution"
  convolution_param {
    num_output: 128
    bias_term: false
    kernel_h: 1
    kernel_w: 7
    stride_h: 1
    stride_w: 1
    pad_l: 3
    pad_r: 3
    pad_t: 0
    pad_b: 0
  }
}
layer {
  name: "InceptionResnetV1__Repeat_1__block17_9__Branch_1__Conv2d_0b_1x7__BatchNorm__batchnorm__add_1"
  type: "BatchNorm"
  bottom: "InceptionResnetV1__Repeat_1__block17_9__Branch_1__Conv2d_0b_1x7__convolution"
  top: "InceptionResnetV1__Repeat_1__block17_9__Branch_1__Conv2d_0b_1x7__BatchNorm__batchnorm__add_1"
  batch_norm_param {
    use_global_stats: true
    eps: 0.0010000000475
  }
}
layer {
  name: "InceptionResnetV1__Repeat_1__block17_9__Branch_1__Conv2d_0b_1x7__BatchNorm__batchnorm__add_1__scale"
  type: "Scale"
  bottom: "InceptionResnetV1__Repeat_1__block17_9__Branch_1__Conv2d_0b_1x7__BatchNorm__batchnorm__add_1"
  top: "InceptionResnetV1__Repeat_1__block17_9__Branch_1__Conv2d_0b_1x7__BatchNorm__batchnorm__add_1__scale"
  scale_param {
    bias_term: true
  }
}
layer {
  name: "InceptionResnetV1__Repeat_1__block17_9__Branch_1__Conv2d_0b_1x7__Relu"
  type: "ReLU"
  bottom: "InceptionResnetV1__Repeat_1__block17_9__Branch_1__Conv2d_0b_1x7__BatchNorm__batchnorm__add_1__scale"
  top: "InceptionResnetV1__Repeat_1__block17_9__Branch_1__Conv2d_0b_1x7__Relu"
}
layer {
  name: "InceptionResnetV1__Repeat_1__block17_9__Branch_1__Conv2d_0c_7x1__convolution"
  type: "Convolution"
  bottom: "InceptionResnetV1__Repeat_1__block17_9__Branch_1__Conv2d_0b_1x7__Relu"
  top: "InceptionResnetV1__Repeat_1__block17_9__Branch_1__Conv2d_0c_7x1__convolution"
  convolution_param {
    num_output: 128
    bias_term: false
    kernel_h: 7
    kernel_w: 1
    stride_h: 1
    stride_w: 1
    pad_l: 0
    pad_r: 0
    pad_t: 3
    pad_b: 3
  }
}
layer {
  name: "InceptionResnetV1__Repeat_1__block17_9__Branch_1__Conv2d_0c_7x1__BatchNorm__batchnorm__add_1"
  type: "BatchNorm"
  bottom: "InceptionResnetV1__Repeat_1__block17_9__Branch_1__Conv2d_0c_7x1__convolution"
  top: "InceptionResnetV1__Repeat_1__block17_9__Branch_1__Conv2d_0c_7x1__BatchNorm__batchnorm__add_1"
  batch_norm_param {
    use_global_stats: true
    eps: 0.0010000000475
  }
}
layer {
  name: "InceptionResnetV1__Repeat_1__block17_9__Branch_1__Conv2d_0c_7x1__BatchNorm__batchnorm__add_1__scale"
  type: "Scale"
  bottom: "InceptionResnetV1__Repeat_1__block17_9__Branch_1__Conv2d_0c_7x1__BatchNorm__batchnorm__add_1"
  top: "InceptionResnetV1__Repeat_1__block17_9__Branch_1__Conv2d_0c_7x1__BatchNorm__batchnorm__add_1__scale"
  scale_param {
    bias_term: true
  }
}
layer {
  name: "InceptionResnetV1__Repeat_1__block17_9__Branch_1__Conv2d_0c_7x1__Relu"
  type: "ReLU"
  bottom: "InceptionResnetV1__Repeat_1__block17_9__Branch_1__Conv2d_0c_7x1__BatchNorm__batchnorm__add_1__scale"
  top: "InceptionResnetV1__Repeat_1__block17_9__Branch_1__Conv2d_0c_7x1__Relu"
}
layer {
  name: "InceptionResnetV1__Repeat_1__block17_9__concat"
  type: "Concat"
  bottom: "InceptionResnetV1__Repeat_1__block17_9__Branch_0__Conv2d_1x1__Relu"
  bottom: "InceptionResnetV1__Repeat_1__block17_9__Branch_1__Conv2d_0c_7x1__Relu"
  top: "InceptionResnetV1__Repeat_1__block17_9__concat"
  concat_param {
    axis: 1
  }
}
layer {
  name: "InceptionResnetV1__Repeat_1__block17_9__Conv2d_1x1__convolution"
  type: "Convolution"
  bottom: "InceptionResnetV1__Repeat_1__block17_9__concat"
  top: "InceptionResnetV1__Repeat_1__block17_9__Conv2d_1x1__convolution"
  convolution_param {
    num_output: 896
    bias_term: false
    kernel_h: 1
    kernel_w: 1
    stride_h: 1
    stride_w: 1
    pad_l: 0
    pad_r: 0
    pad_t: 0
    pad_b: 0
  }
}
layer {
  name: "InceptionResnetV1__Repeat_1__block17_9__Conv2d_1x1__BiasAdd"
  type: "Bias"
  bottom: "InceptionResnetV1__Repeat_1__block17_9__Conv2d_1x1__convolution"
  top: "InceptionResnetV1__Repeat_1__block17_9__Conv2d_1x1__BiasAdd"
}
layer {
  name: "InceptionResnetV1__Repeat_1__block17_9__mul"
  type: "Power"
  bottom: "InceptionResnetV1__Repeat_1__block17_9__Conv2d_1x1__BiasAdd"
  top: "InceptionResnetV1__Repeat_1__block17_9__mul"
  power_param {
    scale: 0.10000000149
  }
}
layer {
  name: "InceptionResnetV1__Repeat_1__block17_9__add"
  type: "Eltwise"
  bottom: "InceptionResnetV1__Repeat_1__block17_8__Relu"
  bottom: "InceptionResnetV1__Repeat_1__block17_9__mul"
  top: "InceptionResnetV1__Repeat_1__block17_9__add"
  eltwise_param {
    operation: SUM
  }
}
layer {
  name: "InceptionResnetV1__Repeat_1__block17_9__Relu"
  type: "ReLU"
  bottom: "InceptionResnetV1__Repeat_1__block17_9__add"
  top: "InceptionResnetV1__Repeat_1__block17_9__Relu"
}
layer {
  name: "InceptionResnetV1__Repeat_1__block17_10__Branch_1__Conv2d_0a_1x1__convolution"
  type: "Convolution"
  bottom: "InceptionResnetV1__Repeat_1__block17_9__Relu"
  top: "InceptionResnetV1__Repeat_1__block17_10__Branch_1__Conv2d_0a_1x1__convolution"
  convolution_param {
    num_output: 128
    bias_term: false
    kernel_h: 1
    kernel_w: 1
    stride_h: 1
    stride_w: 1
    pad_l: 0
    pad_r: 0
    pad_t: 0
    pad_b: 0
  }
}
layer {
  name: "InceptionResnetV1__Repeat_1__block17_10__Branch_0__Conv2d_1x1__convolution"
  type: "Convolution"
  bottom: "InceptionResnetV1__Repeat_1__block17_9__Relu"
  top: "InceptionResnetV1__Repeat_1__block17_10__Branch_0__Conv2d_1x1__convolution"
  convolution_param {
    num_output: 128
    bias_term: false
    kernel_h: 1
    kernel_w: 1
    stride_h: 1
    stride_w: 1
    pad_l: 0
    pad_r: 0
    pad_t: 0
    pad_b: 0
  }
}
layer {
  name: "InceptionResnetV1__Repeat_1__block17_10__Branch_1__Conv2d_0a_1x1__BatchNorm__batchnorm__add_1"
  type: "BatchNorm"
  bottom: "InceptionResnetV1__Repeat_1__block17_10__Branch_1__Conv2d_0a_1x1__convolution"
  top: "InceptionResnetV1__Repeat_1__block17_10__Branch_1__Conv2d_0a_1x1__BatchNorm__batchnorm__add_1"
  batch_norm_param {
    use_global_stats: true
    eps: 0.0010000000475
  }
}
layer {
  name: "InceptionResnetV1__Repeat_1__block17_10__Branch_1__Conv2d_0a_1x1__BatchNorm__batchnorm__add_1__scale"
  type: "Scale"
  bottom: "InceptionResnetV1__Repeat_1__block17_10__Branch_1__Conv2d_0a_1x1__BatchNorm__batchnorm__add_1"
  top: "InceptionResnetV1__Repeat_1__block17_10__Branch_1__Conv2d_0a_1x1__BatchNorm__batchnorm__add_1__scale"
  scale_param {
    bias_term: true
  }
}
layer {
  name: "InceptionResnetV1__Repeat_1__block17_10__Branch_0__Conv2d_1x1__BatchNorm__batchnorm__add_1"
  type: "BatchNorm"
  bottom: "InceptionResnetV1__Repeat_1__block17_10__Branch_0__Conv2d_1x1__convolution"
  top: "InceptionResnetV1__Repeat_1__block17_10__Branch_0__Conv2d_1x1__BatchNorm__batchnorm__add_1"
  batch_norm_param {
    use_global_stats: true
    eps: 0.0010000000475
  }
}
layer {
  name: "InceptionResnetV1__Repeat_1__block17_10__Branch_0__Conv2d_1x1__BatchNorm__batchnorm__add_1__scale"
  type: "Scale"
  bottom: "InceptionResnetV1__Repeat_1__block17_10__Branch_0__Conv2d_1x1__BatchNorm__batchnorm__add_1"
  top: "InceptionResnetV1__Repeat_1__block17_10__Branch_0__Conv2d_1x1__BatchNorm__batchnorm__add_1__scale"
  scale_param {
    bias_term: true
  }
}
layer {
  name: "InceptionResnetV1__Repeat_1__block17_10__Branch_1__Conv2d_0a_1x1__Relu"
  type: "ReLU"
  bottom: "InceptionResnetV1__Repeat_1__block17_10__Branch_1__Conv2d_0a_1x1__BatchNorm__batchnorm__add_1__scale"
  top: "InceptionResnetV1__Repeat_1__block17_10__Branch_1__Conv2d_0a_1x1__Relu"
}
layer {
  name: "InceptionResnetV1__Repeat_1__block17_10__Branch_0__Conv2d_1x1__Relu"
  type: "ReLU"
  bottom: "InceptionResnetV1__Repeat_1__block17_10__Branch_0__Conv2d_1x1__BatchNorm__batchnorm__add_1__scale"
  top: "InceptionResnetV1__Repeat_1__block17_10__Branch_0__Conv2d_1x1__Relu"
}
layer {
  name: "InceptionResnetV1__Repeat_1__block17_10__Branch_1__Conv2d_0b_1x7__convolution"
  type: "Convolution"
  bottom: "InceptionResnetV1__Repeat_1__block17_10__Branch_1__Conv2d_0a_1x1__Relu"
  top: "InceptionResnetV1__Repeat_1__block17_10__Branch_1__Conv2d_0b_1x7__convolution"
  convolution_param {
    num_output: 128
    bias_term: false
    kernel_h: 1
    kernel_w: 7
    stride_h: 1
    stride_w: 1
    pad_l: 3
    pad_r: 3
    pad_t: 0
    pad_b: 0
  }
}
layer {
  name: "InceptionResnetV1__Repeat_1__block17_10__Branch_1__Conv2d_0b_1x7__BatchNorm__batchnorm__add_1"
  type: "BatchNorm"
  bottom: "InceptionResnetV1__Repeat_1__block17_10__Branch_1__Conv2d_0b_1x7__convolution"
  top: "InceptionResnetV1__Repeat_1__block17_10__Branch_1__Conv2d_0b_1x7__BatchNorm__batchnorm__add_1"
  batch_norm_param {
    use_global_stats: true
    eps: 0.0010000000475
  }
}
layer {
  name: "InceptionResnetV1__Repeat_1__block17_10__Branch_1__Conv2d_0b_1x7__BatchNorm__batchnorm__add_1__scale"
  type: "Scale"
  bottom: "InceptionResnetV1__Repeat_1__block17_10__Branch_1__Conv2d_0b_1x7__BatchNorm__batchnorm__add_1"
  top: "InceptionResnetV1__Repeat_1__block17_10__Branch_1__Conv2d_0b_1x7__BatchNorm__batchnorm__add_1__scale"
  scale_param {
    bias_term: true
  }
}
layer {
  name: "InceptionResnetV1__Repeat_1__block17_10__Branch_1__Conv2d_0b_1x7__Relu"
  type: "ReLU"
  bottom: "InceptionResnetV1__Repeat_1__block17_10__Branch_1__Conv2d_0b_1x7__BatchNorm__batchnorm__add_1__scale"
  top: "InceptionResnetV1__Repeat_1__block17_10__Branch_1__Conv2d_0b_1x7__Relu"
}
layer {
  name: "InceptionResnetV1__Repeat_1__block17_10__Branch_1__Conv2d_0c_7x1__convolution"
  type: "Convolution"
  bottom: "InceptionResnetV1__Repeat_1__block17_10__Branch_1__Conv2d_0b_1x7__Relu"
  top: "InceptionResnetV1__Repeat_1__block17_10__Branch_1__Conv2d_0c_7x1__convolution"
  convolution_param {
    num_output: 128
    bias_term: false
    kernel_h: 7
    kernel_w: 1
    stride_h: 1
    stride_w: 1
    pad_l: 0
    pad_r: 0
    pad_t: 3
    pad_b: 3
  }
}
layer {
  name: "InceptionResnetV1__Repeat_1__block17_10__Branch_1__Conv2d_0c_7x1__BatchNorm__batchnorm__add_1"
  type: "BatchNorm"
  bottom: "InceptionResnetV1__Repeat_1__block17_10__Branch_1__Conv2d_0c_7x1__convolution"
  top: "InceptionResnetV1__Repeat_1__block17_10__Branch_1__Conv2d_0c_7x1__BatchNorm__batchnorm__add_1"
  batch_norm_param {
    use_global_stats: true
    eps: 0.0010000000475
  }
}
layer {
  name: "InceptionResnetV1__Repeat_1__block17_10__Branch_1__Conv2d_0c_7x1__BatchNorm__batchnorm__add_1__scale"
  type: "Scale"
  bottom: "InceptionResnetV1__Repeat_1__block17_10__Branch_1__Conv2d_0c_7x1__BatchNorm__batchnorm__add_1"
  top: "InceptionResnetV1__Repeat_1__block17_10__Branch_1__Conv2d_0c_7x1__BatchNorm__batchnorm__add_1__scale"
  scale_param {
    bias_term: true
  }
}
layer {
  name: "InceptionResnetV1__Repeat_1__block17_10__Branch_1__Conv2d_0c_7x1__Relu"
  type: "ReLU"
  bottom: "InceptionResnetV1__Repeat_1__block17_10__Branch_1__Conv2d_0c_7x1__BatchNorm__batchnorm__add_1__scale"
  top: "InceptionResnetV1__Repeat_1__block17_10__Branch_1__Conv2d_0c_7x1__Relu"
}
layer {
  name: "InceptionResnetV1__Repeat_1__block17_10__concat"
  type: "Concat"
  bottom: "InceptionResnetV1__Repeat_1__block17_10__Branch_0__Conv2d_1x1__Relu"
  bottom: "InceptionResnetV1__Repeat_1__block17_10__Branch_1__Conv2d_0c_7x1__Relu"
  top: "InceptionResnetV1__Repeat_1__block17_10__concat"
  concat_param {
    axis: 1
  }
}
layer {
  name: "InceptionResnetV1__Repeat_1__block17_10__Conv2d_1x1__convolution"
  type: "Convolution"
  bottom: "InceptionResnetV1__Repeat_1__block17_10__concat"
  top: "InceptionResnetV1__Repeat_1__block17_10__Conv2d_1x1__convolution"
  convolution_param {
    num_output: 896
    bias_term: false
    kernel_h: 1
    kernel_w: 1
    stride_h: 1
    stride_w: 1
    pad_l: 0
    pad_r: 0
    pad_t: 0
    pad_b: 0
  }
}
layer {
  name: "InceptionResnetV1__Repeat_1__block17_10__Conv2d_1x1__BiasAdd"
  type: "Bias"
  bottom: "InceptionResnetV1__Repeat_1__block17_10__Conv2d_1x1__convolution"
  top: "InceptionResnetV1__Repeat_1__block17_10__Conv2d_1x1__BiasAdd"
}
layer {
  name: "InceptionResnetV1__Repeat_1__block17_10__mul"
  type: "Power"
  bottom: "InceptionResnetV1__Repeat_1__block17_10__Conv2d_1x1__BiasAdd"
  top: "InceptionResnetV1__Repeat_1__block17_10__mul"
  power_param {
    scale: 0.10000000149
  }
}
layer {
  name: "InceptionResnetV1__Repeat_1__block17_10__add"
  type: "Eltwise"
  bottom: "InceptionResnetV1__Repeat_1__block17_9__Relu"
  bottom: "InceptionResnetV1__Repeat_1__block17_10__mul"
  top: "InceptionResnetV1__Repeat_1__block17_10__add"
  eltwise_param {
    operation: SUM
  }
}
layer {
  name: "InceptionResnetV1__Repeat_1__block17_10__Relu"
  type: "ReLU"
  bottom: "InceptionResnetV1__Repeat_1__block17_10__add"
  top: "InceptionResnetV1__Repeat_1__block17_10__Relu"
}
layer {
  name: "InceptionResnetV1__Mixed_7a__Branch_3__MaxPool_1a_3x3__MaxPool"
  type: "Pooling"
  bottom: "InceptionResnetV1__Repeat_1__block17_10__Relu"
  top: "InceptionResnetV1__Mixed_7a__Branch_3__MaxPool_1a_3x3__MaxPool"
  pooling_param {
    pool: MAX
    kernel_h: 3
    kernel_w: 3
    stride_h: 2
    stride_w: 2
    ceil_mode: false
    pad_l: 0
    pad_r: 0
    pad_t: 0
    pad_b: 0
  }
}
layer {
  name: "InceptionResnetV1__Mixed_7a__Branch_2__Conv2d_0a_1x1__convolution"
  type: "Convolution"
  bottom: "InceptionResnetV1__Repeat_1__block17_10__Relu"
  top: "InceptionResnetV1__Mixed_7a__Branch_2__Conv2d_0a_1x1__convolution"
  convolution_param {
    num_output: 256
    bias_term: false
    kernel_h: 1
    kernel_w: 1
    stride_h: 1
    stride_w: 1
    pad_l: 0
    pad_r: 0
    pad_t: 0
    pad_b: 0
  }
}
layer {
  name: "InceptionResnetV1__Mixed_7a__Branch_1__Conv2d_0a_1x1__convolution"
  type: "Convolution"
  bottom: "InceptionResnetV1__Repeat_1__block17_10__Relu"
  top: "InceptionResnetV1__Mixed_7a__Branch_1__Conv2d_0a_1x1__convolution"
  convolution_param {
    num_output: 256
    bias_term: false
    kernel_h: 1
    kernel_w: 1
    stride_h: 1
    stride_w: 1
    pad_l: 0
    pad_r: 0
    pad_t: 0
    pad_b: 0
  }
}
layer {
  name: "InceptionResnetV1__Mixed_7a__Branch_0__Conv2d_0a_1x1__convolution"
  type: "Convolution"
  bottom: "InceptionResnetV1__Repeat_1__block17_10__Relu"
  top: "InceptionResnetV1__Mixed_7a__Branch_0__Conv2d_0a_1x1__convolution"
  convolution_param {
    num_output: 256
    bias_term: false
    kernel_h: 1
    kernel_w: 1
    stride_h: 1
    stride_w: 1
    pad_l: 0
    pad_r: 0
    pad_t: 0
    pad_b: 0
  }
}
layer {
  name: "InceptionResnetV1__Mixed_7a__Branch_2__Conv2d_0a_1x1__BatchNorm__batchnorm__add_1"
  type: "BatchNorm"
  bottom: "InceptionResnetV1__Mixed_7a__Branch_2__Conv2d_0a_1x1__convolution"
  top: "InceptionResnetV1__Mixed_7a__Branch_2__Conv2d_0a_1x1__BatchNorm__batchnorm__add_1"
  batch_norm_param {
    use_global_stats: true
    eps: 0.0010000000475
  }
}
layer {
  name: "InceptionResnetV1__Mixed_7a__Branch_2__Conv2d_0a_1x1__BatchNorm__batchnorm__add_1__scale"
  type: "Scale"
  bottom: "InceptionResnetV1__Mixed_7a__Branch_2__Conv2d_0a_1x1__BatchNorm__batchnorm__add_1"
  top: "InceptionResnetV1__Mixed_7a__Branch_2__Conv2d_0a_1x1__BatchNorm__batchnorm__add_1__scale"
  scale_param {
    bias_term: true
  }
}
layer {
  name: "InceptionResnetV1__Mixed_7a__Branch_1__Conv2d_0a_1x1__BatchNorm__batchnorm__add_1"
  type: "BatchNorm"
  bottom: "InceptionResnetV1__Mixed_7a__Branch_1__Conv2d_0a_1x1__convolution"
  top: "InceptionResnetV1__Mixed_7a__Branch_1__Conv2d_0a_1x1__BatchNorm__batchnorm__add_1"
  batch_norm_param {
    use_global_stats: true
    eps: 0.0010000000475
  }
}
layer {
  name: "InceptionResnetV1__Mixed_7a__Branch_1__Conv2d_0a_1x1__BatchNorm__batchnorm__add_1__scale"
  type: "Scale"
  bottom: "InceptionResnetV1__Mixed_7a__Branch_1__Conv2d_0a_1x1__BatchNorm__batchnorm__add_1"
…
  name: "InceptionResnetV1__Mixed_7a__Branch_0__Conv2d_1a_3x3__BatchNorm__batchnorm__add_1__scale"
  type: "Scale"
  bottom: "InceptionResnetV1__Mixed_7a__Branch_0__Conv2d_1a_3x3__BatchNorm__batchnorm__add_1"
  top: "InceptionResnetV1__Mixed_7a__Branch_0__Conv2d_1a_3x3__BatchNorm__batchnorm__add_1__scale"
  scale_param {
    bias_term: true
  }
}
layer {
  name: "InceptionResnetV1__Mixed_7a__Branch_2__Conv2d_0b_3x3__Relu"
  type: "ReLU"
  bottom: "InceptionResnetV1__Mixed_7a__Branch_2__Conv2d_0b_3x3__BatchNorm__batchnorm__add_1__scale"
  top: "InceptionResnetV1__Mixed_7a__Branch_2__Conv2d_0b_3x3__Relu"
}
layer {
  name: "InceptionResnetV1__Mixed_7a__Branch_1__Conv2d_1a_3x3__Relu"
  type: "ReLU"
  bottom: "InceptionResnetV1__Mixed_7a__Branch_1__Conv2d_1a_3x3__BatchNorm__batchnorm__add_1__scale"
  top: "InceptionResnetV1__Mixed_7a__Branch_1__Conv2d_1a_3x3__Relu"
}
layer {
  name: "InceptionResnetV1__Mixed_7a__Branch_0__Conv2d_1a_3x3__Relu"
  type: "ReLU"
  bottom: "InceptionResnetV1__Mixed_7a__Branch_0__Conv2d_1a_3x3__BatchNorm__batchnorm__add_1__scale"
  top: "InceptionResnetV1__Mixed_7a__Branch_0__Conv2d_1a_3x3__Relu"
}
layer {
  name: "InceptionResnetV1__Mixed_7a__Branch_2__Conv2d_1a_3x3__convolution"
  type: "Convolution"
  bottom: "InceptionResnetV1__Mixed_7a__Branch_2__Conv2d_0b_3x3__Relu"
  top: "InceptionResnetV1__Mixed_7a__Branch_2__Conv2d_1a_3x3__convolution"
  convolution_param {
    num_output: 256
    bias_term: false
    kernel_h: 3
    kernel_w: 3
    stride_h: 2
    stride_w: 2
    pad_l: 0
    pad_r: 0
    pad_t: 0
    pad_b: 0
  }
}
layer {
  name: "InceptionResnetV1__Mixed_7a__Branch_2__Conv2d_1a_3x3__BatchNorm__batchnorm__add_1"
  type: "BatchNorm"
  bottom: "InceptionResnetV1__Mixed_7a__Branch_2__Conv2d_1a_3x3__convolution"
  top: "InceptionResnetV1__Mixed_7a__Branch_2__Conv2d_1a_3x3__BatchNorm__batchnorm__add_1"
  batch_norm_param {
    use_global_stats: true
    eps: 0.0010000000475
  }
}
layer {
  name: "InceptionResnetV1__Mixed_7a__Branch_2__Conv2d_1a_3x3__BatchNorm__batchnorm__add_1__scale"
  type: "Scale"
  bottom: "InceptionResnetV1__Mixed_7a__Branch_2__Conv2d_1a_3x3__BatchNorm__batchnorm__add_1"
  top: "InceptionResnetV1__Mixed_7a__Branch_2__Conv2d_1a_3x3__BatchNorm__batchnorm__add_1__scale"
  scale_param {
    bias_term: true
  }
}
layer {
  name: "InceptionResnetV1__Mixed_7a__Branch_2__Conv2d_1a_3x3__Relu"
  type: "ReLU"
  bottom: "InceptionResnetV1__Mixed_7a__Branch_2__Conv2d_1a_3x3__BatchNorm__batchnorm__add_1__scale"
  top: "InceptionResnetV1__Mixed_7a__Branch_2__Conv2d_1a_3x3__Relu"
}
layer {
  name: "InceptionResnetV1__Mixed_7a__concat"
  type: "Concat"
  bottom: "InceptionResnetV1__Mixed_7a__Branch_0__Conv2d_1a_3x3__Relu"
  bottom: "InceptionResnetV1__Mixed_7a__Branch_1__Conv2d_1a_3x3__Relu"
  bottom: "InceptionResnetV1__Mixed_7a__Branch_2__Conv2d_1a_3x3__Relu"
  bottom: "InceptionResnetV1__Mixed_7a__Branch_3__MaxPool_1a_3x3__MaxPool"
  top: "InceptionResnetV1__Mixed_7a__concat"
  concat_param {
    axis: 1
  }
}
layer {
  name: "InceptionResnetV1__Repeat_2__block8_1__Branch_1__Conv2d_0a_1x1__convolution"
  type: "Convolution"
  bottom: "InceptionResnetV1__Mixed_7a__concat"
  top: "InceptionResnetV1__Repeat_2__block8_1__Branch_1__Conv2d_0a_1x1__convolution"
  convolution_param {
    num_output: 192
    bias_term: false
    kernel_h: 1
    kernel_w: 1
    stride_h: 1
    stride_w: 1
    pad_l: 0
    pad_r: 0
    pad_t: 0
    pad_b: 0
  }
}
layer {
  name: "InceptionResnetV1__Repeat_2__block8_1__Branch_0__Conv2d_1x1__convolution"
  type: "Convolution"
  bottom: "InceptionResnetV1__Mixed_7a__concat"
  top: "InceptionResnetV1__Repeat_2__block8_1__Branch_0__Conv2d_1x1__convolution"
  convolution_param {
    num_output: 192
    bias_term: false
    kernel_h: 1
    kernel_w: 1
    stride_h: 1
    stride_w: 1
    pad_l: 0
    pad_r: 0
    pad_t: 0
    pad_b: 0
  }
}
layer {
  name: "InceptionResnetV1__Repeat_2__block8_1__Branch_1__Conv2d_0a_1x1__BatchNorm__batchnorm__add_1"
  type: "BatchNorm"
  bottom: "InceptionResnetV1__Repeat_2__block8_1__Branch_1__Conv2d_0a_1x1__convolution"
  top: "InceptionResnetV1__Repeat_2__block8_1__Branch_1__Conv2d_0a_1x1__BatchNorm__batchnorm__add_1"
  batch_norm_param {
    use_global_stats: true
    eps: 0.0010000000475
  }
}
layer {
  name: "InceptionResnetV1__Repeat_2__block8_1__Branch_1__Conv2d_0a_1x1__BatchNorm__batchnorm__add_1__scale"
  type: "Scale"
  bottom: "InceptionResnetV1__Repeat_2__block8_1__Branch_1__Conv2d_0a_1x1__BatchNorm__batchnorm__add_1"
  top: "InceptionResnetV1__Repeat_2__block8_1__Branch_1__Conv2d_0a_1x1__BatchNorm__batchnorm__add_1__scale"
  scale_param {
    bias_term: true
  }
}
layer {
  name: "InceptionResnetV1__Repeat_2__block8_1__Branch_0__Conv2d_1x1__BatchNorm__batchnorm__add_1"
  type: "BatchNorm"
  bottom: "InceptionResnetV1__Repeat_2__block8_1__Branch_0__Conv2d_1x1__convolution"
  top: "InceptionResnetV1__Repeat_2__block8_1__Branch_0__Conv2d_1x1__BatchNorm__batchnorm__add_1"
  batch_norm_param {
    use_global_stats: true
    eps: 0.0010000000475
  }
}
layer {
  name: "InceptionResnetV1__Repeat_2__block8_1__Branch_0__Conv2d_1x1__BatchNorm__batchnorm__add_1__scale"
  type: "Scale"
  bottom: "InceptionResnetV1__Repeat_2__block8_1__Branch_0__Conv2d_1x1__BatchNorm__batchnorm__add_1"
  top: "InceptionResnetV1__Repeat_2__block8_1__Branch_0__Conv2d_1x1__BatchNorm__batchnorm__add_1__scale"
  scale_param {
    bias_term: true
  }
}
layer {
  name: "InceptionResnetV1__Repeat_2__block8_1__Branch_1__Conv2d_0a_1x1__Relu"
  type: "ReLU"
  bottom: "InceptionResnetV1__Repeat_2__block8_1__Branch_1__Conv2d_0a_1x1__BatchNorm__batchnorm__add_1__scale"
  top: "InceptionResnetV1__Repeat_2__block8_1__Branch_1__Conv2d_0a_1x1__Relu"
}
layer {
  name: "InceptionResnetV1__Repeat_2__block8_1__Branch_0__Conv2d_1x1__Relu"
  type: "ReLU"
  bottom: "InceptionResnetV1__Repeat_2__block8_1__Branch_0__Conv2d_1x1__BatchNorm__batchnorm__add_1__scale"
  top: "InceptionResnetV1__Repeat_2__block8_1__Branch_0__Conv2d_1x1__Relu"
}
layer {
  name: "InceptionResnetV1__Repeat_2__block8_1__Branch_1__Conv2d_0b_1x3__convolution"
  type: "Convolution"
  bottom: "InceptionResnetV1__Repeat_2__block8_1__Branch_1__Conv2d_0a_1x1__Relu"
  top: "InceptionResnetV1__Repeat_2__block8_1__Branch_1__Conv2d_0b_1x3__convolution"
  convolution_param {
    num_output: 192
    bias_term: false
    kernel_h: 1
    kernel_w: 3
    stride_h: 1
    stride_w: 1
    pad_l: 1
    pad_r: 1
    pad_t: 0
    pad_b: 0
  }
}
layer {
  name: "InceptionResnetV1__Repeat_2__block8_1__Branch_1__Conv2d_0b_1x3__BatchNorm__batchnorm__add_1"
  type: "BatchNorm"
  bottom: "InceptionResnetV1__Repeat_2__block8_1__Branch_1__Conv2d_0b_1x3__convolution"
  top: "InceptionResnetV1__Repeat_2__block8_1__Branch_1__Conv2d_0b_1x3__BatchNorm__batchnorm__add_1"
  batch_norm_param {
    use_global_stats: true
    eps: 0.0010000000475
  }
}
layer {
  name: "InceptionResnetV1__Repeat_2__block8_1__Branch_1__Conv2d_0b_1x3__BatchNorm__batchnorm__add_1__scale"
  type: "Scale"
  bottom: "InceptionResnetV1__Repeat_2__block8_1__Branch_1__Conv2d_0b_1x3__BatchNorm__batchnorm__add_1"
  top: "InceptionResnetV1__Repeat_2__block8_1__Branch_1__Conv2d_0b_1x3__BatchNorm__batchnorm__add_1__scale"
  scale_param {
    bias_term: true
  }
}
layer {
  name: "InceptionResnetV1__Repeat_2__block8_1__Branch_1__Conv2d_0b_1x3__Relu"
  type: "ReLU"
  bottom: "InceptionResnetV1__Repeat_2__block8_1__Branch_1__Conv2d_0b_1x3__BatchNorm__batchnorm__add_1__scale"
  top: "InceptionResnetV1__Repeat_2__block8_1__Branch_1__Conv2d_0b_1x3__Relu"
}
layer {
  name: "InceptionResnetV1__Repeat_2__block8_1__Branch_1__Conv2d_0c_3x1__convolution"
  type: "Convolution"
  bottom: "InceptionResnetV1__Repeat_2__block8_1__Branch_1__Conv2d_0b_1x3__Relu"
  top: "InceptionResnetV1__Repeat_2__block8_1__Branch_1__Conv2d_0c_3x1__convolution"
  convolution_param {
    num_output: 192
    bias_term: false
    kernel_h: 3
    kernel_w: 1
    stride_h: 1
    stride_w: 1
    pad_l: 0
    pad_r: 0
    pad_t: 1
    pad_b: 1
  }
}
layer {
  name: "InceptionResnetV1__Repeat_2__block8_1__Branch_1__Conv2d_0c_3x1__BatchNorm__batchnorm__add_1"
  type: "BatchNorm"
  bottom: "InceptionResnetV1__Repeat_2__block8_1__Branch_1__Conv2d_0c_3x1__convolution"
  top: "InceptionResnetV1__Repeat_2__block8_1__Branch_1__Conv2d_0c_3x1__BatchNorm__batchnorm__add_1"
  batch_norm_param {
    use_global_stats: true
    eps: 0.0010000000475
  }
}
layer {
  name: "InceptionResnetV1__Repeat_2__block8_1__Branch_1__Conv2d_0c_3x1__BatchNorm__batchnorm__add_1__scale"
  type: "Scale"
  bottom: "InceptionResnetV1__Repeat_2__block8_1__Branch_1__Conv2d_0c_3x1__BatchNorm__batchnorm__add_1"
  top: "InceptionResnetV1__Repeat_2__block8_1__Branch_1__Conv2d_0c_3x1__BatchNorm__batchnorm__add_1__scale"
  scale_param {
    bias_term: true
  }
}
layer {
  name: "InceptionResnetV1__Repeat_2__block8_1__Branch_1__Conv2d_0c_3x1__Relu"
  type: "ReLU"
  bottom: "InceptionResnetV1__Repeat_2__block8_1__Branch_1__Conv2d_0c_3x1__BatchNorm__batchnorm__add_1__scale"
  top: "InceptionResnetV1__Repeat_2__block8_1__Branch_1__Conv2d_0c_3x1__Relu"
}
layer {
  name: "InceptionResnetV1__Repeat_2__block8_1__concat"
  type: "Concat"
  bottom: "InceptionResnetV1__Repeat_2__block8_1__Branch_0__Conv2d_1x1__Relu"
  bottom: "InceptionResnetV1__Repeat_2__block8_1__Branch_1__Conv2d_0c_3x1__Relu"
  top: "InceptionResnetV1__Repeat_2__block8_1__concat"
  concat_param {
    axis: 1
  }
}
layer {
  name: "InceptionResnetV1__Repeat_2__block8_1__Conv2d_1x1__convolution"
  type: "Convolution"
  bottom: "InceptionResnetV1__Repeat_2__block8_1__concat"
  top: "InceptionResnetV1__Repeat_2__block8_1__Conv2d_1x1__convolution"
  convolution_param {
    num_output: 1792
    bias_term: false
    kernel_h: 1
    kernel_w: 1
    stride_h: 1
    stride_w: 1
    pad_l: 0
    pad_r: 0
    pad_t: 0
    pad_b: 0
  }
}
layer {
  name: "InceptionResnetV1__Repeat_2__block8_1__Conv2d_1x1__BiasAdd"
  type: "Bias"
  bottom: "InceptionResnetV1__Repeat_2__block8_1__Conv2d_1x1__convolution"
  top: "InceptionResnetV1__Repeat_2__block8_1__Conv2d_1x1__BiasAdd"
}
layer {
  name: "InceptionResnetV1__Repeat_2__block8_1__mul"
  type: "Power"
  bottom: "InceptionResnetV1__Repeat_2__block8_1__Conv2d_1x1__BiasAdd"
  top: "InceptionResnetV1__Repeat_2__block8_1__mul"
  power_param {
    scale: 0.20000000298
  }
}
layer {
  name: "InceptionResnetV1__Repeat_2__block8_1__add"
  type: "Eltwise"
  bottom: "InceptionResnetV1__Mixed_7a__concat"
  bottom: "InceptionResnetV1__Repeat_2__block8_1__mul"
  top: "InceptionResnetV1__Repeat_2__block8_1__add"
  eltwise_param {
    operation: SUM
  }
}
layer {
  name: "InceptionResnetV1__Repeat_2__block8_1__Relu"
  type: "ReLU"
  bottom: "InceptionResnetV1__Repeat_2__block8_1__add"
  top: "InceptionResnetV1__Repeat_2__block8_1__Relu"
}
layer {
  name: "InceptionResnetV1__Repeat_2__block8_2__Branch_1__Conv2d_0a_1x1__convolution"
  type: "Convolution"
  bottom: "InceptionResnetV1__Repeat_2__block8_1__Relu"
  top: "InceptionResnetV1__Repeat_2__block8_2__Branch_1__Conv2d_0a_1x1__convolution"
  convolution_param {
    num_output: 192
    bias_term: false
    kernel_h: 1
    kernel_w: 1
    stride_h: 1
    stride_w: 1
    pad_l: 0
    pad_r: 0
    pad_t: 0
    pad_b: 0
  }
}
layer {
  name: "InceptionResnetV1__Repeat_2__block8_2__Branch_0__Conv2d_1x1__convolution"
  type: "Convolution"
  bottom: "InceptionResnetV1__Repeat_2__block8_1__Relu"
  top: "InceptionResnetV1__Repeat_2__block8_2__Branch_0__Conv2d_1x1__convolution"
  convolution_param {
    num_output: 192
    bias_term: false
    kernel_h: 1
    kernel_w: 1
    stride_h: 1
    stride_w: 1
    pad_l: 0
    pad_r: 0
    pad_t: 0
    pad_b: 0
  }
}
layer {
  name: "InceptionResnetV1__Repeat_2__block8_2__Branch_1__Conv2d_0a_1x1__BatchNorm__batchnorm__add_1"
  type: "BatchNorm"
  bottom: "InceptionResnetV1__Repeat_2__block8_2__Branch_1__Conv2d_0a_1x1__convolution"
  top: "InceptionResnetV1__Repeat_2__block8_2__Branch_1__Conv2d_0a_1x1__BatchNorm__batchnorm__add_1"
  batch_norm_param {
    use_global_stats: true
    eps: 0.0010000000475
  }
}
layer {
  name: "InceptionResnetV1__Repeat_2__block8_2__Branch_1__Conv2d_0a_1x1__BatchNorm__batchnorm__add_1__scale"
  type: "Scale"
  bottom: "InceptionResnetV1__Repeat_2__block8_2__Branch_1__Conv2d_0a_1x1__BatchNorm__batchnorm__add_1"
  top: "InceptionResnetV1__Repeat_2__block8_2__Branch_1__Conv2d_0a_1x1__BatchNorm__batchnorm__add_1__scale"
  scale_param {
    bias_term: true
  }
}
layer {
  name: "InceptionResnetV1__Repeat_2__block8_2__Branch_0__Conv2d_1x1__BatchNorm__batchnorm__add_1"
  type: "BatchNorm"
  bottom: "InceptionResnetV1__Repeat_2__block8_2__Branch_0__Conv2d_1x1__convolution"
  top: "InceptionResnetV1__Repeat_2__block8_2__Branch_0__Conv2d_1x1__BatchNorm__batchnorm__add_1"
  batch_norm_param {
    use_global_stats: true
    eps: 0.0010000000475
  }
}
layer {
  name: "InceptionResnetV1__Repeat_2__block8_2__Branch_0__Conv2d_1x1__BatchNorm__batchnorm__add_1__scale"
  type: "Scale"
  bottom: "InceptionResnetV1__Repeat_2__block8_2__Branch_0__Conv2d_1x1__BatchNorm__batchnorm__add_1"
  top: "InceptionResnetV1__Repeat_2__block8_2__Branch_0__Conv2d_1x1__BatchNorm__batchnorm__add_1__scale"
  scale_param {
    bias_term: true
  }
}
layer {
  name: "InceptionResnetV1__Repeat_2__block8_2__Branch_1__Conv2d_0a_1x1__Relu"
  type: "ReLU"
  bottom: "InceptionResnetV1__Repeat_2__block8_2__Branch_1__Conv2d_0a_1x1__BatchNorm__batchnorm__add_1__scale"
  top: "InceptionResnetV1__Repeat_2__block8_2__Branch_1__Conv2d_0a_1x1__Relu"
}
layer {
  name: "InceptionResnetV1__Repeat_2__block8_2__Branch_0__Conv2d_1x1__Relu"
  type: "ReLU"
  bottom: "InceptionResnetV1__Repeat_2__block8_2__Branch_0__Conv2d_1x1__BatchNorm__batchnorm__add_1__scale"
  top: "InceptionResnetV1__Repeat_2__block8_2__Branch_0__Conv2d_1x1__Relu"
}
layer {
  name: "InceptionResnetV1__Repeat_2__block8_2__Branch_1__Conv2d_0b_1x3__convolution"
  type: "Convolution"
  bottom: "InceptionResnetV1__Repeat_2__block8_2__Branch_1__Conv2d_0a_1x1__Relu"
  top: "InceptionResnetV1__Repeat_2__block8_2__Branch_1__Conv2d_0b_1x3__convolution"
  convolution_param {
    num_output: 192
    bias_term: false
    kernel_h: 1
    kernel_w: 3
    stride_h: 1
    stride_w: 1
    pad_l: 1
    pad_r: 1
    pad_t: 0
    pad_b: 0
  }
}
layer {
  name: "InceptionResnetV1__Repeat_2__block8_2__Branch_1__Conv2d_0b_1x3__BatchNorm__batchnorm__add_1"
  type: "BatchNorm"
  bottom: "InceptionResnetV1__Repeat_2__block8_2__Branch_1__Conv2d_0b_1x3__convolution"
  top: "InceptionResnetV1__Repeat_2__block8_2__Branch_1__Conv2d_0b_1x3__BatchNorm__batchnorm__add_1"
  batch_norm_param {
    use_global_stats: true
    eps: 0.0010000000475
  }
}
layer {
  name: "InceptionResnetV1__Repeat_2__block8_2__Branch_1__Conv2d_0b_1x3__BatchNorm__batchnorm__add_1__scale"
  type: "Scale"
  bottom: "InceptionResnetV1__Repeat_2__block8_2__Branch_1__Conv2d_0b_1x3__BatchNorm__batchnorm__add_1"
  top: "InceptionResnetV1__Repeat_2__block8_2__Branch_1__Conv2d_0b_1x3__BatchNorm__batchnorm__add_1__scale"
  scale_param {
    bias_term: true
  }
}
layer {
  name: "InceptionResnetV1__Repeat_2__block8_2__Branch_1__Conv2d_0b_1x3__Relu"
  type: "ReLU"
  bottom: "InceptionResnetV1__Repeat_2__block8_2__Branch_1__Conv2d_0b_1x3__BatchNorm__batchnorm__add_1__scale"
  top: "InceptionResnetV1__Repeat_2__block8_2__Branch_1__Conv2d_0b_1x3__Relu"
}
layer {
  name: "InceptionResnetV1__Repeat_2__block8_2__Branch_1__Conv2d_0c_3x1__convolution"
  type: "Convolution"
  bottom: "InceptionResnetV1__Repeat_2__block8_2__Branch_1__Conv2d_0b_1x3__Relu"
  top: "InceptionResnetV1__Repeat_2__block8_2__Branch_1__Conv2d_0c_3x1__convolution"
  convolution_param {
    num_output: 192
    bias_term: false
    kernel_h: 3
    kernel_w: 1
    stride_h: 1
    stride_w: 1
    pad_l: 0
    pad_r: 0
    pad_t: 1
    pad_b: 1
  }
}
layer {
  name: "InceptionResnetV1__Repeat_2__block8_2__Branch_1__Conv2d_0c_3x1__BatchNorm__batchnorm__add_1"
  type: "BatchNorm"
  bottom: "InceptionResnetV1__Repeat_2__block8_2__Branch_1__Conv2d_0c_3x1__convolution"
  top: "InceptionResnetV1__Repeat_2__block8_2__Branch_1__Conv2d_0c_3x1__BatchNorm__batchnorm__add_1"
  batch_norm_param {
    use_global_stats: true
    eps: 0.0010000000475
  }
}
layer {
  name: "InceptionResnetV1__Repeat_2__block8_2__Branch_1__Conv2d_0c_3x1__BatchNorm__batchnorm__add_1__scale"
  type: "Scale"
  bottom: "InceptionResnetV1__Repeat_2__block8_2__Branch_1__Conv2d_0c_3x1__BatchNorm__batchnorm__add_1"
  top: "InceptionResnetV1__Repeat_2__block8_2__Branch_1__Conv2d_0c_3x1__BatchNorm__batchnorm__add_1__scale"
  scale_param {
    bias_term: true
  }
}
layer {
  name: "InceptionResnetV1__Repeat_2__block8_2__Branch_1__Conv2d_0c_3x1__Relu"
  type: "ReLU"
  bottom: "InceptionResnetV1__Repeat_2__block8_2__Branch_1__Conv2d_0c_3x1__BatchNorm__batchnorm__add_1__scale"
  top: "InceptionResnetV1__Repeat_2__block8_2__Branch_1__Conv2d_0c_3x1__Relu"
}
layer {
  name: "InceptionResnetV1__Repeat_2__block8_2__concat"
  type: "Concat"
  bottom: "InceptionResnetV1__Repeat_2__block8_2__Branch_0__Conv2d_1x1__Relu"
  bottom: "InceptionResnetV1__Repeat_2__block8_2__Branch_1__Conv2d_0c_3x1__Relu"
  top: "InceptionResnetV1__Repeat_2__block8_2__concat"
  concat_param {
    axis: 1
  }
}
layer {
  name: "InceptionResnetV1__Repeat_2__block8_2__Conv2d_1x1__convolution"
  type: "Convolution"
  bottom: "InceptionResnetV1__Repeat_2__block8_2__concat"
  top: "InceptionResnetV1__Repeat_2__block8_2__Conv2d_1x1__convolution"
  convolution_param {
    num_output: 1792
    bias_term: false
    kernel_h: 1
    kernel_w: 1
    stride_h: 1
    stride_w: 1
    pad_l: 0
    pad_r: 0
    pad_t: 0
    pad_b: 0
  }
}
layer {
  name: "InceptionResnetV1__Repeat_2__block8_2__Conv2d_1x1__BiasAdd"
  type: "Bias"
  bottom: "InceptionResnetV1__Repeat_2__block8_2__Conv2d_1x1__convolution"
  top: "InceptionResnetV1__Repeat_2__block8_2__Conv2d_1x1__BiasAdd"
}
layer {
  name: "InceptionResnetV1__Repeat_2__block8_2__mul"
  type: "Power"
  bottom: "InceptionResnetV1__Repeat_2__block8_2__Conv2d_1x1__BiasAdd"
  top: "InceptionResnetV1__Repeat_2__block8_2__mul"
  power_param {
    scale: 0.20000000298
  }
}
layer {
  name: "InceptionResnetV1__Repeat_2__block8_2__add"
  type: "Eltwise"
  bottom: "InceptionResnetV1__Repeat_2__block8_1__Relu"
  bottom: "InceptionResnetV1__Repeat_2__block8_2__mul"
  top: "InceptionResnetV1__Repeat_2__block8_2__add"
  eltwise_param {
    operation: SUM
  }
}
layer {
  name: "InceptionResnetV1__Repeat_2__block8_2__Relu"
  type: "ReLU"
  bottom: "InceptionResnetV1__Repeat_2__block8_2__add"
  top: "InceptionResnetV1__Repeat_2__block8_2__Relu"
}
layer {
  name: "InceptionResnetV1__Repeat_2__block8_3__Branch_1__Conv2d_0a_1x1__convolution"
  type: "Convolution"
  bottom: "InceptionResnetV1__Repeat_2__block8_2__Relu"
  top: "InceptionResnetV1__Repeat_2__block8_3__Branch_1__Conv2d_0a_1x1__convolution"
  convolution_param {
    num_output: 192
    bias_term: false
    kernel_h: 1
    kernel_w: 1
    stride_h: 1
    stride_w: 1
    pad_l: 0
    pad_r: 0
    pad_t: 0
    pad_b: 0
  }
}
layer {
  name: "InceptionResnetV1__Repeat_2__block8_3__Branch_0__Conv2d_1x1__convolution"
  type: "Convolution"
  bottom: "InceptionResnetV1__Repeat_2__block8_2__Relu"
  top: "InceptionResnetV1__Repeat_2__block8_3__Branch_0__Conv2d_1x1__convolution"
  convolution_param {
    num_output: 192
    bias_term: false
    kernel_h: 1
    kernel_w: 1
    stride_h: 1
    stride_w: 1
    pad_l: 0
    pad_r: 0
    pad_t: 0
    pad_b: 0
  }
}
layer {
  name: "InceptionResnetV1__Repeat_2__block8_3__Branch_1__Conv2d_0a_1x1__BatchNorm__batchnorm__add_1"
  type: "BatchNorm"
  bottom: "InceptionResnetV1__Repeat_2__block8_3__Branch_1__Conv2d_0a_1x1__convolution"
  top: "InceptionResnetV1__Repeat_2__block8_3__Branch_1__Conv2d_0a_1x1__BatchNorm__batchnorm__add_1"
  batch_norm_param {
    use_global_stats: true
    eps: 0.0010000000475
  }
}
layer {
  name: "InceptionResnetV1__Repeat_2__block8_3__Branch_1__Conv2d_0a_1x1__BatchNorm__batchnorm__add_1__scale"
  type: "Scale"
  bottom: "InceptionResnetV1__Repeat_2__block8_3__Branch_1__Conv2d_0a_1x1__BatchNorm__batchnorm__add_1"
  top: "InceptionResnetV1__Repeat_2__block8_3__Branch_1__Conv2d_0a_1x1__BatchNorm__batchnorm__add_1__scale"
  scale_param {
    bias_term: true
  }
}
layer {
  name: "InceptionResnetV1__Repeat_2__block8_3__Branch_0__Conv2d_1x1__BatchNorm__batchnorm__add_1"
  type: "BatchNorm"
  bottom: "InceptionResnetV1__Repeat_2__block8_3__Branch_0__Conv2d_1x1__convolution"
  top: "InceptionResnetV1__Repeat_2__block8_3__Branch_0__Conv2d_1x1__BatchNorm__batchnorm__add_1"
  batch_norm_param {
    use_global_stats: true
    eps: 0.0010000000475
  }
}
layer {
  name: "InceptionResnetV1__Repeat_2__block8_3__Branch_0__Conv2d_1x1__BatchNorm__batchnorm__add_1__scale"
  type: "Scale"
  bottom: "InceptionResnetV1__Repeat_2__block8_3__Branch_0__Conv2d_1x1__BatchNorm__batchnorm__add_1"
  top: "InceptionResnetV1__Repeat_2__block8_3__Branch_0__Conv2d_1x1__BatchNorm__batchnorm__add_1__scale"
  scale_param {
    bias_term: true
  }
}
layer {
  name: "InceptionResnetV1__Repeat_2__block8_3__Branch_1__Conv2d_0a_1x1__Relu"
  type: "ReLU"
  bottom: "InceptionResnetV1__Repeat_2__block8_3__Branch_1__Conv2d_0a_1x1__BatchNorm__batchnorm__add_1__scale"
  top: "InceptionResnetV1__Repeat_2__block8_3__Branch_1__Conv2d_0a_1x1__Relu"
}
layer {
  name: "InceptionResnetV1__Repeat_2__block8_3__Branch_0__Conv2d_1x1__Relu"
  type: "ReLU"
  bottom: "InceptionResnetV1__Repeat_2__block8_3__Branch_0__Conv2d_1x1__BatchNorm__batchnorm__add_1__scale"
  top: "InceptionResnetV1__Repeat_2__block8_3__Branch_0__Conv2d_1x1__Relu"
}
layer {
  name: "InceptionResnetV1__Repeat_2__block8_3__Branch_1__Conv2d_0b_1x3__convolution"
  type: "Convolution"
  bottom: "InceptionResnetV1__Repeat_2__block8_3__Branch_1__Conv2d_0a_1x1__Relu"
  top: "InceptionResnetV1__Repeat_2__block8_3__Branch_1__Conv2d_0b_1x3__convolution"
  convolution_param {
    num_output: 192
    bias_term: false
    kernel_h: 1
    kernel_w: 3
    stride_h: 1
    stride_w: 1
    pad_l: 1
    pad_r: 1
    pad_t: 0
    pad_b: 0
  }
}
layer {
  name: "InceptionResnetV1__Repeat_2__block8_3__Branch_1__Conv2d_0b_1x3__BatchNorm__batchnorm__add_1"
  type: "BatchNorm"
  bottom: "InceptionResnetV1__Repeat_2__block8_3__Branch_1__Conv2d_0b_1x3__convolution"
  top: "InceptionResnetV1__Repeat_2__block8_3__Branch_1__Conv2d_0b_1x3__BatchNorm__batchnorm__add_1"
  batch_norm_param {
    use_global_stats: true
    eps: 0.0010000000475
  }
}
layer {
  name: "InceptionResnetV1__Repeat_2__block8_3__Branch_1__Conv2d_0b_1x3__BatchNorm__batchnorm__add_1__scale"
  type: "Scale"
  bottom: "InceptionResnetV1__Repeat_2__block8_3__Branch_1__Conv2d_0b_1x3__BatchNorm__batchnorm__add_1"
  top: "InceptionResnetV1__Repeat_2__block8_3__Branch_1__Conv2d_0b_1x3__BatchNorm__batchnorm__add_1__scale"
  scale_param {
    bias_term: true
  }
}
layer {
  name: "InceptionResnetV1__Repeat_2__block8_3__Branch_1__Conv2d_0b_1x3__Relu"
  type: "ReLU"
  bottom: "InceptionResnetV1__Repeat_2__block8_3__Branch_1__Conv2d_0b_1x3__BatchNorm__batchnorm__add_1__scale"
  top: "InceptionResnetV1__Repeat_2__block8_3__Branch_1__Conv2d_0b_1x3__Relu"
}
layer {
  name: "InceptionResnetV1__Repeat_2__block8_3__Branch_1__Conv2d_0c_3x1__convolution"
  type: "Convolution"
  bottom: "InceptionResnetV1__Repeat_2__block8_3__Branch_1__Conv2d_0b_1x3__Relu"
  top: "InceptionResnetV1__Repeat_2__block8_3__Branch_1__Conv2d_0c_3x1__convolution"
  convolution_param {
    num_output: 192
    bias_term: false
    kernel_h: 3
    kernel_w: 1
    stride_h: 1
    stride_w: 1
    pad_l: 0
    pad_r: 0
    pad_t: 1
    pad_b: 1
  }
}
layer {
  name: "InceptionResnetV1__Repeat_2__block8_3__Branch_1__Conv2d_0c_3x1__BatchNorm__batchnorm__add_1"
  type: "BatchNorm"
  bottom: "InceptionResnetV1__Repeat_2__block8_3__Branch_1__Conv2d_0c_3x1__convolution"
  top: "InceptionResnetV1__Repeat_2__block8_3__Branch_1__Conv2d_0c_3x1__BatchNorm__batchnorm__add_1"
  batch_norm_param {
    use_global_stats: true
    eps: 0.0010000000475
  }
}
layer {
  name: "InceptionResnetV1__Repeat_2__block8_3__Branch_1__Conv2d_0c_3x1__BatchNorm__batchnorm__add_1__scale"
  type: "Scale"
  bottom: "InceptionResnetV1__Repeat_2__block8_3__Branch_1__Conv2d_0c_3x1__BatchNorm__batchnorm__add_1"
  top: "InceptionResnetV1__Repeat_2__block8_3__Branch_1__Conv2d_0c_3x1__BatchNorm__batchnorm__add_1__scale"
  scale_param {
    bias_term: true
  }
}
layer {
  name: "InceptionResnetV1__Repeat_2__block8_3__Branch_1__Conv2d_0c_3x1__Relu"
  type: "ReLU"
  bottom: "InceptionResnetV1__Repeat_2__block8_3__Branch_1__Conv2d_0c_3x1__BatchNorm__batchnorm__add_1__scale"
  top: "InceptionResnetV1__Repeat_2__block8_3__Branch_1__Conv2d_0c_3x1__Relu"
}
layer {
  name: "InceptionResnetV1__Repeat_2__block8_3__concat"
  type: "Concat"
  bottom: "InceptionResnetV1__Repeat_2__block8_3__Branch_0__Conv2d_1x1__Relu"
  bottom: "InceptionResnetV1__Repeat_2__block8_3__Branch_1__Conv2d_0c_3x1__Relu"
  top: "InceptionResnetV1__Repeat_2__block8_3__concat"
  concat_param {
    axis: 1
  }
}
layer {
  name: "InceptionResnetV1__Repeat_2__block8_3__Conv2d_1x1__convolution"
  type: "Convolution"
  bottom: "InceptionResnetV1__Repeat_2__block8_3__concat"
  top: "InceptionResnetV1__Repeat_2__block8_3__Conv2d_1x1__convolution"
  convolution_param {
    num_output: 1792
    bias_term: false
    kernel_h: 1
    kernel_w: 1
    stride_h: 1
    stride_w: 1
    pad_l: 0
    pad_r: 0
    pad_t: 0
    pad_b: 0
  }
}
layer {
  name: "InceptionResnetV1__Repeat_2__block8_3__Conv2d_1x1__BiasAdd"
  type: "Bias"
  bottom: "InceptionResnetV1__Repeat_2__block8_3__Conv2d_1x1__convolution"
  top: "InceptionResnetV1__Repeat_2__block8_3__Conv2d_1x1__BiasAdd"
}
layer {
  name: "InceptionResnetV1__Repeat_2__block8_3__mul"
  type: "Power"
  bottom: "InceptionResnetV1__Repeat_2__block8_3__Conv2d_1x1__BiasAdd"
  top: "InceptionResnetV1__Repeat_2__block8_3__mul"
  power_param {
    scale: 0.20000000298
  }
}
layer {
  name: "InceptionResnetV1__Repeat_2__block8_3__add"
  type: "Eltwise"
  bottom: "InceptionResnetV1__Repeat_2__block8_2__Relu"
  bottom: "InceptionResnetV1__Repeat_2__block8_3__mul"
  top: "InceptionResnetV1__Repeat_2__block8_3__add"
  eltwise_param {
    operation: SUM
  }
}
layer {
  name: "InceptionResnetV1__Repeat_2__block8_3__Relu"
  type: "ReLU"
  bottom: "InceptionResnetV1__Repeat_2__block8_3__add"
  top: "InceptionResnetV1__Repeat_2__block8_3__Relu"
}
layer {
  name: "InceptionResnetV1__Repeat_2__block8_4__Branch_1__Conv2d_0a_1x1__convolution"
  type: "Convolution"
  bottom: "InceptionResnetV1__Repeat_2__block8_3__Relu"
  top: "InceptionResnetV1__Repeat_2__block8_4__Branch_1__Conv2d_0a_1x1__convolution"
  convolution_param {
    num_output: 192
    bias_term: false
    kernel_h: 1
    kernel_w: 1
    stride_h: 1
    stride_w: 1
    pad_l: 0
    pad_r: 0
    pad_t: 0
    pad_b: 0
  }
}
layer {
  name: "InceptionResnetV1__Repeat_2__block8_4__Branch_0__Conv2d_1x1__convolution"
  type: "Convolution"
  bottom: "InceptionResnetV1__Repeat_2__block8_3__Relu"
  top: "InceptionResnetV1__Repeat_2__block8_4__Branch_0__Conv2d_1x1__convolution"
  convolution_param {
    num_output: 192
    bias_term: false
    kernel_h: 1
    kernel_w: 1
    stride_h: 1
    stride_w: 1
    pad_l: 0
    pad_r: 0
    pad_t: 0
    pad_b: 0
  }
}
layer {
  name: "InceptionResnetV1__Repeat_2__block8_4__Branch_1__Conv2d_0a_1x1__BatchNorm__batchnorm__add_1"
  type: "BatchNorm"
  bottom: "InceptionResnetV1__Repeat_2__block8_4__Branch_1__Conv2d_0a_1x1__convolution"
  top: "InceptionResnetV1__Repeat_2__block8_4__Branch_1__Conv2d_0a_1x1__BatchNorm__batchnorm__add_1"
  batch_norm_param {
    use_global_stats: true
    eps: 0.0010000000475
  }
}
layer {
  name: "InceptionResnetV1__Repeat_2__block8_4__Branch_1__Conv2d_0a_1x1__BatchNorm__batchnorm__add_1__scale"
  type: "Scale"
  bottom: "InceptionResnetV1__Repeat_2__block8_4__Branch_1__Conv2d_0a_1x1__BatchNorm__batchnorm__add_1"
  top: "InceptionResnetV1__Repeat_2__block8_4__Branch_1__Conv2d_0a_1x1__BatchNorm__batchnorm__add_1__scale"
  scale_param {
    bias_term: true
  }
}
layer {
  name: "InceptionResnetV1__Repeat_2__block8_4__Branch_0__Conv2d_1x1__BatchNorm__batchnorm__add_1"
  type: "BatchNorm"
  bottom: "InceptionResnetV1__Repeat_2__block8_4__Branch_0__Conv2d_1x1__convolution"
  top: "InceptionResnetV1__Repeat_2__block8_4__Branch_0__Conv2d_1x1__BatchNorm__batchnorm__add_1"
  batch_norm_param {
    use_global_stats: true
    eps: 0.0010000000475
  }
}
layer {
  name: "InceptionResnetV1__Repeat_2__block8_4__Branch_0__Conv2d_1x1__BatchNorm__batchnorm__add_1__scale"
  type: "Scale"
  bottom: "InceptionResnetV1__Repeat_2__block8_4__Branch_0__Conv2d_1x1__BatchNorm__batchnorm__add_1"
  top: "InceptionResnetV1__Repeat_2__block8_4__Branch_0__Conv2d_1x1__BatchNorm__batchnorm__add_1__scale"
  scale_param {
    bias_term: true
  }
}
layer {
  name: "InceptionResnetV1__Repeat_2__block8_4__Branch_1__Conv2d_0a_1x1__Relu"
  type: "ReLU"
  bottom: "InceptionResnetV1__Repeat_2__block8_4__Branch_1__Conv2d_0a_1x1__BatchNorm__batchnorm__add_1__scale"
  top: "InceptionResnetV1__Repeat_2__block8_4__Branch_1__Conv2d_0a_1x1__Relu"
}
layer {
  name: "InceptionResnetV1__Repeat_2__block8_4__Branch_0__Conv2d_1x1__Relu"
  type: "ReLU"
  bottom: "InceptionResnetV1__Repeat_2__block8_4__Branch_0__Conv2d_1x1__BatchNorm__batchnorm__add_1__scale"
  top: "InceptionResnetV1__Repeat_2__block8_4__Branch_0__Conv2d_1x1__Relu"
}
layer {
  name: "InceptionResnetV1__Repeat_2__block8_4__Branch_1__Conv2d_0b_1x3__convolution"
  type: "Convolution"
  bottom: "InceptionResnetV1__Repeat_2__block8_4__Branch_1__Conv2d_0a_1x1__Relu"
  top: "InceptionResnetV1__Repeat_2__block8_4__Branch_1__Conv2d_0b_1x3__convolution"
  convolution_param {
    num_output: 192
    bias_term: false
    kernel_h: 1
    kernel_w: 3
    stride_h: 1
    stride_w: 1
    pad_l: 1
    pad_r: 1
    pad_t: 0
    pad_b: 0
  }
}
layer {
  name: "InceptionResnetV1__Repeat_2__block8_4__Branch_1__Conv2d_0b_1x3__BatchNorm__batchnorm__add_1"
  type: "BatchNorm"
  bottom: "InceptionResnetV1__Repeat_2__block8_4__Branch_1__Conv2d_0b_1x3__convolution"
  top: "InceptionResnetV1__Repeat_2__block8_4__Branch_1__Conv2d_0b_1x3__BatchNorm__batchnorm__add_1"
  batch_norm_param {
    use_global_stats: true
    eps: 0.0010000000475
  }
}
layer {
  name: "InceptionResnetV1__Repeat_2__block8_4__Branch_1__Conv2d_0b_1x3__BatchNorm__batchnorm__add_1__scale"
  type: "Scale"
  bottom: "InceptionResnetV1__Repeat_2__block8_4__Branch_1__Conv2d_0b_1x3__BatchNorm__batchnorm__add_1"
  top: "InceptionResnetV1__Repeat_2__block8_4__Branch_1__Conv2d_0b_1x3__BatchNorm__batchnorm__add_1__scale"
  scale_param {
    bias_term: true
  }
}
layer {
  name: "InceptionResnetV1__Repeat_2__block8_4__Branch_1__Conv2d_0b_1x3__Relu"
  type: "ReLU"
  bottom: "InceptionResnetV1__Repeat_2__block8_4__Branch_1__Conv2d_0b_1x3__BatchNorm__batchnorm__add_1__scale"
  top: "InceptionResnetV1__Repeat_2__block8_4__Branch_1__Conv2d_0b_1x3__Relu"
}
layer {
  name: "InceptionResnetV1__Repeat_2__block8_4__Branch_1__Conv2d_0c_3x1__convolution"
  type: "Convolution"
  bottom: "InceptionResnetV1__Repeat_2__block8_4__Branch_1__Conv2d_0b_1x3__Relu"
  top: "InceptionResnetV1__Repeat_2__block8_4__Branch_1__Conv2d_0c_3x1__convolution"
  convolution_param {
    num_output: 192
    bias_term: false
    kernel_h: 3
    kernel_w: 1
    stride_h: 1
    stride_w: 1
    pad_l: 0
    pad_r: 0
    pad_t: 1
    pad_b: 1
  }
}
layer {
  name: "InceptionResnetV1__Repeat_2__block8_4__Branch_1__Conv2d_0c_3x1__BatchNorm__batchnorm__add_1"
  type: "BatchNorm"
  bottom: "InceptionResnetV1__Repeat_2__block8_4__Branch_1__Conv2d_0c_3x1__convolution"
  top: "InceptionResnetV1__Repeat_2__block8_4__Branch_1__Conv2d_0c_3x1__BatchNorm__batchnorm__add_1"
  batch_norm_param {
    use_global_stats: true
    eps: 0.0010000000475
  }
}
layer {
  name: "InceptionResnetV1__Repeat_2__block8_4__Branch_1__Conv2d_0c_3x1__BatchNorm__batchnorm__add_1__scale"
  type: "Scale"
  bottom: "InceptionResnetV1__Repeat_2__block8_4__Branch_1__Conv2d_0c_3x1__BatchNorm__batchnorm__add_1"
  top: "InceptionResnetV1__Repeat_2__block8_4__Branch_1__Conv2d_0c_3x1__BatchNorm__batchnorm__add_1__scale"
  scale_param {
    bias_term: true
  }
}
layer {
  name: "InceptionResnetV1__Repeat_2__block8_4__Branch_1__Conv2d_0c_3x1__Relu"
  type: "ReLU"
  bottom: "InceptionResnetV1__Repeat_2__block8_4__Branch_1__Conv2d_0c_3x1__BatchNorm__batchnorm__add_1__scale"
  top: "InceptionResnetV1__Repeat_2__block8_4__Branch_1__Conv2d_0c_3x1__Relu"
}
layer {
  name: "InceptionResnetV1__Repeat_2__block8_4__concat"
  type: "Concat"
  bottom: "InceptionResnetV1__Repeat_2__block8_4__Branch_0__Conv2d_1x1__Relu"
  bottom: "InceptionResnetV1__Repeat_2__block8_4__Branch_1__Conv2d_0c_3x1__Relu"
  top: "InceptionResnetV1__Repeat_2__block8_4__concat"
  concat_param {
    axis: 1
  }
}
layer {
  name: "InceptionResnetV1__Repeat_2__block8_4__Conv2d_1x1__convolution"
  type: "Convolution"
  bottom: "InceptionResnetV1__Repeat_2__block8_4__concat"
  top: "InceptionResnetV1__Repeat_2__block8_4__Conv2d_1x1__convolution"
  convolution_param {
    num_output: 1792
    bias_term: false
    kernel_h: 1
    kernel_w: 1
    stride_h: 1
    stride_w: 1
    pad_l: 0
    pad_r: 0
    pad_t: 0
    pad_b: 0
  }
}
layer {
  name: "InceptionResnetV1__Repeat_2__block8_4__Conv2d_1x1__BiasAdd"
  type: "Bias"
  bottom: "InceptionResnetV1__Repeat_2__block8_4__Conv2d_1x1__convolution"
  top: "InceptionResnetV1__Repeat_2__block8_4__Conv2d_1x1__BiasAdd"
}
layer {
  name: "InceptionResnetV1__Repeat_2__block8_4__mul"
  type: "Power"
  bottom: "InceptionResnetV1__Repeat_2__block8_4__Conv2d_1x1__BiasAdd"
  top: "InceptionResnetV1__Repeat_2__block8_4__mul"
  power_param {
    scale: 0.20000000298
  }
}
layer {
  name: "InceptionResnetV1__Repeat_2__block8_4__add"
  type: "Eltwise"
  bottom: "InceptionResnetV1__Repeat_2__block8_3__Relu"
  bottom: "InceptionResnetV1__Repeat_2__block8_4__mul"
  top: "InceptionResnetV1__Repeat_2__block8_4__add"
  eltwise_param {
    operation: SUM
  }
}
layer {
  name: "InceptionResnetV1__Repeat_2__block8_4__Relu"
  type: "ReLU"
  bottom: "InceptionResnetV1__Repeat_2__block8_4__add"
  top: "InceptionResnetV1__Repeat_2__block8_4__Relu"
}
layer {
  name: "InceptionResnetV1__Repeat_2__block8_5__Branch_1__Conv2d_0a_1x1__convolution"
  type: "Convolution"
  bottom: "InceptionResnetV1__Repeat_2__block8_4__Relu"
  top: "InceptionResnetV1__Repeat_2__block8_5__Branch_1__Conv2d_0a_1x1__convolution"
  convolution_param {
    num_output: 192
    bias_term: false
    kernel_h: 1
    kernel_w: 1
    stride_h: 1
    stride_w: 1
    pad_l: 0
    pad_r: 0
    pad_t: 0
    pad_b: 0
  }
}
layer {
  name: "InceptionResnetV1__Repeat_2__block8_5__Branch_0__Conv2d_1x1__convolution"
  type: "Convolution"
  bottom: "InceptionResnetV1__Repeat_2__block8_4__Relu"
  top: "InceptionResnetV1__Repeat_2__block8_5__Branch_0__Conv2d_1x1__convolution"
  convolution_param {
    num_output: 192
    bias_term: false
    kernel_h: 1
    kernel_w: 1
    stride_h: 1
    stride_w: 1
    pad_l: 0
    pad_r: 0
    pad_t: 0
    pad_b: 0
  }
}
layer {
  name: "InceptionResnetV1__Repeat_2__block8_5__Branch_1__Conv2d_0a_1x1__BatchNorm__batchnorm__add_1"
  type: "BatchNorm"
  bottom: "InceptionResnetV1__Repeat_2__block8_5__Branch_1__Conv2d_0a_1x1__convolution"
  top: "InceptionResnetV1__Repeat_2__block8_5__Branch_1__Conv2d_0a_1x1__BatchNorm__batchnorm__add_1"
  batch_norm_param {
    use_global_stats: true
    eps: 0.0010000000475
  }
}
layer {
  name: "InceptionResnetV1__Repeat_2__block8_5__Branch_1__Conv2d_0a_1x1__BatchNorm__batchnorm__add_1__scale"
  type: "Scale"
  bottom: "InceptionResnetV1__Repeat_2__block8_5__Branch_1__Conv2d_0a_1x1__BatchNorm__batchnorm__add_1"
  top: "InceptionResnetV1__Repeat_2__block8_5__Branch_1__Conv2d_0a_1x1__BatchNorm__batchnorm__add_1__scale"
  scale_param {
    bias_term: true
  }
}
layer {
  name: "InceptionResnetV1__Repeat_2__block8_5__Branch_0__Conv2d_1x1__BatchNorm__batchnorm__add_1"
  type: "BatchNorm"
  bottom: "InceptionResnetV1__Repeat_2__block8_5__Branch_0__Conv2d_1x1__convolution"
  top: "InceptionResnetV1__Repeat_2__block8_5__Branch_0__Conv2d_1x1__BatchNorm__batchnorm__add_1"
  batch_norm_param {
    use_global_stats: true
    eps: 0.0010000000475
  }
}
layer {
  name: "InceptionResnetV1__Repeat_2__block8_5__Branch_0__Conv2d_1x1__BatchNorm__batchnorm__add_1__scale"
  type: "Scale"
  bottom: "InceptionResnetV1__Repeat_2__block8_5__Branch_0__Conv2d_1x1__BatchNorm__batchnorm__add_1"
  top: "InceptionResnetV1__Repeat_2__block8_5__Branch_0__Conv2d_1x1__BatchNorm__batchnorm__add_1__scale"
  scale_param {
    bias_term: true
  }
}
layer {
  name: "InceptionResnetV1__Repeat_2__block8_5__Branch_1__Conv2d_0a_1x1__Relu"
  type: "ReLU"
  bottom: "InceptionResnetV1__Repeat_2__block8_5__Branch_1__Conv2d_0a_1x1__BatchNorm__batchnorm__add_1__scale"
  top: "InceptionResnetV1__Repeat_2__block8_5__Branch_1__Conv2d_0a_1x1__Relu"
}
layer {
  name: "InceptionResnetV1__Repeat_2__block8_5__Branch_0__Conv2d_1x1__Relu"
  type: "ReLU"
  bottom: "InceptionResnetV1__Repeat_2__block8_5__Branch_0__Conv2d_1x1__BatchNorm__batchnorm__add_1__scale"
  top: "InceptionResnetV1__Repeat_2__block8_5__Branch_0__Conv2d_1x1__Relu"
}
layer {
  name: "InceptionResnetV1__Repeat_2__block8_5__Branch_1__Conv2d_0b_1x3__convolution"
  type: "Convolution"
  bottom: "InceptionResnetV1__Repeat_2__block8_5__Branch_1__Conv2d_0a_1x1__Relu"
  top: "InceptionResnetV1__Repeat_2__block8_5__Branch_1__Conv2d_0b_1x3__convolution"
  convolution_param {
    num_output: 192
    bias_term: false
    kernel_h: 1
    kernel_w: 3
    stride_h: 1
    stride_w: 1
    pad_l: 1
    pad_r: 1
    pad_t: 0
    pad_b: 0
  }
}
layer {
  name: "InceptionResnetV1__Repeat_2__block8_5__Branch_1__Conv2d_0b_1x3__BatchNorm__batchnorm__add_1"
  type: "BatchNorm"
  bottom: "InceptionResnetV1__Repeat_2__block8_5__Branch_1__Conv2d_0b_1x3__convolution"
  top: "InceptionResnetV1__Repeat_2__block8_5__Branch_1__Conv2d_0b_1x3__BatchNorm__batchnorm__add_1"
  batch_norm_param {
    use_global_stats: true
    eps: 0.0010000000475
  }
}
layer {
  name: "InceptionResnetV1__Repeat_2__block8_5__Branch_1__Conv2d_0b_1x3__BatchNorm__batchnorm__add_1__scale"
  type: "Scale"
  bottom: "InceptionResnetV1__Repeat_2__block8_5__Branch_1__Conv2d_0b_1x3__BatchNorm__batchnorm__add_1"
  top: "InceptionResnetV1__Repeat_2__block8_5__Branch_1__Conv2d_0b_1x3__BatchNorm__batchnorm__add_1__scale"
  scale_param {
    bias_term: true
  }
}
layer {
  name: "InceptionResnetV1__Repeat_2__block8_5__Branch_1__Conv2d_0b_1x3__Relu"
  type: "ReLU"
  bottom: "InceptionResnetV1__Repeat_2__block8_5__Branch_1__Conv2d_0b_1x3__BatchNorm__batchnorm__add_1__scale"
  top: "InceptionResnetV1__Repeat_2__block8_5__Branch_1__Conv2d_0b_1x3__Relu"
}
layer {
  name: "InceptionResnetV1__Repeat_2__block8_5__Branch_1__Conv2d_0c_3x1__convolution"
  type: "Convolution"
  bottom: "InceptionResnetV1__Repeat_2__block8_5__Branch_1__Conv2d_0b_1x3__Relu"
  top: "InceptionResnetV1__Repeat_2__block8_5__Branch_1__Conv2d_0c_3x1__convolution"
  convolution_param {
    num_output: 192
    bias_term: false
    kernel_h: 3
    kernel_w: 1
    stride_h: 1
    stride_w: 1
    pad_l: 0
    pad_r: 0
    pad_t: 1
    pad_b: 1
  }
}
layer {
  name: "InceptionResnetV1__Repeat_2__block8_5__Branch_1__Conv2d_0c_3x1__BatchNorm__batchnorm__add_1"
  type: "BatchNorm"
  bottom: "InceptionResnetV1__Repeat_2__block8_5__Branch_1__Conv2d_0c_3x1__convolution"
  top: "InceptionResnetV1__Repeat_2__block8_5__Branch_1__Conv2d_0c_3x1__BatchNorm__batchnorm__add_1"
  batch_norm_param {
    use_global_stats: true
    eps: 0.0010000000475
  }
}
layer {
  name: "InceptionResnetV1__Repeat_2__block8_5__Branch_1__Conv2d_0c_3x1__BatchNorm__batchnorm__add_1__scale"
  type: "Scale"
  bottom: "InceptionResnetV1__Repeat_2__block8_5__Branch_1__Conv2d_0c_3x1__BatchNorm__batchnorm__add_1"
  top: "InceptionResnetV1__Repeat_2__block8_5__Branch_1__Conv2d_0c_3x1__BatchNorm__batchnorm__add_1__scale"
  scale_param {
    bias_term: true
  }
}
layer {
  name: "InceptionResnetV1__Repeat_2__block8_5__Branch_1__Conv2d_0c_3x1__Relu"
  type: "ReLU"
  bottom: "InceptionResnetV1__Repeat_2__block8_5__Branch_1__Conv2d_0c_3x1__BatchNorm__batchnorm__add_1__scale"
  top: "InceptionResnetV1__Repeat_2__block8_5__Branch_1__Conv2d_0c_3x1__Relu"
}
layer {
  name: "InceptionResnetV1__Repeat_2__block8_5__concat"
  type: "Concat"
  bottom: "InceptionResnetV1__Repeat_2__block8_5__Branch_0__Conv2d_1x1__Relu"
  bottom: "InceptionResnetV1__Repeat_2__block8_5__Branch_1__Conv2d_0c_3x1__Relu"
  top: "InceptionResnetV1__Repeat_2__block8_5__concat"
  concat_param {
    axis: 1
  }
}
layer {
  name: "InceptionResnetV1__Repeat_2__block8_5__Conv2d_1x1__convolution"
  type: "Convolution"
  bottom: "InceptionResnetV1__Repeat_2__block8_5__concat"
  top: "InceptionResnetV1__Repeat_2__block8_5__Conv2d_1x1__convolution"
  convolution_param {
    num_output: 1792
    bias_term: false
    kernel_h: 1
    kernel_w: 1
    stride_h: 1
    stride_w: 1
    pad_l: 0
    pad_r: 0
    pad_t: 0
    pad_b: 0
  }
}
layer {
  name: "InceptionResnetV1__Repeat_2__block8_5__Conv2d_1x1__BiasAdd"
  type: "Bias"
  bottom: "InceptionResnetV1__Repeat_2__block8_5__Conv2d_1x1__convolution"
  top: "InceptionResnetV1__Repeat_2__block8_5__Conv2d_1x1__BiasAdd"
}
layer {
  name: "InceptionResnetV1__Repeat_2__block8_5__mul"
  type: "Power"
  bottom: "InceptionResnetV1__Repeat_2__block8_5__Conv2d_1x1__BiasAdd"
  top: "InceptionResnetV1__Repeat_2__block8_5__mul"
  power_param {
    scale: 0.20000000298
  }
}
layer {
  name: "InceptionResnetV1__Repeat_2__block8_5__add"
  type: "Eltwise"
  bottom: "InceptionResnetV1__Repeat_2__block8_4__Relu"
  bottom: "InceptionResnetV1__Repeat_2__block8_5__mul"
  top: "InceptionResnetV1__Repeat_2__block8_5__add"
  eltwise_param {
    operation: SUM
  }
}
layer {
  name: "InceptionResnetV1__Repeat_2__block8_5__Relu"
  type: "ReLU"
  bottom: "InceptionResnetV1__Repeat_2__block8_5__add"
  top: "InceptionResnetV1__Repeat_2__block8_5__Relu"
}
layer {
  name: "InceptionResnetV1__Block8__Branch_1__Conv2d_0a_1x1__convolution"
  type: "Convolution"
  bottom: "InceptionResnetV1__Repeat_2__block8_5__Relu"
  top: "InceptionResnetV1__Block8__Branch_1__Conv2d_0a_1x1__convolution"
  convolution_param {
    num_output: 192
    bias_term: false
    kernel_h: 1
    kernel_w: 1
    stride_h: 1
    stride_w: 1
    pad_l: 0
    pad_r: 0
    pad_t: 0
    pad_b: 0
  }
}
layer {
  name: "InceptionResnetV1__Block8__Branch_0__Conv2d_1x1__convolution"
  type: "Convolution"
  bottom: "InceptionResnetV1__Repeat_2__block8_5__Relu"
  top: "InceptionResnetV1__Block8__Branch_0__Conv2d_1x1__convolution"
  convolution_param {
    num_output: 192
    bias_term: false
    kernel_h: 1
    kernel_w: 1
    stride_h: 1
    stride_w: 1
    pad_l: 0
    pad_r: 0
    pad_t: 0
    pad_b: 0
  }
}
layer {
  name: "InceptionResnetV1__Block8__Branch_1__Conv2d_0a_1x1__BatchNorm__batchnorm__add_1"
  type: "BatchNorm"
  bottom: "InceptionResnetV1__Block8__Branch_1__Conv2d_0a_1x1__convolution"
  top: "InceptionResnetV1__Block8__Branch_1__Conv2d_0a_1x1__BatchNorm__batchnorm__add_1"
  batch_norm_param {
    use_global_stats: true
    eps: 0.0010000000475
  }
}
layer {
  name: "InceptionResnetV1__Block8__Branch_1__Conv2d_0a_1x1__BatchNorm__batchnorm__add_1__scale"
  type: "Scale"
  bottom: "InceptionResnetV1__Block8__Branch_1__Conv2d_0a_1x1__BatchNorm__batchnorm__add_1"
  top: "InceptionResnetV1__Block8__Branch_1__Conv2d_0a_1x1__BatchNorm__batchnorm__add_1__scale"
  scale_param {
    bias_term: true
  }
}
layer {
  name: "InceptionResnetV1__Block8__Branch_0__Conv2d_1x1__BatchNorm__batchnorm__add_1"
  type: "BatchNorm"
  bottom: "InceptionResnetV1__Block8__Branch_0__Conv2d_1x1__convolution"
  top: "InceptionResnetV1__Block8__Branch_0__Conv2d_1x1__BatchNorm__batchnorm__add_1"
  batch_norm_param {
    use_global_stats: true
    eps: 0.0010000000475
  }
}
layer {
  name: "InceptionResnetV1__Block8__Branch_0__Conv2d_1x1__BatchNorm__batchnorm__add_1__scale"
  type: "Scale"
  bottom: "InceptionResnetV1__Block8__Branch_0__Conv2d_1x1__BatchNorm__batchnorm__add_1"
  top: "InceptionResnetV1__Block8__Branch_0__Conv2d_1x1__BatchNorm__batchnorm__add_1__scale"
  scale_param {
    bias_term: true
  }
}
layer {
  name: "InceptionResnetV1__Block8__Branch_1__Conv2d_0a_1x1__Relu"
  type: "ReLU"
  bottom: "InceptionResnetV1__Block8__Branch_1__Conv2d_0a_1x1__BatchNorm__batchnorm__add_1__scale"
  top: "InceptionResnetV1__Block8__Branch_1__Conv2d_0a_1x1__Relu"
}
layer {
  name: "InceptionResnetV1__Block8__Branch_0__Conv2d_1x1__Relu"
  type: "ReLU"
  bottom: "InceptionResnetV1__Block8__Branch_0__Conv2d_1x1__BatchNorm__batchnorm__add_1__scale"
  top: "InceptionResnetV1__Block8__Branch_0__Conv2d_1x1__Relu"
}
layer {
  name: "InceptionResnetV1__Block8__Branch_1__Conv2d_0b_1x3__convolution"
  type: "Convolution"
  bottom: "InceptionResnetV1__Block8__Branch_1__Conv2d_0a_1x1__Relu"
  top: "InceptionResnetV1__Block8__Branch_1__Conv2d_0b_1x3__convolution"
  convolution_param {
    num_output: 192
    bias_term: false
    kernel_h: 1
    kernel_w: 3
    stride_h: 1
    stride_w: 1
    pad_l: 1
    pad_r: 1
    pad_t: 0
    pad_b: 0
  }
}
layer {
  name: "InceptionResnetV1__Block8__Branch_1__Conv2d_0b_1x3__BatchNorm__batchnorm__add_1"
  type: "BatchNorm"
  bottom: "InceptionResnetV1__Block8__Branch_1__Conv2d_0b_1x3__convolution"
  top: "InceptionResnetV1__Block8__Branch_1__Conv2d_0b_1x3__BatchNorm__batchnorm__add_1"
  batch_norm_param {
    use_global_stats: true
    eps: 0.0010000000475
  }
}
layer {
  name: "InceptionResnetV1__Block8__Branch_1__Conv2d_0b_1x3__BatchNorm__batchnorm__add_1__scale"
  type: "Scale"
  bottom: "InceptionResnetV1__Block8__Branch_1__Conv2d_0b_1x3__BatchNorm__batchnorm__add_1"
  top: "InceptionResnetV1__Block8__Branch_1__Conv2d_0b_1x3__BatchNorm__batchnorm__add_1__scale"
  scale_param {
    bias_term: true
  }
}
layer {
  name: "InceptionResnetV1__Block8__Branch_1__Conv2d_0b_1x3__Relu"
  type: "ReLU"
  bottom: "InceptionResnetV1__Block8__Branch_1__Conv2d_0b_1x3__BatchNorm__batchnorm__add_1__scale"
  top: "InceptionResnetV1__Block8__Branch_1__Conv2d_0b_1x3__Relu"
}
layer {
  name: "InceptionResnetV1__Block8__Branch_1__Conv2d_0c_3x1__convolution"
  type: "Convolution"
  bottom: "InceptionResnetV1__Block8__Branch_1__Conv2d_0b_1x3__Relu"
  top: "InceptionResnetV1__Block8__Branch_1__Conv2d_0c_3x1__convolution"
  convolution_param {
    num_output: 192
    bias_term: false
    kernel_h: 3
    kernel_w: 1
    stride_h: 1
    stride_w: 1
    pad_l: 0
    pad_r: 0
    pad_t: 1
    pad_b: 1
  }
}
layer {
  name: "InceptionResnetV1__Block8__Branch_1__Conv2d_0c_3x1__BatchNorm__batchnorm__add_1"
  type: "BatchNorm"
  bottom: "InceptionResnetV1__Block8__Branch_1__Conv2d_0c_3x1__convolution"
  top: "InceptionResnetV1__Block8__Branch_1__Conv2d_0c_3x1__BatchNorm__batchnorm__add_1"
  batch_norm_param {
    use_global_stats: true
    eps: 0.0010000000475
  }
}
layer {
  name: "InceptionResnetV1__Block8__Branch_1__Conv2d_0c_3x1__BatchNorm__batchnorm__add_1__scale"
  type: "Scale"
  bottom: "InceptionResnetV1__Block8__Branch_1__Conv2d_0c_3x1__BatchNorm__batchnorm__add_1"
  top: "InceptionResnetV1__Block8__Branch_1__Conv2d_0c_3x1__BatchNorm__batchnorm__add_1__scale"
  scale_param {
    bias_term: true
  }
}
layer {
  name: "InceptionResnetV1__Block8__Branch_1__Conv2d_0c_3x1__Relu"
  type: "ReLU"
  bottom: "InceptionResnetV1__Block8__Branch_1__Conv2d_0c_3x1__BatchNorm__batchnorm__add_1__scale"
  top: "InceptionResnetV1__Block8__Branch_1__Conv2d_0c_3x1__Relu"
}
layer {
  name: "InceptionResnetV1__Block8__concat"
  type: "Concat"
  bottom: "InceptionResnetV1__Block8__Branch_0__Conv2d_1x1__Relu"
  bottom: "InceptionResnetV1__Block8__Branch_1__Conv2d_0c_3x1__Relu"
  top: "InceptionResnetV1__Block8__concat"
  concat_param {
    axis: 1
  }
}
layer {
  name: "InceptionResnetV1__Block8__Conv2d_1x1__convolution"
  type: "Convolution"
  bottom: "InceptionResnetV1__Block8__concat"
  top: "InceptionResnetV1__Block8__Conv2d_1x1__convolution"
  convolution_param {
    num_output: 1792
    bias_term: false
    kernel_h: 1
    kernel_w: 1
    stride_h: 1
    stride_w: 1
    pad_l: 0
    pad_r: 0
    pad_t: 0
    pad_b: 0
  }
}
layer {
  name: "InceptionResnetV1__Block8__Conv2d_1x1__BiasAdd"
  type: "Bias"
  bottom: "InceptionResnetV1__Block8__Conv2d_1x1__convolution"
  top: "InceptionResnetV1__Block8__Conv2d_1x1__BiasAdd"
}
layer {
  name: "InceptionResnetV1__Block8__mul"
  type: "Power"
  bottom: "InceptionResnetV1__Block8__Conv2d_1x1__BiasAdd"
  top: "InceptionResnetV1__Block8__mul"
  power_param {
    scale: 1.0
  }
}
layer {
  name: "InceptionResnetV1__Block8__add"
  type: "Eltwise"
  bottom: "InceptionResnetV1__Repeat_2__block8_5__Relu"
  bottom: "InceptionResnetV1__Block8__mul"
  top: "InceptionResnetV1__Block8__add"
  eltwise_param {
    operation: SUM
  }
}
layer {
  name: "InceptionResnetV1__Logits__AvgPool_1a_8x8__AvgPool"
  type: "Pooling"
  bottom: "InceptionResnetV1__Block8__add"
  top: "InceptionResnetV1__Logits__AvgPool_1a_8x8__AvgPool"
  pooling_param {
    pool: AVE_EXC_PAD
    kernel_h: 3
    kernel_w: 3
    stride_h: 1
    stride_w: 1
    ceil_mode: false
    pad_l: 0
    pad_r: 0
    pad_t: 0
    pad_b: 0
  }
}
layer {
  name: "InceptionResnetV1__Logits__Flatten__Reshape_tmp"
  type: "Permute"
  bottom: "InceptionResnetV1__Logits__AvgPool_1a_8x8__AvgPool"
  top: "InceptionResnetV1__Logits__Flatten__Reshape_tmp"
  permute_param {
    order: 0
    order: 2
    order: 3
    order: 1
  }
}
layer {
  name: "InceptionResnetV1__Logits__Flatten__Reshape"
  type: "Reshape"
  bottom: "InceptionResnetV1__Logits__Flatten__Reshape_tmp"
  top: "InceptionResnetV1__Logits__Flatten__Reshape"
  reshape_param {
    shape {
      dim: -1
      dim: 1792
    }
  }
}
layer {
  name: "InceptionResnetV1__Bottleneck__MatMul"
  type: "InnerProduct"
  bottom: "InceptionResnetV1__Logits__Flatten__Reshape"
  top: "InceptionResnetV1__Bottleneck__MatMul"
  inner_product_param {
    num_output: 128
    bias_term: false
  }
}
