layer {
  name: "sub_7"
  type: "Input"
  top: "sub_7"
  input_param {
    shape {
      dim: 1
      dim: 3
      dim: 513
      dim: 513
    }
  }
}
layer {
  name: "xception_65/entry_flow/conv1_1/Conv2D_nchw"
  type: "Convolution"
  bottom: "sub_7"
  top: "xception_65/entry_flow/conv1_1/Conv2D_nchw"
  convolution_param {
    num_output: 32
    bias_term: false
    group: 1
    kernel_h: 3
    kernel_w: 3
    stride_h: 2
    stride_w: 2
    pad_l: 1
    pad_r: 1
    pad_t: 1
    pad_b: 1
  }
}
layer {
  name: "xception_65/entry_flow/conv1_1/BatchNorm/FusedBatchNorm_nchw"
  type: "BatchNorm"
  bottom: "xception_65/entry_flow/conv1_1/Conv2D_nchw"
  top: "xception_65/entry_flow/conv1_1/BatchNorm/FusedBatchNorm_nchw"
  batch_norm_param {
    use_global_stats: true
    eps: 0.0010000000475
  }
}
layer {
  name: "xception_65/entry_flow/conv1_1/BatchNorm/FusedBatchNorm_scale"
  type: "Scale"
  bottom: "xception_65/entry_flow/conv1_1/BatchNorm/FusedBatchNorm_nchw"
  top: "xception_65/entry_flow/conv1_1/BatchNorm/FusedBatchNorm_scale"
  scale_param {
    bias_term: true
  }
}
layer {
  name: "xception_65/entry_flow/conv1_1/Relu"
  type: "ReLU"
  bottom: "xception_65/entry_flow/conv1_1/BatchNorm/FusedBatchNorm_scale"
  top: "xception_65/entry_flow/conv1_1/Relu"
}
layer {
  name: "xception_65/entry_flow/conv1_2/Conv2D_nchw"
  type: "Convolution"
  bottom: "xception_65/entry_flow/conv1_1/Relu"
  top: "xception_65/entry_flow/conv1_2/Conv2D_nchw"
  convolution_param {
    num_output: 64
    bias_term: false
    group: 1
    kernel_h: 3
    kernel_w: 3
    stride_h: 1
    stride_w: 1
    pad_l: 1
    pad_r: 1
    pad_t: 1
    pad_b: 1
  }
}
layer {
  name: "xception_65/entry_flow/conv1_2/BatchNorm/FusedBatchNorm_nchw"
  type: "BatchNorm"
  bottom: "xception_65/entry_flow/conv1_2/Conv2D_nchw"
  top: "xception_65/entry_flow/conv1_2/BatchNorm/FusedBatchNorm_nchw"
  batch_norm_param {
    use_global_stats: true
    eps: 0.0010000000475
  }
}
layer {
  name: "xception_65/entry_flow/conv1_2/BatchNorm/FusedBatchNorm_scale"
  type: "Scale"
  bottom: "xception_65/entry_flow/conv1_2/BatchNorm/FusedBatchNorm_nchw"
  top: "xception_65/entry_flow/conv1_2/BatchNorm/FusedBatchNorm_scale"
  scale_param {
    bias_term: true
  }
}
layer {
  name: "xception_65/entry_flow/conv1_2/Relu"
  type: "ReLU"
  bottom: "xception_65/entry_flow/conv1_2/BatchNorm/FusedBatchNorm_scale"
  top: "xception_65/entry_flow/conv1_2/Relu"
}
layer {
  name: "xception_65/entry_flow/block1/unit_1/xception_module/Relu"
  type: "ReLU"
  bottom: "xception_65/entry_flow/conv1_2/Relu"
  top: "xception_65/entry_flow/block1/unit_1/xception_module/Relu"
}
layer {
  name: "xception_65/entry_flow/block1/unit_1/xception_module/separable_conv1_depthwise/depthwise_nchw"
  type: "Convolution"
  bottom: "xception_65/entry_flow/block1/unit_1/xception_module/Relu"
  top: "xception_65/entry_flow/block1/unit_1/xception_module/separable_conv1_depthwise/depthwise_nchw"
  convolution_param {
    num_output: 64
    bias_term: false
    group: 64
    kernel_h: 3
    kernel_w: 3
    stride_h: 1
    stride_w: 1
    pad_l: 1
    pad_r: 1
    pad_t: 1
    pad_b: 1
  }
}
layer {
  name: "xception_65/entry_flow/block1/unit_1/xception_module/separable_conv1_depthwise/BatchNorm/FusedBatchNorm_nchw"
  type: "BatchNorm"
  bottom: "xception_65/entry_flow/block1/unit_1/xception_module/separable_conv1_depthwise/depthwise_nchw"
  top: "xception_65/entry_flow/block1/unit_1/xception_module/separable_conv1_depthwise/BatchNorm/FusedBatchNorm_nchw"
  batch_norm_param {
    use_global_stats: true
    eps: 0.0010000000475
  }
}
layer {
  name: "xception_65/entry_flow/block1/unit_1/xception_module/separable_conv1_depthwise/BatchNorm/FusedBatchNorm_scale"
  type: "Scale"
  bottom: "xception_65/entry_flow/block1/unit_1/xception_module/separable_conv1_depthwise/BatchNorm/FusedBatchNorm_nchw"
  top: "xception_65/entry_flow/block1/unit_1/xception_module/separable_conv1_depthwise/BatchNorm/FusedBatchNorm_scale"
  scale_param {
    bias_term: true
  }
}
layer {
  name: "xception_65/entry_flow/block1/unit_1/xception_module/separable_conv1_pointwise/Conv2D_nchw"
  type: "Convolution"
  bottom: "xception_65/entry_flow/block1/unit_1/xception_module/separable_conv1_depthwise/BatchNorm/FusedBatchNorm_scale"
  top: "xception_65/entry_flow/block1/unit_1/xception_module/separable_conv1_pointwise/Conv2D_nchw"
  convolution_param {
    num_output: 128
    bias_term: false
    group: 1
    kernel_h: 1
    kernel_w: 1
    stride_h: 1
    stride_w: 1
    pad_l: 0
    pad_r: 0
    pad_t: 0
    pad_b: 0
  }
}
layer {
  name: "xception_65/entry_flow/block1/unit_1/xception_module/separable_conv1_pointwise/BatchNorm/FusedBatchNorm_nchw"
  type: "BatchNorm"
  bottom: "xception_65/entry_flow/block1/unit_1/xception_module/separable_conv1_pointwise/Conv2D_nchw"
  top: "xception_65/entry_flow/block1/unit_1/xception_module/separable_conv1_pointwise/BatchNorm/FusedBatchNorm_nchw"
  batch_norm_param {
    use_global_stats: true
    eps: 0.0010000000475
  }
}
layer {
  name: "xception_65/entry_flow/block1/unit_1/xception_module/separable_conv1_pointwise/BatchNorm/FusedBatchNorm_scale"
  type: "Scale"
  bottom: "xception_65/entry_flow/block1/unit_1/xception_module/separable_conv1_pointwise/BatchNorm/FusedBatchNorm_nchw"
  top: "xception_65/entry_flow/block1/unit_1/xception_module/separable_conv1_pointwise/BatchNorm/FusedBatchNorm_scale"
  scale_param {
    bias_term: true
  }
}
layer {
  name: "xception_65/entry_flow/block1/unit_1/xception_module/Relu_1"
  type: "ReLU"
  bottom: "xception_65/entry_flow/block1/unit_1/xception_module/separable_conv1_pointwise/BatchNorm/FusedBatchNorm_scale"
  top: "xception_65/entry_flow/block1/unit_1/xception_module/Relu_1"
}
layer {
  name: "xception_65/entry_flow/block1/unit_1/xception_module/separable_conv2_depthwise/depthwise_nchw"
  type: "Convolution"
  bottom: "xception_65/entry_flow/block1/unit_1/xception_module/Relu_1"
  top: "xception_65/entry_flow/block1/unit_1/xception_module/separable_conv2_depthwise/depthwise_nchw"
  convolution_param {
    num_output: 128
    bias_term: false
    group: 128
    kernel_h: 3
    kernel_w: 3
    stride_h: 1
    stride_w: 1
    pad_l: 1
    pad_r: 1
    pad_t: 1
    pad_b: 1
  }
}
layer {
  name: "xception_65/entry_flow/block1/unit_1/xception_module/separable_conv2_depthwise/BatchNorm/FusedBatchNorm_nchw"
  type: "BatchNorm"
  bottom: "xception_65/entry_flow/block1/unit_1/xception_module/separable_conv2_depthwise/depthwise_nchw"
  top: "xception_65/entry_flow/block1/unit_1/xception_module/separable_conv2_depthwise/BatchNorm/FusedBatchNorm_nchw"
  batch_norm_param {
    use_global_stats: true
    eps: 0.0010000000475
  }
}
layer {
  name: "xception_65/entry_flow/block1/unit_1/xception_module/separable_conv2_depthwise/BatchNorm/FusedBatchNorm_scale"
  type: "Scale"
  bottom: "xception_65/entry_flow/block1/unit_1/xception_module/separable_conv2_depthwise/BatchNorm/FusedBatchNorm_nchw"
  top: "xception_65/entry_flow/block1/unit_1/xception_module/separable_conv2_depthwise/BatchNorm/FusedBatchNorm_scale"
  scale_param {
    bias_term: true
  }
}
layer {
  name: "xception_65/entry_flow/block1/unit_1/xception_module/separable_conv2_pointwise/Conv2D_nchw"
  type: "Convolution"
  bottom: "xception_65/entry_flow/block1/unit_1/xception_module/separable_conv2_depthwise/BatchNorm/FusedBatchNorm_scale"
  top: "xception_65/entry_flow/block1/unit_1/xception_module/separable_conv2_pointwise/Conv2D_nchw"
  convolution_param {
    num_output: 128
    bias_term: false
    group: 1
    kernel_h: 1
    kernel_w: 1
    stride_h: 1
    stride_w: 1
    pad_l: 0
    pad_r: 0
    pad_t: 0
    pad_b: 0
  }
}
layer {
  name: "xception_65/entry_flow/block1/unit_1/xception_module/separable_conv2_pointwise/BatchNorm/FusedBatchNorm_nchw"
  type: "BatchNorm"
  bottom: "xception_65/entry_flow/block1/unit_1/xception_module/separable_conv2_pointwise/Conv2D_nchw"
  top: "xception_65/entry_flow/block1/unit_1/xception_module/separable_conv2_pointwise/BatchNorm/FusedBatchNorm_nchw"
  batch_norm_param {
    use_global_stats: true
    eps: 0.0010000000475
  }
}
layer {
  name: "xception_65/entry_flow/block1/unit_1/xception_module/separable_conv2_pointwise/BatchNorm/FusedBatchNorm_scale"
  type: "Scale"
  bottom: "xception_65/entry_flow/block1/unit_1/xception_module/separable_conv2_pointwise/BatchNorm/FusedBatchNorm_nchw"
  top: "xception_65/entry_flow/block1/unit_1/xception_module/separable_conv2_pointwise/BatchNorm/FusedBatchNorm_scale"
  scale_param {
    bias_term: true
  }
}
layer {
  name: "xception_65/entry_flow/block1/unit_1/xception_module/Relu_2"
  type: "ReLU"
  bottom: "xception_65/entry_flow/block1/unit_1/xception_module/separable_conv2_pointwise/BatchNorm/FusedBatchNorm_scale"
  top: "xception_65/entry_flow/block1/unit_1/xception_module/Relu_2"
}
layer {
  name: "xception_65/entry_flow/block1/unit_1/xception_module/separable_conv3_depthwise/depthwise_nchw"
  type: "Convolution"
  bottom: "xception_65/entry_flow/block1/unit_1/xception_module/Relu_2"
  top: "xception_65/entry_flow/block1/unit_1/xception_module/separable_conv3_depthwise/depthwise_nchw"
  convolution_param {
    num_output: 128
    bias_term: false
    group: 128
    kernel_h: 3
    kernel_w: 3
    stride_h: 2
    stride_w: 2
    pad_l: 1
    pad_r: 1
    pad_t: 1
    pad_b: 1
  }
}
layer {
  name: "xception_65/entry_flow/block1/unit_1/xception_module/separable_conv3_depthwise/BatchNorm/FusedBatchNorm_nchw"
  type: "BatchNorm"
  bottom: "xception_65/entry_flow/block1/unit_1/xception_module/separable_conv3_depthwise/depthwise_nchw"
  top: "xception_65/entry_flow/block1/unit_1/xception_module/separable_conv3_depthwise/BatchNorm/FusedBatchNorm_nchw"
  batch_norm_param {
    use_global_stats: true
    eps: 0.0010000000475
  }
}
layer {
  name: "xception_65/entry_flow/block1/unit_1/xception_module/separable_conv3_depthwise/BatchNorm/FusedBatchNorm_scale"
  type: "Scale"
  bottom: "xception_65/entry_flow/block1/unit_1/xception_module/separable_conv3_depthwise/BatchNorm/FusedBatchNorm_nchw"
  top: "xception_65/entry_flow/block1/unit_1/xception_module/separable_conv3_depthwise/BatchNorm/FusedBatchNorm_scale"
  scale_param {
    bias_term: true
  }
}
layer {
  name: "xception_65/entry_flow/block1/unit_1/xception_module/separable_conv3_pointwise/Conv2D_nchw"
  type: "Convolution"
  bottom: "xception_65/entry_flow/block1/unit_1/xception_module/separable_conv3_depthwise/BatchNorm/FusedBatchNorm_scale"
  top: "xception_65/entry_flow/block1/unit_1/xception_module/separable_conv3_pointwise/Conv2D_nchw"
  convolution_param {
    num_output: 128
    bias_term: false
    group: 1
    kernel_h: 1
    kernel_w: 1
    stride_h: 1
    stride_w: 1
    pad_l: 0
    pad_r: 0
    pad_t: 0
    pad_b: 0
  }
}
layer {
  name: "xception_65/entry_flow/block1/unit_1/xception_module/separable_conv3_pointwise/BatchNorm/FusedBatchNorm_nchw"
  type: "BatchNorm"
  bottom: "xception_65/entry_flow/block1/unit_1/xception_module/separable_conv3_pointwise/Conv2D_nchw"
  top: "xception_65/entry_flow/block1/unit_1/xception_module/separable_conv3_pointwise/BatchNorm/FusedBatchNorm_nchw"
  batch_norm_param {
    use_global_stats: true
    eps: 0.0010000000475
  }
}
layer {
  name: "xception_65/entry_flow/block1/unit_1/xception_module/separable_conv3_pointwise/BatchNorm/FusedBatchNorm_scale"
  type: "Scale"
  bottom: "xception_65/entry_flow/block1/unit_1/xception_module/separable_conv3_pointwise/BatchNorm/FusedBatchNorm_nchw"
  top: "xception_65/entry_flow/block1/unit_1/xception_module/separable_conv3_pointwise/BatchNorm/FusedBatchNorm_scale"
  scale_param {
    bias_term: true
  }
}
layer {
  name: "xception_65/entry_flow/block1/unit_1/xception_module/shortcut/Conv2D_nchw"
  type: "Convolution"
  bottom: "xception_65/entry_flow/conv1_2/Relu"
  top: "xception_65/entry_flow/block1/unit_1/xception_module/shortcut/Conv2D_nchw"
  convolution_param {
    num_output: 128
    bias_term: false
    group: 1
    kernel_h: 1
    kernel_w: 1
    stride_h: 2
    stride_w: 2
    pad_l: 0
    pad_r: 0
    pad_t: 0
    pad_b: 0
  }
}
layer {
  name: "xception_65/entry_flow/block1/unit_1/xception_module/shortcut/BatchNorm/FusedBatchNorm_nchw"
  type: "BatchNorm"
  bottom: "xception_65/entry_flow/block1/unit_1/xception_module/shortcut/Conv2D_nchw"
  top: "xception_65/entry_flow/block1/unit_1/xception_module/shortcut/BatchNorm/FusedBatchNorm_nchw"
  batch_norm_param {
    use_global_stats: true
    eps: 0.0010000000475
  }
}
layer {
  name: "xception_65/entry_flow/block1/unit_1/xception_module/shortcut/BatchNorm/FusedBatchNorm_scale"
  type: "Scale"
  bottom: "xception_65/entry_flow/block1/unit_1/xception_module/shortcut/BatchNorm/FusedBatchNorm_nchw"
  top: "xception_65/entry_flow/block1/unit_1/xception_module/shortcut/BatchNorm/FusedBatchNorm_scale"
  scale_param {
    bias_term: true
  }
}
layer {
  name: "xception_65/entry_flow/block1/unit_1/xception_module/add"
  type: "Eltwise"
  bottom: "xception_65/entry_flow/block1/unit_1/xception_module/separable_conv3_pointwise/BatchNorm/FusedBatchNorm_scale"
  bottom: "xception_65/entry_flow/block1/unit_1/xception_module/shortcut/BatchNorm/FusedBatchNorm_scale"
  top: "xception_65/entry_flow/block1/unit_1/xception_module/add"
  eltwise_param {
    operation: SUM
    coeff: 1.0
    coeff: 1.0
  }
}
layer {
  name: "xception_65/entry_flow/block2/unit_1/xception_module/shortcut/Conv2D_nchw"
  type: "Convolution"
  bottom: "xception_65/entry_flow/block1/unit_1/xception_module/add"
  top: "xception_65/entry_flow/block2/unit_1/xception_module/shortcut/Conv2D_nchw"
  convolution_param {
    num_output: 256
    bias_term: false
    group: 1
    kernel_h: 1
    kernel_w: 1
    stride_h: 2
    stride_w: 2
    pad_l: 0
    pad_r: 0
    pad_t: 0
    pad_b: 0
  }
}
layer {
  name: "xception_65/entry_flow/block2/unit_1/xception_module/shortcut/BatchNorm/FusedBatchNorm_nchw"
  type: "BatchNorm"
  bottom: "xception_65/entry_flow/block2/unit_1/xception_module/shortcut/Conv2D_nchw"
  top: "xception_65/entry_flow/block2/unit_1/xception_module/shortcut/BatchNorm/FusedBatchNorm_nchw"
  batch_norm_param {
    use_global_stats: true
    eps: 0.0010000000475
  }
}
layer {
  name: "xception_65/entry_flow/block2/unit_1/xception_module/shortcut/BatchNorm/FusedBatchNorm_scale"
  type: "Scale"
  bottom: "xception_65/entry_flow/block2/unit_1/xception_module/shortcut/BatchNorm/FusedBatchNorm_nchw"
  top: "xception_65/entry_flow/block2/unit_1/xception_module/shortcut/BatchNorm/FusedBatchNorm_scale"
  scale_param {
    bias_term: true
  }
}
layer {
  name: "xception_65/entry_flow/block2/unit_1/xception_module/Relu"
  type: "ReLU"
  bottom: "xception_65/entry_flow/block1/unit_1/xception_module/add"
  top: "xception_65/entry_flow/block2/unit_1/xception_module/Relu"
}
layer {
  name: "xception_65/entry_flow/block2/unit_1/xception_module/separable_conv1_depthwise/depthwise_nchw"
  type: "Convolution"
  bottom: "xception_65/entry_flow/block2/unit_1/xception_module/Relu"
  top: "xception_65/entry_flow/block2/unit_1/xception_module/separable_conv1_depthwise/depthwise_nchw"
  convolution_param {
    num_output: 128
    bias_term: false
    group: 128
    kernel_h: 3
    kernel_w: 3
    stride_h: 1
    stride_w: 1
    pad_l: 1
    pad_r: 1
    pad_t: 1
    pad_b: 1
  }
}
layer {
  name: "xception_65/entry_flow/block2/unit_1/xception_module/separable_conv1_depthwise/BatchNorm/FusedBatchNorm_nchw"
  type: "BatchNorm"
  bottom: "xception_65/entry_flow/block2/unit_1/xception_module/separable_conv1_depthwise/depthwise_nchw"
  top: "xception_65/entry_flow/block2/unit_1/xception_module/separable_conv1_depthwise/BatchNorm/FusedBatchNorm_nchw"
  batch_norm_param {
    use_global_stats: true
    eps: 0.0010000000475
  }
}
layer {
  name: "xception_65/entry_flow/block2/unit_1/xception_module/separable_conv1_depthwise/BatchNorm/FusedBatchNorm_scale"
  type: "Scale"
  bottom: "xception_65/entry_flow/block2/unit_1/xception_module/separable_conv1_depthwise/BatchNorm/FusedBatchNorm_nchw"
  top: "xception_65/entry_flow/block2/unit_1/xception_module/separable_conv1_depthwise/BatchNorm/FusedBatchNorm_scale"
  scale_param {
    bias_term: true
  }
}
layer {
  name: "xception_65/entry_flow/block2/unit_1/xception_module/separable_conv1_pointwise/Conv2D_nchw"
  type: "Convolution"
  bottom: "xception_65/entry_flow/block2/unit_1/xception_module/separable_conv1_depthwise/BatchNorm/FusedBatchNorm_scale"
  top: "xception_65/entry_flow/block2/unit_1/xception_module/separable_conv1_pointwise/Conv2D_nchw"
  convolution_param {
    num_output: 256
    bias_term: false
    group: 1
    kernel_h: 1
    kernel_w: 1
    stride_h: 1
    stride_w: 1
    pad_l: 0
    pad_r: 0
    pad_t: 0
    pad_b: 0
  }
}
layer {
  name: "xception_65/entry_flow/block2/unit_1/xception_module/separable_conv1_pointwise/BatchNorm/FusedBatchNorm_nchw"
  type: "BatchNorm"
  bottom: "xception_65/entry_flow/block2/unit_1/xception_module/separable_conv1_pointwise/Conv2D_nchw"
  top: "xception_65/entry_flow/block2/unit_1/xception_module/separable_conv1_pointwise/BatchNorm/FusedBatchNorm_nchw"
  batch_norm_param {
    use_global_stats: true
    eps: 0.0010000000475
  }
}
layer {
  name: "xception_65/entry_flow/block2/unit_1/xception_module/separable_conv1_pointwise/BatchNorm/FusedBatchNorm_scale"
  type: "Scale"
  bottom: "xception_65/entry_flow/block2/unit_1/xception_module/separable_conv1_pointwise/BatchNorm/FusedBatchNorm_nchw"
  top: "xception_65/entry_flow/block2/unit_1/xception_module/separable_conv1_pointwise/BatchNorm/FusedBatchNorm_scale"
  scale_param {
    bias_term: true
  }
}
layer {
  name: "xception_65/entry_flow/block2/unit_1/xception_module/Relu_1"
  type: "ReLU"
  bottom: "xception_65/entry_flow/block2/unit_1/xception_module/separable_conv1_pointwise/BatchNorm/FusedBatchNorm_scale"
  top: "xception_65/entry_flow/block2/unit_1/xception_module/Relu_1"
}
layer {
  name: "xception_65/entry_flow/block2/unit_1/xception_module/separable_conv2_depthwise/depthwise_nchw"
  type: "Convolution"
  bottom: "xception_65/entry_flow/block2/unit_1/xception_module/Relu_1"
  top: "xception_65/entry_flow/block2/unit_1/xception_module/separable_conv2_depthwise/depthwise_nchw"
  convolution_param {
    num_output: 256
    bias_term: false
    group: 256
    kernel_h: 3
    kernel_w: 3
    stride_h: 1
    stride_w: 1
    pad_l: 1
    pad_r: 1
    pad_t: 1
    pad_b: 1
  }
}
layer {
  name: "xception_65/entry_flow/block2/unit_1/xception_module/separable_conv2_depthwise/BatchNorm/FusedBatchNorm_nchw"
  type: "BatchNorm"
  bottom: "xception_65/entry_flow/block2/unit_1/xception_module/separable_conv2_depthwise/depthwise_nchw"
  top: "xception_65/entry_flow/block2/unit_1/xception_module/separable_conv2_depthwise/BatchNorm/FusedBatchNorm_nchw"
  batch_norm_param {
    use_global_stats: true
    eps: 0.0010000000475
  }
}
layer {
  name: "xception_65/entry_flow/block2/unit_1/xception_module/separable_conv2_depthwise/BatchNorm/FusedBatchNorm_scale"
  type: "Scale"
  bottom: "xception_65/entry_flow/block2/unit_1/xception_module/separable_conv2_depthwise/BatchNorm/FusedBatchNorm_nchw"
  top: "xception_65/entry_flow/block2/unit_1/xception_module/separable_conv2_depthwise/BatchNorm/FusedBatchNorm_scale"
  scale_param {
    bias_term: true
  }
}
layer {
  name: "xception_65/entry_flow/block2/unit_1/xception_module/separable_conv2_pointwise/Conv2D_nchw"
  type: "Convolution"
  bottom: "xception_65/entry_flow/block2/unit_1/xception_module/separable_conv2_depthwise/BatchNorm/FusedBatchNorm_scale"
  top: "xception_65/entry_flow/block2/unit_1/xception_module/separable_conv2_pointwise/Conv2D_nchw"
  convolution_param {
    num_output: 256
    bias_term: false
    group: 1
    kernel_h: 1
    kernel_w: 1
    stride_h: 1
    stride_w: 1
    pad_l: 0
    pad_r: 0
    pad_t: 0
    pad_b: 0
  }
}
layer {
  name: "xception_65/entry_flow/block2/unit_1/xception_module/separable_conv2_pointwise/BatchNorm/FusedBatchNorm_nchw"
  type: "BatchNorm"
  bottom: "xception_65/entry_flow/block2/unit_1/xception_module/separable_conv2_pointwise/Conv2D_nchw"
  top: "xception_65/entry_flow/block2/unit_1/xception_module/separable_conv2_pointwise/BatchNorm/FusedBatchNorm_nchw"
  batch_norm_param {
    use_global_stats: true
    eps: 0.0010000000475
  }
}
layer {
  name: "xception_65/entry_flow/block2/unit_1/xception_module/separable_conv2_pointwise/BatchNorm/FusedBatchNorm_scale"
  type: "Scale"
  bottom: "xception_65/entry_flow/block2/unit_1/xception_module/separable_conv2_pointwise/BatchNorm/FusedBatchNorm_nchw"
  top: "xception_65/entry_flow/block2/unit_1/xception_module/separable_conv2_pointwise/BatchNorm/FusedBatchNorm_scale"
  scale_param {
    bias_term: true
  }
}
layer {
  name: "decoder/feature_projection0/Conv2D_nchw"
  type: "Convolution"
  bottom: "xception_65/entry_flow/block2/unit_1/xception_module/separable_conv2_pointwise/BatchNorm/FusedBatchNorm_scale"
  top: "decoder/feature_projection0/Conv2D_nchw"
  convolution_param {
    num_output: 48
    bias_term: false
    group: 1
    kernel_h: 1
    kernel_w: 1
    stride_h: 1
    stride_w: 1
    pad_l: 0
    pad_r: 0
    pad_t: 0
    pad_b: 0
  }
}
layer {
  name: "decoder/feature_projection0/BatchNorm/FusedBatchNorm_nchw"
  type: "BatchNorm"
  bottom: "decoder/feature_projection0/Conv2D_nchw"
  top: "decoder/feature_projection0/BatchNorm/FusedBatchNorm_nchw"
  batch_norm_param {
    use_global_stats: true
    eps: 1.00099996416e-05
  }
}
layer {
  name: "decoder/feature_projection0/BatchNorm/FusedBatchNorm_scale"
  type: "Scale"
  bottom: "decoder/feature_projection0/BatchNorm/FusedBatchNorm_nchw"
  top: "decoder/feature_projection0/BatchNorm/FusedBatchNorm_scale"
  scale_param {
    bias_term: true
  }
}
layer {
  name: "decoder/feature_projection0/Relu"
  type: "ReLU"
  bottom: "decoder/feature_projection0/BatchNorm/FusedBatchNorm_scale"
  top: "decoder/feature_projection0/Relu"
}
layer {
  name: "decoder/ResizeBilinear_1"
  type: "ResizeBilinear"
  bottom: "decoder/feature_projection0/Relu"
  top: "decoder/ResizeBilinear_1"
  resize_bilinear_param {
    align_corners: true
    output_height: 129
    output_width: 129
    data_format: "NCHW"
  }
}
layer {
  name: "xception_65/entry_flow/block2/unit_1/xception_module/Relu_2"
  type: "ReLU"
  bottom: "xception_65/entry_flow/block2/unit_1/xception_module/separable_conv2_pointwise/BatchNorm/FusedBatchNorm_scale"
  top: "xception_65/entry_flow/block2/unit_1/xception_module/Relu_2"
}
layer {
  name: "xception_65/entry_flow/block2/unit_1/xception_module/separable_conv3_depthwise/depthwise_nchw"
  type: "Convolution"
  bottom: "xception_65/entry_flow/block2/unit_1/xception_module/Relu_2"
  top: "xception_65/entry_flow/block2/unit_1/xception_module/separable_conv3_depthwise/depthwise_nchw"
  convolution_param {
    num_output: 256
    bias_term: false
    group: 256
    kernel_h: 3
    kernel_w: 3
    stride_h: 2
    stride_w: 2
    pad_l: 1
    pad_r: 1
    pad_t: 1
    pad_b: 1
  }
}
layer {
  name: "xception_65/entry_flow/block2/unit_1/xception_module/separable_conv3_depthwise/BatchNorm/FusedBatchNorm_nchw"
  type: "BatchNorm"
  bottom: "xception_65/entry_flow/block2/unit_1/xception_module/separable_conv3_depthwise/depthwise_nchw"
  top: "xception_65/entry_flow/block2/unit_1/xception_module/separable_conv3_depthwise/BatchNorm/FusedBatchNorm_nchw"
  batch_norm_param {
    use_global_stats: true
    eps: 0.0010000000475
  }
}
layer {
  name: "xception_65/entry_flow/block2/unit_1/xception_module/separable_conv3_depthwise/BatchNorm/FusedBatchNorm_scale"
  type: "Scale"
  bottom: "xception_65/entry_flow/block2/unit_1/xception_module/separable_conv3_depthwise/BatchNorm/FusedBatchNorm_nchw"
  top: "xception_65/entry_flow/block2/unit_1/xception_module/separable_conv3_depthwise/BatchNorm/FusedBatchNorm_scale"
  scale_param {
    bias_term: true
  }
}
layer {
  name: "xception_65/entry_flow/block2/unit_1/xception_module/separable_conv3_pointwise/Conv2D_nchw"
  type: "Convolution"
  bottom: "xception_65/entry_flow/block2/unit_1/xception_module/separable_conv3_depthwise/BatchNorm/FusedBatchNorm_scale"
  top: "xception_65/entry_flow/block2/unit_1/xception_module/separable_conv3_pointwise/Conv2D_nchw"
  convolution_param {
    num_output: 256
    bias_term: false
    group: 1
    kernel_h: 1
    kernel_w: 1
    stride_h: 1
    stride_w: 1
    pad_l: 0
    pad_r: 0
    pad_t: 0
    pad_b: 0
  }
}
layer {
  name: "xception_65/entry_flow/block2/unit_1/xception_module/separable_conv3_pointwise/BatchNorm/FusedBatchNorm_nchw"
  type: "BatchNorm"
  bottom: "xception_65/entry_flow/block2/unit_1/xception_module/separable_conv3_pointwise/Conv2D_nchw"
  top: "xception_65/entry_flow/block2/unit_1/xception_module/separable_conv3_pointwise/BatchNorm/FusedBatchNorm_nchw"
  batch_norm_param {
    use_global_stats: true
    eps: 0.0010000000475
  }
}
layer {
  name: "xception_65/entry_flow/block2/unit_1/xception_module/separable_conv3_pointwise/BatchNorm/FusedBatchNorm_scale"
  type: "Scale"
  bottom: "xception_65/entry_flow/block2/unit_1/xception_module/separable_conv3_pointwise/BatchNorm/FusedBatchNorm_nchw"
  top: "xception_65/entry_flow/block2/unit_1/xception_module/separable_conv3_pointwise/BatchNorm/FusedBatchNorm_scale"
  scale_param {
    bias_term: true
  }
}
layer {
  name: "xception_65/entry_flow/block2/unit_1/xception_module/add"
  type: "Eltwise"
  bottom: "xception_65/entry_flow/block2/unit_1/xception_module/separable_conv3_pointwise/BatchNorm/FusedBatchNorm_scale"
  bottom: "xception_65/entry_flow/block2/unit_1/xception_module/shortcut/BatchNorm/FusedBatchNorm_scale"
  top: "xception_65/entry_flow/block2/unit_1/xception_module/add"
  eltwise_param {
    operation: SUM
    coeff: 1.0
    coeff: 1.0
  }
}
layer {
  name: "xception_65/entry_flow/block3/unit_1/xception_module/Relu"
  type: "ReLU"
  bottom: "xception_65/entry_flow/block2/unit_1/xception_module/add"
  top: "xception_65/entry_flow/block3/unit_1/xception_module/Relu"
}
layer {
  name: "xception_65/entry_flow/block3/unit_1/xception_module/separable_conv1_depthwise/depthwise_nchw"
  type: "Convolution"
  bottom: "xception_65/entry_flow/block3/unit_1/xception_module/Relu"
  top: "xception_65/entry_flow/block3/unit_1/xception_module/separable_conv1_depthwise/depthwise_nchw"
  convolution_param {
    num_output: 256
    bias_term: false
    group: 256
    kernel_h: 3
    kernel_w: 3
    stride_h: 1
    stride_w: 1
    pad_l: 1
    pad_r: 1
    pad_t: 1
    pad_b: 1
  }
}
layer {
  name: "xception_65/entry_flow/block3/unit_1/xception_module/separable_conv1_depthwise/BatchNorm/FusedBatchNorm_nchw"
  type: "BatchNorm"
  bottom: "xception_65/entry_flow/block3/unit_1/xception_module/separable_conv1_depthwise/depthwise_nchw"
  top: "xception_65/entry_flow/block3/unit_1/xception_module/separable_conv1_depthwise/BatchNorm/FusedBatchNorm_nchw"
  batch_norm_param {
    use_global_stats: true
    eps: 0.0010000000475
  }
}
layer {
  name: "xception_65/entry_flow/block3/unit_1/xception_module/separable_conv1_depthwise/BatchNorm/FusedBatchNorm_scale"
  type: "Scale"
  bottom: "xception_65/entry_flow/block3/unit_1/xception_module/separable_conv1_depthwise/BatchNorm/FusedBatchNorm_nchw"
  top: "xception_65/entry_flow/block3/unit_1/xception_module/separable_conv1_depthwise/BatchNorm/FusedBatchNorm_scale"
  scale_param {
    bias_term: true
  }
}
layer {
  name: "xception_65/entry_flow/block3/unit_1/xception_module/separable_conv1_pointwise/Conv2D_nchw"
  type: "Convolution"
  bottom: "xception_65/entry_flow/block3/unit_1/xception_module/separable_conv1_depthwise/BatchNorm/FusedBatchNorm_scale"
  top: "xception_65/entry_flow/block3/unit_1/xception_module/separable_conv1_pointwise/Conv2D_nchw"
  convolution_param {
    num_output: 728
    bias_term: false
    group: 1
    kernel_h: 1
    kernel_w: 1
    stride_h: 1
    stride_w: 1
    pad_l: 0
    pad_r: 0
    pad_t: 0
    pad_b: 0
  }
}
layer {
  name: "xception_65/entry_flow/block3/unit_1/xception_module/separable_conv1_pointwise/BatchNorm/FusedBatchNorm_nchw"
  type: "BatchNorm"
  bottom: "xception_65/entry_flow/block3/unit_1/xception_module/separable_conv1_pointwise/Conv2D_nchw"
  top: "xception_65/entry_flow/block3/unit_1/xception_module/separable_conv1_pointwise/BatchNorm/FusedBatchNorm_nchw"
  batch_norm_param {
    use_global_stats: true
    eps: 0.0010000000475
  }
}
layer {
  name: "xception_65/entry_flow/block3/unit_1/xception_module/separable_conv1_pointwise/BatchNorm/FusedBatchNorm_scale"
  type: "Scale"
  bottom: "xception_65/entry_flow/block3/unit_1/xception_module/separable_conv1_pointwise/BatchNorm/FusedBatchNorm_nchw"
  top: "xception_65/entry_flow/block3/unit_1/xception_module/separable_conv1_pointwise/BatchNorm/FusedBatchNorm_scale"
  scale_param {
    bias_term: true
  }
}
layer {
  name: "xception_65/entry_flow/block3/unit_1/xception_module/Relu_1"
  type: "ReLU"
  bottom: "xception_65/entry_flow/block3/unit_1/xception_module/separable_conv1_pointwise/BatchNorm/FusedBatchNorm_scale"
  top: "xception_65/entry_flow/block3/unit_1/xception_module/Relu_1"
}
layer {
  name: "xception_65/entry_flow/block3/unit_1/xception_module/separable_conv2_depthwise/depthwise_nchw"
  type: "Convolution"
  bottom: "xception_65/entry_flow/block3/unit_1/xception_module/Relu_1"
  top: "xception_65/entry_flow/block3/unit_1/xception_module/separable_conv2_depthwise/depthwise_nchw"
  convolution_param {
    num_output: 728
    bias_term: false
    group: 728
    kernel_h: 3
    kernel_w: 3
    stride_h: 1
    stride_w: 1
    pad_l: 1
    pad_r: 1
    pad_t: 1
    pad_b: 1
  }
}
layer {
  name: "xception_65/entry_flow/block3/unit_1/xception_module/separable_conv2_depthwise/BatchNorm/FusedBatchNorm_nchw"
  type: "BatchNorm"
  bottom: "xception_65/entry_flow/block3/unit_1/xception_module/separable_conv2_depthwise/depthwise_nchw"
  top: "xception_65/entry_flow/block3/unit_1/xception_module/separable_conv2_depthwise/BatchNorm/FusedBatchNorm_nchw"
  batch_norm_param {
    use_global_stats: true
    eps: 0.0010000000475
  }
}
layer {
  name: "xception_65/entry_flow/block3/unit_1/xception_module/separable_conv2_depthwise/BatchNorm/FusedBatchNorm_scale"
  type: "Scale"
  bottom: "xception_65/entry_flow/block3/unit_1/xception_module/separable_conv2_depthwise/BatchNorm/FusedBatchNorm_nchw"
  top: "xception_65/entry_flow/block3/unit_1/xception_module/separable_conv2_depthwise/BatchNorm/FusedBatchNorm_scale"
  scale_param {
    bias_term: true
  }
}
layer {
  name: "xception_65/entry_flow/block3/unit_1/xception_module/separable_conv2_pointwise/Conv2D_nchw"
  type: "Convolution"
  bottom: "xception_65/entry_flow/block3/unit_1/xception_module/separable_conv2_depthwise/BatchNorm/FusedBatchNorm_scale"
  top: "xception_65/entry_flow/block3/unit_1/xception_module/separable_conv2_pointwise/Conv2D_nchw"
  convolution_param {
    num_output: 728
    bias_term: false
    group: 1
    kernel_h: 1
    kernel_w: 1
    stride_h: 1
    stride_w: 1
    pad_l: 0
    pad_r: 0
    pad_t: 0
    pad_b: 0
  }
}
layer {
  name: "xception_65/entry_flow/block3/unit_1/xception_module/separable_conv2_pointwise/BatchNorm/FusedBatchNorm_nchw"
  type: "BatchNorm"
  bottom: "xception_65/entry_flow/block3/unit_1/xception_module/separable_conv2_pointwise/Conv2D_nchw"
  top: "xception_65/entry_flow/block3/unit_1/xception_module/separable_conv2_pointwise/BatchNorm/FusedBatchNorm_nchw"
  batch_norm_param {
    use_global_stats: true
    eps: 0.0010000000475
  }
}
layer {
  name: "xception_65/entry_flow/block3/unit_1/xception_module/separable_conv2_pointwise/BatchNorm/FusedBatchNorm_scale"
  type: "Scale"
  bottom: "xception_65/entry_flow/block3/unit_1/xception_module/separable_conv2_pointwise/BatchNorm/FusedBatchNorm_nchw"
  top: "xception_65/entry_flow/block3/unit_1/xception_module/separable_conv2_pointwise/BatchNorm/FusedBatchNorm_scale"
  scale_param {
    bias_term: true
  }
}
layer {
  name: "xception_65/entry_flow/block3/unit_1/xception_module/Relu_2"
  type: "ReLU"
  bottom: "xception_65/entry_flow/block3/unit_1/xception_module/separable_conv2_pointwise/BatchNorm/FusedBatchNorm_scale"
  top: "xception_65/entry_flow/block3/unit_1/xception_module/Relu_2"
}
layer {
  name: "xception_65/entry_flow/block3/unit_1/xception_module/separable_conv3_depthwise/depthwise_nchw"
  type: "Convolution"
  bottom: "xception_65/entry_flow/block3/unit_1/xception_module/Relu_2"
  top: "xception_65/entry_flow/block3/unit_1/xception_module/separable_conv3_depthwise/depthwise_nchw"
  convolution_param {
    num_output: 728
    bias_term: false
    group: 728
    kernel_h: 3
    kernel_w: 3
    stride_h: 1
    stride_w: 1
    pad_l: 1
    pad_r: 1
    pad_t: 1
    pad_b: 1
  }
}
layer {
  name: "xception_65/entry_flow/block3/unit_1/xception_module/separable_conv3_depthwise/BatchNorm/FusedBatchNorm_nchw"
  type: "BatchNorm"
  bottom: "xception_65/entry_flow/block3/unit_1/xception_module/separable_conv3_depthwise/depthwise_nchw"
  top: "xception_65/entry_flow/block3/unit_1/xception_module/separable_conv3_depthwise/BatchNorm/FusedBatchNorm_nchw"
  batch_norm_param {
    use_global_stats: true
    eps: 0.0010000000475
  }
}
layer {
  name: "xception_65/entry_flow/block3/unit_1/xception_module/separable_conv3_depthwise/BatchNorm/FusedBatchNorm_scale"
  type: "Scale"
  bottom: "xception_65/entry_flow/block3/unit_1/xception_module/separable_conv3_depthwise/BatchNorm/FusedBatchNorm_nchw"
  top: "xception_65/entry_flow/block3/unit_1/xception_module/separable_conv3_depthwise/BatchNorm/FusedBatchNorm_scale"
  scale_param {
    bias_term: true
  }
}
layer {
  name: "xception_65/entry_flow/block3/unit_1/xception_module/separable_conv3_pointwise/Conv2D_nchw"
  type: "Convolution"
  bottom: "xception_65/entry_flow/block3/unit_1/xception_module/separable_conv3_depthwise/BatchNorm/FusedBatchNorm_scale"
  top: "xception_65/entry_flow/block3/unit_1/xception_module/separable_conv3_pointwise/Conv2D_nchw"
  convolution_param {
    num_output: 728
    bias_term: false
    group: 1
    kernel_h: 1
    kernel_w: 1
    stride_h: 1
    stride_w: 1
    pad_l: 0
    pad_r: 0
    pad_t: 0
    pad_b: 0
  }
}
layer {
  name: "xception_65/entry_flow/block3/unit_1/xception_module/separable_conv3_pointwise/BatchNorm/FusedBatchNorm_nchw"
  type: "BatchNorm"
  bottom: "xception_65/entry_flow/block3/unit_1/xception_module/separable_conv3_pointwise/Conv2D_nchw"
  top: "xception_65/entry_flow/block3/unit_1/xception_module/separable_conv3_pointwise/BatchNorm/FusedBatchNorm_nchw"
  batch_norm_param {
    use_global_stats: true
    eps: 0.0010000000475
  }
}
layer {
  name: "xception_65/entry_flow/block3/unit_1/xception_module/separable_conv3_pointwise/BatchNorm/FusedBatchNorm_scale"
  type: "Scale"
  bottom: "xception_65/entry_flow/block3/unit_1/xception_module/separable_conv3_pointwise/BatchNorm/FusedBatchNorm_nchw"
  top: "xception_65/entry_flow/block3/unit_1/xception_module/separable_conv3_pointwise/BatchNorm/FusedBatchNorm_scale"
  scale_param {
    bias_term: true
  }
}
layer {
  name: "xception_65/entry_flow/block3/unit_1/xception_module/shortcut/Conv2D_nchw"
  type: "Convolution"
  bottom: "xception_65/entry_flow/block2/unit_1/xception_module/add"
  top: "xception_65/entry_flow/block3/unit_1/xception_module/shortcut/Conv2D_nchw"
  convolution_param {
    num_output: 728
    bias_term: false
    group: 1
    kernel_h: 1
    kernel_w: 1
    stride_h: 1
    stride_w: 1
    pad_l: 0
    pad_r: 0
    pad_t: 0
    pad_b: 0
  }
}
layer {
  name: "xception_65/entry_flow/block3/unit_1/xception_module/shortcut/BatchNorm/FusedBatchNorm_nchw"
  type: "BatchNorm"
  bottom: "xception_65/entry_flow/block3/unit_1/xception_module/shortcut/Conv2D_nchw"
  top: "xception_65/entry_flow/block3/unit_1/xception_module/shortcut/BatchNorm/FusedBatchNorm_nchw"
  batch_norm_param {
    use_global_stats: true
    eps: 0.0010000000475
  }
}
layer {
  name: "xception_65/entry_flow/block3/unit_1/xception_module/shortcut/BatchNorm/FusedBatchNorm_scale"
  type: "Scale"
  bottom: "xception_65/entry_flow/block3/unit_1/xception_module/shortcut/BatchNorm/FusedBatchNorm_nchw"
  top: "xception_65/entry_flow/block3/unit_1/xception_module/shortcut/BatchNorm/FusedBatchNorm_scale"
  scale_param {
    bias_term: true
  }
}
layer {
  name: "xception_65/entry_flow/block3/unit_1/xception_module/add"
  type: "Eltwise"
  bottom: "xception_65/entry_flow/block3/unit_1/xception_module/separable_conv3_pointwise/BatchNorm/FusedBatchNorm_scale"
  bottom: "xception_65/entry_flow/block3/unit_1/xception_module/shortcut/BatchNorm/FusedBatchNorm_scale"
  top: "xception_65/entry_flow/block3/unit_1/xception_module/add"
  eltwise_param {
    operation: SUM
    coeff: 1.0
    coeff: 1.0
  }
}
layer {
  name: "xception_65/middle_flow/block1/unit_1/xception_module/Relu"
  type: "ReLU"
  bottom: "xception_65/entry_flow/block3/unit_1/xception_module/add"
  top: "xception_65/middle_flow/block1/unit_1/xception_module/Relu"
}
layer {
  name: "xception_65/middle_flow/block1/unit_1/xception_module/separable_conv1_depthwise/depthwise/SpaceToBatchND"
  type: "SpaceToBatchND"
  bottom: "xception_65/middle_flow/block1/unit_1/xception_module/Relu"
  top: "xception_65/middle_flow/block1/unit_1/xception_module/separable_conv1_depthwise/depthwise/SpaceToBatchND"
  space_to_batch_nd_param {
    block_shape: 1
    block_shape: 2
    block_shape: 2
    paddings: 0
    paddings: 0
    paddings: 2
    paddings: 3
    paddings: 2
    paddings: 3
  }
}
layer {
  name: "xception_65/middle_flow/block1/unit_1/xception_module/separable_conv1_depthwise/depthwise_nchw"
  type: "Convolution"
  bottom: "xception_65/middle_flow/block1/unit_1/xception_module/separable_conv1_depthwise/depthwise/SpaceToBatchND"
  top: "xception_65/middle_flow/block1/unit_1/xception_module/separable_conv1_depthwise/depthwise_nchw"
  convolution_param {
    num_output: 728
    bias_term: false
    group: 728
    kernel_h: 3
    kernel_w: 3
    stride_h: 1
    stride_w: 1
    pad_l: 0
    pad_r: 0
    pad_t: 0
    pad_b: 0
  }
}
layer {
  name: "xception_65/middle_flow/block1/unit_1/xception_module/separable_conv1_depthwise/depthwise/BatchToSpaceND"
  type: "BatchToSpaceND"
  bottom: "xception_65/middle_flow/block1/unit_1/xception_module/separable_conv1_depthwise/depthwise_nchw"
  top: "xception_65/middle_flow/block1/unit_1/xception_module/separable_conv1_depthwise/depthwise/BatchToSpaceND"
  batch_to_space_nd_param {
    block_shape: 1
    block_shape: 2
    block_shape: 2
    crops: 0
    crops: 0
    crops: 0
    crops: 1
    crops: 0
    crops: 1
  }
}
layer {
  name: "xception_65/middle_flow/block1/unit_1/xception_module/separable_conv1_depthwise/BatchNorm/FusedBatchNorm_nchw"
  type: "BatchNorm"
  bottom: "xception_65/middle_flow/block1/unit_1/xception_module/separable_conv1_depthwise/depthwise/BatchToSpaceND"
  top: "xception_65/middle_flow/block1/unit_1/xception_module/separable_conv1_depthwise/BatchNorm/FusedBatchNorm_nchw"
  batch_norm_param {
    use_global_stats: true
    eps: 0.0010000000475
  }
}
layer {
  name: "xception_65/middle_flow/block1/unit_1/xception_module/separable_conv1_depthwise/BatchNorm/FusedBatchNorm_scale"
  type: "Scale"
  bottom: "xception_65/middle_flow/block1/unit_1/xception_module/separable_conv1_depthwise/BatchNorm/FusedBatchNorm_nchw"
  top: "xception_65/middle_flow/block1/unit_1/xception_module/separable_conv1_depthwise/BatchNorm/FusedBatchNorm_scale"
  scale_param {
    bias_term: true
  }
}
layer {
  name: "xception_65/middle_flow/block1/unit_1/xception_module/separable_conv1_pointwise/Conv2D_nchw"
  type: "Convolution"
  bottom: "xception_65/middle_flow/block1/unit_1/xception_module/separable_conv1_depthwise/BatchNorm/FusedBatchNorm_scale"
  top: "xception_65/middle_flow/block1/unit_1/xception_module/separable_conv1_pointwise/Conv2D_nchw"
  convolution_param {
    num_output: 728
    bias_term: false
    group: 1
    kernel_h: 1
    kernel_w: 1
    stride_h: 1
    stride_w: 1
    pad_l: 0
    pad_r: 0
    pad_t: 0
    pad_b: 0
  }
}
layer {
  name: "xception_65/middle_flow/block1/unit_1/xception_module/separable_conv1_pointwise/BatchNorm/FusedBatchNorm_nchw"
  type: "BatchNorm"
  bottom: "xception_65/middle_flow/block1/unit_1/xception_module/separable_conv1_pointwise/Conv2D_nchw"
  top: "xception_65/middle_flow/block1/unit_1/xception_module/separable_conv1_pointwise/BatchNorm/FusedBatchNorm_nchw"
  batch_norm_param {
    use_global_stats: true
    eps: 0.0010000000475
  }
}
layer {
  name: "xception_65/middle_flow/block1/unit_1/xception_module/separable_conv1_pointwise/BatchNorm/FusedBatchNorm_scale"
  type: "Scale"
  bottom: "xception_65/middle_flow/block1/unit_1/xception_module/separable_conv1_pointwise/BatchNorm/FusedBatchNorm_nchw"
  top: "xception_65/middle_flow/block1/unit_1/xception_module/separable_conv1_pointwise/BatchNorm/FusedBatchNorm_scale"
  scale_param {
    bias_term: true
  }
}
layer {
  name: "xception_65/middle_flow/block1/unit_1/xception_module/Relu_1"
  type: "ReLU"
  bottom: "xception_65/middle_flow/block1/unit_1/xception_module/separable_conv1_pointwise/BatchNorm/FusedBatchNorm_scale"
  top: "xception_65/middle_flow/block1/unit_1/xception_module/Relu_1"
}
layer {
  name: "xception_65/middle_flow/block1/unit_1/xception_module/separable_conv2_depthwise/depthwise/SpaceToBatchND"
  type: "SpaceToBatchND"
  bottom: "xception_65/middle_flow/block1/unit_1/xception_module/Relu_1"
  top: "xception_65/middle_flow/block1/unit_1/xception_module/separable_conv2_depthwise/depthwise/SpaceToBatchND"
  space_to_batch_nd_param {
    block_shape: 1
    block_shape: 2
    block_shape: 2
    paddings: 0
    paddings: 0
    paddings: 2
    paddings: 3
    paddings: 2
    paddings: 3
  }
}
layer {
  name: "xception_65/middle_flow/block1/unit_1/xception_module/separable_conv2_depthwise/depthwise_nchw"
  type: "Convolution"
  bottom: "xception_65/middle_flow/block1/unit_1/xception_module/separable_conv2_depthwise/depthwise/SpaceToBatchND"
  top: "xception_65/middle_flow/block1/unit_1/xception_module/separable_conv2_depthwise/depthwise_nchw"
  convolution_param {
    num_output: 728
    bias_term: false
    group: 728
    kernel_h: 3
    kernel_w: 3
    stride_h: 1
    stride_w: 1
    pad_l: 0
    pad_r: 0
    pad_t: 0
    pad_b: 0
  }
}
layer {
  name: "xception_65/middle_flow/block1/unit_1/xception_module/separable_conv2_depthwise/depthwise/BatchToSpaceND"
  type: "BatchToSpaceND"
  bottom: "xception_65/middle_flow/block1/unit_1/xception_module/separable_conv2_depthwise/depthwise_nchw"
  top: "xception_65/middle_flow/block1/unit_1/xception_module/separable_conv2_depthwise/depthwise/BatchToSpaceND"
  batch_to_space_nd_param {
    block_shape: 1
    block_shape: 2
    block_shape: 2
    crops: 0
    crops: 0
    crops: 0
    crops: 1
    crops: 0
    crops: 1
  }
}
layer {
  name: "xception_65/middle_flow/block1/unit_1/xception_module/separable_conv2_depthwise/BatchNorm/FusedBatchNorm_nchw"
  type: "BatchNorm"
  bottom: "xception_65/middle_flow/block1/unit_1/xception_module/separable_conv2_depthwise/depthwise/BatchToSpaceND"
  top: "xception_65/middle_flow/block1/unit_1/xception_module/separable_conv2_depthwise/BatchNorm/FusedBatchNorm_nchw"
  batch_norm_param {
    use_global_stats: true
    eps: 0.0010000000475
  }
}
layer {
  name: "xception_65/middle_flow/block1/unit_1/xception_module/separable_conv2_depthwise/BatchNorm/FusedBatchNorm_scale"
  type: "Scale"
  bottom: "xception_65/middle_flow/block1/unit_1/xception_module/separable_conv2_depthwise/BatchNorm/FusedBatchNorm_nchw"
  top: "xception_65/middle_flow/block1/unit_1/xception_module/separable_conv2_depthwise/BatchNorm/FusedBatchNorm_scale"
  scale_param {
    bias_term: true
  }
}
layer {
  name: "xception_65/middle_flow/block1/unit_1/xception_module/separable_conv2_pointwise/Conv2D_nchw"
  type: "Convolution"
  bottom: "xception_65/middle_flow/block1/unit_1/xception_module/separable_conv2_depthwise/BatchNorm/FusedBatchNorm_scale"
  top: "xception_65/middle_flow/block1/unit_1/xception_module/separable_conv2_pointwise/Conv2D_nchw"
  convolution_param {
    num_output: 728
    bias_term: false
    group: 1
    kernel_h: 1
    kernel_w: 1
    stride_h: 1
    stride_w: 1
    pad_l: 0
    pad_r: 0
    pad_t: 0
    pad_b: 0
  }
}
layer {
  name: "xception_65/middle_flow/block1/unit_1/xception_module/separable_conv2_pointwise/BatchNorm/FusedBatchNorm_nchw"
  type: "BatchNorm"
  bottom: "xception_65/middle_flow/block1/unit_1/xception_module/separable_conv2_pointwise/Conv2D_nchw"
  top: "xception_65/middle_flow/block1/unit_1/xception_module/separable_conv2_pointwise/BatchNorm/FusedBatchNorm_nchw"
  batch_norm_param {
    use_global_stats: true
    eps: 0.0010000000475
  }
}
layer {
  name: "xception_65/middle_flow/block1/unit_1/xception_module/separable_conv2_pointwise/BatchNorm/FusedBatchNorm_scale"
  type: "Scale"
  bottom: "xception_65/middle_flow/block1/unit_1/xception_module/separable_conv2_pointwise/BatchNorm/FusedBatchNorm_nchw"
  top: "xception_65/middle_flow/block1/unit_1/xception_module/separable_conv2_pointwise/BatchNorm/FusedBatchNorm_scale"
  scale_param {
    bias_term: true
  }
}
layer {
  name: "xception_65/middle_flow/block1/unit_1/xception_module/Relu_2"
  type: "ReLU"
  bottom: "xception_65/middle_flow/block1/unit_1/xception_module/separable_conv2_pointwise/BatchNorm/FusedBatchNorm_scale"
  top: "xception_65/middle_flow/block1/unit_1/xception_module/Relu_2"
}
layer {
  name: "xception_65/middle_flow/block1/unit_1/xception_module/separable_conv3_depthwise/depthwise/SpaceToBatchND"
  type: "SpaceToBatchND"
  bottom: "xception_65/middle_flow/block1/unit_1/xception_module/Relu_2"
  top: "xception_65/middle_flow/block1/unit_1/xception_module/separable_conv3_depthwise/depthwise/SpaceToBatchND"
  space_to_batch_nd_param {
    block_shape: 1
    block_shape: 2
    block_shape: 2
    paddings: 0
    paddings: 0
    paddings: 2
    paddings: 3
    paddings: 2
    paddings: 3
  }
}
layer {
  name: "xception_65/middle_flow/block1/unit_1/xception_module/separable_conv3_depthwise/depthwise_nchw"
  type: "Convolution"
  bottom: "xception_65/middle_flow/block1/unit_1/xception_module/separable_conv3_depthwise/depthwise/SpaceToBatchND"
  top: "xception_65/middle_flow/block1/unit_1/xception_module/separable_conv3_depthwise/depthwise_nchw"
  convolution_param {
    num_output: 728
    bias_term: false
    group: 728
    kernel_h: 3
    kernel_w: 3
    stride_h: 1
    stride_w: 1
    pad_l: 0
    pad_r: 0
    pad_t: 0
    pad_b: 0
  }
}
layer {
  name: "xception_65/middle_flow/block1/unit_1/xception_module/separable_conv3_depthwise/depthwise/BatchToSpaceND"
  type: "BatchToSpaceND"
  bottom: "xception_65/middle_flow/block1/unit_1/xception_module/separable_conv3_depthwise/depthwise_nchw"
  top: "xception_65/middle_flow/block1/unit_1/xception_module/separable_conv3_depthwise/depthwise/BatchToSpaceND"
  batch_to_space_nd_param {
    block_shape: 1
    block_shape: 2
    block_shape: 2
    crops: 0
    crops: 0
    crops: 0
    crops: 1
    crops: 0
    crops: 1
  }
}
layer {
  name: "xception_65/middle_flow/block1/unit_1/xception_module/separable_conv3_depthwise/BatchNorm/FusedBatchNorm_nchw"
  type: "BatchNorm"
  bottom: "xception_65/middle_flow/block1/unit_1/xception_module/separable_conv3_depthwise/depthwise/BatchToSpaceND"
  top: "xception_65/middle_flow/block1/unit_1/xception_module/separable_conv3_depthwise/BatchNorm/FusedBatchNorm_nchw"
  batch_norm_param {
    use_global_stats: true
    eps: 0.0010000000475
  }
}
layer {
  name: "xception_65/middle_flow/block1/unit_1/xception_module/separable_conv3_depthwise/BatchNorm/FusedBatchNorm_scale"
  type: "Scale"
  bottom: "xception_65/middle_flow/block1/unit_1/xception_module/separable_conv3_depthwise/BatchNorm/FusedBatchNorm_nchw"
  top: "xception_65/middle_flow/block1/unit_1/xception_module/separable_conv3_depthwise/BatchNorm/FusedBatchNorm_scale"
  scale_param {
    bias_term: true
  }
}
layer {
  name: "xception_65/middle_flow/block1/unit_1/xception_module/separable_conv3_pointwise/Conv2D_nchw"
  type: "Convolution"
  bottom: "xception_65/middle_flow/block1/unit_1/xception_module/separable_conv3_depthwise/BatchNorm/FusedBatchNorm_scale"
  top: "xception_65/middle_flow/block1/unit_1/xception_module/separable_conv3_pointwise/Conv2D_nchw"
  convolution_param {
    num_output: 728
    bias_term: false
    group: 1
    kernel_h: 1
    kernel_w: 1
    stride_h: 1
    stride_w: 1
    pad_l: 0
    pad_r: 0
    pad_t: 0
    pad_b: 0
  }
}
layer {
  name: "xception_65/middle_flow/block1/unit_1/xception_module/separable_conv3_pointwise/BatchNorm/FusedBatchNorm_nchw"
  type: "BatchNorm"
  bottom: "xception_65/middle_flow/block1/unit_1/xception_module/separable_conv3_pointwise/Conv2D_nchw"
  top: "xception_65/middle_flow/block1/unit_1/xception_module/separable_conv3_pointwise/BatchNorm/FusedBatchNorm_nchw"
  batch_norm_param {
    use_global_stats: true
    eps: 0.0010000000475
  }
}
layer {
  name: "xception_65/middle_flow/block1/unit_1/xception_module/separable_conv3_pointwise/BatchNorm/FusedBatchNorm_scale"
  type: "Scale"
  bottom: "xception_65/middle_flow/block1/unit_1/xception_module/separable_conv3_pointwise/BatchNorm/FusedBatchNorm_nchw"
  top: "xception_65/middle_flow/block1/unit_1/xception_module/separable_conv3_pointwise/BatchNorm/FusedBatchNorm_scale"
  scale_param {
    bias_term: true
  }
}
layer {
  name: "xception_65/middle_flow/block1/unit_1/xception_module/add"
  type: "Eltwise"
  bottom: "xception_65/middle_flow/block1/unit_1/xception_module/separable_conv3_pointwise/BatchNorm/FusedBatchNorm_scale"
  bottom: "xception_65/entry_flow/block3/unit_1/xception_module/add"
  top: "xception_65/middle_flow/block1/unit_1/xception_module/add"
  eltwise_param {
    operation: SUM
    coeff: 1.0
    coeff: 1.0
  }
}
layer {
  name: "xception_65/middle_flow/block1/unit_2/xception_module/Relu"
  type: "ReLU"
  bottom: "xception_65/middle_flow/block1/unit_1/xception_module/add"
  top: "xception_65/middle_flow/block1/unit_2/xception_module/Relu"
}
layer {
  name: "xception_65/middle_flow/block1/unit_2/xception_module/separable_conv1_depthwise/depthwise/SpaceToBatchND"
  type: "SpaceToBatchND"
  bottom: "xception_65/middle_flow/block1/unit_2/xception_module/Relu"
  top: "xception_65/middle_flow/block1/unit_2/xception_module/separable_conv1_depthwise/depthwise/SpaceToBatchND"
  space_to_batch_nd_param {
    block_shape: 1
    block_shape: 2
    block_shape: 2
    paddings: 0
    paddings: 0
    paddings: 2
    paddings: 3
    paddings: 2
    paddings: 3
  }
}
layer {
  name: "xception_65/middle_flow/block1/unit_2/xception_module/separable_conv1_depthwise/depthwise_nchw"
  type: "Convolution"
  bottom: "xception_65/middle_flow/block1/unit_2/xception_module/separable_conv1_depthwise/depthwise/SpaceToBatchND"
  top: "xception_65/middle_flow/block1/unit_2/xception_module/separable_conv1_depthwise/depthwise_nchw"
  convolution_param {
    num_output: 728
    bias_term: false
    group: 728
    kernel_h: 3
    kernel_w: 3
    stride_h: 1
    stride_w: 1
    pad_l: 0
    pad_r: 0
    pad_t: 0
    pad_b: 0
  }
}
layer {
  name: "xception_65/middle_flow/block1/unit_2/xception_module/separable_conv1_depthwise/depthwise/BatchToSpaceND"
  type: "BatchToSpaceND"
  bottom: "xception_65/middle_flow/block1/unit_2/xception_module/separable_conv1_depthwise/depthwise_nchw"
  top: "xception_65/middle_flow/block1/unit_2/xception_module/separable_conv1_depthwise/depthwise/BatchToSpaceND"
  batch_to_space_nd_param {
    block_shape: 1
    block_shape: 2
    block_shape: 2
    crops: 0
    crops: 0
    crops: 0
    crops: 1
    crops: 0
    crops: 1
  }
}
layer {
  name: "xception_65/middle_flow/block1/unit_2/xception_module/separable_conv1_depthwise/BatchNorm/FusedBatchNorm_nchw"
  type: "BatchNorm"
  bottom: "xception_65/middle_flow/block1/unit_2/xception_module/separable_conv1_depthwise/depthwise/BatchToSpaceND"
  top: "xception_65/middle_flow/block1/unit_2/xception_module/separable_conv1_depthwise/BatchNorm/FusedBatchNorm_nchw"
  batch_norm_param {
    use_global_stats: true
    eps: 0.0010000000475
  }
}
layer {
  name: "xception_65/middle_flow/block1/unit_2/xception_module/separable_conv1_depthwise/BatchNorm/FusedBatchNorm_scale"
  type: "Scale"
  bottom: "xception_65/middle_flow/block1/unit_2/xception_module/separable_conv1_depthwise/BatchNorm/FusedBatchNorm_nchw"
  top: "xception_65/middle_flow/block1/unit_2/xception_module/separable_conv1_depthwise/BatchNorm/FusedBatchNorm_scale"
  scale_param {
    bias_term: true
  }
}
layer {
  name: "xception_65/middle_flow/block1/unit_2/xception_module/separable_conv1_pointwise/Conv2D_nchw"
  type: "Convolution"
  bottom: "xception_65/middle_flow/block1/unit_2/xception_module/separable_conv1_depthwise/BatchNorm/FusedBatchNorm_scale"
  top: "xception_65/middle_flow/block1/unit_2/xception_module/separable_conv1_pointwise/Conv2D_nchw"
  convolution_param {
    num_output: 728
    bias_term: false
    group: 1
    kernel_h: 1
    kernel_w: 1
    stride_h: 1
    stride_w: 1
    pad_l: 0
    pad_r: 0
    pad_t: 0
    pad_b: 0
  }
}
layer {
  name: "xception_65/middle_flow/block1/unit_2/xception_module/separable_conv1_pointwise/BatchNorm/FusedBatchNorm_nchw"
  type: "BatchNorm"
  bottom: "xception_65/middle_flow/block1/unit_2/xception_module/separable_conv1_pointwise/Conv2D_nchw"
  top: "xception_65/middle_flow/block1/unit_2/xception_module/separable_conv1_pointwise/BatchNorm/FusedBatchNorm_nchw"
  batch_norm_param {
    use_global_stats: true
    eps: 0.0010000000475
  }
}
layer {
  name: "xception_65/middle_flow/block1/unit_2/xception_module/separable_conv1_pointwise/BatchNorm/FusedBatchNorm_scale"
  type: "Scale"
  bottom: "xception_65/middle_flow/block1/unit_2/xception_module/separable_conv1_pointwise/BatchNorm/FusedBatchNorm_nchw"
  top: "xception_65/middle_flow/block1/unit_2/xception_module/separable_conv1_pointwise/BatchNorm/FusedBatchNorm_scale"
  scale_param {
    bias_term: true
  }
}
layer {
  name: "xception_65/middle_flow/block1/unit_2/xception_module/Relu_1"
  type: "ReLU"
  bottom: "xception_65/middle_flow/block1/unit_2/xception_module/separable_conv1_pointwise/BatchNorm/FusedBatchNorm_scale"
  top: "xception_65/middle_flow/block1/unit_2/xception_module/Relu_1"
}
layer {
  name: "xception_65/middle_flow/block1/unit_2/xception_module/separable_conv2_depthwise/depthwise/SpaceToBatchND"
  type: "SpaceToBatchND"
  bottom: "xception_65/middle_flow/block1/unit_2/xception_module/Relu_1"
  top: "xception_65/middle_flow/block1/unit_2/xception_module/separable_conv2_depthwise/depthwise/SpaceToBatchND"
  space_to_batch_nd_param {
    block_shape: 1
    block_shape: 2
    block_shape: 2
    paddings: 0
    paddings: 0
    paddings: 2
    paddings: 3
    paddings: 2
    paddings: 3
  }
}
layer {
  name: "xception_65/middle_flow/block1/unit_2/xception_module/separable_conv2_depthwise/depthwise_nchw"
  type: "Convolution"
  bottom: "xception_65/middle_flow/block1/unit_2/xception_module/separable_conv2_depthwise/depthwise/SpaceToBatchND"
  top: "xception_65/middle_flow/block1/unit_2/xception_module/separable_conv2_depthwise/depthwise_nchw"
  convolution_param {
    num_output: 728
    bias_term: false
    group: 728
    kernel_h: 3
    kernel_w: 3
    stride_h: 1
    stride_w: 1
    pad_l: 0
    pad_r: 0
    pad_t: 0
    pad_b: 0
  }
}
layer {
  name: "xception_65/middle_flow/block1/unit_2/xception_module/separable_conv2_depthwise/depthwise/BatchToSpaceND"
  type: "BatchToSpaceND"
  bottom: "xception_65/middle_flow/block1/unit_2/xception_module/separable_conv2_depthwise/depthwise_nchw"
  top: "xception_65/middle_flow/block1/unit_2/xception_module/separable_conv2_depthwise/depthwise/BatchToSpaceND"
  batch_to_space_nd_param {
    block_shape: 1
    block_shape: 2
    block_shape: 2
    crops: 0
    crops: 0
    crops: 0
    crops: 1
    crops: 0
    crops: 1
  }
}
layer {
  name: "xception_65/middle_flow/block1/unit_2/xception_module/separable_conv2_depthwise/BatchNorm/FusedBatchNorm_nchw"
  type: "BatchNorm"
  bottom: "xception_65/middle_flow/block1/unit_2/xception_module/separable_conv2_depthwise/depthwise/BatchToSpaceND"
  top: "xception_65/middle_flow/block1/unit_2/xception_module/separable_conv2_depthwise/BatchNorm/FusedBatchNorm_nchw"
  batch_norm_param {
    use_global_stats: true
    eps: 0.0010000000475
  }
}
layer {
  name: "xception_65/middle_flow/block1/unit_2/xception_module/separable_conv2_depthwise/BatchNorm/FusedBatchNorm_scale"
  type: "Scale"
  bottom: "xception_65/middle_flow/block1/unit_2/xception_module/separable_conv2_depthwise/BatchNorm/FusedBatchNorm_nchw"
  top: "xception_65/middle_flow/block1/unit_2/xception_module/separable_conv2_depthwise/BatchNorm/FusedBatchNorm_scale"
  scale_param {
    bias_term: true
  }
}
layer {
  name: "xception_65/middle_flow/block1/unit_2/xception_module/separable_conv2_pointwise/Conv2D_nchw"
  type: "Convolution"
  bottom: "xception_65/middle_flow/block1/unit_2/xception_module/separable_conv2_depthwise/BatchNorm/FusedBatchNorm_scale"
  top: "xception_65/middle_flow/block1/unit_2/xception_module/separable_conv2_pointwise/Conv2D_nchw"
  convolution_param {
    num_output: 728
    bias_term: false
    group: 1
    kernel_h: 1
    kernel_w: 1
    stride_h: 1
    stride_w: 1
    pad_l: 0
    pad_r: 0
    pad_t: 0
    pad_b: 0
  }
}
layer {
  name: "xception_65/middle_flow/block1/unit_2/xception_module/separable_conv2_pointwise/BatchNorm/FusedBatchNorm_nchw"
  type: "BatchNorm"
  bottom: "xception_65/middle_flow/block1/unit_2/xception_module/separable_conv2_pointwise/Conv2D_nchw"
  top: "xception_65/middle_flow/block1/unit_2/xception_module/separable_conv2_pointwise/BatchNorm/FusedBatchNorm_nchw"
  batch_norm_param {
    use_global_stats: true
    eps: 0.0010000000475
  }
}
layer {
  name: "xception_65/middle_flow/block1/unit_2/xception_module/separable_conv2_pointwise/BatchNorm/FusedBatchNorm_scale"
  type: "Scale"
  bottom: "xception_65/middle_flow/block1/unit_2/xception_module/separable_conv2_pointwise/BatchNorm/FusedBatchNorm_nchw"
  top: "xception_65/middle_flow/block1/unit_2/xception_module/separable_conv2_pointwise/BatchNorm/FusedBatchNorm_scale"
  scale_param {
    bias_term: true
  }
}
layer {
  name: "xception_65/middle_flow/block1/unit_2/xception_module/Relu_2"
  type: "ReLU"
  bottom: "xception_65/middle_flow/block1/unit_2/xception_module/separable_conv2_pointwise/BatchNorm/FusedBatchNorm_scale"
  top: "xception_65/middle_flow/block1/unit_2/xception_module/Relu_2"
}
layer {
  name: "xception_65/middle_flow/block1/unit_2/xception_module/separable_conv3_depthwise/depthwise/SpaceToBatchND"
  type: "SpaceToBatchND"
  bottom: "xception_65/middle_flow/block1/unit_2/xception_module/Relu_2"
  top: "xception_65/middle_flow/block1/unit_2/xception_module/separable_conv3_depthwise/depthwise/SpaceToBatchND"
  space_to_batch_nd_param {
    block_shape: 1
    block_shape: 2
    block_shape: 2
    paddings: 0
    paddings: 0
    paddings: 2
    paddings: 3
    paddings: 2
    paddings: 3
  }
}
layer {
  name: "xception_65/middle_flow/block1/unit_2/xception_module/separable_conv3_depthwise/depthwise_nchw"
  type: "Convolution"
  bottom: "xception_65/middle_flow/block1/unit_2/xception_module/separable_conv3_depthwise/depthwise/SpaceToBatchND"
  top: "xception_65/middle_flow/block1/unit_2/xception_module/separable_conv3_depthwise/depthwise_nchw"
  convolution_param {
    num_output: 728
    bias_term: false
    group: 728
    kernel_h: 3
    kernel_w: 3
    stride_h: 1
    stride_w: 1
    pad_l: 0
    pad_r: 0
    pad_t: 0
    pad_b: 0
  }
}
layer {
  name: "xception_65/middle_flow/block1/unit_2/xception_module/separable_conv3_depthwise/depthwise/BatchToSpaceND"
  type: "BatchToSpaceND"
  bottom: "xception_65/middle_flow/block1/unit_2/xception_module/separable_conv3_depthwise/depthwise_nchw"
  top: "xception_65/middle_flow/block1/unit_2/xception_module/separable_conv3_depthwise/depthwise/BatchToSpaceND"
  batch_to_space_nd_param {
    block_shape: 1
    block_shape: 2
    block_shape: 2
    crops: 0
    crops: 0
    crops: 0
    crops: 1
    crops: 0
    crops: 1
  }
}
layer {
  name: "xception_65/middle_flow/block1/unit_2/xception_module/separable_conv3_depthwise/BatchNorm/FusedBatchNorm_nchw"
  type: "BatchNorm"
  bottom: "xception_65/middle_flow/block1/unit_2/xception_module/separable_conv3_depthwise/depthwise/BatchToSpaceND"
  top: "xception_65/middle_flow/block1/unit_2/xception_module/separable_conv3_depthwise/BatchNorm/FusedBatchNorm_nchw"
  batch_norm_param {
    use_global_stats: true
    eps: 0.0010000000475
  }
}
layer {
  name: "xception_65/middle_flow/block1/unit_2/xception_module/separable_conv3_depthwise/BatchNorm/FusedBatchNorm_scale"
  type: "Scale"
  bottom: "xception_65/middle_flow/block1/unit_2/xception_module/separable_conv3_depthwise/BatchNorm/FusedBatchNorm_nchw"
  top: "xception_65/middle_flow/block1/unit_2/xception_module/separable_conv3_depthwise/BatchNorm/FusedBatchNorm_scale"
  scale_param {
    bias_term: true
  }
}
layer {
  name: "xception_65/middle_flow/block1/unit_2/xception_module/separable_conv3_pointwise/Conv2D_nchw"
  type: "Convolution"
  bottom: "xception_65/middle_flow/block1/unit_2/xception_module/separable_conv3_depthwise/BatchNorm/FusedBatchNorm_scale"
  top: "xception_65/middle_flow/block1/unit_2/xception_module/separable_conv3_pointwise/Conv2D_nchw"
  convolution_param {
    num_output: 728
    bias_term: false
    group: 1
    kernel_h: 1
    kernel_w: 1
    stride_h: 1
    stride_w: 1
    pad_l: 0
    pad_r: 0
    pad_t: 0
    pad_b: 0
  }
}
layer {
  name: "xception_65/middle_flow/block1/unit_2/xception_module/separable_conv3_pointwise/BatchNorm/FusedBatchNorm_nchw"
  type: "BatchNorm"
  bottom: "xception_65/middle_flow/block1/unit_2/xception_module/separable_conv3_pointwise/Conv2D_nchw"
  top: "xception_65/middle_flow/block1/unit_2/xception_module/separable_conv3_pointwise/BatchNorm/FusedBatchNorm_nchw"
  batch_norm_param {
    use_global_stats: true
    eps: 0.0010000000475
  }
}
layer {
  name: "xception_65/middle_flow/block1/unit_2/xception_module/separable_conv3_pointwise/BatchNorm/FusedBatchNorm_scale"
  type: "Scale"
  bottom: "xception_65/middle_flow/block1/unit_2/xception_module/separable_conv3_pointwise/BatchNorm/FusedBatchNorm_nchw"
  top: "xception_65/middle_flow/block1/unit_2/xception_module/separable_conv3_pointwise/BatchNorm/FusedBatchNorm_scale"
  scale_param {
    bias_term: true
  }
}
layer {
  name: "xception_65/middle_flow/block1/unit_2/xception_module/add"
  type: "Eltwise"
  bottom: "xception_65/middle_flow/block1/unit_2/xception_module/separable_conv3_pointwise/BatchNorm/FusedBatchNorm_scale"
  bottom: "xception_65/middle_flow/block1/unit_1/xception_module/add"
  top: "xception_65/middle_flow/block1/unit_2/xception_module/add"
  eltwise_param {
    operation: SUM
    coeff: 1.0
    coeff: 1.0
  }
}
layer {
  name: "xception_65/middle_flow/block1/unit_3/xception_module/Relu"
  type: "ReLU"
  bottom: "xception_65/middle_flow/block1/unit_2/xception_module/add"
  top: "xception_65/middle_flow/block1/unit_3/xception_module/Relu"
}
layer {
  name: "xception_65/middle_flow/block1/unit_3/xception_module/separable_conv1_depthwise/depthwise/SpaceToBatchND"
  type: "SpaceToBatchND"
  bottom: "xception_65/middle_flow/block1/unit_3/xception_module/Relu"
  top: "xception_65/middle_flow/block1/unit_3/xception_module/separable_conv1_depthwise/depthwise/SpaceToBatchND"
  space_to_batch_nd_param {
    block_shape: 1
    block_shape: 2
    block_shape: 2
    paddings: 0
    paddings: 0
    paddings: 2
    paddings: 3
    paddings: 2
    paddings: 3
  }
}
layer {
  name: "xception_65/middle_flow/block1/unit_3/xception_module/separable_conv1_depthwise/depthwise_nchw"
  type: "Convolution"
  bottom: "xception_65/middle_flow/block1/unit_3/xception_module/separable_conv1_depthwise/depthwise/SpaceToBatchND"
  top: "xception_65/middle_flow/block1/unit_3/xception_module/separable_conv1_depthwise/depthwise_nchw"
  convolution_param {
    num_output: 728
    bias_term: false
    group: 728
    kernel_h: 3
    kernel_w: 3
    stride_h: 1
    stride_w: 1
    pad_l: 0
    pad_r: 0
    pad_t: 0
    pad_b: 0
  }
}
layer {
  name: "xception_65/middle_flow/block1/unit_3/xception_module/separable_conv1_depthwise/depthwise/BatchToSpaceND"
  type: "BatchToSpaceND"
  bottom: "xception_65/middle_flow/block1/unit_3/xception_module/separable_conv1_depthwise/depthwise_nchw"
  top: "xception_65/middle_flow/block1/unit_3/xception_module/separable_conv1_depthwise/depthwise/BatchToSpaceND"
  batch_to_space_nd_param {
    block_shape: 1
    block_shape: 2
    block_shape: 2
    crops: 0
    crops: 0
    crops: 0
    crops: 1
    crops: 0
    crops: 1
  }
}
layer {
  name: "xception_65/middle_flow/block1/unit_3/xception_module/separable_conv1_depthwise/BatchNorm/FusedBatchNorm_nchw"
  type: "BatchNorm"
  bottom: "xception_65/middle_flow/block1/unit_3/xception_module/separable_conv1_depthwise/depthwise/BatchToSpaceND"
  top: "xception_65/middle_flow/block1/unit_3/xception_module/separable_conv1_depthwise/BatchNorm/FusedBatchNorm_nchw"
  batch_norm_param {
    use_global_stats: true
    eps: 0.0010000000475
  }
}
layer {
  name: "xception_65/middle_flow/block1/unit_3/xception_module/separable_conv1_depthwise/BatchNorm/FusedBatchNorm_scale"
  type: "Scale"
  bottom: "xception_65/middle_flow/block1/unit_3/xception_module/separable_conv1_depthwise/BatchNorm/FusedBatchNorm_nchw"
  top: "xception_65/middle_flow/block1/unit_3/xception_module/separable_conv1_depthwise/BatchNorm/FusedBatchNorm_scale"
  scale_param {
    bias_term: true
  }
}
layer {
  name: "xception_65/middle_flow/block1/unit_3/xception_module/separable_conv1_pointwise/Conv2D_nchw"
  type: "Convolution"
  bottom: "xception_65/middle_flow/block1/unit_3/xception_module/separable_conv1_depthwise/BatchNorm/FusedBatchNorm_scale"
  top: "xception_65/middle_flow/block1/unit_3/xception_module/separable_conv1_pointwise/Conv2D_nchw"
  convolution_param {
    num_output: 728
    bias_term: false
    group: 1
    kernel_h: 1
    kernel_w: 1
    stride_h: 1
    stride_w: 1
    pad_l: 0
    pad_r: 0
    pad_t: 0
    pad_b: 0
  }
}
layer {
  name: "xception_65/middle_flow/block1/unit_3/xception_module/separable_conv1_pointwise/BatchNorm/FusedBatchNorm_nchw"
  type: "BatchNorm"
  bottom: "xception_65/middle_flow/block1/unit_3/xception_module/separable_conv1_pointwise/Conv2D_nchw"
  top: "xception_65/middle_flow/block1/unit_3/xception_module/separable_conv1_pointwise/BatchNorm/FusedBatchNorm_nchw"
  batch_norm_param {
    use_global_stats: true
    eps: 0.0010000000475
  }
}
layer {
  name: "xception_65/middle_flow/block1/unit_3/xception_module/separable_conv1_pointwise/BatchNorm/FusedBatchNorm_scale"
  type: "Scale"
  bottom: "xception_65/middle_flow/block1/unit_3/xception_module/separable_conv1_pointwise/BatchNorm/FusedBatchNorm_nchw"
  top: "xception_65/middle_flow/block1/unit_3/xception_module/separable_conv1_pointwise/BatchNorm/FusedBatchNorm_scale"
  scale_param {
    bias_term: true
  }
}
layer {
  name: "xception_65/middle_flow/block1/unit_3/xception_module/Relu_1"
  type: "ReLU"
  bottom: "xception_65/middle_flow/block1/unit_3/xception_module/separable_conv1_pointwise/BatchNorm/FusedBatchNorm_scale"
  top: "xception_65/middle_flow/block1/unit_3/xception_module/Relu_1"
}
layer {
  name: "xception_65/middle_flow/block1/unit_3/xception_module/separable_conv2_depthwise/depthwise/SpaceToBatchND"
  type: "SpaceToBatchND"
  bottom: "xception_65/middle_flow/block1/unit_3/xception_module/Relu_1"
  top: "xception_65/middle_flow/block1/unit_3/xception_module/separable_conv2_depthwise/depthwise/SpaceToBatchND"
  space_to_batch_nd_param {
    block_shape: 1
    block_shape: 2
    block_shape: 2
    paddings: 0
    paddings: 0
    paddings: 2
    paddings: 3
    paddings: 2
    paddings: 3
  }
}
layer {
  name: "xception_65/middle_flow/block1/unit_3/xception_module/separable_conv2_depthwise/depthwise_nchw"
  type: "Convolution"
  bottom: "xception_65/middle_flow/block1/unit_3/xception_module/separable_conv2_depthwise/depthwise/SpaceToBatchND"
  top: "xception_65/middle_flow/block1/unit_3/xception_module/separable_conv2_depthwise/depthwise_nchw"
  convolution_param {
    num_output: 728
    bias_term: false
    group: 728
    kernel_h: 3
    kernel_w: 3
    stride_h: 1
    stride_w: 1
    pad_l: 0
    pad_r: 0
    pad_t: 0
    pad_b: 0
  }
}
layer {
  name: "xception_65/middle_flow/block1/unit_3/xception_module/separable_conv2_depthwise/depthwise/BatchToSpaceND"
  type: "BatchToSpaceND"
  bottom: "xception_65/middle_flow/block1/unit_3/xception_module/separable_conv2_depthwise/depthwise_nchw"
  top: "xception_65/middle_flow/block1/unit_3/xception_module/separable_conv2_depthwise/depthwise/BatchToSpaceND"
  batch_to_space_nd_param {
    block_shape: 1
    block_shape: 2
    block_shape: 2
    crops: 0
    crops: 0
    crops: 0
    crops: 1
    crops: 0
    crops: 1
  }
}
layer {
  name: "xception_65/middle_flow/block1/unit_3/xception_module/separable_conv2_depthwise/BatchNorm/FusedBatchNorm_nchw"
  type: "BatchNorm"
  bottom: "xception_65/middle_flow/block1/unit_3/xception_module/separable_conv2_depthwise/depthwise/BatchToSpaceND"
  top: "xception_65/middle_flow/block1/unit_3/xception_module/separable_conv2_depthwise/BatchNorm/FusedBatchNorm_nchw"
  batch_norm_param {
    use_global_stats: true
    eps: 0.0010000000475
  }
}
layer {
  name: "xception_65/middle_flow/block1/unit_3/xception_module/separable_conv2_depthwise/BatchNorm/FusedBatchNorm_scale"
  type: "Scale"
  bottom: "xception_65/middle_flow/block1/unit_3/xception_module/separable_conv2_depthwise/BatchNorm/FusedBatchNorm_nchw"
  top: "xception_65/middle_flow/block1/unit_3/xception_module/separable_conv2_depthwise/BatchNorm/FusedBatchNorm_scale"
  scale_param {
    bias_term: true
  }
}
layer {
  name: "xception_65/middle_flow/block1/unit_3/xception_module/separable_conv2_pointwise/Conv2D_nchw"
  type: "Convolution"
  bottom: "xception_65/middle_flow/block1/unit_3/xception_module/separable_conv2_depthwise/BatchNorm/FusedBatchNorm_scale"
  top: "xception_65/middle_flow/block1/unit_3/xception_module/separable_conv2_pointwise/Conv2D_nchw"
  convolution_param {
    num_output: 728
    bias_term: false
    group: 1
    kernel_h: 1
    kernel_w: 1
    stride_h: 1
    stride_w: 1
    pad_l: 0
    pad_r: 0
    pad_t: 0
    pad_b: 0
  }
}
layer {
  name: "xception_65/middle_flow/block1/unit_3/xception_module/separable_conv2_pointwise/BatchNorm/FusedBatchNorm_nchw"
  type: "BatchNorm"
  bottom: "xception_65/middle_flow/block1/unit_3/xception_module/separable_conv2_pointwise/Conv2D_nchw"
  top: "xception_65/middle_flow/block1/unit_3/xception_module/separable_conv2_pointwise/BatchNorm/FusedBatchNorm_nchw"
  batch_norm_param {
    use_global_stats: true
    eps: 0.0010000000475
  }
}
layer {
  name: "xception_65/middle_flow/block1/unit_3/xception_module/separable_conv2_pointwise/BatchNorm/FusedBatchNorm_scale"
  type: "Scale"
  bottom: "xception_65/middle_flow/block1/unit_3/xception_module/separable_conv2_pointwise/BatchNorm/FusedBatchNorm_nchw"
  top: "xception_65/middle_flow/block1/unit_3/xception_module/separable_conv2_pointwise/BatchNorm/FusedBatchNorm_scale"
  scale_param {
    bias_term: true
  }
}
layer {
  name: "xception_65/middle_flow/block1/unit_3/xception_module/Relu_2"
  type: "ReLU"
  bottom: "xception_65/middle_flow/block1/unit_3/xception_module/separable_conv2_pointwise/BatchNorm/FusedBatchNorm_scale"
  top: "xception_65/middle_flow/block1/unit_3/xception_module/Relu_2"
}
layer {
  name: "xception_65/middle_flow/block1/unit_3/xception_module/separable_conv3_depthwise/depthwise/SpaceToBatchND"
  type: "SpaceToBatchND"
  bottom: "xception_65/middle_flow/block1/unit_3/xception_module/Relu_2"
  top: "xception_65/middle_flow/block1/unit_3/xception_module/separable_conv3_depthwise/depthwise/SpaceToBatchND"
  space_to_batch_nd_param {
    block_shape: 1
    block_shape: 2
    block_shape: 2
    paddings: 0
    paddings: 0
    paddings: 2
    paddings: 3
    paddings: 2
    paddings: 3
  }
}
layer {
  name: "xception_65/middle_flow/block1/unit_3/xception_module/separable_conv3_depthwise/depthwise_nchw"
  type: "Convolution"
  bottom: "xception_65/middle_flow/block1/unit_3/xception_module/separable_conv3_depthwise/depthwise/SpaceToBatchND"
  top: "xception_65/middle_flow/block1/unit_3/xception_module/separable_conv3_depthwise/depthwise_nchw"
  convolution_param {
    num_output: 728
    bias_term: false
    group: 728
    kernel_h: 3
    kernel_w: 3
    stride_h: 1
    stride_w: 1
    pad_l: 0
    pad_r: 0
    pad_t: 0
    pad_b: 0
  }
}
layer {
  name: "xception_65/middle_flow/block1/unit_3/xception_module/separable_conv3_depthwise/depthwise/BatchToSpaceND"
  type: "BatchToSpaceND"
  bottom: "xception_65/middle_flow/block1/unit_3/xception_module/separable_conv3_depthwise/depthwise_nchw"
  top: "xception_65/middle_flow/block1/unit_3/xception_module/separable_conv3_depthwise/depthwise/BatchToSpaceND"
  batch_to_space_nd_param {
    block_shape: 1
    block_shape: 2
    block_shape: 2
    crops: 0
    crops: 0
    crops: 0
    crops: 1
    crops: 0
    crops: 1
  }
}
layer {
  name: "xception_65/middle_flow/block1/unit_3/xception_module/separable_conv3_depthwise/BatchNorm/FusedBatchNorm_nchw"
  type: "BatchNorm"
  bottom: "xception_65/middle_flow/block1/unit_3/xception_module/separable_conv3_depthwise/depthwise/BatchToSpaceND"
  top: "xception_65/middle_flow/block1/unit_3/xception_module/separable_conv3_depthwise/BatchNorm/FusedBatchNorm_nchw"
  batch_norm_param {
    use_global_stats: true
    eps: 0.0010000000475
  }
}
layer {
  name: "xception_65/middle_flow/block1/unit_3/xception_module/separable_conv3_depthwise/BatchNorm/FusedBatchNorm_scale"
  type: "Scale"
  bottom: "xception_65/middle_flow/block1/unit_3/xception_module/separable_conv3_depthwise/BatchNorm/FusedBatchNorm_nchw"
  top: "xception_65/middle_flow/block1/unit_3/xception_module/separable_conv3_depthwise/BatchNorm/FusedBatchNorm_scale"
  scale_param {
    bias_term: true
  }
}
layer {
  name: "xception_65/middle_flow/block1/unit_3/xception_module/separable_conv3_pointwise/Conv2D_nchw"
  type: "Convolution"
  bottom: "xception_65/middle_flow/block1/unit_3/xception_module/separable_conv3_depthwise/BatchNorm/FusedBatchNorm_scale"
  top: "xception_65/middle_flow/block1/unit_3/xception_module/separable_conv3_pointwise/Conv2D_nchw"
  convolution_param {
    num_output: 728
    bias_term: false
    group: 1
    kernel_h: 1
    kernel_w: 1
    stride_h: 1
    stride_w: 1
    pad_l: 0
    pad_r: 0
    pad_t: 0
    pad_b: 0
  }
}
layer {
  name: "xception_65/middle_flow/block1/unit_3/xception_module/separable_conv3_pointwise/BatchNorm/FusedBatchNorm_nchw"
  type: "BatchNorm"
  bottom: "xception_65/middle_flow/block1/unit_3/xception_module/separable_conv3_pointwise/Conv2D_nchw"
  top: "xception_65/middle_flow/block1/unit_3/xception_module/separable_conv3_pointwise/BatchNorm/FusedBatchNorm_nchw"
  batch_norm_param {
    use_global_stats: true
    eps: 0.0010000000475
  }
}
layer {
  name: "xception_65/middle_flow/block1/unit_3/xception_module/separable_conv3_pointwise/BatchNorm/FusedBatchNorm_scale"
  type: "Scale"
  bottom: "xception_65/middle_flow/block1/unit_3/xception_module/separable_conv3_pointwise/BatchNorm/FusedBatchNorm_nchw"
  top: "xception_65/middle_flow/block1/unit_3/xception_module/separable_conv3_pointwise/BatchNorm/FusedBatchNorm_scale"
  scale_param {
    bias_term: true
  }
}
layer {
  name: "xception_65/middle_flow/block1/unit_3/xception_module/add"
  type: "Eltwise"
  bottom: "xception_65/middle_flow/block1/unit_3/xception_module/separable_conv3_pointwise/BatchNorm/FusedBatchNorm_scale"
  bottom: "xception_65/middle_flow/block1/unit_2/xception_module/add"
  top: "xception_65/middle_flow/block1/unit_3/xception_module/add"
  eltwise_param {
    operation: SUM
    coeff: 1.0
    coeff: 1.0
  }
}
layer {
  name: "xception_65/middle_flow/block1/unit_4/xception_module/Relu"
  type: "ReLU"
  bottom: "xception_65/middle_flow/block1/unit_3/xception_module/add"
  top: "xception_65/middle_flow/block1/unit_4/xception_module/Relu"
}
layer {
  name: "xception_65/middle_flow/block1/unit_4/xception_module/separable_conv1_depthwise/depthwise/SpaceToBatchND"
  type: "SpaceToBatchND"
  bottom: "xception_65/middle_flow/block1/unit_4/xception_module/Relu"
  top: "xception_65/middle_flow/block1/unit_4/xception_module/separable_conv1_depthwise/depthwise/SpaceToBatchND"
  space_to_batch_nd_param {
    block_shape: 1
    block_shape: 2
    block_shape: 2
    paddings: 0
    paddings: 0
    paddings: 2
    paddings: 3
    paddings: 2
    paddings: 3
  }
}
layer {
  name: "xception_65/middle_flow/block1/unit_4/xception_module/separable_conv1_depthwise/depthwise_nchw"
  type: "Convolution"
  bottom: "xception_65/middle_flow/block1/unit_4/xception_module/separable_conv1_depthwise/depthwise/SpaceToBatchND"
  top: "xception_65/middle_flow/block1/unit_4/xception_module/separable_conv1_depthwise/depthwise_nchw"
  convolution_param {
    num_output: 728
    bias_term: false
    group: 728
    kernel_h: 3
    kernel_w: 3
    stride_h: 1
    stride_w: 1
    pad_l: 0
    pad_r: 0
    pad_t: 0
    pad_b: 0
  }
}
layer {
  name: "xception_65/middle_flow/block1/unit_4/xception_module/separable_conv1_depthwise/depthwise/BatchToSpaceND"
  type: "BatchToSpaceND"
  bottom: "xception_65/middle_flow/block1/unit_4/xception_module/separable_conv1_depthwise/depthwise_nchw"
  top: "xception_65/middle_flow/block1/unit_4/xception_module/separable_conv1_depthwise/depthwise/BatchToSpaceND"
  batch_to_space_nd_param {
    block_shape: 1
    block_shape: 2
    block_shape: 2
    crops: 0
    crops: 0
    crops: 0
    crops: 1
    crops: 0
    crops: 1
  }
}
layer {
  name: "xception_65/middle_flow/block1/unit_4/xception_module/separable_conv1_depthwise/BatchNorm/FusedBatchNorm_nchw"
  type: "BatchNorm"
  bottom: "xception_65/middle_flow/block1/unit_4/xception_module/separable_conv1_depthwise/depthwise/BatchToSpaceND"
  top: "xception_65/middle_flow/block1/unit_4/xception_module/separable_conv1_depthwise/BatchNorm/FusedBatchNorm_nchw"
  batch_norm_param {
    use_global_stats: true
    eps: 0.0010000000475
  }
}
layer {
  name: "xception_65/middle_flow/block1/unit_4/xception_module/separable_conv1_depthwise/BatchNorm/FusedBatchNorm_scale"
  type: "Scale"
  bottom: "xception_65/middle_flow/block1/unit_4/xception_module/separable_conv1_depthwise/BatchNorm/FusedBatchNorm_nchw"
  top: "xception_65/middle_flow/block1/unit_4/xception_module/separable_conv1_depthwise/BatchNorm/FusedBatchNorm_scale"
  scale_param {
    bias_term: true
  }
}
layer {
  name: "xception_65/middle_flow/block1/unit_4/xception_module/separable_conv1_pointwise/Conv2D_nchw"
  type: "Convolution"
  bottom: "xception_65/middle_flow/block1/unit_4/xception_module/separable_conv1_depthwise/BatchNorm/FusedBatchNorm_scale"
  top: "xception_65/middle_flow/block1/unit_4/xception_module/separable_conv1_pointwise/Conv2D_nchw"
  convolution_param {
    num_output: 728
    bias_term: false
    group: 1
    kernel_h: 1
    kernel_w: 1
    stride_h: 1
    stride_w: 1
    pad_l: 0
    pad_r: 0
    pad_t: 0
    pad_b: 0
  }
}
layer {
  name: "xception_65/middle_flow/block1/unit_4/xception_module/separable_conv1_pointwise/BatchNorm/FusedBatchNorm_nchw"
  type: "BatchNorm"
  bottom: "xception_65/middle_flow/block1/unit_4/xception_module/separable_conv1_pointwise/Conv2D_nchw"
  top: "xception_65/middle_flow/block1/unit_4/xception_module/separable_conv1_pointwise/BatchNorm/FusedBatchNorm_nchw"
  batch_norm_param {
    use_global_stats: true
    eps: 0.0010000000475
  }
}
layer {
  name: "xception_65/middle_flow/block1/unit_4/xception_module/separable_conv1_pointwise/BatchNorm/FusedBatchNorm_scale"
  type: "Scale"
  bottom: "xception_65/middle_flow/block1/unit_4/xception_module/separable_conv1_pointwise/BatchNorm/FusedBatchNorm_nchw"
  top: "xception_65/middle_flow/block1/unit_4/xception_module/separable_conv1_pointwise/BatchNorm/FusedBatchNorm_scale"
  scale_param {
    bias_term: true
  }
}
layer {
  name: "xception_65/middle_flow/block1/unit_4/xception_module/Relu_1"
  type: "ReLU"
  bottom: "xception_65/middle_flow/block1/unit_4/xception_module/separable_conv1_pointwise/BatchNorm/FusedBatchNorm_scale"
  top: "xception_65/middle_flow/block1/unit_4/xception_module/Relu_1"
}
layer {
  name: "xception_65/middle_flow/block1/unit_4/xception_module/separable_conv2_depthwise/depthwise/SpaceToBatchND"
  type: "SpaceToBatchND"
  bottom: "xception_65/middle_flow/block1/unit_4/xception_module/Relu_1"
  top: "xception_65/middle_flow/block1/unit_4/xception_module/separable_conv2_depthwise/depthwise/SpaceToBatchND"
  space_to_batch_nd_param {
    block_shape: 1
    block_shape: 2
    block_shape: 2
    paddings: 0
    paddings: 0
    paddings: 2
    paddings: 3
    paddings: 2
    paddings: 3
  }
}
layer {
  name: "xception_65/middle_flow/block1/unit_4/xception_module/separable_conv2_depthwise/depthwise_nchw"
  type: "Convolution"
  bottom: "xception_65/middle_flow/block1/unit_4/xception_module/separable_conv2_depthwise/depthwise/SpaceToBatchND"
  top: "xception_65/middle_flow/block1/unit_4/xception_module/separable_conv2_depthwise/depthwise_nchw"
  convolution_param {
    num_output: 728
    bias_term: false
    group: 728
    kernel_h: 3
    kernel_w: 3
    stride_h: 1
    stride_w: 1
    pad_l: 0
    pad_r: 0
    pad_t: 0
    pad_b: 0
  }
}
layer {
  name: "xception_65/middle_flow/block1/unit_4/xception_module/separable_conv2_depthwise/depthwise/BatchToSpaceND"
  type: "BatchToSpaceND"
  bottom: "xception_65/middle_flow/block1/unit_4/xception_module/separable_conv2_depthwise/depthwise_nchw"
  top: "xception_65/middle_flow/block1/unit_4/xception_module/separable_conv2_depthwise/depthwise/BatchToSpaceND"
  batch_to_space_nd_param {
    block_shape: 1
    block_shape: 2
    block_shape: 2
    crops: 0
    crops: 0
    crops: 0
    crops: 1
    crops: 0
    crops: 1
  }
}
layer {
  name: "xception_65/middle_flow/block1/unit_4/xception_module/separable_conv2_depthwise/BatchNorm/FusedBatchNorm_nchw"
  type: "BatchNorm"
  bottom: "xception_65/middle_flow/block1/unit_4/xception_module/separable_conv2_depthwise/depthwise/BatchToSpaceND"
  top: "xception_65/middle_flow/block1/unit_4/xception_module/separable_conv2_depthwise/BatchNorm/FusedBatchNorm_nchw"
  batch_norm_param {
    use_global_stats: true
    eps: 0.0010000000475
  }
}
layer {
  name: "xception_65/middle_flow/block1/unit_4/xception_module/separable_conv2_depthwise/BatchNorm/FusedBatchNorm_scale"
  type: "Scale"
  bottom: "xception_65/middle_flow/block1/unit_4/xception_module/separable_conv2_depthwise/BatchNorm/FusedBatchNorm_nchw"
  top: "xception_65/middle_flow/block1/unit_4/xception_module/separable_conv2_depthwise/BatchNorm/FusedBatchNorm_scale"
  scale_param {
    bias_term: true
  }
}
layer {
  name: "xception_65/middle_flow/block1/unit_4/xception_module/separable_conv2_pointwise/Conv2D_nchw"
  type: "Convolution"
  bottom: "xception_65/middle_flow/block1/unit_4/xception_module/separable_conv2_depthwise/BatchNorm/FusedBatchNorm_scale"
  top: "xception_65/middle_flow/block1/unit_4/xception_module/separable_conv2_pointwise/Conv2D_nchw"
  convolution_param {
    num_output: 728
    bias_term: false
    group: 1
    kernel_h: 1
    kernel_w: 1
    stride_h: 1
    stride_w: 1
    pad_l: 0
    pad_r: 0
    pad_t: 0
    pad_b: 0
  }
}
layer {
  name: "xception_65/middle_flow/block1/unit_4/xception_module/separable_conv2_pointwise/BatchNorm/FusedBatchNorm_nchw"
  type: "BatchNorm"
  bottom: "xception_65/middle_flow/block1/unit_4/xception_module/separable_conv2_pointwise/Conv2D_nchw"
  top: "xception_65/middle_flow/block1/unit_4/xception_module/separable_conv2_pointwise/BatchNorm/FusedBatchNorm_nchw"
  batch_norm_param {
    use_global_stats: true
    eps: 0.0010000000475
  }
}
layer {
  name: "xception_65/middle_flow/block1/unit_4/xception_module/separable_conv2_pointwise/BatchNorm/FusedBatchNorm_scale"
  type: "Scale"
  bottom: "xception_65/middle_flow/block1/unit_4/xception_module/separable_conv2_pointwise/BatchNorm/FusedBatchNorm_nchw"
  top: "xception_65/middle_flow/block1/unit_4/xception_module/separable_conv2_pointwise/BatchNorm/FusedBatchNorm_scale"
  scale_param {
    bias_term: true
  }
}
layer {
  name: "xception_65/middle_flow/block1/unit_4/xception_module/Relu_2"
  type: "ReLU"
  bottom: "xception_65/middle_flow/block1/unit_4/xception_module/separable_conv2_pointwise/BatchNorm/FusedBatchNorm_scale"
  top: "xception_65/middle_flow/block1/unit_4/xception_module/Relu_2"
}
layer {
  name: "xception_65/middle_flow/block1/unit_4/xception_module/separable_conv3_depthwise/depthwise/SpaceToBatchND"
  type: "SpaceToBatchND"
  bottom: "xception_65/middle_flow/block1/unit_4/xception_module/Relu_2"
  top: "xception_65/middle_flow/block1/unit_4/xception_module/separable_conv3_depthwise/depthwise/SpaceToBatchND"
  space_to_batch_nd_param {
    block_shape: 1
    block_shape: 2
    block_shape: 2
    paddings: 0
    paddings: 0
    paddings: 2
    paddings: 3
    paddings: 2
    paddings: 3
  }
}
layer {
  name: "xception_65/middle_flow/block1/unit_4/xception_module/separable_conv3_depthwise/depthwise_nchw"
  type: "Convolution"
  bottom: "xception_65/middle_flow/block1/unit_4/xception_module/separable_conv3_depthwise/depthwise/SpaceToBatchND"
  top: "xception_65/middle_flow/block1/unit_4/xception_module/separable_conv3_depthwise/depthwise_nchw"
  convolution_param {
    num_output: 728
    bias_term: false
    group: 728
    kernel_h: 3
    kernel_w: 3
    stride_h: 1
    stride_w: 1
    pad_l: 0
    pad_r: 0
    pad_t: 0
    pad_b: 0
  }
}
layer {
  name: "xception_65/middle_flow/block1/unit_4/xception_module/separable_conv3_depthwise/depthwise/BatchToSpaceND"
  type: "BatchToSpaceND"
  bottom: "xception_65/middle_flow/block1/unit_4/xception_module/separable_conv3_depthwise/depthwise_nchw"
  top: "xception_65/middle_flow/block1/unit_4/xception_module/separable_conv3_depthwise/depthwise/BatchToSpaceND"
  batch_to_space_nd_param {
    block_shape: 1
    block_shape: 2
    block_shape: 2
    crops: 0
    crops: 0
    crops: 0
    crops: 1
    crops: 0
    crops: 1
  }
}
layer {
  name: "xception_65/middle_flow/block1/unit_4/xception_module/separable_conv3_depthwise/BatchNorm/FusedBatchNorm_nchw"
  type: "BatchNorm"
  bottom: "xception_65/middle_flow/block1/unit_4/xception_module/separable_conv3_depthwise/depthwise/BatchToSpaceND"
  top: "xception_65/middle_flow/block1/unit_4/xception_module/separable_conv3_depthwise/BatchNorm/FusedBatchNorm_nchw"
  batch_norm_param {
    use_global_stats: true
    eps: 0.0010000000475
  }
}
layer {
  name: "xception_65/middle_flow/block1/unit_4/xception_module/separable_conv3_depthwise/BatchNorm/FusedBatchNorm_scale"
  type: "Scale"
  bottom: "xception_65/middle_flow/block1/unit_4/xception_module/separable_conv3_depthwise/BatchNorm/FusedBatchNorm_nchw"
  top: "xception_65/middle_flow/block1/unit_4/xception_module/separable_conv3_depthwise/BatchNorm/FusedBatchNorm_scale"
  scale_param {
    bias_term: true
  }
}
layer {
  name: "xception_65/middle_flow/block1/unit_4/xception_module/separable_conv3_pointwise/Conv2D_nchw"
  type: "Convolution"
  bottom: "xception_65/middle_flow/block1/unit_4/xception_module/separable_conv3_depthwise/BatchNorm/FusedBatchNorm_scale"
  top: "xception_65/middle_flow/block1/unit_4/xception_module/separable_conv3_pointwise/Conv2D_nchw"
  convolution_param {
    num_output: 728
    bias_term: false
    group: 1
    kernel_h: 1
    kernel_w: 1
    stride_h: 1
    stride_w: 1
    pad_l: 0
    pad_r: 0
    pad_t: 0
    pad_b: 0
  }
}
layer {
  name: "xception_65/middle_flow/block1/unit_4/xception_module/separable_conv3_pointwise/BatchNorm/FusedBatchNorm_nchw"
  type: "BatchNorm"
  bottom: "xception_65/middle_flow/block1/unit_4/xception_module/separable_conv3_pointwise/Conv2D_nchw"
  top: "xception_65/middle_flow/block1/unit_4/xception_module/separable_conv3_pointwise/BatchNorm/FusedBatchNorm_nchw"
  batch_norm_param {
    use_global_stats: true
    eps: 0.0010000000475
  }
}
layer {
  name: "xception_65/middle_flow/block1/unit_4/xception_module/separable_conv3_pointwise/BatchNorm/FusedBatchNorm_scale"
  type: "Scale"
  bottom: "xception_65/middle_flow/block1/unit_4/xception_module/separable_conv3_pointwise/BatchNorm/FusedBatchNorm_nchw"
  top: "xception_65/middle_flow/block1/unit_4/xception_module/separable_conv3_pointwise/BatchNorm/FusedBatchNorm_scale"
  scale_param {
    bias_term: true
  }
}
layer {
  name: "xception_65/middle_flow/block1/unit_4/xception_module/add"
  type: "Eltwise"
  bottom: "xception_65/middle_flow/block1/unit_4/xception_module/separable_conv3_pointwise/BatchNorm/FusedBatchNorm_scale"
  bottom: "xception_65/middle_flow/block1/unit_3/xception_module/add"
  top: "xception_65/middle_flow/block1/unit_4/xception_module/add"
  eltwise_param {
    operation: SUM
    coeff: 1.0
    coeff: 1.0
  }
}
layer {
  name: "xception_65/middle_flow/block1/unit_5/xception_module/Relu"
  type: "ReLU"
  bottom: "xception_65/middle_flow/block1/unit_4/xception_module/add"
  top: "xception_65/middle_flow/block1/unit_5/xception_module/Relu"
}
layer {
  name: "xception_65/middle_flow/block1/unit_5/xception_module/separable_conv1_depthwise/depthwise/SpaceToBatchND"
  type: "SpaceToBatchND"
  bottom: "xception_65/middle_flow/block1/unit_5/xception_module/Relu"
  top: "xception_65/middle_flow/block1/unit_5/xception_module/separable_conv1_depthwise/depthwise/SpaceToBatchND"
  space_to_batch_nd_param {
    block_shape: 1
    block_shape: 2
    block_shape: 2
    paddings: 0
    paddings: 0
    paddings: 2
    paddings: 3
    paddings: 2
    paddings: 3
  }
}
layer {
  name: "xception_65/middle_flow/block1/unit_5/xception_module/separable_conv1_depthwise/depthwise_nchw"
  type: "Convolution"
  bottom: "xception_65/middle_flow/block1/unit_5/xception_module/separable_conv1_depthwise/depthwise/SpaceToBatchND"
  top: "xception_65/middle_flow/block1/unit_5/xception_module/separable_conv1_depthwise/depthwise_nchw"
  convolution_param {
    num_output: 728
    bias_term: false
    group: 728
    kernel_h: 3
    kernel_w: 3
    stride_h: 1
    stride_w: 1
    pad_l: 0
    pad_r: 0
    pad_t: 0
    pad_b: 0
  }
}
layer {
  name: "xception_65/middle_flow/block1/unit_5/xception_module/separable_conv1_depthwise/depthwise/BatchToSpaceND"
  type: "BatchToSpaceND"
  bottom: "xception_65/middle_flow/block1/unit_5/xception_module/separable_conv1_depthwise/depthwise_nchw"
  top: "xception_65/middle_flow/block1/unit_5/xception_module/separable_conv1_depthwise/depthwise/BatchToSpaceND"
  batch_to_space_nd_param {
    block_shape: 1
    block_shape: 2
    block_shape: 2
    crops: 0
    crops: 0
    crops: 0
    crops: 1
    crops: 0
    crops: 1
  }
}
layer {
  name: "xception_65/middle_flow/block1/unit_5/xception_module/separable_conv1_depthwise/BatchNorm/FusedBatchNorm_nchw"
  type: "BatchNorm"
  bottom: "xception_65/middle_flow/block1/unit_5/xception_module/separable_conv1_depthwise/depthwise/BatchToSpaceND"
  top: "xception_65/middle_flow/block1/unit_5/xception_module/separable_conv1_depthwise/BatchNorm/FusedBatchNorm_nchw"
  batch_norm_param {
    use_global_stats: true
    eps: 0.0010000000475
  }
}
layer {
  name: "xception_65/middle_flow/block1/unit_5/xception_module/separable_conv1_depthwise/BatchNorm/FusedBatchNorm_scale"
  type: "Scale"
  bottom: "xception_65/middle_flow/block1/unit_5/xception_module/separable_conv1_depthwise/BatchNorm/FusedBatchNorm_nchw"
  top: "xception_65/middle_flow/block1/unit_5/xception_module/separable_conv1_depthwise/BatchNorm/FusedBatchNorm_scale"
  scale_param {
    bias_term: true
  }
}
layer {
  name: "xception_65/middle_flow/block1/unit_5/xception_module/separable_conv1_pointwise/Conv2D_nchw"
  type: "Convolution"
  bottom: "xception_65/middle_flow/block1/unit_5/xception_module/separable_conv1_depthwise/BatchNorm/FusedBatchNorm_scale"
  top: "xception_65/middle_flow/block1/unit_5/xception_module/separable_conv1_pointwise/Conv2D_nchw"
  convolution_param {
    num_output: 728
    bias_term: false
    group: 1
    kernel_h: 1
    kernel_w: 1
    stride_h: 1
    stride_w: 1
    pad_l: 0
    pad_r: 0
    pad_t: 0
    pad_b: 0
  }
}
layer {
  name: "xception_65/middle_flow/block1/unit_5/xception_module/separable_conv1_pointwise/BatchNorm/FusedBatchNorm_nchw"
  type: "BatchNorm"
  bottom: "xception_65/middle_flow/block1/unit_5/xception_module/separable_conv1_pointwise/Conv2D_nchw"
  top: "xception_65/middle_flow/block1/unit_5/xception_module/separable_conv1_pointwise/BatchNorm/FusedBatchNorm_nchw"
  batch_norm_param {
    use_global_stats: true
    eps: 0.0010000000475
  }
}
layer {
  name: "xception_65/middle_flow/block1/unit_5/xception_module/separable_conv1_pointwise/BatchNorm/FusedBatchNorm_scale"
  type: "Scale"
  bottom: "xception_65/middle_flow/block1/unit_5/xception_module/separable_conv1_pointwise/BatchNorm/FusedBatchNorm_nchw"
  top: "xception_65/middle_flow/block1/unit_5/xception_module/separable_conv1_pointwise/BatchNorm/FusedBatchNorm_scale"
  scale_param {
    bias_term: true
  }
}
layer {
  name: "xception_65/middle_flow/block1/unit_5/xception_module/Relu_1"
  type: "ReLU"
  bottom: "xception_65/middle_flow/block1/unit_5/xception_module/separable_conv1_pointwise/BatchNorm/FusedBatchNorm_scale"
  top: "xception_65/middle_flow/block1/unit_5/xception_module/Relu_1"
}
layer {
  name: "xception_65/middle_flow/block1/unit_5/xception_module/separable_conv2_depthwise/depthwise/SpaceToBatchND"
  type: "SpaceToBatchND"
  bottom: "xception_65/middle_flow/block1/unit_5/xception_module/Relu_1"
  top: "xception_65/middle_flow/block1/unit_5/xception_module/separable_conv2_depthwise/depthwise/SpaceToBatchND"
  space_to_batch_nd_param {
    block_shape: 1
    block_shape: 2
    block_shape: 2
    paddings: 0
    paddings: 0
    paddings: 2
    paddings: 3
    paddings: 2
    paddings: 3
  }
}
layer {
  name: "xception_65/middle_flow/block1/unit_5/xception_module/separable_conv2_depthwise/depthwise_nchw"
  type: "Convolution"
  bottom: "xception_65/middle_flow/block1/unit_5/xception_module/separable_conv2_depthwise/depthwise/SpaceToBatchND"
  top: "xception_65/middle_flow/block1/unit_5/xception_module/separable_conv2_depthwise/depthwise_nchw"
  convolution_param {
    num_output: 728
    bias_term: false
    group: 728
    kernel_h: 3
    kernel_w: 3
    stride_h: 1
    stride_w: 1
    pad_l: 0
    pad_r: 0
    pad_t: 0
    pad_b: 0
  }
}
layer {
  name: "xception_65/middle_flow/block1/unit_5/xception_module/separable_conv2_depthwise/depthwise/BatchToSpaceND"
  type: "BatchToSpaceND"
  bottom: "xception_65/middle_flow/block1/unit_5/xception_module/separable_conv2_depthwise/depthwise_nchw"
  top: "xception_65/middle_flow/block1/unit_5/xception_module/separable_conv2_depthwise/depthwise/BatchToSpaceND"
  batch_to_space_nd_param {
    block_shape: 1
    block_shape: 2
    block_shape: 2
    crops: 0
    crops: 0
    crops: 0
    crops: 1
    crops: 0
    crops: 1
  }
}
layer {
  name: "xception_65/middle_flow/block1/unit_5/xception_module/separable_conv2_depthwise/BatchNorm/FusedBatchNorm_nchw"
  type: "BatchNorm"
  bottom: "xception_65/middle_flow/block1/unit_5/xception_module/separable_conv2_depthwise/depthwise/BatchToSpaceND"
  top: "xception_65/middle_flow/block1/unit_5/xception_module/separable_conv2_depthwise/BatchNorm/FusedBatchNorm_nchw"
  batch_norm_param {
    use_global_stats: true
    eps: 0.0010000000475
  }
}
layer {
  name: "xception_65/middle_flow/block1/unit_5/xception_module/separable_conv2_depthwise/BatchNorm/FusedBatchNorm_scale"
  type: "Scale"
  bottom: "xception_65/middle_flow/block1/unit_5/xception_module/separable_conv2_depthwise/BatchNorm/FusedBatchNorm_nchw"
  top: "xception_65/middle_flow/block1/unit_5/xception_module/separable_conv2_depthwise/BatchNorm/FusedBatchNorm_scale"
  scale_param {
    bias_term: true
  }
}
layer {
  name: "xception_65/middle_flow/block1/unit_5/xception_module/separable_conv2_pointwise/Conv2D_nchw"
  type: "Convolution"
  bottom: "xception_65/middle_flow/block1/unit_5/xception_module/separable_conv2_depthwise/BatchNorm/FusedBatchNorm_scale"
  top: "xception_65/middle_flow/block1/unit_5/xception_module/separable_conv2_pointwise/Conv2D_nchw"
  convolution_param {
    num_output: 728
    bias_term: false
    group: 1
    kernel_h: 1
    kernel_w: 1
    stride_h: 1
    stride_w: 1
    pad_l: 0
    pad_r: 0
    pad_t: 0
    pad_b: 0
  }
}
layer {
  name: "xception_65/middle_flow/block1/unit_5/xception_module/separable_conv2_pointwise/BatchNorm/FusedBatchNorm_nchw"
  type: "BatchNorm"
  bottom: "xception_65/middle_flow/block1/unit_5/xception_module/separable_conv2_pointwise/Conv2D_nchw"
  top: "xception_65/middle_flow/block1/unit_5/xception_module/separable_conv2_pointwise/BatchNorm/FusedBatchNorm_nchw"
  batch_norm_param {
    use_global_stats: true
    eps: 0.0010000000475
  }
}
layer {
  name: "xception_65/middle_flow/block1/unit_5/xception_module/separable_conv2_pointwise/BatchNorm/FusedBatchNorm_scale"
  type: "Scale"
  bottom: "xception_65/middle_flow/block1/unit_5/xception_module/separable_conv2_pointwise/BatchNorm/FusedBatchNorm_nchw"
  top: "xception_65/middle_flow/block1/unit_5/xception_module/separable_conv2_pointwise/BatchNorm/FusedBatchNorm_scale"
  scale_param {
    bias_term: true
  }
}
layer {
  name: "xception_65/middle_flow/block1/unit_5/xception_module/Relu_2"
  type: "ReLU"
  bottom: "xception_65/middle_flow/block1/unit_5/xception_module/separable_conv2_pointwise/BatchNorm/FusedBatchNorm_scale"
  top: "xception_65/middle_flow/block1/unit_5/xception_module/Relu_2"
}
layer {
  name: "xception_65/middle_flow/block1/unit_5/xception_module/separable_conv3_depthwise/depthwise/SpaceToBatchND"
  type: "SpaceToBatchND"
  bottom: "xception_65/middle_flow/block1/unit_5/xception_module/Relu_2"
  top: "xception_65/middle_flow/block1/unit_5/xception_module/separable_conv3_depthwise/depthwise/SpaceToBatchND"
  space_to_batch_nd_param {
    block_shape: 1
    block_shape: 2
    block_shape: 2
    paddings: 0
    paddings: 0
    paddings: 2
    paddings: 3
    paddings: 2
    paddings: 3
  }
}
layer {
  name: "xception_65/middle_flow/block1/unit_5/xception_module/separable_conv3_depthwise/depthwise_nchw"
  type: "Convolution"
  bottom: "xception_65/middle_flow/block1/unit_5/xception_module/separable_conv3_depthwise/depthwise/SpaceToBatchND"
  top: "xception_65/middle_flow/block1/unit_5/xception_module/separable_conv3_depthwise/depthwise_nchw"
  convolution_param {
    num_output: 728
    bias_term: false
    group: 728
    kernel_h: 3
    kernel_w: 3
    stride_h: 1
    stride_w: 1
    pad_l: 0
    pad_r: 0
    pad_t: 0
    pad_b: 0
  }
}
layer {
  name: "xception_65/middle_flow/block1/unit_5/xception_module/separable_conv3_depthwise/depthwise/BatchToSpaceND"
  type: "BatchToSpaceND"
  bottom: "xception_65/middle_flow/block1/unit_5/xception_module/separable_conv3_depthwise/depthwise_nchw"
  top: "xception_65/middle_flow/block1/unit_5/xception_module/separable_conv3_depthwise/depthwise/BatchToSpaceND"
  batch_to_space_nd_param {
    block_shape: 1
    block_shape: 2
    block_shape: 2
    crops: 0
    crops: 0
    crops: 0
    crops: 1
    crops: 0
    crops: 1
  }
}
layer {
  name: "xception_65/middle_flow/block1/unit_5/xception_module/separable_conv3_depthwise/BatchNorm/FusedBatchNorm_nchw"
  type: "BatchNorm"
  bottom: "xception_65/middle_flow/block1/unit_5/xception_module/separable_conv3_depthwise/depthwise/BatchToSpaceND"
  top: "xception_65/middle_flow/block1/unit_5/xception_module/separable_conv3_depthwise/BatchNorm/FusedBatchNorm_nchw"
  batch_norm_param {
    use_global_stats: true
    eps: 0.0010000000475
  }
}
layer {
  name: "xception_65/middle_flow/block1/unit_5/xception_module/separable_conv3_depthwise/BatchNorm/FusedBatchNorm_scale"
  type: "Scale"
  bottom: "xception_65/middle_flow/block1/unit_5/xception_module/separable_conv3_depthwise/BatchNorm/FusedBatchNorm_nchw"
  top: "xception_65/middle_flow/block1/unit_5/xception_module/separable_conv3_depthwise/BatchNorm/FusedBatchNorm_scale"
  scale_param {
    bias_term: true
  }
}
layer {
  name: "xception_65/middle_flow/block1/unit_5/xception_module/separable_conv3_pointwise/Conv2D_nchw"
  type: "Convolution"
  bottom: "xception_65/middle_flow/block1/unit_5/xception_module/separable_conv3_depthwise/BatchNorm/FusedBatchNorm_scale"
  top: "xception_65/middle_flow/block1/unit_5/xception_module/separable_conv3_pointwise/Conv2D_nchw"
  convolution_param {
    num_output: 728
    bias_term: false
    group: 1
    kernel_h: 1
    kernel_w: 1
    stride_h: 1
    stride_w: 1
    pad_l: 0
    pad_r: 0
    pad_t: 0
    pad_b: 0
  }
}
layer {
  name: "xception_65/middle_flow/block1/unit_5/xception_module/separable_conv3_pointwise/BatchNorm/FusedBatchNorm_nchw"
  type: "BatchNorm"
  bottom: "xception_65/middle_flow/block1/unit_5/xception_module/separable_conv3_pointwise/Conv2D_nchw"
  top: "xception_65/middle_flow/block1/unit_5/xception_module/separable_conv3_pointwise/BatchNorm/FusedBatchNorm_nchw"
  batch_norm_param {
    use_global_stats: true
    eps: 0.0010000000475
  }
}
layer {
  name: "xception_65/middle_flow/block1/unit_5/xception_module/separable_conv3_pointwise/BatchNorm/FusedBatchNorm_scale"
  type: "Scale"
  bottom: "xception_65/middle_flow/block1/unit_5/xception_module/separable_conv3_pointwise/BatchNorm/FusedBatchNorm_nchw"
  top: "xception_65/middle_flow/block1/unit_5/xception_module/separable_conv3_pointwise/BatchNorm/FusedBatchNorm_scale"
  scale_param {
    bias_term: true
  }
}
layer {
  name: "xception_65/middle_flow/block1/unit_5/xception_module/add"
  type: "Eltwise"
  bottom: "xception_65/middle_flow/block1/unit_5/xception_module/separable_conv3_pointwise/BatchNorm/FusedBatchNorm_scale"
  bottom: "xception_65/middle_flow/block1/unit_4/xception_module/add"
  top: "xception_65/middle_flow/block1/unit_5/xception_module/add"
  eltwise_param {
    operation: SUM
    coeff: 1.0
    coeff: 1.0
  }
}
layer {
  name: "xception_65/middle_flow/block1/unit_6/xception_module/Relu"
  type: "ReLU"
  bottom: "xception_65/middle_flow/block1/unit_5/xception_module/add"
  top: "xception_65/middle_flow/block1/unit_6/xception_module/Relu"
}
layer {
  name: "xception_65/middle_flow/block1/unit_6/xception_module/separable_conv1_depthwise/depthwise/SpaceToBatchND"
  type: "SpaceToBatchND"
  bottom: "xception_65/middle_flow/block1/unit_6/xception_module/Relu"
  top: "xception_65/middle_flow/block1/unit_6/xception_module/separable_conv1_depthwise/depthwise/SpaceToBatchND"
  space_to_batch_nd_param {
    block_shape: 1
    block_shape: 2
    block_shape: 2
    paddings: 0
    paddings: 0
    paddings: 2
    paddings: 3
    paddings: 2
    paddings: 3
  }
}
layer {
  name: "xception_65/middle_flow/block1/unit_6/xception_module/separable_conv1_depthwise/depthwise_nchw"
  type: "Convolution"
  bottom: "xception_65/middle_flow/block1/unit_6/xception_module/separable_conv1_depthwise/depthwise/SpaceToBatchND"
  top: "xception_65/middle_flow/block1/unit_6/xception_module/separable_conv1_depthwise/depthwise_nchw"
  convolution_param {
    num_output: 728
    bias_term: false
    group: 728
    kernel_h: 3
    kernel_w: 3
    stride_h: 1
    stride_w: 1
    pad_l: 0
    pad_r: 0
    pad_t: 0
    pad_b: 0
  }
}
layer {
  name: "xception_65/middle_flow/block1/unit_6/xception_module/separable_conv1_depthwise/depthwise/BatchToSpaceND"
  type: "BatchToSpaceND"
  bottom: "xception_65/middle_flow/block1/unit_6/xception_module/separable_conv1_depthwise/depthwise_nchw"
  top: "xception_65/middle_flow/block1/unit_6/xception_module/separable_conv1_depthwise/depthwise/BatchToSpaceND"
  batch_to_space_nd_param {
    block_shape: 1
    block_shape: 2
    block_shape: 2
    crops: 0
    crops: 0
    crops: 0
    crops: 1
    crops: 0
    crops: 1
  }
}
layer {
  name: "xception_65/middle_flow/block1/unit_6/xception_module/separable_conv1_depthwise/BatchNorm/FusedBatchNorm_nchw"
  type: "BatchNorm"
  bottom: "xception_65/middle_flow/block1/unit_6/xception_module/separable_conv1_depthwise/depthwise/BatchToSpaceND"
  top: "xception_65/middle_flow/block1/unit_6/xception_module/separable_conv1_depthwise/BatchNorm/FusedBatchNorm_nchw"
  batch_norm_param {
    use_global_stats: true
    eps: 0.0010000000475
  }
}
layer {
  name: "xception_65/middle_flow/block1/unit_6/xception_module/separable_conv1_depthwise/BatchNorm/FusedBatchNorm_scale"
  type: "Scale"
  bottom: "xception_65/middle_flow/block1/unit_6/xception_module/separable_conv1_depthwise/BatchNorm/FusedBatchNorm_nchw"
  top: "xception_65/middle_flow/block1/unit_6/xception_module/separable_conv1_depthwise/BatchNorm/FusedBatchNorm_scale"
  scale_param {
    bias_term: true
  }
}
layer {
  name: "xception_65/middle_flow/block1/unit_6/xception_module/separable_conv1_pointwise/Conv2D_nchw"
  type: "Convolution"
  bottom: "xception_65/middle_flow/block1/unit_6/xception_module/separable_conv1_depthwise/BatchNorm/FusedBatchNorm_scale"
  top: "xception_65/middle_flow/block1/unit_6/xception_module/separable_conv1_pointwise/Conv2D_nchw"
  convolution_param {
    num_output: 728
    bias_term: false
    group: 1
    kernel_h: 1
    kernel_w: 1
    stride_h: 1
    stride_w: 1
    pad_l: 0
    pad_r: 0
    pad_t: 0
    pad_b: 0
  }
}
layer {
  name: "xception_65/middle_flow/block1/unit_6/xception_module/separable_conv1_pointwise/BatchNorm/FusedBatchNorm_nchw"
  type: "BatchNorm"
  bottom: "xception_65/middle_flow/block1/unit_6/xception_module/separable_conv1_pointwise/Conv2D_nchw"
  top: "xception_65/middle_flow/block1/unit_6/xception_module/separable_conv1_pointwise/BatchNorm/FusedBatchNorm_nchw"
  batch_norm_param {
    use_global_stats: true
    eps: 0.0010000000475
  }
}
layer {
  name: "xception_65/middle_flow/block1/unit_6/xception_module/separable_conv1_pointwise/BatchNorm/FusedBatchNorm_scale"
  type: "Scale"
  bottom: "xception_65/middle_flow/block1/unit_6/xception_module/separable_conv1_pointwise/BatchNorm/FusedBatchNorm_nchw"
  top: "xception_65/middle_flow/block1/unit_6/xception_module/separable_conv1_pointwise/BatchNorm/FusedBatchNorm_scale"
  scale_param {
    bias_term: true
  }
}
layer {
  name: "xception_65/middle_flow/block1/unit_6/xception_module/Relu_1"
  type: "ReLU"
  bottom: "xception_65/middle_flow/block1/unit_6/xception_module/separable_conv1_pointwise/BatchNorm/FusedBatchNorm_scale"
  top: "xception_65/middle_flow/block1/unit_6/xception_module/Relu_1"
}
layer {
  name: "xception_65/middle_flow/block1/unit_6/xception_module/separable_conv2_depthwise/depthwise/SpaceToBatchND"
  type: "SpaceToBatchND"
  bottom: "xception_65/middle_flow/block1/unit_6/xception_module/Relu_1"
  top: "xception_65/middle_flow/block1/unit_6/xception_module/separable_conv2_depthwise/depthwise/SpaceToBatchND"
  space_to_batch_nd_param {
    block_shape: 1
    block_shape: 2
    block_shape: 2
    paddings: 0
    paddings: 0
    paddings: 2
    paddings: 3
    paddings: 2
    paddings: 3
  }
}
layer {
  name: "xception_65/middle_flow/block1/unit_6/xception_module/separable_conv2_depthwise/depthwise_nchw"
  type: "Convolution"
  bottom: "xception_65/middle_flow/block1/unit_6/xception_module/separable_conv2_depthwise/depthwise/SpaceToBatchND"
  top: "xception_65/middle_flow/block1/unit_6/xception_module/separable_conv2_depthwise/depthwise_nchw"
  convolution_param {
    num_output: 728
    bias_term: false
    group: 728
    kernel_h: 3
    kernel_w: 3
    stride_h: 1
    stride_w: 1
    pad_l: 0
    pad_r: 0
    pad_t: 0
    pad_b: 0
  }
}
layer {
  name: "xception_65/middle_flow/block1/unit_6/xception_module/separable_conv2_depthwise/depthwise/BatchToSpaceND"
  type: "BatchToSpaceND"
  bottom: "xception_65/middle_flow/block1/unit_6/xception_module/separable_conv2_depthwise/depthwise_nchw"
  top: "xception_65/middle_flow/block1/unit_6/xception_module/separable_conv2_depthwise/depthwise/BatchToSpaceND"
  batch_to_space_nd_param {
    block_shape: 1
    block_shape: 2
    block_shape: 2
    crops: 0
    crops: 0
    crops: 0
    crops: 1
    crops: 0
    crops: 1
  }
}
layer {
  name: "xception_65/middle_flow/block1/unit_6/xception_module/separable_conv2_depthwise/BatchNorm/FusedBatchNorm_nchw"
  type: "BatchNorm"
  bottom: "xception_65/middle_flow/block1/unit_6/xception_module/separable_conv2_depthwise/depthwise/BatchToSpaceND"
  top: "xception_65/middle_flow/block1/unit_6/xception_module/separable_conv2_depthwise/BatchNorm/FusedBatchNorm_nchw"
  batch_norm_param {
    use_global_stats: true
    eps: 0.0010000000475
  }
}
layer {
  name: "xception_65/middle_flow/block1/unit_6/xception_module/separable_conv2_depthwise/BatchNorm/FusedBatchNorm_scale"
  type: "Scale"
  bottom: "xception_65/middle_flow/block1/unit_6/xception_module/separable_conv2_depthwise/BatchNorm/FusedBatchNorm_nchw"
  top: "xception_65/middle_flow/block1/unit_6/xception_module/separable_conv2_depthwise/BatchNorm/FusedBatchNorm_scale"
  scale_param {
    bias_term: true
  }
}
layer {
  name: "xception_65/middle_flow/block1/unit_6/xception_module/separable_conv2_pointwise/Conv2D_nchw"
  type: "Convolution"
  bottom: "xception_65/middle_flow/block1/unit_6/xception_module/separable_conv2_depthwise/BatchNorm/FusedBatchNorm_scale"
  top: "xception_65/middle_flow/block1/unit_6/xception_module/separable_conv2_pointwise/Conv2D_nchw"
  convolution_param {
    num_output: 728
    bias_term: false
    group: 1
    kernel_h: 1
    kernel_w: 1
    stride_h: 1
    stride_w: 1
    pad_l: 0
    pad_r: 0
    pad_t: 0
    pad_b: 0
  }
}
layer {
  name: "xception_65/middle_flow/block1/unit_6/xception_module/separable_conv2_pointwise/BatchNorm/FusedBatchNorm_nchw"
  type: "BatchNorm"
  bottom: "xception_65/middle_flow/block1/unit_6/xception_module/separable_conv2_pointwise/Conv2D_nchw"
  top: "xception_65/middle_flow/block1/unit_6/xception_module/separable_conv2_pointwise/BatchNorm/FusedBatchNorm_nchw"
  batch_norm_param {
    use_global_stats: true
    eps: 0.0010000000475
  }
}
layer {
  name: "xception_65/middle_flow/block1/unit_6/xception_module/separable_conv2_pointwise/BatchNorm/FusedBatchNorm_scale"
  type: "Scale"
  bottom: "xception_65/middle_flow/block1/unit_6/xception_module/separable_conv2_pointwise/BatchNorm/FusedBatchNorm_nchw"
  top: "xception_65/middle_flow/block1/unit_6/xception_module/separable_conv2_pointwise/BatchNorm/FusedBatchNorm_scale"
  scale_param {
    bias_term: true
  }
}
layer {
  name: "xception_65/middle_flow/block1/unit_6/xception_module/Relu_2"
  type: "ReLU"
  bottom: "xception_65/middle_flow/block1/unit_6/xception_module/separable_conv2_pointwise/BatchNorm/FusedBatchNorm_scale"
  top: "xception_65/middle_flow/block1/unit_6/xception_module/Relu_2"
}
layer {
  name: "xception_65/middle_flow/block1/unit_6/xception_module/separable_conv3_depthwise/depthwise/SpaceToBatchND"
  type: "SpaceToBatchND"
  bottom: "xception_65/middle_flow/block1/unit_6/xception_module/Relu_2"
  top: "xception_65/middle_flow/block1/unit_6/xception_module/separable_conv3_depthwise/depthwise/SpaceToBatchND"
  space_to_batch_nd_param {
    block_shape: 1
    block_shape: 2
    block_shape: 2
    paddings: 0
    paddings: 0
    paddings: 2
    paddings: 3
    paddings: 2
    paddings: 3
  }
}
layer {
  name: "xception_65/middle_flow/block1/unit_6/xception_module/separable_conv3_depthwise/depthwise_nchw"
  type: "Convolution"
  bottom: "xception_65/middle_flow/block1/unit_6/xception_module/separable_conv3_depthwise/depthwise/SpaceToBatchND"
  top: "xception_65/middle_flow/block1/unit_6/xception_module/separable_conv3_depthwise/depthwise_nchw"
  convolution_param {
    num_output: 728
    bias_term: false
    group: 728
    kernel_h: 3
    kernel_w: 3
    stride_h: 1
    stride_w: 1
    pad_l: 0
    pad_r: 0
    pad_t: 0
    pad_b: 0
  }
}
layer {
  name: "xception_65/middle_flow/block1/unit_6/xception_module/separable_conv3_depthwise/depthwise/BatchToSpaceND"
  type: "BatchToSpaceND"
  bottom: "xception_65/middle_flow/block1/unit_6/xception_module/separable_conv3_depthwise/depthwise_nchw"
  top: "xception_65/middle_flow/block1/unit_6/xception_module/separable_conv3_depthwise/depthwise/BatchToSpaceND"
  batch_to_space_nd_param {
    block_shape: 1
    block_shape: 2
    block_shape: 2
    crops: 0
    crops: 0
    crops: 0
    crops: 1
    crops: 0
    crops: 1
  }
}
layer {
  name: "xception_65/middle_flow/block1/unit_6/xception_module/separable_conv3_depthwise/BatchNorm/FusedBatchNorm_nchw"
  type: "BatchNorm"
  bottom: "xception_65/middle_flow/block1/unit_6/xception_module/separable_conv3_depthwise/depthwise/BatchToSpaceND"
  top: "xception_65/middle_flow/block1/unit_6/xception_module/separable_conv3_depthwise/BatchNorm/FusedBatchNorm_nchw"
  batch_norm_param {
    use_global_stats: true
    eps: 0.0010000000475
  }
}
layer {
  name: "xception_65/middle_flow/block1/unit_6/xception_module/separable_conv3_depthwise/BatchNorm/FusedBatchNorm_scale"
  type: "Scale"
  bottom: "xception_65/middle_flow/block1/unit_6/xception_module/separable_conv3_depthwise/BatchNorm/FusedBatchNorm_nchw"
  top: "xception_65/middle_flow/block1/unit_6/xception_module/separable_conv3_depthwise/BatchNorm/FusedBatchNorm_scale"
  scale_param {
    bias_term: true
  }
}
layer {
  name: "xception_65/middle_flow/block1/unit_6/xception_module/separable_conv3_pointwise/Conv2D_nchw"
  type: "Convolution"
  bottom: "xception_65/middle_flow/block1/unit_6/xception_module/separable_conv3_depthwise/BatchNorm/FusedBatchNorm_scale"
  top: "xception_65/middle_flow/block1/unit_6/xception_module/separable_conv3_pointwise/Conv2D_nchw"
  convolution_param {
    num_output: 728
    bias_term: false
    group: 1
    kernel_h: 1
    kernel_w: 1
    stride_h: 1
    stride_w: 1
    pad_l: 0
    pad_r: 0
    pad_t: 0
    pad_b: 0
  }
}
layer {
  name: "xception_65/middle_flow/block1/unit_6/xception_module/separable_conv3_pointwise/BatchNorm/FusedBatchNorm_nchw"
  type: "BatchNorm"
  bottom: "xception_65/middle_flow/block1/unit_6/xception_module/separable_conv3_pointwise/Conv2D_nchw"
  top: "xception_65/middle_flow/block1/unit_6/xception_module/separable_conv3_pointwise/BatchNorm/FusedBatchNorm_nchw"
  batch_norm_param {
    use_global_stats: true
    eps: 0.0010000000475
  }
}
layer {
  name: "xception_65/middle_flow/block1/unit_6/xception_module/separable_conv3_pointwise/BatchNorm/FusedBatchNorm_scale"
  type: "Scale"
  bottom: "xception_65/middle_flow/block1/unit_6/xception_module/separable_conv3_pointwise/BatchNorm/FusedBatchNorm_nchw"
  top: "xception_65/middle_flow/block1/unit_6/xception_module/separable_conv3_pointwise/BatchNorm/FusedBatchNorm_scale"
  scale_param {
    bias_term: true
  }
}
layer {
  name: "xception_65/middle_flow/block1/unit_6/xception_module/add"
  type: "Eltwise"
  bottom: "xception_65/middle_flow/block1/unit_6/xception_module/separable_conv3_pointwise/BatchNorm/FusedBatchNorm_scale"
  bottom: "xception_65/middle_flow/block1/unit_5/xception_module/add"
  top: "xception_65/middle_flow/block1/unit_6/xception_module/add"
  eltwise_param {
    operation: SUM
    coeff: 1.0
    coeff: 1.0
  }
}
layer {
  name: "xception_65/middle_flow/block1/unit_7/xception_module/Relu"
  type: "ReLU"
  bottom: "xception_65/middle_flow/block1/unit_6/xception_module/add"
  top: "xception_65/middle_flow/block1/unit_7/xception_module/Relu"
}
layer {
  name: "xception_65/middle_flow/block1/unit_7/xception_module/separable_conv1_depthwise/depthwise/SpaceToBatchND"
  type: "SpaceToBatchND"
  bottom: "xception_65/middle_flow/block1/unit_7/xception_module/Relu"
  top: "xception_65/middle_flow/block1/unit_7/xception_module/separable_conv1_depthwise/depthwise/SpaceToBatchND"
  space_to_batch_nd_param {
    block_shape: 1
    block_shape: 2
    block_shape: 2
    paddings: 0
    paddings: 0
    paddings: 2
    paddings: 3
    paddings: 2
    paddings: 3
  }
}
layer {
  name: "xception_65/middle_flow/block1/unit_7/xception_module/separable_conv1_depthwise/depthwise_nchw"
  type: "Convolution"
  bottom: "xception_65/middle_flow/block1/unit_7/xception_module/separable_conv1_depthwise/depthwise/SpaceToBatchND"
  top: "xception_65/middle_flow/block1/unit_7/xception_module/separable_conv1_depthwise/depthwise_nchw"
  convolution_param {
    num_output: 728
    bias_term: false
    group: 728
    kernel_h: 3
    kernel_w: 3
    stride_h: 1
    stride_w: 1
    pad_l: 0
    pad_r: 0
    pad_t: 0
    pad_b: 0
  }
}
layer {
  name: "xception_65/middle_flow/block1/unit_7/xception_module/separable_conv1_depthwise/depthwise/BatchToSpaceND"
  type: "BatchToSpaceND"
  bottom: "xception_65/middle_flow/block1/unit_7/xception_module/separable_conv1_depthwise/depthwise_nchw"
  top: "xception_65/middle_flow/block1/unit_7/xception_module/separable_conv1_depthwise/depthwise/BatchToSpaceND"
  batch_to_space_nd_param {
    block_shape: 1
    block_shape: 2
    block_shape: 2
    crops: 0
    crops: 0
    crops: 0
    crops: 1
    crops: 0
    crops: 1
  }
}
layer {
  name: "xception_65/middle_flow/block1/unit_7/xception_module/separable_conv1_depthwise/BatchNorm/FusedBatchNorm_nchw"
  type: "BatchNorm"
  bottom: "xception_65/middle_flow/block1/unit_7/xception_module/separable_conv1_depthwise/depthwise/BatchToSpaceND"
  top: "xception_65/middle_flow/block1/unit_7/xception_module/separable_conv1_depthwise/BatchNorm/FusedBatchNorm_nchw"
  batch_norm_param {
    use_global_stats: true
    eps: 0.0010000000475
  }
}
layer {
  name: "xception_65/middle_flow/block1/unit_7/xception_module/separable_conv1_depthwise/BatchNorm/FusedBatchNorm_scale"
  type: "Scale"
  bottom: "xception_65/middle_flow/block1/unit_7/xception_module/separable_conv1_depthwise/BatchNorm/FusedBatchNorm_nchw"
  top: "xception_65/middle_flow/block1/unit_7/xception_module/separable_conv1_depthwise/BatchNorm/FusedBatchNorm_scale"
  scale_param {
    bias_term: true
  }
}
layer {
  name: "xception_65/middle_flow/block1/unit_7/xception_module/separable_conv1_pointwise/Conv2D_nchw"
  type: "Convolution"
  bottom: "xception_65/middle_flow/block1/unit_7/xception_module/separable_conv1_depthwise/BatchNorm/FusedBatchNorm_scale"
  top: "xception_65/middle_flow/block1/unit_7/xception_module/separable_conv1_pointwise/Conv2D_nchw"
  convolution_param {
    num_output: 728
    bias_term: false
    group: 1
    kernel_h: 1
    kernel_w: 1
    stride_h: 1
    stride_w: 1
    pad_l: 0
    pad_r: 0
    pad_t: 0
    pad_b: 0
  }
}
layer {
  name: "xception_65/middle_flow/block1/unit_7/xception_module/separable_conv1_pointwise/BatchNorm/FusedBatchNorm_nchw"
  type: "BatchNorm"
  bottom: "xception_65/middle_flow/block1/unit_7/xception_module/separable_conv1_pointwise/Conv2D_nchw"
  top: "xception_65/middle_flow/block1/unit_7/xception_module/separable_conv1_pointwise/BatchNorm/FusedBatchNorm_nchw"
  batch_norm_param {
    use_global_stats: true
    eps: 0.0010000000475
  }
}
layer {
  name: "xception_65/middle_flow/block1/unit_7/xception_module/separable_conv1_pointwise/BatchNorm/FusedBatchNorm_scale"
  type: "Scale"
  bottom: "xception_65/middle_flow/block1/unit_7/xception_module/separable_conv1_pointwise/BatchNorm/FusedBatchNorm_nchw"
  top: "xception_65/middle_flow/block1/unit_7/xception_module/separable_conv1_pointwise/BatchNorm/FusedBatchNorm_scale"
  scale_param {
    bias_term: true
  }
}
layer {
  name: "xception_65/middle_flow/block1/unit_7/xception_module/Relu_1"
  type: "ReLU"
  bottom: "xception_65/middle_flow/block1/unit_7/xception_module/separable_conv1_pointwise/BatchNorm/FusedBatchNorm_scale"
  top: "xception_65/middle_flow/block1/unit_7/xception_module/Relu_1"
}
layer {
  name: "xception_65/middle_flow/block1/unit_7/xception_module/separable_conv2_depthwise/depthwise/SpaceToBatchND"
  type: "SpaceToBatchND"
  bottom: "xception_65/middle_flow/block1/unit_7/xception_module/Relu_1"
  top: "xception_65/middle_flow/block1/unit_7/xception_module/separable_conv2_depthwise/depthwise/SpaceToBatchND"
  space_to_batch_nd_param {
    block_shape: 1
    block_shape: 2
    block_shape: 2
    paddings: 0
    paddings: 0
    paddings: 2
    paddings: 3
    paddings: 2
    paddings: 3
  }
}
layer {
  name: "xception_65/middle_flow/block1/unit_7/xception_module/separable_conv2_depthwise/depthwise_nchw"
  type: "Convolution"
  bottom: "xception_65/middle_flow/block1/unit_7/xception_module/separable_conv2_depthwise/depthwise/SpaceToBatchND"
  top: "xception_65/middle_flow/block1/unit_7/xception_module/separable_conv2_depthwise/depthwise_nchw"
  convolution_param {
    num_output: 728
    bias_term: false
    group: 728
    kernel_h: 3
    kernel_w: 3
    stride_h: 1
    stride_w: 1
    pad_l: 0
    pad_r: 0
    pad_t: 0
    pad_b: 0
  }
}
layer {
  name: "xception_65/middle_flow/block1/unit_7/xception_module/separable_conv2_depthwise/depthwise/BatchToSpaceND"
  type: "BatchToSpaceND"
  bottom: "xception_65/middle_flow/block1/unit_7/xception_module/separable_conv2_depthwise/depthwise_nchw"
  top: "xception_65/middle_flow/block1/unit_7/xception_module/separable_conv2_depthwise/depthwise/BatchToSpaceND"
  batch_to_space_nd_param {
    block_shape: 1
    block_shape: 2
    block_shape: 2
    crops: 0
    crops: 0
    crops: 0
    crops: 1
    crops: 0
    crops: 1
  }
}
layer {
  name: "xception_65/middle_flow/block1/unit_7/xception_module/separable_conv2_depthwise/BatchNorm/FusedBatchNorm_nchw"
  type: "BatchNorm"
  bottom: "xception_65/middle_flow/block1/unit_7/xception_module/separable_conv2_depthwise/depthwise/BatchToSpaceND"
  top: "xception_65/middle_flow/block1/unit_7/xception_module/separable_conv2_depthwise/BatchNorm/FusedBatchNorm_nchw"
  batch_norm_param {
    use_global_stats: true
    eps: 0.0010000000475
  }
}
layer {
  name: "xception_65/middle_flow/block1/unit_7/xception_module/separable_conv2_depthwise/BatchNorm/FusedBatchNorm_scale"
  type: "Scale"
  bottom: "xception_65/middle_flow/block1/unit_7/xception_module/separable_conv2_depthwise/BatchNorm/FusedBatchNorm_nchw"
  top: "xception_65/middle_flow/block1/unit_7/xception_module/separable_conv2_depthwise/BatchNorm/FusedBatchNorm_scale"
  scale_param {
    bias_term: true
  }
}
layer {
  name: "xception_65/middle_flow/block1/unit_7/xception_module/separable_conv2_pointwise/Conv2D_nchw"
  type: "Convolution"
  bottom: "xception_65/middle_flow/block1/unit_7/xception_module/separable_conv2_depthwise/BatchNorm/FusedBatchNorm_scale"
  top: "xception_65/middle_flow/block1/unit_7/xception_module/separable_conv2_pointwise/Conv2D_nchw"
  convolution_param {
    num_output: 728
    bias_term: false
    group: 1
    kernel_h: 1
    kernel_w: 1
    stride_h: 1
    stride_w: 1
    pad_l: 0
    pad_r: 0
    pad_t: 0
    pad_b: 0
  }
}
layer {
  name: "xception_65/middle_flow/block1/unit_7/xception_module/separable_conv2_pointwise/BatchNorm/FusedBatchNorm_nchw"
  type: "BatchNorm"
  bottom: "xception_65/middle_flow/block1/unit_7/xception_module/separable_conv2_pointwise/Conv2D_nchw"
  top: "xception_65/middle_flow/block1/unit_7/xception_module/separable_conv2_pointwise/BatchNorm/FusedBatchNorm_nchw"
  batch_norm_param {
    use_global_stats: true
    eps: 0.0010000000475
  }
}
layer {
  name: "xception_65/middle_flow/block1/unit_7/xception_module/separable_conv2_pointwise/BatchNorm/FusedBatchNorm_scale"
  type: "Scale"
  bottom: "xception_65/middle_flow/block1/unit_7/xception_module/separable_conv2_pointwise/BatchNorm/FusedBatchNorm_nchw"
  top: "xception_65/middle_flow/block1/unit_7/xception_module/separable_conv2_pointwise/BatchNorm/FusedBatchNorm_scale"
  scale_param {
    bias_term: true
  }
}
layer {
  name: "xception_65/middle_flow/block1/unit_7/xception_module/Relu_2"
  type: "ReLU"
  bottom: "xception_65/middle_flow/block1/unit_7/xception_module/separable_conv2_pointwise/BatchNorm/FusedBatchNorm_scale"
  top: "xception_65/middle_flow/block1/unit_7/xception_module/Relu_2"
}
layer {
  name: "xception_65/middle_flow/block1/unit_7/xception_module/separable_conv3_depthwise/depthwise/SpaceToBatchND"
  type: "SpaceToBatchND"
  bottom: "xception_65/middle_flow/block1/unit_7/xception_module/Relu_2"
  top: "xception_65/middle_flow/block1/unit_7/xception_module/separable_conv3_depthwise/depthwise/SpaceToBatchND"
  space_to_batch_nd_param {
    block_shape: 1
    block_shape: 2
    block_shape: 2
    paddings: 0
    paddings: 0
    paddings: 2
    paddings: 3
    paddings: 2
    paddings: 3
  }
}
layer {
  name: "xception_65/middle_flow/block1/unit_7/xception_module/separable_conv3_depthwise/depthwise_nchw"
  type: "Convolution"
  bottom: "xception_65/middle_flow/block1/unit_7/xception_module/separable_conv3_depthwise/depthwise/SpaceToBatchND"
  top: "xception_65/middle_flow/block1/unit_7/xception_module/separable_conv3_depthwise/depthwise_nchw"
  convolution_param {
    num_output: 728
    bias_term: false
    group: 728
    kernel_h: 3
    kernel_w: 3
    stride_h: 1
    stride_w: 1
    pad_l: 0
    pad_r: 0
    pad_t: 0
    pad_b: 0
  }
}
layer {
  name: "xception_65/middle_flow/block1/unit_7/xception_module/separable_conv3_depthwise/depthwise/BatchToSpaceND"
  type: "BatchToSpaceND"
  bottom: "xception_65/middle_flow/block1/unit_7/xception_module/separable_conv3_depthwise/depthwise_nchw"
  top: "xception_65/middle_flow/block1/unit_7/xception_module/separable_conv3_depthwise/depthwise/BatchToSpaceND"
  batch_to_space_nd_param {
    block_shape: 1
    block_shape: 2
    block_shape: 2
    crops: 0
    crops: 0
    crops: 0
    crops: 1
    crops: 0
    crops: 1
  }
}
layer {
  name: "xception_65/middle_flow/block1/unit_7/xception_module/separable_conv3_depthwise/BatchNorm/FusedBatchNorm_nchw"
  type: "BatchNorm"
  bottom: "xception_65/middle_flow/block1/unit_7/xception_module/separable_conv3_depthwise/depthwise/BatchToSpaceND"
  top: "xception_65/middle_flow/block1/unit_7/xception_module/separable_conv3_depthwise/BatchNorm/FusedBatchNorm_nchw"
  batch_norm_param {
    use_global_stats: true
    eps: 0.0010000000475
  }
}
layer {
  name: "xception_65/middle_flow/block1/unit_7/xception_module/separable_conv3_depthwise/BatchNorm/FusedBatchNorm_scale"
  type: "Scale"
  bottom: "xception_65/middle_flow/block1/unit_7/xception_module/separable_conv3_depthwise/BatchNorm/FusedBatchNorm_nchw"
  top: "xception_65/middle_flow/block1/unit_7/xception_module/separable_conv3_depthwise/BatchNorm/FusedBatchNorm_scale"
  scale_param {
    bias_term: true
  }
}
layer {
  name: "xception_65/middle_flow/block1/unit_7/xception_module/separable_conv3_pointwise/Conv2D_nchw"
  type: "Convolution"
  bottom: "xception_65/middle_flow/block1/unit_7/xception_module/separable_conv3_depthwise/BatchNorm/FusedBatchNorm_scale"
  top: "xception_65/middle_flow/block1/unit_7/xception_module/separable_conv3_pointwise/Conv2D_nchw"
  convolution_param {
    num_output: 728
    bias_term: false
    group: 1
    kernel_h: 1
    kernel_w: 1
    stride_h: 1
    stride_w: 1
    pad_l: 0
    pad_r: 0
    pad_t: 0
    pad_b: 0
  }
}
layer {
  name: "xception_65/middle_flow/block1/unit_7/xception_module/separable_conv3_pointwise/BatchNorm/FusedBatchNorm_nchw"
  type: "BatchNorm"
  bottom: "xception_65/middle_flow/block1/unit_7/xception_module/separable_conv3_pointwise/Conv2D_nchw"
  top: "xception_65/middle_flow/block1/unit_7/xception_module/separable_conv3_pointwise/BatchNorm/FusedBatchNorm_nchw"
  batch_norm_param {
    use_global_stats: true
    eps: 0.0010000000475
  }
}
layer {
  name: "xception_65/middle_flow/block1/unit_7/xception_module/separable_conv3_pointwise/BatchNorm/FusedBatchNorm_scale"
  type: "Scale"
  bottom: "xception_65/middle_flow/block1/unit_7/xception_module/separable_conv3_pointwise/BatchNorm/FusedBatchNorm_nchw"
  top: "xception_65/middle_flow/block1/unit_7/xception_module/separable_conv3_pointwise/BatchNorm/FusedBatchNorm_scale"
  scale_param {
    bias_term: true
  }
}
layer {
  name: "xception_65/middle_flow/block1/unit_7/xception_module/add"
  type: "Eltwise"
  bottom: "xception_65/middle_flow/block1/unit_7/xception_module/separable_conv3_pointwise/BatchNorm/FusedBatchNorm_scale"
  bottom: "xception_65/middle_flow/block1/unit_6/xception_module/add"
  top: "xception_65/middle_flow/block1/unit_7/xception_module/add"
  eltwise_param {
    operation: SUM
    coeff: 1.0
    coeff: 1.0
  }
}
layer {
  name: "xception_65/middle_flow/block1/unit_8/xception_module/Relu"
  type: "ReLU"
  bottom: "xception_65/middle_flow/block1/unit_7/xception_module/add"
  top: "xception_65/middle_flow/block1/unit_8/xception_module/Relu"
}
layer {
  name: "xception_65/middle_flow/block1/unit_8/xception_module/separable_conv1_depthwise/depthwise/SpaceToBatchND"
  type: "SpaceToBatchND"
  bottom: "xception_65/middle_flow/block1/unit_8/xception_module/Relu"
  top: "xception_65/middle_flow/block1/unit_8/xception_module/separable_conv1_depthwise/depthwise/SpaceToBatchND"
  space_to_batch_nd_param {
    block_shape: 1
    block_shape: 2
    block_shape: 2
    paddings: 0
    paddings: 0
    paddings: 2
    paddings: 3
    paddings: 2
    paddings: 3
  }
}
layer {
  name: "xception_65/middle_flow/block1/unit_8/xception_module/separable_conv1_depthwise/depthwise_nchw"
  type: "Convolution"
  bottom: "xception_65/middle_flow/block1/unit_8/xception_module/separable_conv1_depthwise/depthwise/SpaceToBatchND"
  top: "xception_65/middle_flow/block1/unit_8/xception_module/separable_conv1_depthwise/depthwise_nchw"
  convolution_param {
    num_output: 728
    bias_term: false
    group: 728
    kernel_h: 3
    kernel_w: 3
    stride_h: 1
    stride_w: 1
    pad_l: 0
    pad_r: 0
    pad_t: 0
    pad_b: 0
  }
}
layer {
  name: "xception_65/middle_flow/block1/unit_8/xception_module/separable_conv1_depthwise/depthwise/BatchToSpaceND"
  type: "BatchToSpaceND"
  bottom: "xception_65/middle_flow/block1/unit_8/xception_module/separable_conv1_depthwise/depthwise_nchw"
  top: "xception_65/middle_flow/block1/unit_8/xception_module/separable_conv1_depthwise/depthwise/BatchToSpaceND"
  batch_to_space_nd_param {
    block_shape: 1
    block_shape: 2
    block_shape: 2
    crops: 0
    crops: 0
    crops: 0
    crops: 1
    crops: 0
    crops: 1
  }
}
layer {
  name: "xception_65/middle_flow/block1/unit_8/xception_module/separable_conv1_depthwise/BatchNorm/FusedBatchNorm_nchw"
  type: "BatchNorm"
  bottom: "xception_65/middle_flow/block1/unit_8/xception_module/separable_conv1_depthwise/depthwise/BatchToSpaceND"
  top: "xception_65/middle_flow/block1/unit_8/xception_module/separable_conv1_depthwise/BatchNorm/FusedBatchNorm_nchw"
  batch_norm_param {
    use_global_stats: true
    eps: 0.0010000000475
  }
}
layer {
  name: "xception_65/middle_flow/block1/unit_8/xception_module/separable_conv1_depthwise/BatchNorm/FusedBatchNorm_scale"
  type: "Scale"
  bottom: "xception_65/middle_flow/block1/unit_8/xception_module/separable_conv1_depthwise/BatchNorm/FusedBatchNorm_nchw"
  top: "xception_65/middle_flow/block1/unit_8/xception_module/separable_conv1_depthwise/BatchNorm/FusedBatchNorm_scale"
  scale_param {
    bias_term: true
  }
}
layer {
  name: "xception_65/middle_flow/block1/unit_8/xception_module/separable_conv1_pointwise/Conv2D_nchw"
  type: "Convolution"
  bottom: "xception_65/middle_flow/block1/unit_8/xception_module/separable_conv1_depthwise/BatchNorm/FusedBatchNorm_scale"
  top: "xception_65/middle_flow/block1/unit_8/xception_module/separable_conv1_pointwise/Conv2D_nchw"
  convolution_param {
    num_output: 728
    bias_term: false
    group: 1
    kernel_h: 1
    kernel_w: 1
    stride_h: 1
    stride_w: 1
    pad_l: 0
    pad_r: 0
    pad_t: 0
    pad_b: 0
  }
}
layer {
  name: "xception_65/middle_flow/block1/unit_8/xception_module/separable_conv1_pointwise/BatchNorm/FusedBatchNorm_nchw"
  type: "BatchNorm"
  bottom: "xception_65/middle_flow/block1/unit_8/xception_module/separable_conv1_pointwise/Conv2D_nchw"
  top: "xception_65/middle_flow/block1/unit_8/xception_module/separable_conv1_pointwise/BatchNorm/FusedBatchNorm_nchw"
  batch_norm_param {
    use_global_stats: true
    eps: 0.0010000000475
  }
}
layer {
  name: "xception_65/middle_flow/block1/unit_8/xception_module/separable_conv1_pointwise/BatchNorm/FusedBatchNorm_scale"
  type: "Scale"
  bottom: "xception_65/middle_flow/block1/unit_8/xception_module/separable_conv1_pointwise/BatchNorm/FusedBatchNorm_nchw"
  top: "xception_65/middle_flow/block1/unit_8/xception_module/separable_conv1_pointwise/BatchNorm/FusedBatchNorm_scale"
  scale_param {
    bias_term: true
  }
}
layer {
  name: "xception_65/middle_flow/block1/unit_8/xception_module/Relu_1"
  type: "ReLU"
  bottom: "xception_65/middle_flow/block1/unit_8/xception_module/separable_conv1_pointwise/BatchNorm/FusedBatchNorm_scale"
  top: "xception_65/middle_flow/block1/unit_8/xception_module/Relu_1"
}
layer {
  name: "xception_65/middle_flow/block1/unit_8/xception_module/separable_conv2_depthwise/depthwise/SpaceToBatchND"
  type: "SpaceToBatchND"
  bottom: "xception_65/middle_flow/block1/unit_8/xception_module/Relu_1"
  top: "xception_65/middle_flow/block1/unit_8/xception_module/separable_conv2_depthwise/depthwise/SpaceToBatchND"
  space_to_batch_nd_param {
    block_shape: 1
    block_shape: 2
    block_shape: 2
    paddings: 0
    paddings: 0
    paddings: 2
    paddings: 3
    paddings: 2
    paddings: 3
  }
}
layer {
  name: "xception_65/middle_flow/block1/unit_8/xception_module/separable_conv2_depthwise/depthwise_nchw"
  type: "Convolution"
  bottom: "xception_65/middle_flow/block1/unit_8/xception_module/separable_conv2_depthwise/depthwise/SpaceToBatchND"
  top: "xception_65/middle_flow/block1/unit_8/xception_module/separable_conv2_depthwise/depthwise_nchw"
  convolution_param {
    num_output: 728
    bias_term: false
    group: 728
    kernel_h: 3
    kernel_w: 3
    stride_h: 1
    stride_w: 1
    pad_l: 0
    pad_r: 0
    pad_t: 0
    pad_b: 0
  }
}
layer {
  name: "xception_65/middle_flow/block1/unit_8/xception_module/separable_conv2_depthwise/depthwise/BatchToSpaceND"
  type: "BatchToSpaceND"
  bottom: "xception_65/middle_flow/block1/unit_8/xception_module/separable_conv2_depthwise/depthwise_nchw"
  top: "xception_65/middle_flow/block1/unit_8/xception_module/separable_conv2_depthwise/depthwise/BatchToSpaceND"
  batch_to_space_nd_param {
    block_shape: 1
    block_shape: 2
    block_shape: 2
    crops: 0
    crops: 0
    crops: 0
    crops: 1
    crops: 0
    crops: 1
  }
}
layer {
  name: "xception_65/middle_flow/block1/unit_8/xception_module/separable_conv2_depthwise/BatchNorm/FusedBatchNorm_nchw"
  type: "BatchNorm"
  bottom: "xception_65/middle_flow/block1/unit_8/xception_module/separable_conv2_depthwise/depthwise/BatchToSpaceND"
  top: "xception_65/middle_flow/block1/unit_8/xception_module/separable_conv2_depthwise/BatchNorm/FusedBatchNorm_nchw"
  batch_norm_param {
    use_global_stats: true
    eps: 0.0010000000475
  }
}
layer {
  name: "xception_65/middle_flow/block1/unit_8/xception_module/separable_conv2_depthwise/BatchNorm/FusedBatchNorm_scale"
  type: "Scale"
  bottom: "xception_65/middle_flow/block1/unit_8/xception_module/separable_conv2_depthwise/BatchNorm/FusedBatchNorm_nchw"
  top: "xception_65/middle_flow/block1/unit_8/xception_module/separable_conv2_depthwise/BatchNorm/FusedBatchNorm_scale"
  scale_param {
    bias_term: true
  }
}
layer {
  name: "xception_65/middle_flow/block1/unit_8/xception_module/separable_conv2_pointwise/Conv2D_nchw"
  type: "Convolution"
  bottom: "xception_65/middle_flow/block1/unit_8/xception_module/separable_conv2_depthwise/BatchNorm/FusedBatchNorm_scale"
  top: "xception_65/middle_flow/block1/unit_8/xception_module/separable_conv2_pointwise/Conv2D_nchw"
  convolution_param {
    num_output: 728
    bias_term: false
    group: 1
    kernel_h: 1
    kernel_w: 1
    stride_h: 1
    stride_w: 1
    pad_l: 0
    pad_r: 0
    pad_t: 0
    pad_b: 0
  }
}
layer {
  name: "xception_65/middle_flow/block1/unit_8/xception_module/separable_conv2_pointwise/BatchNorm/FusedBatchNorm_nchw"
  type: "BatchNorm"
  bottom: "xception_65/middle_flow/block1/unit_8/xception_module/separable_conv2_pointwise/Conv2D_nchw"
  top: "xception_65/middle_flow/block1/unit_8/xception_module/separable_conv2_pointwise/BatchNorm/FusedBatchNorm_nchw"
  batch_norm_param {
    use_global_stats: true
    eps: 0.0010000000475
  }
}
layer {
  name: "xception_65/middle_flow/block1/unit_8/xception_module/separable_conv2_pointwise/BatchNorm/FusedBatchNorm_scale"
  type: "Scale"
  bottom: "xception_65/middle_flow/block1/unit_8/xception_module/separable_conv2_pointwise/BatchNorm/FusedBatchNorm_nchw"
  top: "xception_65/middle_flow/block1/unit_8/xception_module/separable_conv2_pointwise/BatchNorm/FusedBatchNorm_scale"
  scale_param {
    bias_term: true
  }
}
layer {
  name: "xception_65/middle_flow/block1/unit_8/xception_module/Relu_2"
  type: "ReLU"
  bottom: "xception_65/middle_flow/block1/unit_8/xception_module/separable_conv2_pointwise/BatchNorm/FusedBatchNorm_scale"
  top: "xception_65/middle_flow/block1/unit_8/xception_module/Relu_2"
}
layer {
  name: "xception_65/middle_flow/block1/unit_8/xception_module/separable_conv3_depthwise/depthwise/SpaceToBatchND"
  type: "SpaceToBatchND"
  bottom: "xception_65/middle_flow/block1/unit_8/xception_module/Relu_2"
  top: "xception_65/middle_flow/block1/unit_8/xception_module/separable_conv3_depthwise/depthwise/SpaceToBatchND"
  space_to_batch_nd_param {
    block_shape: 1
    block_shape: 2
    block_shape: 2
    paddings: 0
    paddings: 0
    paddings: 2
    paddings: 3
    paddings: 2
    paddings: 3
  }
}
layer {
  name: "xception_65/middle_flow/block1/unit_8/xception_module/separable_conv3_depthwise/depthwise_nchw"
  type: "Convolution"
  bottom: "xception_65/middle_flow/block1/unit_8/xception_module/separable_conv3_depthwise/depthwise/SpaceToBatchND"
  top: "xception_65/middle_flow/block1/unit_8/xception_module/separable_conv3_depthwise/depthwise_nchw"
  convolution_param {
    num_output: 728
    bias_term: false
    group: 728
    kernel_h: 3
    kernel_w: 3
    stride_h: 1
    stride_w: 1
    pad_l: 0
    pad_r: 0
    pad_t: 0
    pad_b: 0
  }
}
layer {
  name: "xception_65/middle_flow/block1/unit_8/xception_module/separable_conv3_depthwise/depthwise/BatchToSpaceND"
  type: "BatchToSpaceND"
  bottom: "xception_65/middle_flow/block1/unit_8/xception_module/separable_conv3_depthwise/depthwise_nchw"
  top: "xception_65/middle_flow/block1/unit_8/xception_module/separable_conv3_depthwise/depthwise/BatchToSpaceND"
  batch_to_space_nd_param {
    block_shape: 1
    block_shape: 2
    block_shape: 2
    crops: 0
    crops: 0
    crops: 0
    crops: 1
    crops: 0
    crops: 1
  }
}
layer {
  name: "xception_65/middle_flow/block1/unit_8/xception_module/separable_conv3_depthwise/BatchNorm/FusedBatchNorm_nchw"
  type: "BatchNorm"
  bottom: "xception_65/middle_flow/block1/unit_8/xception_module/separable_conv3_depthwise/depthwise/BatchToSpaceND"
  top: "xception_65/middle_flow/block1/unit_8/xception_module/separable_conv3_depthwise/BatchNorm/FusedBatchNorm_nchw"
  batch_norm_param {
    use_global_stats: true
    eps: 0.0010000000475
  }
}
layer {
  name: "xception_65/middle_flow/block1/unit_8/xception_module/separable_conv3_depthwise/BatchNorm/FusedBatchNorm_scale"
  type: "Scale"
  bottom: "xception_65/middle_flow/block1/unit_8/xception_module/separable_conv3_depthwise/BatchNorm/FusedBatchNorm_nchw"
  top: "xception_65/middle_flow/block1/unit_8/xception_module/separable_conv3_depthwise/BatchNorm/FusedBatchNorm_scale"
  scale_param {
    bias_term: true
  }
}
layer {
  name: "xception_65/middle_flow/block1/unit_8/xception_module/separable_conv3_pointwise/Conv2D_nchw"
  type: "Convolution"
  bottom: "xception_65/middle_flow/block1/unit_8/xception_module/separable_conv3_depthwise/BatchNorm/FusedBatchNorm_scale"
  top: "xception_65/middle_flow/block1/unit_8/xception_module/separable_conv3_pointwise/Conv2D_nchw"
  convolution_param {
    num_output: 728
    bias_term: false
    group: 1
    kernel_h: 1
    kernel_w: 1
    stride_h: 1
    stride_w: 1
    pad_l: 0
    pad_r: 0
    pad_t: 0
    pad_b: 0
  }
}
layer {
  name: "xception_65/middle_flow/block1/unit_8/xception_module/separable_conv3_pointwise/BatchNorm/FusedBatchNorm_nchw"
  type: "BatchNorm"
  bottom: "xception_65/middle_flow/block1/unit_8/xception_module/separable_conv3_pointwise/Conv2D_nchw"
  top: "xception_65/middle_flow/block1/unit_8/xception_module/separable_conv3_pointwise/BatchNorm/FusedBatchNorm_nchw"
  batch_norm_param {
    use_global_stats: true
    eps: 0.0010000000475
  }
}
layer {
  name: "xception_65/middle_flow/block1/unit_8/xception_module/separable_conv3_pointwise/BatchNorm/FusedBatchNorm_scale"
  type: "Scale"
  bottom: "xception_65/middle_flow/block1/unit_8/xception_module/separable_conv3_pointwise/BatchNorm/FusedBatchNorm_nchw"
  top: "xception_65/middle_flow/block1/unit_8/xception_module/separable_conv3_pointwise/BatchNorm/FusedBatchNorm_scale"
  scale_param {
    bias_term: true
  }
}
layer {
  name: "xception_65/middle_flow/block1/unit_8/xception_module/add"
  type: "Eltwise"
  bottom: "xception_65/middle_flow/block1/unit_8/xception_module/separable_conv3_pointwise/BatchNorm/FusedBatchNorm_scale"
  bottom: "xception_65/middle_flow/block1/unit_7/xception_module/add"
  top: "xception_65/middle_flow/block1/unit_8/xception_module/add"
  eltwise_param {
    operation: SUM
    coeff: 1.0
    coeff: 1.0
  }
}
layer {
  name: "xception_65/middle_flow/block1/unit_9/xception_module/Relu"
  type: "ReLU"
  bottom: "xception_65/middle_flow/block1/unit_8/xception_module/add"
  top: "xception_65/middle_flow/block1/unit_9/xception_module/Relu"
}
layer {
  name: "xception_65/middle_flow/block1/unit_9/xception_module/separable_conv1_depthwise/depthwise/SpaceToBatchND"
  type: "SpaceToBatchND"
  bottom: "xception_65/middle_flow/block1/unit_9/xception_module/Relu"
  top: "xception_65/middle_flow/block1/unit_9/xception_module/separable_conv1_depthwise/depthwise/SpaceToBatchND"
  space_to_batch_nd_param {
    block_shape: 1
    block_shape: 2
    block_shape: 2
    paddings: 0
    paddings: 0
    paddings: 2
    paddings: 3
    paddings: 2
    paddings: 3
  }
}
layer {
  name: "xception_65/middle_flow/block1/unit_9/xception_module/separable_conv1_depthwise/depthwise_nchw"
  type: "Convolution"
  bottom: "xception_65/middle_flow/block1/unit_9/xception_module/separable_conv1_depthwise/depthwise/SpaceToBatchND"
  top: "xception_65/middle_flow/block1/unit_9/xception_module/separable_conv1_depthwise/depthwise_nchw"
  convolution_param {
    num_output: 728
    bias_term: false
    group: 728
    kernel_h: 3
    kernel_w: 3
    stride_h: 1
    stride_w: 1
    pad_l: 0
    pad_r: 0
    pad_t: 0
    pad_b: 0
  }
}
layer {
  name: "xception_65/middle_flow/block1/unit_9/xception_module/separable_conv1_depthwise/depthwise/BatchToSpaceND"
  type: "BatchToSpaceND"
  bottom: "xception_65/middle_flow/block1/unit_9/xception_module/separable_conv1_depthwise/depthwise_nchw"
  top: "xception_65/middle_flow/block1/unit_9/xception_module/separable_conv1_depthwise/depthwise/BatchToSpaceND"
  batch_to_space_nd_param {
    block_shape: 1
    block_shape: 2
    block_shape: 2
    crops: 0
    crops: 0
    crops: 0
    crops: 1
    crops: 0
    crops: 1
  }
}
layer {
  name: "xception_65/middle_flow/block1/unit_9/xception_module/separable_conv1_depthwise/BatchNorm/FusedBatchNorm_nchw"
  type: "BatchNorm"
  bottom: "xception_65/middle_flow/block1/unit_9/xception_module/separable_conv1_depthwise/depthwise/BatchToSpaceND"
  top: "xception_65/middle_flow/block1/unit_9/xception_module/separable_conv1_depthwise/BatchNorm/FusedBatchNorm_nchw"
  batch_norm_param {
    use_global_stats: true
    eps: 0.0010000000475
  }
}
layer {
  name: "xception_65/middle_flow/block1/unit_9/xception_module/separable_conv1_depthwise/BatchNorm/FusedBatchNorm_scale"
  type: "Scale"
  bottom: "xception_65/middle_flow/block1/unit_9/xception_module/separable_conv1_depthwise/BatchNorm/FusedBatchNorm_nchw"
  top: "xception_65/middle_flow/block1/unit_9/xception_module/separable_conv1_depthwise/BatchNorm/FusedBatchNorm_scale"
  scale_param {
    bias_term: true
  }
}
layer {
  name: "xception_65/middle_flow/block1/unit_9/xception_module/separable_conv1_pointwise/Conv2D_nchw"
  type: "Convolution"
  bottom: "xception_65/middle_flow/block1/unit_9/xception_module/separable_conv1_depthwise/BatchNorm/FusedBatchNorm_scale"
  top: "xception_65/middle_flow/block1/unit_9/xception_module/separable_conv1_pointwise/Conv2D_nchw"
  convolution_param {
    num_output: 728
    bias_term: false
    group: 1
    kernel_h: 1
    kernel_w: 1
    stride_h: 1
    stride_w: 1
    pad_l: 0
    pad_r: 0
    pad_t: 0
    pad_b: 0
  }
}
layer {
  name: "xception_65/middle_flow/block1/unit_9/xception_module/separable_conv1_pointwise/BatchNorm/FusedBatchNorm_nchw"
  type: "BatchNorm"
  bottom: "xception_65/middle_flow/block1/unit_9/xception_module/separable_conv1_pointwise/Conv2D_nchw"
  top: "xception_65/middle_flow/block1/unit_9/xception_module/separable_conv1_pointwise/BatchNorm/FusedBatchNorm_nchw"
  batch_norm_param {
    use_global_stats: true
    eps: 0.0010000000475
  }
}
layer {
  name: "xception_65/middle_flow/block1/unit_9/xception_module/separable_conv1_pointwise/BatchNorm/FusedBatchNorm_scale"
  type: "Scale"
  bottom: "xception_65/middle_flow/block1/unit_9/xception_module/separable_conv1_pointwise/BatchNorm/FusedBatchNorm_nchw"
  top: "xception_65/middle_flow/block1/unit_9/xception_module/separable_conv1_pointwise/BatchNorm/FusedBatchNorm_scale"
  scale_param {
    bias_term: true
  }
}
layer {
  name: "xception_65/middle_flow/block1/unit_9/xception_module/Relu_1"
  type: "ReLU"
  bottom: "xception_65/middle_flow/block1/unit_9/xception_module/separable_conv1_pointwise/BatchNorm/FusedBatchNorm_scale"
  top: "xception_65/middle_flow/block1/unit_9/xception_module/Relu_1"
}
layer {
  name: "xception_65/middle_flow/block1/unit_9/xception_module/separable_conv2_depthwise/depthwise/SpaceToBatchND"
  type: "SpaceToBatchND"
  bottom: "xception_65/middle_flow/block1/unit_9/xception_module/Relu_1"
  top: "xception_65/middle_flow/block1/unit_9/xception_module/separable_conv2_depthwise/depthwise/SpaceToBatchND"
  space_to_batch_nd_param {
    block_shape: 1
    block_shape: 2
    block_shape: 2
    paddings: 0
    paddings: 0
    paddings: 2
    paddings: 3
    paddings: 2
    paddings: 3
  }
}
layer {
  name: "xception_65/middle_flow/block1/unit_9/xception_module/separable_conv2_depthwise/depthwise_nchw"
  type: "Convolution"
  bottom: "xception_65/middle_flow/block1/unit_9/xception_module/separable_conv2_depthwise/depthwise/SpaceToBatchND"
  top: "xception_65/middle_flow/block1/unit_9/xception_module/separable_conv2_depthwise/depthwise_nchw"
  convolution_param {
    num_output: 728
    bias_term: false
    group: 728
    kernel_h: 3
    kernel_w: 3
    stride_h: 1
    stride_w: 1
    pad_l: 0
    pad_r: 0
    pad_t: 0
    pad_b: 0
  }
}
layer {
  name: "xception_65/middle_flow/block1/unit_9/xception_module/separable_conv2_depthwise/depthwise/BatchToSpaceND"
  type: "BatchToSpaceND"
  bottom: "xception_65/middle_flow/block1/unit_9/xception_module/separable_conv2_depthwise/depthwise_nchw"
  top: "xception_65/middle_flow/block1/unit_9/xception_module/separable_conv2_depthwise/depthwise/BatchToSpaceND"
  batch_to_space_nd_param {
    block_shape: 1
    block_shape: 2
    block_shape: 2
    crops: 0
    crops: 0
    crops: 0
    crops: 1
    crops: 0
    crops: 1
  }
}
layer {
  name: "xception_65/middle_flow/block1/unit_9/xception_module/separable_conv2_depthwise/BatchNorm/FusedBatchNorm_nchw"
  type: "BatchNorm"
  bottom: "xception_65/middle_flow/block1/unit_9/xception_module/separable_conv2_depthwise/depthwise/BatchToSpaceND"
  top: "xception_65/middle_flow/block1/unit_9/xception_module/separable_conv2_depthwise/BatchNorm/FusedBatchNorm_nchw"
  batch_norm_param {
    use_global_stats: true
    eps: 0.0010000000475
  }
}
layer {
  name: "xception_65/middle_flow/block1/unit_9/xception_module/separable_conv2_depthwise/BatchNorm/FusedBatchNorm_scale"
  type: "Scale"
  bottom: "xception_65/middle_flow/block1/unit_9/xception_module/separable_conv2_depthwise/BatchNorm/FusedBatchNorm_nchw"
  top: "xception_65/middle_flow/block1/unit_9/xception_module/separable_conv2_depthwise/BatchNorm/FusedBatchNorm_scale"
  scale_param {
    bias_term: true
  }
}
layer {
  name: "xception_65/middle_flow/block1/unit_9/xception_module/separable_conv2_pointwise/Conv2D_nchw"
  type: "Convolution"
  bottom: "xception_65/middle_flow/block1/unit_9/xception_module/separable_conv2_depthwise/BatchNorm/FusedBatchNorm_scale"
  top: "xception_65/middle_flow/block1/unit_9/xception_module/separable_conv2_pointwise/Conv2D_nchw"
  convolution_param {
    num_output: 728
    bias_term: false
    group: 1
    kernel_h: 1
    kernel_w: 1
    stride_h: 1
    stride_w: 1
    pad_l: 0
    pad_r: 0
    pad_t: 0
    pad_b: 0
  }
}
layer {
  name: "xception_65/middle_flow/block1/unit_9/xception_module/separable_conv2_pointwise/BatchNorm/FusedBatchNorm_nchw"
  type: "BatchNorm"
  bottom: "xception_65/middle_flow/block1/unit_9/xception_module/separable_conv2_pointwise/Conv2D_nchw"
  top: "xception_65/middle_flow/block1/unit_9/xception_module/separable_conv2_pointwise/BatchNorm/FusedBatchNorm_nchw"
  batch_norm_param {
    use_global_stats: true
    eps: 0.0010000000475
  }
}
layer {
  name: "xception_65/middle_flow/block1/unit_9/xception_module/separable_conv2_pointwise/BatchNorm/FusedBatchNorm_scale"
  type: "Scale"
  bottom: "xception_65/middle_flow/block1/unit_9/xception_module/separable_conv2_pointwise/BatchNorm/FusedBatchNorm_nchw"
  top: "xception_65/middle_flow/block1/unit_9/xception_module/separable_conv2_pointwise/BatchNorm/FusedBatchNorm_scale"
  scale_param {
    bias_term: true
  }
}
layer {
  name: "xception_65/middle_flow/block1/unit_9/xception_module/Relu_2"
  type: "ReLU"
  bottom: "xception_65/middle_flow/block1/unit_9/xception_module/separable_conv2_pointwise/BatchNorm/FusedBatchNorm_scale"
  top: "xception_65/middle_flow/block1/unit_9/xception_module/Relu_2"
}
layer {
  name: "xception_65/middle_flow/block1/unit_9/xception_module/separable_conv3_depthwise/depthwise/SpaceToBatchND"
  type: "SpaceToBatchND"
  bottom: "xception_65/middle_flow/block1/unit_9/xception_module/Relu_2"
…
  bottom: "xception_65/middle_flow/block1/unit_16/xception_module/Relu_2"
  top: "xception_65/middle_flow/block1/unit_16/xception_module/separable_conv3_depthwise/depthwise/SpaceToBatchND"
  space_to_batch_nd_param {
    block_shape: 1
    block_shape: 2
    block_shape: 2
    paddings: 0
    paddings: 0
    paddings: 2
    paddings: 3
    paddings: 2
    paddings: 3
  }
}
layer {
  name: "xception_65/middle_flow/block1/unit_16/xception_module/separable_conv3_depthwise/depthwise_nchw"
  type: "Convolution"
  bottom: "xception_65/middle_flow/block1/unit_16/xception_module/separable_conv3_depthwise/depthwise/SpaceToBatchND"
  top: "xception_65/middle_flow/block1/unit_16/xception_module/separable_conv3_depthwise/depthwise_nchw"
  convolution_param {
    num_output: 728
    bias_term: false
    group: 728
    kernel_h: 3
    kernel_w: 3
    stride_h: 1
    stride_w: 1
    pad_l: 0
    pad_r: 0
    pad_t: 0
    pad_b: 0
  }
}
layer {
  name: "xception_65/middle_flow/block1/unit_16/xception_module/separable_conv3_depthwise/depthwise/BatchToSpaceND"
  type: "BatchToSpaceND"
  bottom: "xception_65/middle_flow/block1/unit_16/xception_module/separable_conv3_depthwise/depthwise_nchw"
  top: "xception_65/middle_flow/block1/unit_16/xception_module/separable_conv3_depthwise/depthwise/BatchToSpaceND"
  batch_to_space_nd_param {
    block_shape: 1
    block_shape: 2
    block_shape: 2
    crops: 0
    crops: 0
    crops: 0
    crops: 1
    crops: 0
    crops: 1
  }
}
layer {
  name: "xception_65/middle_flow/block1/unit_16/xception_module/separable_conv3_depthwise/BatchNorm/FusedBatchNorm_nchw"
  type: "BatchNorm"
  bottom: "xception_65/middle_flow/block1/unit_16/xception_module/separable_conv3_depthwise/depthwise/BatchToSpaceND"
  top: "xception_65/middle_flow/block1/unit_16/xception_module/separable_conv3_depthwise/BatchNorm/FusedBatchNorm_nchw"
  batch_norm_param {
    use_global_stats: true
    eps: 0.0010000000475
  }
}
layer {
  name: "xception_65/middle_flow/block1/unit_16/xception_module/separable_conv3_depthwise/BatchNorm/FusedBatchNorm_scale"
  type: "Scale"
  bottom: "xception_65/middle_flow/block1/unit_16/xception_module/separable_conv3_depthwise/BatchNorm/FusedBatchNorm_nchw"
  top: "xception_65/middle_flow/block1/unit_16/xception_module/separable_conv3_depthwise/BatchNorm/FusedBatchNorm_scale"
  scale_param {
    bias_term: true
  }
}
layer {
  name: "xception_65/middle_flow/block1/unit_16/xception_module/separable_conv3_pointwise/Conv2D_nchw"
  type: "Convolution"
  bottom: "xception_65/middle_flow/block1/unit_16/xception_module/separable_conv3_depthwise/BatchNorm/FusedBatchNorm_scale"
  top: "xception_65/middle_flow/block1/unit_16/xception_module/separable_conv3_pointwise/Conv2D_nchw"
  convolution_param {
    num_output: 728
    bias_term: false
    group: 1
    kernel_h: 1
    kernel_w: 1
    stride_h: 1
    stride_w: 1
    pad_l: 0
    pad_r: 0
    pad_t: 0
    pad_b: 0
  }
}
layer {
  name: "xception_65/middle_flow/block1/unit_16/xception_module/separable_conv3_pointwise/BatchNorm/FusedBatchNorm_nchw"
  type: "BatchNorm"
  bottom: "xception_65/middle_flow/block1/unit_16/xception_module/separable_conv3_pointwise/Conv2D_nchw"
  top: "xception_65/middle_flow/block1/unit_16/xception_module/separable_conv3_pointwise/BatchNorm/FusedBatchNorm_nchw"
  batch_norm_param {
    use_global_stats: true
    eps: 0.0010000000475
  }
}
layer {
  name: "xception_65/middle_flow/block1/unit_16/xception_module/separable_conv3_pointwise/BatchNorm/FusedBatchNorm_scale"
  type: "Scale"
  bottom: "xception_65/middle_flow/block1/unit_16/xception_module/separable_conv3_pointwise/BatchNorm/FusedBatchNorm_nchw"
  top: "xception_65/middle_flow/block1/unit_16/xception_module/separable_conv3_pointwise/BatchNorm/FusedBatchNorm_scale"
  scale_param {
    bias_term: true
  }
}
layer {
  name: "xception_65/middle_flow/block1/unit_16/xception_module/add"
  type: "Eltwise"
  bottom: "xception_65/middle_flow/block1/unit_16/xception_module/separable_conv3_pointwise/BatchNorm/FusedBatchNorm_scale"
  bottom: "xception_65/middle_flow/block1/unit_15/xception_module/add"
  top: "xception_65/middle_flow/block1/unit_16/xception_module/add"
  eltwise_param {
    operation: SUM
    coeff: 1.0
    coeff: 1.0
  }
}
layer {
  name: "xception_65/exit_flow/block1/unit_1/xception_module/Relu"
  type: "ReLU"
  bottom: "xception_65/middle_flow/block1/unit_16/xception_module/add"
  top: "xception_65/exit_flow/block1/unit_1/xception_module/Relu"
}
layer {
  name: "xception_65/exit_flow/block1/unit_1/xception_module/separable_conv1_depthwise/depthwise/SpaceToBatchND"
  type: "SpaceToBatchND"
  bottom: "xception_65/exit_flow/block1/unit_1/xception_module/Relu"
  top: "xception_65/exit_flow/block1/unit_1/xception_module/separable_conv1_depthwise/depthwise/SpaceToBatchND"
  space_to_batch_nd_param {
    block_shape: 1
    block_shape: 2
    block_shape: 2
    paddings: 0
    paddings: 0
    paddings: 2
    paddings: 3
    paddings: 2
    paddings: 3
  }
}
layer {
  name: "xception_65/exit_flow/block1/unit_1/xception_module/separable_conv1_depthwise/depthwise_nchw"
  type: "Convolution"
  bottom: "xception_65/exit_flow/block1/unit_1/xception_module/separable_conv1_depthwise/depthwise/SpaceToBatchND"
  top: "xception_65/exit_flow/block1/unit_1/xception_module/separable_conv1_depthwise/depthwise_nchw"
  convolution_param {
    num_output: 728
    bias_term: false
    group: 728
    kernel_h: 3
    kernel_w: 3
    stride_h: 1
    stride_w: 1
    pad_l: 0
    pad_r: 0
    pad_t: 0
    pad_b: 0
  }
}
layer {
  name: "xception_65/exit_flow/block1/unit_1/xception_module/separable_conv1_depthwise/depthwise/BatchToSpaceND"
  type: "BatchToSpaceND"
  bottom: "xception_65/exit_flow/block1/unit_1/xception_module/separable_conv1_depthwise/depthwise_nchw"
  top: "xception_65/exit_flow/block1/unit_1/xception_module/separable_conv1_depthwise/depthwise/BatchToSpaceND"
  batch_to_space_nd_param {
    block_shape: 1
    block_shape: 2
    block_shape: 2
    crops: 0
    crops: 0
    crops: 0
    crops: 1
    crops: 0
    crops: 1
  }
}
layer {
  name: "xception_65/exit_flow/block1/unit_1/xception_module/separable_conv1_depthwise/BatchNorm/FusedBatchNorm_nchw"
  type: "BatchNorm"
  bottom: "xception_65/exit_flow/block1/unit_1/xception_module/separable_conv1_depthwise/depthwise/BatchToSpaceND"
  top: "xception_65/exit_flow/block1/unit_1/xception_module/separable_conv1_depthwise/BatchNorm/FusedBatchNorm_nchw"
  batch_norm_param {
    use_global_stats: true
    eps: 0.0010000000475
  }
}
layer {
  name: "xception_65/exit_flow/block1/unit_1/xception_module/separable_conv1_depthwise/BatchNorm/FusedBatchNorm_scale"
  type: "Scale"
  bottom: "xception_65/exit_flow/block1/unit_1/xception_module/separable_conv1_depthwise/BatchNorm/FusedBatchNorm_nchw"
  top: "xception_65/exit_flow/block1/unit_1/xception_module/separable_conv1_depthwise/BatchNorm/FusedBatchNorm_scale"
  scale_param {
    bias_term: true
  }
}
layer {
  name: "xception_65/exit_flow/block1/unit_1/xception_module/separable_conv1_pointwise/Conv2D_nchw"
  type: "Convolution"
  bottom: "xception_65/exit_flow/block1/unit_1/xception_module/separable_conv1_depthwise/BatchNorm/FusedBatchNorm_scale"
  top: "xception_65/exit_flow/block1/unit_1/xception_module/separable_conv1_pointwise/Conv2D_nchw"
  convolution_param {
    num_output: 728
    bias_term: false
    group: 1
    kernel_h: 1
    kernel_w: 1
    stride_h: 1
    stride_w: 1
    pad_l: 0
    pad_r: 0
    pad_t: 0
    pad_b: 0
  }
}
layer {
  name: "xception_65/exit_flow/block1/unit_1/xception_module/separable_conv1_pointwise/BatchNorm/FusedBatchNorm_nchw"
  type: "BatchNorm"
  bottom: "xception_65/exit_flow/block1/unit_1/xception_module/separable_conv1_pointwise/Conv2D_nchw"
  top: "xception_65/exit_flow/block1/unit_1/xception_module/separable_conv1_pointwise/BatchNorm/FusedBatchNorm_nchw"
  batch_norm_param {
    use_global_stats: true
    eps: 0.0010000000475
  }
}
layer {
  name: "xception_65/exit_flow/block1/unit_1/xception_module/separable_conv1_pointwise/BatchNorm/FusedBatchNorm_scale"
  type: "Scale"
  bottom: "xception_65/exit_flow/block1/unit_1/xception_module/separable_conv1_pointwise/BatchNorm/FusedBatchNorm_nchw"
  top: "xception_65/exit_flow/block1/unit_1/xception_module/separable_conv1_pointwise/BatchNorm/FusedBatchNorm_scale"
  scale_param {
    bias_term: true
  }
}
layer {
  name: "xception_65/exit_flow/block1/unit_1/xception_module/Relu_1"
  type: "ReLU"
  bottom: "xception_65/exit_flow/block1/unit_1/xception_module/separable_conv1_pointwise/BatchNorm/FusedBatchNorm_scale"
  top: "xception_65/exit_flow/block1/unit_1/xception_module/Relu_1"
}
layer {
  name: "xception_65/exit_flow/block1/unit_1/xception_module/separable_conv2_depthwise/depthwise/SpaceToBatchND"
  type: "SpaceToBatchND"
  bottom: "xception_65/exit_flow/block1/unit_1/xception_module/Relu_1"
  top: "xception_65/exit_flow/block1/unit_1/xception_module/separable_conv2_depthwise/depthwise/SpaceToBatchND"
  space_to_batch_nd_param {
    block_shape: 1
    block_shape: 2
    block_shape: 2
    paddings: 0
    paddings: 0
    paddings: 2
    paddings: 3
    paddings: 2
    paddings: 3
  }
}
layer {
  name: "xception_65/exit_flow/block1/unit_1/xception_module/separable_conv2_depthwise/depthwise_nchw"
  type: "Convolution"
  bottom: "xception_65/exit_flow/block1/unit_1/xception_module/separable_conv2_depthwise/depthwise/SpaceToBatchND"
  top: "xception_65/exit_flow/block1/unit_1/xception_module/separable_conv2_depthwise/depthwise_nchw"
  convolution_param {
    num_output: 728
    bias_term: false
    group: 728
    kernel_h: 3
    kernel_w: 3
    stride_h: 1
    stride_w: 1
    pad_l: 0
    pad_r: 0
    pad_t: 0
    pad_b: 0
  }
}
layer {
  name: "xception_65/exit_flow/block1/unit_1/xception_module/separable_conv2_depthwise/depthwise/BatchToSpaceND"
  type: "BatchToSpaceND"
  bottom: "xception_65/exit_flow/block1/unit_1/xception_module/separable_conv2_depthwise/depthwise_nchw"
  top: "xception_65/exit_flow/block1/unit_1/xception_module/separable_conv2_depthwise/depthwise/BatchToSpaceND"
  batch_to_space_nd_param {
    block_shape: 1
    block_shape: 2
    block_shape: 2
    crops: 0
    crops: 0
    crops: 0
    crops: 1
    crops: 0
    crops: 1
  }
}
layer {
  name: "xception_65/exit_flow/block1/unit_1/xception_module/separable_conv2_depthwise/BatchNorm/FusedBatchNorm_nchw"
  type: "BatchNorm"
  bottom: "xception_65/exit_flow/block1/unit_1/xception_module/separable_conv2_depthwise/depthwise/BatchToSpaceND"
  top: "xception_65/exit_flow/block1/unit_1/xception_module/separable_conv2_depthwise/BatchNorm/FusedBatchNorm_nchw"
  batch_norm_param {
    use_global_stats: true
    eps: 0.0010000000475
  }
}
layer {
  name: "xception_65/exit_flow/block1/unit_1/xception_module/separable_conv2_depthwise/BatchNorm/FusedBatchNorm_scale"
  type: "Scale"
  bottom: "xception_65/exit_flow/block1/unit_1/xception_module/separable_conv2_depthwise/BatchNorm/FusedBatchNorm_nchw"
  top: "xception_65/exit_flow/block1/unit_1/xception_module/separable_conv2_depthwise/BatchNorm/FusedBatchNorm_scale"
  scale_param {
    bias_term: true
  }
}
layer {
  name: "xception_65/exit_flow/block1/unit_1/xception_module/separable_conv2_pointwise/Conv2D_nchw"
  type: "Convolution"
  bottom: "xception_65/exit_flow/block1/unit_1/xception_module/separable_conv2_depthwise/BatchNorm/FusedBatchNorm_scale"
  top: "xception_65/exit_flow/block1/unit_1/xception_module/separable_conv2_pointwise/Conv2D_nchw"
  convolution_param {
    num_output: 1024
    bias_term: false
    group: 1
    kernel_h: 1
    kernel_w: 1
    stride_h: 1
    stride_w: 1
    pad_l: 0
    pad_r: 0
    pad_t: 0
    pad_b: 0
  }
}
layer {
  name: "xception_65/exit_flow/block1/unit_1/xception_module/separable_conv2_pointwise/BatchNorm/FusedBatchNorm_nchw"
  type: "BatchNorm"
  bottom: "xception_65/exit_flow/block1/unit_1/xception_module/separable_conv2_pointwise/Conv2D_nchw"
  top: "xception_65/exit_flow/block1/unit_1/xception_module/separable_conv2_pointwise/BatchNorm/FusedBatchNorm_nchw"
  batch_norm_param {
    use_global_stats: true
    eps: 0.0010000000475
  }
}
layer {
  name: "xception_65/exit_flow/block1/unit_1/xception_module/separable_conv2_pointwise/BatchNorm/FusedBatchNorm_scale"
  type: "Scale"
  bottom: "xception_65/exit_flow/block1/unit_1/xception_module/separable_conv2_pointwise/BatchNorm/FusedBatchNorm_nchw"
  top: "xception_65/exit_flow/block1/unit_1/xception_module/separable_conv2_pointwise/BatchNorm/FusedBatchNorm_scale"
  scale_param {
    bias_term: true
  }
}
layer {
  name: "xception_65/exit_flow/block1/unit_1/xception_module/Relu_2"
  type: "ReLU"
  bottom: "xception_65/exit_flow/block1/unit_1/xception_module/separable_conv2_pointwise/BatchNorm/FusedBatchNorm_scale"
  top: "xception_65/exit_flow/block1/unit_1/xception_module/Relu_2"
}
layer {
  name: "xception_65/exit_flow/block1/unit_1/xception_module/separable_conv3_depthwise/depthwise/SpaceToBatchND"
  type: "SpaceToBatchND"
  bottom: "xception_65/exit_flow/block1/unit_1/xception_module/Relu_2"
  top: "xception_65/exit_flow/block1/unit_1/xception_module/separable_conv3_depthwise/depthwise/SpaceToBatchND"
  space_to_batch_nd_param {
    block_shape: 1
    block_shape: 2
    block_shape: 2
    paddings: 0
    paddings: 0
    paddings: 2
    paddings: 3
    paddings: 2
    paddings: 3
  }
}
layer {
  name: "xception_65/exit_flow/block1/unit_1/xception_module/separable_conv3_depthwise/depthwise_nchw"
  type: "Convolution"
  bottom: "xception_65/exit_flow/block1/unit_1/xception_module/separable_conv3_depthwise/depthwise/SpaceToBatchND"
  top: "xception_65/exit_flow/block1/unit_1/xception_module/separable_conv3_depthwise/depthwise_nchw"
  convolution_param {
    num_output: 1024
    bias_term: false
    group: 1024
    kernel_h: 3
    kernel_w: 3
    stride_h: 1
    stride_w: 1
    pad_l: 0
    pad_r: 0
    pad_t: 0
    pad_b: 0
  }
}
layer {
  name: "xception_65/exit_flow/block1/unit_1/xception_module/separable_conv3_depthwise/depthwise/BatchToSpaceND"
  type: "BatchToSpaceND"
  bottom: "xception_65/exit_flow/block1/unit_1/xception_module/separable_conv3_depthwise/depthwise_nchw"
  top: "xception_65/exit_flow/block1/unit_1/xception_module/separable_conv3_depthwise/depthwise/BatchToSpaceND"
  batch_to_space_nd_param {
    block_shape: 1
    block_shape: 2
    block_shape: 2
    crops: 0
    crops: 0
    crops: 0
    crops: 1
    crops: 0
    crops: 1
  }
}
layer {
  name: "xception_65/exit_flow/block1/unit_1/xception_module/separable_conv3_depthwise/BatchNorm/FusedBatchNorm_nchw"
  type: "BatchNorm"
  bottom: "xception_65/exit_flow/block1/unit_1/xception_module/separable_conv3_depthwise/depthwise/BatchToSpaceND"
  top: "xception_65/exit_flow/block1/unit_1/xception_module/separable_conv3_depthwise/BatchNorm/FusedBatchNorm_nchw"
  batch_norm_param {
    use_global_stats: true
    eps: 0.0010000000475
  }
}
layer {
  name: "xception_65/exit_flow/block1/unit_1/xception_module/separable_conv3_depthwise/BatchNorm/FusedBatchNorm_scale"
  type: "Scale"
  bottom: "xception_65/exit_flow/block1/unit_1/xception_module/separable_conv3_depthwise/BatchNorm/FusedBatchNorm_nchw"
  top: "xception_65/exit_flow/block1/unit_1/xception_module/separable_conv3_depthwise/BatchNorm/FusedBatchNorm_scale"
  scale_param {
    bias_term: true
  }
}
layer {
  name: "xception_65/exit_flow/block1/unit_1/xception_module/separable_conv3_pointwise/Conv2D_nchw"
  type: "Convolution"
  bottom: "xception_65/exit_flow/block1/unit_1/xception_module/separable_conv3_depthwise/BatchNorm/FusedBatchNorm_scale"
  top: "xception_65/exit_flow/block1/unit_1/xception_module/separable_conv3_pointwise/Conv2D_nchw"
  convolution_param {
    num_output: 1024
    bias_term: false
    group: 1
    kernel_h: 1
    kernel_w: 1
    stride_h: 1
    stride_w: 1
    pad_l: 0
    pad_r: 0
    pad_t: 0
    pad_b: 0
  }
}
layer {
  name: "xception_65/exit_flow/block1/unit_1/xception_module/separable_conv3_pointwise/BatchNorm/FusedBatchNorm_nchw"
  type: "BatchNorm"
  bottom: "xception_65/exit_flow/block1/unit_1/xception_module/separable_conv3_pointwise/Conv2D_nchw"
  top: "xception_65/exit_flow/block1/unit_1/xception_module/separable_conv3_pointwise/BatchNorm/FusedBatchNorm_nchw"
  batch_norm_param {
    use_global_stats: true
    eps: 0.0010000000475
  }
}
layer {
  name: "xception_65/exit_flow/block1/unit_1/xception_module/separable_conv3_pointwise/BatchNorm/FusedBatchNorm_scale"
  type: "Scale"
  bottom: "xception_65/exit_flow/block1/unit_1/xception_module/separable_conv3_pointwise/BatchNorm/FusedBatchNorm_nchw"
  top: "xception_65/exit_flow/block1/unit_1/xception_module/separable_conv3_pointwise/BatchNorm/FusedBatchNorm_scale"
  scale_param {
    bias_term: true
  }
}
layer {
  name: "xception_65/exit_flow/block1/unit_1/xception_module/shortcut/Conv2D_nchw"
  type: "Convolution"
  bottom: "xception_65/middle_flow/block1/unit_16/xception_module/add"
  top: "xception_65/exit_flow/block1/unit_1/xception_module/shortcut/Conv2D_nchw"
  convolution_param {
    num_output: 1024
    bias_term: false
    group: 1
    kernel_h: 1
    kernel_w: 1
    stride_h: 1
    stride_w: 1
    pad_l: 0
    pad_r: 0
    pad_t: 0
    pad_b: 0
  }
}
layer {
  name: "xception_65/exit_flow/block1/unit_1/xception_module/shortcut/BatchNorm/FusedBatchNorm_nchw"
  type: "BatchNorm"
  bottom: "xception_65/exit_flow/block1/unit_1/xception_module/shortcut/Conv2D_nchw"
  top: "xception_65/exit_flow/block1/unit_1/xception_module/shortcut/BatchNorm/FusedBatchNorm_nchw"
  batch_norm_param {
    use_global_stats: true
    eps: 0.0010000000475
  }
}
layer {
  name: "xception_65/exit_flow/block1/unit_1/xception_module/shortcut/BatchNorm/FusedBatchNorm_scale"
  type: "Scale"
  bottom: "xception_65/exit_flow/block1/unit_1/xception_module/shortcut/BatchNorm/FusedBatchNorm_nchw"
  top: "xception_65/exit_flow/block1/unit_1/xception_module/shortcut/BatchNorm/FusedBatchNorm_scale"
  scale_param {
    bias_term: true
  }
}
layer {
  name: "xception_65/exit_flow/block1/unit_1/xception_module/add"
  type: "Eltwise"
  bottom: "xception_65/exit_flow/block1/unit_1/xception_module/separable_conv3_pointwise/BatchNorm/FusedBatchNorm_scale"
  bottom: "xception_65/exit_flow/block1/unit_1/xception_module/shortcut/BatchNorm/FusedBatchNorm_scale"
  top: "xception_65/exit_flow/block1/unit_1/xception_module/add"
  eltwise_param {
    operation: SUM
    coeff: 1.0
    coeff: 1.0
  }
}
layer {
  name: "xception_65/exit_flow/block2/unit_1/xception_module/separable_conv1_depthwise/depthwise/SpaceToBatchND"
  type: "SpaceToBatchND"
  bottom: "xception_65/exit_flow/block1/unit_1/xception_module/add"
  top: "xception_65/exit_flow/block2/unit_1/xception_module/separable_conv1_depthwise/depthwise/SpaceToBatchND"
  space_to_batch_nd_param {
    block_shape: 1
    block_shape: 4
    block_shape: 4
    paddings: 0
    paddings: 0
    paddings: 4
    paddings: 7
    paddings: 4
    paddings: 7
  }
}
layer {
  name: "xception_65/exit_flow/block2/unit_1/xception_module/separable_conv1_depthwise/depthwise_nchw"
  type: "Convolution"
  bottom: "xception_65/exit_flow/block2/unit_1/xception_module/separable_conv1_depthwise/depthwise/SpaceToBatchND"
  top: "xception_65/exit_flow/block2/unit_1/xception_module/separable_conv1_depthwise/depthwise_nchw"
  convolution_param {
    num_output: 1024
    bias_term: false
    group: 1024
    kernel_h: 3
    kernel_w: 3
    stride_h: 1
    stride_w: 1
    pad_l: 0
    pad_r: 0
    pad_t: 0
    pad_b: 0
  }
}
layer {
  name: "xception_65/exit_flow/block2/unit_1/xception_module/separable_conv1_depthwise/depthwise/BatchToSpaceND"
  type: "BatchToSpaceND"
  bottom: "xception_65/exit_flow/block2/unit_1/xception_module/separable_conv1_depthwise/depthwise_nchw"
  top: "xception_65/exit_flow/block2/unit_1/xception_module/separable_conv1_depthwise/depthwise/BatchToSpaceND"
  batch_to_space_nd_param {
    block_shape: 1
    block_shape: 4
    block_shape: 4
    crops: 0
    crops: 0
    crops: 0
    crops: 3
    crops: 0
    crops: 3
  }
}
layer {
  name: "xception_65/exit_flow/block2/unit_1/xception_module/separable_conv1_depthwise/BatchNorm/FusedBatchNorm_nchw"
  type: "BatchNorm"
  bottom: "xception_65/exit_flow/block2/unit_1/xception_module/separable_conv1_depthwise/depthwise/BatchToSpaceND"
  top: "xception_65/exit_flow/block2/unit_1/xception_module/separable_conv1_depthwise/BatchNorm/FusedBatchNorm_nchw"
  batch_norm_param {
    use_global_stats: true
    eps: 0.0010000000475
  }
}
layer {
  name: "xception_65/exit_flow/block2/unit_1/xception_module/separable_conv1_depthwise/BatchNorm/FusedBatchNorm_scale"
  type: "Scale"
  bottom: "xception_65/exit_flow/block2/unit_1/xception_module/separable_conv1_depthwise/BatchNorm/FusedBatchNorm_nchw"
  top: "xception_65/exit_flow/block2/unit_1/xception_module/separable_conv1_depthwise/BatchNorm/FusedBatchNorm_scale"
  scale_param {
    bias_term: true
  }
}
layer {
  name: "xception_65/exit_flow/block2/unit_1/xception_module/separable_conv1_depthwise/Relu"
  type: "ReLU"
  bottom: "xception_65/exit_flow/block2/unit_1/xception_module/separable_conv1_depthwise/BatchNorm/FusedBatchNorm_scale"
  top: "xception_65/exit_flow/block2/unit_1/xception_module/separable_conv1_depthwise/Relu"
}
layer {
  name: "xception_65/exit_flow/block2/unit_1/xception_module/separable_conv1_pointwise/Conv2D_nchw"
  type: "Convolution"
  bottom: "xception_65/exit_flow/block2/unit_1/xception_module/separable_conv1_depthwise/Relu"
  top: "xception_65/exit_flow/block2/unit_1/xception_module/separable_conv1_pointwise/Conv2D_nchw"
  convolution_param {
    num_output: 1536
    bias_term: false
    group: 1
    kernel_h: 1
    kernel_w: 1
    stride_h: 1
    stride_w: 1
    pad_l: 0
    pad_r: 0
    pad_t: 0
    pad_b: 0
  }
}
layer {
  name: "xception_65/exit_flow/block2/unit_1/xception_module/separable_conv1_pointwise/BatchNorm/FusedBatchNorm_nchw"
  type: "BatchNorm"
  bottom: "xception_65/exit_flow/block2/unit_1/xception_module/separable_conv1_pointwise/Conv2D_nchw"
  top: "xception_65/exit_flow/block2/unit_1/xception_module/separable_conv1_pointwise/BatchNorm/FusedBatchNorm_nchw"
  batch_norm_param {
    use_global_stats: true
    eps: 0.0010000000475
  }
}
layer {
  name: "xception_65/exit_flow/block2/unit_1/xception_module/separable_conv1_pointwise/BatchNorm/FusedBatchNorm_scale"
  type: "Scale"
  bottom: "xception_65/exit_flow/block2/unit_1/xception_module/separable_conv1_pointwise/BatchNorm/FusedBatchNorm_nchw"
  top: "xception_65/exit_flow/block2/unit_1/xception_module/separable_conv1_pointwise/BatchNorm/FusedBatchNorm_scale"
  scale_param {
    bias_term: true
  }
}
layer {
  name: "xception_65/exit_flow/block2/unit_1/xception_module/separable_conv1_pointwise/Relu"
  type: "ReLU"
  bottom: "xception_65/exit_flow/block2/unit_1/xception_module/separable_conv1_pointwise/BatchNorm/FusedBatchNorm_scale"
  top: "xception_65/exit_flow/block2/unit_1/xception_module/separable_conv1_pointwise/Relu"
}
layer {
  name: "xception_65/exit_flow/block2/unit_1/xception_module/separable_conv2_depthwise/depthwise/SpaceToBatchND"
  type: "SpaceToBatchND"
  bottom: "xception_65/exit_flow/block2/unit_1/xception_module/separable_conv1_pointwise/Relu"
  top: "xception_65/exit_flow/block2/unit_1/xception_module/separable_conv2_depthwise/depthwise/SpaceToBatchND"
  space_to_batch_nd_param {
    block_shape: 1
    block_shape: 4
    block_shape: 4
    paddings: 0
    paddings: 0
    paddings: 4
    paddings: 7
    paddings: 4
    paddings: 7
  }
}
layer {
  name: "xception_65/exit_flow/block2/unit_1/xception_module/separable_conv2_depthwise/depthwise_nchw"
  type: "Convolution"
  bottom: "xception_65/exit_flow/block2/unit_1/xception_module/separable_conv2_depthwise/depthwise/SpaceToBatchND"
  top: "xception_65/exit_flow/block2/unit_1/xception_module/separable_conv2_depthwise/depthwise_nchw"
  convolution_param {
    num_output: 1536
    bias_term: false
    group: 1536
    kernel_h: 3
    kernel_w: 3
    stride_h: 1
    stride_w: 1
    pad_l: 0
    pad_r: 0
    pad_t: 0
    pad_b: 0
  }
}
layer {
  name: "xception_65/exit_flow/block2/unit_1/xception_module/separable_conv2_depthwise/depthwise/BatchToSpaceND"
  type: "BatchToSpaceND"
  bottom: "xception_65/exit_flow/block2/unit_1/xception_module/separable_conv2_depthwise/depthwise_nchw"
  top: "xception_65/exit_flow/block2/unit_1/xception_module/separable_conv2_depthwise/depthwise/BatchToSpaceND"
  batch_to_space_nd_param {
    block_shape: 1
    block_shape: 4
    block_shape: 4
    crops: 0
    crops: 0
    crops: 0
    crops: 3
    crops: 0
    crops: 3
  }
}
layer {
  name: "xception_65/exit_flow/block2/unit_1/xception_module/separable_conv2_depthwise/BatchNorm/FusedBatchNorm_nchw"
  type: "BatchNorm"
  bottom: "xception_65/exit_flow/block2/unit_1/xception_module/separable_conv2_depthwise/depthwise/BatchToSpaceND"
  top: "xception_65/exit_flow/block2/unit_1/xception_module/separable_conv2_depthwise/BatchNorm/FusedBatchNorm_nchw"
  batch_norm_param {
    use_global_stats: true
    eps: 0.0010000000475
  }
}
layer {
  name: "xception_65/exit_flow/block2/unit_1/xception_module/separable_conv2_depthwise/BatchNorm/FusedBatchNorm_scale"
  type: "Scale"
  bottom: "xception_65/exit_flow/block2/unit_1/xception_module/separable_conv2_depthwise/BatchNorm/FusedBatchNorm_nchw"
  top: "xception_65/exit_flow/block2/unit_1/xception_module/separable_conv2_depthwise/BatchNorm/FusedBatchNorm_scale"
  scale_param {
    bias_term: true
  }
}
layer {
  name: "xception_65/exit_flow/block2/unit_1/xception_module/separable_conv2_depthwise/Relu"
  type: "ReLU"
  bottom: "xception_65/exit_flow/block2/unit_1/xception_module/separable_conv2_depthwise/BatchNorm/FusedBatchNorm_scale"
  top: "xception_65/exit_flow/block2/unit_1/xception_module/separable_conv2_depthwise/Relu"
}
layer {
  name: "xception_65/exit_flow/block2/unit_1/xception_module/separable_conv2_pointwise/Conv2D_nchw"
  type: "Convolution"
  bottom: "xception_65/exit_flow/block2/unit_1/xception_module/separable_conv2_depthwise/Relu"
  top: "xception_65/exit_flow/block2/unit_1/xception_module/separable_conv2_pointwise/Conv2D_nchw"
  convolution_param {
    num_output: 1536
    bias_term: false
    group: 1
    kernel_h: 1
    kernel_w: 1
    stride_h: 1
    stride_w: 1
    pad_l: 0
    pad_r: 0
    pad_t: 0
    pad_b: 0
  }
}
layer {
  name: "xception_65/exit_flow/block2/unit_1/xception_module/separable_conv2_pointwise/BatchNorm/FusedBatchNorm_nchw"
  type: "BatchNorm"
  bottom: "xception_65/exit_flow/block2/unit_1/xception_module/separable_conv2_pointwise/Conv2D_nchw"
  top: "xception_65/exit_flow/block2/unit_1/xception_module/separable_conv2_pointwise/BatchNorm/FusedBatchNorm_nchw"
  batch_norm_param {
    use_global_stats: true
    eps: 0.0010000000475
  }
}
layer {
  name: "xception_65/exit_flow/block2/unit_1/xception_module/separable_conv2_pointwise/BatchNorm/FusedBatchNorm_scale"
  type: "Scale"
  bottom: "xception_65/exit_flow/block2/unit_1/xception_module/separable_conv2_pointwise/BatchNorm/FusedBatchNorm_nchw"
  top: "xception_65/exit_flow/block2/unit_1/xception_module/separable_conv2_pointwise/BatchNorm/FusedBatchNorm_scale"
  scale_param {
    bias_term: true
  }
}
layer {
  name: "xception_65/exit_flow/block2/unit_1/xception_module/separable_conv2_pointwise/Relu"
  type: "ReLU"
  bottom: "xception_65/exit_flow/block2/unit_1/xception_module/separable_conv2_pointwise/BatchNorm/FusedBatchNorm_scale"
  top: "xception_65/exit_flow/block2/unit_1/xception_module/separable_conv2_pointwise/Relu"
}
layer {
  name: "xception_65/exit_flow/block2/unit_1/xception_module/separable_conv3_depthwise/depthwise/SpaceToBatchND"
  type: "SpaceToBatchND"
  bottom: "xception_65/exit_flow/block2/unit_1/xception_module/separable_conv2_pointwise/Relu"
  top: "xception_65/exit_flow/block2/unit_1/xception_module/separable_conv3_depthwise/depthwise/SpaceToBatchND"
  space_to_batch_nd_param {
    block_shape: 1
    block_shape: 4
    block_shape: 4
    paddings: 0
    paddings: 0
    paddings: 4
    paddings: 7
    paddings: 4
    paddings: 7
  }
}
layer {
  name: "xception_65/exit_flow/block2/unit_1/xception_module/separable_conv3_depthwise/depthwise_nchw"
  type: "Convolution"
  bottom: "xception_65/exit_flow/block2/unit_1/xception_module/separable_conv3_depthwise/depthwise/SpaceToBatchND"
  top: "xception_65/exit_flow/block2/unit_1/xception_module/separable_conv3_depthwise/depthwise_nchw"
  convolution_param {
    num_output: 1536
    bias_term: false
    group: 1536
    kernel_h: 3
    kernel_w: 3
    stride_h: 1
    stride_w: 1
    pad_l: 0
    pad_r: 0
    pad_t: 0
    pad_b: 0
  }
}
layer {
  name: "xception_65/exit_flow/block2/unit_1/xception_module/separable_conv3_depthwise/depthwise/BatchToSpaceND"
  type: "BatchToSpaceND"
  bottom: "xception_65/exit_flow/block2/unit_1/xception_module/separable_conv3_depthwise/depthwise_nchw"
  top: "xception_65/exit_flow/block2/unit_1/xception_module/separable_conv3_depthwise/depthwise/BatchToSpaceND"
  batch_to_space_nd_param {
    block_shape: 1
    block_shape: 4
    block_shape: 4
    crops: 0
    crops: 0
    crops: 0
    crops: 3
    crops: 0
    crops: 3
  }
}
layer {
  name: "xception_65/exit_flow/block2/unit_1/xception_module/separable_conv3_depthwise/BatchNorm/FusedBatchNorm_nchw"
  type: "BatchNorm"
  bottom: "xception_65/exit_flow/block2/unit_1/xception_module/separable_conv3_depthwise/depthwise/BatchToSpaceND"
  top: "xception_65/exit_flow/block2/unit_1/xception_module/separable_conv3_depthwise/BatchNorm/FusedBatchNorm_nchw"
  batch_norm_param {
    use_global_stats: true
    eps: 0.0010000000475
  }
}
layer {
  name: "xception_65/exit_flow/block2/unit_1/xception_module/separable_conv3_depthwise/BatchNorm/FusedBatchNorm_scale"
  type: "Scale"
  bottom: "xception_65/exit_flow/block2/unit_1/xception_module/separable_conv3_depthwise/BatchNorm/FusedBatchNorm_nchw"
  top: "xception_65/exit_flow/block2/unit_1/xception_module/separable_conv3_depthwise/BatchNorm/FusedBatchNorm_scale"
  scale_param {
    bias_term: true
  }
}
layer {
  name: "xception_65/exit_flow/block2/unit_1/xception_module/separable_conv3_depthwise/Relu"
  type: "ReLU"
  bottom: "xception_65/exit_flow/block2/unit_1/xception_module/separable_conv3_depthwise/BatchNorm/FusedBatchNorm_scale"
  top: "xception_65/exit_flow/block2/unit_1/xception_module/separable_conv3_depthwise/Relu"
}
layer {
  name: "xception_65/exit_flow/block2/unit_1/xception_module/separable_conv3_pointwise/Conv2D_nchw"
  type: "Convolution"
  bottom: "xception_65/exit_flow/block2/unit_1/xception_module/separable_conv3_depthwise/Relu"
  top: "xception_65/exit_flow/block2/unit_1/xception_module/separable_conv3_pointwise/Conv2D_nchw"
  convolution_param {
    num_output: 2048
    bias_term: false
    group: 1
    kernel_h: 1
    kernel_w: 1
    stride_h: 1
    stride_w: 1
    pad_l: 0
    pad_r: 0
    pad_t: 0
    pad_b: 0
  }
}
layer {
  name: "xception_65/exit_flow/block2/unit_1/xception_module/separable_conv3_pointwise/BatchNorm/FusedBatchNorm_nchw"
  type: "BatchNorm"
  bottom: "xception_65/exit_flow/block2/unit_1/xception_module/separable_conv3_pointwise/Conv2D_nchw"
  top: "xception_65/exit_flow/block2/unit_1/xception_module/separable_conv3_pointwise/BatchNorm/FusedBatchNorm_nchw"
  batch_norm_param {
    use_global_stats: true
    eps: 0.0010000000475
  }
}
layer {
  name: "xception_65/exit_flow/block2/unit_1/xception_module/separable_conv3_pointwise/BatchNorm/FusedBatchNorm_scale"
  type: "Scale"
  bottom: "xception_65/exit_flow/block2/unit_1/xception_module/separable_conv3_pointwise/BatchNorm/FusedBatchNorm_nchw"
  top: "xception_65/exit_flow/block2/unit_1/xception_module/separable_conv3_pointwise/BatchNorm/FusedBatchNorm_scale"
  scale_param {
    bias_term: true
  }
}
layer {
  name: "xception_65/exit_flow/block2/unit_1/xception_module/separable_conv3_pointwise/Relu"
  type: "ReLU"
  bottom: "xception_65/exit_flow/block2/unit_1/xception_module/separable_conv3_pointwise/BatchNorm/FusedBatchNorm_scale"
  top: "xception_65/exit_flow/block2/unit_1/xception_module/separable_conv3_pointwise/Relu"
}
layer {
  name: "aspp0/Conv2D_nchw"
  type: "Convolution"
  bottom: "xception_65/exit_flow/block2/unit_1/xception_module/separable_conv3_pointwise/Relu"
  top: "aspp0/Conv2D_nchw"
  convolution_param {
    num_output: 256
    bias_term: false
    group: 1
    kernel_h: 1
    kernel_w: 1
    stride_h: 1
    stride_w: 1
    pad_l: 0
    pad_r: 0
    pad_t: 0
    pad_b: 0
  }
}
layer {
  name: "aspp0/BatchNorm/FusedBatchNorm_nchw"
  type: "BatchNorm"
  bottom: "aspp0/Conv2D_nchw"
  top: "aspp0/BatchNorm/FusedBatchNorm_nchw"
  batch_norm_param {
    use_global_stats: true
    eps: 1.00099996416e-05
  }
}
layer {
  name: "aspp0/BatchNorm/FusedBatchNorm_scale"
  type: "Scale"
  bottom: "aspp0/BatchNorm/FusedBatchNorm_nchw"
  top: "aspp0/BatchNorm/FusedBatchNorm_scale"
  scale_param {
    bias_term: true
  }
}
layer {
  name: "aspp0/Relu"
  type: "ReLU"
  bottom: "aspp0/BatchNorm/FusedBatchNorm_scale"
  top: "aspp0/Relu"
}
layer {
  name: "aspp2_depthwise/depthwise/SpaceToBatchND"
  type: "SpaceToBatchND"
  bottom: "xception_65/exit_flow/block2/unit_1/xception_module/separable_conv3_pointwise/Relu"
  top: "aspp2_depthwise/depthwise/SpaceToBatchND"
  space_to_batch_nd_param {
    block_shape: 1
    block_shape: 24
    block_shape: 24
    paddings: 0
    paddings: 0
    paddings: 24
    paddings: 31
    paddings: 24
    paddings: 31
  }
}
layer {
  name: "aspp2_depthwise/depthwise_nchw"
  type: "Convolution"
  bottom: "aspp2_depthwise/depthwise/SpaceToBatchND"
  top: "aspp2_depthwise/depthwise_nchw"
  convolution_param {
    num_output: 2048
    bias_term: false
    group: 2048
    kernel_h: 3
    kernel_w: 3
    stride_h: 1
    stride_w: 1
    pad_l: 0
    pad_r: 0
    pad_t: 0
    pad_b: 0
  }
}
layer {
  name: "aspp2_depthwise/depthwise/BatchToSpaceND"
  type: "BatchToSpaceND"
  bottom: "aspp2_depthwise/depthwise_nchw"
  top: "aspp2_depthwise/depthwise/BatchToSpaceND"
  batch_to_space_nd_param {
    block_shape: 1
    block_shape: 24
    block_shape: 24
    crops: 0
    crops: 0
    crops: 0
    crops: 7
    crops: 0
    crops: 7
  }
}
layer {
  name: "aspp2_depthwise/BatchNorm/FusedBatchNorm_nchw"
  type: "BatchNorm"
  bottom: "aspp2_depthwise/depthwise/BatchToSpaceND"
  top: "aspp2_depthwise/BatchNorm/FusedBatchNorm_nchw"
  batch_norm_param {
    use_global_stats: true
    eps: 1.00099996416e-05
  }
}
layer {
  name: "aspp2_depthwise/BatchNorm/FusedBatchNorm_scale"
  type: "Scale"
  bottom: "aspp2_depthwise/BatchNorm/FusedBatchNorm_nchw"
  top: "aspp2_depthwise/BatchNorm/FusedBatchNorm_scale"
  scale_param {
    bias_term: true
  }
}
layer {
  name: "aspp2_depthwise/Relu"
  type: "ReLU"
  bottom: "aspp2_depthwise/BatchNorm/FusedBatchNorm_scale"
  top: "aspp2_depthwise/Relu"
}
layer {
  name: "aspp2_pointwise/Conv2D_nchw"
  type: "Convolution"
  bottom: "aspp2_depthwise/Relu"
  top: "aspp2_pointwise/Conv2D_nchw"
  convolution_param {
    num_output: 256
    bias_term: false
    group: 1
    kernel_h: 1
    kernel_w: 1
    stride_h: 1
    stride_w: 1
    pad_l: 0
    pad_r: 0
    pad_t: 0
    pad_b: 0
  }
}
layer {
  name: "aspp2_pointwise/BatchNorm/FusedBatchNorm_nchw"
  type: "BatchNorm"
  bottom: "aspp2_pointwise/Conv2D_nchw"
  top: "aspp2_pointwise/BatchNorm/FusedBatchNorm_nchw"
  batch_norm_param {
    use_global_stats: true
    eps: 1.00099996416e-05
  }
}
layer {
  name: "aspp2_pointwise/BatchNorm/FusedBatchNorm_scale"
  type: "Scale"
  bottom: "aspp2_pointwise/BatchNorm/FusedBatchNorm_nchw"
  top: "aspp2_pointwise/BatchNorm/FusedBatchNorm_scale"
  scale_param {
    bias_term: true
  }
}
layer {
  name: "aspp2_pointwise/Relu"
  type: "ReLU"
  bottom: "aspp2_pointwise/BatchNorm/FusedBatchNorm_scale"
  top: "aspp2_pointwise/Relu"
}
layer {
  name: "aspp1_depthwise/depthwise/SpaceToBatchND"
  type: "SpaceToBatchND"
  bottom: "xception_65/exit_flow/block2/unit_1/xception_module/separable_conv3_pointwise/Relu"
  top: "aspp1_depthwise/depthwise/SpaceToBatchND"
  space_to_batch_nd_param {
    block_shape: 1
    block_shape: 12
    block_shape: 12
    paddings: 0
    paddings: 0
    paddings: 12
    paddings: 19
    paddings: 12
    paddings: 19
  }
}
layer {
  name: "aspp1_depthwise/depthwise_nchw"
  type: "Convolution"
  bottom: "aspp1_depthwise/depthwise/SpaceToBatchND"
  top: "aspp1_depthwise/depthwise_nchw"
  convolution_param {
    num_output: 2048
    bias_term: false
    group: 2048
    kernel_h: 3
    kernel_w: 3
    stride_h: 1
    stride_w: 1
    pad_l: 0
    pad_r: 0
    pad_t: 0
    pad_b: 0
  }
}
layer {
  name: "aspp1_depthwise/depthwise/BatchToSpaceND"
  type: "BatchToSpaceND"
  bottom: "aspp1_depthwise/depthwise_nchw"
  top: "aspp1_depthwise/depthwise/BatchToSpaceND"
  batch_to_space_nd_param {
    block_shape: 1
    block_shape: 12
    block_shape: 12
    crops: 0
    crops: 0
    crops: 0
    crops: 7
    crops: 0
    crops: 7
  }
}
layer {
  name: "aspp1_depthwise/BatchNorm/FusedBatchNorm_nchw"
  type: "BatchNorm"
  bottom: "aspp1_depthwise/depthwise/BatchToSpaceND"
  top: "aspp1_depthwise/BatchNorm/FusedBatchNorm_nchw"
  batch_norm_param {
    use_global_stats: true
    eps: 1.00099996416e-05
  }
}
layer {
  name: "aspp1_depthwise/BatchNorm/FusedBatchNorm_scale"
  type: "Scale"
  bottom: "aspp1_depthwise/BatchNorm/FusedBatchNorm_nchw"
  top: "aspp1_depthwise/BatchNorm/FusedBatchNorm_scale"
  scale_param {
    bias_term: true
  }
}
layer {
  name: "aspp1_depthwise/Relu"
  type: "ReLU"
  bottom: "aspp1_depthwise/BatchNorm/FusedBatchNorm_scale"
  top: "aspp1_depthwise/Relu"
}
layer {
  name: "aspp1_pointwise/Conv2D_nchw"
  type: "Convolution"
  bottom: "aspp1_depthwise/Relu"
  top: "aspp1_pointwise/Conv2D_nchw"
  convolution_param {
    num_output: 256
    bias_term: false
    group: 1
    kernel_h: 1
    kernel_w: 1
    stride_h: 1
    stride_w: 1
    pad_l: 0
    pad_r: 0
    pad_t: 0
    pad_b: 0
  }
}
layer {
  name: "aspp1_pointwise/BatchNorm/FusedBatchNorm_nchw"
  type: "BatchNorm"
  bottom: "aspp1_pointwise/Conv2D_nchw"
  top: "aspp1_pointwise/BatchNorm/FusedBatchNorm_nchw"
  batch_norm_param {
    use_global_stats: true
    eps: 1.00099996416e-05
  }
}
layer {
  name: "aspp1_pointwise/BatchNorm/FusedBatchNorm_scale"
  type: "Scale"
  bottom: "aspp1_pointwise/BatchNorm/FusedBatchNorm_nchw"
  top: "aspp1_pointwise/BatchNorm/FusedBatchNorm_scale"
  scale_param {
    bias_term: true
  }
}
layer {
  name: "aspp1_pointwise/Relu"
  type: "ReLU"
  bottom: "aspp1_pointwise/BatchNorm/FusedBatchNorm_scale"
  top: "aspp1_pointwise/Relu"
}
layer {
  name: "AvgPool2D/AvgPool_nchw"
  type: "Pooling"
  bottom: "xception_65/exit_flow/block2/unit_1/xception_module/separable_conv3_pointwise/Relu"
  top: "AvgPool2D/AvgPool_nchw"
  pooling_param {
    pool: AVE_EXC_PAD
    kernel_h: 65
    kernel_w: 65
    stride_h: 65
    stride_w: 65
    ceil_mode: false
    pad_l: 0
    pad_r: 0
    pad_t: 0
    pad_b: 0
  }
}
layer {
  name: "image_pooling/Conv2D_nchw"
  type: "Convolution"
  bottom: "AvgPool2D/AvgPool_nchw"
  top: "image_pooling/Conv2D_nchw"
  convolution_param {
    num_output: 256
    bias_term: false
    group: 1
    kernel_h: 1
    kernel_w: 1
    stride_h: 1
    stride_w: 1
    pad_l: 0
    pad_r: 0
    pad_t: 0
    pad_b: 0
  }
}
layer {
  name: "image_pooling/BatchNorm/FusedBatchNorm_nchw"
  type: "BatchNorm"
  bottom: "image_pooling/Conv2D_nchw"
  top: "image_pooling/BatchNorm/FusedBatchNorm_nchw"
  batch_norm_param {
    use_global_stats: true
    eps: 1.00099996416e-05
  }
}
layer {
  name: "image_pooling/BatchNorm/FusedBatchNorm_scale"
  type: "Scale"
  bottom: "image_pooling/BatchNorm/FusedBatchNorm_nchw"
  top: "image_pooling/BatchNorm/FusedBatchNorm_scale"
  scale_param {
    bias_term: true
  }
}
layer {
  name: "image_pooling/Relu"
  type: "ReLU"
  bottom: "image_pooling/BatchNorm/FusedBatchNorm_scale"
  top: "image_pooling/Relu"
}
layer {
  name: "ResizeBilinear_1"
  type: "ResizeBilinear"
  bottom: "image_pooling/Relu"
  top: "ResizeBilinear_1"
  resize_bilinear_param {
    align_corners: true
    output_height: 65
    output_width: 65
    data_format: "NCHW"
  }
}
layer {
  name: "aspp3_depthwise/depthwise/SpaceToBatchND"
  type: "SpaceToBatchND"
  bottom: "xception_65/exit_flow/block2/unit_1/xception_module/separable_conv3_pointwise/Relu"
  top: "aspp3_depthwise/depthwise/SpaceToBatchND"
  space_to_batch_nd_param {
    block_shape: 1
    block_shape: 36
    block_shape: 36
    paddings: 0
    paddings: 0
    paddings: 36
    paddings: 43
    paddings: 36
    paddings: 43
  }
}
layer {
  name: "aspp3_depthwise/depthwise_nchw"
  type: "Convolution"
  bottom: "aspp3_depthwise/depthwise/SpaceToBatchND"
  top: "aspp3_depthwise/depthwise_nchw"
  convolution_param {
    num_output: 2048
    bias_term: false
    group: 2048
    kernel_h: 3
    kernel_w: 3
    stride_h: 1
    stride_w: 1
    pad_l: 0
    pad_r: 0
    pad_t: 0
    pad_b: 0
  }
}
layer {
  name: "aspp3_depthwise/depthwise/BatchToSpaceND"
  type: "BatchToSpaceND"
  bottom: "aspp3_depthwise/depthwise_nchw"
  top: "aspp3_depthwise/depthwise/BatchToSpaceND"
  batch_to_space_nd_param {
    block_shape: 1
    block_shape: 36
    block_shape: 36
    crops: 0
    crops: 0
    crops: 0
    crops: 7
    crops: 0
    crops: 7
  }
}
layer {
  name: "aspp3_depthwise/BatchNorm/FusedBatchNorm_nchw"
  type: "BatchNorm"
  bottom: "aspp3_depthwise/depthwise/BatchToSpaceND"
  top: "aspp3_depthwise/BatchNorm/FusedBatchNorm_nchw"
  batch_norm_param {
    use_global_stats: true
    eps: 1.00099996416e-05
  }
}
layer {
  name: "aspp3_depthwise/BatchNorm/FusedBatchNorm_scale"
  type: "Scale"
  bottom: "aspp3_depthwise/BatchNorm/FusedBatchNorm_nchw"
  top: "aspp3_depthwise/BatchNorm/FusedBatchNorm_scale"
  scale_param {
    bias_term: true
  }
}
layer {
  name: "aspp3_depthwise/Relu"
  type: "ReLU"
  bottom: "aspp3_depthwise/BatchNorm/FusedBatchNorm_scale"
  top: "aspp3_depthwise/Relu"
}
layer {
  name: "aspp3_pointwise/Conv2D_nchw"
  type: "Convolution"
  bottom: "aspp3_depthwise/Relu"
  top: "aspp3_pointwise/Conv2D_nchw"
  convolution_param {
    num_output: 256
    bias_term: false
    group: 1
    kernel_h: 1
    kernel_w: 1
    stride_h: 1
    stride_w: 1
    pad_l: 0
    pad_r: 0
    pad_t: 0
    pad_b: 0
  }
}
layer {
  name: "aspp3_pointwise/BatchNorm/FusedBatchNorm_nchw"
  type: "BatchNorm"
  bottom: "aspp3_pointwise/Conv2D_nchw"
  top: "aspp3_pointwise/BatchNorm/FusedBatchNorm_nchw"
  batch_norm_param {
    use_global_stats: true
    eps: 1.00099996416e-05
  }
}
layer {
  name: "aspp3_pointwise/BatchNorm/FusedBatchNorm_scale"
  type: "Scale"
  bottom: "aspp3_pointwise/BatchNorm/FusedBatchNorm_nchw"
  top: "aspp3_pointwise/BatchNorm/FusedBatchNorm_scale"
  scale_param {
    bias_term: true
  }
}
layer {
  name: "aspp3_pointwise/Relu"
  type: "ReLU"
  bottom: "aspp3_pointwise/BatchNorm/FusedBatchNorm_scale"
  top: "aspp3_pointwise/Relu"
}
layer {
  name: "concat"
  type: "Concat"
  bottom: "ResizeBilinear_1"
  bottom: "aspp0/Relu"
  bottom: "aspp1_pointwise/Relu"
  bottom: "aspp2_pointwise/Relu"
  bottom: "aspp3_pointwise/Relu"
  top: "concat"
  concat_param {
    axis: 1
  }
}
layer {
  name: "concat_projection/Conv2D_nchw"
  type: "Convolution"
  bottom: "concat"
  top: "concat_projection/Conv2D_nchw"
  convolution_param {
    num_output: 256
    bias_term: false
    group: 1
    kernel_h: 1
    kernel_w: 1
    stride_h: 1
    stride_w: 1
    pad_l: 0
    pad_r: 0
    pad_t: 0
    pad_b: 0
  }
}
layer {
  name: "concat_projection/BatchNorm/FusedBatchNorm_nchw"
  type: "BatchNorm"
  bottom: "concat_projection/Conv2D_nchw"
  top: "concat_projection/BatchNorm/FusedBatchNorm_nchw"
  batch_norm_param {
    use_global_stats: true
    eps: 1.00099996416e-05
  }
}
layer {
  name: "concat_projection/BatchNorm/FusedBatchNorm_scale"
  type: "Scale"
  bottom: "concat_projection/BatchNorm/FusedBatchNorm_nchw"
  top: "concat_projection/BatchNorm/FusedBatchNorm_scale"
  scale_param {
    bias_term: true
  }
}
layer {
  name: "concat_projection/Relu"
  type: "ReLU"
  bottom: "concat_projection/BatchNorm/FusedBatchNorm_scale"
  top: "concat_projection/Relu"
}
layer {
  name: "decoder/ResizeBilinear"
  type: "ResizeBilinear"
  bottom: "concat_projection/Relu"
  top: "decoder/ResizeBilinear"
  resize_bilinear_param {
    align_corners: true
    output_height: 129
    output_width: 129
    data_format: "NCHW"
  }
}
layer {
  name: "decoder/concat"
  type: "Concat"
  bottom: "decoder/ResizeBilinear"
  bottom: "decoder/ResizeBilinear_1"
  top: "decoder/concat"
  concat_param {
    axis: 1
  }
}
layer {
  name: "decoder/decoder_conv0_depthwise/depthwise_nchw"
  type: "Convolution"
  bottom: "decoder/concat"
  top: "decoder/decoder_conv0_depthwise/depthwise_nchw"
  convolution_param {
    num_output: 304
    bias_term: false
    group: 304
    kernel_h: 3
    kernel_w: 3
    stride_h: 1
    stride_w: 1
    pad_l: 1
    pad_r: 1
    pad_t: 1
    pad_b: 1
  }
}
layer {
  name: "decoder/decoder_conv0_depthwise/BatchNorm/FusedBatchNorm_nchw"
  type: "BatchNorm"
  bottom: "decoder/decoder_conv0_depthwise/depthwise_nchw"
  top: "decoder/decoder_conv0_depthwise/BatchNorm/FusedBatchNorm_nchw"
  batch_norm_param {
    use_global_stats: true
    eps: 1.00099996416e-05
  }
}
layer {
  name: "decoder/decoder_conv0_depthwise/BatchNorm/FusedBatchNorm_scale"
  type: "Scale"
  bottom: "decoder/decoder_conv0_depthwise/BatchNorm/FusedBatchNorm_nchw"
  top: "decoder/decoder_conv0_depthwise/BatchNorm/FusedBatchNorm_scale"
  scale_param {
    bias_term: true
  }
}
layer {
  name: "decoder/decoder_conv0_depthwise/Relu"
  type: "ReLU"
  bottom: "decoder/decoder_conv0_depthwise/BatchNorm/FusedBatchNorm_scale"
  top: "decoder/decoder_conv0_depthwise/Relu"
}
layer {
  name: "decoder/decoder_conv0_pointwise/Conv2D_nchw"
  type: "Convolution"
  bottom: "decoder/decoder_conv0_depthwise/Relu"
  top: "decoder/decoder_conv0_pointwise/Conv2D_nchw"
  convolution_param {
    num_output: 256
    bias_term: false
    group: 1
    kernel_h: 1
    kernel_w: 1
    stride_h: 1
    stride_w: 1
    pad_l: 0
    pad_r: 0
    pad_t: 0
    pad_b: 0
  }
}
layer {
  name: "decoder/decoder_conv0_pointwise/BatchNorm/FusedBatchNorm_nchw"
  type: "BatchNorm"
  bottom: "decoder/decoder_conv0_pointwise/Conv2D_nchw"
  top: "decoder/decoder_conv0_pointwise/BatchNorm/FusedBatchNorm_nchw"
  batch_norm_param {
    use_global_stats: true
    eps: 1.00099996416e-05
  }
}
layer {
  name: "decoder/decoder_conv0_pointwise/BatchNorm/FusedBatchNorm_scale"
  type: "Scale"
  bottom: "decoder/decoder_conv0_pointwise/BatchNorm/FusedBatchNorm_nchw"
  top: "decoder/decoder_conv0_pointwise/BatchNorm/FusedBatchNorm_scale"
  scale_param {
    bias_term: true
  }
}
layer {
  name: "decoder/decoder_conv0_pointwise/Relu"
  type: "ReLU"
  bottom: "decoder/decoder_conv0_pointwise/BatchNorm/FusedBatchNorm_scale"
  top: "decoder/decoder_conv0_pointwise/Relu"
}
layer {
  name: "decoder/decoder_conv1_depthwise/depthwise_nchw"
  type: "Convolution"
  bottom: "decoder/decoder_conv0_pointwise/Relu"
  top: "decoder/decoder_conv1_depthwise/depthwise_nchw"
  convolution_param {
    num_output: 256
    bias_term: false
    group: 256
    kernel_h: 3
    kernel_w: 3
    stride_h: 1
    stride_w: 1
    pad_l: 1
    pad_r: 1
    pad_t: 1
    pad_b: 1
  }
}
layer {
  name: "decoder/decoder_conv1_depthwise/BatchNorm/FusedBatchNorm_nchw"
  type: "BatchNorm"
  bottom: "decoder/decoder_conv1_depthwise/depthwise_nchw"
  top: "decoder/decoder_conv1_depthwise/BatchNorm/FusedBatchNorm_nchw"
  batch_norm_param {
    use_global_stats: true
    eps: 1.00099996416e-05
  }
}
layer {
  name: "decoder/decoder_conv1_depthwise/BatchNorm/FusedBatchNorm_scale"
  type: "Scale"
  bottom: "decoder/decoder_conv1_depthwise/BatchNorm/FusedBatchNorm_nchw"
  top: "decoder/decoder_conv1_depthwise/BatchNorm/FusedBatchNorm_scale"
  scale_param {
    bias_term: true
  }
}
layer {
  name: "decoder/decoder_conv1_depthwise/Relu"
  type: "ReLU"
  bottom: "decoder/decoder_conv1_depthwise/BatchNorm/FusedBatchNorm_scale"
  top: "decoder/decoder_conv1_depthwise/Relu"
}
layer {
  name: "decoder/decoder_conv1_pointwise/Conv2D_nchw"
  type: "Convolution"
  bottom: "decoder/decoder_conv1_depthwise/Relu"
  top: "decoder/decoder_conv1_pointwise/Conv2D_nchw"
  convolution_param {
    num_output: 256
    bias_term: false
    group: 1
    kernel_h: 1
    kernel_w: 1
    stride_h: 1
    stride_w: 1
    pad_l: 0
    pad_r: 0
    pad_t: 0
    pad_b: 0
  }
}
layer {
  name: "decoder/decoder_conv1_pointwise/BatchNorm/FusedBatchNorm_nchw"
  type: "BatchNorm"
  bottom: "decoder/decoder_conv1_pointwise/Conv2D_nchw"
  top: "decoder/decoder_conv1_pointwise/BatchNorm/FusedBatchNorm_nchw"
  batch_norm_param {
    use_global_stats: true
    eps: 1.00099996416e-05
  }
}
layer {
  name: "decoder/decoder_conv1_pointwise/BatchNorm/FusedBatchNorm_scale"
  type: "Scale"
  bottom: "decoder/decoder_conv1_pointwise/BatchNorm/FusedBatchNorm_nchw"
  top: "decoder/decoder_conv1_pointwise/BatchNorm/FusedBatchNorm_scale"
  scale_param {
    bias_term: true
  }
}
layer {
  name: "decoder/decoder_conv1_pointwise/Relu"
  type: "ReLU"
  bottom: "decoder/decoder_conv1_pointwise/BatchNorm/FusedBatchNorm_scale"
  top: "decoder/decoder_conv1_pointwise/Relu"
}
layer {
  name: "logits/semantic/Conv2D_nchw"
  type: "Convolution"
  bottom: "decoder/decoder_conv1_pointwise/Relu"
  top: "logits/semantic/Conv2D_nchw"
  convolution_param {
    num_output: 21
    bias_term: true
    group: 1
    kernel_h: 1
    kernel_w: 1
    stride_h: 1
    stride_w: 1
    pad_l: 0
    pad_r: 0
    pad_t: 0
    pad_b: 0
  }
}
layer {
  name: "ResizeBilinear_2"
  type: "ResizeBilinear"
  bottom: "logits/semantic/Conv2D_nchw"
  top: "ResizeBilinear_2"
  resize_bilinear_param {
    align_corners: true
    output_height: 129
    output_width: 129
    data_format: "NCHW"
  }
}
layer {
  name: "ResizeBilinear_3"
  type: "ResizeBilinear"
  bottom: "ResizeBilinear_2"
  top: "ResizeBilinear_3"
  resize_bilinear_param {
    align_corners: true
    output_height: 513
    output_width: 513
    data_format: "NCHW"
  }
}
