layer {
  name: "Preprocessor/sub"
  type: "Input"
  top: "Preprocessor/sub"
  input_param {
    shape {
      dim: 1
      dim: 3
      dim: 300
      dim: 300
    }
  }
}
layer {
  name: "pbox"
  type: "Input"
  top: "pbox"
  input_param {
    shape {
      dim: 1
      dim: 2
      dim: 1917
      dim: 4
    }
  }
}
layer {
  name: "FeatureExtractor/MobilenetV2/Conv/Conv2D_nchw"
  type: "Convolution"
  bottom: "Preprocessor/sub"
  top: "FeatureExtractor/MobilenetV2/Conv/Conv2D_nchw"
  convolution_param {
    num_output: 32
    bias_term: false
    group: 1
    kernel_h: 3
    kernel_w: 3
    stride_h: 2
    stride_w: 2
    pad_l: 0
    pad_r: 1
    pad_t: 0
    pad_b: 1
  }
}
layer {
  name: "FeatureExtractor/MobilenetV2/Conv/BatchNorm/batchnorm/add_1_nchw"
  type: "BatchNorm"
  bottom: "FeatureExtractor/MobilenetV2/Conv/Conv2D_nchw"
  top: "FeatureExtractor/MobilenetV2/Conv/BatchNorm/batchnorm/add_1_nchw"
  batch_norm_param {
    use_global_stats: true
    eps: 0.0010000000475
  }
}
layer {
  name: "FeatureExtractor/MobilenetV2/Conv/BatchNorm/batchnorm/add_1_scale"
  type: "Scale"
  bottom: "FeatureExtractor/MobilenetV2/Conv/BatchNorm/batchnorm/add_1_nchw"
  top: "FeatureExtractor/MobilenetV2/Conv/BatchNorm/batchnorm/add_1_scale"
  scale_param {
    bias_term: true
  }
}
layer {
  name: "FeatureExtractor/MobilenetV2/Conv/Relu6"
  type: "ReLU"
  bottom: "FeatureExtractor/MobilenetV2/Conv/BatchNorm/batchnorm/add_1_scale"
  top: "FeatureExtractor/MobilenetV2/Conv/Relu6"
  relu_param {
    relu6: true
  }
}
layer {
  name: "FeatureExtractor/MobilenetV2/expanded_conv/depthwise/depthwise_nchw"
  type: "Convolution"
  bottom: "FeatureExtractor/MobilenetV2/Conv/Relu6"
  top: "FeatureExtractor/MobilenetV2/expanded_conv/depthwise/depthwise_nchw"
  convolution_param {
    num_output: 32
    bias_term: false
    group: 32
    kernel_h: 3
    kernel_w: 3
    stride_h: 1
    stride_w: 1
    pad_l: 1
    pad_r: 1
    pad_t: 1
    pad_b: 1
  }
}
layer {
  name: "FeatureExtractor/MobilenetV2/expanded_conv/depthwise/BatchNorm/batchnorm/add_1_nchw"
  type: "BatchNorm"
  bottom: "FeatureExtractor/MobilenetV2/expanded_conv/depthwise/depthwise_nchw"
  top: "FeatureExtractor/MobilenetV2/expanded_conv/depthwise/BatchNorm/batchnorm/add_1_nchw"
  batch_norm_param {
    use_global_stats: true
    eps: 0.0010000000475
  }
}
layer {
  name: "FeatureExtractor/MobilenetV2/expanded_conv/depthwise/BatchNorm/batchnorm/add_1_scale"
  type: "Scale"
  bottom: "FeatureExtractor/MobilenetV2/expanded_conv/depthwise/BatchNorm/batchnorm/add_1_nchw"
  top: "FeatureExtractor/MobilenetV2/expanded_conv/depthwise/BatchNorm/batchnorm/add_1_scale"
  scale_param {
    bias_term: true
  }
}
layer {
  name: "FeatureExtractor/MobilenetV2/expanded_conv/depthwise/Relu6"
  type: "ReLU"
  bottom: "FeatureExtractor/MobilenetV2/expanded_conv/depthwise/BatchNorm/batchnorm/add_1_scale"
  top: "FeatureExtractor/MobilenetV2/expanded_conv/depthwise/Relu6"
  relu_param {
    relu6: true
  }
}
layer {
  name: "FeatureExtractor/MobilenetV2/expanded_conv/project/Conv2D_nchw"
  type: "Convolution"
  bottom: "FeatureExtractor/MobilenetV2/expanded_conv/depthwise/Relu6"
  top: "FeatureExtractor/MobilenetV2/expanded_conv/project/Conv2D_nchw"
  convolution_param {
    num_output: 16
    bias_term: false
    group: 1
    kernel_h: 1
    kernel_w: 1
    stride_h: 1
    stride_w: 1
    pad_l: 0
    pad_r: 0
    pad_t: 0
    pad_b: 0
  }
}
layer {
  name: "FeatureExtractor/MobilenetV2/expanded_conv/project/BatchNorm/batchnorm/add_1_nchw"
  type: "BatchNorm"
  bottom: "FeatureExtractor/MobilenetV2/expanded_conv/project/Conv2D_nchw"
  top: "FeatureExtractor/MobilenetV2/expanded_conv/project/BatchNorm/batchnorm/add_1_nchw"
  batch_norm_param {
    use_global_stats: true
    eps: 0.0010000000475
  }
}
layer {
  name: "FeatureExtractor/MobilenetV2/expanded_conv/project/BatchNorm/batchnorm/add_1_scale"
  type: "Scale"
  bottom: "FeatureExtractor/MobilenetV2/expanded_conv/project/BatchNorm/batchnorm/add_1_nchw"
  top: "FeatureExtractor/MobilenetV2/expanded_conv/project/BatchNorm/batchnorm/add_1_scale"
  scale_param {
    bias_term: true
  }
}
layer {
  name: "FeatureExtractor/MobilenetV2/expanded_conv_1/expand/Conv2D_nchw"
  type: "Convolution"
  bottom: "FeatureExtractor/MobilenetV2/expanded_conv/project/BatchNorm/batchnorm/add_1_scale"
  top: "FeatureExtractor/MobilenetV2/expanded_conv_1/expand/Conv2D_nchw"
  convolution_param {
    num_output: 96
    bias_term: false
    group: 1
    kernel_h: 1
    kernel_w: 1
    stride_h: 1
    stride_w: 1
    pad_l: 0
    pad_r: 0
    pad_t: 0
    pad_b: 0
  }
}
layer {
  name: "FeatureExtractor/MobilenetV2/expanded_conv_1/expand/BatchNorm/batchnorm/add_1_nchw"
  type: "BatchNorm"
  bottom: "FeatureExtractor/MobilenetV2/expanded_conv_1/expand/Conv2D_nchw"
  top: "FeatureExtractor/MobilenetV2/expanded_conv_1/expand/BatchNorm/batchnorm/add_1_nchw"
  batch_norm_param {
    use_global_stats: true
    eps: 0.0010000000475
  }
}
layer {
  name: "FeatureExtractor/MobilenetV2/expanded_conv_1/expand/BatchNorm/batchnorm/add_1_scale"
  type: "Scale"
  bottom: "FeatureExtractor/MobilenetV2/expanded_conv_1/expand/BatchNorm/batchnorm/add_1_nchw"
  top: "FeatureExtractor/MobilenetV2/expanded_conv_1/expand/BatchNorm/batchnorm/add_1_scale"
  scale_param {
    bias_term: true
  }
}
layer {
  name: "FeatureExtractor/MobilenetV2/expanded_conv_1/expand/Relu6"
  type: "ReLU"
  bottom: "FeatureExtractor/MobilenetV2/expanded_conv_1/expand/BatchNorm/batchnorm/add_1_scale"
  top: "FeatureExtractor/MobilenetV2/expanded_conv_1/expand/Relu6"
  relu_param {
    relu6: true
  }
}
layer {
  name: "FeatureExtractor/MobilenetV2/expanded_conv_1/depthwise/depthwise_nchw"
  type: "Convolution"
  bottom: "FeatureExtractor/MobilenetV2/expanded_conv_1/expand/Relu6"
  top: "FeatureExtractor/MobilenetV2/expanded_conv_1/depthwise/depthwise_nchw"
  convolution_param {
    num_output: 96
    bias_term: false
    group: 96
    kernel_h: 3
    kernel_w: 3
    stride_h: 2
    stride_w: 2
    pad_l: 0
    pad_r: 1
    pad_t: 0
    pad_b: 1
  }
}
layer {
  name: "FeatureExtractor/MobilenetV2/expanded_conv_1/depthwise/BatchNorm/batchnorm/add_1_nchw"
  type: "BatchNorm"
  bottom: "FeatureExtractor/MobilenetV2/expanded_conv_1/depthwise/depthwise_nchw"
  top: "FeatureExtractor/MobilenetV2/expanded_conv_1/depthwise/BatchNorm/batchnorm/add_1_nchw"
  batch_norm_param {
    use_global_stats: true
    eps: 0.0010000000475
  }
}
layer {
  name: "FeatureExtractor/MobilenetV2/expanded_conv_1/depthwise/BatchNorm/batchnorm/add_1_scale"
  type: "Scale"
  bottom: "FeatureExtractor/MobilenetV2/expanded_conv_1/depthwise/BatchNorm/batchnorm/add_1_nchw"
  top: "FeatureExtractor/MobilenetV2/expanded_conv_1/depthwise/BatchNorm/batchnorm/add_1_scale"
  scale_param {
    bias_term: true
  }
}
layer {
  name: "FeatureExtractor/MobilenetV2/expanded_conv_1/depthwise/Relu6"
  type: "ReLU"
  bottom: "FeatureExtractor/MobilenetV2/expanded_conv_1/depthwise/BatchNorm/batchnorm/add_1_scale"
  top: "FeatureExtractor/MobilenetV2/expanded_conv_1/depthwise/Relu6"
  relu_param {
    relu6: true
  }
}
layer {
  name: "FeatureExtractor/MobilenetV2/expanded_conv_1/project/Conv2D_nchw"
  type: "Convolution"
  bottom: "FeatureExtractor/MobilenetV2/expanded_conv_1/depthwise/Relu6"
  top: "FeatureExtractor/MobilenetV2/expanded_conv_1/project/Conv2D_nchw"
  convolution_param {
    num_output: 24
    bias_term: false
    group: 1
    kernel_h: 1
    kernel_w: 1
    stride_h: 1
    stride_w: 1
    pad_l: 0
    pad_r: 0
    pad_t: 0
    pad_b: 0
  }
}
layer {
  name: "FeatureExtractor/MobilenetV2/expanded_conv_1/project/BatchNorm/batchnorm/add_1_nchw"
  type: "BatchNorm"
  bottom: "FeatureExtractor/MobilenetV2/expanded_conv_1/project/Conv2D_nchw"
  top: "FeatureExtractor/MobilenetV2/expanded_conv_1/project/BatchNorm/batchnorm/add_1_nchw"
  batch_norm_param {
    use_global_stats: true
    eps: 0.0010000000475
  }
}
layer {
  name: "FeatureExtractor/MobilenetV2/expanded_conv_1/project/BatchNorm/batchnorm/add_1_scale"
  type: "Scale"
  bottom: "FeatureExtractor/MobilenetV2/expanded_conv_1/project/BatchNorm/batchnorm/add_1_nchw"
  top: "FeatureExtractor/MobilenetV2/expanded_conv_1/project/BatchNorm/batchnorm/add_1_scale"
  scale_param {
    bias_term: true
  }
}
layer {
  name: "FeatureExtractor/MobilenetV2/expanded_conv_2/expand/Conv2D_nchw"
  type: "Convolution"
  bottom: "FeatureExtractor/MobilenetV2/expanded_conv_1/project/BatchNorm/batchnorm/add_1_scale"
  top: "FeatureExtractor/MobilenetV2/expanded_conv_2/expand/Conv2D_nchw"
  convolution_param {
    num_output: 144
    bias_term: false
    group: 1
    kernel_h: 1
    kernel_w: 1
    stride_h: 1
    stride_w: 1
    pad_l: 0
    pad_r: 0
    pad_t: 0
    pad_b: 0
  }
}
layer {
  name: "FeatureExtractor/MobilenetV2/expanded_conv_2/expand/BatchNorm/batchnorm/add_1_nchw"
  type: "BatchNorm"
  bottom: "FeatureExtractor/MobilenetV2/expanded_conv_2/expand/Conv2D_nchw"
  top: "FeatureExtractor/MobilenetV2/expanded_conv_2/expand/BatchNorm/batchnorm/add_1_nchw"
  batch_norm_param {
    use_global_stats: true
    eps: 0.0010000000475
  }
}
layer {
  name: "FeatureExtractor/MobilenetV2/expanded_conv_2/expand/BatchNorm/batchnorm/add_1_scale"
  type: "Scale"
  bottom: "FeatureExtractor/MobilenetV2/expanded_conv_2/expand/BatchNorm/batchnorm/add_1_nchw"
  top: "FeatureExtractor/MobilenetV2/expanded_conv_2/expand/BatchNorm/batchnorm/add_1_scale"
  scale_param {
    bias_term: true
  }
}
layer {
  name: "FeatureExtractor/MobilenetV2/expanded_conv_2/expand/Relu6"
  type: "ReLU"
  bottom: "FeatureExtractor/MobilenetV2/expanded_conv_2/expand/BatchNorm/batchnorm/add_1_scale"
  top: "FeatureExtractor/MobilenetV2/expanded_conv_2/expand/Relu6"
  relu_param {
    relu6: true
  }
}
layer {
  name: "FeatureExtractor/MobilenetV2/expanded_conv_2/depthwise/depthwise_nchw"
  type: "Convolution"
  bottom: "FeatureExtractor/MobilenetV2/expanded_conv_2/expand/Relu6"
  top: "FeatureExtractor/MobilenetV2/expanded_conv_2/depthwise/depthwise_nchw"
  convolution_param {
    num_output: 144
    bias_term: false
    group: 144
    kernel_h: 3
    kernel_w: 3
    stride_h: 1
    stride_w: 1
    pad_l: 1
    pad_r: 1
    pad_t: 1
    pad_b: 1
  }
}
layer {
  name: "FeatureExtractor/MobilenetV2/expanded_conv_2/depthwise/BatchNorm/batchnorm/add_1_nchw"
  type: "BatchNorm"
  bottom: "FeatureExtractor/MobilenetV2/expanded_conv_2/depthwise/depthwise_nchw"
  top: "FeatureExtractor/MobilenetV2/expanded_conv_2/depthwise/BatchNorm/batchnorm/add_1_nchw"
  batch_norm_param {
    use_global_stats: true
    eps: 0.0010000000475
  }
}
layer {
  name: "FeatureExtractor/MobilenetV2/expanded_conv_2/depthwise/BatchNorm/batchnorm/add_1_scale"
  type: "Scale"
  bottom: "FeatureExtractor/MobilenetV2/expanded_conv_2/depthwise/BatchNorm/batchnorm/add_1_nchw"
  top: "FeatureExtractor/MobilenetV2/expanded_conv_2/depthwise/BatchNorm/batchnorm/add_1_scale"
  scale_param {
    bias_term: true
  }
}
layer {
  name: "FeatureExtractor/MobilenetV2/expanded_conv_2/depthwise/Relu6"
  type: "ReLU"
  bottom: "FeatureExtractor/MobilenetV2/expanded_conv_2/depthwise/BatchNorm/batchnorm/add_1_scale"
  top: "FeatureExtractor/MobilenetV2/expanded_conv_2/depthwise/Relu6"
  relu_param {
    relu6: true
  }
}
layer {
  name: "FeatureExtractor/MobilenetV2/expanded_conv_2/project/Conv2D_nchw"
  type: "Convolution"
  bottom: "FeatureExtractor/MobilenetV2/expanded_conv_2/depthwise/Relu6"
  top: "FeatureExtractor/MobilenetV2/expanded_conv_2/project/Conv2D_nchw"
  convolution_param {
    num_output: 24
    bias_term: false
    group: 1
    kernel_h: 1
    kernel_w: 1
    stride_h: 1
    stride_w: 1
    pad_l: 0
    pad_r: 0
    pad_t: 0
    pad_b: 0
  }
}
layer {
  name: "FeatureExtractor/MobilenetV2/expanded_conv_2/project/BatchNorm/batchnorm/add_1_nchw"
  type: "BatchNorm"
  bottom: "FeatureExtractor/MobilenetV2/expanded_conv_2/project/Conv2D_nchw"
  top: "FeatureExtractor/MobilenetV2/expanded_conv_2/project/BatchNorm/batchnorm/add_1_nchw"
  batch_norm_param {
    use_global_stats: true
    eps: 0.0010000000475
  }
}
layer {
  name: "FeatureExtractor/MobilenetV2/expanded_conv_2/project/BatchNorm/batchnorm/add_1_scale"
  type: "Scale"
  bottom: "FeatureExtractor/MobilenetV2/expanded_conv_2/project/BatchNorm/batchnorm/add_1_nchw"
  top: "FeatureExtractor/MobilenetV2/expanded_conv_2/project/BatchNorm/batchnorm/add_1_scale"
  scale_param {
    bias_term: true
  }
}
layer {
  name: "FeatureExtractor/MobilenetV2/expanded_conv_2/add"
  type: "Eltwise"
  bottom: "FeatureExtractor/MobilenetV2/expanded_conv_2/project/BatchNorm/batchnorm/add_1_scale"
  bottom: "FeatureExtractor/MobilenetV2/expanded_conv_1/project/BatchNorm/batchnorm/add_1_scale"
  top: "FeatureExtractor/MobilenetV2/expanded_conv_2/add"
  eltwise_param {
    operation: SUM
    coeff: 1.0
    coeff: 1.0
  }
}
layer {
  name: "FeatureExtractor/MobilenetV2/expanded_conv_3/expand/Conv2D_nchw"
  type: "Convolution"
  bottom: "FeatureExtractor/MobilenetV2/expanded_conv_2/add"
  top: "FeatureExtractor/MobilenetV2/expanded_conv_3/expand/Conv2D_nchw"
  convolution_param {
    num_output: 144
    bias_term: false
    group: 1
    kernel_h: 1
    kernel_w: 1
    stride_h: 1
    stride_w: 1
    pad_l: 0
    pad_r: 0
    pad_t: 0
    pad_b: 0
  }
}
layer {
  name: "FeatureExtractor/MobilenetV2/expanded_conv_3/expand/BatchNorm/batchnorm/add_1_nchw"
  type: "BatchNorm"
  bottom: "FeatureExtractor/MobilenetV2/expanded_conv_3/expand/Conv2D_nchw"
  top: "FeatureExtractor/MobilenetV2/expanded_conv_3/expand/BatchNorm/batchnorm/add_1_nchw"
  batch_norm_param {
    use_global_stats: true
    eps: 0.0010000000475
  }
}
layer {
  name: "FeatureExtractor/MobilenetV2/expanded_conv_3/expand/BatchNorm/batchnorm/add_1_scale"
  type: "Scale"
  bottom: "FeatureExtractor/MobilenetV2/expanded_conv_3/expand/BatchNorm/batchnorm/add_1_nchw"
  top: "FeatureExtractor/MobilenetV2/expanded_conv_3/expand/BatchNorm/batchnorm/add_1_scale"
  scale_param {
    bias_term: true
  }
}
layer {
  name: "FeatureExtractor/MobilenetV2/expanded_conv_3/expand/Relu6"
  type: "ReLU"
  bottom: "FeatureExtractor/MobilenetV2/expanded_conv_3/expand/BatchNorm/batchnorm/add_1_scale"
  top: "FeatureExtractor/MobilenetV2/expanded_conv_3/expand/Relu6"
  relu_param {
    relu6: true
  }
}
layer {
  name: "FeatureExtractor/MobilenetV2/expanded_conv_3/depthwise/depthwise_nchw"
  type: "Convolution"
  bottom: "FeatureExtractor/MobilenetV2/expanded_conv_3/expand/Relu6"
  top: "FeatureExtractor/MobilenetV2/expanded_conv_3/depthwise/depthwise_nchw"
  convolution_param {
    num_output: 144
    bias_term: false
    group: 144
    kernel_h: 3
    kernel_w: 3
    stride_h: 2
    stride_w: 2
    pad_l: 1
    pad_r: 1
    pad_t: 1
    pad_b: 1
  }
}
layer {
  name: "FeatureExtractor/MobilenetV2/expanded_conv_3/depthwise/BatchNorm/batchnorm/add_1_nchw"
  type: "BatchNorm"
  bottom: "FeatureExtractor/MobilenetV2/expanded_conv_3/depthwise/depthwise_nchw"
  top: "FeatureExtractor/MobilenetV2/expanded_conv_3/depthwise/BatchNorm/batchnorm/add_1_nchw"
  batch_norm_param {
    use_global_stats: true
    eps: 0.0010000000475
  }
}
layer {
  name: "FeatureExtractor/MobilenetV2/expanded_conv_3/depthwise/BatchNorm/batchnorm/add_1_scale"
  type: "Scale"
  bottom: "FeatureExtractor/MobilenetV2/expanded_conv_3/depthwise/BatchNorm/batchnorm/add_1_nchw"
  top: "FeatureExtractor/MobilenetV2/expanded_conv_3/depthwise/BatchNorm/batchnorm/add_1_scale"
  scale_param {
    bias_term: true
  }
}
layer {
  name: "FeatureExtractor/MobilenetV2/expanded_conv_3/depthwise/Relu6"
  type: "ReLU"
  bottom: "FeatureExtractor/MobilenetV2/expanded_conv_3/depthwise/BatchNorm/batchnorm/add_1_scale"
  top: "FeatureExtractor/MobilenetV2/expanded_conv_3/depthwise/Relu6"
  relu_param {
    relu6: true
  }
}
layer {
  name: "FeatureExtractor/MobilenetV2/expanded_conv_3/project/Conv2D_nchw"
  type: "Convolution"
  bottom: "FeatureExtractor/MobilenetV2/expanded_conv_3/depthwise/Relu6"
  top: "FeatureExtractor/MobilenetV2/expanded_conv_3/project/Conv2D_nchw"
  convolution_param {
    num_output: 32
    bias_term: false
    group: 1
    kernel_h: 1
    kernel_w: 1
    stride_h: 1
    stride_w: 1
    pad_l: 0
    pad_r: 0
    pad_t: 0
    pad_b: 0
  }
}
layer {
  name: "FeatureExtractor/MobilenetV2/expanded_conv_3/project/BatchNorm/batchnorm/add_1_nchw"
  type: "BatchNorm"
  bottom: "FeatureExtractor/MobilenetV2/expanded_conv_3/project/Conv2D_nchw"
  top: "FeatureExtractor/MobilenetV2/expanded_conv_3/project/BatchNorm/batchnorm/add_1_nchw"
  batch_norm_param {
    use_global_stats: true
    eps: 0.0010000000475
  }
}
layer {
  name: "FeatureExtractor/MobilenetV2/expanded_conv_3/project/BatchNorm/batchnorm/add_1_scale"
  type: "Scale"
  bottom: "FeatureExtractor/MobilenetV2/expanded_conv_3/project/BatchNorm/batchnorm/add_1_nchw"
  top: "FeatureExtractor/MobilenetV2/expanded_conv_3/project/BatchNorm/batchnorm/add_1_scale"
  scale_param {
    bias_term: true
  }
}
layer {
  name: "FeatureExtractor/MobilenetV2/expanded_conv_4/expand/Conv2D_nchw"
  type: "Convolution"
  bottom: "FeatureExtractor/MobilenetV2/expanded_conv_3/project/BatchNorm/batchnorm/add_1_scale"
  top: "FeatureExtractor/MobilenetV2/expanded_conv_4/expand/Conv2D_nchw"
  convolution_param {
    num_output: 192
    bias_term: false
    group: 1
    kernel_h: 1
    kernel_w: 1
    stride_h: 1
    stride_w: 1
    pad_l: 0
    pad_r: 0
    pad_t: 0
    pad_b: 0
  }
}
layer {
  name: "FeatureExtractor/MobilenetV2/expanded_conv_4/expand/BatchNorm/batchnorm/add_1_nchw"
  type: "BatchNorm"
  bottom: "FeatureExtractor/MobilenetV2/expanded_conv_4/expand/Conv2D_nchw"
  top: "FeatureExtractor/MobilenetV2/expanded_conv_4/expand/BatchNorm/batchnorm/add_1_nchw"
  batch_norm_param {
    use_global_stats: true
    eps: 0.0010000000475
  }
}
layer {
  name: "FeatureExtractor/MobilenetV2/expanded_conv_4/expand/BatchNorm/batchnorm/add_1_scale"
  type: "Scale"
  bottom: "FeatureExtractor/MobilenetV2/expanded_conv_4/expand/BatchNorm/batchnorm/add_1_nchw"
  top: "FeatureExtractor/MobilenetV2/expanded_conv_4/expand/BatchNorm/batchnorm/add_1_scale"
  scale_param {
    bias_term: true
  }
}
layer {
  name: "FeatureExtractor/MobilenetV2/expanded_conv_4/expand/Relu6"
  type: "ReLU"
  bottom: "FeatureExtractor/MobilenetV2/expanded_conv_4/expand/BatchNorm/batchnorm/add_1_scale"
  top: "FeatureExtractor/MobilenetV2/expanded_conv_4/expand/Relu6"
  relu_param {
    relu6: true
  }
}
layer {
  name: "FeatureExtractor/MobilenetV2/expanded_conv_4/depthwise/depthwise_nchw"
  type: "Convolution"
  bottom: "FeatureExtractor/MobilenetV2/expanded_conv_4/expand/Relu6"
  top: "FeatureExtractor/MobilenetV2/expanded_conv_4/depthwise/depthwise_nchw"
  convolution_param {
    num_output: 192
    bias_term: false
    group: 192
    kernel_h: 3
    kernel_w: 3
    stride_h: 1
    stride_w: 1
    pad_l: 1
    pad_r: 1
    pad_t: 1
    pad_b: 1
  }
}
layer {
  name: "FeatureExtractor/MobilenetV2/expanded_conv_4/depthwise/BatchNorm/batchnorm/add_1_nchw"
  type: "BatchNorm"
  bottom: "FeatureExtractor/MobilenetV2/expanded_conv_4/depthwise/depthwise_nchw"
  top: "FeatureExtractor/MobilenetV2/expanded_conv_4/depthwise/BatchNorm/batchnorm/add_1_nchw"
  batch_norm_param {
    use_global_stats: true
    eps: 0.0010000000475
  }
}
layer {
  name: "FeatureExtractor/MobilenetV2/expanded_conv_4/depthwise/BatchNorm/batchnorm/add_1_scale"
  type: "Scale"
  bottom: "FeatureExtractor/MobilenetV2/expanded_conv_4/depthwise/BatchNorm/batchnorm/add_1_nchw"
  top: "FeatureExtractor/MobilenetV2/expanded_conv_4/depthwise/BatchNorm/batchnorm/add_1_scale"
  scale_param {
    bias_term: true
  }
}
layer {
  name: "FeatureExtractor/MobilenetV2/expanded_conv_4/depthwise/Relu6"
  type: "ReLU"
  bottom: "FeatureExtractor/MobilenetV2/expanded_conv_4/depthwise/BatchNorm/batchnorm/add_1_scale"
  top: "FeatureExtractor/MobilenetV2/expanded_conv_4/depthwise/Relu6"
  relu_param {
    relu6: true
  }
}
layer {
  name: "FeatureExtractor/MobilenetV2/expanded_conv_4/project/Conv2D_nchw"
  type: "Convolution"
  bottom: "FeatureExtractor/MobilenetV2/expanded_conv_4/depthwise/Relu6"
  top: "FeatureExtractor/MobilenetV2/expanded_conv_4/project/Conv2D_nchw"
  convolution_param {
    num_output: 32
    bias_term: false
    group: 1
    kernel_h: 1
    kernel_w: 1
    stride_h: 1
    stride_w: 1
    pad_l: 0
    pad_r: 0
    pad_t: 0
    pad_b: 0
  }
}
layer {
  name: "FeatureExtractor/MobilenetV2/expanded_conv_4/project/BatchNorm/batchnorm/add_1_nchw"
  type: "BatchNorm"
  bottom: "FeatureExtractor/MobilenetV2/expanded_conv_4/project/Conv2D_nchw"
  top: "FeatureExtractor/MobilenetV2/expanded_conv_4/project/BatchNorm/batchnorm/add_1_nchw"
  batch_norm_param {
    use_global_stats: true
    eps: 0.0010000000475
  }
}
layer {
  name: "FeatureExtractor/MobilenetV2/expanded_conv_4/project/BatchNorm/batchnorm/add_1_scale"
  type: "Scale"
  bottom: "FeatureExtractor/MobilenetV2/expanded_conv_4/project/BatchNorm/batchnorm/add_1_nchw"
  top: "FeatureExtractor/MobilenetV2/expanded_conv_4/project/BatchNorm/batchnorm/add_1_scale"
  scale_param {
    bias_term: true
  }
}
layer {
  name: "FeatureExtractor/MobilenetV2/expanded_conv_4/add"
  type: "Eltwise"
  bottom: "FeatureExtractor/MobilenetV2/expanded_conv_4/project/BatchNorm/batchnorm/add_1_scale"
  bottom: "FeatureExtractor/MobilenetV2/expanded_conv_3/project/BatchNorm/batchnorm/add_1_scale"
  top: "FeatureExtractor/MobilenetV2/expanded_conv_4/add"
  eltwise_param {
    operation: SUM
    coeff: 1.0
    coeff: 1.0
  }
}
layer {
  name: "FeatureExtractor/MobilenetV2/expanded_conv_5/expand/Conv2D_nchw"
  type: "Convolution"
  bottom: "FeatureExtractor/MobilenetV2/expanded_conv_4/add"
  top: "FeatureExtractor/MobilenetV2/expanded_conv_5/expand/Conv2D_nchw"
  convolution_param {
    num_output: 192
    bias_term: false
    group: 1
    kernel_h: 1
    kernel_w: 1
    stride_h: 1
    stride_w: 1
    pad_l: 0
    pad_r: 0
    pad_t: 0
    pad_b: 0
  }
}
layer {
  name: "FeatureExtractor/MobilenetV2/expanded_conv_5/expand/BatchNorm/batchnorm/add_1_nchw"
  type: "BatchNorm"
  bottom: "FeatureExtractor/MobilenetV2/expanded_conv_5/expand/Conv2D_nchw"
  top: "FeatureExtractor/MobilenetV2/expanded_conv_5/expand/BatchNorm/batchnorm/add_1_nchw"
  batch_norm_param {
    use_global_stats: true
    eps: 0.0010000000475
  }
}
layer {
  name: "FeatureExtractor/MobilenetV2/expanded_conv_5/expand/BatchNorm/batchnorm/add_1_scale"
  type: "Scale"
  bottom: "FeatureExtractor/MobilenetV2/expanded_conv_5/expand/BatchNorm/batchnorm/add_1_nchw"
  top: "FeatureExtractor/MobilenetV2/expanded_conv_5/expand/BatchNorm/batchnorm/add_1_scale"
  scale_param {
    bias_term: true
  }
}
layer {
  name: "FeatureExtractor/MobilenetV2/expanded_conv_5/expand/Relu6"
  type: "ReLU"
  bottom: "FeatureExtractor/MobilenetV2/expanded_conv_5/expand/BatchNorm/batchnorm/add_1_scale"
  top: "FeatureExtractor/MobilenetV2/expanded_conv_5/expand/Relu6"
  relu_param {
    relu6: true
  }
}
layer {
  name: "FeatureExtractor/MobilenetV2/expanded_conv_5/depthwise/depthwise_nchw"
  type: "Convolution"
  bottom: "FeatureExtractor/MobilenetV2/expanded_conv_5/expand/Relu6"
  top: "FeatureExtractor/MobilenetV2/expanded_conv_5/depthwise/depthwise_nchw"
  convolution_param {
    num_output: 192
    bias_term: false
    group: 192
    kernel_h: 3
    kernel_w: 3
    stride_h: 1
    stride_w: 1
    pad_l: 1
    pad_r: 1
    pad_t: 1
    pad_b: 1
  }
}
layer {
  name: "FeatureExtractor/MobilenetV2/expanded_conv_5/depthwise/BatchNorm/batchnorm/add_1_nchw"
  type: "BatchNorm"
  bottom: "FeatureExtractor/MobilenetV2/expanded_conv_5/depthwise/depthwise_nchw"
  top: "FeatureExtractor/MobilenetV2/expanded_conv_5/depthwise/BatchNorm/batchnorm/add_1_nchw"
  batch_norm_param {
    use_global_stats: true
    eps: 0.0010000000475
  }
}
layer {
  name: "FeatureExtractor/MobilenetV2/expanded_conv_5/depthwise/BatchNorm/batchnorm/add_1_scale"
  type: "Scale"
  bottom: "FeatureExtractor/MobilenetV2/expanded_conv_5/depthwise/BatchNorm/batchnorm/add_1_nchw"
  top: "FeatureExtractor/MobilenetV2/expanded_conv_5/depthwise/BatchNorm/batchnorm/add_1_scale"
  scale_param {
    bias_term: true
  }
}
layer {
  name: "FeatureExtractor/MobilenetV2/expanded_conv_5/depthwise/Relu6"
  type: "ReLU"
  bottom: "FeatureExtractor/MobilenetV2/expanded_conv_5/depthwise/BatchNorm/batchnorm/add_1_scale"
  top: "FeatureExtractor/MobilenetV2/expanded_conv_5/depthwise/Relu6"
  relu_param {
    relu6: true
  }
}
layer {
  name: "FeatureExtractor/MobilenetV2/expanded_conv_5/project/Conv2D_nchw"
  type: "Convolution"
  bottom: "FeatureExtractor/MobilenetV2/expanded_conv_5/depthwise/Relu6"
  top: "FeatureExtractor/MobilenetV2/expanded_conv_5/project/Conv2D_nchw"
  convolution_param {
    num_output: 32
    bias_term: false
    group: 1
    kernel_h: 1
    kernel_w: 1
    stride_h: 1
    stride_w: 1
    pad_l: 0
    pad_r: 0
    pad_t: 0
    pad_b: 0
  }
}
layer {
  name: "FeatureExtractor/MobilenetV2/expanded_conv_5/project/BatchNorm/batchnorm/add_1_nchw"
  type: "BatchNorm"
  bottom: "FeatureExtractor/MobilenetV2/expanded_conv_5/project/Conv2D_nchw"
  top: "FeatureExtractor/MobilenetV2/expanded_conv_5/project/BatchNorm/batchnorm/add_1_nchw"
  batch_norm_param {
    use_global_stats: true
    eps: 0.0010000000475
  }
}
layer {
  name: "FeatureExtractor/MobilenetV2/expanded_conv_5/project/BatchNorm/batchnorm/add_1_scale"
  type: "Scale"
  bottom: "FeatureExtractor/MobilenetV2/expanded_conv_5/project/BatchNorm/batchnorm/add_1_nchw"
  top: "FeatureExtractor/MobilenetV2/expanded_conv_5/project/BatchNorm/batchnorm/add_1_scale"
  scale_param {
    bias_term: true
  }
}
layer {
  name: "FeatureExtractor/MobilenetV2/expanded_conv_5/add"
  type: "Eltwise"
  bottom: "FeatureExtractor/MobilenetV2/expanded_conv_5/project/BatchNorm/batchnorm/add_1_scale"
  bottom: "FeatureExtractor/MobilenetV2/expanded_conv_4/add"
  top: "FeatureExtractor/MobilenetV2/expanded_conv_5/add"
  eltwise_param {
    operation: SUM
    coeff: 1.0
    coeff: 1.0
  }
}
layer {
  name: "FeatureExtractor/MobilenetV2/expanded_conv_6/expand/Conv2D_nchw"
  type: "Convolution"
  bottom: "FeatureExtractor/MobilenetV2/expanded_conv_5/add"
  top: "FeatureExtractor/MobilenetV2/expanded_conv_6/expand/Conv2D_nchw"
  convolution_param {
    num_output: 192
    bias_term: false
    group: 1
    kernel_h: 1
    kernel_w: 1
    stride_h: 1
    stride_w: 1
    pad_l: 0
    pad_r: 0
    pad_t: 0
    pad_b: 0
  }
}
layer {
  name: "FeatureExtractor/MobilenetV2/expanded_conv_6/expand/BatchNorm/batchnorm/add_1_nchw"
  type: "BatchNorm"
  bottom: "FeatureExtractor/MobilenetV2/expanded_conv_6/expand/Conv2D_nchw"
  top: "FeatureExtractor/MobilenetV2/expanded_conv_6/expand/BatchNorm/batchnorm/add_1_nchw"
  batch_norm_param {
    use_global_stats: true
    eps: 0.0010000000475
  }
}
layer {
  name: "FeatureExtractor/MobilenetV2/expanded_conv_6/expand/BatchNorm/batchnorm/add_1_scale"
  type: "Scale"
  bottom: "FeatureExtractor/MobilenetV2/expanded_conv_6/expand/BatchNorm/batchnorm/add_1_nchw"
  top: "FeatureExtractor/MobilenetV2/expanded_conv_6/expand/BatchNorm/batchnorm/add_1_scale"
  scale_param {
    bias_term: true
  }
}
layer {
  name: "FeatureExtractor/MobilenetV2/expanded_conv_6/expand/Relu6"
  type: "ReLU"
  bottom: "FeatureExtractor/MobilenetV2/expanded_conv_6/expand/BatchNorm/batchnorm/add_1_scale"
  top: "FeatureExtractor/MobilenetV2/expanded_conv_6/expand/Relu6"
  relu_param {
    relu6: true
  }
}
layer {
  name: "FeatureExtractor/MobilenetV2/expanded_conv_6/depthwise/depthwise_nchw"
  type: "Convolution"
  bottom: "FeatureExtractor/MobilenetV2/expanded_conv_6/expand/Relu6"
  top: "FeatureExtractor/MobilenetV2/expanded_conv_6/depthwise/depthwise_nchw"
  convolution_param {
    num_output: 192
    bias_term: false
    group: 192
    kernel_h: 3
    kernel_w: 3
    stride_h: 2
    stride_w: 2
    pad_l: 0
    pad_r: 1
    pad_t: 0
    pad_b: 1
  }
}
layer {
  name: "FeatureExtractor/MobilenetV2/expanded_conv_6/depthwise/BatchNorm/batchnorm/add_1_nchw"
  type: "BatchNorm"
  bottom: "FeatureExtractor/MobilenetV2/expanded_conv_6/depthwise/depthwise_nchw"
  top: "FeatureExtractor/MobilenetV2/expanded_conv_6/depthwise/BatchNorm/batchnorm/add_1_nchw"
  batch_norm_param {
    use_global_stats: true
    eps: 0.0010000000475
  }
}
layer {
  name: "FeatureExtractor/MobilenetV2/expanded_conv_6/depthwise/BatchNorm/batchnorm/add_1_scale"
  type: "Scale"
  bottom: "FeatureExtractor/MobilenetV2/expanded_conv_6/depthwise/BatchNorm/batchnorm/add_1_nchw"
  top: "FeatureExtractor/MobilenetV2/expanded_conv_6/depthwise/BatchNorm/batchnorm/add_1_scale"
  scale_param {
    bias_term: true
  }
}
layer {
  name: "FeatureExtractor/MobilenetV2/expanded_conv_6/depthwise/Relu6"
  type: "ReLU"
  bottom: "FeatureExtractor/MobilenetV2/expanded_conv_6/depthwise/BatchNorm/batchnorm/add_1_scale"
  top: "FeatureExtractor/MobilenetV2/expanded_conv_6/depthwise/Relu6"
  relu_param {
    relu6: true
  }
}
layer {
  name: "FeatureExtractor/MobilenetV2/expanded_conv_6/project/Conv2D_nchw"
  type: "Convolution"
  bottom: "FeatureExtractor/MobilenetV2/expanded_conv_6/depthwise/Relu6"
  top: "FeatureExtractor/MobilenetV2/expanded_conv_6/project/Conv2D_nchw"
  convolution_param {
    num_output: 64
    bias_term: false
    group: 1
    kernel_h: 1
    kernel_w: 1
    stride_h: 1
    stride_w: 1
    pad_l: 0
    pad_r: 0
    pad_t: 0
    pad_b: 0
  }
}
layer {
  name: "FeatureExtractor/MobilenetV2/expanded_conv_6/project/BatchNorm/batchnorm/add_1_nchw"
  type: "BatchNorm"
  bottom: "FeatureExtractor/MobilenetV2/expanded_conv_6/project/Conv2D_nchw"
  top: "FeatureExtractor/MobilenetV2/expanded_conv_6/project/BatchNorm/batchnorm/add_1_nchw"
  batch_norm_param {
    use_global_stats: true
    eps: 0.0010000000475
  }
}
layer {
  name: "FeatureExtractor/MobilenetV2/expanded_conv_6/project/BatchNorm/batchnorm/add_1_scale"
  type: "Scale"
  bottom: "FeatureExtractor/MobilenetV2/expanded_conv_6/project/BatchNorm/batchnorm/add_1_nchw"
  top: "FeatureExtractor/MobilenetV2/expanded_conv_6/project/BatchNorm/batchnorm/add_1_scale"
  scale_param {
    bias_term: true
  }
}
layer {
  name: "FeatureExtractor/MobilenetV2/expanded_conv_7/expand/Conv2D_nchw"
  type: "Convolution"
  bottom: "FeatureExtractor/MobilenetV2/expanded_conv_6/project/BatchNorm/batchnorm/add_1_scale"
  top: "FeatureExtractor/MobilenetV2/expanded_conv_7/expand/Conv2D_nchw"
  convolution_param {
    num_output: 384
    bias_term: false
    group: 1
    kernel_h: 1
    kernel_w: 1
    stride_h: 1
    stride_w: 1
    pad_l: 0
    pad_r: 0
    pad_t: 0
    pad_b: 0
  }
}
layer {
  name: "FeatureExtractor/MobilenetV2/expanded_conv_7/expand/BatchNorm/batchnorm/add_1_nchw"
  type: "BatchNorm"
  bottom: "FeatureExtractor/MobilenetV2/expanded_conv_7/expand/Conv2D_nchw"
  top: "FeatureExtractor/MobilenetV2/expanded_conv_7/expand/BatchNorm/batchnorm/add_1_nchw"
  batch_norm_param {
    use_global_stats: true
    eps: 0.0010000000475
  }
}
layer {
  name: "FeatureExtractor/MobilenetV2/expanded_conv_7/expand/BatchNorm/batchnorm/add_1_scale"
  type: "Scale"
  bottom: "FeatureExtractor/MobilenetV2/expanded_conv_7/expand/BatchNorm/batchnorm/add_1_nchw"
  top: "FeatureExtractor/MobilenetV2/expanded_conv_7/expand/BatchNorm/batchnorm/add_1_scale"
  scale_param {
    bias_term: true
  }
}
layer {
  name: "FeatureExtractor/MobilenetV2/expanded_conv_7/expand/Relu6"
  type: "ReLU"
  bottom: "FeatureExtractor/MobilenetV2/expanded_conv_7/expand/BatchNorm/batchnorm/add_1_scale"
  top: "FeatureExtractor/MobilenetV2/expanded_conv_7/expand/Relu6"
  relu_param {
    relu6: true
  }
}
layer {
  name: "FeatureExtractor/MobilenetV2/expanded_conv_7/depthwise/depthwise_nchw"
  type: "Convolution"
  bottom: "FeatureExtractor/MobilenetV2/expanded_conv_7/expand/Relu6"
  top: "FeatureExtractor/MobilenetV2/expanded_conv_7/depthwise/depthwise_nchw"
  convolution_param {
    num_output: 384
    bias_term: false
    group: 384
    kernel_h: 3
    kernel_w: 3
    stride_h: 1
    stride_w: 1
    pad_l: 1
    pad_r: 1
    pad_t: 1
    pad_b: 1
  }
}
layer {
  name: "FeatureExtractor/MobilenetV2/expanded_conv_7/depthwise/BatchNorm/batchnorm/add_1_nchw"
  type: "BatchNorm"
  bottom: "FeatureExtractor/MobilenetV2/expanded_conv_7/depthwise/depthwise_nchw"
  top: "FeatureExtractor/MobilenetV2/expanded_conv_7/depthwise/BatchNorm/batchnorm/add_1_nchw"
  batch_norm_param {
    use_global_stats: true
    eps: 0.0010000000475
  }
}
layer {
  name: "FeatureExtractor/MobilenetV2/expanded_conv_7/depthwise/BatchNorm/batchnorm/add_1_scale"
  type: "Scale"
  bottom: "FeatureExtractor/MobilenetV2/expanded_conv_7/depthwise/BatchNorm/batchnorm/add_1_nchw"
  top: "FeatureExtractor/MobilenetV2/expanded_conv_7/depthwise/BatchNorm/batchnorm/add_1_scale"
  scale_param {
    bias_term: true
  }
}
layer {
  name: "FeatureExtractor/MobilenetV2/expanded_conv_7/depthwise/Relu6"
  type: "ReLU"
  bottom: "FeatureExtractor/MobilenetV2/expanded_conv_7/depthwise/BatchNorm/batchnorm/add_1_scale"
  top: "FeatureExtractor/MobilenetV2/expanded_conv_7/depthwise/Relu6"
  relu_param {
    relu6: true
  }
}
layer {
  name: "FeatureExtractor/MobilenetV2/expanded_conv_7/project/Conv2D_nchw"
  type: "Convolution"
  bottom: "FeatureExtractor/MobilenetV2/expanded_conv_7/depthwise/Relu6"
  top: "FeatureExtractor/MobilenetV2/expanded_conv_7/project/Conv2D_nchw"
  convolution_param {
    num_output: 64
    bias_term: false
    group: 1
    kernel_h: 1
    kernel_w: 1
    stride_h: 1
    stride_w: 1
    pad_l: 0
    pad_r: 0
    pad_t: 0
    pad_b: 0
  }
}
layer {
  name: "FeatureExtractor/MobilenetV2/expanded_conv_7/project/BatchNorm/batchnorm/add_1_nchw"
  type: "BatchNorm"
  bottom: "FeatureExtractor/MobilenetV2/expanded_conv_7/project/Conv2D_nchw"
  top: "FeatureExtractor/MobilenetV2/expanded_conv_7/project/BatchNorm/batchnorm/add_1_nchw"
  batch_norm_param {
    use_global_stats: true
    eps: 0.0010000000475
  }
}
layer {
  name: "FeatureExtractor/MobilenetV2/expanded_conv_7/project/BatchNorm/batchnorm/add_1_scale"
  type: "Scale"
  bottom: "FeatureExtractor/MobilenetV2/expanded_conv_7/project/BatchNorm/batchnorm/add_1_nchw"
  top: "FeatureExtractor/MobilenetV2/expanded_conv_7/project/BatchNorm/batchnorm/add_1_scale"
  scale_param {
    bias_term: true
  }
}
layer {
  name: "FeatureExtractor/MobilenetV2/expanded_conv_7/add"
  type: "Eltwise"
  bottom: "FeatureExtractor/MobilenetV2/expanded_conv_7/project/BatchNorm/batchnorm/add_1_scale"
  bottom: "FeatureExtractor/MobilenetV2/expanded_conv_6/project/BatchNorm/batchnorm/add_1_scale"
  top: "FeatureExtractor/MobilenetV2/expanded_conv_7/add"
  eltwise_param {
    operation: SUM
    coeff: 1.0
    coeff: 1.0
  }
}
layer {
  name: "FeatureExtractor/MobilenetV2/expanded_conv_8/expand/Conv2D_nchw"
  type: "Convolution"
  bottom: "FeatureExtractor/MobilenetV2/expanded_conv_7/add"
  top: "FeatureExtractor/MobilenetV2/expanded_conv_8/expand/Conv2D_nchw"
  convolution_param {
    num_output: 384
    bias_term: false
    group: 1
    kernel_h: 1
    kernel_w: 1
    stride_h: 1
    stride_w: 1
    pad_l: 0
    pad_r: 0
    pad_t: 0
    pad_b: 0
  }
}
layer {
  name: "FeatureExtractor/MobilenetV2/expanded_conv_8/expand/BatchNorm/batchnorm/add_1_nchw"
  type: "BatchNorm"
  bottom: "FeatureExtractor/MobilenetV2/expanded_conv_8/expand/Conv2D_nchw"
  top: "FeatureExtractor/MobilenetV2/expanded_conv_8/expand/BatchNorm/batchnorm/add_1_nchw"
  batch_norm_param {
    use_global_stats: true
    eps: 0.0010000000475
  }
}
layer {
  name: "FeatureExtractor/MobilenetV2/expanded_conv_8/expand/BatchNorm/batchnorm/add_1_scale"
  type: "Scale"
  bottom: "FeatureExtractor/MobilenetV2/expanded_conv_8/expand/BatchNorm/batchnorm/add_1_nchw"
  top: "FeatureExtractor/MobilenetV2/expanded_conv_8/expand/BatchNorm/batchnorm/add_1_scale"
  scale_param {
    bias_term: true
  }
}
layer {
  name: "FeatureExtractor/MobilenetV2/expanded_conv_8/expand/Relu6"
  type: "ReLU"
  bottom: "FeatureExtractor/MobilenetV2/expanded_conv_8/expand/BatchNorm/batchnorm/add_1_scale"
  top: "FeatureExtractor/MobilenetV2/expanded_conv_8/expand/Relu6"
  relu_param {
    relu6: true
  }
}
layer {
  name: "FeatureExtractor/MobilenetV2/expanded_conv_8/depthwise/depthwise_nchw"
  type: "Convolution"
  bottom: "FeatureExtractor/MobilenetV2/expanded_conv_8/expand/Relu6"
  top: "FeatureExtractor/MobilenetV2/expanded_conv_8/depthwise/depthwise_nchw"
  convolution_param {
    num_output: 384
    bias_term: false
    group: 384
    kernel_h: 3
    kernel_w: 3
    stride_h: 1
    stride_w: 1
    pad_l: 1
    pad_r: 1
    pad_t: 1
    pad_b: 1
  }
}
layer {
  name: "FeatureExtractor/MobilenetV2/expanded_conv_8/depthwise/BatchNorm/batchnorm/add_1_nchw"
  type: "BatchNorm"
  bottom: "FeatureExtractor/MobilenetV2/expanded_conv_8/depthwise/depthwise_nchw"
  top: "FeatureExtractor/MobilenetV2/expanded_conv_8/depthwise/BatchNorm/batchnorm/add_1_nchw"
  batch_norm_param {
    use_global_stats: true
    eps: 0.0010000000475
  }
}
layer {
  name: "FeatureExtractor/MobilenetV2/expanded_conv_8/depthwise/BatchNorm/batchnorm/add_1_scale"
  type: "Scale"
  bottom: "FeatureExtractor/MobilenetV2/expanded_conv_8/depthwise/BatchNorm/batchnorm/add_1_nchw"
  top: "FeatureExtractor/MobilenetV2/expanded_conv_8/depthwise/BatchNorm/batchnorm/add_1_scale"
  scale_param {
    bias_term: true
  }
}
layer {
  name: "FeatureExtractor/MobilenetV2/expanded_conv_8/depthwise/Relu6"
  type: "ReLU"
  bottom: "FeatureExtractor/MobilenetV2/expanded_conv_8/depthwise/BatchNorm/batchnorm/add_1_scale"
  top: "FeatureExtractor/MobilenetV2/expanded_conv_8/depthwise/Relu6"
  relu_param {
    relu6: true
  }
}
layer {
  name: "FeatureExtractor/MobilenetV2/expanded_conv_8/project/Conv2D_nchw"
  type: "Convolution"
  bottom: "FeatureExtractor/MobilenetV2/expanded_conv_8/depthwise/Relu6"
  top: "FeatureExtractor/MobilenetV2/expanded_conv_8/project/Conv2D_nchw"
  convolution_param {
    num_output: 64
    bias_term: false
    group: 1
    kernel_h: 1
    kernel_w: 1
    stride_h: 1
    stride_w: 1
    pad_l: 0
    pad_r: 0
    pad_t: 0
    pad_b: 0
  }
}
layer {
  name: "FeatureExtractor/MobilenetV2/expanded_conv_8/project/BatchNorm/batchnorm/add_1_nchw"
  type: "BatchNorm"
  bottom: "FeatureExtractor/MobilenetV2/expanded_conv_8/project/Conv2D_nchw"
  top: "FeatureExtractor/MobilenetV2/expanded_conv_8/project/BatchNorm/batchnorm/add_1_nchw"
  batch_norm_param {
    use_global_stats: true
    eps: 0.0010000000475
  }
}
layer {
  name: "FeatureExtractor/MobilenetV2/expanded_conv_8/project/BatchNorm/batchnorm/add_1_scale"
  type: "Scale"
  bottom: "FeatureExtractor/MobilenetV2/expanded_conv_8/project/BatchNorm/batchnorm/add_1_nchw"
  top: "FeatureExtractor/MobilenetV2/expanded_conv_8/project/BatchNorm/batchnorm/add_1_scale"
  scale_param {
    bias_term: true
  }
}
layer {
  name: "FeatureExtractor/MobilenetV2/expanded_conv_8/add"
  type: "Eltwise"
  bottom: "FeatureExtractor/MobilenetV2/expanded_conv_8/project/BatchNorm/batchnorm/add_1_scale"
  bottom: "FeatureExtractor/MobilenetV2/expanded_conv_7/add"
  top: "FeatureExtractor/MobilenetV2/expanded_conv_8/add"
  eltwise_param {
    operation: SUM
    coeff: 1.0
    coeff: 1.0
  }
}
layer {
  name: "FeatureExtractor/MobilenetV2/expanded_conv_9/expand/Conv2D_nchw"
  type: "Convolution"
  bottom: "FeatureExtractor/MobilenetV2/expanded_conv_8/add"
  top: "FeatureExtractor/MobilenetV2/expanded_conv_9/expand/Conv2D_nchw"
  convolution_param {
    num_output: 384
    bias_term: false
    group: 1
    kernel_h: 1
    kernel_w: 1
    stride_h: 1
    stride_w: 1
    pad_l: 0
    pad_r: 0
    pad_t: 0
    pad_b: 0
  }
}
layer {
  name: "FeatureExtractor/MobilenetV2/expanded_conv_9/expand/BatchNorm/batchnorm/add_1_nchw"
  type: "BatchNorm"
  bottom: "FeatureExtractor/MobilenetV2/expanded_conv_9/expand/Conv2D_nchw"
  top: "FeatureExtractor/MobilenetV2/expanded_conv_9/expand/BatchNorm/batchnorm/add_1_nchw"
  batch_norm_param {
    use_global_stats: true
    eps: 0.0010000000475
  }
}
layer {
  name: "FeatureExtractor/MobilenetV2/expanded_conv_9/expand/BatchNorm/batchnorm/add_1_scale"
  type: "Scale"
  bottom: "FeatureExtractor/MobilenetV2/expanded_conv_9/expand/BatchNorm/batchnorm/add_1_nchw"
  top: "FeatureExtractor/MobilenetV2/expanded_conv_9/expand/BatchNorm/batchnorm/add_1_scale"
  scale_param {
    bias_term: true
  }
}
layer {
  name: "FeatureExtractor/MobilenetV2/expanded_conv_9/expand/Relu6"
  type: "ReLU"
  bottom: "FeatureExtractor/MobilenetV2/expanded_conv_9/expand/BatchNorm/batchnorm/add_1_scale"
  top: "FeatureExtractor/MobilenetV2/expanded_conv_9/expand/Relu6"
  relu_param {
    relu6: true
  }
}
layer {
  name: "FeatureExtractor/MobilenetV2/expanded_conv_9/depthwise/depthwise_nchw"
  type: "Convolution"
  bottom: "FeatureExtractor/MobilenetV2/expanded_conv_9/expand/Relu6"
  top: "FeatureExtractor/MobilenetV2/expanded_conv_9/depthwise/depthwise_nchw"
  convolution_param {
    num_output: 384
    bias_term: false
    group: 384
    kernel_h: 3
    kernel_w: 3
    stride_h: 1
    stride_w: 1
    pad_l: 1
    pad_r: 1
    pad_t: 1
    pad_b: 1
  }
}
layer {
  name: "FeatureExtractor/MobilenetV2/expanded_conv_9/depthwise/BatchNorm/batchnorm/add_1_nchw"
  type: "BatchNorm"
  bottom: "FeatureExtractor/MobilenetV2/expanded_conv_9/depthwise/depthwise_nchw"
  top: "FeatureExtractor/MobilenetV2/expanded_conv_9/depthwise/BatchNorm/batchnorm/add_1_nchw"
  batch_norm_param {
    use_global_stats: true
    eps: 0.0010000000475
  }
}
layer {
  name: "FeatureExtractor/MobilenetV2/expanded_conv_9/depthwise/BatchNorm/batchnorm/add_1_scale"
  type: "Scale"
  bottom: "FeatureExtractor/MobilenetV2/expanded_conv_9/depthwise/BatchNorm/batchnorm/add_1_nchw"
  top: "FeatureExtractor/MobilenetV2/expanded_conv_9/depthwise/BatchNorm/batchnorm/add_1_scale"
  scale_param {
    bias_term: true
  }
}
layer {
  name: "FeatureExtractor/MobilenetV2/expanded_conv_9/depthwise/Relu6"
  type: "ReLU"
  bottom: "FeatureExtractor/MobilenetV2/expanded_conv_9/depthwise/BatchNorm/batchnorm/add_1_scale"
  top: "FeatureExtractor/MobilenetV2/expanded_conv_9/depthwise/Relu6"
  relu_param {
    relu6: true
  }
}
layer {
  name: "FeatureExtractor/MobilenetV2/expanded_conv_9/project/Conv2D_nchw"
  type: "Convolution"
  bottom: "FeatureExtractor/MobilenetV2/expanded_conv_9/depthwise/Relu6"
  top: "FeatureExtractor/MobilenetV2/expanded_conv_9/project/Conv2D_nchw"
  convolution_param {
    num_output: 64
    bias_term: false
    group: 1
    kernel_h: 1
    kernel_w: 1
    stride_h: 1
    stride_w: 1
    pad_l: 0
    pad_r: 0
    pad_t: 0
    pad_b: 0
  }
}
layer {
  name: "FeatureExtractor/MobilenetV2/expanded_conv_9/project/BatchNorm/batchnorm/add_1_nchw"
  type: "BatchNorm"
  bottom: "FeatureExtractor/MobilenetV2/expanded_conv_9/project/Conv2D_nchw"
  top: "FeatureExtractor/MobilenetV2/expanded_conv_9/project/BatchNorm/batchnorm/add_1_nchw"
  batch_norm_param {
    use_global_stats: true
    eps: 0.0010000000475
  }
}
layer {
  name: "FeatureExtractor/MobilenetV2/expanded_conv_9/project/BatchNorm/batchnorm/add_1_scale"
  type: "Scale"
  bottom: "FeatureExtractor/MobilenetV2/expanded_conv_9/project/BatchNorm/batchnorm/add_1_nchw"
  top: "FeatureExtractor/MobilenetV2/expanded_conv_9/project/BatchNorm/batchnorm/add_1_scale"
  scale_param {
    bias_term: true
  }
}
layer {
  name: "FeatureExtractor/MobilenetV2/expanded_conv_9/add"
  type: "Eltwise"
  bottom: "FeatureExtractor/MobilenetV2/expanded_conv_9/project/BatchNorm/batchnorm/add_1_scale"
  bottom: "FeatureExtractor/MobilenetV2/expanded_conv_8/add"
  top: "FeatureExtractor/MobilenetV2/expanded_conv_9/add"
  eltwise_param {
    operation: SUM
    coeff: 1.0
    coeff: 1.0
  }
}
layer {
  name: "FeatureExtractor/MobilenetV2/expanded_conv_10/expand/Conv2D_nchw"
  type: "Convolution"
  bottom: "FeatureExtractor/MobilenetV2/expanded_conv_9/add"
  top: "FeatureExtractor/MobilenetV2/expanded_conv_10/expand/Conv2D_nchw"
  convolution_param {
    num_output: 384
    bias_term: false
    group: 1
    kernel_h: 1
    kernel_w: 1
    stride_h: 1
    stride_w: 1
    pad_l: 0
    pad_r: 0
    pad_t: 0
    pad_b: 0
  }
}
layer {
  name: "FeatureExtractor/MobilenetV2/expanded_conv_10/expand/BatchNorm/batchnorm/add_1_nchw"
  type: "BatchNorm"
  bottom: "FeatureExtractor/MobilenetV2/expanded_conv_10/expand/Conv2D_nchw"
  top: "FeatureExtractor/MobilenetV2/expanded_conv_10/expand/BatchNorm/batchnorm/add_1_nchw"
  batch_norm_param {
    use_global_stats: true
    eps: 0.0010000000475
  }
}
layer {
  name: "FeatureExtractor/MobilenetV2/expanded_conv_10/expand/BatchNorm/batchnorm/add_1_scale"
  type: "Scale"
  bottom: "FeatureExtractor/MobilenetV2/expanded_conv_10/expand/BatchNorm/batchnorm/add_1_nchw"
  top: "FeatureExtractor/MobilenetV2/expanded_conv_10/expand/BatchNorm/batchnorm/add_1_scale"
  scale_param {
    bias_term: true
  }
}
layer {
  name: "FeatureExtractor/MobilenetV2/expanded_conv_10/expand/Relu6"
  type: "ReLU"
  bottom: "FeatureExtractor/MobilenetV2/expanded_conv_10/expand/BatchNorm/batchnorm/add_1_scale"
  top: "FeatureExtractor/MobilenetV2/expanded_conv_10/expand/Relu6"
  relu_param {
    relu6: true
  }
}
layer {
  name: "FeatureExtractor/MobilenetV2/expanded_conv_10/depthwise/depthwise_nchw"
  type: "Convolution"
  bottom: "FeatureExtractor/MobilenetV2/expanded_conv_10/expand/Relu6"
  top: "FeatureExtractor/MobilenetV2/expanded_conv_10/depthwise/depthwise_nchw"
  convolution_param {
    num_output: 384
    bias_term: false
    group: 384
    kernel_h: 3
    kernel_w: 3
    stride_h: 1
    stride_w: 1
    pad_l: 1
    pad_r: 1
    pad_t: 1
    pad_b: 1
  }
}
layer {
  name: "FeatureExtractor/MobilenetV2/expanded_conv_10/depthwise/BatchNorm/batchnorm/add_1_nchw"
  type: "BatchNorm"
  bottom: "FeatureExtractor/MobilenetV2/expanded_conv_10/depthwise/depthwise_nchw"
  top: "FeatureExtractor/MobilenetV2/expanded_conv_10/depthwise/BatchNorm/batchnorm/add_1_nchw"
  batch_norm_param {
    use_global_stats: true
    eps: 0.0010000000475
  }
}
layer {
  name: "FeatureExtractor/MobilenetV2/expanded_conv_10/depthwise/BatchNorm/batchnorm/add_1_scale"
  type: "Scale"
  bottom: "FeatureExtractor/MobilenetV2/expanded_conv_10/depthwise/BatchNorm/batchnorm/add_1_nchw"
  top: "FeatureExtractor/MobilenetV2/expanded_conv_10/depthwise/BatchNorm/batchnorm/add_1_scale"
  scale_param {
    bias_term: true
  }
}
layer {
  name: "FeatureExtractor/MobilenetV2/expanded_conv_10/depthwise/Relu6"
  type: "ReLU"
  bottom: "FeatureExtractor/MobilenetV2/expanded_conv_10/depthwise/BatchNorm/batchnorm/add_1_scale"
  top: "FeatureExtractor/MobilenetV2/expanded_conv_10/depthwise/Relu6"
  relu_param {
    relu6: true
  }
}
layer {
  name: "FeatureExtractor/MobilenetV2/expanded_conv_10/project/Conv2D_nchw"
  type: "Convolution"
  bottom: "FeatureExtractor/MobilenetV2/expanded_conv_10/depthwise/Relu6"
  top: "FeatureExtractor/MobilenetV2/expanded_conv_10/project/Conv2D_nchw"
  convolution_param {
    num_output: 96
    bias_term: false
    group: 1
    kernel_h: 1
    kernel_w: 1
    stride_h: 1
    stride_w: 1
    pad_l: 0
    pad_r: 0
    pad_t: 0
    pad_b: 0
  }
}
layer {
  name: "FeatureExtractor/MobilenetV2/expanded_conv_10/project/BatchNorm/batchnorm/add_1_nchw"
  type: "BatchNorm"
  bottom: "FeatureExtractor/MobilenetV2/expanded_conv_10/project/Conv2D_nchw"
  top: "FeatureExtractor/MobilenetV2/expanded_conv_10/project/BatchNorm/batchnorm/add_1_nchw"
  batch_norm_param {
    use_global_stats: true
    eps: 0.0010000000475
  }
}
layer {
  name: "FeatureExtractor/MobilenetV2/expanded_conv_10/project/BatchNorm/batchnorm/add_1_scale"
  type: "Scale"
  bottom: "FeatureExtractor/MobilenetV2/expanded_conv_10/project/BatchNorm/batchnorm/add_1_nchw"
  top: "FeatureExtractor/MobilenetV2/expanded_conv_10/project/BatchNorm/batchnorm/add_1_scale"
  scale_param {
    bias_term: true
  }
}
layer {
  name: "FeatureExtractor/MobilenetV2/expanded_conv_11/expand/Conv2D_nchw"
  type: "Convolution"
  bottom: "FeatureExtractor/MobilenetV2/expanded_conv_10/project/BatchNorm/batchnorm/add_1_scale"
  top: "FeatureExtractor/MobilenetV2/expanded_conv_11/expand/Conv2D_nchw"
  convolution_param {
    num_output: 576
    bias_term: false
    group: 1
    kernel_h: 1
    kernel_w: 1
    stride_h: 1
    stride_w: 1
    pad_l: 0
    pad_r: 0
    pad_t: 0
    pad_b: 0
  }
}
layer {
  name: "FeatureExtractor/MobilenetV2/expanded_conv_11/expand/BatchNorm/batchnorm/add_1_nchw"
  type: "BatchNorm"
  bottom: "FeatureExtractor/MobilenetV2/expanded_conv_11/expand/Conv2D_nchw"
  top: "FeatureExtractor/MobilenetV2/expanded_conv_11/expand/BatchNorm/batchnorm/add_1_nchw"
  batch_norm_param {
    use_global_stats: true
    eps: 0.0010000000475
  }
}
layer {
  name: "FeatureExtractor/MobilenetV2/expanded_conv_11/expand/BatchNorm/batchnorm/add_1_scale"
  type: "Scale"
  bottom: "FeatureExtractor/MobilenetV2/expanded_conv_11/expand/BatchNorm/batchnorm/add_1_nchw"
  top: "FeatureExtractor/MobilenetV2/expanded_conv_11/expand/BatchNorm/batchnorm/add_1_scale"
  scale_param {
    bias_term: true
  }
}
layer {
  name: "FeatureExtractor/MobilenetV2/expanded_conv_11/expand/Relu6"
  type: "ReLU"
  bottom: "FeatureExtractor/MobilenetV2/expanded_conv_11/expand/BatchNorm/batchnorm/add_1_scale"
  top: "FeatureExtractor/MobilenetV2/expanded_conv_11/expand/Relu6"
  relu_param {
    relu6: true
  }
}
layer {
  name: "FeatureExtractor/MobilenetV2/expanded_conv_11/depthwise/depthwise_nchw"
  type: "Convolution"
  bottom: "FeatureExtractor/MobilenetV2/expanded_conv_11/expand/Relu6"
  top: "FeatureExtractor/MobilenetV2/expanded_conv_11/depthwise/depthwise_nchw"
  convolution_param {
    num_output: 576
    bias_term: false
    group: 576
    kernel_h: 3
    kernel_w: 3
    stride_h: 1
    stride_w: 1
    pad_l: 1
    pad_r: 1
    pad_t: 1
    pad_b: 1
  }
}
layer {
  name: "FeatureExtractor/MobilenetV2/expanded_conv_11/depthwise/BatchNorm/batchnorm/add_1_nchw"
  type: "BatchNorm"
  bottom: "FeatureExtractor/MobilenetV2/expanded_conv_11/depthwise/depthwise_nchw"
  top: "FeatureExtractor/MobilenetV2/expanded_conv_11/depthwise/BatchNorm/batchnorm/add_1_nchw"
  batch_norm_param {
    use_global_stats: true
    eps: 0.0010000000475
  }
}
layer {
  name: "FeatureExtractor/MobilenetV2/expanded_conv_11/depthwise/BatchNorm/batchnorm/add_1_scale"
  type: "Scale"
  bottom: "FeatureExtractor/MobilenetV2/expanded_conv_11/depthwise/BatchNorm/batchnorm/add_1_nchw"
  top: "FeatureExtractor/MobilenetV2/expanded_conv_11/depthwise/BatchNorm/batchnorm/add_1_scale"
  scale_param {
    bias_term: true
  }
}
layer {
  name: "FeatureExtractor/MobilenetV2/expanded_conv_11/depthwise/Relu6"
  type: "ReLU"
  bottom: "FeatureExtractor/MobilenetV2/expanded_conv_11/depthwise/BatchNorm/batchnorm/add_1_scale"
  top: "FeatureExtractor/MobilenetV2/expanded_conv_11/depthwise/Relu6"
  relu_param {
    relu6: true
  }
}
layer {
  name: "FeatureExtractor/MobilenetV2/expanded_conv_11/project/Conv2D_nchw"
  type: "Convolution"
  bottom: "FeatureExtractor/MobilenetV2/expanded_conv_11/depthwise/Relu6"
  top: "FeatureExtractor/MobilenetV2/expanded_conv_11/project/Conv2D_nchw"
  convolution_param {
    num_output: 96
    bias_term: false
    group: 1
    kernel_h: 1
    kernel_w: 1
    stride_h: 1
    stride_w: 1
    pad_l: 0
    pad_r: 0
    pad_t: 0
    pad_b: 0
  }
}
layer {
  name: "FeatureExtractor/MobilenetV2/expanded_conv_11/project/BatchNorm/batchnorm/add_1_nchw"
  type: "BatchNorm"
  bottom: "FeatureExtractor/MobilenetV2/expanded_conv_11/project/Conv2D_nchw"
  top: "FeatureExtractor/MobilenetV2/expanded_conv_11/project/BatchNorm/batchnorm/add_1_nchw"
  batch_norm_param {
    use_global_stats: true
    eps: 0.0010000000475
  }
}
layer {
  name: "FeatureExtractor/MobilenetV2/expanded_conv_11/project/BatchNorm/batchnorm/add_1_scale"
  type: "Scale"
  bottom: "FeatureExtractor/MobilenetV2/expanded_conv_11/project/BatchNorm/batchnorm/add_1_nchw"
  top: "FeatureExtractor/MobilenetV2/expanded_conv_11/project/BatchNorm/batchnorm/add_1_scale"
  scale_param {
    bias_term: true
  }
}
layer {
  name: "FeatureExtractor/MobilenetV2/expanded_conv_11/add"
  type: "Eltwise"
  bottom: "FeatureExtractor/MobilenetV2/expanded_conv_11/project/BatchNorm/batchnorm/add_1_scale"
  bottom: "FeatureExtractor/MobilenetV2/expanded_conv_10/project/BatchNorm/batchnorm/add_1_scale"
  top: "FeatureExtractor/MobilenetV2/expanded_conv_11/add"
  eltwise_param {
    operation: SUM
    coeff: 1.0
    coeff: 1.0
  }
}
layer {
  name: "FeatureExtractor/MobilenetV2/expanded_conv_12/expand/Conv2D_nchw"
  type: "Convolution"
  bottom: "FeatureExtractor/MobilenetV2/expanded_conv_11/add"
  top: "FeatureExtractor/MobilenetV2/expanded_conv_12/expand/Conv2D_nchw"
  convolution_param {
    num_output: 576
    bias_term: false
    group: 1
    kernel_h: 1
    kernel_w: 1
    stride_h: 1
    stride_w: 1
    pad_l: 0
    pad_r: 0
    pad_t: 0
    pad_b: 0
  }
}
layer {
  name: "FeatureExtractor/MobilenetV2/expanded_conv_12/expand/BatchNorm/batchnorm/add_1_nchw"
  type: "BatchNorm"
  bottom: "FeatureExtractor/MobilenetV2/expanded_conv_12/expand/Conv2D_nchw"
  top: "FeatureExtractor/MobilenetV2/expanded_conv_12/expand/BatchNorm/batchnorm/add_1_nchw"
  batch_norm_param {
    use_global_stats: true
    eps: 0.0010000000475
  }
}
layer {
  name: "FeatureExtractor/MobilenetV2/expanded_conv_12/expand/BatchNorm/batchnorm/add_1_scale"
  type: "Scale"
  bottom: "FeatureExtractor/MobilenetV2/expanded_conv_12/expand/BatchNorm/batchnorm/add_1_nchw"
  top: "FeatureExtractor/MobilenetV2/expanded_conv_12/expand/BatchNorm/batchnorm/add_1_scale"
  scale_param {
    bias_term: true
  }
}
layer {
  name: "FeatureExtractor/MobilenetV2/expanded_conv_12/expand/Relu6"
  type: "ReLU"
  bottom: "FeatureExtractor/MobilenetV2/expanded_conv_12/expand/BatchNorm/batchnorm/add_1_scale"
  top: "FeatureExtractor/MobilenetV2/expanded_conv_12/expand/Relu6"
  relu_param {
    relu6: true
  }
}
layer {
  name: "FeatureExtractor/MobilenetV2/expanded_conv_12/depthwise/depthwise_nchw"
  type: "Convolution"
  bottom: "FeatureExtractor/MobilenetV2/expanded_conv_12/expand/Relu6"
  top: "FeatureExtractor/MobilenetV2/expanded_conv_12/depthwise/depthwise_nchw"
  convolution_param {
    num_output: 576
    bias_term: false
    group: 576
    kernel_h: 3
    kernel_w: 3
    stride_h: 1
    stride_w: 1
    pad_l: 1
    pad_r: 1
    pad_t: 1
    pad_b: 1
  }
}
layer {
  name: "FeatureExtractor/MobilenetV2/expanded_conv_12/depthwise/BatchNorm/batchnorm/add_1_nchw"
  type: "BatchNorm"
  bottom: "FeatureExtractor/MobilenetV2/expanded_conv_12/depthwise/depthwise_nchw"
  top: "FeatureExtractor/MobilenetV2/expanded_conv_12/depthwise/BatchNorm/batchnorm/add_1_nchw"
  batch_norm_param {
    use_global_stats: true
    eps: 0.0010000000475
  }
}
layer {
  name: "FeatureExtractor/MobilenetV2/expanded_conv_12/depthwise/BatchNorm/batchnorm/add_1_scale"
  type: "Scale"
  bottom: "FeatureExtractor/MobilenetV2/expanded_conv_12/depthwise/BatchNorm/batchnorm/add_1_nchw"
  top: "FeatureExtractor/MobilenetV2/expanded_conv_12/depthwise/BatchNorm/batchnorm/add_1_scale"
  scale_param {
    bias_term: true
  }
}
layer {
  name: "FeatureExtractor/MobilenetV2/expanded_conv_12/depthwise/Relu6"
  type: "ReLU"
  bottom: "FeatureExtractor/MobilenetV2/expanded_conv_12/depthwise/BatchNorm/batchnorm/add_1_scale"
  top: "FeatureExtractor/MobilenetV2/expanded_conv_12/depthwise/Relu6"
  relu_param {
    relu6: true
  }
}
layer {
  name: "FeatureExtractor/MobilenetV2/expanded_conv_12/project/Conv2D_nchw"
  type: "Convolution"
  bottom: "FeatureExtractor/MobilenetV2/expanded_conv_12/depthwise/Relu6"
  top: "FeatureExtractor/MobilenetV2/expanded_conv_12/project/Conv2D_nchw"
  convolution_param {
    num_output: 96
    bias_term: false
    group: 1
    kernel_h: 1
    kernel_w: 1
    stride_h: 1
    stride_w: 1
    pad_l: 0
    pad_r: 0
    pad_t: 0
    pad_b: 0
  }
}
layer {
  name: "FeatureExtractor/MobilenetV2/expanded_conv_12/project/BatchNorm/batchnorm/add_1_nchw"
  type: "BatchNorm"
  bottom: "FeatureExtractor/MobilenetV2/expanded_conv_12/project/Conv2D_nchw"
  top: "FeatureExtractor/MobilenetV2/expanded_conv_12/project/BatchNorm/batchnorm/add_1_nchw"
  batch_norm_param {
    use_global_stats: true
    eps: 0.0010000000475
  }
}
layer {
  name: "FeatureExtractor/MobilenetV2/expanded_conv_12/project/BatchNorm/batchnorm/add_1_scale"
  type: "Scale"
  bottom: "FeatureExtractor/MobilenetV2/expanded_conv_12/project/BatchNorm/batchnorm/add_1_nchw"
  top: "FeatureExtractor/MobilenetV2/expanded_conv_12/project/BatchNorm/batchnorm/add_1_scale"
  scale_param {
    bias_term: true
  }
}
layer {
  name: "FeatureExtractor/MobilenetV2/expanded_conv_12/add"
  type: "Eltwise"
  bottom: "FeatureExtractor/MobilenetV2/expanded_conv_12/project/BatchNorm/batchnorm/add_1_scale"
  bottom: "FeatureExtractor/MobilenetV2/expanded_conv_11/add"
  top: "FeatureExtractor/MobilenetV2/expanded_conv_12/add"
  eltwise_param {
    operation: SUM
    coeff: 1.0
    coeff: 1.0
  }
}
layer {
  name: "FeatureExtractor/MobilenetV2/expanded_conv_13/expand/Conv2D_nchw"
  type: "Convolution"
  bottom: "FeatureExtractor/MobilenetV2/expanded_conv_12/add"
  top: "FeatureExtractor/MobilenetV2/expanded_conv_13/expand/Conv2D_nchw"
  convolution_param {
    num_output: 576
    bias_term: false
    group: 1
    kernel_h: 1
    kernel_w: 1
    stride_h: 1
    stride_w: 1
    pad_l: 0
    pad_r: 0
    pad_t: 0
    pad_b: 0
  }
}
layer {
  name: "FeatureExtractor/MobilenetV2/expanded_conv_13/expand/BatchNorm/batchnorm/add_1_nchw"
  type: "BatchNorm"
  bottom: "FeatureExtractor/MobilenetV2/expanded_conv_13/expand/Conv2D_nchw"
  top: "FeatureExtractor/MobilenetV2/expanded_conv_13/expand/BatchNorm/batchnorm/add_1_nchw"
  batch_norm_param {
    use_global_stats: true
    eps: 0.0010000000475
  }
}
layer {
  name: "FeatureExtractor/MobilenetV2/expanded_conv_13/expand/BatchNorm/batchnorm/add_1_scale"
  type: "Scale"
  bottom: "FeatureExtractor/MobilenetV2/expanded_conv_13/expand/BatchNorm/batchnorm/add_1_nchw"
  top: "FeatureExtractor/MobilenetV2/expanded_conv_13/expand/BatchNorm/batchnorm/add_1_scale"
  scale_param {
    bias_term: true
  }
}
layer {
  name: "FeatureExtractor/MobilenetV2/expanded_conv_13/expand/Relu6"
  type: "ReLU"
  bottom: "FeatureExtractor/MobilenetV2/expanded_conv_13/expand/BatchNorm/batchnorm/add_1_scale"
  top: "FeatureExtractor/MobilenetV2/expanded_conv_13/expand/Relu6"
  relu_param {
    relu6: true
  }
}
layer {
  name: "BoxPredictor_0/BoxEncodingPredictor/Conv2D_nchw"
  type: "Convolution"
  bottom: "FeatureExtractor/MobilenetV2/expanded_conv_13/expand/Relu6"
  top: "BoxPredictor_0/BoxEncodingPredictor/Conv2D_nchw"
  convolution_param {
    num_output: 12
    bias_term: true
    group: 1
    kernel_h: 3
    kernel_w: 3
    stride_h: 1
    stride_w: 1
    pad_l: 1
    pad_r: 1
    pad_t: 1
    pad_b: 1
  }
}
layer {
  name: "BoxPredictor_0/BoxEncodingPredictor/BiasAdd/BoxPredictor_0/Reshape_perm"
  type: "Permute"
  bottom: "BoxPredictor_0/BoxEncodingPredictor/Conv2D_nchw"
  top: "BoxPredictor_0/BoxEncodingPredictor/BiasAdd/BoxPredictor_0/Reshape_perm"
  permute_param {
    order: 0
    order: 2
    order: 3
    order: 1
  }
}
layer {
  name: "BoxPredictor_0/Reshape"
  type: "Reshape"
  bottom: "BoxPredictor_0/BoxEncodingPredictor/BiasAdd/BoxPredictor_0/Reshape_perm"
  top: "BoxPredictor_0/Reshape"
  reshape_param {
    shape {
      dim: 1
      dim: 1083
      dim: 1
      dim: 4
    }
  }
}
layer {
  name: "BoxPredictor_0/ClassPredictor/Conv2D_nchw"
  type: "Convolution"
  bottom: "FeatureExtractor/MobilenetV2/expanded_conv_13/expand/Relu6"
  top: "BoxPredictor_0/ClassPredictor/Conv2D_nchw"
  convolution_param {
    num_output: 273
    bias_term: true
    group: 1
    kernel_h: 3
    kernel_w: 3
    stride_h: 1
    stride_w: 1
    pad_l: 1
    pad_r: 1
    pad_t: 1
    pad_b: 1
  }
}
layer {
  name: "BoxPredictor_0/ClassPredictor/BiasAdd/BoxPredictor_0/Reshape_1_perm"
  type: "Permute"
  bottom: "BoxPredictor_0/ClassPredictor/Conv2D_nchw"
  top: "BoxPredictor_0/ClassPredictor/BiasAdd/BoxPredictor_0/Reshape_1_perm"
  permute_param {
    order: 0
    order: 2
    order: 3
    order: 1
  }
}
layer {
  name: "BoxPredictor_0/Reshape_1"
  type: "Reshape"
  bottom: "BoxPredictor_0/ClassPredictor/BiasAdd/BoxPredictor_0/Reshape_1_perm"
  top: "BoxPredictor_0/Reshape_1"
  reshape_param {
    shape {
      dim: 1
      dim: 1083
      dim: 91
    }
  }
}
layer {
  name: "FeatureExtractor/MobilenetV2/expanded_conv_13/depthwise/depthwise_nchw"
  type: "Convolution"
  bottom: "FeatureExtractor/MobilenetV2/expanded_conv_13/expand/Relu6"
  top: "FeatureExtractor/MobilenetV2/expanded_conv_13/depthwise/depthwise_nchw"
  convolution_param {
    num_output: 576
    bias_term: false
    group: 576
    kernel_h: 3
    kernel_w: 3
    stride_h: 2
    stride_w: 2
    pad_l: 1
    pad_r: 1
    pad_t: 1
    pad_b: 1
  }
}
layer {
  name: "FeatureExtractor/MobilenetV2/expanded_conv_13/depthwise/BatchNorm/batchnorm/add_1_nchw"
  type: "BatchNorm"
  bottom: "FeatureExtractor/MobilenetV2/expanded_conv_13/depthwise/depthwise_nchw"
  top: "FeatureExtractor/MobilenetV2/expanded_conv_13/depthwise/BatchNorm/batchnorm/add_1_nchw"
  batch_norm_param {
    use_global_stats: true
    eps: 0.0010000000475
  }
}
layer {
  name: "FeatureExtractor/MobilenetV2/expanded_conv_13/depthwise/BatchNorm/batchnorm/add_1_scale"
  type: "Scale"
  bottom: "FeatureExtractor/MobilenetV2/expanded_conv_13/depthwise/BatchNorm/batchnorm/add_1_nchw"
  top: "FeatureExtractor/MobilenetV2/expanded_conv_13/depthwise/BatchNorm/batchnorm/add_1_scale"
  scale_param {
    bias_term: true
  }
}
layer {
  name: "FeatureExtractor/MobilenetV2/expanded_conv_13/depthwise/Relu6"
  type: "ReLU"
  bottom: "FeatureExtractor/MobilenetV2/expanded_conv_13/depthwise/BatchNorm/batchnorm/add_1_scale"
  top: "FeatureExtractor/MobilenetV2/expanded_conv_13/depthwise/Relu6"
  relu_param {
    relu6: true
  }
}
layer {
  name: "FeatureExtractor/MobilenetV2/expanded_conv_13/project/Conv2D_nchw"
  type: "Convolution"
  bottom: "FeatureExtractor/MobilenetV2/expanded_conv_13/depthwise/Relu6"
  top: "FeatureExtractor/MobilenetV2/expanded_conv_13/project/Conv2D_nchw"
  convolution_param {
    num_output: 160
    bias_term: false
    group: 1
    kernel_h: 1
    kernel_w: 1
    stride_h: 1
    stride_w: 1
    pad_l: 0
    pad_r: 0
    pad_t: 0
    pad_b: 0
  }
}
layer {
  name: "FeatureExtractor/MobilenetV2/expanded_conv_13/project/BatchNorm/batchnorm/add_1_nchw"
  type: "BatchNorm"
  bottom: "FeatureExtractor/MobilenetV2/expanded_conv_13/project/Conv2D_nchw"
  top: "FeatureExtractor/MobilenetV2/expanded_conv_13/project/BatchNorm/batchnorm/add_1_nchw"
  batch_norm_param {
    use_global_stats: true
    eps: 0.0010000000475
  }
}
layer {
  name: "FeatureExtractor/MobilenetV2/expanded_conv_13/project/BatchNorm/batchnorm/add_1_scale"
  type: "Scale"
  bottom: "FeatureExtractor/MobilenetV2/expanded_conv_13/project/BatchNorm/batchnorm/add_1_nchw"
  top: "FeatureExtractor/MobilenetV2/expanded_conv_13/project/BatchNorm/batchnorm/add_1_scale"
  scale_param {
    bias_term: true
  }
}
layer {
  name: "FeatureExtractor/MobilenetV2/expanded_conv_14/expand/Conv2D_nchw"
  type: "Convolution"
  bottom: "FeatureExtractor/MobilenetV2/expanded_conv_13/project/BatchNorm/batchnorm/add_1_scale"
  top: "FeatureExtractor/MobilenetV2/expanded_conv_14/expand/Conv2D_nchw"
  convolution_param {
    num_output: 960
    bias_term: false
    group: 1
    kernel_h: 1
    kernel_w: 1
    stride_h: 1
    stride_w: 1
    pad_l: 0
    pad_r: 0
    pad_t: 0
    pad_b: 0
  }
}
layer {
  name: "FeatureExtractor/MobilenetV2/expanded_conv_14/expand/BatchNorm/batchnorm/add_1_nchw"
  type: "BatchNorm"
  bottom: "FeatureExtractor/MobilenetV2/expanded_conv_14/expand/Conv2D_nchw"
  top: "FeatureExtractor/MobilenetV2/expanded_conv_14/expand/BatchNorm/batchnorm/add_1_nchw"
  batch_norm_param {
    use_global_stats: true
    eps: 0.0010000000475
  }
}
layer {
  name: "FeatureExtractor/MobilenetV2/expanded_conv_14/expand/BatchNorm/batchnorm/add_1_scale"
  type: "Scale"
  bottom: "FeatureExtractor/MobilenetV2/expanded_conv_14/expand/BatchNorm/batchnorm/add_1_nchw"
  top: "FeatureExtractor/MobilenetV2/expanded_conv_14/expand/BatchNorm/batchnorm/add_1_scale"
  scale_param {
    bias_term: true
  }
}
layer {
  name: "FeatureExtractor/MobilenetV2/expanded_conv_14/expand/Relu6"
  type: "ReLU"
  bottom: "FeatureExtractor/MobilenetV2/expanded_conv_14/expand/BatchNorm/batchnorm/add_1_scale"
  top: "FeatureExtractor/MobilenetV2/expanded_conv_14/expand/Relu6"
  relu_param {
    relu6: true
  }
}
layer {
  name: "FeatureExtractor/MobilenetV2/expanded_conv_14/depthwise/depthwise_nchw"
  type: "Convolution"
  bottom: "FeatureExtractor/MobilenetV2/expanded_conv_14/expand/Relu6"
  top: "FeatureExtractor/MobilenetV2/expanded_conv_14/depthwise/depthwise_nchw"
  convolution_param {
    num_output: 960
    bias_term: false
    group: 960
    kernel_h: 3
    kernel_w: 3
    stride_h: 1
    stride_w: 1
    pad_l: 1
    pad_r: 1
    pad_t: 1
    pad_b: 1
  }
}
layer {
  name: "FeatureExtractor/MobilenetV2/expanded_conv_14/depthwise/BatchNorm/batchnorm/add_1_nchw"
  type: "BatchNorm"
  bottom: "FeatureExtractor/MobilenetV2/expanded_conv_14/depthwise/depthwise_nchw"
  top: "FeatureExtractor/MobilenetV2/expanded_conv_14/depthwise/BatchNorm/batchnorm/add_1_nchw"
  batch_norm_param {
    use_global_stats: true
    eps: 0.0010000000475
  }
}
layer {
  name: "FeatureExtractor/MobilenetV2/expanded_conv_14/depthwise/BatchNorm/batchnorm/add_1_scale"
  type: "Scale"
  bottom: "FeatureExtractor/MobilenetV2/expanded_conv_14/depthwise/BatchNorm/batchnorm/add_1_nchw"
  top: "FeatureExtractor/MobilenetV2/expanded_conv_14/depthwise/BatchNorm/batchnorm/add_1_scale"
  scale_param {
    bias_term: true
  }
}
layer {
  name: "FeatureExtractor/MobilenetV2/expanded_conv_14/depthwise/Relu6"
  type: "ReLU"
  bottom: "FeatureExtractor/MobilenetV2/expanded_conv_14/depthwise/BatchNorm/batchnorm/add_1_scale"
  top: "FeatureExtractor/MobilenetV2/expanded_conv_14/depthwise/Relu6"
  relu_param {
    relu6: true
  }
}
layer {
  name: "FeatureExtractor/MobilenetV2/expanded_conv_14/project/Conv2D_nchw"
  type: "Convolution"
  bottom: "FeatureExtractor/MobilenetV2/expanded_conv_14/depthwise/Relu6"
  top: "FeatureExtractor/MobilenetV2/expanded_conv_14/project/Conv2D_nchw"
  convolution_param {
    num_output: 160
    bias_term: false
    group: 1
    kernel_h: 1
    kernel_w: 1
    stride_h: 1
    stride_w: 1
    pad_l: 0
    pad_r: 0
    pad_t: 0
    pad_b: 0
  }
}
layer {
  name: "FeatureExtractor/MobilenetV2/expanded_conv_14/project/BatchNorm/batchnorm/add_1_nchw"
  type: "BatchNorm"
  bottom: "FeatureExtractor/MobilenetV2/expanded_conv_14/project/Conv2D_nchw"
  top: "FeatureExtractor/MobilenetV2/expanded_conv_14/project/BatchNorm/batchnorm/add_1_nchw"
  batch_norm_param {
    use_global_stats: true
    eps: 0.0010000000475
  }
}
layer {
  name: "FeatureExtractor/MobilenetV2/expanded_conv_14/project/BatchNorm/batchnorm/add_1_scale"
  type: "Scale"
  bottom: "FeatureExtractor/MobilenetV2/expanded_conv_14/project/BatchNorm/batchnorm/add_1_nchw"
  top: "FeatureExtractor/MobilenetV2/expanded_conv_14/project/BatchNorm/batchnorm/add_1_scale"
  scale_param {
    bias_term: true
  }
}
layer {
  name: "FeatureExtractor/MobilenetV2/expanded_conv_14/add"
  type: "Eltwise"
  bottom: "FeatureExtractor/MobilenetV2/expanded_conv_14/project/BatchNorm/batchnorm/add_1_scale"
  bottom: "FeatureExtractor/MobilenetV2/expanded_conv_13/project/BatchNorm/batchnorm/add_1_scale"
  top: "FeatureExtractor/MobilenetV2/expanded_conv_14/add"
  eltwise_param {
    operation: SUM
    coeff: 1.0
    coeff: 1.0
  }
}
layer {
  name: "FeatureExtractor/MobilenetV2/expanded_conv_15/expand/Conv2D_nchw"
  type: "Convolution"
  bottom: "FeatureExtractor/MobilenetV2/expanded_conv_14/add"
  top: "FeatureExtractor/MobilenetV2/expanded_conv_15/expand/Conv2D_nchw"
  convolution_param {
    num_output: 960
    bias_term: false
    group: 1
    kernel_h: 1
    kernel_w: 1
    stride_h: 1
    stride_w: 1
    pad_l: 0
    pad_r: 0
    pad_t: 0
    pad_b: 0
  }
}
layer {
  name: "FeatureExtractor/MobilenetV2/expanded_conv_15/expand/BatchNorm/batchnorm/add_1_nchw"
  type: "BatchNorm"
  bottom: "FeatureExtractor/MobilenetV2/expanded_conv_15/expand/Conv2D_nchw"
  top: "FeatureExtractor/MobilenetV2/expanded_conv_15/expand/BatchNorm/batchnorm/add_1_nchw"
  batch_norm_param {
    use_global_stats: true
    eps: 0.0010000000475
  }
}
layer {
  name: "FeatureExtractor/MobilenetV2/expanded_conv_15/expand/BatchNorm/batchnorm/add_1_scale"
  type: "Scale"
  bottom: "FeatureExtractor/MobilenetV2/expanded_conv_15/expand/BatchNorm/batchnorm/add_1_nchw"
  top: "FeatureExtractor/MobilenetV2/expanded_conv_15/expand/BatchNorm/batchnorm/add_1_scale"
  scale_param {
    bias_term: true
  }
}
layer {
  name: "FeatureExtractor/MobilenetV2/expanded_conv_15/expand/Relu6"
  type: "ReLU"
  bottom: "FeatureExtractor/MobilenetV2/expanded_conv_15/expand/BatchNorm/batchnorm/add_1_scale"
  top: "FeatureExtractor/MobilenetV2/expanded_conv_15/expand/Relu6"
  relu_param {
    relu6: true
  }
}
layer {
  name: "FeatureExtractor/MobilenetV2/expanded_conv_15/depthwise/depthwise_nchw"
  type: "Convolution"
  bottom: "FeatureExtractor/MobilenetV2/expanded_conv_15/expand/Relu6"
  top: "FeatureExtractor/MobilenetV2/expanded_conv_15/depthwise/depthwise_nchw"
  convolution_param {
    num_output: 960
    bias_term: false
    group: 960
    kernel_h: 3
    kernel_w: 3
    stride_h: 1
    stride_w: 1
    pad_l: 1
    pad_r: 1
    pad_t: 1
    pad_b: 1
  }
}
layer {
  name: "FeatureExtractor/MobilenetV2/expanded_conv_15/depthwise/BatchNorm/batchnorm/add_1_nchw"
  type: "BatchNorm"
  bottom: "FeatureExtractor/MobilenetV2/expanded_conv_15/depthwise/depthwise_nchw"
  top: "FeatureExtractor/MobilenetV2/expanded_conv_15/depthwise/BatchNorm/batchnorm/add_1_nchw"
  batch_norm_param {
    use_global_stats: true
    eps: 0.0010000000475
  }
}
layer {
  name: "FeatureExtractor/MobilenetV2/expanded_conv_15/depthwise/BatchNorm/batchnorm/add_1_scale"
  type: "Scale"
  bottom: "FeatureExtractor/MobilenetV2/expanded_conv_15/depthwise/BatchNorm/batchnorm/add_1_nchw"
  top: "FeatureExtractor/MobilenetV2/expanded_conv_15/depthwise/BatchNorm/batchnorm/add_1_scale"
  scale_param {
    bias_term: true
  }
}
layer {
  name: "FeatureExtractor/MobilenetV2/expanded_conv_15/depthwise/Relu6"
  type: "ReLU"
  bottom: "FeatureExtractor/MobilenetV2/expanded_conv_15/depthwise/BatchNorm/batchnorm/add_1_scale"
  top: "FeatureExtractor/MobilenetV2/expanded_conv_15/depthwise/Relu6"
  relu_param {
    relu6: true
  }
}
layer {
  name: "FeatureExtractor/MobilenetV2/expanded_conv_15/project/Conv2D_nchw"
  type: "Convolution"
  bottom: "FeatureExtractor/MobilenetV2/expanded_conv_15/depthwise/Relu6"
  top: "FeatureExtractor/MobilenetV2/expanded_conv_15/project/Conv2D_nchw"
  convolution_param {
    num_output: 160
    bias_term: false
    group: 1
    kernel_h: 1
    kernel_w: 1
    stride_h: 1
    stride_w: 1
    pad_l: 0
    pad_r: 0
    pad_t: 0
    pad_b: 0
  }
}
layer {
  name: "FeatureExtractor/MobilenetV2/expanded_conv_15/project/BatchNorm/batchnorm/add_1_nchw"
  type: "BatchNorm"
  bottom: "FeatureExtractor/MobilenetV2/expanded_conv_15/project/Conv2D_nchw"
  top: "FeatureExtractor/MobilenetV2/expanded_conv_15/project/BatchNorm/batchnorm/add_1_nchw"
  batch_norm_param {
    use_global_stats: true
    eps: 0.0010000000475
  }
}
layer {
  name: "FeatureExtractor/MobilenetV2/expanded_conv_15/project/BatchNorm/batchnorm/add_1_scale"
  type: "Scale"
  bottom: "FeatureExtractor/MobilenetV2/expanded_conv_15/project/BatchNorm/batchnorm/add_1_nchw"
  top: "FeatureExtractor/MobilenetV2/expanded_conv_15/project/BatchNorm/batchnorm/add_1_scale"
  scale_param {
    bias_term: true
  }
}
layer {
  name: "FeatureExtractor/MobilenetV2/expanded_conv_15/add"
  type: "Eltwise"
  bottom: "FeatureExtractor/MobilenetV2/expanded_conv_15/project/BatchNorm/batchnorm/add_1_scale"
  bottom: "FeatureExtractor/MobilenetV2/expanded_conv_14/add"
  top: "FeatureExtractor/MobilenetV2/expanded_conv_15/add"
  eltwise_param {
    operation: SUM
    coeff: 1.0
    coeff: 1.0
  }
}
layer {
  name: "FeatureExtractor/MobilenetV2/expanded_conv_16/expand/Conv2D_nchw"
  type: "Convolution"
  bottom: "FeatureExtractor/MobilenetV2/expanded_conv_15/add"
  top: "FeatureExtractor/MobilenetV2/expanded_conv_16/expand/Conv2D_nchw"
  convolution_param {
    num_output: 960
    bias_term: false
    group: 1
    kernel_h: 1
    kernel_w: 1
    stride_h: 1
    stride_w: 1
    pad_l: 0
    pad_r: 0
    pad_t: 0
    pad_b: 0
  }
}
layer {
  name: "FeatureExtractor/MobilenetV2/expanded_conv_16/expand/BatchNorm/batchnorm/add_1_nchw"
  type: "BatchNorm"
  bottom: "FeatureExtractor/MobilenetV2/expanded_conv_16/expand/Conv2D_nchw"
  top: "FeatureExtractor/MobilenetV2/expanded_conv_16/expand/BatchNorm/batchnorm/add_1_nchw"
  batch_norm_param {
    use_global_stats: true
    eps: 0.0010000000475
  }
}
layer {
  name: "FeatureExtractor/MobilenetV2/expanded_conv_16/expand/BatchNorm/batchnorm/add_1_scale"
  type: "Scale"
  bottom: "FeatureExtractor/MobilenetV2/expanded_conv_16/expand/BatchNorm/batchnorm/add_1_nchw"
  top: "FeatureExtractor/MobilenetV2/expanded_conv_16/expand/BatchNorm/batchnorm/add_1_scale"
  scale_param {
    bias_term: true
  }
}
layer {
  name: "FeatureExtractor/MobilenetV2/expanded_conv_16/expand/Relu6"
  type: "ReLU"
  bottom: "FeatureExtractor/MobilenetV2/expanded_conv_16/expand/BatchNorm/batchnorm/add_1_scale"
  top: "FeatureExtractor/MobilenetV2/expanded_conv_16/expand/Relu6"
  relu_param {
    relu6: true
  }
}
layer {
  name: "FeatureExtractor/MobilenetV2/expanded_conv_16/depthwise/depthwise_nchw"
  type: "Convolution"
  bottom: "FeatureExtractor/MobilenetV2/expanded_conv_16/expand/Relu6"
  top: "FeatureExtractor/MobilenetV2/expanded_conv_16/depthwise/depthwise_nchw"
  convolution_param {
    num_output: 960
    bias_term: false
    group: 960
    kernel_h: 3
    kernel_w: 3
    stride_h: 1
    stride_w: 1
    pad_l: 1
    pad_r: 1
    pad_t: 1
    pad_b: 1
  }
}
layer {
  name: "FeatureExtractor/MobilenetV2/expanded_conv_16/depthwise/BatchNorm/batchnorm/add_1_nchw"
  type: "BatchNorm"
  bottom: "FeatureExtractor/MobilenetV2/expanded_conv_16/depthwise/depthwise_nchw"
  top: "FeatureExtractor/MobilenetV2/expanded_conv_16/depthwise/BatchNorm/batchnorm/add_1_nchw"
  batch_norm_param {
    use_global_stats: true
    eps: 0.0010000000475
  }
}
layer {
  name: "FeatureExtractor/MobilenetV2/expanded_conv_16/depthwise/BatchNorm/batchnorm/add_1_scale"
  type: "Scale"
  bottom: "FeatureExtractor/MobilenetV2/expanded_conv_16/depthwise/BatchNorm/batchnorm/add_1_nchw"
  top: "FeatureExtractor/MobilenetV2/expanded_conv_16/depthwise/BatchNorm/batchnorm/add_1_scale"
  scale_param {
    bias_term: true
  }
}
layer {
  name: "FeatureExtractor/MobilenetV2/expanded_conv_16/depthwise/Relu6"
  type: "ReLU"
  bottom: "FeatureExtractor/MobilenetV2/expanded_conv_16/depthwise/BatchNorm/batchnorm/add_1_scale"
  top: "FeatureExtractor/MobilenetV2/expanded_conv_16/depthwise/Relu6"
  relu_param {
    relu6: true
  }
}
layer {
  name: "FeatureExtractor/MobilenetV2/expanded_conv_16/project/Conv2D_nchw"
  type: "Convolution"
  bottom: "FeatureExtractor/MobilenetV2/expanded_conv_16/depthwise/Relu6"
  top: "FeatureExtractor/MobilenetV2/expanded_conv_16/project/Conv2D_nchw"
  convolution_param {
    num_output: 320
    bias_term: false
    group: 1
    kernel_h: 1
    kernel_w: 1
    stride_h: 1
    stride_w: 1
    pad_l: 0
    pad_r: 0
    pad_t: 0
    pad_b: 0
  }
}
layer {
  name: "FeatureExtractor/MobilenetV2/expanded_conv_16/project/BatchNorm/batchnorm/add_1_nchw"
  type: "BatchNorm"
  bottom: "FeatureExtractor/MobilenetV2/expanded_conv_16/project/Conv2D_nchw"
  top: "FeatureExtractor/MobilenetV2/expanded_conv_16/project/BatchNorm/batchnorm/add_1_nchw"
  batch_norm_param {
    use_global_stats: true
    eps: 0.0010000000475
  }
}
layer {
  name: "FeatureExtractor/MobilenetV2/expanded_conv_16/project/BatchNorm/batchnorm/add_1_scale"
  type: "Scale"
  bottom: "FeatureExtractor/MobilenetV2/expanded_conv_16/project/BatchNorm/batchnorm/add_1_nchw"
  top: "FeatureExtractor/MobilenetV2/expanded_conv_16/project/BatchNorm/batchnorm/add_1_scale"
  scale_param {
    bias_term: true
  }
}
layer {
  name: "FeatureExtractor/MobilenetV2/Conv_1/Conv2D_nchw"
  type: "Convolution"
  bottom: "FeatureExtractor/MobilenetV2/expanded_conv_16/project/BatchNorm/batchnorm/add_1_scale"
  top: "FeatureExtractor/MobilenetV2/Conv_1/Conv2D_nchw"
  convolution_param {
    num_output: 1280
    bias_term: false
    group: 1
    kernel_h: 1
    kernel_w: 1
    stride_h: 1
    stride_w: 1
    pad_l: 0
    pad_r: 0
    pad_t: 0
    pad_b: 0
  }
}
layer {
  name: "FeatureExtractor/MobilenetV2/Conv_1/BatchNorm/batchnorm/add_1_nchw"
  type: "BatchNorm"
  bottom: "FeatureExtractor/MobilenetV2/Conv_1/Conv2D_nchw"
  top: "FeatureExtractor/MobilenetV2/Conv_1/BatchNorm/batchnorm/add_1_nchw"
  batch_norm_param {
    use_global_stats: true
    eps: 0.0010000000475
  }
}
layer {
  name: "FeatureExtractor/MobilenetV2/Conv_1/BatchNorm/batchnorm/add_1_scale"
  type: "Scale"
  bottom: "FeatureExtractor/MobilenetV2/Conv_1/BatchNorm/batchnorm/add_1_nchw"
  top: "FeatureExtractor/MobilenetV2/Conv_1/BatchNorm/batchnorm/add_1_scale"
  scale_param {
    bias_term: true
  }
}
layer {
  name: "FeatureExtractor/MobilenetV2/Conv_1/Relu6"
  type: "ReLU"
  bottom: "FeatureExtractor/MobilenetV2/Conv_1/BatchNorm/batchnorm/add_1_scale"
  top: "FeatureExtractor/MobilenetV2/Conv_1/Relu6"
  relu_param {
    relu6: true
  }
}
layer {
  name: "FeatureExtractor/MobilenetV2/layer_19_1_Conv2d_2_1x1_256/Conv2D_nchw"
  type: "Convolution"
  bottom: "FeatureExtractor/MobilenetV2/Conv_1/Relu6"
  top: "FeatureExtractor/MobilenetV2/layer_19_1_Conv2d_2_1x1_256/Conv2D_nchw"
  convolution_param {
    num_output: 256
    bias_term: false
    group: 1
    kernel_h: 1
    kernel_w: 1
    stride_h: 1
    stride_w: 1
    pad_l: 0
    pad_r: 0
    pad_t: 0
    pad_b: 0
  }
}
layer {
  name: "FeatureExtractor/MobilenetV2/layer_19_1_Conv2d_2_1x1_256/BatchNorm/batchnorm/add_1_nchw"
  type: "BatchNorm"
  bottom: "FeatureExtractor/MobilenetV2/layer_19_1_Conv2d_2_1x1_256/Conv2D_nchw"
  top: "FeatureExtractor/MobilenetV2/layer_19_1_Conv2d_2_1x1_256/BatchNorm/batchnorm/add_1_nchw"
  batch_norm_param {
    use_global_stats: true
    eps: 0.0010000000475
  }
}
layer {
  name: "FeatureExtractor/MobilenetV2/layer_19_1_Conv2d_2_1x1_256/BatchNorm/batchnorm/add_1_scale"
  type: "Scale"
  bottom: "FeatureExtractor/MobilenetV2/layer_19_1_Conv2d_2_1x1_256/BatchNorm/batchnorm/add_1_nchw"
  top: "FeatureExtractor/MobilenetV2/layer_19_1_Conv2d_2_1x1_256/BatchNorm/batchnorm/add_1_scale"
  scale_param {
    bias_term: true
  }
}
layer {
  name: "FeatureExtractor/MobilenetV2/layer_19_1_Conv2d_2_1x1_256/Relu6"
  type: "ReLU"
  bottom: "FeatureExtractor/MobilenetV2/layer_19_1_Conv2d_2_1x1_256/BatchNorm/batchnorm/add_1_scale"
  top: "FeatureExtractor/MobilenetV2/layer_19_1_Conv2d_2_1x1_256/Relu6"
  relu_param {
    relu6: true
  }
}
layer {
  name: "FeatureExtractor/MobilenetV2/layer_19_2_Conv2d_2_3x3_s2_512_depthwise/depthwise_nchw"
  type: "Convolution"
  bottom: "FeatureExtractor/MobilenetV2/layer_19_1_Conv2d_2_1x1_256/Relu6"
  top: "FeatureExtractor/MobilenetV2/layer_19_2_Conv2d_2_3x3_s2_512_depthwise/depthwise_nchw"
  convolution_param {
    num_output: 256
    bias_term: false
    group: 256
    kernel_h: 3
    kernel_w: 3
    stride_h: 2
    stride_w: 2
    pad_l: 0
    pad_r: 1
    pad_t: 0
    pad_b: 1
  }
}
layer {
  name: "FeatureExtractor/MobilenetV2/layer_19_2_Conv2d_2_3x3_s2_512_depthwise/BatchNorm/batchnorm/add_1_nchw"
  type: "BatchNorm"
  bottom: "FeatureExtractor/MobilenetV2/layer_19_2_Conv2d_2_3x3_s2_512_depthwise/depthwise_nchw"
  top: "FeatureExtractor/MobilenetV2/layer_19_2_Conv2d_2_3x3_s2_512_depthwise/BatchNorm/batchnorm/add_1_nchw"
  batch_norm_param {
    use_global_stats: true
    eps: 0.0010000000475
  }
}
layer {
  name: "FeatureExtractor/MobilenetV2/layer_19_2_Conv2d_2_3x3_s2_512_depthwise/BatchNorm/batchnorm/add_1_scale"
  type: "Scale"
  bottom: "FeatureExtractor/MobilenetV2/layer_19_2_Conv2d_2_3x3_s2_512_depthwise/BatchNorm/batchnorm/add_1_nchw"
  top: "FeatureExtractor/MobilenetV2/layer_19_2_Conv2d_2_3x3_s2_512_depthwise/BatchNorm/batchnorm/add_1_scale"
  scale_param {
    bias_term: true
  }
}
layer {
  name: "FeatureExtractor/MobilenetV2/layer_19_2_Conv2d_2_3x3_s2_512_depthwise/Relu6"
  type: "ReLU"
  bottom: "FeatureExtractor/MobilenetV2/layer_19_2_Conv2d_2_3x3_s2_512_depthwise/BatchNorm/batchnorm/add_1_scale"
  top: "FeatureExtractor/MobilenetV2/layer_19_2_Conv2d_2_3x3_s2_512_depthwise/Relu6"
  relu_param {
    relu6: true
  }
}
layer {
  name: "FeatureExtractor/MobilenetV2/layer_19_2_Conv2d_2_3x3_s2_512/Conv2D_nchw"
  type: "Convolution"
  bottom: "FeatureExtractor/MobilenetV2/layer_19_2_Conv2d_2_3x3_s2_512_depthwise/Relu6"
  top: "FeatureExtractor/MobilenetV2/layer_19_2_Conv2d_2_3x3_s2_512/Conv2D_nchw"
  convolution_param {
    num_output: 512
    bias_term: false
    group: 1
    kernel_h: 1
    kernel_w: 1
    stride_h: 1
    stride_w: 1
    pad_l: 0
    pad_r: 0
    pad_t: 0
    pad_b: 0
  }
}
layer {
  name: "FeatureExtractor/MobilenetV2/layer_19_2_Conv2d_2_3x3_s2_512/BatchNorm/batchnorm/add_1_nchw"
  type: "BatchNorm"
  bottom: "FeatureExtractor/MobilenetV2/layer_19_2_Conv2d_2_3x3_s2_512/Conv2D_nchw"
  top: "FeatureExtractor/MobilenetV2/layer_19_2_Conv2d_2_3x3_s2_512/BatchNorm/batchnorm/add_1_nchw"
  batch_norm_param {
    use_global_stats: true
    eps: 0.0010000000475
  }
}
layer {
  name: "FeatureExtractor/MobilenetV2/layer_19_2_Conv2d_2_3x3_s2_512/BatchNorm/batchnorm/add_1_scale"
  type: "Scale"
  bottom: "FeatureExtractor/MobilenetV2/layer_19_2_Conv2d_2_3x3_s2_512/BatchNorm/batchnorm/add_1_nchw"
  top: "FeatureExtractor/MobilenetV2/layer_19_2_Conv2d_2_3x3_s2_512/BatchNorm/batchnorm/add_1_scale"
  scale_param {
    bias_term: true
  }
}
layer {
  name: "FeatureExtractor/MobilenetV2/layer_19_2_Conv2d_2_3x3_s2_512/Relu6"
  type: "ReLU"
  bottom: "FeatureExtractor/MobilenetV2/layer_19_2_Conv2d_2_3x3_s2_512/BatchNorm/batchnorm/add_1_scale"
  top: "FeatureExtractor/MobilenetV2/layer_19_2_Conv2d_2_3x3_s2_512/Relu6"
  relu_param {
    relu6: true
  }
}
layer {
  name: "FeatureExtractor/MobilenetV2/layer_19_1_Conv2d_3_1x1_128/Conv2D_nchw"
  type: "Convolution"
  bottom: "FeatureExtractor/MobilenetV2/layer_19_2_Conv2d_2_3x3_s2_512/Relu6"
  top: "FeatureExtractor/MobilenetV2/layer_19_1_Conv2d_3_1x1_128/Conv2D_nchw"
  convolution_param {
    num_output: 128
    bias_term: false
    group: 1
    kernel_h: 1
    kernel_w: 1
    stride_h: 1
    stride_w: 1
    pad_l: 0
    pad_r: 0
    pad_t: 0
    pad_b: 0
  }
}
layer {
  name: "FeatureExtractor/MobilenetV2/layer_19_1_Conv2d_3_1x1_128/BatchNorm/batchnorm/add_1_nchw"
  type: "BatchNorm"
  bottom: "FeatureExtractor/MobilenetV2/layer_19_1_Conv2d_3_1x1_128/Conv2D_nchw"
  top: "FeatureExtractor/MobilenetV2/layer_19_1_Conv2d_3_1x1_128/BatchNorm/batchnorm/add_1_nchw"
  batch_norm_param {
    use_global_stats: true
    eps: 0.0010000000475
  }
}
layer {
  name: "FeatureExtractor/MobilenetV2/layer_19_1_Conv2d_3_1x1_128/BatchNorm/batchnorm/add_1_scale"
  type: "Scale"
  bottom: "FeatureExtractor/MobilenetV2/layer_19_1_Conv2d_3_1x1_128/BatchNorm/batchnorm/add_1_nchw"
  top: "FeatureExtractor/MobilenetV2/layer_19_1_Conv2d_3_1x1_128/BatchNorm/batchnorm/add_1_scale"
  scale_param {
    bias_term: true
  }
}
layer {
  name: "FeatureExtractor/MobilenetV2/layer_19_1_Conv2d_3_1x1_128/Relu6"
  type: "ReLU"
  bottom: "FeatureExtractor/MobilenetV2/layer_19_1_Conv2d_3_1x1_128/BatchNorm/batchnorm/add_1_scale"
  top: "FeatureExtractor/MobilenetV2/layer_19_1_Conv2d_3_1x1_128/Relu6"
  relu_param {
    relu6: true
  }
}
layer {
  name: "FeatureExtractor/MobilenetV2/layer_19_2_Conv2d_3_3x3_s2_256_depthwise/depthwise_nchw"
  type: "Convolution"
  bottom: "FeatureExtractor/MobilenetV2/layer_19_1_Conv2d_3_1x1_128/Relu6"
  top: "FeatureExtractor/MobilenetV2/layer_19_2_Conv2d_3_3x3_s2_256_depthwise/depthwise_nchw"
  convolution_param {
    num_output: 128
    bias_term: false
    group: 128
    kernel_h: 3
    kernel_w: 3
    stride_h: 2
    stride_w: 2
    pad_l: 1
    pad_r: 1
    pad_t: 1
    pad_b: 1
  }
}
layer {
  name: "FeatureExtractor/MobilenetV2/layer_19_2_Conv2d_3_3x3_s2_256_depthwise/BatchNorm/batchnorm/add_1_nchw"
  type: "BatchNorm"
  bottom: "FeatureExtractor/MobilenetV2/layer_19_2_Conv2d_3_3x3_s2_256_depthwise/depthwise_nchw"
  top: "FeatureExtractor/MobilenetV2/layer_19_2_Conv2d_3_3x3_s2_256_depthwise/BatchNorm/batchnorm/add_1_nchw"
  batch_norm_param {
    use_global_stats: true
    eps: 0.0010000000475
  }
}
layer {
  name: "FeatureExtractor/MobilenetV2/layer_19_2_Conv2d_3_3x3_s2_256_depthwise/BatchNorm/batchnorm/add_1_scale"
  type: "Scale"
  bottom: "FeatureExtractor/MobilenetV2/layer_19_2_Conv2d_3_3x3_s2_256_depthwise/BatchNorm/batchnorm/add_1_nchw"
  top: "FeatureExtractor/MobilenetV2/layer_19_2_Conv2d_3_3x3_s2_256_depthwise/BatchNorm/batchnorm/add_1_scale"
  scale_param {
    bias_term: true
  }
}
layer {
  name: "FeatureExtractor/MobilenetV2/layer_19_2_Conv2d_3_3x3_s2_256_depthwise/Relu6"
  type: "ReLU"
  bottom: "FeatureExtractor/MobilenetV2/layer_19_2_Conv2d_3_3x3_s2_256_depthwise/BatchNorm/batchnorm/add_1_scale"
  top: "FeatureExtractor/MobilenetV2/layer_19_2_Conv2d_3_3x3_s2_256_depthwise/Relu6"
  relu_param {
    relu6: true
  }
}
layer {
  name: "FeatureExtractor/MobilenetV2/layer_19_2_Conv2d_3_3x3_s2_256/Conv2D_nchw"
  type: "Convolution"
  bottom: "FeatureExtractor/MobilenetV2/layer_19_2_Conv2d_3_3x3_s2_256_depthwise/Relu6"
  top: "FeatureExtractor/MobilenetV2/layer_19_2_Conv2d_3_3x3_s2_256/Conv2D_nchw"
  convolution_param {
    num_output: 256
    bias_term: false
    group: 1
    kernel_h: 1
    kernel_w: 1
    stride_h: 1
    stride_w: 1
    pad_l: 0
    pad_r: 0
    pad_t: 0
    pad_b: 0
  }
}
layer {
  name: "FeatureExtractor/MobilenetV2/layer_19_2_Conv2d_3_3x3_s2_256/BatchNorm/batchnorm/add_1_nchw"
  type: "BatchNorm"
  bottom: "FeatureExtractor/MobilenetV2/layer_19_2_Conv2d_3_3x3_s2_256/Conv2D_nchw"
  top: "FeatureExtractor/MobilenetV2/layer_19_2_Conv2d_3_3x3_s2_256/BatchNorm/batchnorm/add_1_nchw"
  batch_norm_param {
    use_global_stats: true
    eps: 0.0010000000475
  }
}
layer {
  name: "FeatureExtractor/MobilenetV2/layer_19_2_Conv2d_3_3x3_s2_256/BatchNorm/batchnorm/add_1_scale"
  type: "Scale"
  bottom: "FeatureExtractor/MobilenetV2/layer_19_2_Conv2d_3_3x3_s2_256/BatchNorm/batchnorm/add_1_nchw"
  top: "FeatureExtractor/MobilenetV2/layer_19_2_Conv2d_3_3x3_s2_256/BatchNorm/batchnorm/add_1_scale"
  scale_param {
    bias_term: true
  }
}
layer {
  name: "FeatureExtractor/MobilenetV2/layer_19_2_Conv2d_3_3x3_s2_256/Relu6"
  type: "ReLU"
  bottom: "FeatureExtractor/MobilenetV2/layer_19_2_Conv2d_3_3x3_s2_256/BatchNorm/batchnorm/add_1_scale"
  top: "FeatureExtractor/MobilenetV2/layer_19_2_Conv2d_3_3x3_s2_256/Relu6"
  relu_param {
    relu6: true
  }
}
layer {
  name: "BoxPredictor_3/ClassPredictor/Conv2D_nchw"
  type: "Convolution"
  bottom: "FeatureExtractor/MobilenetV2/layer_19_2_Conv2d_3_3x3_s2_256/Relu6"
  top: "BoxPredictor_3/ClassPredictor/Conv2D_nchw"
  convolution_param {
    num_output: 546
    bias_term: true
    group: 1
    kernel_h: 3
    kernel_w: 3
    stride_h: 1
    stride_w: 1
    pad_l: 1
    pad_r: 1
    pad_t: 1
    pad_b: 1
  }
}
layer {
  name: "BoxPredictor_3/ClassPredictor/BiasAdd/BoxPredictor_3/Reshape_1_perm"
  type: "Permute"
  bottom: "BoxPredictor_3/ClassPredictor/Conv2D_nchw"
  top: "BoxPredictor_3/ClassPredictor/BiasAdd/BoxPredictor_3/Reshape_1_perm"
  permute_param {
    order: 0
    order: 2
    order: 3
    order: 1
  }
}
layer {
  name: "BoxPredictor_3/Reshape_1"
  type: "Reshape"
  bottom: "BoxPredictor_3/ClassPredictor/BiasAdd/BoxPredictor_3/Reshape_1_perm"
  top: "BoxPredictor_3/Reshape_1"
  reshape_param {
    shape {
      dim: 1
      dim: 54
      dim: 91
    }
  }
}
layer {
  name: "FeatureExtractor/MobilenetV2/layer_19_1_Conv2d_4_1x1_128/Conv2D_nchw"
  type: "Convolution"
  bottom: "FeatureExtractor/MobilenetV2/layer_19_2_Conv2d_3_3x3_s2_256/Relu6"
  top: "FeatureExtractor/MobilenetV2/layer_19_1_Conv2d_4_1x1_128/Conv2D_nchw"
  convolution_param {
    num_output: 128
    bias_term: false
    group: 1
    kernel_h: 1
    kernel_w: 1
    stride_h: 1
    stride_w: 1
    pad_l: 0
    pad_r: 0
    pad_t: 0
    pad_b: 0
  }
}
layer {
  name: "FeatureExtractor/MobilenetV2/layer_19_1_Conv2d_4_1x1_128/BatchNorm/batchnorm/add_1_nchw"
  type: "BatchNorm"
  bottom: "FeatureExtractor/MobilenetV2/layer_19_1_Conv2d_4_1x1_128/Conv2D_nchw"
  top: "FeatureExtractor/MobilenetV2/layer_19_1_Conv2d_4_1x1_128/BatchNorm/batchnorm/add_1_nchw"
  batch_norm_param {
    use_global_stats: true
    eps: 0.0010000000475
  }
}
layer {
  name: "FeatureExtractor/MobilenetV2/layer_19_1_Conv2d_4_1x1_128/BatchNorm/batchnorm/add_1_scale"
  type: "Scale"
  bottom: "FeatureExtractor/MobilenetV2/layer_19_1_Conv2d_4_1x1_128/BatchNorm/batchnorm/add_1_nchw"
  top: "FeatureExtractor/MobilenetV2/layer_19_1_Conv2d_4_1x1_128/BatchNorm/batchnorm/add_1_scale"
  scale_param {
    bias_term: true
  }
}
layer {
  name: "FeatureExtractor/MobilenetV2/layer_19_1_Conv2d_4_1x1_128/Relu6"
  type: "ReLU"
  bottom: "FeatureExtractor/MobilenetV2/layer_19_1_Conv2d_4_1x1_128/BatchNorm/batchnorm/add_1_scale"
  top: "FeatureExtractor/MobilenetV2/layer_19_1_Conv2d_4_1x1_128/Relu6"
  relu_param {
    relu6: true
  }
}
layer {
  name: "FeatureExtractor/MobilenetV2/layer_19_2_Conv2d_4_3x3_s2_256_depthwise/depthwise_nchw"
  type: "Convolution"
  bottom: "FeatureExtractor/MobilenetV2/layer_19_1_Conv2d_4_1x1_128/Relu6"
  top: "FeatureExtractor/MobilenetV2/layer_19_2_Conv2d_4_3x3_s2_256_depthwise/depthwise_nchw"
  convolution_param {
    num_output: 128
    bias_term: false
    group: 128
    kernel_h: 3
    kernel_w: 3
    stride_h: 2
    stride_w: 2
    pad_l: 1
    pad_r: 1
    pad_t: 1
    pad_b: 1
  }
}
layer {
  name: "FeatureExtractor/MobilenetV2/layer_19_2_Conv2d_4_3x3_s2_256_depthwise/BatchNorm/batchnorm/add_1_nchw"
  type: "BatchNorm"
  bottom: "FeatureExtractor/MobilenetV2/layer_19_2_Conv2d_4_3x3_s2_256_depthwise/depthwise_nchw"
  top: "FeatureExtractor/MobilenetV2/layer_19_2_Conv2d_4_3x3_s2_256_depthwise/BatchNorm/batchnorm/add_1_nchw"
  batch_norm_param {
    use_global_stats: true
    eps: 0.0010000000475
  }
}
layer {
  name: "FeatureExtractor/MobilenetV2/layer_19_2_Conv2d_4_3x3_s2_256_depthwise/BatchNorm/batchnorm/add_1_scale"
  type: "Scale"
  bottom: "FeatureExtractor/MobilenetV2/layer_19_2_Conv2d_4_3x3_s2_256_depthwise/BatchNorm/batchnorm/add_1_nchw"
  top: "FeatureExtractor/MobilenetV2/layer_19_2_Conv2d_4_3x3_s2_256_depthwise/BatchNorm/batchnorm/add_1_scale"
  scale_param {
    bias_term: true
  }
}
layer {
  name: "FeatureExtractor/MobilenetV2/layer_19_2_Conv2d_4_3x3_s2_256_depthwise/Relu6"
  type: "ReLU"
  bottom: "FeatureExtractor/MobilenetV2/layer_19_2_Conv2d_4_3x3_s2_256_depthwise/BatchNorm/batchnorm/add_1_scale"
  top: "FeatureExtractor/MobilenetV2/layer_19_2_Conv2d_4_3x3_s2_256_depthwise/Relu6"
  relu_param {
    relu6: true
  }
}
layer {
  name: "FeatureExtractor/MobilenetV2/layer_19_2_Conv2d_4_3x3_s2_256/Conv2D_nchw"
  type: "Convolution"
  bottom: "FeatureExtractor/MobilenetV2/layer_19_2_Conv2d_4_3x3_s2_256_depthwise/Relu6"
  top: "FeatureExtractor/MobilenetV2/layer_19_2_Conv2d_4_3x3_s2_256/Conv2D_nchw"
  convolution_param {
    num_output: 256
    bias_term: false
    group: 1
    kernel_h: 1
    kernel_w: 1
    stride_h: 1
    stride_w: 1
    pad_l: 0
    pad_r: 0
    pad_t: 0
    pad_b: 0
  }
}
layer {
  name: "FeatureExtractor/MobilenetV2/layer_19_2_Conv2d_4_3x3_s2_256/BatchNorm/batchnorm/add_1_nchw"
  type: "BatchNorm"
  bottom: "FeatureExtractor/MobilenetV2/layer_19_2_Conv2d_4_3x3_s2_256/Conv2D_nchw"
  top: "FeatureExtractor/MobilenetV2/layer_19_2_Conv2d_4_3x3_s2_256/BatchNorm/batchnorm/add_1_nchw"
  batch_norm_param {
    use_global_stats: true
    eps: 0.0010000000475
  }
}
layer {
  name: "FeatureExtractor/MobilenetV2/layer_19_2_Conv2d_4_3x3_s2_256/BatchNorm/batchnorm/add_1_scale"
  type: "Scale"
  bottom: "FeatureExtractor/MobilenetV2/layer_19_2_Conv2d_4_3x3_s2_256/BatchNorm/batchnorm/add_1_nchw"
  top: "FeatureExtractor/MobilenetV2/layer_19_2_Conv2d_4_3x3_s2_256/BatchNorm/batchnorm/add_1_scale"
  scale_param {
    bias_term: true
  }
}
layer {
  name: "FeatureExtractor/MobilenetV2/layer_19_2_Conv2d_4_3x3_s2_256/Relu6"
  type: "ReLU"
  bottom: "FeatureExtractor/MobilenetV2/layer_19_2_Conv2d_4_3x3_s2_256/BatchNorm/batchnorm/add_1_scale"
  top: "FeatureExtractor/MobilenetV2/layer_19_2_Conv2d_4_3x3_s2_256/Relu6"
  relu_param {
    relu6: true
  }
}
layer {
  name: "BoxPredictor_4/ClassPredictor/Conv2D_nchw"
  type: "Convolution"
  bottom: "FeatureExtractor/MobilenetV2/layer_19_2_Conv2d_4_3x3_s2_256/Relu6"
  top: "BoxPredictor_4/ClassPredictor/Conv2D_nchw"
  convolution_param {
    num_output: 546
    bias_term: true
    group: 1
    kernel_h: 3
    kernel_w: 3
    stride_h: 1
    stride_w: 1
    pad_l: 1
    pad_r: 1
    pad_t: 1
    pad_b: 1
  }
}
layer {
  name: "BoxPredictor_4/ClassPredictor/BiasAdd/BoxPredictor_4/Reshape_1_perm"
  type: "Permute"
  bottom: "BoxPredictor_4/ClassPredictor/Conv2D_nchw"
  top: "BoxPredictor_4/ClassPredictor/BiasAdd/BoxPredictor_4/Reshape_1_perm"
  permute_param {
    order: 0
    order: 2
    order: 3
    order: 1
  }
}
layer {
  name: "BoxPredictor_4/Reshape_1"
  type: "Reshape"
  bottom: "BoxPredictor_4/ClassPredictor/BiasAdd/BoxPredictor_4/Reshape_1_perm"
  top: "BoxPredictor_4/Reshape_1"
  reshape_param {
    shape {
      dim: 1
      dim: 24
      dim: 91
    }
  }
}
layer {
  name: "FeatureExtractor/MobilenetV2/layer_19_1_Conv2d_5_1x1_64/Conv2D_nchw"
  type: "Convolution"
  bottom: "FeatureExtractor/MobilenetV2/layer_19_2_Conv2d_4_3x3_s2_256/Relu6"
  top: "FeatureExtractor/MobilenetV2/layer_19_1_Conv2d_5_1x1_64/Conv2D_nchw"
  convolution_param {
    num_output: 64
    bias_term: false
    group: 1
    kernel_h: 1
    kernel_w: 1
    stride_h: 1
    stride_w: 1
    pad_l: 0
    pad_r: 0
    pad_t: 0
    pad_b: 0
  }
}
layer {
  name: "FeatureExtractor/MobilenetV2/layer_19_1_Conv2d_5_1x1_64/BatchNorm/batchnorm/add_1_nchw"
  type: "BatchNorm"
  bottom: "FeatureExtractor/MobilenetV2/layer_19_1_Conv2d_5_1x1_64/Conv2D_nchw"
  top: "FeatureExtractor/MobilenetV2/layer_19_1_Conv2d_5_1x1_64/BatchNorm/batchnorm/add_1_nchw"
  batch_norm_param {
    use_global_stats: true
    eps: 0.0010000000475
  }
}
layer {
  name: "FeatureExtractor/MobilenetV2/layer_19_1_Conv2d_5_1x1_64/BatchNorm/batchnorm/add_1_scale"
  type: "Scale"
  bottom: "FeatureExtractor/MobilenetV2/layer_19_1_Conv2d_5_1x1_64/BatchNorm/batchnorm/add_1_nchw"
  top: "FeatureExtractor/MobilenetV2/layer_19_1_Conv2d_5_1x1_64/BatchNorm/batchnorm/add_1_scale"
  scale_param {
    bias_term: true
  }
}
layer {
  name: "FeatureExtractor/MobilenetV2/layer_19_1_Conv2d_5_1x1_64/Relu6"
  type: "ReLU"
  bottom: "FeatureExtractor/MobilenetV2/layer_19_1_Conv2d_5_1x1_64/BatchNorm/batchnorm/add_1_scale"
  top: "FeatureExtractor/MobilenetV2/layer_19_1_Conv2d_5_1x1_64/Relu6"
  relu_param {
    relu6: true
  }
}
layer {
  name: "FeatureExtractor/MobilenetV2/layer_19_2_Conv2d_5_3x3_s2_128_depthwise/depthwise_nchw"
  type: "Convolution"
  bottom: "FeatureExtractor/MobilenetV2/layer_19_1_Conv2d_5_1x1_64/Relu6"
  top: "FeatureExtractor/MobilenetV2/layer_19_2_Conv2d_5_3x3_s2_128_depthwise/depthwise_nchw"
  convolution_param {
    num_output: 64
    bias_term: false
    group: 64
    kernel_h: 3
    kernel_w: 3
    stride_h: 2
    stride_w: 2
    pad_l: 0
    pad_r: 1
    pad_t: 0
    pad_b: 1
  }
}
layer {
  name: "FeatureExtractor/MobilenetV2/layer_19_2_Conv2d_5_3x3_s2_128_depthwise/BatchNorm/batchnorm/add_1_nchw"
  type: "BatchNorm"
  bottom: "FeatureExtractor/MobilenetV2/layer_19_2_Conv2d_5_3x3_s2_128_depthwise/depthwise_nchw"
  top: "FeatureExtractor/MobilenetV2/layer_19_2_Conv2d_5_3x3_s2_128_depthwise/BatchNorm/batchnorm/add_1_nchw"
  batch_norm_param {
    use_global_stats: true
    eps: 0.0010000000475
  }
}
layer {
  name: "FeatureExtractor/MobilenetV2/layer_19_2_Conv2d_5_3x3_s2_128_depthwise/BatchNorm/batchnorm/add_1_scale"
  type: "Scale"
  bottom: "FeatureExtractor/MobilenetV2/layer_19_2_Conv2d_5_3x3_s2_128_depthwise/BatchNorm/batchnorm/add_1_nchw"
  top: "FeatureExtractor/MobilenetV2/layer_19_2_Conv2d_5_3x3_s2_128_depthwise/BatchNorm/batchnorm/add_1_scale"
  scale_param {
    bias_term: true
  }
}
layer {
  name: "FeatureExtractor/MobilenetV2/layer_19_2_Conv2d_5_3x3_s2_128_depthwise/Relu6"
  type: "ReLU"
  bottom: "FeatureExtractor/MobilenetV2/layer_19_2_Conv2d_5_3x3_s2_128_depthwise/BatchNorm/batchnorm/add_1_scale"
  top: "FeatureExtractor/MobilenetV2/layer_19_2_Conv2d_5_3x3_s2_128_depthwise/Relu6"
  relu_param {
    relu6: true
  }
}
layer {
  name: "FeatureExtractor/MobilenetV2/layer_19_2_Conv2d_5_3x3_s2_128/Conv2D_nchw"
  type: "Convolution"
  bottom: "FeatureExtractor/MobilenetV2/layer_19_2_Conv2d_5_3x3_s2_128_depthwise/Relu6"
  top: "FeatureExtractor/MobilenetV2/layer_19_2_Conv2d_5_3x3_s2_128/Conv2D_nchw"
  convolution_param {
    num_output: 128
    bias_term: false
    group: 1
    kernel_h: 1
    kernel_w: 1
    stride_h: 1
    stride_w: 1
    pad_l: 0
    pad_r: 0
    pad_t: 0
    pad_b: 0
  }
}
layer {
  name: "FeatureExtractor/MobilenetV2/layer_19_2_Conv2d_5_3x3_s2_128/BatchNorm/batchnorm/add_1_nchw"
  type: "BatchNorm"
  bottom: "FeatureExtractor/MobilenetV2/layer_19_2_Conv2d_5_3x3_s2_128/Conv2D_nchw"
  top: "FeatureExtractor/MobilenetV2/layer_19_2_Conv2d_5_3x3_s2_128/BatchNorm/batchnorm/add_1_nchw"
  batch_norm_param {
    use_global_stats: true
    eps: 0.0010000000475
  }
}
layer {
  name: "FeatureExtractor/MobilenetV2/layer_19_2_Conv2d_5_3x3_s2_128/BatchNorm/batchnorm/add_1_scale"
  type: "Scale"
  bottom: "FeatureExtractor/MobilenetV2/layer_19_2_Conv2d_5_3x3_s2_128/BatchNorm/batchnorm/add_1_nchw"
  top: "FeatureExtractor/MobilenetV2/layer_19_2_Conv2d_5_3x3_s2_128/BatchNorm/batchnorm/add_1_scale"
  scale_param {
    bias_term: true
  }
}
layer {
  name: "FeatureExtractor/MobilenetV2/layer_19_2_Conv2d_5_3x3_s2_128/Relu6"
  type: "ReLU"
  bottom: "FeatureExtractor/MobilenetV2/layer_19_2_Conv2d_5_3x3_s2_128/BatchNorm/batchnorm/add_1_scale"
  top: "FeatureExtractor/MobilenetV2/layer_19_2_Conv2d_5_3x3_s2_128/Relu6"
  relu_param {
    relu6: true
  }
}
layer {
  name: "BoxPredictor_5/ClassPredictor/Conv2D_nchw"
  type: "Convolution"
  bottom: "FeatureExtractor/MobilenetV2/layer_19_2_Conv2d_5_3x3_s2_128/Relu6"
  top: "BoxPredictor_5/ClassPredictor/Conv2D_nchw"
  convolution_param {
    num_output: 546
    bias_term: true
    group: 1
    kernel_h: 3
    kernel_w: 3
    stride_h: 1
    stride_w: 1
    pad_l: 1
    pad_r: 1
    pad_t: 1
    pad_b: 1
  }
}
layer {
  name: "BoxPredictor_5/ClassPredictor/BiasAdd/BoxPredictor_5/Reshape_1_perm"
  type: "Permute"
  bottom: "BoxPredictor_5/ClassPredictor/Conv2D_nchw"
  top: "BoxPredictor_5/ClassPredictor/BiasAdd/BoxPredictor_5/Reshape_1_perm"
  permute_param {
    order: 0
    order: 2
    order: 3
    order: 1
  }
}
layer {
  name: "BoxPredictor_5/Reshape_1"
  type: "Reshape"
  bottom: "BoxPredictor_5/ClassPredictor/BiasAdd/BoxPredictor_5/Reshape_1_perm"
  top: "BoxPredictor_5/Reshape_1"
  reshape_param {
    shape {
      dim: 1
      dim: 6
      dim: 91
    }
  }
}
layer {
  name: "BoxPredictor_5/BoxEncodingPredictor/Conv2D_nchw"
  type: "Convolution"
  bottom: "FeatureExtractor/MobilenetV2/layer_19_2_Conv2d_5_3x3_s2_128/Relu6"
  top: "BoxPredictor_5/BoxEncodingPredictor/Conv2D_nchw"
  convolution_param {
    num_output: 24
    bias_term: true
    group: 1
    kernel_h: 3
    kernel_w: 3
    stride_h: 1
    stride_w: 1
    pad_l: 1
    pad_r: 1
    pad_t: 1
    pad_b: 1
  }
}
layer {
  name: "BoxPredictor_5/BoxEncodingPredictor/BiasAdd/BoxPredictor_5/Reshape_perm"
  type: "Permute"
  bottom: "BoxPredictor_5/BoxEncodingPredictor/Conv2D_nchw"
  top: "BoxPredictor_5/BoxEncodingPredictor/BiasAdd/BoxPredictor_5/Reshape_perm"
  permute_param {
    order: 0
    order: 2
    order: 3
    order: 1
  }
}
layer {
  name: "BoxPredictor_5/Reshape"
  type: "Reshape"
  bottom: "BoxPredictor_5/BoxEncodingPredictor/BiasAdd/BoxPredictor_5/Reshape_perm"
  top: "BoxPredictor_5/Reshape"
  reshape_param {
    shape {
      dim: 1
      dim: 6
      dim: 1
      dim: 4
    }
  }
}
layer {
  name: "BoxPredictor_4/BoxEncodingPredictor/Conv2D_nchw"
  type: "Convolution"
  bottom: "FeatureExtractor/MobilenetV2/layer_19_2_Conv2d_4_3x3_s2_256/Relu6"
  top: "BoxPredictor_4/BoxEncodingPredictor/Conv2D_nchw"
  convolution_param {
    num_output: 24
    bias_term: true
    group: 1
    kernel_h: 3
    kernel_w: 3
    stride_h: 1
    stride_w: 1
    pad_l: 1
    pad_r: 1
    pad_t: 1
    pad_b: 1
  }
}
layer {
  name: "BoxPredictor_4/BoxEncodingPredictor/BiasAdd/BoxPredictor_4/Reshape_perm"
  type: "Permute"
  bottom: "BoxPredictor_4/BoxEncodingPredictor/Conv2D_nchw"
  top: "BoxPredictor_4/BoxEncodingPredictor/BiasAdd/BoxPredictor_4/Reshape_perm"
  permute_param {
    order: 0
    order: 2
    order: 3
    order: 1
  }
}
layer {
  name: "BoxPredictor_4/Reshape"
  type: "Reshape"
  bottom: "BoxPredictor_4/BoxEncodingPredictor/BiasAdd/BoxPredictor_4/Reshape_perm"
  top: "BoxPredictor_4/Reshape"
  reshape_param {
    shape {
      dim: 1
      dim: 24
      dim: 1
      dim: 4
    }
  }
}
layer {
  name: "BoxPredictor_3/BoxEncodingPredictor/Conv2D_nchw"
  type: "Convolution"
  bottom: "FeatureExtractor/MobilenetV2/layer_19_2_Conv2d_3_3x3_s2_256/Relu6"
  top: "BoxPredictor_3/BoxEncodingPredictor/Conv2D_nchw"
  convolution_param {
    num_output: 24
    bias_term: true
    group: 1
    kernel_h: 3
    kernel_w: 3
    stride_h: 1
    stride_w: 1
    pad_l: 1
    pad_r: 1
    pad_t: 1
    pad_b: 1
  }
}
layer {
  name: "BoxPredictor_3/BoxEncodingPredictor/BiasAdd/BoxPredictor_3/Reshape_perm"
  type: "Permute"
  bottom: "BoxPredictor_3/BoxEncodingPredictor/Conv2D_nchw"
  top: "BoxPredictor_3/BoxEncodingPredictor/BiasAdd/BoxPredictor_3/Reshape_perm"
  permute_param {
    order: 0
    order: 2
    order: 3
    order: 1
  }
}
layer {
  name: "BoxPredictor_3/Reshape"
  type: "Reshape"
  bottom: "BoxPredictor_3/BoxEncodingPredictor/BiasAdd/BoxPredictor_3/Reshape_perm"
  top: "BoxPredictor_3/Reshape"
  reshape_param {
    shape {
      dim: 1
      dim: 54
      dim: 1
      dim: 4
    }
  }
}
layer {
  name: "BoxPredictor_2/ClassPredictor/Conv2D_nchw"
  type: "Convolution"
  bottom: "FeatureExtractor/MobilenetV2/layer_19_2_Conv2d_2_3x3_s2_512/Relu6"
  top: "BoxPredictor_2/ClassPredictor/Conv2D_nchw"
  convolution_param {
    num_output: 546
    bias_term: true
    group: 1
    kernel_h: 3
    kernel_w: 3
    stride_h: 1
    stride_w: 1
    pad_l: 1
    pad_r: 1
    pad_t: 1
    pad_b: 1
  }
}
layer {
  name: "BoxPredictor_2/ClassPredictor/BiasAdd/BoxPredictor_2/Reshape_1_perm"
  type: "Permute"
  bottom: "BoxPredictor_2/ClassPredictor/Conv2D_nchw"
  top: "BoxPredictor_2/ClassPredictor/BiasAdd/BoxPredictor_2/Reshape_1_perm"
  permute_param {
    order: 0
    order: 2
    order: 3
    order: 1
  }
}
layer {
  name: "BoxPredictor_2/Reshape_1"
  type: "Reshape"
  bottom: "BoxPredictor_2/ClassPredictor/BiasAdd/BoxPredictor_2/Reshape_1_perm"
  top: "BoxPredictor_2/Reshape_1"
  reshape_param {
    shape {
      dim: 1
      dim: 150
      dim: 91
    }
  }
}
layer {
  name: "BoxPredictor_2/BoxEncodingPredictor/Conv2D_nchw"
  type: "Convolution"
  bottom: "FeatureExtractor/MobilenetV2/layer_19_2_Conv2d_2_3x3_s2_512/Relu6"
  top: "BoxPredictor_2/BoxEncodingPredictor/Conv2D_nchw"
  convolution_param {
    num_output: 24
    bias_term: true
    group: 1
    kernel_h: 3
    kernel_w: 3
    stride_h: 1
    stride_w: 1
    pad_l: 1
    pad_r: 1
    pad_t: 1
    pad_b: 1
  }
}
layer {
  name: "BoxPredictor_2/BoxEncodingPredictor/BiasAdd/BoxPredictor_2/Reshape_perm"
  type: "Permute"
  bottom: "BoxPredictor_2/BoxEncodingPredictor/Conv2D_nchw"
  top: "BoxPredictor_2/BoxEncodingPredictor/BiasAdd/BoxPredictor_2/Reshape_perm"
  permute_param {
    order: 0
    order: 2
    order: 3
    order: 1
  }
}
layer {
  name: "BoxPredictor_2/Reshape"
  type: "Reshape"
  bottom: "BoxPredictor_2/BoxEncodingPredictor/BiasAdd/BoxPredictor_2/Reshape_perm"
  top: "BoxPredictor_2/Reshape"
  reshape_param {
    shape {
      dim: 1
      dim: 150
      dim: 1
      dim: 4
    }
  }
}
layer {
  name: "BoxPredictor_1/BoxEncodingPredictor/Conv2D_nchw"
  type: "Convolution"
  bottom: "FeatureExtractor/MobilenetV2/Conv_1/Relu6"
  top: "BoxPredictor_1/BoxEncodingPredictor/Conv2D_nchw"
  convolution_param {
    num_output: 24
    bias_term: true
    group: 1
    kernel_h: 3
    kernel_w: 3
    stride_h: 1
    stride_w: 1
    pad_l: 1
    pad_r: 1
    pad_t: 1
    pad_b: 1
  }
}
layer {
  name: "BoxPredictor_1/BoxEncodingPredictor/BiasAdd/BoxPredictor_1/Reshape_perm"
  type: "Permute"
  bottom: "BoxPredictor_1/BoxEncodingPredictor/Conv2D_nchw"
  top: "BoxPredictor_1/BoxEncodingPredictor/BiasAdd/BoxPredictor_1/Reshape_perm"
  permute_param {
    order: 0
    order: 2
    order: 3
    order: 1
  }
}
layer {
  name: "BoxPredictor_1/Reshape"
  type: "Reshape"
  bottom: "BoxPredictor_1/BoxEncodingPredictor/BiasAdd/BoxPredictor_1/Reshape_perm"
  top: "BoxPredictor_1/Reshape"
  reshape_param {
    shape {
      dim: 1
      dim: 600
      dim: 1
      dim: 4
    }
  }
}
layer {
  name: "concat"
  type: "Concat"
  bottom: "BoxPredictor_0/Reshape"
  bottom: "BoxPredictor_1/Reshape"
  bottom: "BoxPredictor_2/Reshape"
  bottom: "BoxPredictor_3/Reshape"
  bottom: "BoxPredictor_4/Reshape"
  bottom: "BoxPredictor_5/Reshape"
  top: "concat"
  concat_param {
    axis: 1
  }
}
layer {
  name: "BoxPredictor_1/ClassPredictor/Conv2D_nchw"
  type: "Convolution"
  bottom: "FeatureExtractor/MobilenetV2/Conv_1/Relu6"
  top: "BoxPredictor_1/ClassPredictor/Conv2D_nchw"
  convolution_param {
    num_output: 546
    bias_term: true
    group: 1
    kernel_h: 3
    kernel_w: 3
    stride_h: 1
    stride_w: 1
    pad_l: 1
    pad_r: 1
    pad_t: 1
    pad_b: 1
  }
}
layer {
  name: "BoxPredictor_1/ClassPredictor/BiasAdd/BoxPredictor_1/Reshape_1_perm"
  type: "Permute"
  bottom: "BoxPredictor_1/ClassPredictor/Conv2D_nchw"
  top: "BoxPredictor_1/ClassPredictor/BiasAdd/BoxPredictor_1/Reshape_1_perm"
  permute_param {
    order: 0
    order: 2
    order: 3
    order: 1
  }
}
layer {
  name: "BoxPredictor_1/Reshape_1"
  type: "Reshape"
  bottom: "BoxPredictor_1/ClassPredictor/BiasAdd/BoxPredictor_1/Reshape_1_perm"
  top: "BoxPredictor_1/Reshape_1"
  reshape_param {
    shape {
      dim: 1
      dim: 600
      dim: 91
    }
  }
}
layer {
  name: "concat_1"
  type: "Concat"
  bottom: "BoxPredictor_0/Reshape_1"
  bottom: "BoxPredictor_1/Reshape_1"
  bottom: "BoxPredictor_2/Reshape_1"
  bottom: "BoxPredictor_3/Reshape_1"
  bottom: "BoxPredictor_4/Reshape_1"
  bottom: "BoxPredictor_5/Reshape_1"
  top: "concat_1"
  concat_param {
    axis: 1
  }
}
layer {
  name: "mbox_loc"
  type: "Flatten"
  bottom: "concat"
  #bottom: "slice_box_concat"
  top: "mbox_loc"
  flatten_param {
    axis: 1
  }
}
layer {
  name: "mbox_conf_sigmoid"
  type: "Sigmoid"
  bottom: "concat_1"
  top: "mbox_conf_sigmoid"
}
layer {
  name: "mbox_conf"
  type: "Flatten"
  bottom: "mbox_conf_sigmoid"
  #bottom: "mbox_conf_softmax"
  top: "mbox_conf_flatten"
  flatten_param {
    axis: 1
  }
}
layer {
  name: "mbox_priorbox"
  type: "Flatten"
  bottom: "pbox"
  top: "mbox_priorbox"
  flatten_param {
    axis: 2
  }
}
layer {
  name: "detection_out"
  type: "DetectionOutput"
  bottom: "mbox_loc"
  bottom: "mbox_conf_flatten"
  bottom: "mbox_priorbox"
  top: "detection_out"
  include {
    phase: TEST
  }
  detection_output_param {
    num_classes: 91
    share_location: true
    background_label_id: 0
    nms_param {
      nms_threshold: 0.6
      top_k: 100
    }
    code_type: CENTER_SIZE
    keep_top_k: 100
    confidence_threshold: 0.3
  }
}
