name: "yolo-voc"
layer {
  name: "data"
  type: "AnnotatedData"
  top: "data"
  top: "label"
  include {
    phase: TRAIN
  }
  transform_param {
    scale: 0.003921569
    caffe_yolo: true
    resize_param {
      width: 416
      height: 416
      jitter: 0.3
    }
    distort_param {
      hue_prob: 0.1
      saturation_lower: 1.0
      saturation_upper: 1.5
      exposure_lower: 1.0
      exposure_upper: 1.5
    }
  }
  data_param {
    source: "yolo_voc_lmdb/VOC0712_trainval_lmdb"
    batch_size: 16
    backend: LMDB
    side: 13
    #prefetch: 2
  }
}
layer {
  name: "data"
  type: "AnnotatedData"
  top: "data"
  top: "label"
  include {
    phase: TEST
  }
  transform_param {
    scale: 0.003921569
    caffe_yolo: true
    resize_param {
      width: 416
      height: 416
      jitter: 0.3
    }
    distort_param {
      hue_prob: 0.1
      saturation_lower: 1.0
      saturation_upper: 1.5
      exposure_lower: 1.0
      exposure_upper: 1.5
    }
  }
  data_param {
    source: "yolo_voc_lmdb/VOC0712_test_lmdb"
    batch_size: 1
    backend: LMDB
    side: 13
  }
}
layer {
  # darknum: 0
  name: "conv1"
  type: "Convolution"
  bottom: "data" 
  top: "conv1"
  convolution_param {
    num_output: 32
    kernel_size: 3
    stride: 1
    pad: 1
    bias_term: false
    }
  }
layer {
  # darknum: 0
  name: "bn1"
  type: "BatchNorm"
  bottom: "conv1" 
  top: "bn1"
  batch_norm_param {
    #use_global_stats: false
    }
  }
layer {
  # darknum: 0
  name: "scale1"
  type: "Scale"
  bottom: "bn1" 
  top: "scale1"
  scale_param {
    bias_term: true
    }
  }
layer {
  # darknum: 0
  name: "relu1"
  type: "ReLU"
  bottom: "scale1" 
  top: "scale1"
  relu_param {
    negative_slope: 0.1
    }
  }
layer {
  # darknum: 1
  name: "pool1"
  type: "Pooling"
  bottom: "scale1" 
  top: "pool1"
  pooling_param {
    pool: MAX
    kernel_size: 2
    stride: 2
    }
  }
layer {
  # darknum: 2
  name: "conv2"
  type: "Convolution"
  bottom: "pool1" 
  top: "conv2"
  convolution_param {
    num_output: 64
    kernel_size: 3
    stride: 1
    pad: 1
    bias_term: false
    }
  }
layer {
  # darknum: 2
  name: "bn2"
  type: "BatchNorm"
  bottom: "conv2" 
  top: "bn2"
  batch_norm_param {
    #use_global_stats: false
    }
  }
layer {
  # darknum: 2
  name: "scale2"
  type: "Scale"
  bottom: "bn2" 
  top: "scale2"
  scale_param {
    bias_term: true
    }
  }
layer {
  # darknum: 2
  name: "relu2"
  type: "ReLU"
  bottom: "scale2" 
  top: "scale2"
  relu_param {
    negative_slope: 0.1
    }
  }
layer {
  # darknum: 3
  name: "pool2"
  type: "Pooling"
  bottom: "scale2" 
  top: "pool2"
  pooling_param {
    pool: MAX
    kernel_size: 2
    stride: 2
    }
  }
layer {
  # darknum: 4
  name: "conv3"
  type: "Convolution"
  bottom: "pool2" 
  top: "conv3"
  convolution_param {
    num_output: 128
    kernel_size: 3
    stride: 1
    pad: 1
    bias_term: false
    }
  }
layer {
  # darknum: 4
  name: "bn3"
  type: "BatchNorm"
  bottom: "conv3" 
  top: "bn3"
  batch_norm_param {
    #use_global_stats: false
    }
  }
layer {
  # darknum: 4
  name: "scale3"
  type: "Scale"
  bottom: "bn3" 
  top: "scale3"
  scale_param {
    bias_term: true
    }
  }
layer {
  # darknum: 4
  name: "relu3"
  type: "ReLU"
  bottom: "scale3" 
  top: "scale3"
  relu_param {
    negative_slope: 0.1
    }
  }
layer {
  # darknum: 5
  name: "conv4"
  type: "Convolution"
  bottom: "scale3" 
  top: "conv4"
  convolution_param {
    num_output: 64
    kernel_size: 1
    stride: 1
    bias_term: false
    }
  }
layer {
  # darknum: 5
  name: "bn4"
  type: "BatchNorm"
  bottom: "conv4" 
  top: "bn4"
  batch_norm_param {
    #use_global_stats: false
    }
  }
layer {
  # darknum: 5
  name: "scale4"
  type: "Scale"
  bottom: "bn4" 
  top: "scale4"
  scale_param {
    bias_term: true
    }
  }
layer {
  # darknum: 5
  name: "relu4"
  type: "ReLU"
  bottom: "scale4" 
  top: "scale4"
  relu_param {
    negative_slope: 0.1
    }
  }
layer {
  # darknum: 6
  name: "conv5"
  type: "Convolution"
  bottom: "scale4" 
  top: "conv5"
  convolution_param {
    num_output: 128
    kernel_size: 3
    stride: 1
    pad: 1
    bias_term: false
    }
  }
layer {
  # darknum: 6
  name: "bn5"
  type: "BatchNorm"
  bottom: "conv5" 
  top: "bn5"
  batch_norm_param {
    #use_global_stats: false
    }
  }
layer {
  # darknum: 6
  name: "scale5"
  type: "Scale"
  bottom: "bn5" 
  top: "scale5"
  scale_param {
    bias_term: true
    }
  }
layer {
  # darknum: 6
  name: "relu5"
  type: "ReLU"
  bottom: "scale5" 
  top: "scale5"
  relu_param {
    negative_slope: 0.1
    }
  }
layer {
  # darknum: 7
  name: "pool5"
  type: "Pooling"
  bottom: "scale5" 
  top: "pool5"
  pooling_param {
    pool: MAX
    kernel_size: 2
    stride: 2
    }
  }
layer {
  # darknum: 8
  name: "conv6"
  type: "Convolution"
  bottom: "pool5" 
  top: "conv6"
  convolution_param {
    num_output: 256
    kernel_size: 3
    stride: 1
    pad: 1
    bias_term: false
    }
  }
layer {
  # darknum: 8
  name: "bn6"
  type: "BatchNorm"
  bottom: "conv6" 
  top: "bn6"
  batch_norm_param {
    #use_global_stats: false
    }
  }
layer {
  # darknum: 8
  name: "scale6"
  type: "Scale"
  bottom: "bn6" 
  top: "scale6"
  scale_param {
    bias_term: true
    }
  }
layer {
  # darknum: 8
  name: "relu6"
  type: "ReLU"
  bottom: "scale6" 
  top: "scale6"
  relu_param {
    negative_slope: 0.1
    }
  }
layer {
  # darknum: 9
  name: "conv7"
  type: "Convolution"
  bottom: "scale6" 
  top: "conv7"
  convolution_param {
    num_output: 128
    kernel_size: 1
    stride: 1
    bias_term: false
    }
  }
layer {
  # darknum: 9
  name: "bn7"
  type: "BatchNorm"
  bottom: "conv7" 
  top: "bn7"
  batch_norm_param {
    #use_global_stats: false
    }
  }
layer {
  # darknum: 9
  name: "scale7"
  type: "Scale"
  bottom: "bn7" 
  top: "scale7"
  scale_param {
    bias_term: true
    }
  }
layer {
  # darknum: 9
  name: "relu7"
  type: "ReLU"
  bottom: "scale7" 
  top: "scale7"
  relu_param {
    negative_slope: 0.1
    }
  }
layer {
  # darknum: 10
  name: "conv8"
  type: "Convolution"
  bottom: "scale7" 
  top: "conv8"
  convolution_param {
    num_output: 256
    kernel_size: 3
    stride: 1
    pad: 1
    bias_term: false
    }
  }
layer {
  # darknum: 10
  name: "bn8"
  type: "BatchNorm"
  bottom: "conv8" 
  top: "bn8"
  batch_norm_param {
    #use_global_stats: false
    }
  }
layer {
  # darknum: 10
  name: "scale8"
  type: "Scale"
  bottom: "bn8" 
  top: "scale8"
  scale_param {
    bias_term: true
    }
  }
layer {
  # darknum: 10
  name: "relu8"
  type: "ReLU"
  bottom: "scale8" 
  top: "scale8"
  relu_param {
    negative_slope: 0.1
    }
  }
layer {
  # darknum: 11
  name: "pool8"
  type: "Pooling"
  bottom: "scale8" 
  top: "pool8"
  pooling_param {
    pool: MAX
    kernel_size: 2
    stride: 2
    }
  }
layer {
  # darknum: 12
  name: "conv9"
  type: "Convolution"
  bottom: "pool8" 
  top: "conv9"
  convolution_param {
    num_output: 512
    kernel_size: 3
    stride: 1
    pad: 1
    bias_term: false
    }
  }
layer {
  # darknum: 12
  name: "bn9"
  type: "BatchNorm"
  bottom: "conv9" 
  top: "bn9"
  batch_norm_param {
    #use_global_stats: false
    }
  }
layer {
  # darknum: 12
  name: "scale9"
  type: "Scale"
  bottom: "bn9" 
  top: "scale9"
  scale_param {
    bias_term: true
    }
  }
layer {
  # darknum: 12
  name: "relu9"
  type: "ReLU"
  bottom: "scale9" 
  top: "scale9"
  relu_param {
    negative_slope: 0.1
    }
  }
layer {
  # darknum: 13
  name: "conv10"
  type: "Convolution"
  bottom: "scale9" 
  top: "conv10"
  convolution_param {
    num_output: 256
    kernel_size: 1
    stride: 1
    bias_term: false
    }
  }
layer {
  # darknum: 13
  name: "bn10"
  type: "BatchNorm"
  bottom: "conv10" 
  top: "bn10"
  batch_norm_param {
    #use_global_stats: false
    }
  }
layer {
  # darknum: 13
  name: "scale10"
  type: "Scale"
  bottom: "bn10" 
  top: "scale10"
  scale_param {
    bias_term: true
    }
  }
layer {
  # darknum: 13
  name: "relu10"
  type: "ReLU"
  bottom: "scale10" 
  top: "scale10"
  relu_param {
    negative_slope: 0.1
    }
  }
layer {
  # darknum: 14
  name: "conv11"
  type: "Convolution"
  bottom: "scale10" 
  top: "conv11"
  convolution_param {
    num_output: 512
    kernel_size: 3
    stride: 1
    pad: 1
    bias_term: false
    }
  }
layer {
  # darknum: 14
  name: "bn11"
  type: "BatchNorm"
  bottom: "conv11" 
  top: "bn11"
  batch_norm_param {
    #use_global_stats: false
    }
  }
layer {
  # darknum: 14
  name: "scale11"
  type: "Scale"
  bottom: "bn11" 
  top: "scale11"
  scale_param {
    bias_term: true
    }
  }
layer {
  # darknum: 14
  name: "relu11"
  type: "ReLU"
  bottom: "scale11" 
  top: "scale11"
  relu_param {
    negative_slope: 0.1
    }
  }
layer {
  # darknum: 15
  name: "conv12"
  type: "Convolution"
  bottom: "scale11" 
  top: "conv12"
  convolution_param {
    num_output: 256
    kernel_size: 1
    stride: 1
    bias_term: false
    }
  }
layer {
  # darknum: 15
  name: "bn12"
  type: "BatchNorm"
  bottom: "conv12" 
  top: "bn12"
  batch_norm_param {
    #use_global_stats: false
    }
  }
layer {
  # darknum: 15
  name: "scale12"
  type: "Scale"
  bottom: "bn12" 
  top: "scale12"
  scale_param {
    bias_term: true
    }
  }
layer {
  # darknum: 15
  name: "relu12"
  type: "ReLU"
  bottom: "scale12" 
  top: "scale12"
  relu_param {
    negative_slope: 0.1
    }
  }
layer {
  # darknum: 16
  name: "conv13"
  type: "Convolution"
  bottom: "scale12" 
  top: "conv13"
  convolution_param {
    num_output: 512
    kernel_size: 3
    stride: 1
    pad: 1
    bias_term: false
    }
  }
layer {
  # darknum: 16
  name: "bn13"
  type: "BatchNorm"
  bottom: "conv13" 
  top: "bn13"
  batch_norm_param {
    #use_global_stats: false
    }
  }
layer {
  # darknum: 16
  name: "scale13"
  type: "Scale"
  bottom: "bn13" 
  top: "scale13"
  scale_param {
    bias_term: true
    }
  }
layer {
  # darknum: 16
  name: "relu13"
  type: "ReLU"
  bottom: "scale13" 
  top: "scale13"
  relu_param {
    negative_slope: 0.1
    }
  }
layer {
  # darknum: 17
  name: "pool13"
  type: "Pooling"
  bottom: "scale13" 
  top: "pool13"
  pooling_param {
    pool: MAX
    kernel_size: 2
    stride: 2
    }
  }
layer {
  # darknum: 18
  name: "conv14"
  type: "Convolution"
  bottom: "pool13" 
  top: "conv14"
  convolution_param {
    num_output: 1024
    kernel_size: 3
    stride: 1
    pad: 1
    bias_term: false
    }
  }
layer {
  # darknum: 18
  name: "bn14"
  type: "BatchNorm"
  bottom: "conv14" 
  top: "bn14"
  batch_norm_param {
    #use_global_stats: false
    }
  }
layer {
  # darknum: 18
  name: "scale14"
  type: "Scale"
  bottom: "bn14" 
  top: "scale14"
  scale_param {
    bias_term: true
    }
  }
layer {
  # darknum: 18
  name: "relu14"
  type: "ReLU"
  bottom: "scale14" 
  top: "scale14"
  relu_param {
    negative_slope: 0.1
    }
  }
layer {
  # darknum: 19
  name: "conv15"
  type: "Convolution"
  bottom: "scale14" 
  top: "conv15"
  convolution_param {
    num_output: 512
    kernel_size: 1
    stride: 1
    bias_term: false
    }
  }
layer {
  # darknum: 19
  name: "bn15"
  type: "BatchNorm"
  bottom: "conv15" 
  top: "bn15"
  batch_norm_param {
    #use_global_stats: false
    }
  }
layer {
  # darknum: 19
  name: "scale15"
  type: "Scale"
  bottom: "bn15" 
  top: "scale15"
  scale_param {
    bias_term: true
    }
  }
layer {
  # darknum: 19
  name: "relu15"
  type: "ReLU"
  bottom: "scale15" 
  top: "scale15"
  relu_param {
    negative_slope: 0.1
    }
  }
layer {
  # darknum: 20
  name: "conv16"
  type: "Convolution"
  bottom: "scale15" 
  top: "conv16"
  convolution_param {
    num_output: 1024
    kernel_size: 3
    stride: 1
    pad: 1
    bias_term: false
    }
  }
layer {
  # darknum: 20
  name: "bn16"
  type: "BatchNorm"
  bottom: "conv16" 
  top: "bn16"
  batch_norm_param {
    #use_global_stats: false
    }
  }
layer {
  # darknum: 20
  name: "scale16"
  type: "Scale"
  bottom: "bn16" 
  top: "scale16"
  scale_param {
    bias_term: true
    }
  }
layer {
  # darknum: 20
  name: "relu16"
  type: "ReLU"
  bottom: "scale16" 
  top: "scale16"
  relu_param {
    negative_slope: 0.1
    }
  }
layer {
  # darknum: 21
  name: "conv17"
  type: "Convolution"
  bottom: "scale16" 
  top: "conv17"
  convolution_param {
    num_output: 512
    kernel_size: 1
    stride: 1
    bias_term: false
    }
  }
layer {
  # darknum: 21
  name: "bn17"
  type: "BatchNorm"
  bottom: "conv17" 
  top: "bn17"
  batch_norm_param {
    #use_global_stats: false
    }
  }
layer {
  # darknum: 21
  name: "scale17"
  type: "Scale"
  bottom: "bn17" 
  top: "scale17"
  scale_param {
    bias_term: true
    }
  }
layer {
  # darknum: 21
  name: "relu17"
  type: "ReLU"
  bottom: "scale17" 
  top: "scale17"
  relu_param {
    negative_slope: 0.1
    }
  }
layer {
  # darknum: 22
  name: "conv18"
  type: "Convolution"
  bottom: "scale17" 
  top: "conv18"
  convolution_param {
    num_output: 1024
    kernel_size: 3
    stride: 1
    pad: 1
    bias_term: false
    }
  }
layer {
  # darknum: 22
  name: "bn18"
  type: "BatchNorm"
  bottom: "conv18" 
  top: "bn18"
  batch_norm_param {
    #use_global_stats: false
    }
  }
layer {
  # darknum: 22
  name: "scale18"
  type: "Scale"
  bottom: "bn18" 
  top: "scale18"
  scale_param {
    bias_term: true
    }
  }
layer {
  # darknum: 22
  name: "relu18"
  type: "ReLU"
  bottom: "scale18" 
  top: "scale18"
  relu_param {
    negative_slope: 0.1
    }
  }
layer {
  # darknum: 23
  name: "conv19"
  type: "Convolution"
  bottom: "scale18" 
  top: "conv19"
  convolution_param {
    num_output: 1024
    kernel_size: 3
    stride: 1
    pad: 1
    bias_term: false
    }
  }
layer {
  # darknum: 23
  name: "bn19"
  type: "BatchNorm"
  bottom: "conv19" 
  top: "bn19"
  batch_norm_param {
    #use_global_stats: false
    }
  }
layer {
  # darknum: 23
  name: "scale19"
  type: "Scale"
  bottom: "bn19" 
  top: "scale19"
  scale_param {
    bias_term: true
    }
  }
layer {
  # darknum: 23
  name: "relu19"
  type: "ReLU"
  bottom: "scale19" 
  top: "scale19"
  relu_param {
    negative_slope: 0.1
    }
  }
layer {
  # darknum: 24
  name: "conv20"
  type: "Convolution"
  bottom: "scale19" 
  top: "conv20"
  convolution_param {
    num_output: 1024
    kernel_size: 3
    stride: 1
    pad: 1
    bias_term: false
    }
  }
layer {
  # darknum: 24
  name: "bn20"
  type: "BatchNorm"
  bottom: "conv20" 
  top: "bn20"
  batch_norm_param {
    #use_global_stats: false
    }
  }
layer {
  # darknum: 24
  name: "scale20"
  type: "Scale"
  bottom: "bn20" 
  top: "scale20"
  scale_param {
    bias_term: true
    }
  }
layer {
  # darknum: 24
  name: "relu20"
  type: "ReLU"
  bottom: "scale20" 
  top: "scale20"
  relu_param {
    negative_slope: 0.1
    }
  }
layer {
  # darknum: 25
  name: "concat21"
  type: "Concat"
  bottom: "scale13" 
  top: "concat21"
  }
layer {
  # darknum: 26
  name: "conv22"
  type: "Convolution"
  bottom: "concat21" 
  top: "conv22"
  convolution_param {
    num_output: 64
    kernel_size: 1
    stride: 1
    bias_term: false
    }
  }
layer {
  # darknum: 26
  name: "bn22"
  type: "BatchNorm"
  bottom: "conv22" 
  top: "bn22"
  batch_norm_param {
    #use_global_stats: false
    }
  }
layer {
  # darknum: 26
  name: "scale22"
  type: "Scale"
  bottom: "bn22" 
  top: "scale22"
  scale_param {
    bias_term: true
    }
  }
layer {
  # darknum: 26
  name: "relu22"
  type: "ReLU"
  bottom: "scale22" 
  top: "scale22"
  relu_param {
    negative_slope: 0.1
    }
  }
layer {
  # darknum: 27
  name: "reorg"
  type: "Reorg"
  bottom: "scale22"
  top: "reorg"
  reorg_param {
    stride: 2
  }
}
layer {
  # darknum: 28
  name: "concat24"
  type: "Concat"
  bottom: "reorg" bottom: "scale20" 
  top: "concat24"
  }
layer {
  # darknum: 29
  name: "conv25"
  type: "Convolution"
  bottom: "concat24" 
  top: "conv25"
  convolution_param {
    num_output: 1024
    kernel_size: 3
    stride: 1
    pad: 1
    bias_term: false
    }
  }
layer {
  # darknum: 29
  name: "bn25"
  type: "BatchNorm"
  bottom: "conv25" 
  top: "bn25"
  batch_norm_param {
    #use_global_stats: false
    }
  }
layer {
  # darknum: 29
  name: "scale25"
  type: "Scale"
  bottom: "bn25" 
  top: "scale25"
  scale_param {
    bias_term: true
    }
  }
layer {
  # darknum: 29
  name: "relu25"
  type: "ReLU"
  bottom: "scale25" 
  top: "scale25"
  relu_param {
    negative_slope: 0.1
    }
  }
layer {
  # darknum: 30
  name: "conv26"
  type: "Convolution"
  bottom: "scale25" 
  top: "conv26"
  convolution_param {
    num_output: 125
    kernel_size: 1
    stride: 1
    }
  }
layer {
  name: "reg_reshape"
  type: "Reshape"
  bottom: "conv26"
  top: "regression"
  reshape_param {
    axis: 1
    shape {
      dim: 21125 # conv_reg.num_output * side * side
    }
  }
  include {
    phase: TRAIN
  }
}
layer {
  name: "YoloV2Loss"
  type: "YoloV2Loss"
  bottom: "regression"
  bottom: "label"
  top: "det_loss"
  loss_weight: 1
  yolo_v2_loss_param {

#voc
    anchors: 1.3221
    anchors: 1.73145
    anchors: 3.19275
    anchors: 4.00944
    anchors: 5.05587
    anchors: 8.09892
    anchors: 9.47112
    anchors: 4.84053
    anchors: 11.2364
    anchors: 10.0071

    side: 13
    num_classes: 20
    num_object: 5
    box_scale: 1
    class_scale: 1
    noobject_scale: 1
    object_scale: 5
    thresh: 0.6
    rescore: true
    constraint: true
  }
  include {
    phase: TRAIN
  }
}
