name: "TensorFlowToCaffe"
input: "data"
input_dim: 1
input_dim: 3
input_dim: 299
input_dim: 299
layer {
  name: "InceptionResnetV2_InceptionResnetV2_Conv2d_1a_3x3"
  type: "Convolution"
  bottom: "data"
  top: "InceptionResnetV2_InceptionResnetV2_Conv2d_1a_3x3"
  convolution_param {
    num_output: 32
    bias_term: false
    group: 1
    pad_h: 0
    pad_w: 0
    kernel_h: 3
    kernel_w: 3
    stride_h: 2
    stride_w: 2
  }
}
layer {
  name: "InceptionResnetV2_InceptionResnetV2_Conv2d_1a_3x3_bn"
  type: "BatchNorm"
  bottom: "InceptionResnetV2_InceptionResnetV2_Conv2d_1a_3x3"
  top: "InceptionResnetV2_InceptionResnetV2_Conv2d_1a_3x3_bn"
  batch_norm_param {
    use_global_stats: true
    eps: 0.0010000000475
  }
}
layer {
  name: "InceptionResnetV2_InceptionResnetV2_Conv2d_1a_3x3_scale"
  type: "Scale"
  bottom: "InceptionResnetV2_InceptionResnetV2_Conv2d_1a_3x3_bn"
  top: "InceptionResnetV2_InceptionResnetV2_Conv2d_1a_3x3_scale"
  scale_param {
    bias_term: true
  }
}
layer {
  name: "InceptionResnetV2_InceptionResnetV2_Conv2d_1a_3x3_r"
  type: "ReLU"
  bottom: "InceptionResnetV2_InceptionResnetV2_Conv2d_1a_3x3_scale"
  top: "InceptionResnetV2_InceptionResnetV2_Conv2d_1a_3x3_r"
}
layer {
  name: "InceptionResnetV2_InceptionResnetV2_Conv2d_2a_3x3"
  type: "Convolution"
  bottom: "InceptionResnetV2_InceptionResnetV2_Conv2d_1a_3x3_r"
  top: "InceptionResnetV2_InceptionResnetV2_Conv2d_2a_3x3"
  convolution_param {
    num_output: 32
    bias_term: false
    group: 1
    pad_h: 0
    pad_w: 0
    kernel_h: 3
    kernel_w: 3
    stride_h: 1
    stride_w: 1
  }
}
layer {
  name: "InceptionResnetV2_InceptionResnetV2_Conv2d_2a_3x3_bn"
  type: "BatchNorm"
  bottom: "InceptionResnetV2_InceptionResnetV2_Conv2d_2a_3x3"
  top: "InceptionResnetV2_InceptionResnetV2_Conv2d_2a_3x3_bn"
  batch_norm_param {
    use_global_stats: true
    eps: 0.0010000000475
  }
}
layer {
  name: "InceptionResnetV2_InceptionResnetV2_Conv2d_2a_3x3_scale"
  type: "Scale"
  bottom: "InceptionResnetV2_InceptionResnetV2_Conv2d_2a_3x3_bn"
  top: "InceptionResnetV2_InceptionResnetV2_Conv2d_2a_3x3_scale"
  scale_param {
    bias_term: true
  }
}
layer {
  name: "InceptionResnetV2_InceptionResnetV2_Conv2d_2a_3x3_r"
  type: "ReLU"
  bottom: "InceptionResnetV2_InceptionResnetV2_Conv2d_2a_3x3_scale"
  top: "InceptionResnetV2_InceptionResnetV2_Conv2d_2a_3x3_r"
}
layer {
  name: "InceptionResnetV2_InceptionResnetV2_Conv2d_2b_3x3"
  type: "Convolution"
  bottom: "InceptionResnetV2_InceptionResnetV2_Conv2d_2a_3x3_r"
  top: "InceptionResnetV2_InceptionResnetV2_Conv2d_2b_3x3"
  convolution_param {
    num_output: 64
    bias_term: false
    group: 1
    pad_h: 1
    pad_w: 1
    kernel_h: 3
    kernel_w: 3
    stride_h: 1
    stride_w: 1
  }
}
layer {
  name: "InceptionResnetV2_InceptionResnetV2_Conv2d_2b_3x3_bn"
  type: "BatchNorm"
  bottom: "InceptionResnetV2_InceptionResnetV2_Conv2d_2b_3x3"
  top: "InceptionResnetV2_InceptionResnetV2_Conv2d_2b_3x3_bn"
  batch_norm_param {
    use_global_stats: true
    eps: 0.0010000000475
  }
}
layer {
  name: "InceptionResnetV2_InceptionResnetV2_Conv2d_2b_3x3_scale"
  type: "Scale"
  bottom: "InceptionResnetV2_InceptionResnetV2_Conv2d_2b_3x3_bn"
  top: "InceptionResnetV2_InceptionResnetV2_Conv2d_2b_3x3_scale"
  scale_param {
    bias_term: true
  }
}
layer {
  name: "InceptionResnetV2_InceptionResnetV2_Conv2d_2b_3x3_r"
  type: "ReLU"
  bottom: "InceptionResnetV2_InceptionResnetV2_Conv2d_2b_3x3_scale"
  top: "InceptionResnetV2_InceptionResnetV2_Conv2d_2b_3x3_r"
}
layer {
  name: "InceptionResnetV2_InceptionResnetV2_MaxPool_3a_3x3_MaxPool"
  type: "Pooling"
  bottom: "InceptionResnetV2_InceptionResnetV2_Conv2d_2b_3x3_r"
  top: "InceptionResnetV2_InceptionResnetV2_MaxPool_3a_3x3_MaxPool"
  pooling_param {
    pool: MAX
    kernel_h: 3
    kernel_w: 3
    stride_h: 2
    stride_w: 2
    pad_h: 0
    pad_w: 0
  }
}
layer {
  name: "InceptionResnetV2_InceptionResnetV2_Conv2d_3b_1x1"
  type: "Convolution"
  bottom: "InceptionResnetV2_InceptionResnetV2_MaxPool_3a_3x3_MaxPool"
  top: "InceptionResnetV2_InceptionResnetV2_Conv2d_3b_1x1"
  convolution_param {
    num_output: 80
    bias_term: false
    group: 1
    pad_h: 0
    pad_w: 0
    kernel_h: 1
    kernel_w: 1
    stride_h: 1
    stride_w: 1
  }
}
layer {
  name: "InceptionResnetV2_InceptionResnetV2_Conv2d_3b_1x1_bn"
  type: "BatchNorm"
  bottom: "InceptionResnetV2_InceptionResnetV2_Conv2d_3b_1x1"
  top: "InceptionResnetV2_InceptionResnetV2_Conv2d_3b_1x1_bn"
  batch_norm_param {
    use_global_stats: true
    eps: 0.0010000000475
  }
}
layer {
  name: "InceptionResnetV2_InceptionResnetV2_Conv2d_3b_1x1_scale"
  type: "Scale"
  bottom: "InceptionResnetV2_InceptionResnetV2_Conv2d_3b_1x1_bn"
  top: "InceptionResnetV2_InceptionResnetV2_Conv2d_3b_1x1_scale"
  scale_param {
    bias_term: true
  }
}
layer {
  name: "InceptionResnetV2_InceptionResnetV2_Conv2d_3b_1x1_r"
  type: "ReLU"
  bottom: "InceptionResnetV2_InceptionResnetV2_Conv2d_3b_1x1_scale"
  top: "InceptionResnetV2_InceptionResnetV2_Conv2d_3b_1x1_r"
}
layer {
  name: "InceptionResnetV2_InceptionResnetV2_Conv2d_4a_3x3"
  type: "Convolution"
  bottom: "InceptionResnetV2_InceptionResnetV2_Conv2d_3b_1x1_r"
  top: "InceptionResnetV2_InceptionResnetV2_Conv2d_4a_3x3"
  convolution_param {
    num_output: 192
    bias_term: false
    group: 1
    pad_h: 0
    pad_w: 0
    kernel_h: 3
    kernel_w: 3
    stride_h: 1
    stride_w: 1
  }
}
layer {
  name: "InceptionResnetV2_InceptionResnetV2_Conv2d_4a_3x3_bn"
  type: "BatchNorm"
  bottom: "InceptionResnetV2_InceptionResnetV2_Conv2d_4a_3x3"
  top: "InceptionResnetV2_InceptionResnetV2_Conv2d_4a_3x3_bn"
  batch_norm_param {
    use_global_stats: true
    eps: 0.0010000000475
  }
}
layer {
  name: "InceptionResnetV2_InceptionResnetV2_Conv2d_4a_3x3_scale"
  type: "Scale"
  bottom: "InceptionResnetV2_InceptionResnetV2_Conv2d_4a_3x3_bn"
  top: "InceptionResnetV2_InceptionResnetV2_Conv2d_4a_3x3_scale"
  scale_param {
    bias_term: true
  }
}
layer {
  name: "InceptionResnetV2_InceptionResnetV2_Conv2d_4a_3x3_r"
  type: "ReLU"
  bottom: "InceptionResnetV2_InceptionResnetV2_Conv2d_4a_3x3_scale"
  top: "InceptionResnetV2_InceptionResnetV2_Conv2d_4a_3x3_r"
}
layer {
  name: "InceptionResnetV2_InceptionResnetV2_MaxPool_5a_3x3_MaxPool"
  type: "Pooling"
  bottom: "InceptionResnetV2_InceptionResnetV2_Conv2d_4a_3x3_r"
  top: "InceptionResnetV2_InceptionResnetV2_MaxPool_5a_3x3_MaxPool"
  pooling_param {
    pool: MAX
    kernel_h: 3
    kernel_w: 3
    stride_h: 2
    stride_w: 2
    pad_h: 0
    pad_w: 0
  }
}
layer {
  name: "InceptionResnetV2_InceptionResnetV2_Mixed_5b_Branch_0_Conv2d_1x1"
  type: "Convolution"
  bottom: "InceptionResnetV2_InceptionResnetV2_MaxPool_5a_3x3_MaxPool"
  top: "InceptionResnetV2_InceptionResnetV2_Mixed_5b_Branch_0_Conv2d_1x1"
  convolution_param {
    num_output: 96
    bias_term: false
    group: 1
    pad_h: 0
    pad_w: 0
    kernel_h: 1
    kernel_w: 1
    stride_h: 1
    stride_w: 1
  }
}
layer {
  name: "InceptionResnetV2_InceptionResnetV2_Mixed_5b_Branch_0_Conv2d_1x1_bn"
  type: "BatchNorm"
  bottom: "InceptionResnetV2_InceptionResnetV2_Mixed_5b_Branch_0_Conv2d_1x1"
  top: "InceptionResnetV2_InceptionResnetV2_Mixed_5b_Branch_0_Conv2d_1x1_bn"
  batch_norm_param {
    use_global_stats: true
    eps: 0.0010000000475
  }
}
layer {
  name: "InceptionResnetV2_InceptionResnetV2_Mixed_5b_Branch_0_Conv2d_1x1_scale"
  type: "Scale"
  bottom: "InceptionResnetV2_InceptionResnetV2_Mixed_5b_Branch_0_Conv2d_1x1_bn"
  top: "InceptionResnetV2_InceptionResnetV2_Mixed_5b_Branch_0_Conv2d_1x1_scale"
  scale_param {
    bias_term: true
  }
}
layer {
  name: "InceptionResnetV2_InceptionResnetV2_Mixed_5b_Branch_0_Conv2d_1x1_r"
  type: "ReLU"
  bottom: "InceptionResnetV2_InceptionResnetV2_Mixed_5b_Branch_0_Conv2d_1x1_scale"
  top: "InceptionResnetV2_InceptionResnetV2_Mixed_5b_Branch_0_Conv2d_1x1_r"
}
layer {
  name: "InceptionResnetV2_InceptionResnetV2_Mixed_5b_Branch_1_Conv2d_0a_1x1"
  type: "Convolution"
  bottom: "InceptionResnetV2_InceptionResnetV2_MaxPool_5a_3x3_MaxPool"
  top: "InceptionResnetV2_InceptionResnetV2_Mixed_5b_Branch_1_Conv2d_0a_1x1"
  convolution_param {
    num_output: 48
    bias_term: false
    group: 1
    pad_h: 0
    pad_w: 0
    kernel_h: 1
    kernel_w: 1
    stride_h: 1
    stride_w: 1
  }
}
layer {
  name: "InceptionResnetV2_InceptionResnetV2_Mixed_5b_Branch_1_Conv2d_0a_1x1_bn"
  type: "BatchNorm"
  bottom: "InceptionResnetV2_InceptionResnetV2_Mixed_5b_Branch_1_Conv2d_0a_1x1"
  top: "InceptionResnetV2_InceptionResnetV2_Mixed_5b_Branch_1_Conv2d_0a_1x1_bn"
  batch_norm_param {
    use_global_stats: true
    eps: 0.0010000000475
  }
}
layer {
  name: "InceptionResnetV2_InceptionResnetV2_Mixed_5b_Branch_1_Conv2d_0a_1x1_scale"
  type: "Scale"
  bottom: "InceptionResnetV2_InceptionResnetV2_Mixed_5b_Branch_1_Conv2d_0a_1x1_bn"
  top: "InceptionResnetV2_InceptionResnetV2_Mixed_5b_Branch_1_Conv2d_0a_1x1_scale"
  scale_param {
    bias_term: true
  }
}
layer {
  name: "InceptionResnetV2_InceptionResnetV2_Mixed_5b_Branch_1_Conv2d_0a_1x1_r"
  type: "ReLU"
  bottom: "InceptionResnetV2_InceptionResnetV2_Mixed_5b_Branch_1_Conv2d_0a_1x1_scale"
  top: "InceptionResnetV2_InceptionResnetV2_Mixed_5b_Branch_1_Conv2d_0a_1x1_r"
}
layer {
  name: "InceptionResnetV2_InceptionResnetV2_Mixed_5b_Branch_1_Conv2d_0b_5x5"
  type: "Convolution"
  bottom: "InceptionResnetV2_InceptionResnetV2_Mixed_5b_Branch_1_Conv2d_0a_1x1_r"
  top: "InceptionResnetV2_InceptionResnetV2_Mixed_5b_Branch_1_Conv2d_0b_5x5"
  convolution_param {
    num_output: 64
    bias_term: false
    group: 1
    pad_h: 2
    pad_w: 2
    kernel_h: 5
    kernel_w: 5
    stride_h: 1
    stride_w: 1
  }
}
layer {
  name: "InceptionResnetV2_InceptionResnetV2_Mixed_5b_Branch_1_Conv2d_0b_5x5_bn"
  type: "BatchNorm"
  bottom: "InceptionResnetV2_InceptionResnetV2_Mixed_5b_Branch_1_Conv2d_0b_5x5"
  top: "InceptionResnetV2_InceptionResnetV2_Mixed_5b_Branch_1_Conv2d_0b_5x5_bn"
  batch_norm_param {
    use_global_stats: true
    eps: 0.0010000000475
  }
}
layer {
  name: "InceptionResnetV2_InceptionResnetV2_Mixed_5b_Branch_1_Conv2d_0b_5x5_scale"
  type: "Scale"
  bottom: "InceptionResnetV2_InceptionResnetV2_Mixed_5b_Branch_1_Conv2d_0b_5x5_bn"
  top: "InceptionResnetV2_InceptionResnetV2_Mixed_5b_Branch_1_Conv2d_0b_5x5_scale"
  scale_param {
    bias_term: true
  }
}
layer {
  name: "InceptionResnetV2_InceptionResnetV2_Mixed_5b_Branch_1_Conv2d_0b_5x5_r"
  type: "ReLU"
  bottom: "InceptionResnetV2_InceptionResnetV2_Mixed_5b_Branch_1_Conv2d_0b_5x5_scale"
  top: "InceptionResnetV2_InceptionResnetV2_Mixed_5b_Branch_1_Conv2d_0b_5x5_r"
}
layer {
  name: "InceptionResnetV2_InceptionResnetV2_Mixed_5b_Branch_2_Conv2d_0a_1x1"
  type: "Convolution"
  bottom: "InceptionResnetV2_InceptionResnetV2_MaxPool_5a_3x3_MaxPool"
  top: "InceptionResnetV2_InceptionResnetV2_Mixed_5b_Branch_2_Conv2d_0a_1x1"
  convolution_param {
    num_output: 64
    bias_term: false
    group: 1
    pad_h: 0
    pad_w: 0
    kernel_h: 1
    kernel_w: 1
    stride_h: 1
    stride_w: 1
  }
}
layer {
  name: "InceptionResnetV2_InceptionResnetV2_Mixed_5b_Branch_2_Conv2d_0a_1x1_bn"
  type: "BatchNorm"
  bottom: "InceptionResnetV2_InceptionResnetV2_Mixed_5b_Branch_2_Conv2d_0a_1x1"
  top: "InceptionResnetV2_InceptionResnetV2_Mixed_5b_Branch_2_Conv2d_0a_1x1_bn"
  batch_norm_param {
    use_global_stats: true
    eps: 0.0010000000475
  }
}
layer {
  name: "InceptionResnetV2_InceptionResnetV2_Mixed_5b_Branch_2_Conv2d_0a_1x1_scale"
  type: "Scale"
  bottom: "InceptionResnetV2_InceptionResnetV2_Mixed_5b_Branch_2_Conv2d_0a_1x1_bn"
  top: "InceptionResnetV2_InceptionResnetV2_Mixed_5b_Branch_2_Conv2d_0a_1x1_scale"
  scale_param {
    bias_term: true
  }
}
layer {
  name: "InceptionResnetV2_InceptionResnetV2_Mixed_5b_Branch_2_Conv2d_0a_1x1_r"
  type: "ReLU"
  bottom: "InceptionResnetV2_InceptionResnetV2_Mixed_5b_Branch_2_Conv2d_0a_1x1_scale"
  top: "InceptionResnetV2_InceptionResnetV2_Mixed_5b_Branch_2_Conv2d_0a_1x1_r"
}
layer {
  name: "InceptionResnetV2_InceptionResnetV2_Mixed_5b_Branch_2_Conv2d_0b_3x3"
  type: "Convolution"
  bottom: "InceptionResnetV2_InceptionResnetV2_Mixed_5b_Branch_2_Conv2d_0a_1x1_r"
  top: "InceptionResnetV2_InceptionResnetV2_Mixed_5b_Branch_2_Conv2d_0b_3x3"
  convolution_param {
    num_output: 96
    bias_term: false
    group: 1
    pad_h: 1
    pad_w: 1
    kernel_h: 3
    kernel_w: 3
    stride_h: 1
    stride_w: 1
  }
}
layer {
  name: "InceptionResnetV2_InceptionResnetV2_Mixed_5b_Branch_2_Conv2d_0b_3x3_bn"
  type: "BatchNorm"
  bottom: "InceptionResnetV2_InceptionResnetV2_Mixed_5b_Branch_2_Conv2d_0b_3x3"
  top: "InceptionResnetV2_InceptionResnetV2_Mixed_5b_Branch_2_Conv2d_0b_3x3_bn"
  batch_norm_param {
    use_global_stats: true
    eps: 0.0010000000475
  }
}
layer {
  name: "InceptionResnetV2_InceptionResnetV2_Mixed_5b_Branch_2_Conv2d_0b_3x3_scale"
  type: "Scale"
  bottom: "InceptionResnetV2_InceptionResnetV2_Mixed_5b_Branch_2_Conv2d_0b_3x3_bn"
  top: "InceptionResnetV2_InceptionResnetV2_Mixed_5b_Branch_2_Conv2d_0b_3x3_scale"
  scale_param {
    bias_term: true
  }
}
layer {
  name: "InceptionResnetV2_InceptionResnetV2_Mixed_5b_Branch_2_Conv2d_0b_3x3_r"
  type: "ReLU"
  bottom: "InceptionResnetV2_InceptionResnetV2_Mixed_5b_Branch_2_Conv2d_0b_3x3_scale"
  top: "InceptionResnetV2_InceptionResnetV2_Mixed_5b_Branch_2_Conv2d_0b_3x3_r"
}
layer {
  name: "InceptionResnetV2_InceptionResnetV2_Mixed_5b_Branch_2_Conv2d_0c_3x3"
  type: "Convolution"
  bottom: "InceptionResnetV2_InceptionResnetV2_Mixed_5b_Branch_2_Conv2d_0b_3x3_r"
  top: "InceptionResnetV2_InceptionResnetV2_Mixed_5b_Branch_2_Conv2d_0c_3x3"
  convolution_param {
    num_output: 96
    bias_term: false
    group: 1
    pad_h: 1
    pad_w: 1
    kernel_h: 3
    kernel_w: 3
    stride_h: 1
    stride_w: 1
  }
}
layer {
  name: "InceptionResnetV2_InceptionResnetV2_Mixed_5b_Branch_2_Conv2d_0c_3x3_bn"
  type: "BatchNorm"
  bottom: "InceptionResnetV2_InceptionResnetV2_Mixed_5b_Branch_2_Conv2d_0c_3x3"
  top: "InceptionResnetV2_InceptionResnetV2_Mixed_5b_Branch_2_Conv2d_0c_3x3_bn"
  batch_norm_param {
    use_global_stats: true
    eps: 0.0010000000475
  }
}
layer {
  name: "InceptionResnetV2_InceptionResnetV2_Mixed_5b_Branch_2_Conv2d_0c_3x3_scale"
  type: "Scale"
  bottom: "InceptionResnetV2_InceptionResnetV2_Mixed_5b_Branch_2_Conv2d_0c_3x3_bn"
  top: "InceptionResnetV2_InceptionResnetV2_Mixed_5b_Branch_2_Conv2d_0c_3x3_scale"
  scale_param {
    bias_term: true
  }
}
layer {
  name: "InceptionResnetV2_InceptionResnetV2_Mixed_5b_Branch_2_Conv2d_0c_3x3_r"
  type: "ReLU"
  bottom: "InceptionResnetV2_InceptionResnetV2_Mixed_5b_Branch_2_Conv2d_0c_3x3_scale"
  top: "InceptionResnetV2_InceptionResnetV2_Mixed_5b_Branch_2_Conv2d_0c_3x3_r"
}
layer {
  name: "InceptionResnetV2_InceptionResnetV2_Mixed_5b_Branch_3_AvgPool_0a_3x3_AvgPool"
  type: "Pooling"
  bottom: "InceptionResnetV2_InceptionResnetV2_MaxPool_5a_3x3_MaxPool"
  top: "InceptionResnetV2_InceptionResnetV2_Mixed_5b_Branch_3_AvgPool_0a_3x3_AvgPool"
  pooling_param {
    pool: AVE_TF
    kernel_h: 3
    kernel_w: 3
    stride_h: 1
    stride_w: 1
    pad_h: 1
    pad_w: 1
  }
}
layer {
  name: "InceptionResnetV2_InceptionResnetV2_Mixed_5b_Branch_3_Conv2d_0b_1x1"
  type: "Convolution"
  bottom: "InceptionResnetV2_InceptionResnetV2_Mixed_5b_Branch_3_AvgPool_0a_3x3_AvgPool"
  top: "InceptionResnetV2_InceptionResnetV2_Mixed_5b_Branch_3_Conv2d_0b_1x1"
  convolution_param {
    num_output: 64
    bias_term: false
    group: 1
    pad_h: 0
    pad_w: 0
    kernel_h: 1
    kernel_w: 1
    stride_h: 1
    stride_w: 1
  }
}
layer {
  name: "InceptionResnetV2_InceptionResnetV2_Mixed_5b_Branch_3_Conv2d_0b_1x1_bn"
  type: "BatchNorm"
  bottom: "InceptionResnetV2_InceptionResnetV2_Mixed_5b_Branch_3_Conv2d_0b_1x1"
  top: "InceptionResnetV2_InceptionResnetV2_Mixed_5b_Branch_3_Conv2d_0b_1x1_bn"
  batch_norm_param {
    use_global_stats: true
    eps: 0.0010000000475
  }
}
layer {
  name: "InceptionResnetV2_InceptionResnetV2_Mixed_5b_Branch_3_Conv2d_0b_1x1_scale"
  type: "Scale"
  bottom: "InceptionResnetV2_InceptionResnetV2_Mixed_5b_Branch_3_Conv2d_0b_1x1_bn"
  top: "InceptionResnetV2_InceptionResnetV2_Mixed_5b_Branch_3_Conv2d_0b_1x1_scale"
  scale_param {
    bias_term: true
  }
}
layer {
  name: "InceptionResnetV2_InceptionResnetV2_Mixed_5b_Branch_3_Conv2d_0b_1x1_r"
  type: "ReLU"
  bottom: "InceptionResnetV2_InceptionResnetV2_Mixed_5b_Branch_3_Conv2d_0b_1x1_scale"
  top: "InceptionResnetV2_InceptionResnetV2_Mixed_5b_Branch_3_Conv2d_0b_1x1_r"
}
layer {
  name: "InceptionResnetV2_InceptionResnetV2_Mixed_5b_concat"
  type: "Concat"
  bottom: "InceptionResnetV2_InceptionResnetV2_Mixed_5b_Branch_0_Conv2d_1x1_r"
  bottom: "InceptionResnetV2_InceptionResnetV2_Mixed_5b_Branch_1_Conv2d_0b_5x5_r"
  bottom: "InceptionResnetV2_InceptionResnetV2_Mixed_5b_Branch_2_Conv2d_0c_3x3_r"
  bottom: "InceptionResnetV2_InceptionResnetV2_Mixed_5b_Branch_3_Conv2d_0b_1x1_r"
  top: "InceptionResnetV2_InceptionResnetV2_Mixed_5b_concat"
  concat_param {
    axis: 1
  }
}
layer {
  name: "InceptionResnetV2_InceptionResnetV2_Repeat_block35_1_Branch_0_Conv2d_1x1"
  type: "Convolution"
  bottom: "InceptionResnetV2_InceptionResnetV2_Mixed_5b_concat"
  top: "InceptionResnetV2_InceptionResnetV2_Repeat_block35_1_Branch_0_Conv2d_1x1"
  convolution_param {
    num_output: 32
    bias_term: false
    group: 1
    pad_h: 0
    pad_w: 0
    kernel_h: 1
    kernel_w: 1
    stride_h: 1
    stride_w: 1
  }
}
layer {
  name: "InceptionResnetV2_InceptionResnetV2_Repeat_block35_1_Branch_0_Conv2d_1x1_bn"
  type: "BatchNorm"
  bottom: "InceptionResnetV2_InceptionResnetV2_Repeat_block35_1_Branch_0_Conv2d_1x1"
  top: "InceptionResnetV2_InceptionResnetV2_Repeat_block35_1_Branch_0_Conv2d_1x1_bn"
  batch_norm_param {
    use_global_stats: true
    eps: 0.0010000000475
  }
}
layer {
  name: "InceptionResnetV2_InceptionResnetV2_Repeat_block35_1_Branch_0_Conv2d_1x1_scale"
  type: "Scale"
  bottom: "InceptionResnetV2_InceptionResnetV2_Repeat_block35_1_Branch_0_Conv2d_1x1_bn"
  top: "InceptionResnetV2_InceptionResnetV2_Repeat_block35_1_Branch_0_Conv2d_1x1_scale"
  scale_param {
    bias_term: true
  }
}
layer {
  name: "InceptionResnetV2_InceptionResnetV2_Repeat_block35_1_Branch_0_Conv2d_1x1_r"
  type: "ReLU"
  bottom: "InceptionResnetV2_InceptionResnetV2_Repeat_block35_1_Branch_0_Conv2d_1x1_scale"
  top: "InceptionResnetV2_InceptionResnetV2_Repeat_block35_1_Branch_0_Conv2d_1x1_r"
}
layer {
  name: "InceptionResnetV2_InceptionResnetV2_Repeat_block35_1_Branch_1_Conv2d_0a_1x1"
  type: "Convolution"
  bottom: "InceptionResnetV2_InceptionResnetV2_Mixed_5b_concat"
  top: "InceptionResnetV2_InceptionResnetV2_Repeat_block35_1_Branch_1_Conv2d_0a_1x1"
  convolution_param {
    num_output: 32
    bias_term: false
    group: 1
    pad_h: 0
    pad_w: 0
    kernel_h: 1
    kernel_w: 1
    stride_h: 1
    stride_w: 1
  }
}
layer {
  name: "InceptionResnetV2_InceptionResnetV2_Repeat_block35_1_Branch_1_Conv2d_0a_1x1_bn"
  type: "BatchNorm"
  bottom: "InceptionResnetV2_InceptionResnetV2_Repeat_block35_1_Branch_1_Conv2d_0a_1x1"
  top: "InceptionResnetV2_InceptionResnetV2_Repeat_block35_1_Branch_1_Conv2d_0a_1x1_bn"
  batch_norm_param {
    use_global_stats: true
    eps: 0.0010000000475
  }
}
layer {
  name: "InceptionResnetV2_InceptionResnetV2_Repeat_block35_1_Branch_1_Conv2d_0a_1x1_scale"
  type: "Scale"
  bottom: "InceptionResnetV2_InceptionResnetV2_Repeat_block35_1_Branch_1_Conv2d_0a_1x1_bn"
  top: "InceptionResnetV2_InceptionResnetV2_Repeat_block35_1_Branch_1_Conv2d_0a_1x1_scale"
  scale_param {
    bias_term: true
  }
}
layer {
  name: "InceptionResnetV2_InceptionResnetV2_Repeat_block35_1_Branch_1_Conv2d_0a_1x1_r"
  type: "ReLU"
  bottom: "InceptionResnetV2_InceptionResnetV2_Repeat_block35_1_Branch_1_Conv2d_0a_1x1_scale"
  top: "InceptionResnetV2_InceptionResnetV2_Repeat_block35_1_Branch_1_Conv2d_0a_1x1_r"
}
layer {
  name: "InceptionResnetV2_InceptionResnetV2_Repeat_block35_1_Branch_1_Conv2d_0b_3x3"
  type: "Convolution"
  bottom: "InceptionResnetV2_InceptionResnetV2_Repeat_block35_1_Branch_1_Conv2d_0a_1x1_r"
  top: "InceptionResnetV2_InceptionResnetV2_Repeat_block35_1_Branch_1_Conv2d_0b_3x3"
  convolution_param {
    num_output: 32
    bias_term: false
    group: 1
    pad_h: 1
    pad_w: 1
    kernel_h: 3
    kernel_w: 3
    stride_h: 1
    stride_w: 1
  }
}
layer {
  name: "InceptionResnetV2_InceptionResnetV2_Repeat_block35_1_Branch_1_Conv2d_0b_3x3_bn"
  type: "BatchNorm"
  bottom: "InceptionResnetV2_InceptionResnetV2_Repeat_block35_1_Branch_1_Conv2d_0b_3x3"
  top: "InceptionResnetV2_InceptionResnetV2_Repeat_block35_1_Branch_1_Conv2d_0b_3x3_bn"
  batch_norm_param {
    use_global_stats: true
    eps: 0.0010000000475
  }
}
layer {
  name: "InceptionResnetV2_InceptionResnetV2_Repeat_block35_1_Branch_1_Conv2d_0b_3x3_scale"
  type: "Scale"
  bottom: "InceptionResnetV2_InceptionResnetV2_Repeat_block35_1_Branch_1_Conv2d_0b_3x3_bn"
  top: "InceptionResnetV2_InceptionResnetV2_Repeat_block35_1_Branch_1_Conv2d_0b_3x3_scale"
  scale_param {
    bias_term: true
  }
}
layer {
  name: "InceptionResnetV2_InceptionResnetV2_Repeat_block35_1_Branch_1_Conv2d_0b_3x3_r"
  type: "ReLU"
  bottom: "InceptionResnetV2_InceptionResnetV2_Repeat_block35_1_Branch_1_Conv2d_0b_3x3_scale"
  top: "InceptionResnetV2_InceptionResnetV2_Repeat_block35_1_Branch_1_Conv2d_0b_3x3_r"
}
layer {
  name: "InceptionResnetV2_InceptionResnetV2_Repeat_block35_1_Branch_2_Conv2d_0a_1x1"
  type: "Convolution"
  bottom: "InceptionResnetV2_InceptionResnetV2_Mixed_5b_concat"
  top: "InceptionResnetV2_InceptionResnetV2_Repeat_block35_1_Branch_2_Conv2d_0a_1x1"
  convolution_param {
    num_output: 32
    bias_term: false
    group: 1
    pad_h: 0
    pad_w: 0
    kernel_h: 1
    kernel_w: 1
    stride_h: 1
    stride_w: 1
  }
}
layer {
  name: "InceptionResnetV2_InceptionResnetV2_Repeat_block35_1_Branch_2_Conv2d_0a_1x1_bn"
  type: "BatchNorm"
  bottom: "InceptionResnetV2_InceptionResnetV2_Repeat_block35_1_Branch_2_Conv2d_0a_1x1"
  top: "InceptionResnetV2_InceptionResnetV2_Repeat_block35_1_Branch_2_Conv2d_0a_1x1_bn"
  batch_norm_param {
    use_global_stats: true
    eps: 0.0010000000475
  }
}
layer {
  name: "InceptionResnetV2_InceptionResnetV2_Repeat_block35_1_Branch_2_Conv2d_0a_1x1_scale"
  type: "Scale"
  bottom: "InceptionResnetV2_InceptionResnetV2_Repeat_block35_1_Branch_2_Conv2d_0a_1x1_bn"
  top: "InceptionResnetV2_InceptionResnetV2_Repeat_block35_1_Branch_2_Conv2d_0a_1x1_scale"
  scale_param {
    bias_term: true
  }
}
layer {
  name: "InceptionResnetV2_InceptionResnetV2_Repeat_block35_1_Branch_2_Conv2d_0a_1x1_r"
  type: "ReLU"
  bottom: "InceptionResnetV2_InceptionResnetV2_Repeat_block35_1_Branch_2_Conv2d_0a_1x1_scale"
  top: "InceptionResnetV2_InceptionResnetV2_Repeat_block35_1_Branch_2_Conv2d_0a_1x1_r"
}
layer {
  name: "InceptionResnetV2_InceptionResnetV2_Repeat_block35_1_Branch_2_Conv2d_0b_3x3"
  type: "Convolution"
  bottom: "InceptionResnetV2_InceptionResnetV2_Repeat_block35_1_Branch_2_Conv2d_0a_1x1_r"
  top: "InceptionResnetV2_InceptionResnetV2_Repeat_block35_1_Branch_2_Conv2d_0b_3x3"
  convolution_param {
    num_output: 48
    bias_term: false
    group: 1
    pad_h: 1
    pad_w: 1
    kernel_h: 3
    kernel_w: 3
    stride_h: 1
    stride_w: 1
  }
}
layer {
  name: "InceptionResnetV2_InceptionResnetV2_Repeat_block35_1_Branch_2_Conv2d_0b_3x3_bn"
  type: "BatchNorm"
  bottom: "InceptionResnetV2_InceptionResnetV2_Repeat_block35_1_Branch_2_Conv2d_0b_3x3"
  top: "InceptionResnetV2_InceptionResnetV2_Repeat_block35_1_Branch_2_Conv2d_0b_3x3_bn"
  batch_norm_param {
    use_global_stats: true
    eps: 0.0010000000475
  }
}
layer {
  name: "InceptionResnetV2_InceptionResnetV2_Repeat_block35_1_Branch_2_Conv2d_0b_3x3_scale"
  type: "Scale"
  bottom: "InceptionResnetV2_InceptionResnetV2_Repeat_block35_1_Branch_2_Conv2d_0b_3x3_bn"
  top: "InceptionResnetV2_InceptionResnetV2_Repeat_block35_1_Branch_2_Conv2d_0b_3x3_scale"
  scale_param {
    bias_term: true
  }
}
layer {
  name: "InceptionResnetV2_InceptionResnetV2_Repeat_block35_1_Branch_2_Conv2d_0b_3x3_r"
  type: "ReLU"
  bottom: "InceptionResnetV2_InceptionResnetV2_Repeat_block35_1_Branch_2_Conv2d_0b_3x3_scale"
  top: "InceptionResnetV2_InceptionResnetV2_Repeat_block35_1_Branch_2_Conv2d_0b_3x3_r"
}
layer {
  name: "InceptionResnetV2_InceptionResnetV2_Repeat_block35_1_Branch_2_Conv2d_0c_3x3"
  type: "Convolution"
  bottom: "InceptionResnetV2_InceptionResnetV2_Repeat_block35_1_Branch_2_Conv2d_0b_3x3_r"
  top: "InceptionResnetV2_InceptionResnetV2_Repeat_block35_1_Branch_2_Conv2d_0c_3x3"
  convolution_param {
    num_output: 64
    bias_term: false
    group: 1
    pad_h: 1
    pad_w: 1
    kernel_h: 3
    kernel_w: 3
    stride_h: 1
    stride_w: 1
  }
}
layer {
  name: "InceptionResnetV2_InceptionResnetV2_Repeat_block35_1_Branch_2_Conv2d_0c_3x3_bn"
  type: "BatchNorm"
  bottom: "InceptionResnetV2_InceptionResnetV2_Repeat_block35_1_Branch_2_Conv2d_0c_3x3"
  top: "InceptionResnetV2_InceptionResnetV2_Repeat_block35_1_Branch_2_Conv2d_0c_3x3_bn"
  batch_norm_param {
    use_global_stats: true
    eps: 0.0010000000475
  }
}
layer {
  name: "InceptionResnetV2_InceptionResnetV2_Repeat_block35_1_Branch_2_Conv2d_0c_3x3_scale"
  type: "Scale"
  bottom: "InceptionResnetV2_InceptionResnetV2_Repeat_block35_1_Branch_2_Conv2d_0c_3x3_bn"
  top: "InceptionResnetV2_InceptionResnetV2_Repeat_block35_1_Branch_2_Conv2d_0c_3x3_scale"
  scale_param {
    bias_term: true
  }
}
layer {
  name: "InceptionResnetV2_InceptionResnetV2_Repeat_block35_1_Branch_2_Conv2d_0c_3x3_r"
  type: "ReLU"
  bottom: "InceptionResnetV2_InceptionResnetV2_Repeat_block35_1_Branch_2_Conv2d_0c_3x3_scale"
  top: "InceptionResnetV2_InceptionResnetV2_Repeat_block35_1_Branch_2_Conv2d_0c_3x3_r"
}
layer {
  name: "InceptionResnetV2_InceptionResnetV2_Repeat_block35_1_concat"
  type: "Concat"
  bottom: "InceptionResnetV2_InceptionResnetV2_Repeat_block35_1_Branch_0_Conv2d_1x1_r"
  bottom: "InceptionResnetV2_InceptionResnetV2_Repeat_block35_1_Branch_1_Conv2d_0b_3x3_r"
  bottom: "InceptionResnetV2_InceptionResnetV2_Repeat_block35_1_Branch_2_Conv2d_0c_3x3_r"
  top: "InceptionResnetV2_InceptionResnetV2_Repeat_block35_1_concat"
  concat_param {
    axis: 1
  }
}
layer {
  name: "InceptionResnetV2_InceptionResnetV2_Repeat_block35_1_Conv2d_1x1"
  type: "Convolution"
  bottom: "InceptionResnetV2_InceptionResnetV2_Repeat_block35_1_concat"
  top: "InceptionResnetV2_InceptionResnetV2_Repeat_block35_1_Conv2d_1x1"
  convolution_param {
    num_output: 320
    bias_term: true
    group: 1
    pad_h: 0
    pad_w: 0
    kernel_h: 1
    kernel_w: 1
    stride_h: 1
    stride_w: 1
  }
}
layer {
  name: "InceptionResnetV2_InceptionResnetV2_Repeat_block35_1"
  type: "Eltwise"
  bottom: "InceptionResnetV2_InceptionResnetV2_Mixed_5b_concat"
  bottom: "InceptionResnetV2_InceptionResnetV2_Repeat_block35_1_Conv2d_1x1"
  top: "InceptionResnetV2_InceptionResnetV2_Repeat_block35_1"
  eltwise_param {
    operation: SUM
    coeff: 1.0
    coeff: 0.170000001788
  }
}
layer {
  name: "InceptionResnetV2_InceptionResnetV2_Repeat_block35_1_r"
  type: "ReLU"
  bottom: "InceptionResnetV2_InceptionResnetV2_Repeat_block35_1"
  top: "InceptionResnetV2_InceptionResnetV2_Repeat_block35_1_r"
}
layer {
  name: "InceptionResnetV2_InceptionResnetV2_Repeat_block35_2_Branch_0_Conv2d_1x1"
  type: "Convolution"
  bottom: "InceptionResnetV2_InceptionResnetV2_Repeat_block35_1_r"
  top: "InceptionResnetV2_InceptionResnetV2_Repeat_block35_2_Branch_0_Conv2d_1x1"
  convolution_param {
    num_output: 32
    bias_term: false
    group: 1
    pad_h: 0
    pad_w: 0
    kernel_h: 1
    kernel_w: 1
    stride_h: 1
    stride_w: 1
  }
}
layer {
  name: "InceptionResnetV2_InceptionResnetV2_Repeat_block35_2_Branch_0_Conv2d_1x1_bn"
  type: "BatchNorm"
  bottom: "InceptionResnetV2_InceptionResnetV2_Repeat_block35_2_Branch_0_Conv2d_1x1"
  top: "InceptionResnetV2_InceptionResnetV2_Repeat_block35_2_Branch_0_Conv2d_1x1_bn"
  batch_norm_param {
    use_global_stats: true
    eps: 0.0010000000475
  }
}
layer {
  name: "InceptionResnetV2_InceptionResnetV2_Repeat_block35_2_Branch_0_Conv2d_1x1_scale"
  type: "Scale"
  bottom: "InceptionResnetV2_InceptionResnetV2_Repeat_block35_2_Branch_0_Conv2d_1x1_bn"
  top: "InceptionResnetV2_InceptionResnetV2_Repeat_block35_2_Branch_0_Conv2d_1x1_scale"
  scale_param {
    bias_term: true
  }
}
layer {
  name: "InceptionResnetV2_InceptionResnetV2_Repeat_block35_2_Branch_0_Conv2d_1x1_r"
  type: "ReLU"
  bottom: "InceptionResnetV2_InceptionResnetV2_Repeat_block35_2_Branch_0_Conv2d_1x1_scale"
  top: "InceptionResnetV2_InceptionResnetV2_Repeat_block35_2_Branch_0_Conv2d_1x1_r"
}
layer {
  name: "InceptionResnetV2_InceptionResnetV2_Repeat_block35_2_Branch_1_Conv2d_0a_1x1"
  type: "Convolution"
  bottom: "InceptionResnetV2_InceptionResnetV2_Repeat_block35_1_r"
  top: "InceptionResnetV2_InceptionResnetV2_Repeat_block35_2_Branch_1_Conv2d_0a_1x1"
  convolution_param {
    num_output: 32
    bias_term: false
    group: 1
    pad_h: 0
    pad_w: 0
    kernel_h: 1
    kernel_w: 1
    stride_h: 1
    stride_w: 1
  }
}
layer {
  name: "InceptionResnetV2_InceptionResnetV2_Repeat_block35_2_Branch_1_Conv2d_0a_1x1_bn"
  type: "BatchNorm"
  bottom: "InceptionResnetV2_InceptionResnetV2_Repeat_block35_2_Branch_1_Conv2d_0a_1x1"
  top: "InceptionResnetV2_InceptionResnetV2_Repeat_block35_2_Branch_1_Conv2d_0a_1x1_bn"
  batch_norm_param {
    use_global_stats: true
    eps: 0.0010000000475
  }
}
layer {
  name: "InceptionResnetV2_InceptionResnetV2_Repeat_block35_2_Branch_1_Conv2d_0a_1x1_scale"
  type: "Scale"
  bottom: "InceptionResnetV2_InceptionResnetV2_Repeat_block35_2_Branch_1_Conv2d_0a_1x1_bn"
  top: "InceptionResnetV2_InceptionResnetV2_Repeat_block35_2_Branch_1_Conv2d_0a_1x1_scale"
  scale_param {
    bias_term: true
  }
}
layer {
  name: "InceptionResnetV2_InceptionResnetV2_Repeat_block35_2_Branch_1_Conv2d_0a_1x1_r"
  type: "ReLU"
  bottom: "InceptionResnetV2_InceptionResnetV2_Repeat_block35_2_Branch_1_Conv2d_0a_1x1_scale"
  top: "InceptionResnetV2_InceptionResnetV2_Repeat_block35_2_Branch_1_Conv2d_0a_1x1_r"
}
layer {
  name: "InceptionResnetV2_InceptionResnetV2_Repeat_block35_2_Branch_1_Conv2d_0b_3x3"
  type: "Convolution"
  bottom: "InceptionResnetV2_InceptionResnetV2_Repeat_block35_2_Branch_1_Conv2d_0a_1x1_r"
  top: "InceptionResnetV2_InceptionResnetV2_Repeat_block35_2_Branch_1_Conv2d_0b_3x3"
  convolution_param {
    num_output: 32
    bias_term: false
    group: 1
    pad_h: 1
    pad_w: 1
    kernel_h: 3
    kernel_w: 3
    stride_h: 1
    stride_w: 1
  }
}
layer {
  name: "InceptionResnetV2_InceptionResnetV2_Repeat_block35_2_Branch_1_Conv2d_0b_3x3_bn"
  type: "BatchNorm"
  bottom: "InceptionResnetV2_InceptionResnetV2_Repeat_block35_2_Branch_1_Conv2d_0b_3x3"
  top: "InceptionResnetV2_InceptionResnetV2_Repeat_block35_2_Branch_1_Conv2d_0b_3x3_bn"
  batch_norm_param {
    use_global_stats: true
    eps: 0.0010000000475
  }
}
layer {
  name: "InceptionResnetV2_InceptionResnetV2_Repeat_block35_2_Branch_1_Conv2d_0b_3x3_scale"
  type: "Scale"
  bottom: "InceptionResnetV2_InceptionResnetV2_Repeat_block35_2_Branch_1_Conv2d_0b_3x3_bn"
  top: "InceptionResnetV2_InceptionResnetV2_Repeat_block35_2_Branch_1_Conv2d_0b_3x3_scale"
  scale_param {
    bias_term: true
  }
}
layer {
  name: "InceptionResnetV2_InceptionResnetV2_Repeat_block35_2_Branch_1_Conv2d_0b_3x3_r"
  type: "ReLU"
  bottom: "InceptionResnetV2_InceptionResnetV2_Repeat_block35_2_Branch_1_Conv2d_0b_3x3_scale"
  top: "InceptionResnetV2_InceptionResnetV2_Repeat_block35_2_Branch_1_Conv2d_0b_3x3_r"
}
layer {
  name: "InceptionResnetV2_InceptionResnetV2_Repeat_block35_2_Branch_2_Conv2d_0a_1x1"
  type: "Convolution"
  bottom: "InceptionResnetV2_InceptionResnetV2_Repeat_block35_1_r"
  top: "InceptionResnetV2_InceptionResnetV2_Repeat_block35_2_Branch_2_Conv2d_0a_1x1"
  convolution_param {
    num_output: 32
    bias_term: false
    group: 1
    pad_h: 0
    pad_w: 0
    kernel_h: 1
    kernel_w: 1
    stride_h: 1
    stride_w: 1
  }
}
layer {
  name: "InceptionResnetV2_InceptionResnetV2_Repeat_block35_2_Branch_2_Conv2d_0a_1x1_bn"
  type: "BatchNorm"
  bottom: "InceptionResnetV2_InceptionResnetV2_Repeat_block35_2_Branch_2_Conv2d_0a_1x1"
  top: "InceptionResnetV2_InceptionResnetV2_Repeat_block35_2_Branch_2_Conv2d_0a_1x1_bn"
  batch_norm_param {
    use_global_stats: true
    eps: 0.0010000000475
  }
}
layer {
  name: "InceptionResnetV2_InceptionResnetV2_Repeat_block35_2_Branch_2_Conv2d_0a_1x1_scale"
  type: "Scale"
  bottom: "InceptionResnetV2_InceptionResnetV2_Repeat_block35_2_Branch_2_Conv2d_0a_1x1_bn"
  top: "InceptionResnetV2_InceptionResnetV2_Repeat_block35_2_Branch_2_Conv2d_0a_1x1_scale"
  scale_param {
    bias_term: true
  }
}
layer {
  name: "InceptionResnetV2_InceptionResnetV2_Repeat_block35_2_Branch_2_Conv2d_0a_1x1_r"
  type: "ReLU"
  bottom: "InceptionResnetV2_InceptionResnetV2_Repeat_block35_2_Branch_2_Conv2d_0a_1x1_scale"
  top: "InceptionResnetV2_InceptionResnetV2_Repeat_block35_2_Branch_2_Conv2d_0a_1x1_r"
}
layer {
  name: "InceptionResnetV2_InceptionResnetV2_Repeat_block35_2_Branch_2_Conv2d_0b_3x3"
  type: "Convolution"
  bottom: "InceptionResnetV2_InceptionResnetV2_Repeat_block35_2_Branch_2_Conv2d_0a_1x1_r"
  top: "InceptionResnetV2_InceptionResnetV2_Repeat_block35_2_Branch_2_Conv2d_0b_3x3"
  convolution_param {
    num_output: 48
    bias_term: false
    group: 1
    pad_h: 1
    pad_w: 1
    kernel_h: 3
    kernel_w: 3
    stride_h: 1
    stride_w: 1
  }
}
layer {
  name: "InceptionResnetV2_InceptionResnetV2_Repeat_block35_2_Branch_2_Conv2d_0b_3x3_bn"
  type: "BatchNorm"
  bottom: "InceptionResnetV2_InceptionResnetV2_Repeat_block35_2_Branch_2_Conv2d_0b_3x3"
  top: "InceptionResnetV2_InceptionResnetV2_Repeat_block35_2_Branch_2_Conv2d_0b_3x3_bn"
  batch_norm_param {
    use_global_stats: true
    eps: 0.0010000000475
  }
}
layer {
  name: "InceptionResnetV2_InceptionResnetV2_Repeat_block35_2_Branch_2_Conv2d_0b_3x3_scale"
  type: "Scale"
  bottom: "InceptionResnetV2_InceptionResnetV2_Repeat_block35_2_Branch_2_Conv2d_0b_3x3_bn"
  top: "InceptionResnetV2_InceptionResnetV2_Repeat_block35_2_Branch_2_Conv2d_0b_3x3_scale"
  scale_param {
    bias_term: true
  }
}
layer {
  name: "InceptionResnetV2_InceptionResnetV2_Repeat_block35_2_Branch_2_Conv2d_0b_3x3_r"
  type: "ReLU"
  bottom: "InceptionResnetV2_InceptionResnetV2_Repeat_block35_2_Branch_2_Conv2d_0b_3x3_scale"
  top: "InceptionResnetV2_InceptionResnetV2_Repeat_block35_2_Branch_2_Conv2d_0b_3x3_r"
}
layer {
  name: "InceptionResnetV2_InceptionResnetV2_Repeat_block35_2_Branch_2_Conv2d_0c_3x3"
  type: "Convolution"
  bottom: "InceptionResnetV2_InceptionResnetV2_Repeat_block35_2_Branch_2_Conv2d_0b_3x3_r"
  top: "InceptionResnetV2_InceptionResnetV2_Repeat_block35_2_Branch_2_Conv2d_0c_3x3"
  convolution_param {
    num_output: 64
    bias_term: false
    group: 1
    pad_h: 1
    pad_w: 1
    kernel_h: 3
    kernel_w: 3
    stride_h: 1
    stride_w: 1
  }
}
layer {
  name: "InceptionResnetV2_InceptionResnetV2_Repeat_block35_2_Branch_2_Conv2d_0c_3x3_bn"
  type: "BatchNorm"
  bottom: "InceptionResnetV2_InceptionResnetV2_Repeat_block35_2_Branch_2_Conv2d_0c_3x3"
  top: "InceptionResnetV2_InceptionResnetV2_Repeat_block35_2_Branch_2_Conv2d_0c_3x3_bn"
  batch_norm_param {
    use_global_stats: true
    eps: 0.0010000000475
  }
}
layer {
  name: "InceptionResnetV2_InceptionResnetV2_Repeat_block35_2_Branch_2_Conv2d_0c_3x3_scale"
  type: "Scale"
  bottom: "InceptionResnetV2_InceptionResnetV2_Repeat_block35_2_Branch_2_Conv2d_0c_3x3_bn"
  top: "InceptionResnetV2_InceptionResnetV2_Repeat_block35_2_Branch_2_Conv2d_0c_3x3_scale"
  scale_param {
    bias_term: true
  }
}
layer {
  name: "InceptionResnetV2_InceptionResnetV2_Repeat_block35_2_Branch_2_Conv2d_0c_3x3_r"
  type: "ReLU"
  bottom: "InceptionResnetV2_InceptionResnetV2_Repeat_block35_2_Branch_2_Conv2d_0c_3x3_scale"
  top: "InceptionResnetV2_InceptionResnetV2_Repeat_block35_2_Branch_2_Conv2d_0c_3x3_r"
}
layer {
  name: "InceptionResnetV2_InceptionResnetV2_Repeat_block35_2_concat"
  type: "Concat"
  bottom: "InceptionResnetV2_InceptionResnetV2_Repeat_block35_2_Branch_0_Conv2d_1x1_r"
  bottom: "InceptionResnetV2_InceptionResnetV2_Repeat_block35_2_Branch_1_Conv2d_0b_3x3_r"
  bottom: "InceptionResnetV2_InceptionResnetV2_Repeat_block35_2_Branch_2_Conv2d_0c_3x3_r"
  top: "InceptionResnetV2_InceptionResnetV2_Repeat_block35_2_concat"
  concat_param {
    axis: 1
  }
}
layer {
  name: "InceptionResnetV2_InceptionResnetV2_Repeat_block35_2_Conv2d_1x1"
  type: "Convolution"
  bottom: "InceptionResnetV2_InceptionResnetV2_Repeat_block35_2_concat"
  top: "InceptionResnetV2_InceptionResnetV2_Repeat_block35_2_Conv2d_1x1"
  convolution_param {
    num_output: 320
    bias_term: true
    group: 1
    pad_h: 0
    pad_w: 0
    kernel_h: 1
    kernel_w: 1
    stride_h: 1
    stride_w: 1
  }
}
layer {
  name: "InceptionResnetV2_InceptionResnetV2_Repeat_block35_2"
  type: "Eltwise"
  bottom: "InceptionResnetV2_InceptionResnetV2_Repeat_block35_1_r"
  bottom: "InceptionResnetV2_InceptionResnetV2_Repeat_block35_2_Conv2d_1x1"
  top: "InceptionResnetV2_InceptionResnetV2_Repeat_block35_2"
  eltwise_param {
    operation: SUM
    coeff: 1.0
    coeff: 0.170000001788
  }
}
layer {
  name: "InceptionResnetV2_InceptionResnetV2_Repeat_block35_2_r"
  type: "ReLU"
  bottom: "InceptionResnetV2_InceptionResnetV2_Repeat_block35_2"
  top: "InceptionResnetV2_InceptionResnetV2_Repeat_block35_2_r"
}
layer {
  name: "InceptionResnetV2_InceptionResnetV2_Repeat_block35_3_Branch_0_Conv2d_1x1"
  type: "Convolution"
  bottom: "InceptionResnetV2_InceptionResnetV2_Repeat_block35_2_r"
  top: "InceptionResnetV2_InceptionResnetV2_Repeat_block35_3_Branch_0_Conv2d_1x1"
  convolution_param {
    num_output: 32
    bias_term: false
    group: 1
    pad_h: 0
    pad_w: 0
    kernel_h: 1
    kernel_w: 1
    stride_h: 1
    stride_w: 1
  }
}
layer {
  name: "InceptionResnetV2_InceptionResnetV2_Repeat_block35_3_Branch_0_Conv2d_1x1_bn"
  type: "BatchNorm"
  bottom: "InceptionResnetV2_InceptionResnetV2_Repeat_block35_3_Branch_0_Conv2d_1x1"
  top: "InceptionResnetV2_InceptionResnetV2_Repeat_block35_3_Branch_0_Conv2d_1x1_bn"
  batch_norm_param {
    use_global_stats: true
    eps: 0.0010000000475
  }
}
layer {
  name: "InceptionResnetV2_InceptionResnetV2_Repeat_block35_3_Branch_0_Conv2d_1x1_scale"
  type: "Scale"
  bottom: "InceptionResnetV2_InceptionResnetV2_Repeat_block35_3_Branch_0_Conv2d_1x1_bn"
  top: "InceptionResnetV2_InceptionResnetV2_Repeat_block35_3_Branch_0_Conv2d_1x1_scale"
  scale_param {
    bias_term: true
  }
}
layer {
  name: "InceptionResnetV2_InceptionResnetV2_Repeat_block35_3_Branch_0_Conv2d_1x1_r"
  type: "ReLU"
  bottom: "InceptionResnetV2_InceptionResnetV2_Repeat_block35_3_Branch_0_Conv2d_1x1_scale"
  top: "InceptionResnetV2_InceptionResnetV2_Repeat_block35_3_Branch_0_Conv2d_1x1_r"
}
layer {
  name: "InceptionResnetV2_InceptionResnetV2_Repeat_block35_3_Branch_1_Conv2d_0a_1x1"
  type: "Convolution"
  bottom: "InceptionResnetV2_InceptionResnetV2_Repeat_block35_2_r"
  top: "InceptionResnetV2_InceptionResnetV2_Repeat_block35_3_Branch_1_Conv2d_0a_1x1"
  convolution_param {
    num_output: 32
    bias_term: false
    group: 1
    pad_h: 0
    pad_w: 0
    kernel_h: 1
    kernel_w: 1
    stride_h: 1
    stride_w: 1
  }
}
layer {
  name: "InceptionResnetV2_InceptionResnetV2_Repeat_block35_3_Branch_1_Conv2d_0a_1x1_bn"
  type: "BatchNorm"
  bottom: "InceptionResnetV2_InceptionResnetV2_Repeat_block35_3_Branch_1_Conv2d_0a_1x1"
  top: "InceptionResnetV2_InceptionResnetV2_Repeat_block35_3_Branch_1_Conv2d_0a_1x1_bn"
  batch_norm_param {
    use_global_stats: true
    eps: 0.0010000000475
  }
}
layer {
  name: "InceptionResnetV2_InceptionResnetV2_Repeat_block35_3_Branch_1_Conv2d_0a_1x1_scale"
  type: "Scale"
  bottom: "InceptionResnetV2_InceptionResnetV2_Repeat_block35_3_Branch_1_Conv2d_0a_1x1_bn"
  top: "InceptionResnetV2_InceptionResnetV2_Repeat_block35_3_Branch_1_Conv2d_0a_1x1_scale"
  scale_param {
    bias_term: true
  }
}
layer {
  name: "InceptionResnetV2_InceptionResnetV2_Repeat_block35_3_Branch_1_Conv2d_0a_1x1_r"
  type: "ReLU"
  bottom: "InceptionResnetV2_InceptionResnetV2_Repeat_block35_3_Branch_1_Conv2d_0a_1x1_scale"
  top: "InceptionResnetV2_InceptionResnetV2_Repeat_block35_3_Branch_1_Conv2d_0a_1x1_r"
}
layer {
  name: "InceptionResnetV2_InceptionResnetV2_Repeat_block35_3_Branch_1_Conv2d_0b_3x3"
  type: "Convolution"
  bottom: "InceptionResnetV2_InceptionResnetV2_Repeat_block35_3_Branch_1_Conv2d_0a_1x1_r"
  top: "InceptionResnetV2_InceptionResnetV2_Repeat_block35_3_Branch_1_Conv2d_0b_3x3"
  convolution_param {
    num_output: 32
    bias_term: false
    group: 1
    pad_h: 1
    pad_w: 1
    kernel_h: 3
    kernel_w: 3
    stride_h: 1
    stride_w: 1
  }
}
layer {
  name: "InceptionResnetV2_InceptionResnetV2_Repeat_block35_3_Branch_1_Conv2d_0b_3x3_bn"
  type: "BatchNorm"
  bottom: "InceptionResnetV2_InceptionResnetV2_Repeat_block35_3_Branch_1_Conv2d_0b_3x3"
  top: "InceptionResnetV2_InceptionResnetV2_Repeat_block35_3_Branch_1_Conv2d_0b_3x3_bn"
  batch_norm_param {
    use_global_stats: true
    eps: 0.0010000000475
  }
}
layer {
  name: "InceptionResnetV2_InceptionResnetV2_Repeat_block35_3_Branch_1_Conv2d_0b_3x3_scale"
  type: "Scale"
  bottom: "InceptionResnetV2_InceptionResnetV2_Repeat_block35_3_Branch_1_Conv2d_0b_3x3_bn"
  top: "InceptionResnetV2_InceptionResnetV2_Repeat_block35_3_Branch_1_Conv2d_0b_3x3_scale"
  scale_param {
    bias_term: true
  }
}
layer {
  name: "InceptionResnetV2_InceptionResnetV2_Repeat_block35_3_Branch_1_Conv2d_0b_3x3_r"
  type: "ReLU"
  bottom: "InceptionResnetV2_InceptionResnetV2_Repeat_block35_3_Branch_1_Conv2d_0b_3x3_scale"
  top: "InceptionResnetV2_InceptionResnetV2_Repeat_block35_3_Branch_1_Conv2d_0b_3x3_r"
}
layer {
  name: "InceptionResnetV2_InceptionResnetV2_Repeat_block35_3_Branch_2_Conv2d_0a_1x1"
  type: "Convolution"
  bottom: "InceptionResnetV2_InceptionResnetV2_Repeat_block35_2_r"
  top: "InceptionResnetV2_InceptionResnetV2_Repeat_block35_3_Branch_2_Conv2d_0a_1x1"
  convolution_param {
    num_output: 32
    bias_term: false
    group: 1
    pad_h: 0
    pad_w: 0
    kernel_h: 1
    kernel_w: 1
    stride_h: 1
    stride_w: 1
  }
}
layer {
  name: "InceptionResnetV2_InceptionResnetV2_Repeat_block35_3_Branch_2_Conv2d_0a_1x1_bn"
  type: "BatchNorm"
  bottom: "InceptionResnetV2_InceptionResnetV2_Repeat_block35_3_Branch_2_Conv2d_0a_1x1"
  top: "InceptionResnetV2_InceptionResnetV2_Repeat_block35_3_Branch_2_Conv2d_0a_1x1_bn"
  batch_norm_param {
    use_global_stats: true
    eps: 0.0010000000475
  }
}
layer {
  name: "InceptionResnetV2_InceptionResnetV2_Repeat_block35_3_Branch_2_Conv2d_0a_1x1_scale"
  type: "Scale"
  bottom: "InceptionResnetV2_InceptionResnetV2_Repeat_block35_3_Branch_2_Conv2d_0a_1x1_bn"
  top: "InceptionResnetV2_InceptionResnetV2_Repeat_block35_3_Branch_2_Conv2d_0a_1x1_scale"
  scale_param {
    bias_term: true
  }
}
layer {
  name: "InceptionResnetV2_InceptionResnetV2_Repeat_block35_3_Branch_2_Conv2d_0a_1x1_r"
  type: "ReLU"
  bottom: "InceptionResnetV2_InceptionResnetV2_Repeat_block35_3_Branch_2_Conv2d_0a_1x1_scale"
  top: "InceptionResnetV2_InceptionResnetV2_Repeat_block35_3_Branch_2_Conv2d_0a_1x1_r"
}
layer {
  name: "InceptionResnetV2_InceptionResnetV2_Repeat_block35_3_Branch_2_Conv2d_0b_3x3"
  type: "Convolution"
  bottom: "InceptionResnetV2_InceptionResnetV2_Repeat_block35_3_Branch_2_Conv2d_0a_1x1_r"
  top: "InceptionResnetV2_InceptionResnetV2_Repeat_block35_3_Branch_2_Conv2d_0b_3x3"
  convolution_param {
    num_output: 48
    bias_term: false
    group: 1
    pad_h: 1
    pad_w: 1
    kernel_h: 3
    kernel_w: 3
    stride_h: 1
    stride_w: 1
  }
}
layer {
  name: "InceptionResnetV2_InceptionResnetV2_Repeat_block35_3_Branch_2_Conv2d_0b_3x3_bn"
  type: "BatchNorm"
  bottom: "InceptionResnetV2_InceptionResnetV2_Repeat_block35_3_Branch_2_Conv2d_0b_3x3"
  top: "InceptionResnetV2_InceptionResnetV2_Repeat_block35_3_Branch_2_Conv2d_0b_3x3_bn"
  batch_norm_param {
    use_global_stats: true
    eps: 0.0010000000475
  }
}
layer {
  name: "InceptionResnetV2_InceptionResnetV2_Repeat_block35_3_Branch_2_Conv2d_0b_3x3_scale"
  type: "Scale"
  bottom: "InceptionResnetV2_InceptionResnetV2_Repeat_block35_3_Branch_2_Conv2d_0b_3x3_bn"
  top: "InceptionResnetV2_InceptionResnetV2_Repeat_block35_3_Branch_2_Conv2d_0b_3x3_scale"
  scale_param {
    bias_term: true
  }
}
layer {
  name: "InceptionResnetV2_InceptionResnetV2_Repeat_block35_3_Branch_2_Conv2d_0b_3x3_r"
  type: "ReLU"
  bottom: "InceptionResnetV2_InceptionResnetV2_Repeat_block35_3_Branch_2_Conv2d_0b_3x3_scale"
  top: "InceptionResnetV2_InceptionResnetV2_Repeat_block35_3_Branch_2_Conv2d_0b_3x3_r"
}
layer {
  name: "InceptionResnetV2_InceptionResnetV2_Repeat_block35_3_Branch_2_Conv2d_0c_3x3"
  type: "Convolution"
  bottom: "InceptionResnetV2_InceptionResnetV2_Repeat_block35_3_Branch_2_Conv2d_0b_3x3_r"
  top: "InceptionResnetV2_InceptionResnetV2_Repeat_block35_3_Branch_2_Conv2d_0c_3x3"
  convolution_param {
    num_output: 64
    bias_term: false
    group: 1
    pad_h: 1
    pad_w: 1
    kernel_h: 3
    kernel_w: 3
    stride_h: 1
    stride_w: 1
  }
}
layer {
  name: "InceptionResnetV2_InceptionResnetV2_Repeat_block35_3_Branch_2_Conv2d_0c_3x3_bn"
  type: "BatchNorm"
  bottom: "InceptionResnetV2_InceptionResnetV2_Repeat_block35_3_Branch_2_Conv2d_0c_3x3"
  top: "InceptionResnetV2_InceptionResnetV2_Repeat_block35_3_Branch_2_Conv2d_0c_3x3_bn"
  batch_norm_param {
    use_global_stats: true
    eps: 0.0010000000475
  }
}
layer {
  name: "InceptionResnetV2_InceptionResnetV2_Repeat_block35_3_Branch_2_Conv2d_0c_3x3_scale"
  type: "Scale"
  bottom: "InceptionResnetV2_InceptionResnetV2_Repeat_block35_3_Branch_2_Conv2d_0c_3x3_bn"
  top: "InceptionResnetV2_InceptionResnetV2_Repeat_block35_3_Branch_2_Conv2d_0c_3x3_scale"
  scale_param {
    bias_term: true
  }
}
layer {
  name: "InceptionResnetV2_InceptionResnetV2_Repeat_block35_3_Branch_2_Conv2d_0c_3x3_r"
  type: "ReLU"
  bottom: "InceptionResnetV2_InceptionResnetV2_Repeat_block35_3_Branch_2_Conv2d_0c_3x3_scale"
  top: "InceptionResnetV2_InceptionResnetV2_Repeat_block35_3_Branch_2_Conv2d_0c_3x3_r"
}
layer {
  name: "InceptionResnetV2_InceptionResnetV2_Repeat_block35_3_concat"
  type: "Concat"
  bottom: "InceptionResnetV2_InceptionResnetV2_Repeat_block35_3_Branch_0_Conv2d_1x1_r"
  bottom: "InceptionResnetV2_InceptionResnetV2_Repeat_block35_3_Branch_1_Conv2d_0b_3x3_r"
  bottom: "InceptionResnetV2_InceptionResnetV2_Repeat_block35_3_Branch_2_Conv2d_0c_3x3_r"
  top: "InceptionResnetV2_InceptionResnetV2_Repeat_block35_3_concat"
  concat_param {
    axis: 1
  }
}
layer {
  name: "InceptionResnetV2_InceptionResnetV2_Repeat_block35_3_Conv2d_1x1"
  type: "Convolution"
  bottom: "InceptionResnetV2_InceptionResnetV2_Repeat_block35_3_concat"
  top: "InceptionResnetV2_InceptionResnetV2_Repeat_block35_3_Conv2d_1x1"
  convolution_param {
    num_output: 320
    bias_term: true
    group: 1
    pad_h: 0
    pad_w: 0
    kernel_h: 1
    kernel_w: 1
    stride_h: 1
    stride_w: 1
  }
}
layer {
  name: "InceptionResnetV2_InceptionResnetV2_Repeat_block35_3"
  type: "Eltwise"
  bottom: "InceptionResnetV2_InceptionResnetV2_Repeat_block35_2_r"
  bottom: "InceptionResnetV2_InceptionResnetV2_Repeat_block35_3_Conv2d_1x1"
  top: "InceptionResnetV2_InceptionResnetV2_Repeat_block35_3"
  eltwise_param {
    operation: SUM
    coeff: 1.0
    coeff: 0.170000001788
  }
}
layer {
  name: "InceptionResnetV2_InceptionResnetV2_Repeat_block35_3_r"
  type: "ReLU"
  bottom: "InceptionResnetV2_InceptionResnetV2_Repeat_block35_3"
  top: "InceptionResnetV2_InceptionResnetV2_Repeat_block35_3_r"
}
layer {
  name: "InceptionResnetV2_InceptionResnetV2_Repeat_block35_4_Branch_0_Conv2d_1x1"
  type: "Convolution"
  bottom: "InceptionResnetV2_InceptionResnetV2_Repeat_block35_3_r"
  top: "InceptionResnetV2_InceptionResnetV2_Repeat_block35_4_Branch_0_Conv2d_1x1"
  convolution_param {
    num_output: 32
    bias_term: false
    group: 1
    pad_h: 0
    pad_w: 0
    kernel_h: 1
    kernel_w: 1
    stride_h: 1
    stride_w: 1
  }
}
layer {
  name: "InceptionResnetV2_InceptionResnetV2_Repeat_block35_4_Branch_0_Conv2d_1x1_bn"
  type: "BatchNorm"
  bottom: "InceptionResnetV2_InceptionResnetV2_Repeat_block35_4_Branch_0_Conv2d_1x1"
  top: "InceptionResnetV2_InceptionResnetV2_Repeat_block35_4_Branch_0_Conv2d_1x1_bn"
  batch_norm_param {
    use_global_stats: true
    eps: 0.0010000000475
  }
}
layer {
  name: "InceptionResnetV2_InceptionResnetV2_Repeat_block35_4_Branch_0_Conv2d_1x1_scale"
  type: "Scale"
  bottom: "InceptionResnetV2_InceptionResnetV2_Repeat_block35_4_Branch_0_Conv2d_1x1_bn"
  top: "InceptionResnetV2_InceptionResnetV2_Repeat_block35_4_Branch_0_Conv2d_1x1_scale"
  scale_param {
    bias_term: true
  }
}
layer {
  name: "InceptionResnetV2_InceptionResnetV2_Repeat_block35_4_Branch_0_Conv2d_1x1_r"
  type: "ReLU"
  bottom: "InceptionResnetV2_InceptionResnetV2_Repeat_block35_4_Branch_0_Conv2d_1x1_scale"
  top: "InceptionResnetV2_InceptionResnetV2_Repeat_block35_4_Branch_0_Conv2d_1x1_r"
}
layer {
  name: "InceptionResnetV2_InceptionResnetV2_Repeat_block35_4_Branch_1_Conv2d_0a_1x1"
  type: "Convolution"
  bottom: "InceptionResnetV2_InceptionResnetV2_Repeat_block35_3_r"
  top: "InceptionResnetV2_InceptionResnetV2_Repeat_block35_4_Branch_1_Conv2d_0a_1x1"
  convolution_param {
    num_output: 32
    bias_term: false
    group: 1
    pad_h: 0
    pad_w: 0
    kernel_h: 1
    kernel_w: 1
    stride_h: 1
    stride_w: 1
  }
}
layer {
  name: "InceptionResnetV2_InceptionResnetV2_Repeat_block35_4_Branch_1_Conv2d_0a_1x1_bn"
  type: "BatchNorm"
  bottom: "InceptionResnetV2_InceptionResnetV2_Repeat_block35_4_Branch_1_Conv2d_0a_1x1"
  top: "InceptionResnetV2_InceptionResnetV2_Repeat_block35_4_Branch_1_Conv2d_0a_1x1_bn"
  batch_norm_param {
    use_global_stats: true
    eps: 0.0010000000475
  }
}
layer {
  name: "InceptionResnetV2_InceptionResnetV2_Repeat_block35_4_Branch_1_Conv2d_0a_1x1_scale"
  type: "Scale"
  bottom: "InceptionResnetV2_InceptionResnetV2_Repeat_block35_4_Branch_1_Conv2d_0a_1x1_bn"
  top: "InceptionResnetV2_InceptionResnetV2_Repeat_block35_4_Branch_1_Conv2d_0a_1x1_scale"
  scale_param {
    bias_term: true
  }
}
layer {
  name: "InceptionResnetV2_InceptionResnetV2_Repeat_block35_4_Branch_1_Conv2d_0a_1x1_r"
  type: "ReLU"
  bottom: "InceptionResnetV2_InceptionResnetV2_Repeat_block35_4_Branch_1_Conv2d_0a_1x1_scale"
  top: "InceptionResnetV2_InceptionResnetV2_Repeat_block35_4_Branch_1_Conv2d_0a_1x1_r"
}
layer {
  name: "InceptionResnetV2_InceptionResnetV2_Repeat_block35_4_Branch_1_Conv2d_0b_3x3"
  type: "Convolution"
  bottom: "InceptionResnetV2_InceptionResnetV2_Repeat_block35_4_Branch_1_Conv2d_0a_1x1_r"
  top: "InceptionResnetV2_InceptionResnetV2_Repeat_block35_4_Branch_1_Conv2d_0b_3x3"
  convolution_param {
    num_output: 32
    bias_term: false
    group: 1
    pad_h: 1
    pad_w: 1
    kernel_h: 3
    kernel_w: 3
    stride_h: 1
    stride_w: 1
  }
}
layer {
  name: "InceptionResnetV2_InceptionResnetV2_Repeat_block35_4_Branch_1_Conv2d_0b_3x3_bn"
  type: "BatchNorm"
  bottom: "InceptionResnetV2_InceptionResnetV2_Repeat_block35_4_Branch_1_Conv2d_0b_3x3"
  top: "InceptionResnetV2_InceptionResnetV2_Repeat_block35_4_Branch_1_Conv2d_0b_3x3_bn"
  batch_norm_param {
    use_global_stats: true
    eps: 0.0010000000475
  }
}
layer {
  name: "InceptionResnetV2_InceptionResnetV2_Repeat_block35_4_Branch_1_Conv2d_0b_3x3_scale"
  type: "Scale"
  bottom: "InceptionResnetV2_InceptionResnetV2_Repeat_block35_4_Branch_1_Conv2d_0b_3x3_bn"
  top: "InceptionResnetV2_InceptionResnetV2_Repeat_block35_4_Branch_1_Conv2d_0b_3x3_scale"
  scale_param {
    bias_term: true
  }
}
layer {
  name: "InceptionResnetV2_InceptionResnetV2_Repeat_block35_4_Branch_1_Conv2d_0b_3x3_r"
  type: "ReLU"
  bottom: "InceptionResnetV2_InceptionResnetV2_Repeat_block35_4_Branch_1_Conv2d_0b_3x3_scale"
  top: "InceptionResnetV2_InceptionResnetV2_Repeat_block35_4_Branch_1_Conv2d_0b_3x3_r"
}
layer {
  name: "InceptionResnetV2_InceptionResnetV2_Repeat_block35_4_Branch_2_Conv2d_0a_1x1"
  type: "Convolution"
  bottom: "InceptionResnetV2_InceptionResnetV2_Repeat_block35_3_r"
  top: "InceptionResnetV2_InceptionResnetV2_Repeat_block35_4_Branch_2_Conv2d_0a_1x1"
  convolution_param {
    num_output: 32
    bias_term: false
    group: 1
    pad_h: 0
    pad_w: 0
    kernel_h: 1
    kernel_w: 1
    stride_h: 1
    stride_w: 1
  }
}
layer {
  name: "InceptionResnetV2_InceptionResnetV2_Repeat_block35_4_Branch_2_Conv2d_0a_1x1_bn"
  type: "BatchNorm"
  bottom: "InceptionResnetV2_InceptionResnetV2_Repeat_block35_4_Branch_2_Conv2d_0a_1x1"
  top: "InceptionResnetV2_InceptionResnetV2_Repeat_block35_4_Branch_2_Conv2d_0a_1x1_bn"
  batch_norm_param {
    use_global_stats: true
    eps: 0.0010000000475
  }
}
layer {
  name: "InceptionResnetV2_InceptionResnetV2_Repeat_block35_4_Branch_2_Conv2d_0a_1x1_scale"
  type: "Scale"
  bottom: "InceptionResnetV2_InceptionResnetV2_Repeat_block35_4_Branch_2_Conv2d_0a_1x1_bn"
  top: "InceptionResnetV2_InceptionResnetV2_Repeat_block35_4_Branch_2_Conv2d_0a_1x1_scale"
  scale_param {
    bias_term: true
  }
}
layer {
  name: "InceptionResnetV2_InceptionResnetV2_Repeat_block35_4_Branch_2_Conv2d_0a_1x1_r"
  type: "ReLU"
  bottom: "InceptionResnetV2_InceptionResnetV2_Repeat_block35_4_Branch_2_Conv2d_0a_1x1_scale"
  top: "InceptionResnetV2_InceptionResnetV2_Repeat_block35_4_Branch_2_Conv2d_0a_1x1_r"
}
layer {
  name: "InceptionResnetV2_InceptionResnetV2_Repeat_block35_4_Branch_2_Conv2d_0b_3x3"
  type: "Convolution"
  bottom: "InceptionResnetV2_InceptionResnetV2_Repeat_block35_4_Branch_2_Conv2d_0a_1x1_r"
  top: "InceptionResnetV2_InceptionResnetV2_Repeat_block35_4_Branch_2_Conv2d_0b_3x3"
  convolution_param {
    num_output: 48
    bias_term: false
    group: 1
    pad_h: 1
    pad_w: 1
    kernel_h: 3
    kernel_w: 3
    stride_h: 1
    stride_w: 1
  }
}
layer {
  name: "InceptionResnetV2_InceptionResnetV2_Repeat_block35_4_Branch_2_Conv2d_0b_3x3_bn"
  type: "BatchNorm"
  bottom: "InceptionResnetV2_InceptionResnetV2_Repeat_block35_4_Branch_2_Conv2d_0b_3x3"
  top: "InceptionResnetV2_InceptionResnetV2_Repeat_block35_4_Branch_2_Conv2d_0b_3x3_bn"
  batch_norm_param {
    use_global_stats: true
    eps: 0.0010000000475
  }
}
layer {
  name: "InceptionResnetV2_InceptionResnetV2_Repeat_block35_4_Branch_2_Conv2d_0b_3x3_scale"
  type: "Scale"
  bottom: "InceptionResnetV2_InceptionResnetV2_Repeat_block35_4_Branch_2_Conv2d_0b_3x3_bn"
  top: "InceptionResnetV2_InceptionResnetV2_Repeat_block35_4_Branch_2_Conv2d_0b_3x3_scale"
  scale_param {
    bias_term: true
  }
}
layer {
  name: "InceptionResnetV2_InceptionResnetV2_Repeat_block35_4_Branch_2_Conv2d_0b_3x3_r"
  type: "ReLU"
  bottom: "InceptionResnetV2_InceptionResnetV2_Repeat_block35_4_Branch_2_Conv2d_0b_3x3_scale"
  top: "InceptionResnetV2_InceptionResnetV2_Repeat_block35_4_Branch_2_Conv2d_0b_3x3_r"
}
layer {
  name: "InceptionResnetV2_InceptionResnetV2_Repeat_block35_4_Branch_2_Conv2d_0c_3x3"
  type: "Convolution"
  bottom: "InceptionResnetV2_InceptionResnetV2_Repeat_block35_4_Branch_2_Conv2d_0b_3x3_r"
  top: "InceptionResnetV2_InceptionResnetV2_Repeat_block35_4_Branch_2_Conv2d_0c_3x3"
  convolution_param {
    num_output: 64
    bias_term: false
    group: 1
    pad_h: 1
    pad_w: 1
    kernel_h: 3
    kernel_w: 3
    stride_h: 1
    stride_w: 1
  }
}
layer {
  name: "InceptionResnetV2_InceptionResnetV2_Repeat_block35_4_Branch_2_Conv2d_0c_3x3_bn"
  type: "BatchNorm"
  bottom: "InceptionResnetV2_InceptionResnetV2_Repeat_block35_4_Branch_2_Conv2d_0c_3x3"
  top: "InceptionResnetV2_InceptionResnetV2_Repeat_block35_4_Branch_2_Conv2d_0c_3x3_bn"
  batch_norm_param {
    use_global_stats: true
    eps: 0.0010000000475
  }
}
layer {
  name: "InceptionResnetV2_InceptionResnetV2_Repeat_block35_4_Branch_2_Conv2d_0c_3x3_scale"
  type: "Scale"
  bottom: "InceptionResnetV2_InceptionResnetV2_Repeat_block35_4_Branch_2_Conv2d_0c_3x3_bn"
  top: "InceptionResnetV2_InceptionResnetV2_Repeat_block35_4_Branch_2_Conv2d_0c_3x3_scale"
  scale_param {
    bias_term: true
  }
}
layer {
  name: "InceptionResnetV2_InceptionResnetV2_Repeat_block35_4_Branch_2_Conv2d_0c_3x3_r"
  type: "ReLU"
  bottom: "InceptionResnetV2_InceptionResnetV2_Repeat_block35_4_Branch_2_Conv2d_0c_3x3_scale"
  top: "InceptionResnetV2_InceptionResnetV2_Repeat_block35_4_Branch_2_Conv2d_0c_3x3_r"
}
layer {
  name: "InceptionResnetV2_InceptionResnetV2_Repeat_block35_4_concat"
  type: "Concat"
  bottom: "InceptionResnetV2_InceptionResnetV2_Repeat_block35_4_Branch_0_Conv2d_1x1_r"
  bottom: "InceptionResnetV2_InceptionResnetV2_Repeat_block35_4_Branch_1_Conv2d_0b_3x3_r"
  bottom: "InceptionResnetV2_InceptionResnetV2_Repeat_block35_4_Branch_2_Conv2d_0c_3x3_r"
  top: "InceptionResnetV2_InceptionResnetV2_Repeat_block35_4_concat"
  concat_param {
    axis: 1
  }
}
layer {
  name: "InceptionResnetV2_InceptionResnetV2_Repeat_block35_4_Conv2d_1x1"
  type: "Convolution"
  bottom: "InceptionResnetV2_InceptionResnetV2_Repeat_block35_4_concat"
  top: "InceptionResnetV2_InceptionResnetV2_Repeat_block35_4_Conv2d_1x1"
  convolution_param {
    num_output: 320
    bias_term: true
    group: 1
    pad_h: 0
    pad_w: 0
    kernel_h: 1
    kernel_w: 1
    stride_h: 1
    stride_w: 1
  }
}
layer {
  name: "InceptionResnetV2_InceptionResnetV2_Repeat_block35_4"
  type: "Eltwise"
  bottom: "InceptionResnetV2_InceptionResnetV2_Repeat_block35_3_r"
  bottom: "InceptionResnetV2_InceptionResnetV2_Repeat_block35_4_Conv2d_1x1"
  top: "InceptionResnetV2_InceptionResnetV2_Repeat_block35_4"
  eltwise_param {
    operation: SUM
    coeff: 1.0
    coeff: 0.170000001788
  }
}
layer {
  name: "InceptionResnetV2_InceptionResnetV2_Repeat_block35_4_r"
  type: "ReLU"
  bottom: "InceptionResnetV2_InceptionResnetV2_Repeat_block35_4"
  top: "InceptionResnetV2_InceptionResnetV2_Repeat_block35_4_r"
}
layer {
  name: "InceptionResnetV2_InceptionResnetV2_Repeat_block35_5_Branch_0_Conv2d_1x1"
  type: "Convolution"
  bottom: "InceptionResnetV2_InceptionResnetV2_Repeat_block35_4_r"
  top: "InceptionResnetV2_InceptionResnetV2_Repeat_block35_5_Branch_0_Conv2d_1x1"
  convolution_param {
    num_output: 32
    bias_term: false
    group: 1
    pad_h: 0
    pad_w: 0
    kernel_h: 1
    kernel_w: 1
    stride_h: 1
    stride_w: 1
  }
}
layer {
  name: "InceptionResnetV2_InceptionResnetV2_Repeat_block35_5_Branch_0_Conv2d_1x1_bn"
  type: "BatchNorm"
  bottom: "InceptionResnetV2_InceptionResnetV2_Repeat_block35_5_Branch_0_Conv2d_1x1"
  top: "InceptionResnetV2_InceptionResnetV2_Repeat_block35_5_Branch_0_Conv2d_1x1_bn"
  batch_norm_param {
    use_global_stats: true
    eps: 0.0010000000475
  }
}
layer {
  name: "InceptionResnetV2_InceptionResnetV2_Repeat_block35_5_Branch_0_Conv2d_1x1_scale"
  type: "Scale"
  bottom: "InceptionResnetV2_InceptionResnetV2_Repeat_block35_5_Branch_0_Conv2d_1x1_bn"
  top: "InceptionResnetV2_InceptionResnetV2_Repeat_block35_5_Branch_0_Conv2d_1x1_scale"
  scale_param {
    bias_term: true
  }
}
layer {
  name: "InceptionResnetV2_InceptionResnetV2_Repeat_block35_5_Branch_0_Conv2d_1x1_r"
  type: "ReLU"
  bottom: "InceptionResnetV2_InceptionResnetV2_Repeat_block35_5_Branch_0_Conv2d_1x1_scale"
  top: "InceptionResnetV2_InceptionResnetV2_Repeat_block35_5_Branch_0_Conv2d_1x1_r"
}
layer {
  name: "InceptionResnetV2_InceptionResnetV2_Repeat_block35_5_Branch_1_Conv2d_0a_1x1"
  type: "Convolution"
  bottom: "InceptionResnetV2_InceptionResnetV2_Repeat_block35_4_r"
  top: "InceptionResnetV2_InceptionResnetV2_Repeat_block35_5_Branch_1_Conv2d_0a_1x1"
  convolution_param {
    num_output: 32
    bias_term: false
    group: 1
    pad_h: 0
    pad_w: 0
    kernel_h: 1
    kernel_w: 1
    stride_h: 1
    stride_w: 1
  }
}
layer {
  name: "InceptionResnetV2_InceptionResnetV2_Repeat_block35_5_Branch_1_Conv2d_0a_1x1_bn"
  type: "BatchNorm"
  bottom: "InceptionResnetV2_InceptionResnetV2_Repeat_block35_5_Branch_1_Conv2d_0a_1x1"
  top: "InceptionResnetV2_InceptionResnetV2_Repeat_block35_5_Branch_1_Conv2d_0a_1x1_bn"
  batch_norm_param {
    use_global_stats: true
    eps: 0.0010000000475
  }
}
layer {
  name: "InceptionResnetV2_InceptionResnetV2_Repeat_block35_5_Branch_1_Conv2d_0a_1x1_scale"
  type: "Scale"
  bottom: "InceptionResnetV2_InceptionResnetV2_Repeat_block35_5_Branch_1_Conv2d_0a_1x1_bn"
  top: "InceptionResnetV2_InceptionResnetV2_Repeat_block35_5_Branch_1_Conv2d_0a_1x1_scale"
  scale_param {
    bias_term: true
  }
}
layer {
  name: "InceptionResnetV2_InceptionResnetV2_Repeat_block35_5_Branch_1_Conv2d_0a_1x1_r"
  type: "ReLU"
  bottom: "InceptionResnetV2_InceptionResnetV2_Repeat_block35_5_Branch_1_Conv2d_0a_1x1_scale"
  top: "InceptionResnetV2_InceptionResnetV2_Repeat_block35_5_Branch_1_Conv2d_0a_1x1_r"
}
layer {
  name: "InceptionResnetV2_InceptionResnetV2_Repeat_block35_5_Branch_1_Conv2d_0b_3x3"
  type: "Convolution"
  bottom: "InceptionResnetV2_InceptionResnetV2_Repeat_block35_5_Branch_1_Conv2d_0a_1x1_r"
  top: "InceptionResnetV2_InceptionResnetV2_Repeat_block35_5_Branch_1_Conv2d_0b_3x3"
  convolution_param {
    num_output: 32
    bias_term: false
    group: 1
    pad_h: 1
    pad_w: 1
    kernel_h: 3
    kernel_w: 3
    stride_h: 1
    stride_w: 1
  }
}
layer {
  name: "InceptionResnetV2_InceptionResnetV2_Repeat_block35_5_Branch_1_Conv2d_0b_3x3_bn"
  type: "BatchNorm"
  bottom: "InceptionResnetV2_InceptionResnetV2_Repeat_block35_5_Branch_1_Conv2d_0b_3x3"
  top: "InceptionResnetV2_InceptionResnetV2_Repeat_block35_5_Branch_1_Conv2d_0b_3x3_bn"
  batch_norm_param {
    use_global_stats: true
    eps: 0.0010000000475
  }
}
layer {
  name: "InceptionResnetV2_InceptionResnetV2_Repeat_block35_5_Branch_1_Conv2d_0b_3x3_scale"
  type: "Scale"
  bottom: "InceptionResnetV2_InceptionResnetV2_Repeat_block35_5_Branch_1_Conv2d_0b_3x3_bn"
  top: "InceptionResnetV2_InceptionResnetV2_Repeat_block35_5_Branch_1_Conv2d_0b_3x3_scale"
  scale_param {
    bias_term: true
  }
}
layer {
  name: "InceptionResnetV2_InceptionResnetV2_Repeat_block35_5_Branch_1_Conv2d_0b_3x3_r"
  type: "ReLU"
  bottom: "InceptionResnetV2_InceptionResnetV2_Repeat_block35_5_Branch_1_Conv2d_0b_3x3_scale"
  top: "InceptionResnetV2_InceptionResnetV2_Repeat_block35_5_Branch_1_Conv2d_0b_3x3_r"
}
layer {
  name: "InceptionResnetV2_InceptionResnetV2_Repeat_block35_5_Branch_2_Conv2d_0a_1x1"
  type: "Convolution"
  bottom: "InceptionResnetV2_InceptionResnetV2_Repeat_block35_4_r"
  top: "InceptionResnetV2_InceptionResnetV2_Repeat_block35_5_Branch_2_Conv2d_0a_1x1"
  convolution_param {
    num_output: 32
    bias_term: false
    group: 1
    pad_h: 0
    pad_w: 0
    kernel_h: 1
    kernel_w: 1
    stride_h: 1
    stride_w: 1
  }
}
layer {
  name: "InceptionResnetV2_InceptionResnetV2_Repeat_block35_5_Branch_2_Conv2d_0a_1x1_bn"
  type: "BatchNorm"
  bottom: "InceptionResnetV2_InceptionResnetV2_Repeat_block35_5_Branch_2_Conv2d_0a_1x1"
  top: "InceptionResnetV2_InceptionResnetV2_Repeat_block35_5_Branch_2_Conv2d_0a_1x1_bn"
  batch_norm_param {
    use_global_stats: true
    eps: 0.0010000000475
  }
}
layer {
  name: "InceptionResnetV2_InceptionResnetV2_Repeat_block35_5_Branch_2_Conv2d_0a_1x1_scale"
  type: "Scale"
  bottom: "InceptionResnetV2_InceptionResnetV2_Repeat_block35_5_Branch_2_Conv2d_0a_1x1_bn"
  top: "InceptionResnetV2_InceptionResnetV2_Repeat_block35_5_Branch_2_Conv2d_0a_1x1_scale"
  scale_param {
    bias_term: true
  }
}
layer {
  name: "InceptionResnetV2_InceptionResnetV2_Repeat_block35_5_Branch_2_Conv2d_0a_1x1_r"
  type: "ReLU"
  bottom: "InceptionResnetV2_InceptionResnetV2_Repeat_block35_5_Branch_2_Conv2d_0a_1x1_scale"
  top: "InceptionResnetV2_InceptionResnetV2_Repeat_block35_5_Branch_2_Conv2d_0a_1x1_r"
}
layer {
  name: "InceptionResnetV2_InceptionResnetV2_Repeat_block35_5_Branch_2_Conv2d_0b_3x3"
  type: "Convolution"
  bottom: "InceptionResnetV2_InceptionResnetV2_Repeat_block35_5_Branch_2_Conv2d_0a_1x1_r"
  top: "InceptionResnetV2_InceptionResnetV2_Repeat_block35_5_Branch_2_Conv2d_0b_3x3"
  convolution_param {
    num_output: 48
    bias_term: false
    group: 1
    pad_h: 1
    pad_w: 1
    kernel_h: 3
    kernel_w: 3
    stride_h: 1
    stride_w: 1
  }
}
layer {
  name: "InceptionResnetV2_InceptionResnetV2_Repeat_block35_5_Branch_2_Conv2d_0b_3x3_bn"
  type: "BatchNorm"
  bottom: "InceptionResnetV2_InceptionResnetV2_Repeat_block35_5_Branch_2_Conv2d_0b_3x3"
  top: "InceptionResnetV2_InceptionResnetV2_Repeat_block35_5_Branch_2_Conv2d_0b_3x3_bn"
  batch_norm_param {
    use_global_stats: true
    eps: 0.0010000000475
  }
}
layer {
  name: "InceptionResnetV2_InceptionResnetV2_Repeat_block35_5_Branch_2_Conv2d_0b_3x3_scale"
  type: "Scale"
  bottom: "InceptionResnetV2_InceptionResnetV2_Repeat_block35_5_Branch_2_Conv2d_0b_3x3_bn"
  top: "InceptionResnetV2_InceptionResnetV2_Repeat_block35_5_Branch_2_Conv2d_0b_3x3_scale"
  scale_param {
    bias_term: true
  }
}
layer {
  name: "InceptionResnetV2_InceptionResnetV2_Repeat_block35_5_Branch_2_Conv2d_0b_3x3_r"
  type: "ReLU"
  bottom: "InceptionResnetV2_InceptionResnetV2_Repeat_block35_5_Branch_2_Conv2d_0b_3x3_scale"
  top: "InceptionResnetV2_InceptionResnetV2_Repeat_block35_5_Branch_2_Conv2d_0b_3x3_r"
}
layer {
  name: "InceptionResnetV2_InceptionResnetV2_Repeat_block35_5_Branch_2_Conv2d_0c_3x3"
  type: "Convolution"
  bottom: "InceptionResnetV2_InceptionResnetV2_Repeat_block35_5_Branch_2_Conv2d_0b_3x3_r"
  top: "InceptionResnetV2_InceptionResnetV2_Repeat_block35_5_Branch_2_Conv2d_0c_3x3"
  convolution_param {
    num_output: 64
    bias_term: false
    group: 1
    pad_h: 1
    pad_w: 1
    kernel_h: 3
    kernel_w: 3
    stride_h: 1
    stride_w: 1
  }
}
layer {
  name: "InceptionResnetV2_InceptionResnetV2_Repeat_block35_5_Branch_2_Conv2d_0c_3x3_bn"
  type: "BatchNorm"
  bottom: "InceptionResnetV2_InceptionResnetV2_Repeat_block35_5_Branch_2_Conv2d_0c_3x3"
  top: "InceptionResnetV2_InceptionResnetV2_Repeat_block35_5_Branch_2_Conv2d_0c_3x3_bn"
  batch_norm_param {
    use_global_stats: true
    eps: 0.0010000000475
  }
}
layer {
  name: "InceptionResnetV2_InceptionResnetV2_Repeat_block35_5_Branch_2_Conv2d_0c_3x3_scale"
  type: "Scale"
  bottom: "InceptionResnetV2_InceptionResnetV2_Repeat_block35_5_Branch_2_Conv2d_0c_3x3_bn"
  top: "InceptionResnetV2_InceptionResnetV2_Repeat_block35_5_Branch_2_Conv2d_0c_3x3_scale"
  scale_param {
    bias_term: true
  }
}
layer {
  name: "InceptionResnetV2_InceptionResnetV2_Repeat_block35_5_Branch_2_Conv2d_0c_3x3_r"
  type: "ReLU"
  bottom: "InceptionResnetV2_InceptionResnetV2_Repeat_block35_5_Branch_2_Conv2d_0c_3x3_scale"
  top: "InceptionResnetV2_InceptionResnetV2_Repeat_block35_5_Branch_2_Conv2d_0c_3x3_r"
}
layer {
  name: "InceptionResnetV2_InceptionResnetV2_Repeat_block35_5_concat"
  type: "Concat"
  bottom: "InceptionResnetV2_InceptionResnetV2_Repeat_block35_5_Branch_0_Conv2d_1x1_r"
  bottom: "InceptionResnetV2_InceptionResnetV2_Repeat_block35_5_Branch_1_Conv2d_0b_3x3_r"
  bottom: "InceptionResnetV2_InceptionResnetV2_Repeat_block35_5_Branch_2_Conv2d_0c_3x3_r"
  top: "InceptionResnetV2_InceptionResnetV2_Repeat_block35_5_concat"
  concat_param {
    axis: 1
  }
}
layer {
  name: "InceptionResnetV2_InceptionResnetV2_Repeat_block35_5_Conv2d_1x1"
  type: "Convolution"
  bottom: "InceptionResnetV2_InceptionResnetV2_Repeat_block35_5_concat"
  top: "InceptionResnetV2_InceptionResnetV2_Repeat_block35_5_Conv2d_1x1"
  convolution_param {
    num_output: 320
    bias_term: true
    group: 1
    pad_h: 0
    pad_w: 0
    kernel_h: 1
    kernel_w: 1
    stride_h: 1
    stride_w: 1
  }
}
layer {
  name: "InceptionResnetV2_InceptionResnetV2_Repeat_block35_5"
  type: "Eltwise"
  bottom: "InceptionResnetV2_InceptionResnetV2_Repeat_block35_4_r"
  bottom: "InceptionResnetV2_InceptionResnetV2_Repeat_block35_5_Conv2d_1x1"
  top: "InceptionResnetV2_InceptionResnetV2_Repeat_block35_5"
  eltwise_param {
    operation: SUM
    coeff: 1.0
    coeff: 0.170000001788
  }
}
layer {
  name: "InceptionResnetV2_InceptionResnetV2_Repeat_block35_5_r"
  type: "ReLU"
  bottom: "InceptionResnetV2_InceptionResnetV2_Repeat_block35_5"
  top: "InceptionResnetV2_InceptionResnetV2_Repeat_block35_5_r"
}
layer {
  name: "InceptionResnetV2_InceptionResnetV2_Repeat_block35_6_Branch_0_Conv2d_1x1"
  type: "Convolution"
  bottom: "InceptionResnetV2_InceptionResnetV2_Repeat_block35_5_r"
  top: "InceptionResnetV2_InceptionResnetV2_Repeat_block35_6_Branch_0_Conv2d_1x1"
  convolution_param {
    num_output: 32
    bias_term: false
    group: 1
    pad_h: 0
    pad_w: 0
    kernel_h: 1
    kernel_w: 1
    stride_h: 1
    stride_w: 1
  }
}
layer {
  name: "InceptionResnetV2_InceptionResnetV2_Repeat_block35_6_Branch_0_Conv2d_1x1_bn"
  type: "BatchNorm"
  bottom: "InceptionResnetV2_InceptionResnetV2_Repeat_block35_6_Branch_0_Conv2d_1x1"
  top: "InceptionResnetV2_InceptionResnetV2_Repeat_block35_6_Branch_0_Conv2d_1x1_bn"
  batch_norm_param {
    use_global_stats: true
    eps: 0.0010000000475
  }
}
layer {
  name: "InceptionResnetV2_InceptionResnetV2_Repeat_block35_6_Branch_0_Conv2d_1x1_scale"
  type: "Scale"
  bottom: "InceptionResnetV2_InceptionResnetV2_Repeat_block35_6_Branch_0_Conv2d_1x1_bn"
  top: "InceptionResnetV2_InceptionResnetV2_Repeat_block35_6_Branch_0_Conv2d_1x1_scale"
  scale_param {
    bias_term: true
  }
}
layer {
  name: "InceptionResnetV2_InceptionResnetV2_Repeat_block35_6_Branch_0_Conv2d_1x1_r"
  type: "ReLU"
  bottom: "InceptionResnetV2_InceptionResnetV2_Repeat_block35_6_Branch_0_Conv2d_1x1_scale"
  top: "InceptionResnetV2_InceptionResnetV2_Repeat_block35_6_Branch_0_Conv2d_1x1_r"
}
layer {
  name: "InceptionResnetV2_InceptionResnetV2_Repeat_block35_6_Branch_1_Conv2d_0a_1x1"
  type: "Convolution"
  bottom: "InceptionResnetV2_InceptionResnetV2_Repeat_block35_5_r"
  top: "InceptionResnetV2_InceptionResnetV2_Repeat_block35_6_Branch_1_Conv2d_0a_1x1"
  convolution_param {
    num_output: 32
    bias_term: false
    group: 1
    pad_h: 0
    pad_w: 0
    kernel_h: 1
    kernel_w: 1
    stride_h: 1
    stride_w: 1
  }
}
layer {
  name: "InceptionResnetV2_InceptionResnetV2_Repeat_block35_6_Branch_1_Conv2d_0a_1x1_bn"
  type: "BatchNorm"
  bottom: "InceptionResnetV2_InceptionResnetV2_Repeat_block35_6_Branch_1_Conv2d_0a_1x1"
  top: "InceptionResnetV2_InceptionResnetV2_Repeat_block35_6_Branch_1_Conv2d_0a_1x1_bn"
  batch_norm_param {
    use_global_stats: true
    eps: 0.0010000000475
  }
}
layer {
  name: "InceptionResnetV2_InceptionResnetV2_Repeat_block35_6_Branch_1_Conv2d_0a_1x1_scale"
  type: "Scale"
  bottom: "InceptionResnetV2_InceptionResnetV2_Repeat_block35_6_Branch_1_Conv2d_0a_1x1_bn"
  top: "InceptionResnetV2_InceptionResnetV2_Repeat_block35_6_Branch_1_Conv2d_0a_1x1_scale"
  scale_param {
    bias_term: true
  }
}
layer {
  name: "InceptionResnetV2_InceptionResnetV2_Repeat_block35_6_Branch_1_Conv2d_0a_1x1_r"
  type: "ReLU"
  bottom: "InceptionResnetV2_InceptionResnetV2_Repeat_block35_6_Branch_1_Conv2d_0a_1x1_scale"
  top: "InceptionResnetV2_InceptionResnetV2_Repeat_block35_6_Branch_1_Conv2d_0a_1x1_r"
}
layer {
  name: "InceptionResnetV2_InceptionResnetV2_Repeat_block35_6_Branch_1_Conv2d_0b_3x3"
  type: "Convolution"
  bottom: "InceptionResnetV2_InceptionResnetV2_Repeat_block35_6_Branch_1_Conv2d_0a_1x1_r"
  top: "InceptionResnetV2_InceptionResnetV2_Repeat_block35_6_Branch_1_Conv2d_0b_3x3"
  convolution_param {
    num_output: 32
    bias_term: false
    group: 1
    pad_h: 1
    pad_w: 1
    kernel_h: 3
    kernel_w: 3
    stride_h: 1
    stride_w: 1
  }
}
layer {
  name: "InceptionResnetV2_InceptionResnetV2_Repeat_block35_6_Branch_1_Conv2d_0b_3x3_bn"
  type: "BatchNorm"
  bottom: "InceptionResnetV2_InceptionResnetV2_Repeat_block35_6_Branch_1_Conv2d_0b_3x3"
  top: "InceptionResnetV2_InceptionResnetV2_Repeat_block35_6_Branch_1_Conv2d_0b_3x3_bn"
  batch_norm_param {
    use_global_stats: true
    eps: 0.0010000000475
  }
}
layer {
  name: "InceptionResnetV2_InceptionResnetV2_Repeat_block35_6_Branch_1_Conv2d_0b_3x3_scale"
  type: "Scale"
  bottom: "InceptionResnetV2_InceptionResnetV2_Repeat_block35_6_Branch_1_Conv2d_0b_3x3_bn"
  top: "InceptionResnetV2_InceptionResnetV2_Repeat_block35_6_Branch_1_Conv2d_0b_3x3_scale"
  scale_param {
    bias_term: true
  }
}
layer {
  name: "InceptionResnetV2_InceptionResnetV2_Repeat_block35_6_Branch_1_Conv2d_0b_3x3_r"
  type: "ReLU"
  bottom: "InceptionResnetV2_InceptionResnetV2_Repeat_block35_6_Branch_1_Conv2d_0b_3x3_scale"
  top: "InceptionResnetV2_InceptionResnetV2_Repeat_block35_6_Branch_1_Conv2d_0b_3x3_r"
}
layer {
  name: "InceptionResnetV2_InceptionResnetV2_Repeat_block35_6_Branch_2_Conv2d_0a_1x1"
  type: "Convolution"
  bottom: "InceptionResnetV2_InceptionResnetV2_Repeat_block35_5_r"
  top: "InceptionResnetV2_InceptionResnetV2_Repeat_block35_6_Branch_2_Conv2d_0a_1x1"
  convolution_param {
    num_output: 32
    bias_term: false
    group: 1
    pad_h: 0
    pad_w: 0
    kernel_h: 1
    kernel_w: 1
    stride_h: 1
    stride_w: 1
  }
}
layer {
  name: "InceptionResnetV2_InceptionResnetV2_Repeat_block35_6_Branch_2_Conv2d_0a_1x1_bn"
  type: "BatchNorm"
  bottom: "InceptionResnetV2_InceptionResnetV2_Repeat_block35_6_Branch_2_Conv2d_0a_1x1"
  top: "InceptionResnetV2_InceptionResnetV2_Repeat_block35_6_Branch_2_Conv2d_0a_1x1_bn"
  batch_norm_param {
    use_global_stats: true
    eps: 0.0010000000475
  }
}
layer {
  name: "InceptionResnetV2_InceptionResnetV2_Repeat_block35_6_Branch_2_Conv2d_0a_1x1_scale"
  type: "Scale"
  bottom: "InceptionResnetV2_InceptionResnetV2_Repeat_block35_6_Branch_2_Conv2d_0a_1x1_bn"
  top: "InceptionResnetV2_InceptionResnetV2_Repeat_block35_6_Branch_2_Conv2d_0a_1x1_scale"
  scale_param {
    bias_term: true
  }
}
layer {
  name: "InceptionResnetV2_InceptionResnetV2_Repeat_block35_6_Branch_2_Conv2d_0a_1x1_r"
  type: "ReLU"
  bottom: "InceptionResnetV2_InceptionResnetV2_Repeat_block35_6_Branch_2_Conv2d_0a_1x1_scale"
  top: "InceptionResnetV2_InceptionResnetV2_Repeat_block35_6_Branch_2_Conv2d_0a_1x1_r"
}
layer {
  name: "InceptionResnetV2_InceptionResnetV2_Repeat_block35_6_Branch_2_Conv2d_0b_3x3"
  type: "Convolution"
  bottom: "InceptionResnetV2_InceptionResnetV2_Repeat_block35_6_Branch_2_Conv2d_0a_1x1_r"
  top: "InceptionResnetV2_InceptionResnetV2_Repeat_block35_6_Branch_2_Conv2d_0b_3x3"
  convolution_param {
    num_output: 48
    bias_term: false
    group: 1
    pad_h: 1
    pad_w: 1
    kernel_h: 3
    kernel_w: 3
    stride_h: 1
    stride_w: 1
  }
}
layer {
  name: "InceptionResnetV2_InceptionResnetV2_Repeat_block35_6_Branch_2_Conv2d_0b_3x3_bn"
  type: "BatchNorm"
  bottom: "InceptionResnetV2_InceptionResnetV2_Repeat_block35_6_Branch_2_Conv2d_0b_3x3"
  top: "InceptionResnetV2_InceptionResnetV2_Repeat_block35_6_Branch_2_Conv2d_0b_3x3_bn"
  batch_norm_param {
    use_global_stats: true
    eps: 0.0010000000475
  }
}
layer {
  name: "InceptionResnetV2_InceptionResnetV2_Repeat_block35_6_Branch_2_Conv2d_0b_3x3_scale"
  type: "Scale"
  bottom: "InceptionResnetV2_InceptionResnetV2_Repeat_block35_6_Branch_2_Conv2d_0b_3x3_bn"
  top: "InceptionResnetV2_InceptionResnetV2_Repeat_block35_6_Branch_2_Conv2d_0b_3x3_scale"
  scale_param {
    bias_term: true
  }
}
layer {
  name: "InceptionResnetV2_InceptionResnetV2_Repeat_block35_6_Branch_2_Conv2d_0b_3x3_r"
  type: "ReLU"
  bottom: "InceptionResnetV2_InceptionResnetV2_Repeat_block35_6_Branch_2_Conv2d_0b_3x3_scale"
  top: "InceptionResnetV2_InceptionResnetV2_Repeat_block35_6_Branch_2_Conv2d_0b_3x3_r"
}
layer {
  name: "InceptionResnetV2_InceptionResnetV2_Repeat_block35_6_Branch_2_Conv2d_0c_3x3"
  type: "Convolution"
  bottom: "InceptionResnetV2_InceptionResnetV2_Repeat_block35_6_Branch_2_Conv2d_0b_3x3_r"
  top: "InceptionResnetV2_InceptionResnetV2_Repeat_block35_6_Branch_2_Conv2d_0c_3x3"
  convolution_param {
    num_output: 64
    bias_term: false
    group: 1
    pad_h: 1
    pad_w: 1
    kernel_h: 3
    kernel_w: 3
    stride_h: 1
    stride_w: 1
  }
}
layer {
  name: "InceptionResnetV2_InceptionResnetV2_Repeat_block35_6_Branch_2_Conv2d_0c_3x3_bn"
  type: "BatchNorm"
  bottom: "InceptionResnetV2_InceptionResnetV2_Repeat_block35_6_Branch_2_Conv2d_0c_3x3"
  top: "InceptionResnetV2_InceptionResnetV2_Repeat_block35_6_Branch_2_Conv2d_0c_3x3_bn"
  batch_norm_param {
    use_global_stats: true
    eps: 0.0010000000475
  }
}
layer {
  name: "InceptionResnetV2_InceptionResnetV2_Repeat_block35_6_Branch_2_Conv2d_0c_3x3_scale"
  type: "Scale"
  bottom: "InceptionResnetV2_InceptionResnetV2_Repeat_block35_6_Branch_2_Conv2d_0c_3x3_bn"
  top: "InceptionResnetV2_InceptionResnetV2_Repeat_block35_6_Branch_2_Conv2d_0c_3x3_scale"
  scale_param {
    bias_term: true
  }
}
layer {
  name: "InceptionResnetV2_InceptionResnetV2_Repeat_block35_6_Branch_2_Conv2d_0c_3x3_r"
  type: "ReLU"
  bottom: "InceptionResnetV2_InceptionResnetV2_Repeat_block35_6_Branch_2_Conv2d_0c_3x3_scale"
  top: "InceptionResnetV2_InceptionResnetV2_Repeat_block35_6_Branch_2_Conv2d_0c_3x3_r"
}
layer {
  name: "InceptionResnetV2_InceptionResnetV2_Repeat_block35_6_concat"
  type: "Concat"
  bottom: "InceptionResnetV2_InceptionResnetV2_Repeat_block35_6_Branch_0_Conv2d_1x1_r"
  bottom: "InceptionResnetV2_InceptionResnetV2_Repeat_block35_6_Branch_1_Conv2d_0b_3x3_r"
  bottom: "InceptionResnetV2_InceptionResnetV2_Repeat_block35_6_Branch_2_Conv2d_0c_3x3_r"
  top: "InceptionResnetV2_InceptionResnetV2_Repeat_block35_6_concat"
  concat_param {
    axis: 1
  }
}
layer {
  name: "InceptionResnetV2_InceptionResnetV2_Repeat_block35_6_Conv2d_1x1"
  type: "Convolution"
  bottom: "InceptionResnetV2_InceptionResnetV2_Repeat_block35_6_concat"
  top: "InceptionResnetV2_InceptionResnetV2_Repeat_block35_6_Conv2d_1x1"
  convolution_param {
    num_output: 320
    bias_term: true
    group: 1
    pad_h: 0
    pad_w: 0
    kernel_h: 1
    kernel_w: 1
    stride_h: 1
    stride_w: 1
  }
}
layer {
  name: "InceptionResnetV2_InceptionResnetV2_Repeat_block35_6"
  type: "Eltwise"
  bottom: "InceptionResnetV2_InceptionResnetV2_Repeat_block35_5_r"
  bottom: "InceptionResnetV2_InceptionResnetV2_Repeat_block35_6_Conv2d_1x1"
  top: "InceptionResnetV2_InceptionResnetV2_Repeat_block35_6"
  eltwise_param {
    operation: SUM
    coeff: 1.0
    coeff: 0.170000001788
  }
}
layer {
  name: "InceptionResnetV2_InceptionResnetV2_Repeat_block35_6_r"
  type: "ReLU"
  bottom: "InceptionResnetV2_InceptionResnetV2_Repeat_block35_6"
  top: "InceptionResnetV2_InceptionResnetV2_Repeat_block35_6_r"
}
layer {
  name: "InceptionResnetV2_InceptionResnetV2_Repeat_block35_7_Branch_0_Conv2d_1x1"
  type: "Convolution"
  bottom: "InceptionResnetV2_InceptionResnetV2_Repeat_block35_6_r"
  top: "InceptionResnetV2_InceptionResnetV2_Repeat_block35_7_Branch_0_Conv2d_1x1"
  convolution_param {
    num_output: 32
    bias_term: false
    group: 1
    pad_h: 0
    pad_w: 0
    kernel_h: 1
    kernel_w: 1
    stride_h: 1
    stride_w: 1
  }
}
layer {
  name: "InceptionResnetV2_InceptionResnetV2_Repeat_block35_7_Branch_0_Conv2d_1x1_bn"
  type: "BatchNorm"
  bottom: "InceptionResnetV2_InceptionResnetV2_Repeat_block35_7_Branch_0_Conv2d_1x1"
  top: "InceptionResnetV2_InceptionResnetV2_Repeat_block35_7_Branch_0_Conv2d_1x1_bn"
  batch_norm_param {
    use_global_stats: true
    eps: 0.0010000000475
  }
}
layer {
  name: "InceptionResnetV2_InceptionResnetV2_Repeat_block35_7_Branch_0_Conv2d_1x1_scale"
  type: "Scale"
  bottom: "InceptionResnetV2_InceptionResnetV2_Repeat_block35_7_Branch_0_Conv2d_1x1_bn"
  top: "InceptionResnetV2_InceptionResnetV2_Repeat_block35_7_Branch_0_Conv2d_1x1_scale"
  scale_param {
    bias_term: true
  }
}
layer {
  name: "InceptionResnetV2_InceptionResnetV2_Repeat_block35_7_Branch_0_Conv2d_1x1_r"
  type: "ReLU"
  bottom: "InceptionResnetV2_InceptionResnetV2_Repeat_block35_7_Branch_0_Conv2d_1x1_scale"
  top: "InceptionResnetV2_InceptionResnetV2_Repeat_block35_7_Branch_0_Conv2d_1x1_r"
}
layer {
  name: "InceptionResnetV2_InceptionResnetV2_Repeat_block35_7_Branch_1_Conv2d_0a_1x1"
  type: "Convolution"
  bottom: "InceptionResnetV2_InceptionResnetV2_Repeat_block35_6_r"
  top: "InceptionResnetV2_InceptionResnetV2_Repeat_block35_7_Branch_1_Conv2d_0a_1x1"
  convolution_param {
    num_output: 32
    bias_term: false
    group: 1
    pad_h: 0
    pad_w: 0
    kernel_h: 1
    kernel_w: 1
    stride_h: 1
    stride_w: 1
  }
}
layer {
  name: "InceptionResnetV2_InceptionResnetV2_Repeat_block35_7_Branch_1_Conv2d_0a_1x1_bn"
  type: "BatchNorm"
  bottom: "InceptionResnetV2_InceptionResnetV2_Repeat_block35_7_Branch_1_Conv2d_0a_1x1"
  top: "InceptionResnetV2_InceptionResnetV2_Repeat_block35_7_Branch_1_Conv2d_0a_1x1_bn"
  batch_norm_param {
    use_global_stats: true
    eps: 0.0010000000475
  }
}
layer {
  name: "InceptionResnetV2_InceptionResnetV2_Repeat_block35_7_Branch_1_Conv2d_0a_1x1_scale"
  type: "Scale"
  bottom: "InceptionResnetV2_InceptionResnetV2_Repeat_block35_7_Branch_1_Conv2d_0a_1x1_bn"
  top: "InceptionResnetV2_InceptionResnetV2_Repeat_block35_7_Branch_1_Conv2d_0a_1x1_scale"
  scale_param {
    bias_term: true
  }
}
layer {
  name: "InceptionResnetV2_InceptionResnetV2_Repeat_block35_7_Branch_1_Conv2d_0a_1x1_r"
  type: "ReLU"
  bottom: "InceptionResnetV2_InceptionResnetV2_Repeat_block35_7_Branch_1_Conv2d_0a_1x1_scale"
  top: "InceptionResnetV2_InceptionResnetV2_Repeat_block35_7_Branch_1_Conv2d_0a_1x1_r"
}
layer {
  name: "InceptionResnetV2_InceptionResnetV2_Repeat_block35_7_Branch_1_Conv2d_0b_3x3"
  type: "Convolution"
  bottom: "InceptionResnetV2_InceptionResnetV2_Repeat_block35_7_Branch_1_Conv2d_0a_1x1_r"
  top: "InceptionResnetV2_InceptionResnetV2_Repeat_block35_7_Branch_1_Conv2d_0b_3x3"
  convolution_param {
    num_output: 32
    bias_term: false
    group: 1
    pad_h: 1
    pad_w: 1
    kernel_h: 3
    kernel_w: 3
    stride_h: 1
    stride_w: 1
  }
}
layer {
  name: "InceptionResnetV2_InceptionResnetV2_Repeat_block35_7_Branch_1_Conv2d_0b_3x3_bn"
  type: "BatchNorm"
  bottom: "InceptionResnetV2_InceptionResnetV2_Repeat_block35_7_Branch_1_Conv2d_0b_3x3"
  top: "InceptionResnetV2_InceptionResnetV2_Repeat_block35_7_Branch_1_Conv2d_0b_3x3_bn"
  batch_norm_param {
    use_global_stats: true
    eps: 0.0010000000475
  }
}
layer {
  name: "InceptionResnetV2_InceptionResnetV2_Repeat_block35_7_Branch_1_Conv2d_0b_3x3_scale"
  type: "Scale"
  bottom: "InceptionResnetV2_InceptionResnetV2_Repeat_block35_7_Branch_1_Conv2d_0b_3x3_bn"
  top: "InceptionResnetV2_InceptionResnetV2_Repeat_block35_7_Branch_1_Conv2d_0b_3x3_scale"
  scale_param {
    bias_term: true
  }
}
layer {
  name: "InceptionResnetV2_InceptionResnetV2_Repeat_block35_7_Branch_1_Conv2d_0b_3x3_r"
  type: "ReLU"
  bottom: "InceptionResnetV2_InceptionResnetV2_Repeat_block35_7_Branch_1_Conv2d_0b_3x3_scale"
  top: "InceptionResnetV2_InceptionResnetV2_Repeat_block35_7_Branch_1_Conv2d_0b_3x3_r"
}
layer {
  name: "InceptionResnetV2_InceptionResnetV2_Repeat_block35_7_Branch_2_Conv2d_0a_1x1"
  type: "Convolution"
  bottom: "InceptionResnetV2_InceptionResnetV2_Repeat_block35_6_r"
  top: "InceptionResnetV2_InceptionResnetV2_Repeat_block35_7_Branch_2_Conv2d_0a_1x1"
  convolution_param {
    num_output: 32
    bias_term: false
    group: 1
    pad_h: 0
    pad_w: 0
    kernel_h: 1
    kernel_w: 1
    stride_h: 1
    stride_w: 1
  }
}
layer {
  name: "InceptionResnetV2_InceptionResnetV2_Repeat_block35_7_Branch_2_Conv2d_0a_1x1_bn"
  type: "BatchNorm"
  bottom: "InceptionResnetV2_InceptionResnetV2_Repeat_block35_7_Branch_2_Conv2d_0a_1x1"
  top: "InceptionResnetV2_InceptionResnetV2_Repeat_block35_7_Branch_2_Conv2d_0a_1x1_bn"
  batch_norm_param {
    use_global_stats: true
    eps: 0.0010000000475
  }
}
layer {
  name: "InceptionResnetV2_InceptionResnetV2_Repeat_block35_7_Branch_2_Conv2d_0a_1x1_scale"
  type: "Scale"
  bottom: "InceptionResnetV2_InceptionResnetV2_Repeat_block35_7_Branch_2_Conv2d_0a_1x1_bn"
  top: "InceptionResnetV2_InceptionResnetV2_Repeat_block35_7_Branch_2_Conv2d_0a_1x1_scale"
  scale_param {
    bias_term: true
  }
}
layer {
  name: "InceptionResnetV2_InceptionResnetV2_Repeat_block35_7_Branch_2_Conv2d_0a_1x1_r"
  type: "ReLU"
  bottom: "InceptionResnetV2_InceptionResnetV2_Repeat_block35_7_Branch_2_Conv2d_0a_1x1_scale"
  top: "InceptionResnetV2_InceptionResnetV2_Repeat_block35_7_Branch_2_Conv2d_0a_1x1_r"
}
layer {
  name: "InceptionResnetV2_InceptionResnetV2_Repeat_block35_7_Branch_2_Conv2d_0b_3x3"
  type: "Convolution"
  bottom: "InceptionResnetV2_InceptionResnetV2_Repeat_block35_7_Branch_2_Conv2d_0a_1x1_r"
  top: "InceptionResnetV2_InceptionResnetV2_Repeat_block35_7_Branch_2_Conv2d_0b_3x3"
  convolution_param {
    num_output: 48
    bias_term: false
    group: 1
    pad_h: 1
    pad_w: 1
    kernel_h: 3
    kernel_w: 3
    stride_h: 1
    stride_w: 1
  }
}
layer {
  name: "InceptionResnetV2_InceptionResnetV2_Repeat_block35_7_Branch_2_Conv2d_0b_3x3_bn"
  type: "BatchNorm"
  bottom: "InceptionResnetV2_InceptionResnetV2_Repeat_block35_7_Branch_2_Conv2d_0b_3x3"
  top: "InceptionResnetV2_InceptionResnetV2_Repeat_block35_7_Branch_2_Conv2d_0b_3x3_bn"
  batch_norm_param {
    use_global_stats: true
    eps: 0.0010000000475
  }
}
layer {
  name: "InceptionResnetV2_InceptionResnetV2_Repeat_block35_7_Branch_2_Conv2d_0b_3x3_scale"
  type: "Scale"
  bottom: "InceptionResnetV2_InceptionResnetV2_Repeat_block35_7_Branch_2_Conv2d_0b_3x3_bn"
  top: "InceptionResnetV2_InceptionResnetV2_Repeat_block35_7_Branch_2_Conv2d_0b_3x3_scale"
  scale_param {
    bias_term: true
  }
}
layer {
  name: "InceptionResnetV2_InceptionResnetV2_Repeat_block35_7_Branch_2_Conv2d_0b_3x3_r"
  type: "ReLU"
  bottom: "InceptionResnetV2_InceptionResnetV2_Repeat_block35_7_Branch_2_Conv2d_0b_3x3_scale"
  top: "InceptionResnetV2_InceptionResnetV2_Repeat_block35_7_Branch_2_Conv2d_0b_3x3_r"
}
layer {
  name: "InceptionResnetV2_InceptionResnetV2_Repeat_block35_7_Branch_2_Conv2d_0c_3x3"
  type: "Convolution"
  bottom: "InceptionResnetV2_InceptionResnetV2_Repeat_block35_7_Branch_2_Conv2d_0b_3x3_r"
  top: "InceptionResnetV2_InceptionResnetV2_Repeat_block35_7_Branch_2_Conv2d_0c_3x3"
  convolution_param {
    num_output: 64
    bias_term: false
    group: 1
    pad_h: 1
    pad_w: 1
    kernel_h: 3
    kernel_w: 3
    stride_h: 1
    stride_w: 1
  }
}
layer {
  name: "InceptionResnetV2_InceptionResnetV2_Repeat_block35_7_Branch_2_Conv2d_0c_3x3_bn"
  type: "BatchNorm"
  bottom: "InceptionResnetV2_InceptionResnetV2_Repeat_block35_7_Branch_2_Conv2d_0c_3x3"
  top: "InceptionResnetV2_InceptionResnetV2_Repeat_block35_7_Branch_2_Conv2d_0c_3x3_bn"
  batch_norm_param {
    use_global_stats: true
    eps: 0.0010000000475
  }
}
layer {
  name: "InceptionResnetV2_InceptionResnetV2_Repeat_block35_7_Branch_2_Conv2d_0c_3x3_scale"
  type: "Scale"
  bottom: "InceptionResnetV2_InceptionResnetV2_Repeat_block35_7_Branch_2_Conv2d_0c_3x3_bn"
  top: "InceptionResnetV2_InceptionResnetV2_Repeat_block35_7_Branch_2_Conv2d_0c_3x3_scale"
  scale_param {
    bias_term: true
  }
}
layer {
  name: "InceptionResnetV2_InceptionResnetV2_Repeat_block35_7_Branch_2_Conv2d_0c_3x3_r"
  type: "ReLU"
  bottom: "InceptionResnetV2_InceptionResnetV2_Repeat_block35_7_Branch_2_Conv2d_0c_3x3_scale"
  top: "InceptionResnetV2_InceptionResnetV2_Repeat_block35_7_Branch_2_Conv2d_0c_3x3_r"
}
layer {
  name: "InceptionResnetV2_InceptionResnetV2_Repeat_block35_7_concat"
  type: "Concat"
  bottom: "InceptionResnetV2_InceptionResnetV2_Repeat_block35_7_Branch_0_Conv2d_1x1_r"
  bottom: "InceptionResnetV2_InceptionResnetV2_Repeat_block35_7_Branch_1_Conv2d_0b_3x3_r"
  bottom: "InceptionResnetV2_InceptionResnetV2_Repeat_block35_7_Branch_2_Conv2d_0c_3x3_r"
  top: "InceptionResnetV2_InceptionResnetV2_Repeat_block35_7_concat"
  concat_param {
    axis: 1
  }
}
layer {
  name: "InceptionResnetV2_InceptionResnetV2_Repeat_block35_7_Conv2d_1x1"
  type: "Convolution"
  bottom: "InceptionResnetV2_InceptionResnetV2_Repeat_block35_7_concat"
  top: "InceptionResnetV2_InceptionResnetV2_Repeat_block35_7_Conv2d_1x1"
  convolution_param {
    num_output: 320
    bias_term: true
    group: 1
    pad_h: 0
    pad_w: 0
    kernel_h: 1
    kernel_w: 1
    stride_h: 1
    stride_w: 1
  }
}
layer {
  name: "InceptionResnetV2_InceptionResnetV2_Repeat_block35_7"
  type: "Eltwise"
  bottom: "InceptionResnetV2_InceptionResnetV2_Repeat_block35_6_r"
  bottom: "InceptionResnetV2_InceptionResnetV2_Repeat_block35_7_Conv2d_1x1"
  top: "InceptionResnetV2_InceptionResnetV2_Repeat_block35_7"
  eltwise_param {
    operation: SUM
    coeff: 1.0
    coeff: 0.170000001788
  }
}
layer {
  name: "InceptionResnetV2_InceptionResnetV2_Repeat_block35_7_r"
  type: "ReLU"
  bottom: "InceptionResnetV2_InceptionResnetV2_Repeat_block35_7"
  top: "InceptionResnetV2_InceptionResnetV2_Repeat_block35_7_r"
}
layer {
  name: "InceptionResnetV2_InceptionResnetV2_Repeat_block35_8_Branch_0_Conv2d_1x1"
  type: "Convolution"
  bottom: "InceptionResnetV2_InceptionResnetV2_Repeat_block35_7_r"
  top: "InceptionResnetV2_InceptionResnetV2_Repeat_block35_8_Branch_0_Conv2d_1x1"
  convolution_param {
    num_output: 32
    bias_term: false
    group: 1
    pad_h: 0
    pad_w: 0
    kernel_h: 1
    kernel_w: 1
    stride_h: 1
    stride_w: 1
  }
}
layer {
  name: "InceptionResnetV2_InceptionResnetV2_Repeat_block35_8_Branch_0_Conv2d_1x1_bn"
  type: "BatchNorm"
  bottom: "InceptionResnetV2_InceptionResnetV2_Repeat_block35_8_Branch_0_Conv2d_1x1"
  top: "InceptionResnetV2_InceptionResnetV2_Repeat_block35_8_Branch_0_Conv2d_1x1_bn"
  batch_norm_param {
    use_global_stats: true
    eps: 0.0010000000475
  }
}
layer {
  name: "InceptionResnetV2_InceptionResnetV2_Repeat_block35_8_Branch_0_Conv2d_1x1_scale"
  type: "Scale"
  bottom: "InceptionResnetV2_InceptionResnetV2_Repeat_block35_8_Branch_0_Conv2d_1x1_bn"
  top: "InceptionResnetV2_InceptionResnetV2_Repeat_block35_8_Branch_0_Conv2d_1x1_scale"
  scale_param {
    bias_term: true
  }
}
layer {
  name: "InceptionResnetV2_InceptionResnetV2_Repeat_block35_8_Branch_0_Conv2d_1x1_r"
  type: "ReLU"
  bottom: "InceptionResnetV2_InceptionResnetV2_Repeat_block35_8_Branch_0_Conv2d_1x1_scale"
  top: "InceptionResnetV2_InceptionResnetV2_Repeat_block35_8_Branch_0_Conv2d_1x1_r"
}
layer {
  name: "InceptionResnetV2_InceptionResnetV2_Repeat_block35_8_Branch_1_Conv2d_0a_1x1"
  type: "Convolution"
  bottom: "InceptionResnetV2_InceptionResnetV2_Repeat_block35_7_r"
  top: "InceptionResnetV2_InceptionResnetV2_Repeat_block35_8_Branch_1_Conv2d_0a_1x1"
  convolution_param {
    num_output: 32
    bias_term: false
    group: 1
    pad_h: 0
    pad_w: 0
    kernel_h: 1
    kernel_w: 1
    stride_h: 1
    stride_w: 1
  }
}
layer {
  name: "InceptionResnetV2_InceptionResnetV2_Repeat_block35_8_Branch_1_Conv2d_0a_1x1_bn"
  type: "BatchNorm"
  bottom: "InceptionResnetV2_InceptionResnetV2_Repeat_block35_8_Branch_1_Conv2d_0a_1x1"
  top: "InceptionResnetV2_InceptionResnetV2_Repeat_block35_8_Branch_1_Conv2d_0a_1x1_bn"
  batch_norm_param {
    use_global_stats: true
    eps: 0.0010000000475
  }
}
layer {
  name: "InceptionResnetV2_InceptionResnetV2_Repeat_block35_8_Branch_1_Conv2d_0a_1x1_scale"
  type: "Scale"
  bottom: "InceptionResnetV2_InceptionResnetV2_Repeat_block35_8_Branch_1_Conv2d_0a_1x1_bn"
  top: "InceptionResnetV2_InceptionResnetV2_Repeat_block35_8_Branch_1_Conv2d_0a_1x1_scale"
  scale_param {
    bias_term: true
  }
}
layer {
  name: "InceptionResnetV2_InceptionResnetV2_Repeat_block35_8_Branch_1_Conv2d_0a_1x1_r"
  type: "ReLU"
  bottom: "InceptionResnetV2_InceptionResnetV2_Repeat_block35_8_Branch_1_Conv2d_0a_1x1_scale"
  top: "InceptionResnetV2_InceptionResnetV2_Repeat_block35_8_Branch_1_Conv2d_0a_1x1_r"
}
layer {
  name: "InceptionResnetV2_InceptionResnetV2_Repeat_block35_8_Branch_1_Conv2d_0b_3x3"
  type: "Convolution"
  bottom: "InceptionResnetV2_InceptionResnetV2_Repeat_block35_8_Branch_1_Conv2d_0a_1x1_r"
  top: "InceptionResnetV2_InceptionResnetV2_Repeat_block35_8_Branch_1_Conv2d_0b_3x3"
  convolution_param {
    num_output: 32
    bias_term: false
    group: 1
    pad_h: 1
    pad_w: 1
    kernel_h: 3
    kernel_w: 3
    stride_h: 1
    stride_w: 1
  }
}
layer {
  name: "InceptionResnetV2_InceptionResnetV2_Repeat_block35_8_Branch_1_Conv2d_0b_3x3_bn"
  type: "BatchNorm"
  bottom: "InceptionResnetV2_InceptionResnetV2_Repeat_block35_8_Branch_1_Conv2d_0b_3x3"
  top: "InceptionResnetV2_InceptionResnetV2_Repeat_block35_8_Branch_1_Conv2d_0b_3x3_bn"
  batch_norm_param {
    use_global_stats: true
    eps: 0.0010000000475
  }
}
layer {
  name: "InceptionResnetV2_InceptionResnetV2_Repeat_block35_8_Branch_1_Conv2d_0b_3x3_scale"
  type: "Scale"
  bottom: "InceptionResnetV2_InceptionResnetV2_Repeat_block35_8_Branch_1_Conv2d_0b_3x3_bn"
  top: "InceptionResnetV2_InceptionResnetV2_Repeat_block35_8_Branch_1_Conv2d_0b_3x3_scale"
  scale_param {
    bias_term: true
  }
}
layer {
  name: "InceptionResnetV2_InceptionResnetV2_Repeat_block35_8_Branch_1_Conv2d_0b_3x3_r"
  type: "ReLU"
  bottom: "InceptionResnetV2_InceptionResnetV2_Repeat_block35_8_Branch_1_Conv2d_0b_3x3_scale"
  top: "InceptionResnetV2_InceptionResnetV2_Repeat_block35_8_Branch_1_Conv2d_0b_3x3_r"
}
layer {
  name: "InceptionResnetV2_InceptionResnetV2_Repeat_block35_8_Branch_2_Conv2d_0a_1x1"
  type: "Convolution"
  bottom: "InceptionResnetV2_InceptionResnetV2_Repeat_block35_7_r"
  top: "InceptionResnetV2_InceptionResnetV2_Repeat_block35_8_Branch_2_Conv2d_0a_1x1"
  convolution_param {
    num_output: 32
    bias_term: false
    group: 1
    pad_h: 0
    pad_w: 0
    kernel_h: 1
    kernel_w: 1
    stride_h: 1
    stride_w: 1
  }
}
layer {
  name: "InceptionResnetV2_InceptionResnetV2_Repeat_block35_8_Branch_2_Conv2d_0a_1x1_bn"
  type: "BatchNorm"
  bottom: "InceptionResnetV2_InceptionResnetV2_Repeat_block35_8_Branch_2_Conv2d_0a_1x1"
  top: "InceptionResnetV2_InceptionResnetV2_Repeat_block35_8_Branch_2_Conv2d_0a_1x1_bn"
  batch_norm_param {
    use_global_stats: true
    eps: 0.0010000000475
  }
}
layer {
  name: "InceptionResnetV2_InceptionResnetV2_Repeat_block35_8_Branch_2_Conv2d_0a_1x1_scale"
  type: "Scale"
  bottom: "InceptionResnetV2_InceptionResnetV2_Repeat_block35_8_Branch_2_Conv2d_0a_1x1_bn"
  top: "InceptionResnetV2_InceptionResnetV2_Repeat_block35_8_Branch_2_Conv2d_0a_1x1_scale"
  scale_param {
    bias_term: true
  }
}
layer {
  name: "InceptionResnetV2_InceptionResnetV2_Repeat_block35_8_Branch_2_Conv2d_0a_1x1_r"
  type: "ReLU"
  bottom: "InceptionResnetV2_InceptionResnetV2_Repeat_block35_8_Branch_2_Conv2d_0a_1x1_scale"
  top: "InceptionResnetV2_InceptionResnetV2_Repeat_block35_8_Branch_2_Conv2d_0a_1x1_r"
}
layer {
  name: "InceptionResnetV2_InceptionResnetV2_Repeat_block35_8_Branch_2_Conv2d_0b_3x3"
  type: "Convolution"
  bottom: "InceptionResnetV2_InceptionResnetV2_Repeat_block35_8_Branch_2_Conv2d_0a_1x1_r"
  top: "InceptionResnetV2_InceptionResnetV2_Repeat_block35_8_Branch_2_Conv2d_0b_3x3"
  convolution_param {
    num_output: 48
    bias_term: false
    group: 1
    pad_h: 1
    pad_w: 1
    kernel_h: 3
    kernel_w: 3
    stride_h: 1
    stride_w: 1
  }
}
layer {
  name: "InceptionResnetV2_InceptionResnetV2_Repeat_block35_8_Branch_2_Conv2d_0b_3x3_bn"
  type: "BatchNorm"
  bottom: "InceptionResnetV2_InceptionResnetV2_Repeat_block35_8_Branch_2_Conv2d_0b_3x3"
  top: "InceptionResnetV2_InceptionResnetV2_Repeat_block35_8_Branch_2_Conv2d_0b_3x3_bn"
  batch_norm_param {
    use_global_stats: true
    eps: 0.0010000000475
  }
}
layer {
  name: "InceptionResnetV2_InceptionResnetV2_Repeat_block35_8_Branch_2_Conv2d_0b_3x3_scale"
  type: "Scale"
  bottom: "InceptionResnetV2_InceptionResnetV2_Repeat_block35_8_Branch_2_Conv2d_0b_3x3_bn"
  top: "InceptionResnetV2_InceptionResnetV2_Repeat_block35_8_Branch_2_Conv2d_0b_3x3_scale"
  scale_param {
    bias_term: true
  }
}
layer {
  name: "InceptionResnetV2_InceptionResnetV2_Repeat_block35_8_Branch_2_Conv2d_0b_3x3_r"
  type: "ReLU"
  bottom: "InceptionResnetV2_InceptionResnetV2_Repeat_block35_8_Branch_2_Conv2d_0b_3x3_scale"
  top: "InceptionResnetV2_InceptionResnetV2_Repeat_block35_8_Branch_2_Conv2d_0b_3x3_r"
}
layer {
  name: "InceptionResnetV2_InceptionResnetV2_Repeat_block35_8_Branch_2_Conv2d_0c_3x3"
  type: "Convolution"
  bottom: "InceptionResnetV2_InceptionResnetV2_Repeat_block35_8_Branch_2_Conv2d_0b_3x3_r"
  top: "InceptionResnetV2_InceptionResnetV2_Repeat_block35_8_Branch_2_Conv2d_0c_3x3"
  convolution_param {
    num_output: 64
    bias_term: false
    group: 1
    pad_h: 1
    pad_w: 1
    kernel_h: 3
    kernel_w: 3
    stride_h: 1
    stride_w: 1
  }
}
layer {
  name: "InceptionResnetV2_InceptionResnetV2_Repeat_block35_8_Branch_2_Conv2d_0c_3x3_bn"
  type: "BatchNorm"
  bottom: "InceptionResnetV2_InceptionResnetV2_Repeat_block35_8_Branch_2_Conv2d_0c_3x3"
  top: "InceptionResnetV2_InceptionResnetV2_Repeat_block35_8_Branch_2_Conv2d_0c_3x3_bn"
  batch_norm_param {
    use_global_stats: true
    eps: 0.0010000000475
  }
}
layer {
  name: "InceptionResnetV2_InceptionResnetV2_Repeat_block35_8_Branch_2_Conv2d_0c_3x3_scale"
  type: "Scale"
  bottom: "InceptionResnetV2_InceptionResnetV2_Repeat_block35_8_Branch_2_Conv2d_0c_3x3_bn"
  top: "InceptionResnetV2_InceptionResnetV2_Repeat_block35_8_Branch_2_Conv2d_0c_3x3_scale"
  scale_param {
    bias_term: true
  }
}
layer {
  name: "InceptionResnetV2_InceptionResnetV2_Repeat_block35_8_Branch_2_Conv2d_0c_3x3_r"
  type: "ReLU"
  bottom: "InceptionResnetV2_InceptionResnetV2_Repeat_block35_8_Branch_2_Conv2d_0c_3x3_scale"
  top: "InceptionResnetV2_InceptionResnetV2_Repeat_block35_8_Branch_2_Conv2d_0c_3x3_r"
}
layer {
  name: "InceptionResnetV2_InceptionResnetV2_Repeat_block35_8_concat"
  type: "Concat"
  bottom: "InceptionResnetV2_InceptionResnetV2_Repeat_block35_8_Branch_0_Conv2d_1x1_r"
  bottom: "InceptionResnetV2_InceptionResnetV2_Repeat_block35_8_Branch_1_Conv2d_0b_3x3_r"
  bottom: "InceptionResnetV2_InceptionResnetV2_Repeat_block35_8_Branch_2_Conv2d_0c_3x3_r"
  top: "InceptionResnetV2_InceptionResnetV2_Repeat_block35_8_concat"
  concat_param {
    axis: 1
  }
}
layer {
  name: "InceptionResnetV2_InceptionResnetV2_Repeat_block35_8_Conv2d_1x1"
  type: "Convolution"
  bottom: "InceptionResnetV2_InceptionResnetV2_Repeat_block35_8_concat"
  top: "InceptionResnetV2_InceptionResnetV2_Repeat_block35_8_Conv2d_1x1"
  convolution_param {
    num_output: 320
    bias_term: true
    group: 1
    pad_h: 0
    pad_w: 0
    kernel_h: 1
    kernel_w: 1
    stride_h: 1
    stride_w: 1
  }
}
layer {
  name: "InceptionResnetV2_InceptionResnetV2_Repeat_block35_8"
  type: "Eltwise"
  bottom: "InceptionResnetV2_InceptionResnetV2_Repeat_block35_7_r"
  bottom: "InceptionResnetV2_InceptionResnetV2_Repeat_block35_8_Conv2d_1x1"
  top: "InceptionResnetV2_InceptionResnetV2_Repeat_block35_8"
  eltwise_param {
    operation: SUM
    coeff: 1.0
    coeff: 0.170000001788
  }
}
layer {
  name: "InceptionResnetV2_InceptionResnetV2_Repeat_block35_8_r"
  type: "ReLU"
  bottom: "InceptionResnetV2_InceptionResnetV2_Repeat_block35_8"
  top: "InceptionResnetV2_InceptionResnetV2_Repeat_block35_8_r"
}
layer {
  name: "InceptionResnetV2_InceptionResnetV2_Repeat_block35_9_Branch_0_Conv2d_1x1"
  type: "Convolution"
  bottom: "InceptionResnetV2_InceptionResnetV2_Repeat_block35_8_r"
  top: "InceptionResnetV2_InceptionResnetV2_Repeat_block35_9_Branch_0_Conv2d_1x1"
  convolution_param {
    num_output: 32
    bias_term: false
    group: 1
    pad_h: 0
    pad_w: 0
    kernel_h: 1
    kernel_w: 1
    stride_h: 1
    stride_w: 1
  }
}
layer {
  name: "InceptionResnetV2_InceptionResnetV2_Repeat_block35_9_Branch_0_Conv2d_1x1_bn"
  type: "BatchNorm"
  bottom: "InceptionResnetV2_InceptionResnetV2_Repeat_block35_9_Branch_0_Conv2d_1x1"
  top: "InceptionResnetV2_InceptionResnetV2_Repeat_block35_9_Branch_0_Conv2d_1x1_bn"
  batch_norm_param {
    use_global_stats: true
    eps: 0.0010000000475
  }
}
layer {
  name: "InceptionResnetV2_InceptionResnetV2_Repeat_block35_9_Branch_0_Conv2d_1x1_scale"
  type: "Scale"
  bottom: "InceptionResnetV2_InceptionResnetV2_Repeat_block35_9_Branch_0_Conv2d_1x1_bn"
  top: "InceptionResnetV2_InceptionResnetV2_Repeat_block35_9_Branch_0_Conv2d_1x1_scale"
  scale_param {
    bias_term: true
  }
}
layer {
  name: "InceptionResnetV2_InceptionResnetV2_Repeat_block35_9_Branch_0_Conv2d_1x1_r"
  type: "ReLU"
  bottom: "InceptionResnetV2_InceptionResnetV2_Repeat_block35_9_Branch_0_Conv2d_1x1_scale"
  top: "InceptionResnetV2_InceptionResnetV2_Repeat_block35_9_Branch_0_Conv2d_1x1_r"
}
layer {
  name: "InceptionResnetV2_InceptionResnetV2_Repeat_block35_9_Branch_1_Conv2d_0a_1x1"
  type: "Convolution"
  bottom: "InceptionResnetV2_InceptionResnetV2_Repeat_block35_8_r"
  top: "InceptionResnetV2_InceptionResnetV2_Repeat_block35_9_Branch_1_Conv2d_0a_1x1"
  convolution_param {
    num_output: 32
    bias_term: false
    group: 1
    pad_h: 0
    pad_w: 0
    kernel_h: 1
    kernel_w: 1
    stride_h: 1
    stride_w: 1
  }
}
layer {
  name: "InceptionResnetV2_InceptionResnetV2_Repeat_block35_9_Branch_1_Conv2d_0a_1x1_bn"
  type: "BatchNorm"
  bottom: "InceptionResnetV2_InceptionResnetV2_Repeat_block35_9_Branch_1_Conv2d_0a_1x1"
  top: "InceptionResnetV2_InceptionResnetV2_Repeat_block35_9_Branch_1_Conv2d_0a_1x1_bn"
  batch_norm_param {
    use_global_stats: true
    eps: 0.0010000000475
  }
}
layer {
  name: "InceptionResnetV2_InceptionResnetV2_Repeat_block35_9_Branch_1_Conv2d_0a_1x1_scale"
  type: "Scale"
  bottom: "InceptionResnetV2_InceptionResnetV2_Repeat_block35_9_Branch_1_Conv2d_0a_1x1_bn"
  top: "InceptionResnetV2_InceptionResnetV2_Repeat_block35_9_Branch_1_Conv2d_0a_1x1_scale"
  scale_param {
    bias_term: true
  }
}
layer {
  name: "InceptionResnetV2_InceptionResnetV2_Repeat_block35_9_Branch_1_Conv2d_0a_1x1_r"
  type: "ReLU"
  bottom: "InceptionResnetV2_InceptionResnetV2_Repeat_block35_9_Branch_1_Conv2d_0a_1x1_scale"
  top: "InceptionResnetV2_InceptionResnetV2_Repeat_block35_9_Branch_1_Conv2d_0a_1x1_r"
}
layer {
  name: "InceptionResnetV2_InceptionResnetV2_Repeat_block35_9_Branch_1_Conv2d_0b_3x3"
  type: "Convolution"
  bottom: "InceptionResnetV2_InceptionResnetV2_Repeat_block35_9_Branch_1_Conv2d_0a_1x1_r"
  top: "InceptionResnetV2_InceptionResnetV2_Repeat_block35_9_Branch_1_Conv2d_0b_3x3"
  convolution_param {
    num_output: 32
    bias_term: false
    group: 1
    pad_h: 1
    pad_w: 1
    kernel_h: 3
    kernel_w: 3
    stride_h: 1
    stride_w: 1
  }
}
layer {
  name: "InceptionResnetV2_InceptionResnetV2_Repeat_block35_9_Branch_1_Conv2d_0b_3x3_bn"
  type: "BatchNorm"
  bottom: "InceptionResnetV2_InceptionResnetV2_Repeat_block35_9_Branch_1_Conv2d_0b_3x3"
  top: "InceptionResnetV2_InceptionResnetV2_Repeat_block35_9_Branch_1_Conv2d_0b_3x3_bn"
  batch_norm_param {
    use_global_stats: true
    eps: 0.0010000000475
  }
}
layer {
  name: "InceptionResnetV2_InceptionResnetV2_Repeat_block35_9_Branch_1_Conv2d_0b_3x3_scale"
  type: "Scale"
  bottom: "InceptionResnetV2_InceptionResnetV2_Repeat_block35_9_Branch_1_Conv2d_0b_3x3_bn"
  top: "InceptionResnetV2_InceptionResnetV2_Repeat_block35_9_Branch_1_Conv2d_0b_3x3_scale"
  scale_param {
    bias_term: true
  }
}
layer {
  name: "InceptionResnetV2_InceptionResnetV2_Repeat_block35_9_Branch_1_Conv2d_0b_3x3_r"
  type: "ReLU"
  bottom: "InceptionResnetV2_InceptionResnetV2_Repeat_block35_9_Branch_1_Conv2d_0b_3x3_scale"
  top: "InceptionResnetV2_InceptionResnetV2_Repeat_block35_9_Branch_1_Conv2d_0b_3x3_r"
}
layer {
  name: "InceptionResnetV2_InceptionResnetV2_Repeat_block35_9_Branch_2_Conv2d_0a_1x1"
  type: "Convolution"
  bottom: "InceptionResnetV2_InceptionResnetV2_Repeat_block35_8_r"
  top: "InceptionResnetV2_InceptionResnetV2_Repeat_block35_9_Branch_2_Conv2d_0a_1x1"
  convolution_param {
    num_output: 32
    bias_term: false
    group: 1
    pad_h: 0
    pad_w: 0
    kernel_h: 1
    kernel_w: 1
    stride_h: 1
    stride_w: 1
  }
}
layer {
  name: "InceptionResnetV2_InceptionResnetV2_Repeat_block35_9_Branch_2_Conv2d_0a_1x1_bn"
  type: "BatchNorm"
  bottom: "InceptionResnetV2_InceptionResnetV2_Repeat_block35_9_Branch_2_Conv2d_0a_1x1"
  top: "InceptionResnetV2_InceptionResnetV2_Repeat_block35_9_Branch_2_Conv2d_0a_1x1_bn"
  batch_norm_param {
    use_global_stats: true
    eps: 0.0010000000475
  }
}
layer {
  name: "InceptionResnetV2_InceptionResnetV2_Repeat_block35_9_Branch_2_Conv2d_0a_1x1_scale"
  type: "Scale"
  bottom: "InceptionResnetV2_InceptionResnetV2_Repeat_block35_9_Branch_2_Conv2d_0a_1x1_bn"
  top: "InceptionResnetV2_InceptionResnetV2_Repeat_block35_9_Branch_2_Conv2d_0a_1x1_scale"
  scale_param {
    bias_term: true
  }
}
layer {
  name: "InceptionResnetV2_InceptionResnetV2_Repeat_block35_9_Branch_2_Conv2d_0a_1x1_r"
  type: "ReLU"
  bottom: "InceptionResnetV2_InceptionResnetV2_Repeat_block35_9_Branch_2_Conv2d_0a_1x1_scale"
  top: "InceptionResnetV2_InceptionResnetV2_Repeat_block35_9_Branch_2_Conv2d_0a_1x1_r"
}
layer {
  name: "InceptionResnetV2_InceptionResnetV2_Repeat_block35_9_Branch_2_Conv2d_0b_3x3"
  type: "Convolution"
  bottom: "InceptionResnetV2_InceptionResnetV2_Repeat_block35_9_Branch_2_Conv2d_0a_1x1_r"
  top: "InceptionResnetV2_InceptionResnetV2_Repeat_block35_9_Branch_2_Conv2d_0b_3x3"
  convolution_param {
    num_output: 48
    bias_term: false
    group: 1
    pad_h: 1
    pad_w: 1
    kernel_h: 3
    kernel_w: 3
    stride_h: 1
    stride_w: 1
  }
}
layer {
  name: "InceptionResnetV2_InceptionResnetV2_Repeat_block35_9_Branch_2_Conv2d_0b_3x3_bn"
  type: "BatchNorm"
  bottom: "InceptionResnetV2_InceptionResnetV2_Repeat_block35_9_Branch_2_Conv2d_0b_3x3"
  top: "InceptionResnetV2_InceptionResnetV2_Repeat_block35_9_Branch_2_Conv2d_0b_3x3_bn"
  batch_norm_param {
    use_global_stats: true
    eps: 0.0010000000475
  }
}
layer {
  name: "InceptionResnetV2_InceptionResnetV2_Repeat_block35_9_Branch_2_Conv2d_0b_3x3_scale"
  type: "Scale"
  bottom: "InceptionResnetV2_InceptionResnetV2_Repeat_block35_9_Branch_2_Conv2d_0b_3x3_bn"
  top: "InceptionResnetV2_InceptionResnetV2_Repeat_block35_9_Branch_2_Conv2d_0b_3x3_scale"
  scale_param {
    bias_term: true
  }
}
layer {
  name: "InceptionResnetV2_InceptionResnetV2_Repeat_block35_9_Branch_2_Conv2d_0b_3x3_r"
  type: "ReLU"
  bottom: "InceptionResnetV2_InceptionResnetV2_Repeat_block35_9_Branch_2_Conv2d_0b_3x3_scale"
  top: "InceptionResnetV2_InceptionResnetV2_Repeat_block35_9_Branch_2_Conv2d_0b_3x3_r"
}
layer {
  name: "InceptionResnetV2_InceptionResnetV2_Repeat_block35_9_Branch_2_Conv2d_0c_3x3"
  type: "Convolution"
  bottom: "InceptionResnetV2_InceptionResnetV2_Repeat_block35_9_Branch_2_Conv2d_0b_3x3_r"
  top: "InceptionResnetV2_InceptionResnetV2_Repeat_block35_9_Branch_2_Conv2d_0c_3x3"
  convolution_param {
    num_output: 64
    bias_term: false
    group: 1
    pad_h: 1
    pad_w: 1
    kernel_h: 3
    kernel_w: 3
    stride_h: 1
    stride_w: 1
  }
}
layer {
  name: "InceptionResnetV2_InceptionResnetV2_Repeat_block35_9_Branch_2_Conv2d_0c_3x3_bn"
  type: "BatchNorm"
  bottom: "InceptionResnetV2_InceptionResnetV2_Repeat_block35_9_Branch_2_Conv2d_0c_3x3"
  top: "InceptionResnetV2_InceptionResnetV2_Repeat_block35_9_Branch_2_Conv2d_0c_3x3_bn"
  batch_norm_param {
    use_global_stats: true
    eps: 0.0010000000475
  }
}
layer {
  name: "InceptionResnetV2_InceptionResnetV2_Repeat_block35_9_Branch_2_Conv2d_0c_3x3_scale"
  type: "Scale"
  bottom: "InceptionResnetV2_InceptionResnetV2_Repeat_block35_9_Branch_2_Conv2d_0c_3x3_bn"
  top: "InceptionResnetV2_InceptionResnetV2_Repeat_block35_9_Branch_2_Conv2d_0c_3x3_scale"
  scale_param {
    bias_term: true
  }
}
layer {
  name: "InceptionResnetV2_InceptionResnetV2_Repeat_block35_9_Branch_2_Conv2d_0c_3x3_r"
  type: "ReLU"
  bottom: "InceptionResnetV2_InceptionResnetV2_Repeat_block35_9_Branch_2_Conv2d_0c_3x3_scale"
  top: "InceptionResnetV2_InceptionResnetV2_Repeat_block35_9_Branch_2_Conv2d_0c_3x3_r"
}
layer {
  name: "InceptionResnetV2_InceptionResnetV2_Repeat_block35_9_concat"
  type: "Concat"
  bottom: "InceptionResnetV2_InceptionResnetV2_Repeat_block35_9_Branch_0_Conv2d_1x1_r"
  bottom: "InceptionResnetV2_InceptionResnetV2_Repeat_block35_9_Branch_1_Conv2d_0b_3x3_r"
  bottom: "InceptionResnetV2_InceptionResnetV2_Repeat_block35_9_Branch_2_Conv2d_0c_3x3_r"
  top: "InceptionResnetV2_InceptionResnetV2_Repeat_block35_9_concat"
  concat_param {
    axis: 1
  }
}
layer {
  name: "InceptionResnetV2_InceptionResnetV2_Repeat_block35_9_Conv2d_1x1"
  type: "Convolution"
  bottom: "InceptionResnetV2_InceptionResnetV2_Repeat_block35_9_concat"
  top: "InceptionResnetV2_InceptionResnetV2_Repeat_block35_9_Conv2d_1x1"
  convolution_param {
    num_output: 320
    bias_term: true
    group: 1
    pad_h: 0
    pad_w: 0
    kernel_h: 1
    kernel_w: 1
    stride_h: 1
    stride_w: 1
  }
}
layer {
  name: "InceptionResnetV2_InceptionResnetV2_Repeat_block35_9"
  type: "Eltwise"
  bottom: "InceptionResnetV2_InceptionResnetV2_Repeat_block35_8_r"
  bottom: "InceptionResnetV2_InceptionResnetV2_Repeat_block35_9_Conv2d_1x1"
  top: "InceptionResnetV2_InceptionResnetV2_Repeat_block35_9"
  eltwise_param {
    operation: SUM
    coeff: 1.0
    coeff: 0.170000001788
  }
}
layer {
  name: "InceptionResnetV2_InceptionResnetV2_Repeat_block35_9_r"
  type: "ReLU"
  bottom: "InceptionResnetV2_InceptionResnetV2_Repeat_block35_9"
  top: "InceptionResnetV2_InceptionResnetV2_Repeat_block35_9_r"
}
layer {
  name: "InceptionResnetV2_InceptionResnetV2_Repeat_block35_10_Branch_0_Conv2d_1x1"
  type: "Convolution"
  bottom: "InceptionResnetV2_InceptionResnetV2_Repeat_block35_9_r"
  top: "InceptionResnetV2_InceptionResnetV2_Repeat_block35_10_Branch_0_Conv2d_1x1"
  convolution_param {
    num_output: 32
    bias_term: false
    group: 1
    pad_h: 0
    pad_w: 0
    kernel_h: 1
    kernel_w: 1
    stride_h: 1
    stride_w: 1
  }
}
layer {
  name: "InceptionResnetV2_InceptionResnetV2_Repeat_block35_10_Branch_0_Conv2d_1x1_bn"
  type: "BatchNorm"
  bottom: "InceptionResnetV2_InceptionResnetV2_Repeat_block35_10_Branch_0_Conv2d_1x1"
  top: "InceptionResnetV2_InceptionResnetV2_Repeat_block35_10_Branch_0_Conv2d_1x1_bn"
  batch_norm_param {
    use_global_stats: true
    eps: 0.0010000000475
  }
}
layer {
  name: "InceptionResnetV2_InceptionResnetV2_Repeat_block35_10_Branch_0_Conv2d_1x1_scale"
  type: "Scale"
  bottom: "InceptionResnetV2_InceptionResnetV2_Repeat_block35_10_Branch_0_Conv2d_1x1_bn"
  top: "InceptionResnetV2_InceptionResnetV2_Repeat_block35_10_Branch_0_Conv2d_1x1_scale"
  scale_param {
    bias_term: true
  }
}
layer {
  name: "InceptionResnetV2_InceptionResnetV2_Repeat_block35_10_Branch_0_Conv2d_1x1_r"
  type: "ReLU"
  bottom: "InceptionResnetV2_InceptionResnetV2_Repeat_block35_10_Branch_0_Conv2d_1x1_scale"
  top: "InceptionResnetV2_InceptionResnetV2_Repeat_block35_10_Branch_0_Conv2d_1x1_r"
}
layer {
  name: "InceptionResnetV2_InceptionResnetV2_Repeat_block35_10_Branch_1_Conv2d_0a_1x1"
  type: "Convolution"
  bottom: "InceptionResnetV2_InceptionResnetV2_Repeat_block35_9_r"
  top: "InceptionResnetV2_InceptionResnetV2_Repeat_block35_10_Branch_1_Conv2d_0a_1x1"
  convolution_param {
    num_output: 32
    bias_term: false
    group: 1
    pad_h: 0
    pad_w: 0
    kernel_h: 1
    kernel_w: 1
    stride_h: 1
    stride_w: 1
  }
}
layer {
  name: "InceptionResnetV2_InceptionResnetV2_Repeat_block35_10_Branch_1_Conv2d_0a_1x1_bn"
  type: "BatchNorm"
  bottom: "InceptionResnetV2_InceptionResnetV2_Repeat_block35_10_Branch_1_Conv2d_0a_1x1"
  top: "InceptionResnetV2_InceptionResnetV2_Repeat_block35_10_Branch_1_Conv2d_0a_1x1_bn"
  batch_norm_param {
    use_global_stats: true
    eps: 0.0010000000475
  }
}
layer {
  name: "InceptionResnetV2_InceptionResnetV2_Repeat_block35_10_Branch_1_Conv2d_0a_1x1_scale"
  type: "Scale"
  bottom: "InceptionResnetV2_InceptionResnetV2_Repeat_block35_10_Branch_1_Conv2d_0a_1x1_bn"
  top: "InceptionResnetV2_InceptionResnetV2_Repeat_block35_10_Branch_1_Conv2d_0a_1x1_scale"
  scale_param {
    bias_term: true
  }
}
layer {
  name: "InceptionResnetV2_InceptionResnetV2_Repeat_block35_10_Branch_1_Conv2d_0a_1x1_r"
  type: "ReLU"
  bottom: "InceptionResnetV2_InceptionResnetV2_Repeat_block35_10_Branch_1_Conv2d_0a_1x1_scale"
  top: "InceptionResnetV2_InceptionResnetV2_Repeat_block35_10_Branch_1_Conv2d_0a_1x1_r"
}
layer {
  name: "InceptionResnetV2_InceptionResnetV2_Repeat_block35_10_Branch_1_Conv2d_0b_3x3"
  type: "Convolution"
  bottom: "InceptionResnetV2_InceptionResnetV2_Repeat_block35_10_Branch_1_Conv2d_0a_1x1_r"
  top: "InceptionResnetV2_InceptionResnetV2_Repeat_block35_10_Branch_1_Conv2d_0b_3x3"
  convolution_param {
    num_output: 32
    bias_term: false
    group: 1
    pad_h: 1
    pad_w: 1
    kernel_h: 3
    kernel_w: 3
    stride_h: 1
    stride_w: 1
  }
}
layer {
  name: "InceptionResnetV2_InceptionResnetV2_Repeat_block35_10_Branch_1_Conv2d_0b_3x3_bn"
  type: "BatchNorm"
  bottom: "InceptionResnetV2_InceptionResnetV2_Repeat_block35_10_Branch_1_Conv2d_0b_3x3"
  top: "InceptionResnetV2_InceptionResnetV2_Repeat_block35_10_Branch_1_Conv2d_0b_3x3_bn"
  batch_norm_param {
    use_global_stats: true
    eps: 0.0010000000475
  }
}
layer {
  name: "InceptionResnetV2_InceptionResnetV2_Repeat_block35_10_Branch_1_Conv2d_0b_3x3_scale"
  type: "Scale"
  bottom: "InceptionResnetV2_InceptionResnetV2_Repeat_block35_10_Branch_1_Conv2d_0b_3x3_bn"
  top: "InceptionResnetV2_InceptionResnetV2_Repeat_block35_10_Branch_1_Conv2d_0b_3x3_scale"
  scale_param {
    bias_term: true
  }
}
layer {
  name: "InceptionResnetV2_InceptionResnetV2_Repeat_block35_10_Branch_1_Conv2d_0b_3x3_r"
  type: "ReLU"
  bottom: "InceptionResnetV2_InceptionResnetV2_Repeat_block35_10_Branch_1_Conv2d_0b_3x3_scale"
  top: "InceptionResnetV2_InceptionResnetV2_Repeat_block35_10_Branch_1_Conv2d_0b_3x3_r"
}
layer {
  name: "InceptionResnetV2_InceptionResnetV2_Repeat_block35_10_Branch_2_Conv2d_0a_1x1"
  type: "Convolution"
  bottom: "InceptionResnetV2_InceptionResnetV2_Repeat_block35_9_r"
  top: "InceptionResnetV2_InceptionResnetV2_Repeat_block35_10_Branch_2_Conv2d_0a_1x1"
  convolution_param {
    num_output: 32
    bias_term: false
    group: 1
    pad_h: 0
    pad_w: 0
    kernel_h: 1
    kernel_w: 1
    stride_h: 1
    stride_w: 1
  }
}
layer {
  name: "InceptionResnetV2_InceptionResnetV2_Repeat_block35_10_Branch_2_Conv2d_0a_1x1_bn"
  type: "BatchNorm"
  bottom: "InceptionResnetV2_InceptionResnetV2_Repeat_block35_10_Branch_2_Conv2d_0a_1x1"
  top: "InceptionResnetV2_InceptionResnetV2_Repeat_block35_10_Branch_2_Conv2d_0a_1x1_bn"
  batch_norm_param {
    use_global_stats: true
    eps: 0.0010000000475
  }
}
layer {
  name: "InceptionResnetV2_InceptionResnetV2_Repeat_block35_10_Branch_2_Conv2d_0a_1x1_scale"
  type: "Scale"
  bottom: "InceptionResnetV2_InceptionResnetV2_Repeat_block35_10_Branch_2_Conv2d_0a_1x1_bn"
  top: "InceptionResnetV2_InceptionResnetV2_Repeat_block35_10_Branch_2_Conv2d_0a_1x1_scale"
  scale_param {
    bias_term: true
  }
}
layer {
  name: "InceptionResnetV2_InceptionResnetV2_Repeat_block35_10_Branch_2_Conv2d_0a_1x1_r"
  type: "ReLU"
  bottom: "InceptionResnetV2_InceptionResnetV2_Repeat_block35_10_Branch_2_Conv2d_0a_1x1_scale"
  top: "InceptionResnetV2_InceptionResnetV2_Repeat_block35_10_Branch_2_Conv2d_0a_1x1_r"
}
layer {
  name: "InceptionResnetV2_InceptionResnetV2_Repeat_block35_10_Branch_2_Conv2d_0b_3x3"
  type: "Convolution"
  bottom: "InceptionResnetV2_InceptionResnetV2_Repeat_block35_10_Branch_2_Conv2d_0a_1x1_r"
  top: "InceptionResnetV2_InceptionResnetV2_Repeat_block35_10_Branch_2_Conv2d_0b_3x3"
  convolution_param {
    num_output: 48
    bias_term: false
    group: 1
    pad_h: 1
    pad_w: 1
    kernel_h: 3
    kernel_w: 3
    stride_h: 1
    stride_w: 1
  }
}
layer {
  name: "InceptionResnetV2_InceptionResnetV2_Repeat_block35_10_Branch_2_Conv2d_0b_3x3_bn"
  type: "BatchNorm"
  bottom: "InceptionResnetV2_InceptionResnetV2_Repeat_block35_10_Branch_2_Conv2d_0b_3x3"
  top: "InceptionResnetV2_InceptionResnetV2_Repeat_block35_10_Branch_2_Conv2d_0b_3x3_bn"
  batch_norm_param {
    use_global_stats: true
    eps: 0.0010000000475
  }
}
layer {
  name: "InceptionResnetV2_InceptionResnetV2_Repeat_block35_10_Branch_2_Conv2d_0b_3x3_scale"
  type: "Scale"
  bottom: "InceptionResnetV2_InceptionResnetV2_Repeat_block35_10_Branch_2_Conv2d_0b_3x3_bn"
  top: "InceptionResnetV2_InceptionResnetV2_Repeat_block35_10_Branch_2_Conv2d_0b_3x3_scale"
  scale_param {
    bias_term: true
  }
}
layer {
  name: "InceptionResnetV2_InceptionResnetV2_Repeat_block35_10_Branch_2_Conv2d_0b_3x3_r"
  type: "ReLU"
  bottom: "InceptionResnetV2_InceptionResnetV2_Repeat_block35_10_Branch_2_Conv2d_0b_3x3_scale"
  top: "InceptionResnetV2_InceptionResnetV2_Repeat_block35_10_Branch_2_Conv2d_0b_3x3_r"
}
layer {
  name: "InceptionResnetV2_InceptionResnetV2_Repeat_block35_10_Branch_2_Conv2d_0c_3x3"
  type: "Convolution"
  bottom: "InceptionResnetV2_InceptionResnetV2_Repeat_block35_10_Branch_2_Conv2d_0b_3x3_r"
  top: "InceptionResnetV2_InceptionResnetV2_Repeat_block35_10_Branch_2_Conv2d_0c_3x3"
  convolution_param {
    num_output: 64
    bias_term: false
    group: 1
    pad_h: 1
    pad_w: 1
    kernel_h: 3
    kernel_w: 3
    stride_h: 1
    stride_w: 1
  }
}
layer {
  name: "InceptionResnetV2_InceptionResnetV2_Repeat_block35_10_Branch_2_Conv2d_0c_3x3_bn"
  type: "BatchNorm"
  bottom: "InceptionResnetV2_InceptionResnetV2_Repeat_block35_10_Branch_2_Conv2d_0c_3x3"
  top: "InceptionResnetV2_InceptionResnetV2_Repeat_block35_10_Branch_2_Conv2d_0c_3x3_bn"
  batch_norm_param {
    use_global_stats: true
    eps: 0.0010000000475
  }
}
layer {
  name: "InceptionResnetV2_InceptionResnetV2_Repeat_block35_10_Branch_2_Conv2d_0c_3x3_scale"
  type: "Scale"
  bottom: "InceptionResnetV2_InceptionResnetV2_Repeat_block35_10_Branch_2_Conv2d_0c_3x3_bn"
  top: "InceptionResnetV2_InceptionResnetV2_Repeat_block35_10_Branch_2_Conv2d_0c_3x3_scale"
  scale_param {
    bias_term: true
  }
}
layer {
  name: "InceptionResnetV2_InceptionResnetV2_Repeat_block35_10_Branch_2_Conv2d_0c_3x3_r"
  type: "ReLU"
  bottom: "InceptionResnetV2_InceptionResnetV2_Repeat_block35_10_Branch_2_Conv2d_0c_3x3_scale"
  top: "InceptionResnetV2_InceptionResnetV2_Repeat_block35_10_Branch_2_Conv2d_0c_3x3_r"
}
layer {
  name: "InceptionResnetV2_InceptionResnetV2_Repeat_block35_10_concat"
  type: "Concat"
  bottom: "InceptionResnetV2_InceptionResnetV2_Repeat_block35_10_Branch_0_Conv2d_1x1_r"
  bottom: "InceptionResnetV2_InceptionResnetV2_Repeat_block35_10_Branch_1_Conv2d_0b_3x3_r"
  bottom: "InceptionResnetV2_InceptionResnetV2_Repeat_block35_10_Branch_2_Conv2d_0c_3x3_r"
  top: "InceptionResnetV2_InceptionResnetV2_Repeat_block35_10_concat"
  concat_param {
    axis: 1
  }
}
layer {
  name: "InceptionResnetV2_InceptionResnetV2_Repeat_block35_10_Conv2d_1x1"
  type: "Convolution"
  bottom: "InceptionResnetV2_InceptionResnetV2_Repeat_block35_10_concat"
  top: "InceptionResnetV2_InceptionResnetV2_Repeat_block35_10_Conv2d_1x1"
  convolution_param {
    num_output: 320
    bias_term: true
    group: 1
    pad_h: 0
    pad_w: 0
    kernel_h: 1
    kernel_w: 1
    stride_h: 1
    stride_w: 1
  }
}
layer {
  name: "InceptionResnetV2_InceptionResnetV2_Repeat_block35_10"
  type: "Eltwise"
  bottom: "InceptionResnetV2_InceptionResnetV2_Repeat_block35_9_r"
  bottom: "InceptionResnetV2_InceptionResnetV2_Repeat_block35_10_Conv2d_1x1"
  top: "InceptionResnetV2_InceptionResnetV2_Repeat_block35_10"
  eltwise_param {
    operation: SUM
    coeff: 1.0
    coeff: 0.170000001788
  }
}
layer {
  name: "InceptionResnetV2_InceptionResnetV2_Repeat_block35_10_r"
  type: "ReLU"
  bottom: "InceptionResnetV2_InceptionResnetV2_Repeat_block35_10"
  top: "InceptionResnetV2_InceptionResnetV2_Repeat_block35_10_r"
}
layer {
  name: "InceptionResnetV2_InceptionResnetV2_Mixed_6a_Branch_0_Conv2d_1a_3x3"
  type: "Convolution"
  bottom: "InceptionResnetV2_InceptionResnetV2_Repeat_block35_10_r"
  top: "InceptionResnetV2_InceptionResnetV2_Mixed_6a_Branch_0_Conv2d_1a_3x3"
  convolution_param {
    num_output: 384
    bias_term: false
    group: 1
    pad_h: 0
    pad_w: 0
    kernel_h: 3
    kernel_w: 3
    stride_h: 2
    stride_w: 2
  }
}
layer {
  name: "InceptionResnetV2_InceptionResnetV2_Mixed_6a_Branch_0_Conv2d_1a_3x3_bn"
  type: "BatchNorm"
  bottom: "InceptionResnetV2_InceptionResnetV2_Mixed_6a_Branch_0_Conv2d_1a_3x3"
  top: "InceptionResnetV2_InceptionResnetV2_Mixed_6a_Branch_0_Conv2d_1a_3x3_bn"
  batch_norm_param {
    use_global_stats: true
    eps: 0.0010000000475
  }
}
layer {
  name: "InceptionResnetV2_InceptionResnetV2_Mixed_6a_Branch_0_Conv2d_1a_3x3_scale"
  type: "Scale"
  bottom: "InceptionResnetV2_InceptionResnetV2_Mixed_6a_Branch_0_Conv2d_1a_3x3_bn"
  top: "InceptionResnetV2_InceptionResnetV2_Mixed_6a_Branch_0_Conv2d_1a_3x3_scale"
  scale_param {
    bias_term: true
  }
}
layer {
  name: "InceptionResnetV2_InceptionResnetV2_Mixed_6a_Branch_0_Conv2d_1a_3x3_r"
  type: "ReLU"
  bottom: "InceptionResnetV2_InceptionResnetV2_Mixed_6a_Branch_0_Conv2d_1a_3x3_scale"
  top: "InceptionResnetV2_InceptionResnetV2_Mixed_6a_Branch_0_Conv2d_1a_3x3_r"
}
layer {
  name: "InceptionResnetV2_InceptionResnetV2_Mixed_6a_Branch_1_Conv2d_0a_1x1"
  type: "Convolution"
  bottom: "InceptionResnetV2_InceptionResnetV2_Repeat_block35_10_r"
  top: "InceptionResnetV2_InceptionResnetV2_Mixed_6a_Branch_1_Conv2d_0a_1x1"
  convolution_param {
    num_output: 256
    bias_term: false
    group: 1
    pad_h: 0
    pad_w: 0
    kernel_h: 1
    kernel_w: 1
    stride_h: 1
    stride_w: 1
  }
}
layer {
  name: "InceptionResnetV2_InceptionResnetV2_Mixed_6a_Branch_1_Conv2d_0a_1x1_bn"
  type: "BatchNorm"
  bottom: "InceptionResnetV2_InceptionResnetV2_Mixed_6a_Branch_1_Conv2d_0a_1x1"
  top: "InceptionResnetV2_InceptionResnetV2_Mixed_6a_Branch_1_Conv2d_0a_1x1_bn"
  batch_norm_param {
    use_global_stats: true
    eps: 0.0010000000475
  }
}
layer {
  name: "InceptionResnetV2_InceptionResnetV2_Mixed_6a_Branch_1_Conv2d_0a_1x1_scale"
  type: "Scale"
  bottom: "InceptionResnetV2_InceptionResnetV2_Mixed_6a_Branch_1_Conv2d_0a_1x1_bn"
  top: "InceptionResnetV2_InceptionResnetV2_Mixed_6a_Branch_1_Conv2d_0a_1x1_scale"
  scale_param {
    bias_term: true
  }
}
layer {
  name: "InceptionResnetV2_InceptionResnetV2_Mixed_6a_Branch_1_Conv2d_0a_1x1_r"
  type: "ReLU"
  bottom: "InceptionResnetV2_InceptionResnetV2_Mixed_6a_Branch_1_Conv2d_0a_1x1_scale"
  top: "InceptionResnetV2_InceptionResnetV2_Mixed_6a_Branch_1_Conv2d_0a_1x1_r"
}
layer {
  name: "InceptionResnetV2_InceptionResnetV2_Mixed_6a_Branch_1_Conv2d_0b_3x3"
  type: "Convolution"
  bottom: "InceptionResnetV2_InceptionResnetV2_Mixed_6a_Branch_1_Conv2d_0a_1x1_r"
  top: "InceptionResnetV2_InceptionResnetV2_Mixed_6a_Branch_1_Conv2d_0b_3x3"
  convolution_param {
    num_output: 256
    bias_term: false
    group: 1
    pad_h: 1
    pad_w: 1
    kernel_h: 3
    kernel_w: 3
    stride_h: 1
    stride_w: 1
  }
}
layer {
  name: "InceptionResnetV2_InceptionResnetV2_Mixed_6a_Branch_1_Conv2d_0b_3x3_bn"
  type: "BatchNorm"
  bottom: "InceptionResnetV2_InceptionResnetV2_Mixed_6a_Branch_1_Conv2d_0b_3x3"
  top: "InceptionResnetV2_InceptionResnetV2_Mixed_6a_Branch_1_Conv2d_0b_3x3_bn"
  batch_norm_param {
    use_global_stats: true
    eps: 0.0010000000475
  }
}
layer {
  name: "InceptionResnetV2_InceptionResnetV2_Mixed_6a_Branch_1_Conv2d_0b_3x3_scale"
  type: "Scale"
  bottom: "InceptionResnetV2_InceptionResnetV2_Mixed_6a_Branch_1_Conv2d_0b_3x3_bn"
  top: "InceptionResnetV2_InceptionResnetV2_Mixed_6a_Branch_1_Conv2d_0b_3x3_scale"
  scale_param {
    bias_term: true
  }
}
layer {
  name: "InceptionResnetV2_InceptionResnetV2_Mixed_6a_Branch_1_Conv2d_0b_3x3_r"
  type: "ReLU"
  bottom: "InceptionResnetV2_InceptionResnetV2_Mixed_6a_Branch_1_Conv2d_0b_3x3_scale"
  top: "InceptionResnetV2_InceptionResnetV2_Mixed_6a_Branch_1_Conv2d_0b_3x3_r"
}
layer {
  name: "InceptionResnetV2_InceptionResnetV2_Mixed_6a_Branch_1_Conv2d_1a_3x3"
  type: "Convolution"
  bottom: "InceptionResnetV2_InceptionResnetV2_Mixed_6a_Branch_1_Conv2d_0b_3x3_r"
  top: "InceptionResnetV2_InceptionResnetV2_Mixed_6a_Branch_1_Conv2d_1a_3x3"
  convolution_param {
    num_output: 384
    bias_term: false
    group: 1
    pad_h: 0
    pad_w: 0
    kernel_h: 3
    kernel_w: 3
    stride_h: 2
    stride_w: 2
  }
}
layer {
  name: "InceptionResnetV2_InceptionResnetV2_Mixed_6a_Branch_1_Conv2d_1a_3x3_bn"
  type: "BatchNorm"
  bottom: "InceptionResnetV2_InceptionResnetV2_Mixed_6a_Branch_1_Conv2d_1a_3x3"
  top: "InceptionResnetV2_InceptionResnetV2_Mixed_6a_Branch_1_Conv2d_1a_3x3_bn"
  batch_norm_param {
    use_global_stats: true
    eps: 0.0010000000475
  }
}
layer {
  name: "InceptionResnetV2_InceptionResnetV2_Mixed_6a_Branch_1_Conv2d_1a_3x3_scale"
  type: "Scale"
  bottom: "InceptionResnetV2_InceptionResnetV2_Mixed_6a_Branch_1_Conv2d_1a_3x3_bn"
  top: "InceptionResnetV2_InceptionResnetV2_Mixed_6a_Branch_1_Conv2d_1a_3x3_scale"
  scale_param {
    bias_term: true
  }
}
layer {
  name: "InceptionResnetV2_InceptionResnetV2_Mixed_6a_Branch_1_Conv2d_1a_3x3_r"
  type: "ReLU"
  bottom: "InceptionResnetV2_InceptionResnetV2_Mixed_6a_Branch_1_Conv2d_1a_3x3_scale"
  top: "InceptionResnetV2_InceptionResnetV2_Mixed_6a_Branch_1_Conv2d_1a_3x3_r"
}
layer {
  name: "InceptionResnetV2_InceptionResnetV2_Mixed_6a_Branch_2_MaxPool_1a_3x3_MaxPool"
  type: "Pooling"
  bottom: "InceptionResnetV2_InceptionResnetV2_Repeat_block35_10_r"
  top: "InceptionResnetV2_InceptionResnetV2_Mixed_6a_Branch_2_MaxPool_1a_3x3_MaxPool"
  pooling_param {
    pool: MAX
    kernel_h: 3
    kernel_w: 3
    stride_h: 2
    stride_w: 2
    pad_h: 0
    pad_w: 0
  }
}
layer {
  name: "InceptionResnetV2_InceptionResnetV2_Mixed_6a_concat"
  type: "Concat"
  bottom: "InceptionResnetV2_InceptionResnetV2_Mixed_6a_Branch_0_Conv2d_1a_3x3_r"
  bottom: "InceptionResnetV2_InceptionResnetV2_Mixed_6a_Branch_1_Conv2d_1a_3x3_r"
  bottom: "InceptionResnetV2_InceptionResnetV2_Mixed_6a_Branch_2_MaxPool_1a_3x3_MaxPool"
  top: "InceptionResnetV2_InceptionResnetV2_Mixed_6a_concat"
  concat_param {
    axis: 1
  }
}
layer {
  name: "InceptionResnetV2_InceptionResnetV2_Repeat_1_block17_1_Branch_0_Conv2d_1x1"
  type: "Convolution"
  bottom: "InceptionResnetV2_InceptionResnetV2_Mixed_6a_concat"
  top: "InceptionResnetV2_InceptionResnetV2_Repeat_1_block17_1_Branch_0_Conv2d_1x1"
  convolution_param {
    num_output: 192
    bias_term: false
    group: 1
    pad_h: 0
    pad_w: 0
    kernel_h: 1
    kernel_w: 1
    stride_h: 1
    stride_w: 1
  }
}
layer {
  name: "InceptionResnetV2_InceptionResnetV2_Repeat_1_block17_1_Branch_0_Conv2d_1x1_bn"
  type: "BatchNorm"
  bottom: "InceptionResnetV2_InceptionResnetV2_Repeat_1_block17_1_Branch_0_Conv2d_1x1"
  top: "InceptionResnetV2_InceptionResnetV2_Repeat_1_block17_1_Branch_0_Conv2d_1x1_bn"
  batch_norm_param {
    use_global_stats: true
    eps: 0.0010000000475
  }
}
layer {
  name: "InceptionResnetV2_InceptionResnetV2_Repeat_1_block17_1_Branch_0_Conv2d_1x1_scale"
  type: "Scale"
  bottom: "InceptionResnetV2_InceptionResnetV2_Repeat_1_block17_1_Branch_0_Conv2d_1x1_bn"
  top: "InceptionResnetV2_InceptionResnetV2_Repeat_1_block17_1_Branch_0_Conv2d_1x1_scale"
  scale_param {
    bias_term: true
  }
}
layer {
  name: "InceptionResnetV2_InceptionResnetV2_Repeat_1_block17_1_Branch_0_Conv2d_1x1_r"
  type: "ReLU"
  bottom: "InceptionResnetV2_InceptionResnetV2_Repeat_1_block17_1_Branch_0_Conv2d_1x1_scale"
  top: "InceptionResnetV2_InceptionResnetV2_Repeat_1_block17_1_Branch_0_Conv2d_1x1_r"
}
layer {
  name: "InceptionResnetV2_InceptionResnetV2_Repeat_1_block17_1_Branch_1_Conv2d_0a_1x1"
  type: "Convolution"
  bottom: "InceptionResnetV2_InceptionResnetV2_Mixed_6a_concat"
  top: "InceptionResnetV2_InceptionResnetV2_Repeat_1_block17_1_Branch_1_Conv2d_0a_1x1"
  convolution_param {
    num_output: 128
    bias_term: false
    group: 1
    pad_h: 0
    pad_w: 0
    kernel_h: 1
    kernel_w: 1
    stride_h: 1
    stride_w: 1
  }
}
layer {
  name: "InceptionResnetV2_InceptionResnetV2_Repeat_1_block17_1_Branch_1_Conv2d_0a_1x1_bn"
  type: "BatchNorm"
  bottom: "InceptionResnetV2_InceptionResnetV2_Repeat_1_block17_1_Branch_1_Conv2d_0a_1x1"
  top: "InceptionResnetV2_InceptionResnetV2_Repeat_1_block17_1_Branch_1_Conv2d_0a_1x1_bn"
  batch_norm_param {
    use_global_stats: true
    eps: 0.0010000000475
  }
}
layer {
  name: "InceptionResnetV2_InceptionResnetV2_Repeat_1_block17_1_Branch_1_Conv2d_0a_1x1_scale"
  type: "Scale"
  bottom: "InceptionResnetV2_InceptionResnetV2_Repeat_1_block17_1_Branch_1_Conv2d_0a_1x1_bn"
  top: "InceptionResnetV2_InceptionResnetV2_Repeat_1_block17_1_Branch_1_Conv2d_0a_1x1_scale"
  scale_param {
    bias_term: true
  }
}
layer {
  name: "InceptionResnetV2_InceptionResnetV2_Repeat_1_block17_1_Branch_1_Conv2d_0a_1x1_r"
  type: "ReLU"
  bottom: "InceptionResnetV2_InceptionResnetV2_Repeat_1_block17_1_Branch_1_Conv2d_0a_1x1_scale"
  top: "InceptionResnetV2_InceptionResnetV2_Repeat_1_block17_1_Branch_1_Conv2d_0a_1x1_r"
}
layer {
  name: "InceptionResnetV2_InceptionResnetV2_Repeat_1_block17_1_Branch_1_Conv2d_0b_1x7"
  type: "Convolution"
  bottom: "InceptionResnetV2_InceptionResnetV2_Repeat_1_block17_1_Branch_1_Conv2d_0a_1x1_r"
  top: "InceptionResnetV2_InceptionResnetV2_Repeat_1_block17_1_Branch_1_Conv2d_0b_1x7"
  convolution_param {
    num_output: 160
    bias_term: false
    group: 1
    pad_h: 0
    pad_w: 3
    kernel_h: 1
    kernel_w: 7
    stride_h: 1
    stride_w: 1
  }
}
layer {
  name: "InceptionResnetV2_InceptionResnetV2_Repeat_1_block17_1_Branch_1_Conv2d_0b_1x7_bn"
  type: "BatchNorm"
  bottom: "InceptionResnetV2_InceptionResnetV2_Repeat_1_block17_1_Branch_1_Conv2d_0b_1x7"
  top: "InceptionResnetV2_InceptionResnetV2_Repeat_1_block17_1_Branch_1_Conv2d_0b_1x7_bn"
  batch_norm_param {
    use_global_stats: true
    eps: 0.0010000000475
  }
}
layer {
  name: "InceptionResnetV2_InceptionResnetV2_Repeat_1_block17_1_Branch_1_Conv2d_0b_1x7_scale"
  type: "Scale"
  bottom: "InceptionResnetV2_InceptionResnetV2_Repeat_1_block17_1_Branch_1_Conv2d_0b_1x7_bn"
  top: "InceptionResnetV2_InceptionResnetV2_Repeat_1_block17_1_Branch_1_Conv2d_0b_1x7_scale"
  scale_param {
    bias_term: true
  }
}
layer {
  name: "InceptionResnetV2_InceptionResnetV2_Repeat_1_block17_1_Branch_1_Conv2d_0b_1x7_r"
  type: "ReLU"
  bottom: "InceptionResnetV2_InceptionResnetV2_Repeat_1_block17_1_Branch_1_Conv2d_0b_1x7_scale"
  top: "InceptionResnetV2_InceptionResnetV2_Repeat_1_block17_1_Branch_1_Conv2d_0b_1x7_r"
}
layer {
  name: "InceptionResnetV2_InceptionResnetV2_Repeat_1_block17_1_Branch_1_Conv2d_0c_7x1"
  type: "Convolution"
  bottom: "InceptionResnetV2_InceptionResnetV2_Repeat_1_block17_1_Branch_1_Conv2d_0b_1x7_r"
  top: "InceptionResnetV2_InceptionResnetV2_Repeat_1_block17_1_Branch_1_Conv2d_0c_7x1"
  convolution_param {
    num_output: 192
    bias_term: false
    group: 1
    pad_h: 3
    pad_w: 0
    kernel_h: 7
    kernel_w: 1
    stride_h: 1
    stride_w: 1
  }
}
layer {
  name: "InceptionResnetV2_InceptionResnetV2_Repeat_1_block17_1_Branch_1_Conv2d_0c_7x1_bn"
  type: "BatchNorm"
  bottom: "InceptionResnetV2_InceptionResnetV2_Repeat_1_block17_1_Branch_1_Conv2d_0c_7x1"
  top: "InceptionResnetV2_InceptionResnetV2_Repeat_1_block17_1_Branch_1_Conv2d_0c_7x1_bn"
  batch_norm_param {
    use_global_stats: true
    eps: 0.0010000000475
  }
}
layer {
  name: "InceptionResnetV2_InceptionResnetV2_Repeat_1_block17_1_Branch_1_Conv2d_0c_7x1_scale"
  type: "Scale"
  bottom: "InceptionResnetV2_InceptionResnetV2_Repeat_1_block17_1_Branch_1_Conv2d_0c_7x1_bn"
  top: "InceptionResnetV2_InceptionResnetV2_Repeat_1_block17_1_Branch_1_Conv2d_0c_7x1_scale"
  scale_param {
    bias_term: true
  }
}
layer {
  name: "InceptionResnetV2_InceptionResnetV2_Repeat_1_block17_1_Branch_1_Conv2d_0c_7x1_r"
  type: "ReLU"
  bottom: "InceptionResnetV2_InceptionResnetV2_Repeat_1_block17_1_Branch_1_Conv2d_0c_7x1_scale"
  top: "InceptionResnetV2_InceptionResnetV2_Repeat_1_block17_1_Branch_1_Conv2d_0c_7x1_r"
}
layer {
  name: "InceptionResnetV2_InceptionResnetV2_Repeat_1_block17_1_concat"
  type: "Concat"
  bottom: "InceptionResnetV2_InceptionResnetV2_Repeat_1_block17_1_Branch_0_Conv2d_1x1_r"
  bottom: "InceptionResnetV2_InceptionResnetV2_Repeat_1_block17_1_Branch_1_Conv2d_0c_7x1_r"
  top: "InceptionResnetV2_InceptionResnetV2_Repeat_1_block17_1_concat"
  concat_param {
    axis: 1
  }
}
layer {
  name: "InceptionResnetV2_InceptionResnetV2_Repeat_1_block17_1_Conv2d_1x1"
  type: "Convolution"
  bottom: "InceptionResnetV2_InceptionResnetV2_Repeat_1_block17_1_concat"
  top: "InceptionResnetV2_InceptionResnetV2_Repeat_1_block17_1_Conv2d_1x1"
  convolution_param {
    num_output: 1088
    bias_term: true
    group: 1
    pad_h: 0
    pad_w: 0
    kernel_h: 1
    kernel_w: 1
    stride_h: 1
    stride_w: 1
  }
}
layer {
  name: "InceptionResnetV2_InceptionResnetV2_Repeat_1_block17_1"
  type: "Eltwise"
  bottom: "InceptionResnetV2_InceptionResnetV2_Mixed_6a_concat"
  bottom: "InceptionResnetV2_InceptionResnetV2_Repeat_1_block17_1_Conv2d_1x1"
  top: "InceptionResnetV2_InceptionResnetV2_Repeat_1_block17_1"
  eltwise_param {
    operation: SUM
    coeff: 1.0
    coeff: 0.10000000149
  }
}
layer {
  name: "InceptionResnetV2_InceptionResnetV2_Repeat_1_block17_1_r"
  type: "ReLU"
  bottom: "InceptionResnetV2_InceptionResnetV2_Repeat_1_block17_1"
  top: "InceptionResnetV2_InceptionResnetV2_Repeat_1_block17_1_r"
}
layer {
  name: "InceptionResnetV2_InceptionResnetV2_Repeat_1_block17_2_Branch_0_Conv2d_1x1"
  type: "Convolution"
  bottom: "InceptionResnetV2_InceptionResnetV2_Repeat_1_block17_1_r"
  top: "InceptionResnetV2_InceptionResnetV2_Repeat_1_block17_2_Branch_0_Conv2d_1x1"
  convolution_param {
    num_output: 192
    bias_term: false
    group: 1
    pad_h: 0
    pad_w: 0
    kernel_h: 1
    kernel_w: 1
    stride_h: 1
    stride_w: 1
  }
}
layer {
  name: "InceptionResnetV2_InceptionResnetV2_Repeat_1_block17_2_Branch_0_Conv2d_1x1_bn"
  type: "BatchNorm"
  bottom: "InceptionResnetV2_InceptionResnetV2_Repeat_1_block17_2_Branch_0_Conv2d_1x1"
  top: "InceptionResnetV2_InceptionResnetV2_Repeat_1_block17_2_Branch_0_Conv2d_1x1_bn"
  batch_norm_param {
    use_global_stats: true
    eps: 0.0010000000475
  }
}
layer {
  name: "InceptionResnetV2_InceptionResnetV2_Repeat_1_block17_2_Branch_0_Conv2d_1x1_scale"
  type: "Scale"
  bottom: "InceptionResnetV2_InceptionResnetV2_Repeat_1_block17_2_Branch_0_Conv2d_1x1_bn"
  top: "InceptionResnetV2_InceptionResnetV2_Repeat_1_block17_2_Branch_0_Conv2d_1x1_scale"
  scale_param {
    bias_term: true
  }
}
layer {
  name: "InceptionResnetV2_InceptionResnetV2_Repeat_1_block17_2_Branch_0_Conv2d_1x1_r"
  type: "ReLU"
  bottom: "InceptionResnetV2_InceptionResnetV2_Repeat_1_block17_2_Branch_0_Conv2d_1x1_scale"
  top: "InceptionResnetV2_InceptionResnetV2_Repeat_1_block17_2_Branch_0_Conv2d_1x1_r"
}
layer {
  name: "InceptionResnetV2_InceptionResnetV2_Repeat_1_block17_2_Branch_1_Conv2d_0a_1x1"
  type: "Convolution"
  bottom: "InceptionResnetV2_InceptionResnetV2_Repeat_1_block17_1_r"
  top: "InceptionResnetV2_InceptionResnetV2_Repeat_1_block17_2_Branch_1_Conv2d_0a_1x1"
  convolution_param {
    num_output: 128
    bias_term: false
    group: 1
    pad_h: 0
    pad_w: 0
    kernel_h: 1
    kernel_w: 1
    stride_h: 1
    stride_w: 1
  }
}
layer {
  name: "InceptionResnetV2_InceptionResnetV2_Repeat_1_block17_2_Branch_1_Conv2d_0a_1x1_bn"
  type: "BatchNorm"
  bottom: "InceptionResnetV2_InceptionResnetV2_Repeat_1_block17_2_Branch_1_Conv2d_0a_1x1"
  top: "InceptionResnetV2_InceptionResnetV2_Repeat_1_block17_2_Branch_1_Conv2d_0a_1x1_bn"
  batch_norm_param {
    use_global_stats: true
    eps: 0.0010000000475
  }
}
layer {
  name: "InceptionResnetV2_InceptionResnetV2_Repeat_1_block17_2_Branch_1_Conv2d_0a_1x1_scale"
  type: "Scale"
  bottom: "InceptionResnetV2_InceptionResnetV2_Repeat_1_block17_2_Branch_1_Conv2d_0a_1x1_bn"
  top: "InceptionResnetV2_InceptionResnetV2_Repeat_1_block17_2_Branch_1_Conv2d_0a_1x1_scale"
  scale_param {
    bias_term: true
  }
}
layer {
  name: "InceptionResnetV2_InceptionResnetV2_Repeat_1_block17_2_Branch_1_Conv2d_0a_1x1_r"
  type: "ReLU"
  bottom: "InceptionResnetV2_InceptionResnetV2_Repeat_1_block17_2_Branch_1_Conv2d_0a_1x1_scale"
  top: "InceptionResnetV2_InceptionResnetV2_Repeat_1_block17_2_Branch_1_Conv2d_0a_1x1_r"
}
layer {
  name: "InceptionResnetV2_InceptionResnetV2_Repeat_1_block17_2_Branch_1_Conv2d_0b_1x7"
  type: "Convolution"
  bottom: "InceptionResnetV2_InceptionResnetV2_Repeat_1_block17_2_Branch_1_Conv2d_0a_1x1_r"
  top: "InceptionResnetV2_InceptionResnetV2_Repeat_1_block17_2_Branch_1_Conv2d_0b_1x7"
  convolution_param {
    num_output: 160
    bias_term: false
    group: 1
    pad_h: 0
    pad_w: 3
    kernel_h: 1
    kernel_w: 7
    stride_h: 1
    stride_w: 1
  }
}
layer {
  name: "InceptionResnetV2_InceptionResnetV2_Repeat_1_block17_2_Branch_1_Conv2d_0b_1x7_bn"
  type: "BatchNorm"
  bottom: "InceptionResnetV2_InceptionResnetV2_Repeat_1_block17_2_Branch_1_Conv2d_0b_1x7"
  top: "InceptionResnetV2_InceptionResnetV2_Repeat_1_block17_2_Branch_1_Conv2d_0b_1x7_bn"
  batch_norm_param {
    use_global_stats: true
    eps: 0.0010000000475
  }
}
layer {
  name: "InceptionResnetV2_InceptionResnetV2_Repeat_1_block17_2_Branch_1_Conv2d_0b_1x7_scale"
  type: "Scale"
  bottom: "InceptionResnetV2_InceptionResnetV2_Repeat_1_block17_2_Branch_1_Conv2d_0b_1x7_bn"
  top: "InceptionResnetV2_InceptionResnetV2_Repeat_1_block17_2_Branch_1_Conv2d_0b_1x7_scale"
  scale_param {
    bias_term: true
  }
}
layer {
  name: "InceptionResnetV2_InceptionResnetV2_Repeat_1_block17_2_Branch_1_Conv2d_0b_1x7_r"
  type: "ReLU"
  bottom: "InceptionResnetV2_InceptionResnetV2_Repeat_1_block17_2_Branch_1_Conv2d_0b_1x7_scale"
  top: "InceptionResnetV2_InceptionResnetV2_Repeat_1_block17_2_Branch_1_Conv2d_0b_1x7_r"
}
layer {
  name: "InceptionResnetV2_InceptionResnetV2_Repeat_1_block17_2_Branch_1_Conv2d_0c_7x1"
  type: "Convolution"
  bottom: "InceptionResnetV2_InceptionResnetV2_Repeat_1_block17_2_Branch_1_Conv2d_0b_1x7_r"
  top: "InceptionResnetV2_InceptionResnetV2_Repeat_1_block17_2_Branch_1_Conv2d_0c_7x1"
  convolution_param {
    num_output: 192
    bias_term: false
    group: 1
    pad_h: 3
    pad_w: 0
    kernel_h: 7
    kernel_w: 1
    stride_h: 1
    stride_w: 1
  }
}
layer {
  name: "InceptionResnetV2_InceptionResnetV2_Repeat_1_block17_2_Branch_1_Conv2d_0c_7x1_bn"
  type: "BatchNorm"
  bottom: "InceptionResnetV2_InceptionResnetV2_Repeat_1_block17_2_Branch_1_Conv2d_0c_7x1"
  top: "InceptionResnetV2_InceptionResnetV2_Repeat_1_block17_2_Branch_1_Conv2d_0c_7x1_bn"
  batch_norm_param {
    use_global_stats: true
    eps: 0.0010000000475
  }
}
layer {
  name: "InceptionResnetV2_InceptionResnetV2_Repeat_1_block17_2_Branch_1_Conv2d_0c_7x1_scale"
  type: "Scale"
  bottom: "InceptionResnetV2_InceptionResnetV2_Repeat_1_block17_2_Branch_1_Conv2d_0c_7x1_bn"
  top: "InceptionResnetV2_InceptionResnetV2_Repeat_1_block17_2_Branch_1_Conv2d_0c_7x1_scale"
  scale_param {
    bias_term: true
  }
}
layer {
  name: "InceptionResnetV2_InceptionResnetV2_Repeat_1_block17_2_Branch_1_Conv2d_0c_7x1_r"
  type: "ReLU"
  bottom: "InceptionResnetV2_InceptionResnetV2_Repeat_1_block17_2_Branch_1_Conv2d_0c_7x1_scale"
  top: "InceptionResnetV2_InceptionResnetV2_Repeat_1_block17_2_Branch_1_Conv2d_0c_7x1_r"
}
layer {
  name: "InceptionResnetV2_InceptionResnetV2_Repeat_1_block17_2_concat"
  type: "Concat"
  bottom: "InceptionResnetV2_InceptionResnetV2_Repeat_1_block17_2_Branch_0_Conv2d_1x1_r"
  bottom: "InceptionResnetV2_InceptionResnetV2_Repeat_1_block17_2_Branch_1_Conv2d_0c_7x1_r"
  top: "InceptionResnetV2_InceptionResnetV2_Repeat_1_block17_2_concat"
  concat_param {
    axis: 1
  }
}
layer {
  name: "InceptionResnetV2_InceptionResnetV2_Repeat_1_block17_2_Conv2d_1x1"
  type: "Convolution"
  bottom: "InceptionResnetV2_InceptionResnetV2_Repeat_1_block17_2_concat"
  top: "InceptionResnetV2_InceptionResnetV2_Repeat_1_block17_2_Conv2d_1x1"
  convolution_param {
    num_output: 1088
    bias_term: true
    group: 1
    pad_h: 0
    pad_w: 0
    kernel_h: 1
    kernel_w: 1
    stride_h: 1
    stride_w: 1
  }
}
layer {
  name: "InceptionResnetV2_InceptionResnetV2_Repeat_1_block17_2"
  type: "Eltwise"
  bottom: "InceptionResnetV2_InceptionResnetV2_Repeat_1_block17_1_r"
  bottom: "InceptionResnetV2_InceptionResnetV2_Repeat_1_block17_2_Conv2d_1x1"
  top: "InceptionResnetV2_InceptionResnetV2_Repeat_1_block17_2"
  eltwise_param {
    operation: SUM
    coeff: 1.0
    coeff: 0.10000000149
  }
}
layer {
  name: "InceptionResnetV2_InceptionResnetV2_Repeat_1_block17_2_r"
  type: "ReLU"
  bottom: "InceptionResnetV2_InceptionResnetV2_Repeat_1_block17_2"
  top: "InceptionResnetV2_InceptionResnetV2_Repeat_1_block17_2_r"
}
layer {
  name: "InceptionResnetV2_InceptionResnetV2_Repeat_1_block17_3_Branch_0_Conv2d_1x1"
  type: "Convolution"
  bottom: "InceptionResnetV2_InceptionResnetV2_Repeat_1_block17_2_r"
  top: "InceptionResnetV2_InceptionResnetV2_Repeat_1_block17_3_Branch_0_Conv2d_1x1"
  convolution_param {
    num_output: 192
    bias_term: false
    group: 1
    pad_h: 0
    pad_w: 0
    kernel_h: 1
    kernel_w: 1
    stride_h: 1
    stride_w: 1
  }
}
layer {
  name: "InceptionResnetV2_InceptionResnetV2_Repeat_1_block17_3_Branch_0_Conv2d_1x1_bn"
  type: "BatchNorm"
  bottom: "InceptionResnetV2_InceptionResnetV2_Repeat_1_block17_3_Branch_0_Conv2d_1x1"
  top: "InceptionResnetV2_InceptionResnetV2_Repeat_1_block17_3_Branch_0_Conv2d_1x1_bn"
  batch_norm_param {
    use_global_stats: true
    eps: 0.0010000000475
  }
}
layer {
  name: "InceptionResnetV2_InceptionResnetV2_Repeat_1_block17_3_Branch_0_Conv2d_1x1_scale"
  type: "Scale"
  bottom: "InceptionResnetV2_InceptionResnetV2_Repeat_1_block17_3_Branch_0_Conv2d_1x1_bn"
  top: "InceptionResnetV2_InceptionResnetV2_Repeat_1_block17_3_Branch_0_Conv2d_1x1_scale"
  scale_param {
    bias_term: true
  }
}
layer {
  name: "InceptionResnetV2_InceptionResnetV2_Repeat_1_block17_3_Branch_0_Conv2d_1x1_r"
  type: "ReLU"
  bottom: "InceptionResnetV2_InceptionResnetV2_Repeat_1_block17_3_Branch_0_Conv2d_1x1_scale"
  top: "InceptionResnetV2_InceptionResnetV2_Repeat_1_block17_3_Branch_0_Conv2d_1x1_r"
}
layer {
  name: "InceptionResnetV2_InceptionResnetV2_Repeat_1_block17_3_Branch_1_Conv2d_0a_1x1"
  type: "Convolution"
  bottom: "InceptionResnetV2_InceptionResnetV2_Repeat_1_block17_2_r"
  top: "InceptionResnetV2_InceptionResnetV2_Repeat_1_block17_3_Branch_1_Conv2d_0a_1x1"
  convolution_param {
    num_output: 128
    bias_term: false
    group: 1
    pad_h: 0
    pad_w: 0
    kernel_h: 1
    kernel_w: 1
    stride_h: 1
    stride_w: 1
  }
}
layer {
  name: "InceptionResnetV2_InceptionResnetV2_Repeat_1_block17_3_Branch_1_Conv2d_0a_1x1_bn"
  type: "BatchNorm"
  bottom: "InceptionResnetV2_InceptionResnetV2_Repeat_1_block17_3_Branch_1_Conv2d_0a_1x1"
  top: "InceptionResnetV2_InceptionResnetV2_Repeat_1_block17_3_Branch_1_Conv2d_0a_1x1_bn"
  batch_norm_param {
    use_global_stats: true
    eps: 0.0010000000475
  }
}
layer {
  name: "InceptionResnetV2_InceptionResnetV2_Repeat_1_block17_3_Branch_1_Conv2d_0a_1x1_scale"
  type: "Scale"
  bottom: "InceptionResnetV2_InceptionResnetV2_Repeat_1_block17_3_Branch_1_Conv2d_0a_1x1_bn"
  top: "InceptionResnetV2_InceptionResnetV2_Repeat_1_block17_3_Branch_1_Conv2d_0a_1x1_scale"
  scale_param {
    bias_term: true
  }
}
layer {
  name: "InceptionResnetV2_InceptionResnetV2_Repeat_1_block17_3_Branch_1_Conv2d_0a_1x1_r"
  type: "ReLU"
  bottom: "InceptionResnetV2_InceptionResnetV2_Repeat_1_block17_3_Branch_1_Conv2d_0a_1x1_scale"
  top: "InceptionResnetV2_InceptionResnetV2_Repeat_1_block17_3_Branch_1_Conv2d_0a_1x1_r"
}
layer {
  name: "InceptionResnetV2_InceptionResnetV2_Repeat_1_block17_3_Branch_1_Conv2d_0b_1x7"
  type: "Convolution"
  bottom: "InceptionResnetV2_InceptionResnetV2_Repeat_1_block17_3_Branch_1_Conv2d_0a_1x1_r"
  top: "InceptionResnetV2_InceptionResnetV2_Repeat_1_block17_3_Branch_1_Conv2d_0b_1x7"
  convolution_param {
    num_output: 160
    bias_term: false
    group: 1
    pad_h: 0
    pad_w: 3
    kernel_h: 1
    kernel_w: 7
    stride_h: 1
    stride_w: 1
  }
}
layer {
  name: "InceptionResnetV2_InceptionResnetV2_Repeat_1_block17_3_Branch_1_Conv2d_0b_1x7_bn"
  type: "BatchNorm"
  bottom: "InceptionResnetV2_InceptionResnetV2_Repeat_1_block17_3_Branch_1_Conv2d_0b_1x7"
  top: "InceptionResnetV2_InceptionResnetV2_Repeat_1_block17_3_Branch_1_Conv2d_0b_1x7_bn"
  batch_norm_param {
    use_global_stats: true
    eps: 0.0010000000475
  }
}
layer {
  name: "InceptionResnetV2_InceptionResnetV2_Repeat_1_block17_3_Branch_1_Conv2d_0b_1x7_scale"
  type: "Scale"
  bottom: "InceptionResnetV2_InceptionResnetV2_Repeat_1_block17_3_Branch_1_Conv2d_0b_1x7_bn"
  top: "InceptionResnetV2_InceptionResnetV2_Repeat_1_block17_3_Branch_1_Conv2d_0b_1x7_scale"
  scale_param {
    bias_term: true
  }
}
layer {
  name: "InceptionResnetV2_InceptionResnetV2_Repeat_1_block17_3_Branch_1_Conv2d_0b_1x7_r"
  type: "ReLU"
  bottom: "InceptionResnetV2_InceptionResnetV2_Repeat_1_block17_3_Branch_1_Conv2d_0b_1x7_scale"
  top: "InceptionResnetV2_InceptionResnetV2_Repeat_1_block17_3_Branch_1_Conv2d_0b_1x7_r"
}
layer {
  name: "InceptionResnetV2_InceptionResnetV2_Repeat_1_block17_3_Branch_1_Conv2d_0c_7x1"
  type: "Convolution"
  bottom: "InceptionResnetV2_InceptionResnetV2_Repeat_1_block17_3_Branch_1_Conv2d_0b_1x7_r"
  top: "InceptionResnetV2_InceptionResnetV2_Repeat_1_block17_3_Branch_1_Conv2d_0c_7x1"
  convolution_param {
    num_output: 192
    bias_term: false
    group: 1
    pad_h: 3
    pad_w: 0
    kernel_h: 7
    kernel_w: 1
    stride_h: 1
    stride_w: 1
  }
}
layer {
  name: "InceptionResnetV2_InceptionResnetV2_Repeat_1_block17_3_Branch_1_Conv2d_0c_7x1_bn"
  type: "BatchNorm"
  bottom: "InceptionResnetV2_InceptionResnetV2_Repeat_1_block17_3_Branch_1_Conv2d_0c_7x1"
  top: "InceptionResnetV2_InceptionResnetV2_Repeat_1_block17_3_Branch_1_Conv2d_0c_7x1_bn"
  batch_norm_param {
    use_global_stats: true
    eps: 0.0010000000475
  }
}
layer {
  name: "InceptionResnetV2_InceptionResnetV2_Repeat_1_block17_3_Branch_1_Conv2d_0c_7x1_scale"
  type: "Scale"
  bottom: "InceptionResnetV2_InceptionResnetV2_Repeat_1_block17_3_Branch_1_Conv2d_0c_7x1_bn"
  top: "InceptionResnetV2_InceptionResnetV2_Repeat_1_block17_3_Branch_1_Conv2d_0c_7x1_scale"
  scale_param {
    bias_term: true
  }
}
layer {
  name: "InceptionResnetV2_InceptionResnetV2_Repeat_1_block17_3_Branch_1_Conv2d_0c_7x1_r"
  type: "ReLU"
  bottom: "InceptionResnetV2_InceptionResnetV2_Repeat_1_block17_3_Branch_1_Conv2d_0c_7x1_scale"
  top: "InceptionResnetV2_InceptionResnetV2_Repeat_1_block17_3_Branch_1_Conv2d_0c_7x1_r"
}
layer {
  name: "InceptionResnetV2_InceptionResnetV2_Repeat_1_block17_3_concat"
  type: "Concat"
  bottom: "InceptionResnetV2_InceptionResnetV2_Repeat_1_block17_3_Branch_0_Conv2d_1x1_r"
  bottom: "InceptionResnetV2_InceptionResnetV2_Repeat_1_block17_3_Branch_1_Conv2d_0c_7x1_r"
  top: "InceptionResnetV2_InceptionResnetV2_Repeat_1_block17_3_concat"
  concat_param {
    axis: 1
  }
}
layer {
  name: "InceptionResnetV2_InceptionResnetV2_Repeat_1_block17_3_Conv2d_1x1"
  type: "Convolution"
  bottom: "InceptionResnetV2_InceptionResnetV2_Repeat_1_block17_3_concat"
  top: "InceptionResnetV2_InceptionResnetV2_Repeat_1_block17_3_Conv2d_1x1"
  convolution_param {
    num_output: 1088
    bias_term: true
    group: 1
    pad_h: 0
    pad_w: 0
    kernel_h: 1
    kernel_w: 1
    stride_h: 1
    stride_w: 1
  }
}
layer {
  name: "InceptionResnetV2_InceptionResnetV2_Repeat_1_block17_3"
  type: "Eltwise"
  bottom: "InceptionResnetV2_InceptionResnetV2_Repeat_1_block17_2_r"
  bottom: "InceptionResnetV2_InceptionResnetV2_Repeat_1_block17_3_Conv2d_1x1"
  top: "InceptionResnetV2_InceptionResnetV2_Repeat_1_block17_3"
  eltwise_param {
    operation: SUM
    coeff: 1.0
    coeff: 0.10000000149
  }
}
layer {
  name: "InceptionResnetV2_InceptionResnetV2_Repeat_1_block17_3_r"
  type: "ReLU"
  bottom: "InceptionResnetV2_InceptionResnetV2_Repeat_1_block17_3"
  top: "InceptionResnetV2_InceptionResnetV2_Repeat_1_block17_3_r"
}
layer {
  name: "InceptionResnetV2_InceptionResnetV2_Repeat_1_block17_4_Branch_0_Conv2d_1x1"
  type: "Convolution"
  bottom: "InceptionResnetV2_InceptionResnetV2_Repeat_1_block17_3_r"
  top: "InceptionResnetV2_InceptionResnetV2_Repeat_1_block17_4_Branch_0_Conv2d_1x1"
  convolution_param {
    num_output: 192
    bias_term: false
    group: 1
    pad_h: 0
    pad_w: 0
    kernel_h: 1
    kernel_w: 1
    stride_h: 1
    stride_w: 1
  }
}
layer {
  name: "InceptionResnetV2_InceptionResnetV2_Repeat_1_block17_4_Branch_0_Conv2d_1x1_bn"
  type: "BatchNorm"
  bottom: "InceptionResnetV2_InceptionResnetV2_Repeat_1_block17_4_Branch_0_Conv2d_1x1"
  top: "InceptionResnetV2_InceptionResnetV2_Repeat_1_block17_4_Branch_0_Conv2d_1x1_bn"
  batch_norm_param {
    use_global_stats: true
    eps: 0.0010000000475
  }
}
layer {
  name: "InceptionResnetV2_InceptionResnetV2_Repeat_1_block17_4_Branch_0_Conv2d_1x1_scale"
  type: "Scale"
  bottom: "InceptionResnetV2_InceptionResnetV2_Repeat_1_block17_4_Branch_0_Conv2d_1x1_bn"
  top: "InceptionResnetV2_InceptionResnetV2_Repeat_1_block17_4_Branch_0_Conv2d_1x1_scale"
  scale_param {
    bias_term: true
  }
}
layer {
  name: "InceptionResnetV2_InceptionResnetV2_Repeat_1_block17_4_Branch_0_Conv2d_1x1_r"
  type: "ReLU"
  bottom: "InceptionResnetV2_InceptionResnetV2_Repeat_1_block17_4_Branch_0_Conv2d_1x1_scale"
  top: "InceptionResnetV2_InceptionResnetV2_Repeat_1_block17_4_Branch_0_Conv2d_1x1_r"
}
layer {
  name: "InceptionResnetV2_InceptionResnetV2_Repeat_1_block17_4_Branch_1_Conv2d_0a_1x1"
  type: "Convolution"
  bottom: "InceptionResnetV2_InceptionResnetV2_Repeat_1_block17_3_r"
  top: "InceptionResnetV2_InceptionResnetV2_Repeat_1_block17_4_Branch_1_Conv2d_0a_1x1"
  convolution_param {
    num_output: 128
    bias_term: false
    group: 1
    pad_h: 0
    pad_w: 0
    kernel_h: 1
    kernel_w: 1
    stride_h: 1
    stride_w: 1
  }
}
layer {
  name: "InceptionResnetV2_InceptionResnetV2_Repeat_1_block17_4_Branch_1_Conv2d_0a_1x1_bn"
  type: "BatchNorm"
  bottom: "InceptionResnetV2_InceptionResnetV2_Repeat_1_block17_4_Branch_1_Conv2d_0a_1x1"
  top: "InceptionResnetV2_InceptionResnetV2_Repeat_1_block17_4_Branch_1_Conv2d_0a_1x1_bn"
  batch_norm_param {
    use_global_stats: true
    eps: 0.0010000000475
  }
}
layer {
  name: "InceptionResnetV2_InceptionResnetV2_Repeat_1_block17_4_Branch_1_Conv2d_0a_1x1_scale"
  type: "Scale"
  bottom: "InceptionResnetV2_InceptionResnetV2_Repeat_1_block17_4_Branch_1_Conv2d_0a_1x1_bn"
  top: "InceptionResnetV2_InceptionResnetV2_Repeat_1_block17_4_Branch_1_Conv2d_0a_1x1_scale"
  scale_param {
    bias_term: true
  }
}
layer {
  name: "InceptionResnetV2_InceptionResnetV2_Repeat_1_block17_4_Branch_1_Conv2d_0a_1x1_r"
  type: "ReLU"
  bottom: "InceptionResnetV2_InceptionResnetV2_Repeat_1_block17_4_Branch_1_Conv2d_0a_1x1_scale"
…
    stride_w: 1
  }
}
layer {
  name: "InceptionResnetV2_InceptionResnetV2_Repeat_2_block8_4_Branch_1_Conv2d_0c_3x1_bn"
  type: "BatchNorm"
  bottom: "InceptionResnetV2_InceptionResnetV2_Repeat_2_block8_4_Branch_1_Conv2d_0c_3x1"
  top: "InceptionResnetV2_InceptionResnetV2_Repeat_2_block8_4_Branch_1_Conv2d_0c_3x1_bn"
  batch_norm_param {
    use_global_stats: true
    eps: 0.0010000000475
  }
}
layer {
  name: "InceptionResnetV2_InceptionResnetV2_Repeat_2_block8_4_Branch_1_Conv2d_0c_3x1_scale"
  type: "Scale"
  bottom: "InceptionResnetV2_InceptionResnetV2_Repeat_2_block8_4_Branch_1_Conv2d_0c_3x1_bn"
  top: "InceptionResnetV2_InceptionResnetV2_Repeat_2_block8_4_Branch_1_Conv2d_0c_3x1_scale"
  scale_param {
    bias_term: true
  }
}
layer {
  name: "InceptionResnetV2_InceptionResnetV2_Repeat_2_block8_4_Branch_1_Conv2d_0c_3x1_r"
  type: "ReLU"
  bottom: "InceptionResnetV2_InceptionResnetV2_Repeat_2_block8_4_Branch_1_Conv2d_0c_3x1_scale"
  top: "InceptionResnetV2_InceptionResnetV2_Repeat_2_block8_4_Branch_1_Conv2d_0c_3x1_r"
}
layer {
  name: "InceptionResnetV2_InceptionResnetV2_Repeat_2_block8_4_concat"
  type: "Concat"
  bottom: "InceptionResnetV2_InceptionResnetV2_Repeat_2_block8_4_Branch_0_Conv2d_1x1_r"
  bottom: "InceptionResnetV2_InceptionResnetV2_Repeat_2_block8_4_Branch_1_Conv2d_0c_3x1_r"
  top: "InceptionResnetV2_InceptionResnetV2_Repeat_2_block8_4_concat"
  concat_param {
    axis: 1
  }
}
layer {
  name: "InceptionResnetV2_InceptionResnetV2_Repeat_2_block8_4_Conv2d_1x1"
  type: "Convolution"
  bottom: "InceptionResnetV2_InceptionResnetV2_Repeat_2_block8_4_concat"
  top: "InceptionResnetV2_InceptionResnetV2_Repeat_2_block8_4_Conv2d_1x1"
  convolution_param {
    num_output: 2080
    bias_term: true
    group: 1
    pad_h: 0
    pad_w: 0
    kernel_h: 1
    kernel_w: 1
    stride_h: 1
    stride_w: 1
  }
}
layer {
  name: "InceptionResnetV2_InceptionResnetV2_Repeat_2_block8_4"
  type: "Eltwise"
  bottom: "InceptionResnetV2_InceptionResnetV2_Repeat_2_block8_3_r"
  bottom: "InceptionResnetV2_InceptionResnetV2_Repeat_2_block8_4_Conv2d_1x1"
  top: "InceptionResnetV2_InceptionResnetV2_Repeat_2_block8_4"
  eltwise_param {
    operation: SUM
    coeff: 1.0
    coeff: 0.20000000298
  }
}
layer {
  name: "InceptionResnetV2_InceptionResnetV2_Repeat_2_block8_4_r"
  type: "ReLU"
  bottom: "InceptionResnetV2_InceptionResnetV2_Repeat_2_block8_4"
  top: "InceptionResnetV2_InceptionResnetV2_Repeat_2_block8_4_r"
}
layer {
  name: "InceptionResnetV2_InceptionResnetV2_Repeat_2_block8_5_Branch_0_Conv2d_1x1"
  type: "Convolution"
  bottom: "InceptionResnetV2_InceptionResnetV2_Repeat_2_block8_4_r"
  top: "InceptionResnetV2_InceptionResnetV2_Repeat_2_block8_5_Branch_0_Conv2d_1x1"
  convolution_param {
    num_output: 192
    bias_term: false
    group: 1
    pad_h: 0
    pad_w: 0
    kernel_h: 1
    kernel_w: 1
    stride_h: 1
    stride_w: 1
  }
}
layer {
  name: "InceptionResnetV2_InceptionResnetV2_Repeat_2_block8_5_Branch_0_Conv2d_1x1_bn"
  type: "BatchNorm"
  bottom: "InceptionResnetV2_InceptionResnetV2_Repeat_2_block8_5_Branch_0_Conv2d_1x1"
  top: "InceptionResnetV2_InceptionResnetV2_Repeat_2_block8_5_Branch_0_Conv2d_1x1_bn"
  batch_norm_param {
    use_global_stats: true
    eps: 0.0010000000475
  }
}
layer {
  name: "InceptionResnetV2_InceptionResnetV2_Repeat_2_block8_5_Branch_0_Conv2d_1x1_scale"
  type: "Scale"
  bottom: "InceptionResnetV2_InceptionResnetV2_Repeat_2_block8_5_Branch_0_Conv2d_1x1_bn"
  top: "InceptionResnetV2_InceptionResnetV2_Repeat_2_block8_5_Branch_0_Conv2d_1x1_scale"
  scale_param {
    bias_term: true
  }
}
layer {
  name: "InceptionResnetV2_InceptionResnetV2_Repeat_2_block8_5_Branch_0_Conv2d_1x1_r"
  type: "ReLU"
  bottom: "InceptionResnetV2_InceptionResnetV2_Repeat_2_block8_5_Branch_0_Conv2d_1x1_scale"
  top: "InceptionResnetV2_InceptionResnetV2_Repeat_2_block8_5_Branch_0_Conv2d_1x1_r"
}
layer {
  name: "InceptionResnetV2_InceptionResnetV2_Repeat_2_block8_5_Branch_1_Conv2d_0a_1x1"
  type: "Convolution"
  bottom: "InceptionResnetV2_InceptionResnetV2_Repeat_2_block8_4_r"
  top: "InceptionResnetV2_InceptionResnetV2_Repeat_2_block8_5_Branch_1_Conv2d_0a_1x1"
  convolution_param {
    num_output: 192
    bias_term: false
    group: 1
    pad_h: 0
    pad_w: 0
    kernel_h: 1
    kernel_w: 1
    stride_h: 1
    stride_w: 1
  }
}
layer {
  name: "InceptionResnetV2_InceptionResnetV2_Repeat_2_block8_5_Branch_1_Conv2d_0a_1x1_bn"
  type: "BatchNorm"
  bottom: "InceptionResnetV2_InceptionResnetV2_Repeat_2_block8_5_Branch_1_Conv2d_0a_1x1"
  top: "InceptionResnetV2_InceptionResnetV2_Repeat_2_block8_5_Branch_1_Conv2d_0a_1x1_bn"
  batch_norm_param {
    use_global_stats: true
    eps: 0.0010000000475
  }
}
layer {
  name: "InceptionResnetV2_InceptionResnetV2_Repeat_2_block8_5_Branch_1_Conv2d_0a_1x1_scale"
  type: "Scale"
  bottom: "InceptionResnetV2_InceptionResnetV2_Repeat_2_block8_5_Branch_1_Conv2d_0a_1x1_bn"
  top: "InceptionResnetV2_InceptionResnetV2_Repeat_2_block8_5_Branch_1_Conv2d_0a_1x1_scale"
  scale_param {
    bias_term: true
  }
}
layer {
  name: "InceptionResnetV2_InceptionResnetV2_Repeat_2_block8_5_Branch_1_Conv2d_0a_1x1_r"
  type: "ReLU"
  bottom: "InceptionResnetV2_InceptionResnetV2_Repeat_2_block8_5_Branch_1_Conv2d_0a_1x1_scale"
  top: "InceptionResnetV2_InceptionResnetV2_Repeat_2_block8_5_Branch_1_Conv2d_0a_1x1_r"
}
layer {
  name: "InceptionResnetV2_InceptionResnetV2_Repeat_2_block8_5_Branch_1_Conv2d_0b_1x3"
  type: "Convolution"
  bottom: "InceptionResnetV2_InceptionResnetV2_Repeat_2_block8_5_Branch_1_Conv2d_0a_1x1_r"
  top: "InceptionResnetV2_InceptionResnetV2_Repeat_2_block8_5_Branch_1_Conv2d_0b_1x3"
  convolution_param {
    num_output: 224
    bias_term: false
    group: 1
    pad_h: 0
    pad_w: 1
    kernel_h: 1
    kernel_w: 3
    stride_h: 1
    stride_w: 1
  }
}
layer {
  name: "InceptionResnetV2_InceptionResnetV2_Repeat_2_block8_5_Branch_1_Conv2d_0b_1x3_bn"
  type: "BatchNorm"
  bottom: "InceptionResnetV2_InceptionResnetV2_Repeat_2_block8_5_Branch_1_Conv2d_0b_1x3"
  top: "InceptionResnetV2_InceptionResnetV2_Repeat_2_block8_5_Branch_1_Conv2d_0b_1x3_bn"
  batch_norm_param {
    use_global_stats: true
    eps: 0.0010000000475
  }
}
layer {
  name: "InceptionResnetV2_InceptionResnetV2_Repeat_2_block8_5_Branch_1_Conv2d_0b_1x3_scale"
  type: "Scale"
  bottom: "InceptionResnetV2_InceptionResnetV2_Repeat_2_block8_5_Branch_1_Conv2d_0b_1x3_bn"
  top: "InceptionResnetV2_InceptionResnetV2_Repeat_2_block8_5_Branch_1_Conv2d_0b_1x3_scale"
  scale_param {
    bias_term: true
  }
}
layer {
  name: "InceptionResnetV2_InceptionResnetV2_Repeat_2_block8_5_Branch_1_Conv2d_0b_1x3_r"
  type: "ReLU"
  bottom: "InceptionResnetV2_InceptionResnetV2_Repeat_2_block8_5_Branch_1_Conv2d_0b_1x3_scale"
  top: "InceptionResnetV2_InceptionResnetV2_Repeat_2_block8_5_Branch_1_Conv2d_0b_1x3_r"
}
layer {
  name: "InceptionResnetV2_InceptionResnetV2_Repeat_2_block8_5_Branch_1_Conv2d_0c_3x1"
  type: "Convolution"
  bottom: "InceptionResnetV2_InceptionResnetV2_Repeat_2_block8_5_Branch_1_Conv2d_0b_1x3_r"
  top: "InceptionResnetV2_InceptionResnetV2_Repeat_2_block8_5_Branch_1_Conv2d_0c_3x1"
  convolution_param {
    num_output: 256
    bias_term: false
    group: 1
    pad_h: 1
    pad_w: 0
    kernel_h: 3
    kernel_w: 1
    stride_h: 1
    stride_w: 1
  }
}
layer {
  name: "InceptionResnetV2_InceptionResnetV2_Repeat_2_block8_5_Branch_1_Conv2d_0c_3x1_bn"
  type: "BatchNorm"
  bottom: "InceptionResnetV2_InceptionResnetV2_Repeat_2_block8_5_Branch_1_Conv2d_0c_3x1"
  top: "InceptionResnetV2_InceptionResnetV2_Repeat_2_block8_5_Branch_1_Conv2d_0c_3x1_bn"
  batch_norm_param {
    use_global_stats: true
    eps: 0.0010000000475
  }
}
layer {
  name: "InceptionResnetV2_InceptionResnetV2_Repeat_2_block8_5_Branch_1_Conv2d_0c_3x1_scale"
  type: "Scale"
  bottom: "InceptionResnetV2_InceptionResnetV2_Repeat_2_block8_5_Branch_1_Conv2d_0c_3x1_bn"
  top: "InceptionResnetV2_InceptionResnetV2_Repeat_2_block8_5_Branch_1_Conv2d_0c_3x1_scale"
  scale_param {
    bias_term: true
  }
}
layer {
  name: "InceptionResnetV2_InceptionResnetV2_Repeat_2_block8_5_Branch_1_Conv2d_0c_3x1_r"
  type: "ReLU"
  bottom: "InceptionResnetV2_InceptionResnetV2_Repeat_2_block8_5_Branch_1_Conv2d_0c_3x1_scale"
  top: "InceptionResnetV2_InceptionResnetV2_Repeat_2_block8_5_Branch_1_Conv2d_0c_3x1_r"
}
layer {
  name: "InceptionResnetV2_InceptionResnetV2_Repeat_2_block8_5_concat"
  type: "Concat"
  bottom: "InceptionResnetV2_InceptionResnetV2_Repeat_2_block8_5_Branch_0_Conv2d_1x1_r"
  bottom: "InceptionResnetV2_InceptionResnetV2_Repeat_2_block8_5_Branch_1_Conv2d_0c_3x1_r"
  top: "InceptionResnetV2_InceptionResnetV2_Repeat_2_block8_5_concat"
  concat_param {
    axis: 1
  }
}
layer {
  name: "InceptionResnetV2_InceptionResnetV2_Repeat_2_block8_5_Conv2d_1x1"
  type: "Convolution"
  bottom: "InceptionResnetV2_InceptionResnetV2_Repeat_2_block8_5_concat"
  top: "InceptionResnetV2_InceptionResnetV2_Repeat_2_block8_5_Conv2d_1x1"
  convolution_param {
    num_output: 2080
    bias_term: true
    group: 1
    pad_h: 0
    pad_w: 0
    kernel_h: 1
    kernel_w: 1
    stride_h: 1
    stride_w: 1
  }
}
layer {
  name: "InceptionResnetV2_InceptionResnetV2_Repeat_2_block8_5"
  type: "Eltwise"
  bottom: "InceptionResnetV2_InceptionResnetV2_Repeat_2_block8_4_r"
  bottom: "InceptionResnetV2_InceptionResnetV2_Repeat_2_block8_5_Conv2d_1x1"
  top: "InceptionResnetV2_InceptionResnetV2_Repeat_2_block8_5"
  eltwise_param {
    operation: SUM
    coeff: 1.0
    coeff: 0.20000000298
  }
}
layer {
  name: "InceptionResnetV2_InceptionResnetV2_Repeat_2_block8_5_r"
  type: "ReLU"
  bottom: "InceptionResnetV2_InceptionResnetV2_Repeat_2_block8_5"
  top: "InceptionResnetV2_InceptionResnetV2_Repeat_2_block8_5_r"
}
layer {
  name: "InceptionResnetV2_InceptionResnetV2_Repeat_2_block8_6_Branch_0_Conv2d_1x1"
  type: "Convolution"
  bottom: "InceptionResnetV2_InceptionResnetV2_Repeat_2_block8_5_r"
  top: "InceptionResnetV2_InceptionResnetV2_Repeat_2_block8_6_Branch_0_Conv2d_1x1"
  convolution_param {
    num_output: 192
    bias_term: false
    group: 1
    pad_h: 0
    pad_w: 0
    kernel_h: 1
    kernel_w: 1
    stride_h: 1
    stride_w: 1
  }
}
layer {
  name: "InceptionResnetV2_InceptionResnetV2_Repeat_2_block8_6_Branch_0_Conv2d_1x1_bn"
  type: "BatchNorm"
  bottom: "InceptionResnetV2_InceptionResnetV2_Repeat_2_block8_6_Branch_0_Conv2d_1x1"
  top: "InceptionResnetV2_InceptionResnetV2_Repeat_2_block8_6_Branch_0_Conv2d_1x1_bn"
  batch_norm_param {
    use_global_stats: true
    eps: 0.0010000000475
  }
}
layer {
  name: "InceptionResnetV2_InceptionResnetV2_Repeat_2_block8_6_Branch_0_Conv2d_1x1_scale"
  type: "Scale"
  bottom: "InceptionResnetV2_InceptionResnetV2_Repeat_2_block8_6_Branch_0_Conv2d_1x1_bn"
  top: "InceptionResnetV2_InceptionResnetV2_Repeat_2_block8_6_Branch_0_Conv2d_1x1_scale"
  scale_param {
    bias_term: true
  }
}
layer {
  name: "InceptionResnetV2_InceptionResnetV2_Repeat_2_block8_6_Branch_0_Conv2d_1x1_r"
  type: "ReLU"
  bottom: "InceptionResnetV2_InceptionResnetV2_Repeat_2_block8_6_Branch_0_Conv2d_1x1_scale"
  top: "InceptionResnetV2_InceptionResnetV2_Repeat_2_block8_6_Branch_0_Conv2d_1x1_r"
}
layer {
  name: "InceptionResnetV2_InceptionResnetV2_Repeat_2_block8_6_Branch_1_Conv2d_0a_1x1"
  type: "Convolution"
  bottom: "InceptionResnetV2_InceptionResnetV2_Repeat_2_block8_5_r"
  top: "InceptionResnetV2_InceptionResnetV2_Repeat_2_block8_6_Branch_1_Conv2d_0a_1x1"
  convolution_param {
    num_output: 192
    bias_term: false
    group: 1
    pad_h: 0
    pad_w: 0
    kernel_h: 1
    kernel_w: 1
    stride_h: 1
    stride_w: 1
  }
}
layer {
  name: "InceptionResnetV2_InceptionResnetV2_Repeat_2_block8_6_Branch_1_Conv2d_0a_1x1_bn"
  type: "BatchNorm"
  bottom: "InceptionResnetV2_InceptionResnetV2_Repeat_2_block8_6_Branch_1_Conv2d_0a_1x1"
  top: "InceptionResnetV2_InceptionResnetV2_Repeat_2_block8_6_Branch_1_Conv2d_0a_1x1_bn"
  batch_norm_param {
    use_global_stats: true
    eps: 0.0010000000475
  }
}
layer {
  name: "InceptionResnetV2_InceptionResnetV2_Repeat_2_block8_6_Branch_1_Conv2d_0a_1x1_scale"
  type: "Scale"
  bottom: "InceptionResnetV2_InceptionResnetV2_Repeat_2_block8_6_Branch_1_Conv2d_0a_1x1_bn"
  top: "InceptionResnetV2_InceptionResnetV2_Repeat_2_block8_6_Branch_1_Conv2d_0a_1x1_scale"
  scale_param {
    bias_term: true
  }
}
layer {
  name: "InceptionResnetV2_InceptionResnetV2_Repeat_2_block8_6_Branch_1_Conv2d_0a_1x1_r"
  type: "ReLU"
  bottom: "InceptionResnetV2_InceptionResnetV2_Repeat_2_block8_6_Branch_1_Conv2d_0a_1x1_scale"
  top: "InceptionResnetV2_InceptionResnetV2_Repeat_2_block8_6_Branch_1_Conv2d_0a_1x1_r"
}
layer {
  name: "InceptionResnetV2_InceptionResnetV2_Repeat_2_block8_6_Branch_1_Conv2d_0b_1x3"
  type: "Convolution"
  bottom: "InceptionResnetV2_InceptionResnetV2_Repeat_2_block8_6_Branch_1_Conv2d_0a_1x1_r"
  top: "InceptionResnetV2_InceptionResnetV2_Repeat_2_block8_6_Branch_1_Conv2d_0b_1x3"
  convolution_param {
    num_output: 224
    bias_term: false
    group: 1
    pad_h: 0
    pad_w: 1
    kernel_h: 1
    kernel_w: 3
    stride_h: 1
    stride_w: 1
  }
}
layer {
  name: "InceptionResnetV2_InceptionResnetV2_Repeat_2_block8_6_Branch_1_Conv2d_0b_1x3_bn"
  type: "BatchNorm"
  bottom: "InceptionResnetV2_InceptionResnetV2_Repeat_2_block8_6_Branch_1_Conv2d_0b_1x3"
  top: "InceptionResnetV2_InceptionResnetV2_Repeat_2_block8_6_Branch_1_Conv2d_0b_1x3_bn"
  batch_norm_param {
    use_global_stats: true
    eps: 0.0010000000475
  }
}
layer {
  name: "InceptionResnetV2_InceptionResnetV2_Repeat_2_block8_6_Branch_1_Conv2d_0b_1x3_scale"
  type: "Scale"
  bottom: "InceptionResnetV2_InceptionResnetV2_Repeat_2_block8_6_Branch_1_Conv2d_0b_1x3_bn"
  top: "InceptionResnetV2_InceptionResnetV2_Repeat_2_block8_6_Branch_1_Conv2d_0b_1x3_scale"
  scale_param {
    bias_term: true
  }
}
layer {
  name: "InceptionResnetV2_InceptionResnetV2_Repeat_2_block8_6_Branch_1_Conv2d_0b_1x3_r"
  type: "ReLU"
  bottom: "InceptionResnetV2_InceptionResnetV2_Repeat_2_block8_6_Branch_1_Conv2d_0b_1x3_scale"
  top: "InceptionResnetV2_InceptionResnetV2_Repeat_2_block8_6_Branch_1_Conv2d_0b_1x3_r"
}
layer {
  name: "InceptionResnetV2_InceptionResnetV2_Repeat_2_block8_6_Branch_1_Conv2d_0c_3x1"
  type: "Convolution"
  bottom: "InceptionResnetV2_InceptionResnetV2_Repeat_2_block8_6_Branch_1_Conv2d_0b_1x3_r"
  top: "InceptionResnetV2_InceptionResnetV2_Repeat_2_block8_6_Branch_1_Conv2d_0c_3x1"
  convolution_param {
    num_output: 256
    bias_term: false
    group: 1
    pad_h: 1
    pad_w: 0
    kernel_h: 3
    kernel_w: 1
    stride_h: 1
    stride_w: 1
  }
}
layer {
  name: "InceptionResnetV2_InceptionResnetV2_Repeat_2_block8_6_Branch_1_Conv2d_0c_3x1_bn"
  type: "BatchNorm"
  bottom: "InceptionResnetV2_InceptionResnetV2_Repeat_2_block8_6_Branch_1_Conv2d_0c_3x1"
  top: "InceptionResnetV2_InceptionResnetV2_Repeat_2_block8_6_Branch_1_Conv2d_0c_3x1_bn"
  batch_norm_param {
    use_global_stats: true
    eps: 0.0010000000475
  }
}
layer {
  name: "InceptionResnetV2_InceptionResnetV2_Repeat_2_block8_6_Branch_1_Conv2d_0c_3x1_scale"
  type: "Scale"
  bottom: "InceptionResnetV2_InceptionResnetV2_Repeat_2_block8_6_Branch_1_Conv2d_0c_3x1_bn"
  top: "InceptionResnetV2_InceptionResnetV2_Repeat_2_block8_6_Branch_1_Conv2d_0c_3x1_scale"
  scale_param {
    bias_term: true
  }
}
layer {
  name: "InceptionResnetV2_InceptionResnetV2_Repeat_2_block8_6_Branch_1_Conv2d_0c_3x1_r"
  type: "ReLU"
  bottom: "InceptionResnetV2_InceptionResnetV2_Repeat_2_block8_6_Branch_1_Conv2d_0c_3x1_scale"
  top: "InceptionResnetV2_InceptionResnetV2_Repeat_2_block8_6_Branch_1_Conv2d_0c_3x1_r"
}
layer {
  name: "InceptionResnetV2_InceptionResnetV2_Repeat_2_block8_6_concat"
  type: "Concat"
  bottom: "InceptionResnetV2_InceptionResnetV2_Repeat_2_block8_6_Branch_0_Conv2d_1x1_r"
  bottom: "InceptionResnetV2_InceptionResnetV2_Repeat_2_block8_6_Branch_1_Conv2d_0c_3x1_r"
  top: "InceptionResnetV2_InceptionResnetV2_Repeat_2_block8_6_concat"
  concat_param {
    axis: 1
  }
}
layer {
  name: "InceptionResnetV2_InceptionResnetV2_Repeat_2_block8_6_Conv2d_1x1"
  type: "Convolution"
  bottom: "InceptionResnetV2_InceptionResnetV2_Repeat_2_block8_6_concat"
  top: "InceptionResnetV2_InceptionResnetV2_Repeat_2_block8_6_Conv2d_1x1"
  convolution_param {
    num_output: 2080
    bias_term: true
    group: 1
    pad_h: 0
    pad_w: 0
    kernel_h: 1
    kernel_w: 1
    stride_h: 1
    stride_w: 1
  }
}
layer {
  name: "InceptionResnetV2_InceptionResnetV2_Repeat_2_block8_6"
  type: "Eltwise"
  bottom: "InceptionResnetV2_InceptionResnetV2_Repeat_2_block8_5_r"
  bottom: "InceptionResnetV2_InceptionResnetV2_Repeat_2_block8_6_Conv2d_1x1"
  top: "InceptionResnetV2_InceptionResnetV2_Repeat_2_block8_6"
  eltwise_param {
    operation: SUM
    coeff: 1.0
    coeff: 0.20000000298
  }
}
layer {
  name: "InceptionResnetV2_InceptionResnetV2_Repeat_2_block8_6_r"
  type: "ReLU"
  bottom: "InceptionResnetV2_InceptionResnetV2_Repeat_2_block8_6"
  top: "InceptionResnetV2_InceptionResnetV2_Repeat_2_block8_6_r"
}
layer {
  name: "InceptionResnetV2_InceptionResnetV2_Repeat_2_block8_7_Branch_0_Conv2d_1x1"
  type: "Convolution"
  bottom: "InceptionResnetV2_InceptionResnetV2_Repeat_2_block8_6_r"
  top: "InceptionResnetV2_InceptionResnetV2_Repeat_2_block8_7_Branch_0_Conv2d_1x1"
  convolution_param {
    num_output: 192
    bias_term: false
    group: 1
    pad_h: 0
    pad_w: 0
    kernel_h: 1
    kernel_w: 1
    stride_h: 1
    stride_w: 1
  }
}
layer {
  name: "InceptionResnetV2_InceptionResnetV2_Repeat_2_block8_7_Branch_0_Conv2d_1x1_bn"
  type: "BatchNorm"
  bottom: "InceptionResnetV2_InceptionResnetV2_Repeat_2_block8_7_Branch_0_Conv2d_1x1"
  top: "InceptionResnetV2_InceptionResnetV2_Repeat_2_block8_7_Branch_0_Conv2d_1x1_bn"
  batch_norm_param {
    use_global_stats: true
    eps: 0.0010000000475
  }
}
layer {
  name: "InceptionResnetV2_InceptionResnetV2_Repeat_2_block8_7_Branch_0_Conv2d_1x1_scale"
  type: "Scale"
  bottom: "InceptionResnetV2_InceptionResnetV2_Repeat_2_block8_7_Branch_0_Conv2d_1x1_bn"
  top: "InceptionResnetV2_InceptionResnetV2_Repeat_2_block8_7_Branch_0_Conv2d_1x1_scale"
  scale_param {
    bias_term: true
  }
}
layer {
  name: "InceptionResnetV2_InceptionResnetV2_Repeat_2_block8_7_Branch_0_Conv2d_1x1_r"
  type: "ReLU"
  bottom: "InceptionResnetV2_InceptionResnetV2_Repeat_2_block8_7_Branch_0_Conv2d_1x1_scale"
  top: "InceptionResnetV2_InceptionResnetV2_Repeat_2_block8_7_Branch_0_Conv2d_1x1_r"
}
layer {
  name: "InceptionResnetV2_InceptionResnetV2_Repeat_2_block8_7_Branch_1_Conv2d_0a_1x1"
  type: "Convolution"
  bottom: "InceptionResnetV2_InceptionResnetV2_Repeat_2_block8_6_r"
  top: "InceptionResnetV2_InceptionResnetV2_Repeat_2_block8_7_Branch_1_Conv2d_0a_1x1"
  convolution_param {
    num_output: 192
    bias_term: false
    group: 1
    pad_h: 0
    pad_w: 0
    kernel_h: 1
    kernel_w: 1
    stride_h: 1
    stride_w: 1
  }
}
layer {
  name: "InceptionResnetV2_InceptionResnetV2_Repeat_2_block8_7_Branch_1_Conv2d_0a_1x1_bn"
  type: "BatchNorm"
  bottom: "InceptionResnetV2_InceptionResnetV2_Repeat_2_block8_7_Branch_1_Conv2d_0a_1x1"
  top: "InceptionResnetV2_InceptionResnetV2_Repeat_2_block8_7_Branch_1_Conv2d_0a_1x1_bn"
  batch_norm_param {
    use_global_stats: true
    eps: 0.0010000000475
  }
}
layer {
  name: "InceptionResnetV2_InceptionResnetV2_Repeat_2_block8_7_Branch_1_Conv2d_0a_1x1_scale"
  type: "Scale"
  bottom: "InceptionResnetV2_InceptionResnetV2_Repeat_2_block8_7_Branch_1_Conv2d_0a_1x1_bn"
  top: "InceptionResnetV2_InceptionResnetV2_Repeat_2_block8_7_Branch_1_Conv2d_0a_1x1_scale"
  scale_param {
    bias_term: true
  }
}
layer {
  name: "InceptionResnetV2_InceptionResnetV2_Repeat_2_block8_7_Branch_1_Conv2d_0a_1x1_r"
  type: "ReLU"
  bottom: "InceptionResnetV2_InceptionResnetV2_Repeat_2_block8_7_Branch_1_Conv2d_0a_1x1_scale"
  top: "InceptionResnetV2_InceptionResnetV2_Repeat_2_block8_7_Branch_1_Conv2d_0a_1x1_r"
}
layer {
  name: "InceptionResnetV2_InceptionResnetV2_Repeat_2_block8_7_Branch_1_Conv2d_0b_1x3"
  type: "Convolution"
  bottom: "InceptionResnetV2_InceptionResnetV2_Repeat_2_block8_7_Branch_1_Conv2d_0a_1x1_r"
  top: "InceptionResnetV2_InceptionResnetV2_Repeat_2_block8_7_Branch_1_Conv2d_0b_1x3"
  convolution_param {
    num_output: 224
    bias_term: false
    group: 1
    pad_h: 0
    pad_w: 1
    kernel_h: 1
    kernel_w: 3
    stride_h: 1
    stride_w: 1
  }
}
layer {
  name: "InceptionResnetV2_InceptionResnetV2_Repeat_2_block8_7_Branch_1_Conv2d_0b_1x3_bn"
  type: "BatchNorm"
  bottom: "InceptionResnetV2_InceptionResnetV2_Repeat_2_block8_7_Branch_1_Conv2d_0b_1x3"
  top: "InceptionResnetV2_InceptionResnetV2_Repeat_2_block8_7_Branch_1_Conv2d_0b_1x3_bn"
  batch_norm_param {
    use_global_stats: true
    eps: 0.0010000000475
  }
}
layer {
  name: "InceptionResnetV2_InceptionResnetV2_Repeat_2_block8_7_Branch_1_Conv2d_0b_1x3_scale"
  type: "Scale"
  bottom: "InceptionResnetV2_InceptionResnetV2_Repeat_2_block8_7_Branch_1_Conv2d_0b_1x3_bn"
  top: "InceptionResnetV2_InceptionResnetV2_Repeat_2_block8_7_Branch_1_Conv2d_0b_1x3_scale"
  scale_param {
    bias_term: true
  }
}
layer {
  name: "InceptionResnetV2_InceptionResnetV2_Repeat_2_block8_7_Branch_1_Conv2d_0b_1x3_r"
  type: "ReLU"
  bottom: "InceptionResnetV2_InceptionResnetV2_Repeat_2_block8_7_Branch_1_Conv2d_0b_1x3_scale"
  top: "InceptionResnetV2_InceptionResnetV2_Repeat_2_block8_7_Branch_1_Conv2d_0b_1x3_r"
}
layer {
  name: "InceptionResnetV2_InceptionResnetV2_Repeat_2_block8_7_Branch_1_Conv2d_0c_3x1"
  type: "Convolution"
  bottom: "InceptionResnetV2_InceptionResnetV2_Repeat_2_block8_7_Branch_1_Conv2d_0b_1x3_r"
  top: "InceptionResnetV2_InceptionResnetV2_Repeat_2_block8_7_Branch_1_Conv2d_0c_3x1"
  convolution_param {
    num_output: 256
    bias_term: false
    group: 1
    pad_h: 1
    pad_w: 0
    kernel_h: 3
    kernel_w: 1
    stride_h: 1
    stride_w: 1
  }
}
layer {
  name: "InceptionResnetV2_InceptionResnetV2_Repeat_2_block8_7_Branch_1_Conv2d_0c_3x1_bn"
  type: "BatchNorm"
  bottom: "InceptionResnetV2_InceptionResnetV2_Repeat_2_block8_7_Branch_1_Conv2d_0c_3x1"
  top: "InceptionResnetV2_InceptionResnetV2_Repeat_2_block8_7_Branch_1_Conv2d_0c_3x1_bn"
  batch_norm_param {
    use_global_stats: true
    eps: 0.0010000000475
  }
}
layer {
  name: "InceptionResnetV2_InceptionResnetV2_Repeat_2_block8_7_Branch_1_Conv2d_0c_3x1_scale"
  type: "Scale"
  bottom: "InceptionResnetV2_InceptionResnetV2_Repeat_2_block8_7_Branch_1_Conv2d_0c_3x1_bn"
  top: "InceptionResnetV2_InceptionResnetV2_Repeat_2_block8_7_Branch_1_Conv2d_0c_3x1_scale"
  scale_param {
    bias_term: true
  }
}
layer {
  name: "InceptionResnetV2_InceptionResnetV2_Repeat_2_block8_7_Branch_1_Conv2d_0c_3x1_r"
  type: "ReLU"
  bottom: "InceptionResnetV2_InceptionResnetV2_Repeat_2_block8_7_Branch_1_Conv2d_0c_3x1_scale"
  top: "InceptionResnetV2_InceptionResnetV2_Repeat_2_block8_7_Branch_1_Conv2d_0c_3x1_r"
}
layer {
  name: "InceptionResnetV2_InceptionResnetV2_Repeat_2_block8_7_concat"
  type: "Concat"
  bottom: "InceptionResnetV2_InceptionResnetV2_Repeat_2_block8_7_Branch_0_Conv2d_1x1_r"
  bottom: "InceptionResnetV2_InceptionResnetV2_Repeat_2_block8_7_Branch_1_Conv2d_0c_3x1_r"
  top: "InceptionResnetV2_InceptionResnetV2_Repeat_2_block8_7_concat"
  concat_param {
    axis: 1
  }
}
layer {
  name: "InceptionResnetV2_InceptionResnetV2_Repeat_2_block8_7_Conv2d_1x1"
  type: "Convolution"
  bottom: "InceptionResnetV2_InceptionResnetV2_Repeat_2_block8_7_concat"
  top: "InceptionResnetV2_InceptionResnetV2_Repeat_2_block8_7_Conv2d_1x1"
  convolution_param {
    num_output: 2080
    bias_term: true
    group: 1
    pad_h: 0
    pad_w: 0
    kernel_h: 1
    kernel_w: 1
    stride_h: 1
    stride_w: 1
  }
}
layer {
  name: "InceptionResnetV2_InceptionResnetV2_Repeat_2_block8_7"
  type: "Eltwise"
  bottom: "InceptionResnetV2_InceptionResnetV2_Repeat_2_block8_6_r"
  bottom: "InceptionResnetV2_InceptionResnetV2_Repeat_2_block8_7_Conv2d_1x1"
  top: "InceptionResnetV2_InceptionResnetV2_Repeat_2_block8_7"
  eltwise_param {
    operation: SUM
    coeff: 1.0
    coeff: 0.20000000298
  }
}
layer {
  name: "InceptionResnetV2_InceptionResnetV2_Repeat_2_block8_7_r"
  type: "ReLU"
  bottom: "InceptionResnetV2_InceptionResnetV2_Repeat_2_block8_7"
  top: "InceptionResnetV2_InceptionResnetV2_Repeat_2_block8_7_r"
}
layer {
  name: "InceptionResnetV2_InceptionResnetV2_Repeat_2_block8_8_Branch_0_Conv2d_1x1"
  type: "Convolution"
  bottom: "InceptionResnetV2_InceptionResnetV2_Repeat_2_block8_7_r"
  top: "InceptionResnetV2_InceptionResnetV2_Repeat_2_block8_8_Branch_0_Conv2d_1x1"
  convolution_param {
    num_output: 192
    bias_term: false
    group: 1
    pad_h: 0
    pad_w: 0
    kernel_h: 1
    kernel_w: 1
    stride_h: 1
    stride_w: 1
  }
}
layer {
  name: "InceptionResnetV2_InceptionResnetV2_Repeat_2_block8_8_Branch_0_Conv2d_1x1_bn"
  type: "BatchNorm"
  bottom: "InceptionResnetV2_InceptionResnetV2_Repeat_2_block8_8_Branch_0_Conv2d_1x1"
  top: "InceptionResnetV2_InceptionResnetV2_Repeat_2_block8_8_Branch_0_Conv2d_1x1_bn"
  batch_norm_param {
    use_global_stats: true
    eps: 0.0010000000475
  }
}
layer {
  name: "InceptionResnetV2_InceptionResnetV2_Repeat_2_block8_8_Branch_0_Conv2d_1x1_scale"
  type: "Scale"
  bottom: "InceptionResnetV2_InceptionResnetV2_Repeat_2_block8_8_Branch_0_Conv2d_1x1_bn"
  top: "InceptionResnetV2_InceptionResnetV2_Repeat_2_block8_8_Branch_0_Conv2d_1x1_scale"
  scale_param {
    bias_term: true
  }
}
layer {
  name: "InceptionResnetV2_InceptionResnetV2_Repeat_2_block8_8_Branch_0_Conv2d_1x1_r"
  type: "ReLU"
  bottom: "InceptionResnetV2_InceptionResnetV2_Repeat_2_block8_8_Branch_0_Conv2d_1x1_scale"
  top: "InceptionResnetV2_InceptionResnetV2_Repeat_2_block8_8_Branch_0_Conv2d_1x1_r"
}
layer {
  name: "InceptionResnetV2_InceptionResnetV2_Repeat_2_block8_8_Branch_1_Conv2d_0a_1x1"
  type: "Convolution"
  bottom: "InceptionResnetV2_InceptionResnetV2_Repeat_2_block8_7_r"
  top: "InceptionResnetV2_InceptionResnetV2_Repeat_2_block8_8_Branch_1_Conv2d_0a_1x1"
  convolution_param {
    num_output: 192
    bias_term: false
    group: 1
    pad_h: 0
    pad_w: 0
    kernel_h: 1
    kernel_w: 1
    stride_h: 1
    stride_w: 1
  }
}
layer {
  name: "InceptionResnetV2_InceptionResnetV2_Repeat_2_block8_8_Branch_1_Conv2d_0a_1x1_bn"
  type: "BatchNorm"
  bottom: "InceptionResnetV2_InceptionResnetV2_Repeat_2_block8_8_Branch_1_Conv2d_0a_1x1"
  top: "InceptionResnetV2_InceptionResnetV2_Repeat_2_block8_8_Branch_1_Conv2d_0a_1x1_bn"
  batch_norm_param {
    use_global_stats: true
    eps: 0.0010000000475
  }
}
layer {
  name: "InceptionResnetV2_InceptionResnetV2_Repeat_2_block8_8_Branch_1_Conv2d_0a_1x1_scale"
  type: "Scale"
  bottom: "InceptionResnetV2_InceptionResnetV2_Repeat_2_block8_8_Branch_1_Conv2d_0a_1x1_bn"
  top: "InceptionResnetV2_InceptionResnetV2_Repeat_2_block8_8_Branch_1_Conv2d_0a_1x1_scale"
  scale_param {
    bias_term: true
  }
}
layer {
  name: "InceptionResnetV2_InceptionResnetV2_Repeat_2_block8_8_Branch_1_Conv2d_0a_1x1_r"
  type: "ReLU"
  bottom: "InceptionResnetV2_InceptionResnetV2_Repeat_2_block8_8_Branch_1_Conv2d_0a_1x1_scale"
  top: "InceptionResnetV2_InceptionResnetV2_Repeat_2_block8_8_Branch_1_Conv2d_0a_1x1_r"
}
layer {
  name: "InceptionResnetV2_InceptionResnetV2_Repeat_2_block8_8_Branch_1_Conv2d_0b_1x3"
  type: "Convolution"
  bottom: "InceptionResnetV2_InceptionResnetV2_Repeat_2_block8_8_Branch_1_Conv2d_0a_1x1_r"
  top: "InceptionResnetV2_InceptionResnetV2_Repeat_2_block8_8_Branch_1_Conv2d_0b_1x3"
  convolution_param {
    num_output: 224
    bias_term: false
    group: 1
    pad_h: 0
    pad_w: 1
    kernel_h: 1
    kernel_w: 3
    stride_h: 1
    stride_w: 1
  }
}
layer {
  name: "InceptionResnetV2_InceptionResnetV2_Repeat_2_block8_8_Branch_1_Conv2d_0b_1x3_bn"
  type: "BatchNorm"
  bottom: "InceptionResnetV2_InceptionResnetV2_Repeat_2_block8_8_Branch_1_Conv2d_0b_1x3"
  top: "InceptionResnetV2_InceptionResnetV2_Repeat_2_block8_8_Branch_1_Conv2d_0b_1x3_bn"
  batch_norm_param {
    use_global_stats: true
    eps: 0.0010000000475
  }
}
layer {
  name: "InceptionResnetV2_InceptionResnetV2_Repeat_2_block8_8_Branch_1_Conv2d_0b_1x3_scale"
  type: "Scale"
  bottom: "InceptionResnetV2_InceptionResnetV2_Repeat_2_block8_8_Branch_1_Conv2d_0b_1x3_bn"
  top: "InceptionResnetV2_InceptionResnetV2_Repeat_2_block8_8_Branch_1_Conv2d_0b_1x3_scale"
  scale_param {
    bias_term: true
  }
}
layer {
  name: "InceptionResnetV2_InceptionResnetV2_Repeat_2_block8_8_Branch_1_Conv2d_0b_1x3_r"
  type: "ReLU"
  bottom: "InceptionResnetV2_InceptionResnetV2_Repeat_2_block8_8_Branch_1_Conv2d_0b_1x3_scale"
  top: "InceptionResnetV2_InceptionResnetV2_Repeat_2_block8_8_Branch_1_Conv2d_0b_1x3_r"
}
layer {
  name: "InceptionResnetV2_InceptionResnetV2_Repeat_2_block8_8_Branch_1_Conv2d_0c_3x1"
  type: "Convolution"
  bottom: "InceptionResnetV2_InceptionResnetV2_Repeat_2_block8_8_Branch_1_Conv2d_0b_1x3_r"
  top: "InceptionResnetV2_InceptionResnetV2_Repeat_2_block8_8_Branch_1_Conv2d_0c_3x1"
  convolution_param {
    num_output: 256
    bias_term: false
    group: 1
    pad_h: 1
    pad_w: 0
    kernel_h: 3
    kernel_w: 1
    stride_h: 1
    stride_w: 1
  }
}
layer {
  name: "InceptionResnetV2_InceptionResnetV2_Repeat_2_block8_8_Branch_1_Conv2d_0c_3x1_bn"
  type: "BatchNorm"
  bottom: "InceptionResnetV2_InceptionResnetV2_Repeat_2_block8_8_Branch_1_Conv2d_0c_3x1"
  top: "InceptionResnetV2_InceptionResnetV2_Repeat_2_block8_8_Branch_1_Conv2d_0c_3x1_bn"
  batch_norm_param {
    use_global_stats: true
    eps: 0.0010000000475
  }
}
layer {
  name: "InceptionResnetV2_InceptionResnetV2_Repeat_2_block8_8_Branch_1_Conv2d_0c_3x1_scale"
  type: "Scale"
  bottom: "InceptionResnetV2_InceptionResnetV2_Repeat_2_block8_8_Branch_1_Conv2d_0c_3x1_bn"
  top: "InceptionResnetV2_InceptionResnetV2_Repeat_2_block8_8_Branch_1_Conv2d_0c_3x1_scale"
  scale_param {
    bias_term: true
  }
}
layer {
  name: "InceptionResnetV2_InceptionResnetV2_Repeat_2_block8_8_Branch_1_Conv2d_0c_3x1_r"
  type: "ReLU"
  bottom: "InceptionResnetV2_InceptionResnetV2_Repeat_2_block8_8_Branch_1_Conv2d_0c_3x1_scale"
  top: "InceptionResnetV2_InceptionResnetV2_Repeat_2_block8_8_Branch_1_Conv2d_0c_3x1_r"
}
layer {
  name: "InceptionResnetV2_InceptionResnetV2_Repeat_2_block8_8_concat"
  type: "Concat"
  bottom: "InceptionResnetV2_InceptionResnetV2_Repeat_2_block8_8_Branch_0_Conv2d_1x1_r"
  bottom: "InceptionResnetV2_InceptionResnetV2_Repeat_2_block8_8_Branch_1_Conv2d_0c_3x1_r"
  top: "InceptionResnetV2_InceptionResnetV2_Repeat_2_block8_8_concat"
  concat_param {
    axis: 1
  }
}
layer {
  name: "InceptionResnetV2_InceptionResnetV2_Repeat_2_block8_8_Conv2d_1x1"
  type: "Convolution"
  bottom: "InceptionResnetV2_InceptionResnetV2_Repeat_2_block8_8_concat"
  top: "InceptionResnetV2_InceptionResnetV2_Repeat_2_block8_8_Conv2d_1x1"
  convolution_param {
    num_output: 2080
    bias_term: true
    group: 1
    pad_h: 0
    pad_w: 0
    kernel_h: 1
    kernel_w: 1
    stride_h: 1
    stride_w: 1
  }
}
layer {
  name: "InceptionResnetV2_InceptionResnetV2_Repeat_2_block8_8"
  type: "Eltwise"
  bottom: "InceptionResnetV2_InceptionResnetV2_Repeat_2_block8_7_r"
  bottom: "InceptionResnetV2_InceptionResnetV2_Repeat_2_block8_8_Conv2d_1x1"
  top: "InceptionResnetV2_InceptionResnetV2_Repeat_2_block8_8"
  eltwise_param {
    operation: SUM
    coeff: 1.0
    coeff: 0.20000000298
  }
}
layer {
  name: "InceptionResnetV2_InceptionResnetV2_Repeat_2_block8_8_r"
  type: "ReLU"
  bottom: "InceptionResnetV2_InceptionResnetV2_Repeat_2_block8_8"
  top: "InceptionResnetV2_InceptionResnetV2_Repeat_2_block8_8_r"
}
layer {
  name: "InceptionResnetV2_InceptionResnetV2_Repeat_2_block8_9_Branch_0_Conv2d_1x1"
  type: "Convolution"
  bottom: "InceptionResnetV2_InceptionResnetV2_Repeat_2_block8_8_r"
  top: "InceptionResnetV2_InceptionResnetV2_Repeat_2_block8_9_Branch_0_Conv2d_1x1"
  convolution_param {
    num_output: 192
    bias_term: false
    group: 1
    pad_h: 0
    pad_w: 0
    kernel_h: 1
    kernel_w: 1
    stride_h: 1
    stride_w: 1
  }
}
layer {
  name: "InceptionResnetV2_InceptionResnetV2_Repeat_2_block8_9_Branch_0_Conv2d_1x1_bn"
  type: "BatchNorm"
  bottom: "InceptionResnetV2_InceptionResnetV2_Repeat_2_block8_9_Branch_0_Conv2d_1x1"
  top: "InceptionResnetV2_InceptionResnetV2_Repeat_2_block8_9_Branch_0_Conv2d_1x1_bn"
  batch_norm_param {
    use_global_stats: true
    eps: 0.0010000000475
  }
}
layer {
  name: "InceptionResnetV2_InceptionResnetV2_Repeat_2_block8_9_Branch_0_Conv2d_1x1_scale"
  type: "Scale"
  bottom: "InceptionResnetV2_InceptionResnetV2_Repeat_2_block8_9_Branch_0_Conv2d_1x1_bn"
  top: "InceptionResnetV2_InceptionResnetV2_Repeat_2_block8_9_Branch_0_Conv2d_1x1_scale"
  scale_param {
    bias_term: true
  }
}
layer {
  name: "InceptionResnetV2_InceptionResnetV2_Repeat_2_block8_9_Branch_0_Conv2d_1x1_r"
  type: "ReLU"
  bottom: "InceptionResnetV2_InceptionResnetV2_Repeat_2_block8_9_Branch_0_Conv2d_1x1_scale"
  top: "InceptionResnetV2_InceptionResnetV2_Repeat_2_block8_9_Branch_0_Conv2d_1x1_r"
}
layer {
  name: "InceptionResnetV2_InceptionResnetV2_Repeat_2_block8_9_Branch_1_Conv2d_0a_1x1"
  type: "Convolution"
  bottom: "InceptionResnetV2_InceptionResnetV2_Repeat_2_block8_8_r"
  top: "InceptionResnetV2_InceptionResnetV2_Repeat_2_block8_9_Branch_1_Conv2d_0a_1x1"
  convolution_param {
    num_output: 192
    bias_term: false
    group: 1
    pad_h: 0
    pad_w: 0
    kernel_h: 1
    kernel_w: 1
    stride_h: 1
    stride_w: 1
  }
}
layer {
  name: "InceptionResnetV2_InceptionResnetV2_Repeat_2_block8_9_Branch_1_Conv2d_0a_1x1_bn"
  type: "BatchNorm"
  bottom: "InceptionResnetV2_InceptionResnetV2_Repeat_2_block8_9_Branch_1_Conv2d_0a_1x1"
  top: "InceptionResnetV2_InceptionResnetV2_Repeat_2_block8_9_Branch_1_Conv2d_0a_1x1_bn"
  batch_norm_param {
    use_global_stats: true
    eps: 0.0010000000475
  }
}
layer {
  name: "InceptionResnetV2_InceptionResnetV2_Repeat_2_block8_9_Branch_1_Conv2d_0a_1x1_scale"
  type: "Scale"
  bottom: "InceptionResnetV2_InceptionResnetV2_Repeat_2_block8_9_Branch_1_Conv2d_0a_1x1_bn"
  top: "InceptionResnetV2_InceptionResnetV2_Repeat_2_block8_9_Branch_1_Conv2d_0a_1x1_scale"
  scale_param {
    bias_term: true
  }
}
layer {
  name: "InceptionResnetV2_InceptionResnetV2_Repeat_2_block8_9_Branch_1_Conv2d_0a_1x1_r"
  type: "ReLU"
  bottom: "InceptionResnetV2_InceptionResnetV2_Repeat_2_block8_9_Branch_1_Conv2d_0a_1x1_scale"
  top: "InceptionResnetV2_InceptionResnetV2_Repeat_2_block8_9_Branch_1_Conv2d_0a_1x1_r"
}
layer {
  name: "InceptionResnetV2_InceptionResnetV2_Repeat_2_block8_9_Branch_1_Conv2d_0b_1x3"
  type: "Convolution"
  bottom: "InceptionResnetV2_InceptionResnetV2_Repeat_2_block8_9_Branch_1_Conv2d_0a_1x1_r"
  top: "InceptionResnetV2_InceptionResnetV2_Repeat_2_block8_9_Branch_1_Conv2d_0b_1x3"
  convolution_param {
    num_output: 224
    bias_term: false
    group: 1
    pad_h: 0
    pad_w: 1
    kernel_h: 1
    kernel_w: 3
    stride_h: 1
    stride_w: 1
  }
}
layer {
  name: "InceptionResnetV2_InceptionResnetV2_Repeat_2_block8_9_Branch_1_Conv2d_0b_1x3_bn"
  type: "BatchNorm"
  bottom: "InceptionResnetV2_InceptionResnetV2_Repeat_2_block8_9_Branch_1_Conv2d_0b_1x3"
  top: "InceptionResnetV2_InceptionResnetV2_Repeat_2_block8_9_Branch_1_Conv2d_0b_1x3_bn"
  batch_norm_param {
    use_global_stats: true
    eps: 0.0010000000475
  }
}
layer {
  name: "InceptionResnetV2_InceptionResnetV2_Repeat_2_block8_9_Branch_1_Conv2d_0b_1x3_scale"
  type: "Scale"
  bottom: "InceptionResnetV2_InceptionResnetV2_Repeat_2_block8_9_Branch_1_Conv2d_0b_1x3_bn"
  top: "InceptionResnetV2_InceptionResnetV2_Repeat_2_block8_9_Branch_1_Conv2d_0b_1x3_scale"
  scale_param {
    bias_term: true
  }
}
layer {
  name: "InceptionResnetV2_InceptionResnetV2_Repeat_2_block8_9_Branch_1_Conv2d_0b_1x3_r"
  type: "ReLU"
  bottom: "InceptionResnetV2_InceptionResnetV2_Repeat_2_block8_9_Branch_1_Conv2d_0b_1x3_scale"
  top: "InceptionResnetV2_InceptionResnetV2_Repeat_2_block8_9_Branch_1_Conv2d_0b_1x3_r"
}
layer {
  name: "InceptionResnetV2_InceptionResnetV2_Repeat_2_block8_9_Branch_1_Conv2d_0c_3x1"
  type: "Convolution"
  bottom: "InceptionResnetV2_InceptionResnetV2_Repeat_2_block8_9_Branch_1_Conv2d_0b_1x3_r"
  top: "InceptionResnetV2_InceptionResnetV2_Repeat_2_block8_9_Branch_1_Conv2d_0c_3x1"
  convolution_param {
    num_output: 256
    bias_term: false
    group: 1
    pad_h: 1
    pad_w: 0
    kernel_h: 3
    kernel_w: 1
    stride_h: 1
    stride_w: 1
  }
}
layer {
  name: "InceptionResnetV2_InceptionResnetV2_Repeat_2_block8_9_Branch_1_Conv2d_0c_3x1_bn"
  type: "BatchNorm"
  bottom: "InceptionResnetV2_InceptionResnetV2_Repeat_2_block8_9_Branch_1_Conv2d_0c_3x1"
  top: "InceptionResnetV2_InceptionResnetV2_Repeat_2_block8_9_Branch_1_Conv2d_0c_3x1_bn"
  batch_norm_param {
    use_global_stats: true
    eps: 0.0010000000475
  }
}
layer {
  name: "InceptionResnetV2_InceptionResnetV2_Repeat_2_block8_9_Branch_1_Conv2d_0c_3x1_scale"
  type: "Scale"
  bottom: "InceptionResnetV2_InceptionResnetV2_Repeat_2_block8_9_Branch_1_Conv2d_0c_3x1_bn"
  top: "InceptionResnetV2_InceptionResnetV2_Repeat_2_block8_9_Branch_1_Conv2d_0c_3x1_scale"
  scale_param {
    bias_term: true
  }
}
layer {
  name: "InceptionResnetV2_InceptionResnetV2_Repeat_2_block8_9_Branch_1_Conv2d_0c_3x1_r"
  type: "ReLU"
  bottom: "InceptionResnetV2_InceptionResnetV2_Repeat_2_block8_9_Branch_1_Conv2d_0c_3x1_scale"
  top: "InceptionResnetV2_InceptionResnetV2_Repeat_2_block8_9_Branch_1_Conv2d_0c_3x1_r"
}
layer {
  name: "InceptionResnetV2_InceptionResnetV2_Repeat_2_block8_9_concat"
  type: "Concat"
  bottom: "InceptionResnetV2_InceptionResnetV2_Repeat_2_block8_9_Branch_0_Conv2d_1x1_r"
  bottom: "InceptionResnetV2_InceptionResnetV2_Repeat_2_block8_9_Branch_1_Conv2d_0c_3x1_r"
  top: "InceptionResnetV2_InceptionResnetV2_Repeat_2_block8_9_concat"
  concat_param {
    axis: 1
  }
}
layer {
  name: "InceptionResnetV2_InceptionResnetV2_Repeat_2_block8_9_Conv2d_1x1"
  type: "Convolution"
  bottom: "InceptionResnetV2_InceptionResnetV2_Repeat_2_block8_9_concat"
  top: "InceptionResnetV2_InceptionResnetV2_Repeat_2_block8_9_Conv2d_1x1"
  convolution_param {
    num_output: 2080
    bias_term: true
    group: 1
    pad_h: 0
    pad_w: 0
    kernel_h: 1
    kernel_w: 1
    stride_h: 1
    stride_w: 1
  }
}
layer {
  name: "InceptionResnetV2_InceptionResnetV2_Repeat_2_block8_9"
  type: "Eltwise"
  bottom: "InceptionResnetV2_InceptionResnetV2_Repeat_2_block8_8_r"
  bottom: "InceptionResnetV2_InceptionResnetV2_Repeat_2_block8_9_Conv2d_1x1"
  top: "InceptionResnetV2_InceptionResnetV2_Repeat_2_block8_9"
  eltwise_param {
    operation: SUM
    coeff: 1.0
    coeff: 0.20000000298
  }
}
layer {
  name: "InceptionResnetV2_InceptionResnetV2_Repeat_2_block8_9_r"
  type: "ReLU"
  bottom: "InceptionResnetV2_InceptionResnetV2_Repeat_2_block8_9"
  top: "InceptionResnetV2_InceptionResnetV2_Repeat_2_block8_9_r"
}
layer {
  name: "InceptionResnetV2_InceptionResnetV2_Block8_Branch_0_Conv2d_1x1"
  type: "Convolution"
  bottom: "InceptionResnetV2_InceptionResnetV2_Repeat_2_block8_9_r"
  top: "InceptionResnetV2_InceptionResnetV2_Block8_Branch_0_Conv2d_1x1"
  convolution_param {
    num_output: 192
    bias_term: false
    group: 1
    pad_h: 0
    pad_w: 0
    kernel_h: 1
    kernel_w: 1
    stride_h: 1
    stride_w: 1
  }
}
layer {
  name: "InceptionResnetV2_InceptionResnetV2_Block8_Branch_0_Conv2d_1x1_bn"
  type: "BatchNorm"
  bottom: "InceptionResnetV2_InceptionResnetV2_Block8_Branch_0_Conv2d_1x1"
  top: "InceptionResnetV2_InceptionResnetV2_Block8_Branch_0_Conv2d_1x1_bn"
  batch_norm_param {
    use_global_stats: true
    eps: 0.0010000000475
  }
}
layer {
  name: "InceptionResnetV2_InceptionResnetV2_Block8_Branch_0_Conv2d_1x1_scale"
  type: "Scale"
  bottom: "InceptionResnetV2_InceptionResnetV2_Block8_Branch_0_Conv2d_1x1_bn"
  top: "InceptionResnetV2_InceptionResnetV2_Block8_Branch_0_Conv2d_1x1_scale"
  scale_param {
    bias_term: true
  }
}
layer {
  name: "InceptionResnetV2_InceptionResnetV2_Block8_Branch_0_Conv2d_1x1_r"
  type: "ReLU"
  bottom: "InceptionResnetV2_InceptionResnetV2_Block8_Branch_0_Conv2d_1x1_scale"
  top: "InceptionResnetV2_InceptionResnetV2_Block8_Branch_0_Conv2d_1x1_r"
}
layer {
  name: "InceptionResnetV2_InceptionResnetV2_Block8_Branch_1_Conv2d_0a_1x1"
  type: "Convolution"
  bottom: "InceptionResnetV2_InceptionResnetV2_Repeat_2_block8_9_r"
  top: "InceptionResnetV2_InceptionResnetV2_Block8_Branch_1_Conv2d_0a_1x1"
  convolution_param {
    num_output: 192
    bias_term: false
    group: 1
    pad_h: 0
    pad_w: 0
    kernel_h: 1
    kernel_w: 1
    stride_h: 1
    stride_w: 1
  }
}
layer {
  name: "InceptionResnetV2_InceptionResnetV2_Block8_Branch_1_Conv2d_0a_1x1_bn"
  type: "BatchNorm"
  bottom: "InceptionResnetV2_InceptionResnetV2_Block8_Branch_1_Conv2d_0a_1x1"
  top: "InceptionResnetV2_InceptionResnetV2_Block8_Branch_1_Conv2d_0a_1x1_bn"
  batch_norm_param {
    use_global_stats: true
    eps: 0.0010000000475
  }
}
layer {
  name: "InceptionResnetV2_InceptionResnetV2_Block8_Branch_1_Conv2d_0a_1x1_scale"
  type: "Scale"
  bottom: "InceptionResnetV2_InceptionResnetV2_Block8_Branch_1_Conv2d_0a_1x1_bn"
  top: "InceptionResnetV2_InceptionResnetV2_Block8_Branch_1_Conv2d_0a_1x1_scale"
  scale_param {
    bias_term: true
  }
}
layer {
  name: "InceptionResnetV2_InceptionResnetV2_Block8_Branch_1_Conv2d_0a_1x1_r"
  type: "ReLU"
  bottom: "InceptionResnetV2_InceptionResnetV2_Block8_Branch_1_Conv2d_0a_1x1_scale"
  top: "InceptionResnetV2_InceptionResnetV2_Block8_Branch_1_Conv2d_0a_1x1_r"
}
layer {
  name: "InceptionResnetV2_InceptionResnetV2_Block8_Branch_1_Conv2d_0b_1x3"
  type: "Convolution"
  bottom: "InceptionResnetV2_InceptionResnetV2_Block8_Branch_1_Conv2d_0a_1x1_r"
  top: "InceptionResnetV2_InceptionResnetV2_Block8_Branch_1_Conv2d_0b_1x3"
  convolution_param {
    num_output: 224
    bias_term: false
    group: 1
    pad_h: 0
    pad_w: 1
    kernel_h: 1
    kernel_w: 3
    stride_h: 1
    stride_w: 1
  }
}
layer {
  name: "InceptionResnetV2_InceptionResnetV2_Block8_Branch_1_Conv2d_0b_1x3_bn"
  type: "BatchNorm"
  bottom: "InceptionResnetV2_InceptionResnetV2_Block8_Branch_1_Conv2d_0b_1x3"
  top: "InceptionResnetV2_InceptionResnetV2_Block8_Branch_1_Conv2d_0b_1x3_bn"
  batch_norm_param {
    use_global_stats: true
    eps: 0.0010000000475
  }
}
layer {
  name: "InceptionResnetV2_InceptionResnetV2_Block8_Branch_1_Conv2d_0b_1x3_scale"
  type: "Scale"
  bottom: "InceptionResnetV2_InceptionResnetV2_Block8_Branch_1_Conv2d_0b_1x3_bn"
  top: "InceptionResnetV2_InceptionResnetV2_Block8_Branch_1_Conv2d_0b_1x3_scale"
  scale_param {
    bias_term: true
  }
}
layer {
  name: "InceptionResnetV2_InceptionResnetV2_Block8_Branch_1_Conv2d_0b_1x3_r"
  type: "ReLU"
  bottom: "InceptionResnetV2_InceptionResnetV2_Block8_Branch_1_Conv2d_0b_1x3_scale"
  top: "InceptionResnetV2_InceptionResnetV2_Block8_Branch_1_Conv2d_0b_1x3_r"
}
layer {
  name: "InceptionResnetV2_InceptionResnetV2_Block8_Branch_1_Conv2d_0c_3x1"
  type: "Convolution"
  bottom: "InceptionResnetV2_InceptionResnetV2_Block8_Branch_1_Conv2d_0b_1x3_r"
  top: "InceptionResnetV2_InceptionResnetV2_Block8_Branch_1_Conv2d_0c_3x1"
  convolution_param {
    num_output: 256
    bias_term: false
    group: 1
    pad_h: 1
    pad_w: 0
    kernel_h: 3
    kernel_w: 1
    stride_h: 1
    stride_w: 1
  }
}
layer {
  name: "InceptionResnetV2_InceptionResnetV2_Block8_Branch_1_Conv2d_0c_3x1_bn"
  type: "BatchNorm"
  bottom: "InceptionResnetV2_InceptionResnetV2_Block8_Branch_1_Conv2d_0c_3x1"
  top: "InceptionResnetV2_InceptionResnetV2_Block8_Branch_1_Conv2d_0c_3x1_bn"
  batch_norm_param {
    use_global_stats: true
    eps: 0.0010000000475
  }
}
layer {
  name: "InceptionResnetV2_InceptionResnetV2_Block8_Branch_1_Conv2d_0c_3x1_scale"
  type: "Scale"
  bottom: "InceptionResnetV2_InceptionResnetV2_Block8_Branch_1_Conv2d_0c_3x1_bn"
  top: "InceptionResnetV2_InceptionResnetV2_Block8_Branch_1_Conv2d_0c_3x1_scale"
  scale_param {
    bias_term: true
  }
}
layer {
  name: "InceptionResnetV2_InceptionResnetV2_Block8_Branch_1_Conv2d_0c_3x1_r"
  type: "ReLU"
  bottom: "InceptionResnetV2_InceptionResnetV2_Block8_Branch_1_Conv2d_0c_3x1_scale"
  top: "InceptionResnetV2_InceptionResnetV2_Block8_Branch_1_Conv2d_0c_3x1_r"
}
layer {
  name: "InceptionResnetV2_InceptionResnetV2_Block8_concat"
  type: "Concat"
  bottom: "InceptionResnetV2_InceptionResnetV2_Block8_Branch_0_Conv2d_1x1_r"
  bottom: "InceptionResnetV2_InceptionResnetV2_Block8_Branch_1_Conv2d_0c_3x1_r"
  top: "InceptionResnetV2_InceptionResnetV2_Block8_concat"
  concat_param {
    axis: 1
  }
}
layer {
  name: "InceptionResnetV2_InceptionResnetV2_Block8_Conv2d_1x1"
  type: "Convolution"
  bottom: "InceptionResnetV2_InceptionResnetV2_Block8_concat"
  top: "InceptionResnetV2_InceptionResnetV2_Block8_Conv2d_1x1"
  convolution_param {
    num_output: 2080
    bias_term: true
    group: 1
    pad_h: 0
    pad_w: 0
    kernel_h: 1
    kernel_w: 1
    stride_h: 1
    stride_w: 1
  }
}
layer {
  name: "InceptionResnetV2_InceptionResnetV2_Block8"
  type: "Eltwise"
  bottom: "InceptionResnetV2_InceptionResnetV2_Repeat_2_block8_9_r"
  bottom: "InceptionResnetV2_InceptionResnetV2_Block8_Conv2d_1x1"
  top: "InceptionResnetV2_InceptionResnetV2_Block8"
  eltwise_param {
    operation: SUM
    coeff: 1.0
    coeff: 1.0
  }
}
layer {
  name: "InceptionResnetV2_InceptionResnetV2_Conv2d_7b_1x1"
  type: "Convolution"
  bottom: "InceptionResnetV2_InceptionResnetV2_Block8"
  top: "InceptionResnetV2_InceptionResnetV2_Conv2d_7b_1x1"
  convolution_param {
    num_output: 1536
    bias_term: false
    group: 1
    pad_h: 0
    pad_w: 0
    kernel_h: 1
    kernel_w: 1
    stride_h: 1
    stride_w: 1
  }
}
layer {
  name: "InceptionResnetV2_InceptionResnetV2_Conv2d_7b_1x1_bn"
  type: "BatchNorm"
  bottom: "InceptionResnetV2_InceptionResnetV2_Conv2d_7b_1x1"
  top: "InceptionResnetV2_InceptionResnetV2_Conv2d_7b_1x1_bn"
  batch_norm_param {
    use_global_stats: true
    eps: 0.0010000000475
  }
}
layer {
  name: "InceptionResnetV2_InceptionResnetV2_Conv2d_7b_1x1_scale"
  type: "Scale"
  bottom: "InceptionResnetV2_InceptionResnetV2_Conv2d_7b_1x1_bn"
  top: "InceptionResnetV2_InceptionResnetV2_Conv2d_7b_1x1_scale"
  scale_param {
    bias_term: true
  }
}
layer {
  name: "InceptionResnetV2_InceptionResnetV2_Conv2d_7b_1x1_r"
  type: "ReLU"
  bottom: "InceptionResnetV2_InceptionResnetV2_Conv2d_7b_1x1_scale"
  top: "InceptionResnetV2_InceptionResnetV2_Conv2d_7b_1x1_r"
}
layer {
  name: "InceptionResnetV2_AuxLogits_Conv2d_1a_3x3_AvgPool"
  type: "Pooling"
  bottom: "InceptionResnetV2_InceptionResnetV2_Repeat_1_block17_20_r"
  top: "InceptionResnetV2_AuxLogits_Conv2d_1a_3x3_AvgPool"
  pooling_param {
    pool: AVE_TF
    kernel_h: 5
    kernel_w: 5
    stride_h: 3
    stride_w: 3
    pad_h: 0
    pad_w: 0
  }
}
layer {
  name: "InceptionResnetV2_AuxLogits_Conv2d_1b_1x1"
  type: "Convolution"
  bottom: "InceptionResnetV2_AuxLogits_Conv2d_1a_3x3_AvgPool"
  top: "InceptionResnetV2_AuxLogits_Conv2d_1b_1x1"
  convolution_param {
    num_output: 128
    bias_term: false
    group: 1
    pad_h: 0
    pad_w: 0
    kernel_h: 1
    kernel_w: 1
    stride_h: 1
    stride_w: 1
  }
}
layer {
  name: "InceptionResnetV2_AuxLogits_Conv2d_1b_1x1_bn"
  type: "BatchNorm"
  bottom: "InceptionResnetV2_AuxLogits_Conv2d_1b_1x1"
  top: "InceptionResnetV2_AuxLogits_Conv2d_1b_1x1_bn"
  batch_norm_param {
    use_global_stats: true
    eps: 0.0010000000475
  }
}
layer {
  name: "InceptionResnetV2_AuxLogits_Conv2d_1b_1x1_scale"
  type: "Scale"
  bottom: "InceptionResnetV2_AuxLogits_Conv2d_1b_1x1_bn"
  top: "InceptionResnetV2_AuxLogits_Conv2d_1b_1x1_scale"
  scale_param {
    bias_term: true
  }
}
layer {
  name: "InceptionResnetV2_AuxLogits_Conv2d_1b_1x1_r"
  type: "ReLU"
  bottom: "InceptionResnetV2_AuxLogits_Conv2d_1b_1x1_scale"
  top: "InceptionResnetV2_AuxLogits_Conv2d_1b_1x1_r"
}
layer {
  name: "InceptionResnetV2_AuxLogits_Conv2d_2a_5x5"
  type: "Convolution"
  bottom: "InceptionResnetV2_AuxLogits_Conv2d_1b_1x1_r"
  top: "InceptionResnetV2_AuxLogits_Conv2d_2a_5x5"
  convolution_param {
    num_output: 768
    bias_term: false
    group: 1
    pad_h: 0
    pad_w: 0
    kernel_h: 5
    kernel_w: 5
    stride_h: 1
    stride_w: 1
  }
}
layer {
  name: "InceptionResnetV2_AuxLogits_Conv2d_2a_5x5_bn"
  type: "BatchNorm"
  bottom: "InceptionResnetV2_AuxLogits_Conv2d_2a_5x5"
  top: "InceptionResnetV2_AuxLogits_Conv2d_2a_5x5_bn"
  batch_norm_param {
    use_global_stats: true
    eps: 0.0010000000475
  }
}
layer {
  name: "InceptionResnetV2_AuxLogits_Conv2d_2a_5x5_scale"
  type: "Scale"
  bottom: "InceptionResnetV2_AuxLogits_Conv2d_2a_5x5_bn"
  top: "InceptionResnetV2_AuxLogits_Conv2d_2a_5x5_scale"
  scale_param {
    bias_term: true
  }
}
layer {
  name: "InceptionResnetV2_AuxLogits_Conv2d_2a_5x5_r"
  type: "ReLU"
  bottom: "InceptionResnetV2_AuxLogits_Conv2d_2a_5x5_scale"
  top: "InceptionResnetV2_AuxLogits_Conv2d_2a_5x5_r"
}
layer {
  name: "InceptionResnetV2_AuxLogits_Flatten"
  type: "Flatten"
  bottom: "InceptionResnetV2_AuxLogits_Conv2d_2a_5x5_r"
  top: "InceptionResnetV2_AuxLogits_Flatten"
}
layer {
  name: "InceptionResnetV2_AuxLogits_Logits"
  type: "InnerProduct"
  bottom: "InceptionResnetV2_AuxLogits_Flatten"
  top: "InceptionResnetV2_AuxLogits_Logits"
  inner_product_param {
    num_output: 1001
  }
}
layer {
  name: "InceptionResnetV2_Logits_AvgPool_1a_8x8_AvgPool"
  type: "Pooling"
  bottom: "InceptionResnetV2_InceptionResnetV2_Conv2d_7b_1x1_r"
  top: "InceptionResnetV2_Logits_AvgPool_1a_8x8_AvgPool"
  pooling_param {
    pool: AVE_TF
    kernel_h: 8
    kernel_w: 8
    stride_h: 2
    stride_w: 2
    pad_h: 0
    pad_w: 0
  }
}
layer {
  name: "InceptionResnetV2_Logits_Flatten"
  type: "Flatten"
  bottom: "InceptionResnetV2_Logits_AvgPool_1a_8x8_AvgPool"
  top: "InceptionResnetV2_Logits_Flatten"
}
layer {
  name: "InceptionResnetV2_Logits_Logits"
  type: "InnerProduct"
  bottom: "InceptionResnetV2_Logits_Flatten"
  top: "InceptionResnetV2_Logits_Logits"
  inner_product_param {
    num_output: 1001
  }
}
layer {
  name: "InceptionResnetV2_Logits_Predictions"
  type: "Softmax"
  bottom: "InceptionResnetV2_Logits_Logits"
  top: "InceptionResnetV2_Logits_Predictions"
}
