name: "AA"
input: "data"
input_dim: 1
input_dim: 3
input_dim: 299
input_dim: 299
layer {
  name: "Convolution:AB"
  type: "Convolution"
  bottom: "data"
  top: "InceptionResnetV2_InceptionResnetV2_Conv2d_1a_3x3"
  convolution_param {
    num_output: 32
    bias_term: false
    group: 1
    pad_h: 0
    pad_w: 0
    kernel_h: 3
    kernel_w: 3
    stride_h: 2
    stride_w: 2
  }
}
layer {
  name: "BatchNorm:AC"
  type: "BatchNorm"
  bottom: "InceptionResnetV2_InceptionResnetV2_Conv2d_1a_3x3"
  top: "InceptionResnetV2_InceptionResnetV2_Conv2d_1a_3x3_bn"
  batch_norm_param {
    use_global_stats: true
    eps: 0.0010000000475
  }
}
layer {
  name: "Scale:AD"
  type: "Scale"
  bottom: "InceptionResnetV2_InceptionResnetV2_Conv2d_1a_3x3_bn"
  top: "InceptionResnetV2_InceptionResnetV2_Conv2d_1a_3x3_scale"
  scale_param {
    bias_term: true
  }
}
layer {
  name: "ReLU:AE"
  type: "ReLU"
  bottom: "InceptionResnetV2_InceptionResnetV2_Conv2d_1a_3x3_scale"
  top: "InceptionResnetV2_InceptionResnetV2_Conv2d_1a_3x3_r"
}
layer {
  name: "Convolution:AF"
  type: "Convolution"
  bottom: "InceptionResnetV2_InceptionResnetV2_Conv2d_1a_3x3_r"
  top: "InceptionResnetV2_InceptionResnetV2_Conv2d_2a_3x3"
  convolution_param {
    num_output: 32
    bias_term: false
    group: 1
    pad_h: 0
    pad_w: 0
    kernel_h: 3
    kernel_w: 3
    stride_h: 1
    stride_w: 1
  }
}
layer {
  name: "BatchNorm:AG"
  type: "BatchNorm"
  bottom: "InceptionResnetV2_InceptionResnetV2_Conv2d_2a_3x3"
  top: "InceptionResnetV2_InceptionResnetV2_Conv2d_2a_3x3_bn"
  batch_norm_param {
    use_global_stats: true
    eps: 0.0010000000475
  }
}
layer {
  name: "Scale:AH"
  type: "Scale"
  bottom: "InceptionResnetV2_InceptionResnetV2_Conv2d_2a_3x3_bn"
  top: "InceptionResnetV2_InceptionResnetV2_Conv2d_2a_3x3_scale"
  scale_param {
    bias_term: true
  }
}
layer {
  name: "ReLU:AI"
  type: "ReLU"
  bottom: "InceptionResnetV2_InceptionResnetV2_Conv2d_2a_3x3_scale"
  top: "InceptionResnetV2_InceptionResnetV2_Conv2d_2a_3x3_r"
}
layer {
  name: "Convolution:AJ"
  type: "Convolution"
  bottom: "InceptionResnetV2_InceptionResnetV2_Conv2d_2a_3x3_r"
  top: "InceptionResnetV2_InceptionResnetV2_Conv2d_2b_3x3"
  convolution_param {
    num_output: 64
    bias_term: false
    group: 1
    pad_h: 1
    pad_w: 1
    kernel_h: 3
    kernel_w: 3
    stride_h: 1
    stride_w: 1
  }
}
layer {
  name: "BatchNorm:AK"
  type: "BatchNorm"
  bottom: "InceptionResnetV2_InceptionResnetV2_Conv2d_2b_3x3"
  top: "InceptionResnetV2_InceptionResnetV2_Conv2d_2b_3x3_bn"
  batch_norm_param {
    use_global_stats: true
    eps: 0.0010000000475
  }
}
layer {
  name: "Scale:AL"
  type: "Scale"
  bottom: "InceptionResnetV2_InceptionResnetV2_Conv2d_2b_3x3_bn"
  top: "InceptionResnetV2_InceptionResnetV2_Conv2d_2b_3x3_scale"
  scale_param {
    bias_term: true
  }
}
layer {
  name: "ReLU:AM"
  type: "ReLU"
  bottom: "InceptionResnetV2_InceptionResnetV2_Conv2d_2b_3x3_scale"
  top: "InceptionResnetV2_InceptionResnetV2_Conv2d_2b_3x3_r"
}
layer {
  name: "Pooling:AN"
  type: "Pooling"
  bottom: "InceptionResnetV2_InceptionResnetV2_Conv2d_2b_3x3_r"
  top: "InceptionResnetV2_InceptionResnetV2_MaxPool_3a_3x3_MaxPool"
  pooling_param {
    pool: MAX
    kernel_h: 3
    kernel_w: 3
    stride_h: 2
    stride_w: 2
    pad_h: 0
    pad_w: 0
  }
}
layer {
  name: "Convolution:AO"
  type: "Convolution"
  bottom: "InceptionResnetV2_InceptionResnetV2_MaxPool_3a_3x3_MaxPool"
  top: "InceptionResnetV2_InceptionResnetV2_Conv2d_3b_1x1"
  convolution_param {
    num_output: 80
    bias_term: false
    group: 1
    pad_h: 0
    pad_w: 0
    kernel_h: 1
    kernel_w: 1
    stride_h: 1
    stride_w: 1
  }
}
layer {
  name: "BatchNorm:AP"
  type: "BatchNorm"
  bottom: "InceptionResnetV2_InceptionResnetV2_Conv2d_3b_1x1"
  top: "InceptionResnetV2_InceptionResnetV2_Conv2d_3b_1x1_bn"
  batch_norm_param {
    use_global_stats: true
    eps: 0.0010000000475
  }
}
layer {
  name: "Scale:AQ"
  type: "Scale"
  bottom: "InceptionResnetV2_InceptionResnetV2_Conv2d_3b_1x1_bn"
  top: "InceptionResnetV2_InceptionResnetV2_Conv2d_3b_1x1_scale"
  scale_param {
    bias_term: true
  }
}
layer {
  name: "ReLU:AR"
  type: "ReLU"
  bottom: "InceptionResnetV2_InceptionResnetV2_Conv2d_3b_1x1_scale"
  top: "InceptionResnetV2_InceptionResnetV2_Conv2d_3b_1x1_r"
}
layer {
  name: "Convolution:AS"
  type: "Convolution"
  bottom: "InceptionResnetV2_InceptionResnetV2_Conv2d_3b_1x1_r"
  top: "InceptionResnetV2_InceptionResnetV2_Conv2d_4a_3x3"
  convolution_param {
    num_output: 192
    bias_term: false
    group: 1
    pad_h: 0
    pad_w: 0
    kernel_h: 3
    kernel_w: 3
    stride_h: 1
    stride_w: 1
  }
}
layer {
  name: "BatchNorm:AT"
  type: "BatchNorm"
  bottom: "InceptionResnetV2_InceptionResnetV2_Conv2d_4a_3x3"
  top: "InceptionResnetV2_InceptionResnetV2_Conv2d_4a_3x3_bn"
  batch_norm_param {
    use_global_stats: true
    eps: 0.0010000000475
  }
}
layer {
  name: "Scale:AU"
  type: "Scale"
  bottom: "InceptionResnetV2_InceptionResnetV2_Conv2d_4a_3x3_bn"
  top: "InceptionResnetV2_InceptionResnetV2_Conv2d_4a_3x3_scale"
  scale_param {
    bias_term: true
  }
}
layer {
  name: "ReLU:AV"
  type: "ReLU"
  bottom: "InceptionResnetV2_InceptionResnetV2_Conv2d_4a_3x3_scale"
  top: "InceptionResnetV2_InceptionResnetV2_Conv2d_4a_3x3_r"
}
layer {
  name: "Pooling:AW"
  type: "Pooling"
  bottom: "InceptionResnetV2_InceptionResnetV2_Conv2d_4a_3x3_r"
  top: "InceptionResnetV2_InceptionResnetV2_MaxPool_5a_3x3_MaxPool"
  pooling_param {
    pool: MAX
    kernel_h: 3
    kernel_w: 3
    stride_h: 2
    stride_w: 2
    pad_h: 0
    pad_w: 0
  }
}
layer {
  name: "Convolution:AX"
  type: "Convolution"
  bottom: "InceptionResnetV2_InceptionResnetV2_MaxPool_5a_3x3_MaxPool"
  top: "InceptionResnetV2_InceptionResnetV2_Mixed_5b_Branch_0_Conv2d_1x1"
  convolution_param {
    num_output: 96
    bias_term: false
    group: 1
    pad_h: 0
    pad_w: 0
    kernel_h: 1
    kernel_w: 1
    stride_h: 1
    stride_w: 1
  }
}
layer {
  name: "BatchNorm:AY"
  type: "BatchNorm"
  bottom: "InceptionResnetV2_InceptionResnetV2_Mixed_5b_Branch_0_Conv2d_1x1"
  top: "InceptionResnetV2_InceptionResnetV2_Mixed_5b_Branch_0_Conv2d_1x1_bn"
  batch_norm_param {
    use_global_stats: true
    eps: 0.0010000000475
  }
}
layer {
  name: "Scale:AZ"
  type: "Scale"
  bottom: "InceptionResnetV2_InceptionResnetV2_Mixed_5b_Branch_0_Conv2d_1x1_bn"
  top: "InceptionResnetV2_InceptionResnetV2_Mixed_5b_Branch_0_Conv2d_1x1_scale"
  scale_param {
    bias_term: true
  }
}
layer {
  name: "ReLU:A0"
  type: "ReLU"
  bottom: "InceptionResnetV2_InceptionResnetV2_Mixed_5b_Branch_0_Conv2d_1x1_scale"
  top: "InceptionResnetV2_InceptionResnetV2_Mixed_5b_Branch_0_Conv2d_1x1_r"
}
layer {
  name: "Convolution:A1"
  type: "Convolution"
  bottom: "InceptionResnetV2_InceptionResnetV2_MaxPool_5a_3x3_MaxPool"
  top: "InceptionResnetV2_InceptionResnetV2_Mixed_5b_Branch_1_Conv2d_0a_1x1"
  convolution_param {
    num_output: 48
    bias_term: false
    group: 1
    pad_h: 0
    pad_w: 0
    kernel_h: 1
    kernel_w: 1
    stride_h: 1
    stride_w: 1
  }
}
layer {
  name: "BatchNorm:A2"
  type: "BatchNorm"
  bottom: "InceptionResnetV2_InceptionResnetV2_Mixed_5b_Branch_1_Conv2d_0a_1x1"
  top: "InceptionResnetV2_InceptionResnetV2_Mixed_5b_Branch_1_Conv2d_0a_1x1_bn"
  batch_norm_param {
    use_global_stats: true
    eps: 0.0010000000475
  }
}
layer {
  name: "Scale:A3"
  type: "Scale"
  bottom: "InceptionResnetV2_InceptionResnetV2_Mixed_5b_Branch_1_Conv2d_0a_1x1_bn"
  top: "InceptionResnetV2_InceptionResnetV2_Mixed_5b_Branch_1_Conv2d_0a_1x1_scale"
  scale_param {
    bias_term: true
  }
}
layer {
  name: "ReLU:A4"
  type: "ReLU"
  bottom: "InceptionResnetV2_InceptionResnetV2_Mixed_5b_Branch_1_Conv2d_0a_1x1_scale"
  top: "InceptionResnetV2_InceptionResnetV2_Mixed_5b_Branch_1_Conv2d_0a_1x1_r"
}
layer {
  name: "Convolution:A5"
  type: "Convolution"
  bottom: "InceptionResnetV2_InceptionResnetV2_Mixed_5b_Branch_1_Conv2d_0a_1x1_r"
  top: "InceptionResnetV2_InceptionResnetV2_Mixed_5b_Branch_1_Conv2d_0b_5x5"
  convolution_param {
    num_output: 64
    bias_term: false
    group: 1
    pad_h: 2
    pad_w: 2
    kernel_h: 5
    kernel_w: 5
    stride_h: 1
    stride_w: 1
  }
}
layer {
  name: "BatchNorm:A6"
  type: "BatchNorm"
  bottom: "InceptionResnetV2_InceptionResnetV2_Mixed_5b_Branch_1_Conv2d_0b_5x5"
  top: "InceptionResnetV2_InceptionResnetV2_Mixed_5b_Branch_1_Conv2d_0b_5x5_bn"
  batch_norm_param {
    use_global_stats: true
    eps: 0.0010000000475
  }
}
layer {
  name: "Scale:A7"
  type: "Scale"
  bottom: "InceptionResnetV2_InceptionResnetV2_Mixed_5b_Branch_1_Conv2d_0b_5x5_bn"
  top: "InceptionResnetV2_InceptionResnetV2_Mixed_5b_Branch_1_Conv2d_0b_5x5_scale"
  scale_param {
    bias_term: true
  }
}
layer {
  name: "ReLU:A8"
  type: "ReLU"
  bottom: "InceptionResnetV2_InceptionResnetV2_Mixed_5b_Branch_1_Conv2d_0b_5x5_scale"
  top: "InceptionResnetV2_InceptionResnetV2_Mixed_5b_Branch_1_Conv2d_0b_5x5_r"
}
layer {
  name: "Convolution:A9"
  type: "Convolution"
  bottom: "InceptionResnetV2_InceptionResnetV2_MaxPool_5a_3x3_MaxPool"
  top: "InceptionResnetV2_InceptionResnetV2_Mixed_5b_Branch_2_Conv2d_0a_1x1"
  convolution_param {
    num_output: 64
    bias_term: false
    group: 1
    pad_h: 0
    pad_w: 0
    kernel_h: 1
    kernel_w: 1
    stride_h: 1
    stride_w: 1
  }
}
layer {
  name: "BatchNorm:BA"
  type: "BatchNorm"
  bottom: "InceptionResnetV2_InceptionResnetV2_Mixed_5b_Branch_2_Conv2d_0a_1x1"
  top: "InceptionResnetV2_InceptionResnetV2_Mixed_5b_Branch_2_Conv2d_0a_1x1_bn"
  batch_norm_param {
    use_global_stats: true
    eps: 0.0010000000475
  }
}
layer {
  name: "Scale:BB"
  type: "Scale"
  bottom: "InceptionResnetV2_InceptionResnetV2_Mixed_5b_Branch_2_Conv2d_0a_1x1_bn"
  top: "InceptionResnetV2_InceptionResnetV2_Mixed_5b_Branch_2_Conv2d_0a_1x1_scale"
  scale_param {
    bias_term: true
  }
}
layer {
  name: "ReLU:BC"
  type: "ReLU"
  bottom: "InceptionResnetV2_InceptionResnetV2_Mixed_5b_Branch_2_Conv2d_0a_1x1_scale"
  top: "InceptionResnetV2_InceptionResnetV2_Mixed_5b_Branch_2_Conv2d_0a_1x1_r"
}
layer {
  name: "Convolution:BD"
  type: "Convolution"
  bottom: "InceptionResnetV2_InceptionResnetV2_Mixed_5b_Branch_2_Conv2d_0a_1x1_r"
  top: "InceptionResnetV2_InceptionResnetV2_Mixed_5b_Branch_2_Conv2d_0b_3x3"
  convolution_param {
    num_output: 96
    bias_term: false
    group: 1
    pad_h: 1
    pad_w: 1
    kernel_h: 3
    kernel_w: 3
    stride_h: 1
    stride_w: 1
  }
}
layer {
  name: "BatchNorm:BE"
  type: "BatchNorm"
  bottom: "InceptionResnetV2_InceptionResnetV2_Mixed_5b_Branch_2_Conv2d_0b_3x3"
  top: "InceptionResnetV2_InceptionResnetV2_Mixed_5b_Branch_2_Conv2d_0b_3x3_bn"
  batch_norm_param {
    use_global_stats: true
    eps: 0.0010000000475
  }
}
layer {
  name: "Scale:BF"
  type: "Scale"
  bottom: "InceptionResnetV2_InceptionResnetV2_Mixed_5b_Branch_2_Conv2d_0b_3x3_bn"
  top: "InceptionResnetV2_InceptionResnetV2_Mixed_5b_Branch_2_Conv2d_0b_3x3_scale"
  scale_param {
    bias_term: true
  }
}
layer {
  name: "ReLU:BG"
  type: "ReLU"
  bottom: "InceptionResnetV2_InceptionResnetV2_Mixed_5b_Branch_2_Conv2d_0b_3x3_scale"
  top: "InceptionResnetV2_InceptionResnetV2_Mixed_5b_Branch_2_Conv2d_0b_3x3_r"
}
layer {
  name: "Convolution:BH"
  type: "Convolution"
  bottom: "InceptionResnetV2_InceptionResnetV2_Mixed_5b_Branch_2_Conv2d_0b_3x3_r"
  top: "InceptionResnetV2_InceptionResnetV2_Mixed_5b_Branch_2_Conv2d_0c_3x3"
  convolution_param {
    num_output: 96
    bias_term: false
    group: 1
    pad_h: 1
    pad_w: 1
    kernel_h: 3
    kernel_w: 3
    stride_h: 1
    stride_w: 1
  }
}
layer {
  name: "BatchNorm:BI"
  type: "BatchNorm"
  bottom: "InceptionResnetV2_InceptionResnetV2_Mixed_5b_Branch_2_Conv2d_0c_3x3"
  top: "InceptionResnetV2_InceptionResnetV2_Mixed_5b_Branch_2_Conv2d_0c_3x3_bn"
  batch_norm_param {
    use_global_stats: true
    eps: 0.0010000000475
  }
}
layer {
  name: "Scale:BJ"
  type: "Scale"
  bottom: "InceptionResnetV2_InceptionResnetV2_Mixed_5b_Branch_2_Conv2d_0c_3x3_bn"
  top: "InceptionResnetV2_InceptionResnetV2_Mixed_5b_Branch_2_Conv2d_0c_3x3_scale"
  scale_param {
    bias_term: true
  }
}
layer {
  name: "ReLU:BK"
  type: "ReLU"
  bottom: "InceptionResnetV2_InceptionResnetV2_Mixed_5b_Branch_2_Conv2d_0c_3x3_scale"
  top: "InceptionResnetV2_InceptionResnetV2_Mixed_5b_Branch_2_Conv2d_0c_3x3_r"
}
layer {
  name: "Pooling:BL"
  type: "Pooling"
  bottom: "InceptionResnetV2_InceptionResnetV2_MaxPool_5a_3x3_MaxPool"
  top: "InceptionResnetV2_InceptionResnetV2_Mixed_5b_Branch_3_AvgPool_0a_3x3_AvgPool"
  pooling_param {
    pool: AVE_TF
    kernel_h: 3
    kernel_w: 3
    stride_h: 1
    stride_w: 1
    pad_h: 1
    pad_w: 1
  }
}
layer {
  name: "Convolution:BM"
  type: "Convolution"
  bottom: "InceptionResnetV2_InceptionResnetV2_Mixed_5b_Branch_3_AvgPool_0a_3x3_AvgPool"
  top: "InceptionResnetV2_InceptionResnetV2_Mixed_5b_Branch_3_Conv2d_0b_1x1"
  convolution_param {
    num_output: 64
    bias_term: false
    group: 1
    pad_h: 0
    pad_w: 0
    kernel_h: 1
    kernel_w: 1
    stride_h: 1
    stride_w: 1
  }
}
layer {
  name: "BatchNorm:BN"
  type: "BatchNorm"
  bottom: "InceptionResnetV2_InceptionResnetV2_Mixed_5b_Branch_3_Conv2d_0b_1x1"
  top: "InceptionResnetV2_InceptionResnetV2_Mixed_5b_Branch_3_Conv2d_0b_1x1_bn"
  batch_norm_param {
    use_global_stats: true
    eps: 0.0010000000475
  }
}
layer {
  name: "Scale:BO"
  type: "Scale"
  bottom: "InceptionResnetV2_InceptionResnetV2_Mixed_5b_Branch_3_Conv2d_0b_1x1_bn"
  top: "InceptionResnetV2_InceptionResnetV2_Mixed_5b_Branch_3_Conv2d_0b_1x1_scale"
  scale_param {
    bias_term: true
  }
}
layer {
  name: "ReLU:BP"
  type: "ReLU"
  bottom: "InceptionResnetV2_InceptionResnetV2_Mixed_5b_Branch_3_Conv2d_0b_1x1_scale"
  top: "InceptionResnetV2_InceptionResnetV2_Mixed_5b_Branch_3_Conv2d_0b_1x1_r"
}
layer {
  name: "Concat:BQ"
  type: "Concat"
  bottom: "InceptionResnetV2_InceptionResnetV2_Mixed_5b_Branch_0_Conv2d_1x1_r"
  bottom: "InceptionResnetV2_InceptionResnetV2_Mixed_5b_Branch_1_Conv2d_0b_5x5_r"
  bottom: "InceptionResnetV2_InceptionResnetV2_Mixed_5b_Branch_2_Conv2d_0c_3x3_r"
  bottom: "InceptionResnetV2_InceptionResnetV2_Mixed_5b_Branch_3_Conv2d_0b_1x1_r"
  top: "InceptionResnetV2_InceptionResnetV2_Mixed_5b_concat"
  concat_param {
    axis: 1
  }
}
layer {
  name: "Convolution:BR"
  type: "Convolution"
  bottom: "InceptionResnetV2_InceptionResnetV2_Mixed_5b_concat"
  top: "InceptionResnetV2_InceptionResnetV2_Repeat_block35_1_Branch_0_Conv2d_1x1"
  convolution_param {
    num_output: 32
    bias_term: false
    group: 1
    pad_h: 0
    pad_w: 0
    kernel_h: 1
    kernel_w: 1
    stride_h: 1
    stride_w: 1
  }
}
layer {
  name: "BatchNorm:BS"
  type: "BatchNorm"
  bottom: "InceptionResnetV2_InceptionResnetV2_Repeat_block35_1_Branch_0_Conv2d_1x1"
  top: "InceptionResnetV2_InceptionResnetV2_Repeat_block35_1_Branch_0_Conv2d_1x1_bn"
  batch_norm_param {
    use_global_stats: true
    eps: 0.0010000000475
  }
}
layer {
  name: "Scale:BT"
  type: "Scale"
  bottom: "InceptionResnetV2_InceptionResnetV2_Repeat_block35_1_Branch_0_Conv2d_1x1_bn"
  top: "InceptionResnetV2_InceptionResnetV2_Repeat_block35_1_Branch_0_Conv2d_1x1_scale"
  scale_param {
    bias_term: true
  }
}
layer {
  name: "ReLU:BU"
  type: "ReLU"
  bottom: "InceptionResnetV2_InceptionResnetV2_Repeat_block35_1_Branch_0_Conv2d_1x1_scale"
  top: "InceptionResnetV2_InceptionResnetV2_Repeat_block35_1_Branch_0_Conv2d_1x1_r"
}
layer {
  name: "Convolution:BV"
  type: "Convolution"
  bottom: "InceptionResnetV2_InceptionResnetV2_Mixed_5b_concat"
  top: "InceptionResnetV2_InceptionResnetV2_Repeat_block35_1_Branch_1_Conv2d_0a_1x1"
  convolution_param {
    num_output: 32
    bias_term: false
    group: 1
    pad_h: 0
    pad_w: 0
    kernel_h: 1
    kernel_w: 1
    stride_h: 1
    stride_w: 1
  }
}
layer {
  name: "BatchNorm:BW"
  type: "BatchNorm"
  bottom: "InceptionResnetV2_InceptionResnetV2_Repeat_block35_1_Branch_1_Conv2d_0a_1x1"
  top: "InceptionResnetV2_InceptionResnetV2_Repeat_block35_1_Branch_1_Conv2d_0a_1x1_bn"
  batch_norm_param {
    use_global_stats: true
    eps: 0.0010000000475
  }
}
layer {
  name: "Scale:BX"
  type: "Scale"
  bottom: "InceptionResnetV2_InceptionResnetV2_Repeat_block35_1_Branch_1_Conv2d_0a_1x1_bn"
  top: "InceptionResnetV2_InceptionResnetV2_Repeat_block35_1_Branch_1_Conv2d_0a_1x1_scale"
  scale_param {
    bias_term: true
  }
}
layer {
  name: "ReLU:BY"
  type: "ReLU"
  bottom: "InceptionResnetV2_InceptionResnetV2_Repeat_block35_1_Branch_1_Conv2d_0a_1x1_scale"
  top: "InceptionResnetV2_InceptionResnetV2_Repeat_block35_1_Branch_1_Conv2d_0a_1x1_r"
}
layer {
  name: "Convolution:BZ"
  type: "Convolution"
  bottom: "InceptionResnetV2_InceptionResnetV2_Repeat_block35_1_Branch_1_Conv2d_0a_1x1_r"
  top: "InceptionResnetV2_InceptionResnetV2_Repeat_block35_1_Branch_1_Conv2d_0b_3x3"
  convolution_param {
    num_output: 32
    bias_term: false
    group: 1
    pad_h: 1
    pad_w: 1
    kernel_h: 3
    kernel_w: 3
    stride_h: 1
    stride_w: 1
  }
}
layer {
  name: "BatchNorm:B0"
  type: "BatchNorm"
  bottom: "InceptionResnetV2_InceptionResnetV2_Repeat_block35_1_Branch_1_Conv2d_0b_3x3"
  top: "InceptionResnetV2_InceptionResnetV2_Repeat_block35_1_Branch_1_Conv2d_0b_3x3_bn"
  batch_norm_param {
    use_global_stats: true
    eps: 0.0010000000475
  }
}
layer {
  name: "Scale:B1"
  type: "Scale"
  bottom: "InceptionResnetV2_InceptionResnetV2_Repeat_block35_1_Branch_1_Conv2d_0b_3x3_bn"
  top: "InceptionResnetV2_InceptionResnetV2_Repeat_block35_1_Branch_1_Conv2d_0b_3x3_scale"
  scale_param {
    bias_term: true
  }
}
layer {
  name: "ReLU:B2"
  type: "ReLU"
  bottom: "InceptionResnetV2_InceptionResnetV2_Repeat_block35_1_Branch_1_Conv2d_0b_3x3_scale"
  top: "InceptionResnetV2_InceptionResnetV2_Repeat_block35_1_Branch_1_Conv2d_0b_3x3_r"
}
layer {
  name: "Convolution:B3"
  type: "Convolution"
  bottom: "InceptionResnetV2_InceptionResnetV2_Mixed_5b_concat"
  top: "InceptionResnetV2_InceptionResnetV2_Repeat_block35_1_Branch_2_Conv2d_0a_1x1"
  convolution_param {
    num_output: 32
    bias_term: false
    group: 1
    pad_h: 0
    pad_w: 0
    kernel_h: 1
    kernel_w: 1
    stride_h: 1
    stride_w: 1
  }
}
layer {
  name: "BatchNorm:B4"
  type: "BatchNorm"
  bottom: "InceptionResnetV2_InceptionResnetV2_Repeat_block35_1_Branch_2_Conv2d_0a_1x1"
  top: "InceptionResnetV2_InceptionResnetV2_Repeat_block35_1_Branch_2_Conv2d_0a_1x1_bn"
  batch_norm_param {
    use_global_stats: true
    eps: 0.0010000000475
  }
}
layer {
  name: "Scale:B5"
  type: "Scale"
  bottom: "InceptionResnetV2_InceptionResnetV2_Repeat_block35_1_Branch_2_Conv2d_0a_1x1_bn"
  top: "InceptionResnetV2_InceptionResnetV2_Repeat_block35_1_Branch_2_Conv2d_0a_1x1_scale"
  scale_param {
    bias_term: true
  }
}
layer {
  name: "ReLU:B6"
  type: "ReLU"
  bottom: "InceptionResnetV2_InceptionResnetV2_Repeat_block35_1_Branch_2_Conv2d_0a_1x1_scale"
  top: "InceptionResnetV2_InceptionResnetV2_Repeat_block35_1_Branch_2_Conv2d_0a_1x1_r"
}
layer {
  name: "Convolution:B7"
  type: "Convolution"
  bottom: "InceptionResnetV2_InceptionResnetV2_Repeat_block35_1_Branch_2_Conv2d_0a_1x1_r"
  top: "InceptionResnetV2_InceptionResnetV2_Repeat_block35_1_Branch_2_Conv2d_0b_3x3"
  convolution_param {
    num_output: 48
    bias_term: false
    group: 1
    pad_h: 1
    pad_w: 1
    kernel_h: 3
    kernel_w: 3
    stride_h: 1
    stride_w: 1
  }
}
layer {
  name: "BatchNorm:B8"
  type: "BatchNorm"
  bottom: "InceptionResnetV2_InceptionResnetV2_Repeat_block35_1_Branch_2_Conv2d_0b_3x3"
  top: "InceptionResnetV2_InceptionResnetV2_Repeat_block35_1_Branch_2_Conv2d_0b_3x3_bn"
  batch_norm_param {
    use_global_stats: true
    eps: 0.0010000000475
  }
}
layer {
  name: "Scale:B9"
  type: "Scale"
  bottom: "InceptionResnetV2_InceptionResnetV2_Repeat_block35_1_Branch_2_Conv2d_0b_3x3_bn"
  top: "InceptionResnetV2_InceptionResnetV2_Repeat_block35_1_Branch_2_Conv2d_0b_3x3_scale"
  scale_param {
    bias_term: true
  }
}
layer {
  name: "ReLU:CA"
  type: "ReLU"
  bottom: "InceptionResnetV2_InceptionResnetV2_Repeat_block35_1_Branch_2_Conv2d_0b_3x3_scale"
  top: "InceptionResnetV2_InceptionResnetV2_Repeat_block35_1_Branch_2_Conv2d_0b_3x3_r"
}
layer {
  name: "Convolution:CB"
  type: "Convolution"
  bottom: "InceptionResnetV2_InceptionResnetV2_Repeat_block35_1_Branch_2_Conv2d_0b_3x3_r"
  top: "InceptionResnetV2_InceptionResnetV2_Repeat_block35_1_Branch_2_Conv2d_0c_3x3"
  convolution_param {
    num_output: 64
    bias_term: false
    group: 1
    pad_h: 1
    pad_w: 1
    kernel_h: 3
    kernel_w: 3
    stride_h: 1
    stride_w: 1
  }
}
layer {
  name: "BatchNorm:CC"
  type: "BatchNorm"
  bottom: "InceptionResnetV2_InceptionResnetV2_Repeat_block35_1_Branch_2_Conv2d_0c_3x3"
  top: "InceptionResnetV2_InceptionResnetV2_Repeat_block35_1_Branch_2_Conv2d_0c_3x3_bn"
  batch_norm_param {
    use_global_stats: true
    eps: 0.0010000000475
  }
}
layer {
  name: "Scale:CD"
  type: "Scale"
  bottom: "InceptionResnetV2_InceptionResnetV2_Repeat_block35_1_Branch_2_Conv2d_0c_3x3_bn"
  top: "InceptionResnetV2_InceptionResnetV2_Repeat_block35_1_Branch_2_Conv2d_0c_3x3_scale"
  scale_param {
    bias_term: true
  }
}
layer {
  name: "ReLU:CE"
  type: "ReLU"
  bottom: "InceptionResnetV2_InceptionResnetV2_Repeat_block35_1_Branch_2_Conv2d_0c_3x3_scale"
  top: "InceptionResnetV2_InceptionResnetV2_Repeat_block35_1_Branch_2_Conv2d_0c_3x3_r"
}
layer {
  name: "Concat:CF"
  type: "Concat"
  bottom: "InceptionResnetV2_InceptionResnetV2_Repeat_block35_1_Branch_0_Conv2d_1x1_r"
  bottom: "InceptionResnetV2_InceptionResnetV2_Repeat_block35_1_Branch_1_Conv2d_0b_3x3_r"
  bottom: "InceptionResnetV2_InceptionResnetV2_Repeat_block35_1_Branch_2_Conv2d_0c_3x3_r"
  top: "InceptionResnetV2_InceptionResnetV2_Repeat_block35_1_concat"
  concat_param {
    axis: 1
  }
}
layer {
  name: "Convolution:CG"
  type: "Convolution"
  bottom: "InceptionResnetV2_InceptionResnetV2_Repeat_block35_1_concat"
  top: "InceptionResnetV2_InceptionResnetV2_Repeat_block35_1_Conv2d_1x1"
  convolution_param {
    num_output: 320
    bias_term: true
    group: 1
    pad_h: 0
    pad_w: 0
    kernel_h: 1
    kernel_w: 1
    stride_h: 1
    stride_w: 1
  }
}
layer {
  name: "Eltwise:CH"
  type: "Eltwise"
  bottom: "InceptionResnetV2_InceptionResnetV2_Mixed_5b_concat"
  bottom: "InceptionResnetV2_InceptionResnetV2_Repeat_block35_1_Conv2d_1x1"
  top: "InceptionResnetV2_InceptionResnetV2_Repeat_block35_1"
  eltwise_param {
    operation: SUM
    coeff: 1.0
    coeff: 0.170000001788
  }
}
layer {
  name: "ReLU:CI"
  type: "ReLU"
  bottom: "InceptionResnetV2_InceptionResnetV2_Repeat_block35_1"
  top: "InceptionResnetV2_InceptionResnetV2_Repeat_block35_1_r"
}
layer {
  name: "Convolution:CJ"
  type: "Convolution"
  bottom: "InceptionResnetV2_InceptionResnetV2_Repeat_block35_1_r"
  top: "InceptionResnetV2_InceptionResnetV2_Repeat_block35_2_Branch_0_Conv2d_1x1"
  convolution_param {
    num_output: 32
    bias_term: false
    group: 1
    pad_h: 0
    pad_w: 0
    kernel_h: 1
    kernel_w: 1
    stride_h: 1
    stride_w: 1
  }
}
layer {
  name: "BatchNorm:CK"
  type: "BatchNorm"
  bottom: "InceptionResnetV2_InceptionResnetV2_Repeat_block35_2_Branch_0_Conv2d_1x1"
  top: "InceptionResnetV2_InceptionResnetV2_Repeat_block35_2_Branch_0_Conv2d_1x1_bn"
  batch_norm_param {
    use_global_stats: true
    eps: 0.0010000000475
  }
}
layer {
  name: "Scale:CL"
  type: "Scale"
  bottom: "InceptionResnetV2_InceptionResnetV2_Repeat_block35_2_Branch_0_Conv2d_1x1_bn"
  top: "InceptionResnetV2_InceptionResnetV2_Repeat_block35_2_Branch_0_Conv2d_1x1_scale"
  scale_param {
    bias_term: true
  }
}
layer {
  name: "ReLU:CM"
  type: "ReLU"
  bottom: "InceptionResnetV2_InceptionResnetV2_Repeat_block35_2_Branch_0_Conv2d_1x1_scale"
  top: "InceptionResnetV2_InceptionResnetV2_Repeat_block35_2_Branch_0_Conv2d_1x1_r"
}
layer {
  name: "Convolution:CN"
  type: "Convolution"
  bottom: "InceptionResnetV2_InceptionResnetV2_Repeat_block35_1_r"
  top: "InceptionResnetV2_InceptionResnetV2_Repeat_block35_2_Branch_1_Conv2d_0a_1x1"
  convolution_param {
    num_output: 32
    bias_term: false
    group: 1
    pad_h: 0
    pad_w: 0
    kernel_h: 1
    kernel_w: 1
    stride_h: 1
    stride_w: 1
  }
}
layer {
  name: "BatchNorm:CO"
  type: "BatchNorm"
  bottom: "InceptionResnetV2_InceptionResnetV2_Repeat_block35_2_Branch_1_Conv2d_0a_1x1"
  top: "InceptionResnetV2_InceptionResnetV2_Repeat_block35_2_Branch_1_Conv2d_0a_1x1_bn"
  batch_norm_param {
    use_global_stats: true
    eps: 0.0010000000475
  }
}
layer {
  name: "Scale:CP"
  type: "Scale"
  bottom: "InceptionResnetV2_InceptionResnetV2_Repeat_block35_2_Branch_1_Conv2d_0a_1x1_bn"
  top: "InceptionResnetV2_InceptionResnetV2_Repeat_block35_2_Branch_1_Conv2d_0a_1x1_scale"
  scale_param {
    bias_term: true
  }
}
layer {
  name: "ReLU:CQ"
  type: "ReLU"
  bottom: "InceptionResnetV2_InceptionResnetV2_Repeat_block35_2_Branch_1_Conv2d_0a_1x1_scale"
  top: "InceptionResnetV2_InceptionResnetV2_Repeat_block35_2_Branch_1_Conv2d_0a_1x1_r"
}
layer {
  name: "Convolution:CR"
  type: "Convolution"
  bottom: "InceptionResnetV2_InceptionResnetV2_Repeat_block35_2_Branch_1_Conv2d_0a_1x1_r"
  top: "InceptionResnetV2_InceptionResnetV2_Repeat_block35_2_Branch_1_Conv2d_0b_3x3"
  convolution_param {
    num_output: 32
    bias_term: false
    group: 1
    pad_h: 1
    pad_w: 1
    kernel_h: 3
    kernel_w: 3
    stride_h: 1
    stride_w: 1
  }
}
layer {
  name: "BatchNorm:CS"
  type: "BatchNorm"
  bottom: "InceptionResnetV2_InceptionResnetV2_Repeat_block35_2_Branch_1_Conv2d_0b_3x3"
  top: "InceptionResnetV2_InceptionResnetV2_Repeat_block35_2_Branch_1_Conv2d_0b_3x3_bn"
  batch_norm_param {
    use_global_stats: true
    eps: 0.0010000000475
  }
}
layer {
  name: "Scale:CT"
  type: "Scale"
  bottom: "InceptionResnetV2_InceptionResnetV2_Repeat_block35_2_Branch_1_Conv2d_0b_3x3_bn"
  top: "InceptionResnetV2_InceptionResnetV2_Repeat_block35_2_Branch_1_Conv2d_0b_3x3_scale"
  scale_param {
    bias_term: true
  }
}
layer {
  name: "ReLU:CU"
  type: "ReLU"
  bottom: "InceptionResnetV2_InceptionResnetV2_Repeat_block35_2_Branch_1_Conv2d_0b_3x3_scale"
  top: "InceptionResnetV2_InceptionResnetV2_Repeat_block35_2_Branch_1_Conv2d_0b_3x3_r"
}
layer {
  name: "Convolution:CV"
  type: "Convolution"
  bottom: "InceptionResnetV2_InceptionResnetV2_Repeat_block35_1_r"
  top: "InceptionResnetV2_InceptionResnetV2_Repeat_block35_2_Branch_2_Conv2d_0a_1x1"
  convolution_param {
    num_output: 32
    bias_term: false
    group: 1
    pad_h: 0
    pad_w: 0
    kernel_h: 1
    kernel_w: 1
    stride_h: 1
    stride_w: 1
  }
}
layer {
  name: "BatchNorm:CW"
  type: "BatchNorm"
  bottom: "InceptionResnetV2_InceptionResnetV2_Repeat_block35_2_Branch_2_Conv2d_0a_1x1"
  top: "InceptionResnetV2_InceptionResnetV2_Repeat_block35_2_Branch_2_Conv2d_0a_1x1_bn"
  batch_norm_param {
    use_global_stats: true
    eps: 0.0010000000475
  }
}
layer {
  name: "Scale:CX"
  type: "Scale"
  bottom: "InceptionResnetV2_InceptionResnetV2_Repeat_block35_2_Branch_2_Conv2d_0a_1x1_bn"
  top: "InceptionResnetV2_InceptionResnetV2_Repeat_block35_2_Branch_2_Conv2d_0a_1x1_scale"
  scale_param {
    bias_term: true
  }
}
layer {
  name: "ReLU:CY"
  type: "ReLU"
  bottom: "InceptionResnetV2_InceptionResnetV2_Repeat_block35_2_Branch_2_Conv2d_0a_1x1_scale"
  top: "InceptionResnetV2_InceptionResnetV2_Repeat_block35_2_Branch_2_Conv2d_0a_1x1_r"
}
layer {
  name: "Convolution:CZ"
  type: "Convolution"
  bottom: "InceptionResnetV2_InceptionResnetV2_Repeat_block35_2_Branch_2_Conv2d_0a_1x1_r"
  top: "InceptionResnetV2_InceptionResnetV2_Repeat_block35_2_Branch_2_Conv2d_0b_3x3"
  convolution_param {
    num_output: 48
    bias_term: false
    group: 1
    pad_h: 1
    pad_w: 1
    kernel_h: 3
    kernel_w: 3
    stride_h: 1
    stride_w: 1
  }
}
layer {
  name: "BatchNorm:C0"
  type: "BatchNorm"
  bottom: "InceptionResnetV2_InceptionResnetV2_Repeat_block35_2_Branch_2_Conv2d_0b_3x3"
  top: "InceptionResnetV2_InceptionResnetV2_Repeat_block35_2_Branch_2_Conv2d_0b_3x3_bn"
  batch_norm_param {
    use_global_stats: true
    eps: 0.0010000000475
  }
}
layer {
  name: "Scale:C1"
  type: "Scale"
  bottom: "InceptionResnetV2_InceptionResnetV2_Repeat_block35_2_Branch_2_Conv2d_0b_3x3_bn"
  top: "InceptionResnetV2_InceptionResnetV2_Repeat_block35_2_Branch_2_Conv2d_0b_3x3_scale"
  scale_param {
    bias_term: true
  }
}
layer {
  name: "ReLU:C2"
  type: "ReLU"
  bottom: "InceptionResnetV2_InceptionResnetV2_Repeat_block35_2_Branch_2_Conv2d_0b_3x3_scale"
  top: "InceptionResnetV2_InceptionResnetV2_Repeat_block35_2_Branch_2_Conv2d_0b_3x3_r"
}
layer {
  name: "Convolution:C3"
  type: "Convolution"
  bottom: "InceptionResnetV2_InceptionResnetV2_Repeat_block35_2_Branch_2_Conv2d_0b_3x3_r"
  top: "InceptionResnetV2_InceptionResnetV2_Repeat_block35_2_Branch_2_Conv2d_0c_3x3"
  convolution_param {
    num_output: 64
    bias_term: false
    group: 1
    pad_h: 1
    pad_w: 1
    kernel_h: 3
    kernel_w: 3
    stride_h: 1
    stride_w: 1
  }
}
layer {
  name: "BatchNorm:C4"
  type: "BatchNorm"
  bottom: "InceptionResnetV2_InceptionResnetV2_Repeat_block35_2_Branch_2_Conv2d_0c_3x3"
  top: "InceptionResnetV2_InceptionResnetV2_Repeat_block35_2_Branch_2_Conv2d_0c_3x3_bn"
  batch_norm_param {
    use_global_stats: true
    eps: 0.0010000000475
  }
}
layer {
  name: "Scale:C5"
  type: "Scale"
  bottom: "InceptionResnetV2_InceptionResnetV2_Repeat_block35_2_Branch_2_Conv2d_0c_3x3_bn"
  top: "InceptionResnetV2_InceptionResnetV2_Repeat_block35_2_Branch_2_Conv2d_0c_3x3_scale"
  scale_param {
    bias_term: true
  }
}
layer {
  name: "ReLU:C6"
  type: "ReLU"
  bottom: "InceptionResnetV2_InceptionResnetV2_Repeat_block35_2_Branch_2_Conv2d_0c_3x3_scale"
  top: "InceptionResnetV2_InceptionResnetV2_Repeat_block35_2_Branch_2_Conv2d_0c_3x3_r"
}
layer {
  name: "Concat:C7"
  type: "Concat"
  bottom: "InceptionResnetV2_InceptionResnetV2_Repeat_block35_2_Branch_0_Conv2d_1x1_r"
  bottom: "InceptionResnetV2_InceptionResnetV2_Repeat_block35_2_Branch_1_Conv2d_0b_3x3_r"
  bottom: "InceptionResnetV2_InceptionResnetV2_Repeat_block35_2_Branch_2_Conv2d_0c_3x3_r"
  top: "InceptionResnetV2_InceptionResnetV2_Repeat_block35_2_concat"
  concat_param {
    axis: 1
  }
}
layer {
  name: "Convolution:C8"
  type: "Convolution"
  bottom: "InceptionResnetV2_InceptionResnetV2_Repeat_block35_2_concat"
  top: "InceptionResnetV2_InceptionResnetV2_Repeat_block35_2_Conv2d_1x1"
  convolution_param {
    num_output: 320
    bias_term: true
    group: 1
    pad_h: 0
    pad_w: 0
    kernel_h: 1
    kernel_w: 1
    stride_h: 1
    stride_w: 1
  }
}
layer {
  name: "Eltwise:C9"
  type: "Eltwise"
  bottom: "InceptionResnetV2_InceptionResnetV2_Repeat_block35_1_r"
  bottom: "InceptionResnetV2_InceptionResnetV2_Repeat_block35_2_Conv2d_1x1"
  top: "InceptionResnetV2_InceptionResnetV2_Repeat_block35_2"
  eltwise_param {
    operation: SUM
    coeff: 1.0
    coeff: 0.170000001788
  }
}
layer {
  name: "ReLU:DA"
  type: "ReLU"
  bottom: "InceptionResnetV2_InceptionResnetV2_Repeat_block35_2"
  top: "InceptionResnetV2_InceptionResnetV2_Repeat_block35_2_r"
}
layer {
  name: "Convolution:DB"
  type: "Convolution"
  bottom: "InceptionResnetV2_InceptionResnetV2_Repeat_block35_2_r"
  top: "InceptionResnetV2_InceptionResnetV2_Repeat_block35_3_Branch_0_Conv2d_1x1"
  convolution_param {
    num_output: 32
    bias_term: false
    group: 1
    pad_h: 0
    pad_w: 0
    kernel_h: 1
    kernel_w: 1
    stride_h: 1
    stride_w: 1
  }
}
layer {
  name: "BatchNorm:DC"
  type: "BatchNorm"
  bottom: "InceptionResnetV2_InceptionResnetV2_Repeat_block35_3_Branch_0_Conv2d_1x1"
  top: "InceptionResnetV2_InceptionResnetV2_Repeat_block35_3_Branch_0_Conv2d_1x1_bn"
  batch_norm_param {
    use_global_stats: true
    eps: 0.0010000000475
  }
}
layer {
  name: "Scale:DD"
  type: "Scale"
  bottom: "InceptionResnetV2_InceptionResnetV2_Repeat_block35_3_Branch_0_Conv2d_1x1_bn"
  top: "InceptionResnetV2_InceptionResnetV2_Repeat_block35_3_Branch_0_Conv2d_1x1_scale"
  scale_param {
    bias_term: true
  }
}
layer {
  name: "ReLU:DE"
  type: "ReLU"
  bottom: "InceptionResnetV2_InceptionResnetV2_Repeat_block35_3_Branch_0_Conv2d_1x1_scale"
  top: "InceptionResnetV2_InceptionResnetV2_Repeat_block35_3_Branch_0_Conv2d_1x1_r"
}
layer {
  name: "Convolution:DF"
  type: "Convolution"
  bottom: "InceptionResnetV2_InceptionResnetV2_Repeat_block35_2_r"
  top: "InceptionResnetV2_InceptionResnetV2_Repeat_block35_3_Branch_1_Conv2d_0a_1x1"
  convolution_param {
    num_output: 32
    bias_term: false
    group: 1
    pad_h: 0
    pad_w: 0
    kernel_h: 1
    kernel_w: 1
    stride_h: 1
    stride_w: 1
  }
}
layer {
  name: "BatchNorm:DG"
  type: "BatchNorm"
  bottom: "InceptionResnetV2_InceptionResnetV2_Repeat_block35_3_Branch_1_Conv2d_0a_1x1"
  top: "InceptionResnetV2_InceptionResnetV2_Repeat_block35_3_Branch_1_Conv2d_0a_1x1_bn"
  batch_norm_param {
    use_global_stats: true
    eps: 0.0010000000475
  }
}
layer {
  name: "Scale:DH"
  type: "Scale"
  bottom: "InceptionResnetV2_InceptionResnetV2_Repeat_block35_3_Branch_1_Conv2d_0a_1x1_bn"
  top: "InceptionResnetV2_InceptionResnetV2_Repeat_block35_3_Branch_1_Conv2d_0a_1x1_scale"
  scale_param {
    bias_term: true
  }
}
layer {
  name: "ReLU:DI"
  type: "ReLU"
  bottom: "InceptionResnetV2_InceptionResnetV2_Repeat_block35_3_Branch_1_Conv2d_0a_1x1_scale"
  top: "InceptionResnetV2_InceptionResnetV2_Repeat_block35_3_Branch_1_Conv2d_0a_1x1_r"
}
layer {
  name: "Convolution:DJ"
  type: "Convolution"
  bottom: "InceptionResnetV2_InceptionResnetV2_Repeat_block35_3_Branch_1_Conv2d_0a_1x1_r"
  top: "InceptionResnetV2_InceptionResnetV2_Repeat_block35_3_Branch_1_Conv2d_0b_3x3"
  convolution_param {
    num_output: 32
    bias_term: false
    group: 1
    pad_h: 1
    pad_w: 1
    kernel_h: 3
    kernel_w: 3
    stride_h: 1
    stride_w: 1
  }
}
layer {
  name: "BatchNorm:DK"
  type: "BatchNorm"
  bottom: "InceptionResnetV2_InceptionResnetV2_Repeat_block35_3_Branch_1_Conv2d_0b_3x3"
  top: "InceptionResnetV2_InceptionResnetV2_Repeat_block35_3_Branch_1_Conv2d_0b_3x3_bn"
  batch_norm_param {
    use_global_stats: true
    eps: 0.0010000000475
  }
}
layer {
  name: "Scale:DL"
  type: "Scale"
  bottom: "InceptionResnetV2_InceptionResnetV2_Repeat_block35_3_Branch_1_Conv2d_0b_3x3_bn"
  top: "InceptionResnetV2_InceptionResnetV2_Repeat_block35_3_Branch_1_Conv2d_0b_3x3_scale"
  scale_param {
    bias_term: true
  }
}
layer {
  name: "ReLU:DM"
  type: "ReLU"
  bottom: "InceptionResnetV2_InceptionResnetV2_Repeat_block35_3_Branch_1_Conv2d_0b_3x3_scale"
  top: "InceptionResnetV2_InceptionResnetV2_Repeat_block35_3_Branch_1_Conv2d_0b_3x3_r"
}
layer {
  name: "Convolution:DN"
  type: "Convolution"
  bottom: "InceptionResnetV2_InceptionResnetV2_Repeat_block35_2_r"
  top: "InceptionResnetV2_InceptionResnetV2_Repeat_block35_3_Branch_2_Conv2d_0a_1x1"
  convolution_param {
    num_output: 32
    bias_term: false
    group: 1
    pad_h: 0
    pad_w: 0
    kernel_h: 1
    kernel_w: 1
    stride_h: 1
    stride_w: 1
  }
}
layer {
  name: "BatchNorm:DO"
  type: "BatchNorm"
  bottom: "InceptionResnetV2_InceptionResnetV2_Repeat_block35_3_Branch_2_Conv2d_0a_1x1"
  top: "InceptionResnetV2_InceptionResnetV2_Repeat_block35_3_Branch_2_Conv2d_0a_1x1_bn"
  batch_norm_param {
    use_global_stats: true
    eps: 0.0010000000475
  }
}
layer {
  name: "Scale:DP"
  type: "Scale"
  bottom: "InceptionResnetV2_InceptionResnetV2_Repeat_block35_3_Branch_2_Conv2d_0a_1x1_bn"
  top: "InceptionResnetV2_InceptionResnetV2_Repeat_block35_3_Branch_2_Conv2d_0a_1x1_scale"
  scale_param {
    bias_term: true
  }
}
layer {
  name: "ReLU:DQ"
  type: "ReLU"
  bottom: "InceptionResnetV2_InceptionResnetV2_Repeat_block35_3_Branch_2_Conv2d_0a_1x1_scale"
  top: "InceptionResnetV2_InceptionResnetV2_Repeat_block35_3_Branch_2_Conv2d_0a_1x1_r"
}
layer {
  name: "Convolution:DR"
  type: "Convolution"
  bottom: "InceptionResnetV2_InceptionResnetV2_Repeat_block35_3_Branch_2_Conv2d_0a_1x1_r"
  top: "InceptionResnetV2_InceptionResnetV2_Repeat_block35_3_Branch_2_Conv2d_0b_3x3"
  convolution_param {
    num_output: 48
    bias_term: false
    group: 1
    pad_h: 1
    pad_w: 1
    kernel_h: 3
    kernel_w: 3
    stride_h: 1
    stride_w: 1
  }
}
layer {
  name: "BatchNorm:DS"
  type: "BatchNorm"
  bottom: "InceptionResnetV2_InceptionResnetV2_Repeat_block35_3_Branch_2_Conv2d_0b_3x3"
  top: "InceptionResnetV2_InceptionResnetV2_Repeat_block35_3_Branch_2_Conv2d_0b_3x3_bn"
  batch_norm_param {
    use_global_stats: true
    eps: 0.0010000000475
  }
}
layer {
  name: "Scale:DT"
  type: "Scale"
  bottom: "InceptionResnetV2_InceptionResnetV2_Repeat_block35_3_Branch_2_Conv2d_0b_3x3_bn"
  top: "InceptionResnetV2_InceptionResnetV2_Repeat_block35_3_Branch_2_Conv2d_0b_3x3_scale"
  scale_param {
    bias_term: true
  }
}
layer {
  name: "ReLU:DU"
  type: "ReLU"
  bottom: "InceptionResnetV2_InceptionResnetV2_Repeat_block35_3_Branch_2_Conv2d_0b_3x3_scale"
  top: "InceptionResnetV2_InceptionResnetV2_Repeat_block35_3_Branch_2_Conv2d_0b_3x3_r"
}
layer {
  name: "Convolution:DV"
  type: "Convolution"
  bottom: "InceptionResnetV2_InceptionResnetV2_Repeat_block35_3_Branch_2_Conv2d_0b_3x3_r"
  top: "InceptionResnetV2_InceptionResnetV2_Repeat_block35_3_Branch_2_Conv2d_0c_3x3"
  convolution_param {
    num_output: 64
    bias_term: false
    group: 1
    pad_h: 1
    pad_w: 1
    kernel_h: 3
    kernel_w: 3
    stride_h: 1
    stride_w: 1
  }
}
layer {
  name: "BatchNorm:DW"
  type: "BatchNorm"
  bottom: "InceptionResnetV2_InceptionResnetV2_Repeat_block35_3_Branch_2_Conv2d_0c_3x3"
  top: "InceptionResnetV2_InceptionResnetV2_Repeat_block35_3_Branch_2_Conv2d_0c_3x3_bn"
  batch_norm_param {
    use_global_stats: true
    eps: 0.0010000000475
  }
}
layer {
  name: "Scale:DX"
  type: "Scale"
  bottom: "InceptionResnetV2_InceptionResnetV2_Repeat_block35_3_Branch_2_Conv2d_0c_3x3_bn"
  top: "InceptionResnetV2_InceptionResnetV2_Repeat_block35_3_Branch_2_Conv2d_0c_3x3_scale"
  scale_param {
    bias_term: true
  }
}
layer {
  name: "ReLU:DY"
  type: "ReLU"
  bottom: "InceptionResnetV2_InceptionResnetV2_Repeat_block35_3_Branch_2_Conv2d_0c_3x3_scale"
  top: "InceptionResnetV2_InceptionResnetV2_Repeat_block35_3_Branch_2_Conv2d_0c_3x3_r"
}
layer {
  name: "Concat:DZ"
  type: "Concat"
  bottom: "InceptionResnetV2_InceptionResnetV2_Repeat_block35_3_Branch_0_Conv2d_1x1_r"
  bottom: "InceptionResnetV2_InceptionResnetV2_Repeat_block35_3_Branch_1_Conv2d_0b_3x3_r"
  bottom: "InceptionResnetV2_InceptionResnetV2_Repeat_block35_3_Branch_2_Conv2d_0c_3x3_r"
  top: "InceptionResnetV2_InceptionResnetV2_Repeat_block35_3_concat"
  concat_param {
    axis: 1
  }
}
layer {
  name: "Convolution:D0"
  type: "Convolution"
  bottom: "InceptionResnetV2_InceptionResnetV2_Repeat_block35_3_concat"
  top: "InceptionResnetV2_InceptionResnetV2_Repeat_block35_3_Conv2d_1x1"
  convolution_param {
    num_output: 320
    bias_term: true
    group: 1
    pad_h: 0
    pad_w: 0
    kernel_h: 1
    kernel_w: 1
    stride_h: 1
    stride_w: 1
  }
}
layer {
  name: "Eltwise:D1"
  type: "Eltwise"
  bottom: "InceptionResnetV2_InceptionResnetV2_Repeat_block35_2_r"
  bottom: "InceptionResnetV2_InceptionResnetV2_Repeat_block35_3_Conv2d_1x1"
  top: "InceptionResnetV2_InceptionResnetV2_Repeat_block35_3"
  eltwise_param {
    operation: SUM
    coeff: 1.0
    coeff: 0.170000001788
  }
}
layer {
  name: "ReLU:D2"
  type: "ReLU"
  bottom: "InceptionResnetV2_InceptionResnetV2_Repeat_block35_3"
  top: "InceptionResnetV2_InceptionResnetV2_Repeat_block35_3_r"
}
layer {
  name: "Convolution:D3"
  type: "Convolution"
  bottom: "InceptionResnetV2_InceptionResnetV2_Repeat_block35_3_r"
  top: "InceptionResnetV2_InceptionResnetV2_Repeat_block35_4_Branch_0_Conv2d_1x1"
  convolution_param {
    num_output: 32
    bias_term: false
    group: 1
    pad_h: 0
    pad_w: 0
    kernel_h: 1
    kernel_w: 1
    stride_h: 1
    stride_w: 1
  }
}
layer {
  name: "BatchNorm:D4"
  type: "BatchNorm"
  bottom: "InceptionResnetV2_InceptionResnetV2_Repeat_block35_4_Branch_0_Conv2d_1x1"
  top: "InceptionResnetV2_InceptionResnetV2_Repeat_block35_4_Branch_0_Conv2d_1x1_bn"
  batch_norm_param {
    use_global_stats: true
    eps: 0.0010000000475
  }
}
layer {
  name: "Scale:D5"
  type: "Scale"
  bottom: "InceptionResnetV2_InceptionResnetV2_Repeat_block35_4_Branch_0_Conv2d_1x1_bn"
  top: "InceptionResnetV2_InceptionResnetV2_Repeat_block35_4_Branch_0_Conv2d_1x1_scale"
  scale_param {
    bias_term: true
  }
}
layer {
  name: "ReLU:D6"
  type: "ReLU"
  bottom: "InceptionResnetV2_InceptionResnetV2_Repeat_block35_4_Branch_0_Conv2d_1x1_scale"
  top: "InceptionResnetV2_InceptionResnetV2_Repeat_block35_4_Branch_0_Conv2d_1x1_r"
}
layer {
  name: "Convolution:D7"
  type: "Convolution"
  bottom: "InceptionResnetV2_InceptionResnetV2_Repeat_block35_3_r"
  top: "InceptionResnetV2_InceptionResnetV2_Repeat_block35_4_Branch_1_Conv2d_0a_1x1"
  convolution_param {
    num_output: 32
    bias_term: false
    group: 1
    pad_h: 0
    pad_w: 0
    kernel_h: 1
    kernel_w: 1
    stride_h: 1
    stride_w: 1
  }
}
layer {
  name: "BatchNorm:D8"
  type: "BatchNorm"
  bottom: "InceptionResnetV2_InceptionResnetV2_Repeat_block35_4_Branch_1_Conv2d_0a_1x1"
  top: "InceptionResnetV2_InceptionResnetV2_Repeat_block35_4_Branch_1_Conv2d_0a_1x1_bn"
  batch_norm_param {
    use_global_stats: true
    eps: 0.0010000000475
  }
}
layer {
  name: "Scale:D9"
  type: "Scale"
  bottom: "InceptionResnetV2_InceptionResnetV2_Repeat_block35_4_Branch_1_Conv2d_0a_1x1_bn"
  top: "InceptionResnetV2_InceptionResnetV2_Repeat_block35_4_Branch_1_Conv2d_0a_1x1_scale"
  scale_param {
    bias_term: true
  }
}
layer {
  name: "ReLU:EA"
  type: "ReLU"
  bottom: "InceptionResnetV2_InceptionResnetV2_Repeat_block35_4_Branch_1_Conv2d_0a_1x1_scale"
  top: "InceptionResnetV2_InceptionResnetV2_Repeat_block35_4_Branch_1_Conv2d_0a_1x1_r"
}
layer {
  name: "Convolution:EB"
  type: "Convolution"
  bottom: "InceptionResnetV2_InceptionResnetV2_Repeat_block35_4_Branch_1_Conv2d_0a_1x1_r"
  top: "InceptionResnetV2_InceptionResnetV2_Repeat_block35_4_Branch_1_Conv2d_0b_3x3"
  convolution_param {
    num_output: 32
    bias_term: false
    group: 1
    pad_h: 1
    pad_w: 1
    kernel_h: 3
    kernel_w: 3
    stride_h: 1
    stride_w: 1
  }
}
layer {
  name: "BatchNorm:EC"
  type: "BatchNorm"
  bottom: "InceptionResnetV2_InceptionResnetV2_Repeat_block35_4_Branch_1_Conv2d_0b_3x3"
  top: "InceptionResnetV2_InceptionResnetV2_Repeat_block35_4_Branch_1_Conv2d_0b_3x3_bn"
  batch_norm_param {
    use_global_stats: true
    eps: 0.0010000000475
  }
}
layer {
  name: "Scale:ED"
  type: "Scale"
  bottom: "InceptionResnetV2_InceptionResnetV2_Repeat_block35_4_Branch_1_Conv2d_0b_3x3_bn"
  top: "InceptionResnetV2_InceptionResnetV2_Repeat_block35_4_Branch_1_Conv2d_0b_3x3_scale"
  scale_param {
    bias_term: true
  }
}
layer {
  name: "ReLU:EE"
  type: "ReLU"
  bottom: "InceptionResnetV2_InceptionResnetV2_Repeat_block35_4_Branch_1_Conv2d_0b_3x3_scale"
  top: "InceptionResnetV2_InceptionResnetV2_Repeat_block35_4_Branch_1_Conv2d_0b_3x3_r"
}
layer {
  name: "Convolution:EF"
  type: "Convolution"
  bottom: "InceptionResnetV2_InceptionResnetV2_Repeat_block35_3_r"
  top: "InceptionResnetV2_InceptionResnetV2_Repeat_block35_4_Branch_2_Conv2d_0a_1x1"
  convolution_param {
    num_output: 32
    bias_term: false
    group: 1
    pad_h: 0
    pad_w: 0
    kernel_h: 1
    kernel_w: 1
    stride_h: 1
    stride_w: 1
  }
}
layer {
  name: "BatchNorm:EG"
  type: "BatchNorm"
  bottom: "InceptionResnetV2_InceptionResnetV2_Repeat_block35_4_Branch_2_Conv2d_0a_1x1"
  top: "InceptionResnetV2_InceptionResnetV2_Repeat_block35_4_Branch_2_Conv2d_0a_1x1_bn"
  batch_norm_param {
    use_global_stats: true
    eps: 0.0010000000475
  }
}
layer {
  name: "Scale:EH"
  type: "Scale"
  bottom: "InceptionResnetV2_InceptionResnetV2_Repeat_block35_4_Branch_2_Conv2d_0a_1x1_bn"
  top: "InceptionResnetV2_InceptionResnetV2_Repeat_block35_4_Branch_2_Conv2d_0a_1x1_scale"
  scale_param {
    bias_term: true
  }
}
layer {
  name: "ReLU:EI"
  type: "ReLU"
  bottom: "InceptionResnetV2_InceptionResnetV2_Repeat_block35_4_Branch_2_Conv2d_0a_1x1_scale"
  top: "InceptionResnetV2_InceptionResnetV2_Repeat_block35_4_Branch_2_Conv2d_0a_1x1_r"
}
layer {
  name: "Convolution:EJ"
  type: "Convolution"
  bottom: "InceptionResnetV2_InceptionResnetV2_Repeat_block35_4_Branch_2_Conv2d_0a_1x1_r"
  top: "InceptionResnetV2_InceptionResnetV2_Repeat_block35_4_Branch_2_Conv2d_0b_3x3"
  convolution_param {
    num_output: 48
    bias_term: false
    group: 1
    pad_h: 1
    pad_w: 1
    kernel_h: 3
    kernel_w: 3
    stride_h: 1
    stride_w: 1
  }
}
layer {
  name: "BatchNorm:EK"
  type: "BatchNorm"
  bottom: "InceptionResnetV2_InceptionResnetV2_Repeat_block35_4_Branch_2_Conv2d_0b_3x3"
  top: "InceptionResnetV2_InceptionResnetV2_Repeat_block35_4_Branch_2_Conv2d_0b_3x3_bn"
  batch_norm_param {
    use_global_stats: true
    eps: 0.0010000000475
  }
}
layer {
  name: "Scale:EL"
  type: "Scale"
  bottom: "InceptionResnetV2_InceptionResnetV2_Repeat_block35_4_Branch_2_Conv2d_0b_3x3_bn"
  top: "InceptionResnetV2_InceptionResnetV2_Repeat_block35_4_Branch_2_Conv2d_0b_3x3_scale"
  scale_param {
    bias_term: true
  }
}
layer {
  name: "ReLU:EM"
  type: "ReLU"
  bottom: "InceptionResnetV2_InceptionResnetV2_Repeat_block35_4_Branch_2_Conv2d_0b_3x3_scale"
  top: "InceptionResnetV2_InceptionResnetV2_Repeat_block35_4_Branch_2_Conv2d_0b_3x3_r"
}
layer {
  name: "Convolution:EN"
  type: "Convolution"
  bottom: "InceptionResnetV2_InceptionResnetV2_Repeat_block35_4_Branch_2_Conv2d_0b_3x3_r"
  top: "InceptionResnetV2_InceptionResnetV2_Repeat_block35_4_Branch_2_Conv2d_0c_3x3"
  convolution_param {
    num_output: 64
    bias_term: false
    group: 1
    pad_h: 1
    pad_w: 1
    kernel_h: 3
    kernel_w: 3
    stride_h: 1
    stride_w: 1
  }
}
layer {
  name: "BatchNorm:EO"
  type: "BatchNorm"
  bottom: "InceptionResnetV2_InceptionResnetV2_Repeat_block35_4_Branch_2_Conv2d_0c_3x3"
  top: "InceptionResnetV2_InceptionResnetV2_Repeat_block35_4_Branch_2_Conv2d_0c_3x3_bn"
  batch_norm_param {
    use_global_stats: true
    eps: 0.0010000000475
  }
}
layer {
  name: "Scale:EP"
  type: "Scale"
  bottom: "InceptionResnetV2_InceptionResnetV2_Repeat_block35_4_Branch_2_Conv2d_0c_3x3_bn"
  top: "InceptionResnetV2_InceptionResnetV2_Repeat_block35_4_Branch_2_Conv2d_0c_3x3_scale"
  scale_param {
    bias_term: true
  }
}
layer {
  name: "ReLU:EQ"
  type: "ReLU"
  bottom: "InceptionResnetV2_InceptionResnetV2_Repeat_block35_4_Branch_2_Conv2d_0c_3x3_scale"
  top: "InceptionResnetV2_InceptionResnetV2_Repeat_block35_4_Branch_2_Conv2d_0c_3x3_r"
}
layer {
  name: "Concat:ER"
  type: "Concat"
  bottom: "InceptionResnetV2_InceptionResnetV2_Repeat_block35_4_Branch_0_Conv2d_1x1_r"
  bottom: "InceptionResnetV2_InceptionResnetV2_Repeat_block35_4_Branch_1_Conv2d_0b_3x3_r"
  bottom: "InceptionResnetV2_InceptionResnetV2_Repeat_block35_4_Branch_2_Conv2d_0c_3x3_r"
  top: "InceptionResnetV2_InceptionResnetV2_Repeat_block35_4_concat"
  concat_param {
    axis: 1
  }
}
layer {
  name: "Convolution:ES"
  type: "Convolution"
  bottom: "InceptionResnetV2_InceptionResnetV2_Repeat_block35_4_concat"
  top: "InceptionResnetV2_InceptionResnetV2_Repeat_block35_4_Conv2d_1x1"
  convolution_param {
    num_output: 320
    bias_term: true
    group: 1
    pad_h: 0
    pad_w: 0
    kernel_h: 1
    kernel_w: 1
    stride_h: 1
    stride_w: 1
  }
}
layer {
  name: "Eltwise:ET"
  type: "Eltwise"
  bottom: "InceptionResnetV2_InceptionResnetV2_Repeat_block35_3_r"
  bottom: "InceptionResnetV2_InceptionResnetV2_Repeat_block35_4_Conv2d_1x1"
  top: "InceptionResnetV2_InceptionResnetV2_Repeat_block35_4"
  eltwise_param {
    operation: SUM
    coeff: 1.0
    coeff: 0.170000001788
  }
}
layer {
  name: "ReLU:EU"
  type: "ReLU"
  bottom: "InceptionResnetV2_InceptionResnetV2_Repeat_block35_4"
  top: "InceptionResnetV2_InceptionResnetV2_Repeat_block35_4_r"
}
layer {
  name: "Convolution:EV"
  type: "Convolution"
  bottom: "InceptionResnetV2_InceptionResnetV2_Repeat_block35_4_r"
  top: "InceptionResnetV2_InceptionResnetV2_Repeat_block35_5_Branch_0_Conv2d_1x1"
  convolution_param {
    num_output: 32
    bias_term: false
    group: 1
    pad_h: 0
    pad_w: 0
    kernel_h: 1
    kernel_w: 1
    stride_h: 1
    stride_w: 1
  }
}
layer {
  name: "BatchNorm:EW"
  type: "BatchNorm"
  bottom: "InceptionResnetV2_InceptionResnetV2_Repeat_block35_5_Branch_0_Conv2d_1x1"
  top: "InceptionResnetV2_InceptionResnetV2_Repeat_block35_5_Branch_0_Conv2d_1x1_bn"
  batch_norm_param {
    use_global_stats: true
    eps: 0.0010000000475
  }
}
layer {
  name: "Scale:EX"
  type: "Scale"
  bottom: "InceptionResnetV2_InceptionResnetV2_Repeat_block35_5_Branch_0_Conv2d_1x1_bn"
  top: "InceptionResnetV2_InceptionResnetV2_Repeat_block35_5_Branch_0_Conv2d_1x1_scale"
  scale_param {
    bias_term: true
  }
}
layer {
  name: "ReLU:EY"
  type: "ReLU"
  bottom: "InceptionResnetV2_InceptionResnetV2_Repeat_block35_5_Branch_0_Conv2d_1x1_scale"
  top: "InceptionResnetV2_InceptionResnetV2_Repeat_block35_5_Branch_0_Conv2d_1x1_r"
}
layer {
  name: "Convolution:EZ"
  type: "Convolution"
  bottom: "InceptionResnetV2_InceptionResnetV2_Repeat_block35_4_r"
  top: "InceptionResnetV2_InceptionResnetV2_Repeat_block35_5_Branch_1_Conv2d_0a_1x1"
  convolution_param {
    num_output: 32
    bias_term: false
    group: 1
    pad_h: 0
    pad_w: 0
    kernel_h: 1
    kernel_w: 1
    stride_h: 1
    stride_w: 1
  }
}
layer {
  name: "BatchNorm:E0"
  type: "BatchNorm"
  bottom: "InceptionResnetV2_InceptionResnetV2_Repeat_block35_5_Branch_1_Conv2d_0a_1x1"
  top: "InceptionResnetV2_InceptionResnetV2_Repeat_block35_5_Branch_1_Conv2d_0a_1x1_bn"
  batch_norm_param {
    use_global_stats: true
    eps: 0.0010000000475
  }
}
layer {
  name: "Scale:E1"
  type: "Scale"
  bottom: "InceptionResnetV2_InceptionResnetV2_Repeat_block35_5_Branch_1_Conv2d_0a_1x1_bn"
  top: "InceptionResnetV2_InceptionResnetV2_Repeat_block35_5_Branch_1_Conv2d_0a_1x1_scale"
  scale_param {
    bias_term: true
  }
}
layer {
  name: "ReLU:E2"
  type: "ReLU"
  bottom: "InceptionResnetV2_InceptionResnetV2_Repeat_block35_5_Branch_1_Conv2d_0a_1x1_scale"
  top: "InceptionResnetV2_InceptionResnetV2_Repeat_block35_5_Branch_1_Conv2d_0a_1x1_r"
}
layer {
  name: "Convolution:E3"
  type: "Convolution"
  bottom: "InceptionResnetV2_InceptionResnetV2_Repeat_block35_5_Branch_1_Conv2d_0a_1x1_r"
  top: "InceptionResnetV2_InceptionResnetV2_Repeat_block35_5_Branch_1_Conv2d_0b_3x3"
  convolution_param {
    num_output: 32
    bias_term: false
    group: 1
    pad_h: 1
    pad_w: 1
    kernel_h: 3
    kernel_w: 3
    stride_h: 1
    stride_w: 1
  }
}
layer {
  name: "BatchNorm:E4"
  type: "BatchNorm"
  bottom: "InceptionResnetV2_InceptionResnetV2_Repeat_block35_5_Branch_1_Conv2d_0b_3x3"
  top: "InceptionResnetV2_InceptionResnetV2_Repeat_block35_5_Branch_1_Conv2d_0b_3x3_bn"
  batch_norm_param {
    use_global_stats: true
    eps: 0.0010000000475
  }
}
layer {
  name: "Scale:E5"
  type: "Scale"
  bottom: "InceptionResnetV2_InceptionResnetV2_Repeat_block35_5_Branch_1_Conv2d_0b_3x3_bn"
  top: "InceptionResnetV2_InceptionResnetV2_Repeat_block35_5_Branch_1_Conv2d_0b_3x3_scale"
  scale_param {
    bias_term: true
  }
}
layer {
  name: "ReLU:E6"
  type: "ReLU"
  bottom: "InceptionResnetV2_InceptionResnetV2_Repeat_block35_5_Branch_1_Conv2d_0b_3x3_scale"
  top: "InceptionResnetV2_InceptionResnetV2_Repeat_block35_5_Branch_1_Conv2d_0b_3x3_r"
}
layer {
  name: "Convolution:E7"
  type: "Convolution"
  bottom: "InceptionResnetV2_InceptionResnetV2_Repeat_block35_4_r"
  top: "InceptionResnetV2_InceptionResnetV2_Repeat_block35_5_Branch_2_Conv2d_0a_1x1"
  convolution_param {
    num_output: 32
    bias_term: false
    group: 1
    pad_h: 0
    pad_w: 0
    kernel_h: 1
    kernel_w: 1
    stride_h: 1
    stride_w: 1
  }
}
layer {
  name: "BatchNorm:E8"
  type: "BatchNorm"
  bottom: "InceptionResnetV2_InceptionResnetV2_Repeat_block35_5_Branch_2_Conv2d_0a_1x1"
  top: "InceptionResnetV2_InceptionResnetV2_Repeat_block35_5_Branch_2_Conv2d_0a_1x1_bn"
  batch_norm_param {
    use_global_stats: true
    eps: 0.0010000000475
  }
}
layer {
  name: "Scale:E9"
  type: "Scale"
  bottom: "InceptionResnetV2_InceptionResnetV2_Repeat_block35_5_Branch_2_Conv2d_0a_1x1_bn"
  top: "InceptionResnetV2_InceptionResnetV2_Repeat_block35_5_Branch_2_Conv2d_0a_1x1_scale"
  scale_param {
    bias_term: true
  }
}
layer {
  name: "ReLU:FA"
  type: "ReLU"
  bottom: "InceptionResnetV2_InceptionResnetV2_Repeat_block35_5_Branch_2_Conv2d_0a_1x1_scale"
  top: "InceptionResnetV2_InceptionResnetV2_Repeat_block35_5_Branch_2_Conv2d_0a_1x1_r"
}
layer {
  name: "Convolution:FB"
  type: "Convolution"
  bottom: "InceptionResnetV2_InceptionResnetV2_Repeat_block35_5_Branch_2_Conv2d_0a_1x1_r"
  top: "InceptionResnetV2_InceptionResnetV2_Repeat_block35_5_Branch_2_Conv2d_0b_3x3"
  convolution_param {
    num_output: 48
    bias_term: false
    group: 1
    pad_h: 1
    pad_w: 1
    kernel_h: 3
    kernel_w: 3
    stride_h: 1
    stride_w: 1
  }
}
layer {
  name: "BatchNorm:FC"
  type: "BatchNorm"
  bottom: "InceptionResnetV2_InceptionResnetV2_Repeat_block35_5_Branch_2_Conv2d_0b_3x3"
  top: "InceptionResnetV2_InceptionResnetV2_Repeat_block35_5_Branch_2_Conv2d_0b_3x3_bn"
  batch_norm_param {
    use_global_stats: true
    eps: 0.0010000000475
  }
}
layer {
  name: "Scale:FD"
  type: "Scale"
  bottom: "InceptionResnetV2_InceptionResnetV2_Repeat_block35_5_Branch_2_Conv2d_0b_3x3_bn"
  top: "InceptionResnetV2_InceptionResnetV2_Repeat_block35_5_Branch_2_Conv2d_0b_3x3_scale"
  scale_param {
    bias_term: true
  }
}
layer {
  name: "ReLU:FE"
  type: "ReLU"
  bottom: "InceptionResnetV2_InceptionResnetV2_Repeat_block35_5_Branch_2_Conv2d_0b_3x3_scale"
  top: "InceptionResnetV2_InceptionResnetV2_Repeat_block35_5_Branch_2_Conv2d_0b_3x3_r"
}
layer {
  name: "Convolution:FF"
  type: "Convolution"
  bottom: "InceptionResnetV2_InceptionResnetV2_Repeat_block35_5_Branch_2_Conv2d_0b_3x3_r"
  top: "InceptionResnetV2_InceptionResnetV2_Repeat_block35_5_Branch_2_Conv2d_0c_3x3"
  convolution_param {
    num_output: 64
    bias_term: false
    group: 1
    pad_h: 1
    pad_w: 1
    kernel_h: 3
    kernel_w: 3
    stride_h: 1
    stride_w: 1
  }
}
layer {
  name: "BatchNorm:FG"
  type: "BatchNorm"
  bottom: "InceptionResnetV2_InceptionResnetV2_Repeat_block35_5_Branch_2_Conv2d_0c_3x3"
  top: "InceptionResnetV2_InceptionResnetV2_Repeat_block35_5_Branch_2_Conv2d_0c_3x3_bn"
  batch_norm_param {
    use_global_stats: true
    eps: 0.0010000000475
  }
}
layer {
  name: "Scale:FH"
  type: "Scale"
  bottom: "InceptionResnetV2_InceptionResnetV2_Repeat_block35_5_Branch_2_Conv2d_0c_3x3_bn"
  top: "InceptionResnetV2_InceptionResnetV2_Repeat_block35_5_Branch_2_Conv2d_0c_3x3_scale"
  scale_param {
    bias_term: true
  }
}
layer {
  name: "ReLU:FI"
  type: "ReLU"
  bottom: "InceptionResnetV2_InceptionResnetV2_Repeat_block35_5_Branch_2_Conv2d_0c_3x3_scale"
  top: "InceptionResnetV2_InceptionResnetV2_Repeat_block35_5_Branch_2_Conv2d_0c_3x3_r"
}
layer {
  name: "Concat:FJ"
  type: "Concat"
  bottom: "InceptionResnetV2_InceptionResnetV2_Repeat_block35_5_Branch_0_Conv2d_1x1_r"
  bottom: "InceptionResnetV2_InceptionResnetV2_Repeat_block35_5_Branch_1_Conv2d_0b_3x3_r"
  bottom: "InceptionResnetV2_InceptionResnetV2_Repeat_block35_5_Branch_2_Conv2d_0c_3x3_r"
  top: "InceptionResnetV2_InceptionResnetV2_Repeat_block35_5_concat"
  concat_param {
    axis: 1
  }
}
layer {
  name: "Convolution:FK"
  type: "Convolution"
  bottom: "InceptionResnetV2_InceptionResnetV2_Repeat_block35_5_concat"
  top: "InceptionResnetV2_InceptionResnetV2_Repeat_block35_5_Conv2d_1x1"
  convolution_param {
    num_output: 320
    bias_term: true
    group: 1
    pad_h: 0
    pad_w: 0
    kernel_h: 1
    kernel_w: 1
    stride_h: 1
    stride_w: 1
  }
}
layer {
  name: "Eltwise:FL"
  type: "Eltwise"
  bottom: "InceptionResnetV2_InceptionResnetV2_Repeat_block35_4_r"
  bottom: "InceptionResnetV2_InceptionResnetV2_Repeat_block35_5_Conv2d_1x1"
  top: "InceptionResnetV2_InceptionResnetV2_Repeat_block35_5"
  eltwise_param {
    operation: SUM
    coeff: 1.0
    coeff: 0.170000001788
  }
}
layer {
  name: "ReLU:FM"
  type: "ReLU"
  bottom: "InceptionResnetV2_InceptionResnetV2_Repeat_block35_5"
  top: "InceptionResnetV2_InceptionResnetV2_Repeat_block35_5_r"
}
layer {
  name: "Convolution:FN"
  type: "Convolution"
  bottom: "InceptionResnetV2_InceptionResnetV2_Repeat_block35_5_r"
  top: "InceptionResnetV2_InceptionResnetV2_Repeat_block35_6_Branch_0_Conv2d_1x1"
  convolution_param {
    num_output: 32
    bias_term: false
    group: 1
    pad_h: 0
    pad_w: 0
    kernel_h: 1
    kernel_w: 1
    stride_h: 1
    stride_w: 1
  }
}
layer {
  name: "BatchNorm:FO"
  type: "BatchNorm"
  bottom: "InceptionResnetV2_InceptionResnetV2_Repeat_block35_6_Branch_0_Conv2d_1x1"
  top: "InceptionResnetV2_InceptionResnetV2_Repeat_block35_6_Branch_0_Conv2d_1x1_bn"
  batch_norm_param {
    use_global_stats: true
    eps: 0.0010000000475
  }
}
layer {
  name: "Scale:FP"
  type: "Scale"
  bottom: "InceptionResnetV2_InceptionResnetV2_Repeat_block35_6_Branch_0_Conv2d_1x1_bn"
  top: "InceptionResnetV2_InceptionResnetV2_Repeat_block35_6_Branch_0_Conv2d_1x1_scale"
  scale_param {
    bias_term: true
  }
}
layer {
  name: "ReLU:FQ"
  type: "ReLU"
  bottom: "InceptionResnetV2_InceptionResnetV2_Repeat_block35_6_Branch_0_Conv2d_1x1_scale"
  top: "InceptionResnetV2_InceptionResnetV2_Repeat_block35_6_Branch_0_Conv2d_1x1_r"
}
layer {
  name: "Convolution:FR"
  type: "Convolution"
  bottom: "InceptionResnetV2_InceptionResnetV2_Repeat_block35_5_r"
  top: "InceptionResnetV2_InceptionResnetV2_Repeat_block35_6_Branch_1_Conv2d_0a_1x1"
  convolution_param {
    num_output: 32
    bias_term: false
    group: 1
    pad_h: 0
    pad_w: 0
    kernel_h: 1
    kernel_w: 1
    stride_h: 1
    stride_w: 1
  }
}
layer {
  name: "BatchNorm:FS"
  type: "BatchNorm"
  bottom: "InceptionResnetV2_InceptionResnetV2_Repeat_block35_6_Branch_1_Conv2d_0a_1x1"
  top: "InceptionResnetV2_InceptionResnetV2_Repeat_block35_6_Branch_1_Conv2d_0a_1x1_bn"
  batch_norm_param {
    use_global_stats: true
    eps: 0.0010000000475
  }
}
layer {
  name: "Scale:FT"
  type: "Scale"
  bottom: "InceptionResnetV2_InceptionResnetV2_Repeat_block35_6_Branch_1_Conv2d_0a_1x1_bn"
  top: "InceptionResnetV2_InceptionResnetV2_Repeat_block35_6_Branch_1_Conv2d_0a_1x1_scale"
  scale_param {
    bias_term: true
  }
}
layer {
  name: "ReLU:FU"
  type: "ReLU"
  bottom: "InceptionResnetV2_InceptionResnetV2_Repeat_block35_6_Branch_1_Conv2d_0a_1x1_scale"
  top: "InceptionResnetV2_InceptionResnetV2_Repeat_block35_6_Branch_1_Conv2d_0a_1x1_r"
}
layer {
  name: "Convolution:FV"
  type: "Convolution"
  bottom: "InceptionResnetV2_InceptionResnetV2_Repeat_block35_6_Branch_1_Conv2d_0a_1x1_r"
  top: "InceptionResnetV2_InceptionResnetV2_Repeat_block35_6_Branch_1_Conv2d_0b_3x3"
  convolution_param {
    num_output: 32
    bias_term: false
    group: 1
    pad_h: 1
    pad_w: 1
    kernel_h: 3
    kernel_w: 3
    stride_h: 1
    stride_w: 1
  }
}
layer {
  name: "BatchNorm:FW"
  type: "BatchNorm"
  bottom: "InceptionResnetV2_InceptionResnetV2_Repeat_block35_6_Branch_1_Conv2d_0b_3x3"
  top: "InceptionResnetV2_InceptionResnetV2_Repeat_block35_6_Branch_1_Conv2d_0b_3x3_bn"
  batch_norm_param {
    use_global_stats: true
    eps: 0.0010000000475
  }
}
layer {
  name: "Scale:FX"
  type: "Scale"
  bottom: "InceptionResnetV2_InceptionResnetV2_Repeat_block35_6_Branch_1_Conv2d_0b_3x3_bn"
  top: "InceptionResnetV2_InceptionResnetV2_Repeat_block35_6_Branch_1_Conv2d_0b_3x3_scale"
  scale_param {
    bias_term: true
  }
}
layer {
  name: "ReLU:FY"
  type: "ReLU"
  bottom: "InceptionResnetV2_InceptionResnetV2_Repeat_block35_6_Branch_1_Conv2d_0b_3x3_scale"
  top: "InceptionResnetV2_InceptionResnetV2_Repeat_block35_6_Branch_1_Conv2d_0b_3x3_r"
}
layer {
  name: "Convolution:FZ"
  type: "Convolution"
  bottom: "InceptionResnetV2_InceptionResnetV2_Repeat_block35_5_r"
  top: "InceptionResnetV2_InceptionResnetV2_Repeat_block35_6_Branch_2_Conv2d_0a_1x1"
  convolution_param {
    num_output: 32
    bias_term: false
    group: 1
    pad_h: 0
    pad_w: 0
    kernel_h: 1
    kernel_w: 1
    stride_h: 1
    stride_w: 1
  }
}
layer {
  name: "BatchNorm:F0"
  type: "BatchNorm"
  bottom: "InceptionResnetV2_InceptionResnetV2_Repeat_block35_6_Branch_2_Conv2d_0a_1x1"
  top: "InceptionResnetV2_InceptionResnetV2_Repeat_block35_6_Branch_2_Conv2d_0a_1x1_bn"
  batch_norm_param {
    use_global_stats: true
    eps: 0.0010000000475
  }
}
layer {
  name: "Scale:F1"
  type: "Scale"
  bottom: "InceptionResnetV2_InceptionResnetV2_Repeat_block35_6_Branch_2_Conv2d_0a_1x1_bn"
  top: "InceptionResnetV2_InceptionResnetV2_Repeat_block35_6_Branch_2_Conv2d_0a_1x1_scale"
  scale_param {
    bias_term: true
  }
}
layer {
  name: "ReLU:F2"
  type: "ReLU"
  bottom: "InceptionResnetV2_InceptionResnetV2_Repeat_block35_6_Branch_2_Conv2d_0a_1x1_scale"
  top: "InceptionResnetV2_InceptionResnetV2_Repeat_block35_6_Branch_2_Conv2d_0a_1x1_r"
}
layer {
  name: "Convolution:F3"
  type: "Convolution"
  bottom: "InceptionResnetV2_InceptionResnetV2_Repeat_block35_6_Branch_2_Conv2d_0a_1x1_r"
  top: "InceptionResnetV2_InceptionResnetV2_Repeat_block35_6_Branch_2_Conv2d_0b_3x3"
  convolution_param {
    num_output: 48
    bias_term: false
    group: 1
    pad_h: 1
    pad_w: 1
    kernel_h: 3
    kernel_w: 3
    stride_h: 1
    stride_w: 1
  }
}
layer {
  name: "BatchNorm:F4"
  type: "BatchNorm"
  bottom: "InceptionResnetV2_InceptionResnetV2_Repeat_block35_6_Branch_2_Conv2d_0b_3x3"
  top: "InceptionResnetV2_InceptionResnetV2_Repeat_block35_6_Branch_2_Conv2d_0b_3x3_bn"
  batch_norm_param {
    use_global_stats: true
    eps: 0.0010000000475
  }
}
layer {
  name: "Scale:F5"
  type: "Scale"
  bottom: "InceptionResnetV2_InceptionResnetV2_Repeat_block35_6_Branch_2_Conv2d_0b_3x3_bn"
  top: "InceptionResnetV2_InceptionResnetV2_Repeat_block35_6_Branch_2_Conv2d_0b_3x3_scale"
  scale_param {
    bias_term: true
  }
}
layer {
  name: "ReLU:F6"
  type: "ReLU"
  bottom: "InceptionResnetV2_InceptionResnetV2_Repeat_block35_6_Branch_2_Conv2d_0b_3x3_scale"
  top: "InceptionResnetV2_InceptionResnetV2_Repeat_block35_6_Branch_2_Conv2d_0b_3x3_r"
}
layer {
  name: "Convolution:F7"
  type: "Convolution"
  bottom: "InceptionResnetV2_InceptionResnetV2_Repeat_block35_6_Branch_2_Conv2d_0b_3x3_r"
  top: "InceptionResnetV2_InceptionResnetV2_Repeat_block35_6_Branch_2_Conv2d_0c_3x3"
  convolution_param {
    num_output: 64
    bias_term: false
    group: 1
    pad_h: 1
    pad_w: 1
    kernel_h: 3
    kernel_w: 3
    stride_h: 1
    stride_w: 1
  }
}
layer {
  name: "BatchNorm:F8"
  type: "BatchNorm"
  bottom: "InceptionResnetV2_InceptionResnetV2_Repeat_block35_6_Branch_2_Conv2d_0c_3x3"
  top: "InceptionResnetV2_InceptionResnetV2_Repeat_block35_6_Branch_2_Conv2d_0c_3x3_bn"
  batch_norm_param {
    use_global_stats: true
    eps: 0.0010000000475
  }
}
layer {
  name: "Scale:F9"
  type: "Scale"
  bottom: "InceptionResnetV2_InceptionResnetV2_Repeat_block35_6_Branch_2_Conv2d_0c_3x3_bn"
  top: "InceptionResnetV2_InceptionResnetV2_Repeat_block35_6_Branch_2_Conv2d_0c_3x3_scale"
  scale_param {
    bias_term: true
  }
}
layer {
  name: "ReLU:GA"
  type: "ReLU"
  bottom: "InceptionResnetV2_InceptionResnetV2_Repeat_block35_6_Branch_2_Conv2d_0c_3x3_scale"
  top: "InceptionResnetV2_InceptionResnetV2_Repeat_block35_6_Branch_2_Conv2d_0c_3x3_r"
}
layer {
  name: "Concat:GB"
  type: "Concat"
  bottom: "InceptionResnetV2_InceptionResnetV2_Repeat_block35_6_Branch_0_Conv2d_1x1_r"
  bottom: "InceptionResnetV2_InceptionResnetV2_Repeat_block35_6_Branch_1_Conv2d_0b_3x3_r"
  bottom: "InceptionResnetV2_InceptionResnetV2_Repeat_block35_6_Branch_2_Conv2d_0c_3x3_r"
  top: "InceptionResnetV2_InceptionResnetV2_Repeat_block35_6_concat"
  concat_param {
    axis: 1
  }
}
layer {
  name: "Convolution:GC"
  type: "Convolution"
  bottom: "InceptionResnetV2_InceptionResnetV2_Repeat_block35_6_concat"
  top: "InceptionResnetV2_InceptionResnetV2_Repeat_block35_6_Conv2d_1x1"
  convolution_param {
    num_output: 320
    bias_term: true
    group: 1
    pad_h: 0
    pad_w: 0
    kernel_h: 1
    kernel_w: 1
    stride_h: 1
    stride_w: 1
  }
}
layer {
  name: "Eltwise:GD"
  type: "Eltwise"
  bottom: "InceptionResnetV2_InceptionResnetV2_Repeat_block35_5_r"
  bottom: "InceptionResnetV2_InceptionResnetV2_Repeat_block35_6_Conv2d_1x1"
  top: "InceptionResnetV2_InceptionResnetV2_Repeat_block35_6"
  eltwise_param {
    operation: SUM
    coeff: 1.0
    coeff: 0.170000001788
  }
}
layer {
  name: "ReLU:GE"
  type: "ReLU"
  bottom: "InceptionResnetV2_InceptionResnetV2_Repeat_block35_6"
  top: "InceptionResnetV2_InceptionResnetV2_Repeat_block35_6_r"
}
layer {
  name: "Convolution:GF"
  type: "Convolution"
  bottom: "InceptionResnetV2_InceptionResnetV2_Repeat_block35_6_r"
  top: "InceptionResnetV2_InceptionResnetV2_Repeat_block35_7_Branch_0_Conv2d_1x1"
  convolution_param {
    num_output: 32
    bias_term: false
    group: 1
    pad_h: 0
    pad_w: 0
    kernel_h: 1
    kernel_w: 1
    stride_h: 1
    stride_w: 1
  }
}
layer {
  name: "BatchNorm:GG"
  type: "BatchNorm"
  bottom: "InceptionResnetV2_InceptionResnetV2_Repeat_block35_7_Branch_0_Conv2d_1x1"
  top: "InceptionResnetV2_InceptionResnetV2_Repeat_block35_7_Branch_0_Conv2d_1x1_bn"
  batch_norm_param {
    use_global_stats: true
    eps: 0.0010000000475
  }
}
layer {
  name: "Scale:GH"
  type: "Scale"
  bottom: "InceptionResnetV2_InceptionResnetV2_Repeat_block35_7_Branch_0_Conv2d_1x1_bn"
  top: "InceptionResnetV2_InceptionResnetV2_Repeat_block35_7_Branch_0_Conv2d_1x1_scale"
  scale_param {
    bias_term: true
  }
}
layer {
  name: "ReLU:GI"
  type: "ReLU"
  bottom: "InceptionResnetV2_InceptionResnetV2_Repeat_block35_7_Branch_0_Conv2d_1x1_scale"
  top: "InceptionResnetV2_InceptionResnetV2_Repeat_block35_7_Branch_0_Conv2d_1x1_r"
}
layer {
  name: "Convolution:GJ"
  type: "Convolution"
  bottom: "InceptionResnetV2_InceptionResnetV2_Repeat_block35_6_r"
  top: "InceptionResnetV2_InceptionResnetV2_Repeat_block35_7_Branch_1_Conv2d_0a_1x1"
  convolution_param {
    num_output: 32
    bias_term: false
    group: 1
    pad_h: 0
    pad_w: 0
    kernel_h: 1
    kernel_w: 1
    stride_h: 1
    stride_w: 1
  }
}
layer {
  name: "BatchNorm:GK"
  type: "BatchNorm"
  bottom: "InceptionResnetV2_InceptionResnetV2_Repeat_block35_7_Branch_1_Conv2d_0a_1x1"
  top: "InceptionResnetV2_InceptionResnetV2_Repeat_block35_7_Branch_1_Conv2d_0a_1x1_bn"
  batch_norm_param {
    use_global_stats: true
    eps: 0.0010000000475
  }
}
layer {
  name: "Scale:GL"
  type: "Scale"
  bottom: "InceptionResnetV2_InceptionResnetV2_Repeat_block35_7_Branch_1_Conv2d_0a_1x1_bn"
  top: "InceptionResnetV2_InceptionResnetV2_Repeat_block35_7_Branch_1_Conv2d_0a_1x1_scale"
  scale_param {
    bias_term: true
  }
}
layer {
  name: "ReLU:GM"
  type: "ReLU"
  bottom: "InceptionResnetV2_InceptionResnetV2_Repeat_block35_7_Branch_1_Conv2d_0a_1x1_scale"
  top: "InceptionResnetV2_InceptionResnetV2_Repeat_block35_7_Branch_1_Conv2d_0a_1x1_r"
}
layer {
  name: "Convolution:GN"
  type: "Convolution"
  bottom: "InceptionResnetV2_InceptionResnetV2_Repeat_block35_7_Branch_1_Conv2d_0a_1x1_r"
  top: "InceptionResnetV2_InceptionResnetV2_Repeat_block35_7_Branch_1_Conv2d_0b_3x3"
  convolution_param {
    num_output: 32
    bias_term: false
    group: 1
    pad_h: 1
    pad_w: 1
    kernel_h: 3
    kernel_w: 3
    stride_h: 1
    stride_w: 1
  }
}
layer {
  name: "BatchNorm:GO"
  type: "BatchNorm"
  bottom: "InceptionResnetV2_InceptionResnetV2_Repeat_block35_7_Branch_1_Conv2d_0b_3x3"
  top: "InceptionResnetV2_InceptionResnetV2_Repeat_block35_7_Branch_1_Conv2d_0b_3x3_bn"
  batch_norm_param {
    use_global_stats: true
    eps: 0.0010000000475
  }
}
layer {
  name: "Scale:GP"
  type: "Scale"
  bottom: "InceptionResnetV2_InceptionResnetV2_Repeat_block35_7_Branch_1_Conv2d_0b_3x3_bn"
  top: "InceptionResnetV2_InceptionResnetV2_Repeat_block35_7_Branch_1_Conv2d_0b_3x3_scale"
  scale_param {
    bias_term: true
  }
}
layer {
  name: "ReLU:GQ"
  type: "ReLU"
  bottom: "InceptionResnetV2_InceptionResnetV2_Repeat_block35_7_Branch_1_Conv2d_0b_3x3_scale"
  top: "InceptionResnetV2_InceptionResnetV2_Repeat_block35_7_Branch_1_Conv2d_0b_3x3_r"
}
layer {
  name: "Convolution:GR"
  type: "Convolution"
  bottom: "InceptionResnetV2_InceptionResnetV2_Repeat_block35_6_r"
  top: "InceptionResnetV2_InceptionResnetV2_Repeat_block35_7_Branch_2_Conv2d_0a_1x1"
  convolution_param {
    num_output: 32
    bias_term: false
    group: 1
    pad_h: 0
    pad_w: 0
    kernel_h: 1
    kernel_w: 1
    stride_h: 1
    stride_w: 1
  }
}
layer {
  name: "BatchNorm:GS"
  type: "BatchNorm"
  bottom: "InceptionResnetV2_InceptionResnetV2_Repeat_block35_7_Branch_2_Conv2d_0a_1x1"
  top: "InceptionResnetV2_InceptionResnetV2_Repeat_block35_7_Branch_2_Conv2d_0a_1x1_bn"
  batch_norm_param {
    use_global_stats: true
    eps: 0.0010000000475
  }
}
layer {
  name: "Scale:GT"
  type: "Scale"
  bottom: "InceptionResnetV2_InceptionResnetV2_Repeat_block35_7_Branch_2_Conv2d_0a_1x1_bn"
  top: "InceptionResnetV2_InceptionResnetV2_Repeat_block35_7_Branch_2_Conv2d_0a_1x1_scale"
  scale_param {
    bias_term: true
  }
}
layer {
  name: "ReLU:GU"
  type: "ReLU"
  bottom: "InceptionResnetV2_InceptionResnetV2_Repeat_block35_7_Branch_2_Conv2d_0a_1x1_scale"
  top: "InceptionResnetV2_InceptionResnetV2_Repeat_block35_7_Branch_2_Conv2d_0a_1x1_r"
}
layer {
  name: "Convolution:GV"
  type: "Convolution"
  bottom: "InceptionResnetV2_InceptionResnetV2_Repeat_block35_7_Branch_2_Conv2d_0a_1x1_r"
  top: "InceptionResnetV2_InceptionResnetV2_Repeat_block35_7_Branch_2_Conv2d_0b_3x3"
  convolution_param {
    num_output: 48
    bias_term: false
    group: 1
    pad_h: 1
    pad_w: 1
    kernel_h: 3
    kernel_w: 3
    stride_h: 1
    stride_w: 1
  }
}
layer {
  name: "BatchNorm:GW"
  type: "BatchNorm"
  bottom: "InceptionResnetV2_InceptionResnetV2_Repeat_block35_7_Branch_2_Conv2d_0b_3x3"
  top: "InceptionResnetV2_InceptionResnetV2_Repeat_block35_7_Branch_2_Conv2d_0b_3x3_bn"
  batch_norm_param {
    use_global_stats: true
    eps: 0.0010000000475
  }
}
layer {
  name: "Scale:GX"
  type: "Scale"
  bottom: "InceptionResnetV2_InceptionResnetV2_Repeat_block35_7_Branch_2_Conv2d_0b_3x3_bn"
  top: "InceptionResnetV2_InceptionResnetV2_Repeat_block35_7_Branch_2_Conv2d_0b_3x3_scale"
  scale_param {
    bias_term: true
  }
}
layer {
  name: "ReLU:GY"
  type: "ReLU"
  bottom: "InceptionResnetV2_InceptionResnetV2_Repeat_block35_7_Branch_2_Conv2d_0b_3x3_scale"
  top: "InceptionResnetV2_InceptionResnetV2_Repeat_block35_7_Branch_2_Conv2d_0b_3x3_r"
}
layer {
  name: "Convolution:GZ"
  type: "Convolution"
  bottom: "InceptionResnetV2_InceptionResnetV2_Repeat_block35_7_Branch_2_Conv2d_0b_3x3_r"
  top: "InceptionResnetV2_InceptionResnetV2_Repeat_block35_7_Branch_2_Conv2d_0c_3x3"
  convolution_param {
    num_output: 64
    bias_term: false
    group: 1
    pad_h: 1
    pad_w: 1
    kernel_h: 3
    kernel_w: 3
    stride_h: 1
    stride_w: 1
  }
}
layer {
  name: "BatchNorm:G0"
  type: "BatchNorm"
  bottom: "InceptionResnetV2_InceptionResnetV2_Repeat_block35_7_Branch_2_Conv2d_0c_3x3"
  top: "InceptionResnetV2_InceptionResnetV2_Repeat_block35_7_Branch_2_Conv2d_0c_3x3_bn"
  batch_norm_param {
    use_global_stats: true
    eps: 0.0010000000475
  }
}
layer {
  name: "Scale:G1"
  type: "Scale"
  bottom: "InceptionResnetV2_InceptionResnetV2_Repeat_block35_7_Branch_2_Conv2d_0c_3x3_bn"
  top: "InceptionResnetV2_InceptionResnetV2_Repeat_block35_7_Branch_2_Conv2d_0c_3x3_scale"
  scale_param {
    bias_term: true
  }
}
layer {
  name: "ReLU:G2"
  type: "ReLU"
  bottom: "InceptionResnetV2_InceptionResnetV2_Repeat_block35_7_Branch_2_Conv2d_0c_3x3_scale"
  top: "InceptionResnetV2_InceptionResnetV2_Repeat_block35_7_Branch_2_Conv2d_0c_3x3_r"
}
layer {
  name: "Concat:G3"
  type: "Concat"
  bottom: "InceptionResnetV2_InceptionResnetV2_Repeat_block35_7_Branch_0_Conv2d_1x1_r"
  bottom: "InceptionResnetV2_InceptionResnetV2_Repeat_block35_7_Branch_1_Conv2d_0b_3x3_r"
  bottom: "InceptionResnetV2_InceptionResnetV2_Repeat_block35_7_Branch_2_Conv2d_0c_3x3_r"
  top: "InceptionResnetV2_InceptionResnetV2_Repeat_block35_7_concat"
  concat_param {
    axis: 1
  }
}
layer {
  name: "Convolution:G4"
  type: "Convolution"
  bottom: "InceptionResnetV2_InceptionResnetV2_Repeat_block35_7_concat"
  top: "InceptionResnetV2_InceptionResnetV2_Repeat_block35_7_Conv2d_1x1"
  convolution_param {
    num_output: 320
    bias_term: true
    group: 1
    pad_h: 0
    pad_w: 0
    kernel_h: 1
    kernel_w: 1
    stride_h: 1
    stride_w: 1
  }
}
layer {
  name: "Eltwise:G5"
  type: "Eltwise"
  bottom: "InceptionResnetV2_InceptionResnetV2_Repeat_block35_6_r"
  bottom: "InceptionResnetV2_InceptionResnetV2_Repeat_block35_7_Conv2d_1x1"
  top: "InceptionResnetV2_InceptionResnetV2_Repeat_block35_7"
  eltwise_param {
    operation: SUM
    coeff: 1.0
    coeff: 0.170000001788
  }
}
layer {
  name: "ReLU:G6"
  type: "ReLU"
  bottom: "InceptionResnetV2_InceptionResnetV2_Repeat_block35_7"
  top: "InceptionResnetV2_InceptionResnetV2_Repeat_block35_7_r"
}
layer {
  name: "Convolution:G7"
  type: "Convolution"
  bottom: "InceptionResnetV2_InceptionResnetV2_Repeat_block35_7_r"
  top: "InceptionResnetV2_InceptionResnetV2_Repeat_block35_8_Branch_0_Conv2d_1x1"
  convolution_param {
    num_output: 32
    bias_term: false
    group: 1
    pad_h: 0
    pad_w: 0
    kernel_h: 1
    kernel_w: 1
    stride_h: 1
    stride_w: 1
  }
}
layer {
  name: "BatchNorm:G8"
  type: "BatchNorm"
  bottom: "InceptionResnetV2_InceptionResnetV2_Repeat_block35_8_Branch_0_Conv2d_1x1"
  top: "InceptionResnetV2_InceptionResnetV2_Repeat_block35_8_Branch_0_Conv2d_1x1_bn"
  batch_norm_param {
    use_global_stats: true
    eps: 0.0010000000475
  }
}
layer {
  name: "Scale:G9"
  type: "Scale"
  bottom: "InceptionResnetV2_InceptionResnetV2_Repeat_block35_8_Branch_0_Conv2d_1x1_bn"
  top: "InceptionResnetV2_InceptionResnetV2_Repeat_block35_8_Branch_0_Conv2d_1x1_scale"
  scale_param {
    bias_term: true
  }
}
layer {
  name: "ReLU:HA"
  type: "ReLU"
  bottom: "InceptionResnetV2_InceptionResnetV2_Repeat_block35_8_Branch_0_Conv2d_1x1_scale"
  top: "InceptionResnetV2_InceptionResnetV2_Repeat_block35_8_Branch_0_Conv2d_1x1_r"
}
layer {
  name: "Convolution:HB"
  type: "Convolution"
  bottom: "InceptionResnetV2_InceptionResnetV2_Repeat_block35_7_r"
  top: "InceptionResnetV2_InceptionResnetV2_Repeat_block35_8_Branch_1_Conv2d_0a_1x1"
  convolution_param {
    num_output: 32
    bias_term: false
    group: 1
    pad_h: 0
    pad_w: 0
    kernel_h: 1
    kernel_w: 1
    stride_h: 1
    stride_w: 1
  }
}
layer {
  name: "BatchNorm:HC"
  type: "BatchNorm"
  bottom: "InceptionResnetV2_InceptionResnetV2_Repeat_block35_8_Branch_1_Conv2d_0a_1x1"
  top: "InceptionResnetV2_InceptionResnetV2_Repeat_block35_8_Branch_1_Conv2d_0a_1x1_bn"
  batch_norm_param {
    use_global_stats: true
    eps: 0.0010000000475
  }
}
layer {
  name: "Scale:HD"
  type: "Scale"
  bottom: "InceptionResnetV2_InceptionResnetV2_Repeat_block35_8_Branch_1_Conv2d_0a_1x1_bn"
  top: "InceptionResnetV2_InceptionResnetV2_Repeat_block35_8_Branch_1_Conv2d_0a_1x1_scale"
  scale_param {
    bias_term: true
  }
}
layer {
  name: "ReLU:HE"
  type: "ReLU"
  bottom: "InceptionResnetV2_InceptionResnetV2_Repeat_block35_8_Branch_1_Conv2d_0a_1x1_scale"
  top: "InceptionResnetV2_InceptionResnetV2_Repeat_block35_8_Branch_1_Conv2d_0a_1x1_r"
}
layer {
  name: "Convolution:HF"
  type: "Convolution"
  bottom: "InceptionResnetV2_InceptionResnetV2_Repeat_block35_8_Branch_1_Conv2d_0a_1x1_r"
  top: "InceptionResnetV2_InceptionResnetV2_Repeat_block35_8_Branch_1_Conv2d_0b_3x3"
  convolution_param {
    num_output: 32
    bias_term: false
    group: 1
    pad_h: 1
    pad_w: 1
    kernel_h: 3
    kernel_w: 3
    stride_h: 1
    stride_w: 1
  }
}
layer {
  name: "BatchNorm:HG"
  type: "BatchNorm"
  bottom: "InceptionResnetV2_InceptionResnetV2_Repeat_block35_8_Branch_1_Conv2d_0b_3x3"
  top: "InceptionResnetV2_InceptionResnetV2_Repeat_block35_8_Branch_1_Conv2d_0b_3x3_bn"
  batch_norm_param {
    use_global_stats: true
    eps: 0.0010000000475
  }
}
layer {
  name: "Scale:HH"
  type: "Scale"
  bottom: "InceptionResnetV2_InceptionResnetV2_Repeat_block35_8_Branch_1_Conv2d_0b_3x3_bn"
  top: "InceptionResnetV2_InceptionResnetV2_Repeat_block35_8_Branch_1_Conv2d_0b_3x3_scale"
  scale_param {
    bias_term: true
  }
}
layer {
  name: "ReLU:HI"
  type: "ReLU"
  bottom: "InceptionResnetV2_InceptionResnetV2_Repeat_block35_8_Branch_1_Conv2d_0b_3x3_scale"
  top: "InceptionResnetV2_InceptionResnetV2_Repeat_block35_8_Branch_1_Conv2d_0b_3x3_r"
}
layer {
  name: "Convolution:HJ"
  type: "Convolution"
  bottom: "InceptionResnetV2_InceptionResnetV2_Repeat_block35_7_r"
  top: "InceptionResnetV2_InceptionResnetV2_Repeat_block35_8_Branch_2_Conv2d_0a_1x1"
  convolution_param {
    num_output: 32
    bias_term: false
    group: 1
    pad_h: 0
    pad_w: 0
    kernel_h: 1
    kernel_w: 1
    stride_h: 1
    stride_w: 1
  }
}
layer {
  name: "BatchNorm:HK"
  type: "BatchNorm"
  bottom: "InceptionResnetV2_InceptionResnetV2_Repeat_block35_8_Branch_2_Conv2d_0a_1x1"
  top: "InceptionResnetV2_InceptionResnetV2_Repeat_block35_8_Branch_2_Conv2d_0a_1x1_bn"
  batch_norm_param {
    use_global_stats: true
    eps: 0.0010000000475
  }
}
layer {
  name: "Scale:HL"
  type: "Scale"
  bottom: "InceptionResnetV2_InceptionResnetV2_Repeat_block35_8_Branch_2_Conv2d_0a_1x1_bn"
  top: "InceptionResnetV2_InceptionResnetV2_Repeat_block35_8_Branch_2_Conv2d_0a_1x1_scale"
  scale_param {
    bias_term: true
  }
}
layer {
  name: "ReLU:HM"
  type: "ReLU"
  bottom: "InceptionResnetV2_InceptionResnetV2_Repeat_block35_8_Branch_2_Conv2d_0a_1x1_scale"
  top: "InceptionResnetV2_InceptionResnetV2_Repeat_block35_8_Branch_2_Conv2d_0a_1x1_r"
}
layer {
  name: "Convolution:HN"
  type: "Convolution"
  bottom: "InceptionResnetV2_InceptionResnetV2_Repeat_block35_8_Branch_2_Conv2d_0a_1x1_r"
  top: "InceptionResnetV2_InceptionResnetV2_Repeat_block35_8_Branch_2_Conv2d_0b_3x3"
  convolution_param {
    num_output: 48
    bias_term: false
    group: 1
    pad_h: 1
    pad_w: 1
    kernel_h: 3
    kernel_w: 3
    stride_h: 1
    stride_w: 1
  }
}
layer {
  name: "BatchNorm:HO"
  type: "BatchNorm"
  bottom: "InceptionResnetV2_InceptionResnetV2_Repeat_block35_8_Branch_2_Conv2d_0b_3x3"
  top: "InceptionResnetV2_InceptionResnetV2_Repeat_block35_8_Branch_2_Conv2d_0b_3x3_bn"
  batch_norm_param {
    use_global_stats: true
    eps: 0.0010000000475
  }
}
layer {
  name: "Scale:HP"
  type: "Scale"
  bottom: "InceptionResnetV2_InceptionResnetV2_Repeat_block35_8_Branch_2_Conv2d_0b_3x3_bn"
  top: "InceptionResnetV2_InceptionResnetV2_Repeat_block35_8_Branch_2_Conv2d_0b_3x3_scale"
  scale_param {
    bias_term: true
  }
}
layer {
  name: "ReLU:HQ"
  type: "ReLU"
  bottom: "InceptionResnetV2_InceptionResnetV2_Repeat_block35_8_Branch_2_Conv2d_0b_3x3_scale"
  top: "InceptionResnetV2_InceptionResnetV2_Repeat_block35_8_Branch_2_Conv2d_0b_3x3_r"
}
layer {
  name: "Convolution:HR"
  type: "Convolution"
  bottom: "InceptionResnetV2_InceptionResnetV2_Repeat_block35_8_Branch_2_Conv2d_0b_3x3_r"
  top: "InceptionResnetV2_InceptionResnetV2_Repeat_block35_8_Branch_2_Conv2d_0c_3x3"
  convolution_param {
    num_output: 64
    bias_term: false
    group: 1
    pad_h: 1
    pad_w: 1
    kernel_h: 3
    kernel_w: 3
    stride_h: 1
    stride_w: 1
  }
}
layer {
  name: "BatchNorm:HS"
  type: "BatchNorm"
  bottom: "InceptionResnetV2_InceptionResnetV2_Repeat_block35_8_Branch_2_Conv2d_0c_3x3"
  top: "InceptionResnetV2_InceptionResnetV2_Repeat_block35_8_Branch_2_Conv2d_0c_3x3_bn"
  batch_norm_param {
    use_global_stats: true
    eps: 0.0010000000475
  }
}
layer {
  name: "Scale:HT"
  type: "Scale"
  bottom: "InceptionResnetV2_InceptionResnetV2_Repeat_block35_8_Branch_2_Conv2d_0c_3x3_bn"
  top: "InceptionResnetV2_InceptionResnetV2_Repeat_block35_8_Branch_2_Conv2d_0c_3x3_scale"
  scale_param {
    bias_term: true
  }
}
layer {
  name: "ReLU:HU"
  type: "ReLU"
  bottom: "InceptionResnetV2_InceptionResnetV2_Repeat_block35_8_Branch_2_Conv2d_0c_3x3_scale"
  top: "InceptionResnetV2_InceptionResnetV2_Repeat_block35_8_Branch_2_Conv2d_0c_3x3_r"
}
layer {
  name: "Concat:HV"
  type: "Concat"
  bottom: "InceptionResnetV2_InceptionResnetV2_Repeat_block35_8_Branch_0_Conv2d_1x1_r"
  bottom: "InceptionResnetV2_InceptionResnetV2_Repeat_block35_8_Branch_1_Conv2d_0b_3x3_r"
  bottom: "InceptionResnetV2_InceptionResnetV2_Repeat_block35_8_Branch_2_Conv2d_0c_3x3_r"
  top: "InceptionResnetV2_InceptionResnetV2_Repeat_block35_8_concat"
  concat_param {
    axis: 1
  }
}
layer {
  name: "Convolution:HW"
  type: "Convolution"
  bottom: "InceptionResnetV2_InceptionResnetV2_Repeat_block35_8_concat"
  top: "InceptionResnetV2_InceptionResnetV2_Repeat_block35_8_Conv2d_1x1"
  convolution_param {
    num_output: 320
    bias_term: true
    group: 1
    pad_h: 0
    pad_w: 0
    kernel_h: 1
    kernel_w: 1
    stride_h: 1
    stride_w: 1
  }
}
layer {
  name: "Eltwise:HX"
  type: "Eltwise"
  bottom: "InceptionResnetV2_InceptionResnetV2_Repeat_block35_7_r"
  bottom: "InceptionResnetV2_InceptionResnetV2_Repeat_block35_8_Conv2d_1x1"
  top: "InceptionResnetV2_InceptionResnetV2_Repeat_block35_8"
  eltwise_param {
    operation: SUM
    coeff: 1.0
    coeff: 0.170000001788
  }
}
layer {
  name: "ReLU:HY"
  type: "ReLU"
  bottom: "InceptionResnetV2_InceptionResnetV2_Repeat_block35_8"
  top: "InceptionResnetV2_InceptionResnetV2_Repeat_block35_8_r"
}
layer {
  name: "Convolution:HZ"
  type: "Convolution"
  bottom: "InceptionResnetV2_InceptionResnetV2_Repeat_block35_8_r"
  top: "InceptionResnetV2_InceptionResnetV2_Repeat_block35_9_Branch_0_Conv2d_1x1"
  convolution_param {
    num_output: 32
    bias_term: false
    group: 1
    pad_h: 0
    pad_w: 0
    kernel_h: 1
    kernel_w: 1
    stride_h: 1
    stride_w: 1
  }
}
layer {
  name: "BatchNorm:H0"
  type: "BatchNorm"
  bottom: "InceptionResnetV2_InceptionResnetV2_Repeat_block35_9_Branch_0_Conv2d_1x1"
  top: "InceptionResnetV2_InceptionResnetV2_Repeat_block35_9_Branch_0_Conv2d_1x1_bn"
  batch_norm_param {
    use_global_stats: true
    eps: 0.0010000000475
  }
}
layer {
  name: "Scale:H1"
  type: "Scale"
  bottom: "InceptionResnetV2_InceptionResnetV2_Repeat_block35_9_Branch_0_Conv2d_1x1_bn"
  top: "InceptionResnetV2_InceptionResnetV2_Repeat_block35_9_Branch_0_Conv2d_1x1_scale"
  scale_param {
    bias_term: true
  }
}
layer {
  name: "ReLU:H2"
  type: "ReLU"
  bottom: "InceptionResnetV2_InceptionResnetV2_Repeat_block35_9_Branch_0_Conv2d_1x1_scale"
  top: "InceptionResnetV2_InceptionResnetV2_Repeat_block35_9_Branch_0_Conv2d_1x1_r"
}
layer {
  name: "Convolution:H3"
  type: "Convolution"
  bottom: "InceptionResnetV2_InceptionResnetV2_Repeat_block35_8_r"
  top: "InceptionResnetV2_InceptionResnetV2_Repeat_block35_9_Branch_1_Conv2d_0a_1x1"
  convolution_param {
    num_output: 32
    bias_term: false
    group: 1
    pad_h: 0
    pad_w: 0
    kernel_h: 1
    kernel_w: 1
    stride_h: 1
    stride_w: 1
  }
}
layer {
  name: "BatchNorm:H4"
  type: "BatchNorm"
  bottom: "InceptionResnetV2_InceptionResnetV2_Repeat_block35_9_Branch_1_Conv2d_0a_1x1"
  top: "InceptionResnetV2_InceptionResnetV2_Repeat_block35_9_Branch_1_Conv2d_0a_1x1_bn"
  batch_norm_param {
    use_global_stats: true
    eps: 0.0010000000475
  }
}
layer {
  name: "Scale:H5"
  type: "Scale"
  bottom: "InceptionResnetV2_InceptionResnetV2_Repeat_block35_9_Branch_1_Conv2d_0a_1x1_bn"
  top: "InceptionResnetV2_InceptionResnetV2_Repeat_block35_9_Branch_1_Conv2d_0a_1x1_scale"
  scale_param {
    bias_term: true
  }
}
layer {
  name: "ReLU:H6"
  type: "ReLU"
  bottom: "InceptionResnetV2_InceptionResnetV2_Repeat_block35_9_Branch_1_Conv2d_0a_1x1_scale"
  top: "InceptionResnetV2_InceptionResnetV2_Repeat_block35_9_Branch_1_Conv2d_0a_1x1_r"
}
layer {
  name: "Convolution:H7"
  type: "Convolution"
  bottom: "InceptionResnetV2_InceptionResnetV2_Repeat_block35_9_Branch_1_Conv2d_0a_1x1_r"
  top: "InceptionResnetV2_InceptionResnetV2_Repeat_block35_9_Branch_1_Conv2d_0b_3x3"
  convolution_param {
    num_output: 32
    bias_term: false
    group: 1
    pad_h: 1
    pad_w: 1
    kernel_h: 3
    kernel_w: 3
    stride_h: 1
    stride_w: 1
  }
}
layer {
  name: "BatchNorm:H8"
  type: "BatchNorm"
  bottom: "InceptionResnetV2_InceptionResnetV2_Repeat_block35_9_Branch_1_Conv2d_0b_3x3"
  top: "InceptionResnetV2_InceptionResnetV2_Repeat_block35_9_Branch_1_Conv2d_0b_3x3_bn"
  batch_norm_param {
    use_global_stats: true
    eps: 0.0010000000475
  }
}
layer {
  name: "Scale:H9"
  type: "Scale"
  bottom: "InceptionResnetV2_InceptionResnetV2_Repeat_block35_9_Branch_1_Conv2d_0b_3x3_bn"
  top: "InceptionResnetV2_InceptionResnetV2_Repeat_block35_9_Branch_1_Conv2d_0b_3x3_scale"
  scale_param {
    bias_term: true
  }
}
layer {
  name: "ReLU:IA"
  type: "ReLU"
  bottom: "InceptionResnetV2_InceptionResnetV2_Repeat_block35_9_Branch_1_Conv2d_0b_3x3_scale"
  top: "InceptionResnetV2_InceptionResnetV2_Repeat_block35_9_Branch_1_Conv2d_0b_3x3_r"
}
layer {
  name: "Convolution:IB"
  type: "Convolution"
  bottom: "InceptionResnetV2_InceptionResnetV2_Repeat_block35_8_r"
  top: "InceptionResnetV2_InceptionResnetV2_Repeat_block35_9_Branch_2_Conv2d_0a_1x1"
  convolution_param {
    num_output: 32
    bias_term: false
    group: 1
    pad_h: 0
    pad_w: 0
    kernel_h: 1
    kernel_w: 1
    stride_h: 1
    stride_w: 1
  }
}
layer {
  name: "BatchNorm:IC"
  type: "BatchNorm"
  bottom: "InceptionResnetV2_InceptionResnetV2_Repeat_block35_9_Branch_2_Conv2d_0a_1x1"
  top: "InceptionResnetV2_InceptionResnetV2_Repeat_block35_9_Branch_2_Conv2d_0a_1x1_bn"
  batch_norm_param {
    use_global_stats: true
    eps: 0.0010000000475
  }
}
layer {
  name: "Scale:ID"
  type: "Scale"
  bottom: "InceptionResnetV2_InceptionResnetV2_Repeat_block35_9_Branch_2_Conv2d_0a_1x1_bn"
  top: "InceptionResnetV2_InceptionResnetV2_Repeat_block35_9_Branch_2_Conv2d_0a_1x1_scale"
  scale_param {
    bias_term: true
  }
}
layer {
  name: "ReLU:IE"
  type: "ReLU"
  bottom: "InceptionResnetV2_InceptionResnetV2_Repeat_block35_9_Branch_2_Conv2d_0a_1x1_scale"
  top: "InceptionResnetV2_InceptionResnetV2_Repeat_block35_9_Branch_2_Conv2d_0a_1x1_r"
}
layer {
  name: "Convolution:IF"
  type: "Convolution"
  bottom: "InceptionResnetV2_InceptionResnetV2_Repeat_block35_9_Branch_2_Conv2d_0a_1x1_r"
  top: "InceptionResnetV2_InceptionResnetV2_Repeat_block35_9_Branch_2_Conv2d_0b_3x3"
  convolution_param {
    num_output: 48
    bias_term: false
    group: 1
    pad_h: 1
    pad_w: 1
    kernel_h: 3
    kernel_w: 3
    stride_h: 1
    stride_w: 1
  }
}
layer {
  name: "BatchNorm:IG"
  type: "BatchNorm"
  bottom: "InceptionResnetV2_InceptionResnetV2_Repeat_block35_9_Branch_2_Conv2d_0b_3x3"
  top: "InceptionResnetV2_InceptionResnetV2_Repeat_block35_9_Branch_2_Conv2d_0b_3x3_bn"
  batch_norm_param {
    use_global_stats: true
    eps: 0.0010000000475
  }
}
layer {
  name: "Scale:IH"
  type: "Scale"
  bottom: "InceptionResnetV2_InceptionResnetV2_Repeat_block35_9_Branch_2_Conv2d_0b_3x3_bn"
  top: "InceptionResnetV2_InceptionResnetV2_Repeat_block35_9_Branch_2_Conv2d_0b_3x3_scale"
  scale_param {
    bias_term: true
  }
}
layer {
  name: "ReLU:II"
  type: "ReLU"
  bottom: "InceptionResnetV2_InceptionResnetV2_Repeat_block35_9_Branch_2_Conv2d_0b_3x3_scale"
  top: "InceptionResnetV2_InceptionResnetV2_Repeat_block35_9_Branch_2_Conv2d_0b_3x3_r"
}
layer {
  name: "Convolution:IJ"
  type: "Convolution"
  bottom: "InceptionResnetV2_InceptionResnetV2_Repeat_block35_9_Branch_2_Conv2d_0b_3x3_r"
  top: "InceptionResnetV2_InceptionResnetV2_Repeat_block35_9_Branch_2_Conv2d_0c_3x3"
  convolution_param {
    num_output: 64
    bias_term: false
    group: 1
    pad_h: 1
    pad_w: 1
    kernel_h: 3
    kernel_w: 3
    stride_h: 1
    stride_w: 1
  }
}
layer {
  name: "BatchNorm:IK"
  type: "BatchNorm"
  bottom: "InceptionResnetV2_InceptionResnetV2_Repeat_block35_9_Branch_2_Conv2d_0c_3x3"
  top: "InceptionResnetV2_InceptionResnetV2_Repeat_block35_9_Branch_2_Conv2d_0c_3x3_bn"
  batch_norm_param {
    use_global_stats: true
    eps: 0.0010000000475
  }
}
layer {
  name: "Scale:IL"
  type: "Scale"
  bottom: "InceptionResnetV2_InceptionResnetV2_Repeat_block35_9_Branch_2_Conv2d_0c_3x3_bn"
  top: "InceptionResnetV2_InceptionResnetV2_Repeat_block35_9_Branch_2_Conv2d_0c_3x3_scale"
  scale_param {
    bias_term: true
  }
}
layer {
  name: "ReLU:IM"
  type: "ReLU"
  bottom: "InceptionResnetV2_InceptionResnetV2_Repeat_block35_9_Branch_2_Conv2d_0c_3x3_scale"
  top: "InceptionResnetV2_InceptionResnetV2_Repeat_block35_9_Branch_2_Conv2d_0c_3x3_r"
}
layer {
  name: "Concat:IN"
  type: "Concat"
  bottom: "InceptionResnetV2_InceptionResnetV2_Repeat_block35_9_Branch_0_Conv2d_1x1_r"
  bottom: "InceptionResnetV2_InceptionResnetV2_Repeat_block35_9_Branch_1_Conv2d_0b_3x3_r"
  bottom: "InceptionResnetV2_InceptionResnetV2_Repeat_block35_9_Branch_2_Conv2d_0c_3x3_r"
  top: "InceptionResnetV2_InceptionResnetV2_Repeat_block35_9_concat"
  concat_param {
    axis: 1
  }
}
layer {
  name: "Convolution:IO"
  type: "Convolution"
  bottom: "InceptionResnetV2_InceptionResnetV2_Repeat_block35_9_concat"
  top: "InceptionResnetV2_InceptionResnetV2_Repeat_block35_9_Conv2d_1x1"
  convolution_param {
    num_output: 320
    bias_term: true
    group: 1
    pad_h: 0
    pad_w: 0
    kernel_h: 1
    kernel_w: 1
    stride_h: 1
    stride_w: 1
  }
}
layer {
  name: "Eltwise:IP"
  type: "Eltwise"
  bottom: "InceptionResnetV2_InceptionResnetV2_Repeat_block35_8_r"
  bottom: "InceptionResnetV2_InceptionResnetV2_Repeat_block35_9_Conv2d_1x1"
  top: "InceptionResnetV2_InceptionResnetV2_Repeat_block35_9"
  eltwise_param {
    operation: SUM
    coeff: 1.0
    coeff: 0.170000001788
  }
}
layer {
  name: "ReLU:IQ"
  type: "ReLU"
  bottom: "InceptionResnetV2_InceptionResnetV2_Repeat_block35_9"
  top: "InceptionResnetV2_InceptionResnetV2_Repeat_block35_9_r"
}
layer {
  name: "Convolution:IR"
  type: "Convolution"
  bottom: "InceptionResnetV2_InceptionResnetV2_Repeat_block35_9_r"
  top: "InceptionResnetV2_InceptionResnetV2_Repeat_block35_10_Branch_0_Conv2d_1x1"
  convolution_param {
    num_output: 32
    bias_term: false
    group: 1
    pad_h: 0
    pad_w: 0
    kernel_h: 1
    kernel_w: 1
    stride_h: 1
    stride_w: 1
  }
}
layer {
  name: "BatchNorm:IS"
  type: "BatchNorm"
  bottom: "InceptionResnetV2_InceptionResnetV2_Repeat_block35_10_Branch_0_Conv2d_1x1"
  top: "InceptionResnetV2_InceptionResnetV2_Repeat_block35_10_Branch_0_Conv2d_1x1_bn"
  batch_norm_param {
    use_global_stats: true
    eps: 0.0010000000475
  }
}
layer {
  name: "Scale:IT"
  type: "Scale"
  bottom: "InceptionResnetV2_InceptionResnetV2_Repeat_block35_10_Branch_0_Conv2d_1x1_bn"
  top: "InceptionResnetV2_InceptionResnetV2_Repeat_block35_10_Branch_0_Conv2d_1x1_scale"
  scale_param {
    bias_term: true
  }
}
layer {
  name: "ReLU:IU"
  type: "ReLU"
  bottom: "InceptionResnetV2_InceptionResnetV2_Repeat_block35_10_Branch_0_Conv2d_1x1_scale"
  top: "InceptionResnetV2_InceptionResnetV2_Repeat_block35_10_Branch_0_Conv2d_1x1_r"
}
layer {
  name: "Convolution:IV"
  type: "Convolution"
  bottom: "InceptionResnetV2_InceptionResnetV2_Repeat_block35_9_r"
  top: "InceptionResnetV2_InceptionResnetV2_Repeat_block35_10_Branch_1_Conv2d_0a_1x1"
  convolution_param {
    num_output: 32
    bias_term: false
    group: 1
    pad_h: 0
    pad_w: 0
    kernel_h: 1
    kernel_w: 1
    stride_h: 1
    stride_w: 1
  }
}
layer {
  name: "BatchNorm:IW"
  type: "BatchNorm"
  bottom: "InceptionResnetV2_InceptionResnetV2_Repeat_block35_10_Branch_1_Conv2d_0a_1x1"
  top: "InceptionResnetV2_InceptionResnetV2_Repeat_block35_10_Branch_1_Conv2d_0a_1x1_bn"
  batch_norm_param {
    use_global_stats: true
    eps: 0.0010000000475
  }
}
layer {
  name: "Scale:IX"
  type: "Scale"
  bottom: "InceptionResnetV2_InceptionResnetV2_Repeat_block35_10_Branch_1_Conv2d_0a_1x1_bn"
  top: "InceptionResnetV2_InceptionResnetV2_Repeat_block35_10_Branch_1_Conv2d_0a_1x1_scale"
  scale_param {
    bias_term: true
  }
}
layer {
  name: "ReLU:IY"
  type: "ReLU"
  bottom: "InceptionResnetV2_InceptionResnetV2_Repeat_block35_10_Branch_1_Conv2d_0a_1x1_scale"
  top: "InceptionResnetV2_InceptionResnetV2_Repeat_block35_10_Branch_1_Conv2d_0a_1x1_r"
}
layer {
  name: "Convolution:IZ"
  type: "Convolution"
  bottom: "InceptionResnetV2_InceptionResnetV2_Repeat_block35_10_Branch_1_Conv2d_0a_1x1_r"
  top: "InceptionResnetV2_InceptionResnetV2_Repeat_block35_10_Branch_1_Conv2d_0b_3x3"
  convolution_param {
    num_output: 32
    bias_term: false
    group: 1
    pad_h: 1
    pad_w: 1
    kernel_h: 3
    kernel_w: 3
    stride_h: 1
    stride_w: 1
  }
}
layer {
  name: "BatchNorm:I0"
  type: "BatchNorm"
  bottom: "InceptionResnetV2_InceptionResnetV2_Repeat_block35_10_Branch_1_Conv2d_0b_3x3"
  top: "InceptionResnetV2_InceptionResnetV2_Repeat_block35_10_Branch_1_Conv2d_0b_3x3_bn"
  batch_norm_param {
    use_global_stats: true
    eps: 0.0010000000475
  }
}
layer {
  name: "Scale:I1"
  type: "Scale"
  bottom: "InceptionResnetV2_InceptionResnetV2_Repeat_block35_10_Branch_1_Conv2d_0b_3x3_bn"
  top: "InceptionResnetV2_InceptionResnetV2_Repeat_block35_10_Branch_1_Conv2d_0b_3x3_scale"
  scale_param {
    bias_term: true
  }
}
layer {
  name: "ReLU:I2"
  type: "ReLU"
  bottom: "InceptionResnetV2_InceptionResnetV2_Repeat_block35_10_Branch_1_Conv2d_0b_3x3_scale"
  top: "InceptionResnetV2_InceptionResnetV2_Repeat_block35_10_Branch_1_Conv2d_0b_3x3_r"
}
layer {
  name: "Convolution:I3"
  type: "Convolution"
  bottom: "InceptionResnetV2_InceptionResnetV2_Repeat_block35_9_r"
  top: "InceptionResnetV2_InceptionResnetV2_Repeat_block35_10_Branch_2_Conv2d_0a_1x1"
  convolution_param {
    num_output: 32
    bias_term: false
    group: 1
    pad_h: 0
    pad_w: 0
    kernel_h: 1
    kernel_w: 1
    stride_h: 1
    stride_w: 1
  }
}
layer {
  name: "BatchNorm:I4"
  type: "BatchNorm"
  bottom: "InceptionResnetV2_InceptionResnetV2_Repeat_block35_10_Branch_2_Conv2d_0a_1x1"
  top: "InceptionResnetV2_InceptionResnetV2_Repeat_block35_10_Branch_2_Conv2d_0a_1x1_bn"
  batch_norm_param {
    use_global_stats: true
    eps: 0.0010000000475
  }
}
layer {
  name: "Scale:I5"
  type: "Scale"
  bottom: "InceptionResnetV2_InceptionResnetV2_Repeat_block35_10_Branch_2_Conv2d_0a_1x1_bn"
  top: "InceptionResnetV2_InceptionResnetV2_Repeat_block35_10_Branch_2_Conv2d_0a_1x1_scale"
  scale_param {
    bias_term: true
  }
}
layer {
  name: "ReLU:I6"
  type: "ReLU"
  bottom: "InceptionResnetV2_InceptionResnetV2_Repeat_block35_10_Branch_2_Conv2d_0a_1x1_scale"
  top: "InceptionResnetV2_InceptionResnetV2_Repeat_block35_10_Branch_2_Conv2d_0a_1x1_r"
}
layer {
  name: "Convolution:I7"
  type: "Convolution"
  bottom: "InceptionResnetV2_InceptionResnetV2_Repeat_block35_10_Branch_2_Conv2d_0a_1x1_r"
  top: "InceptionResnetV2_InceptionResnetV2_Repeat_block35_10_Branch_2_Conv2d_0b_3x3"
  convolution_param {
    num_output: 48
    bias_term: false
    group: 1
    pad_h: 1
    pad_w: 1
    kernel_h: 3
    kernel_w: 3
    stride_h: 1
    stride_w: 1
  }
}
layer {
  name: "BatchNorm:I8"
  type: "BatchNorm"
  bottom: "InceptionResnetV2_InceptionResnetV2_Repeat_block35_10_Branch_2_Conv2d_0b_3x3"
  top: "InceptionResnetV2_InceptionResnetV2_Repeat_block35_10_Branch_2_Conv2d_0b_3x3_bn"
  batch_norm_param {
    use_global_stats: true
    eps: 0.0010000000475
  }
}
layer {
  name: "Scale:I9"
  type: "Scale"
  bottom: "InceptionResnetV2_InceptionResnetV2_Repeat_block35_10_Branch_2_Conv2d_0b_3x3_bn"
  top: "InceptionResnetV2_InceptionResnetV2_Repeat_block35_10_Branch_2_Conv2d_0b_3x3_scale"
  scale_param {
    bias_term: true
  }
}
layer {
  name: "ReLU:JA"
  type: "ReLU"
  bottom: "InceptionResnetV2_InceptionResnetV2_Repeat_block35_10_Branch_2_Conv2d_0b_3x3_scale"
  top: "InceptionResnetV2_InceptionResnetV2_Repeat_block35_10_Branch_2_Conv2d_0b_3x3_r"
}
layer {
  name: "Convolution:JB"
  type: "Convolution"
  bottom: "InceptionResnetV2_InceptionResnetV2_Repeat_block35_10_Branch_2_Conv2d_0b_3x3_r"
  top: "InceptionResnetV2_InceptionResnetV2_Repeat_block35_10_Branch_2_Conv2d_0c_3x3"
  convolution_param {
    num_output: 64
    bias_term: false
    group: 1
    pad_h: 1
    pad_w: 1
    kernel_h: 3
    kernel_w: 3
    stride_h: 1
    stride_w: 1
  }
}
layer {
  name: "BatchNorm:JC"
  type: "BatchNorm"
  bottom: "InceptionResnetV2_InceptionResnetV2_Repeat_block35_10_Branch_2_Conv2d_0c_3x3"
  top: "InceptionResnetV2_InceptionResnetV2_Repeat_block35_10_Branch_2_Conv2d_0c_3x3_bn"
  batch_norm_param {
    use_global_stats: true
    eps: 0.0010000000475
  }
}
layer {
  name: "Scale:JD"
  type: "Scale"
  bottom: "InceptionResnetV2_InceptionResnetV2_Repeat_block35_10_Branch_2_Conv2d_0c_3x3_bn"
  top: "InceptionResnetV2_InceptionResnetV2_Repeat_block35_10_Branch_2_Conv2d_0c_3x3_scale"
  scale_param {
    bias_term: true
  }
}
layer {
  name: "ReLU:JE"
  type: "ReLU"
  bottom: "InceptionResnetV2_InceptionResnetV2_Repeat_block35_10_Branch_2_Conv2d_0c_3x3_scale"
  top: "InceptionResnetV2_InceptionResnetV2_Repeat_block35_10_Branch_2_Conv2d_0c_3x3_r"
}
layer {
  name: "Concat:JF"
  type: "Concat"
  bottom: "InceptionResnetV2_InceptionResnetV2_Repeat_block35_10_Branch_0_Conv2d_1x1_r"
  bottom: "InceptionResnetV2_InceptionResnetV2_Repeat_block35_10_Branch_1_Conv2d_0b_3x3_r"
  bottom: "InceptionResnetV2_InceptionResnetV2_Repeat_block35_10_Branch_2_Conv2d_0c_3x3_r"
  top: "InceptionResnetV2_InceptionResnetV2_Repeat_block35_10_concat"
  concat_param {
    axis: 1
  }
}
layer {
  name: "Convolution:JG"
  type: "Convolution"
  bottom: "InceptionResnetV2_InceptionResnetV2_Repeat_block35_10_concat"
  top: "InceptionResnetV2_InceptionResnetV2_Repeat_block35_10_Conv2d_1x1"
  convolution_param {
    num_output: 320
    bias_term: true
    group: 1
    pad_h: 0
    pad_w: 0
    kernel_h: 1
    kernel_w: 1
    stride_h: 1
    stride_w: 1
  }
}
layer {
  name: "Eltwise:JH"
  type: "Eltwise"
  bottom: "InceptionResnetV2_InceptionResnetV2_Repeat_block35_9_r"
  bottom: "InceptionResnetV2_InceptionResnetV2_Repeat_block35_10_Conv2d_1x1"
  top: "InceptionResnetV2_InceptionResnetV2_Repeat_block35_10"
  eltwise_param {
    operation: SUM
    coeff: 1.0
    coeff: 0.170000001788
  }
}
layer {
  name: "ReLU:JI"
  type: "ReLU"
  bottom: "InceptionResnetV2_InceptionResnetV2_Repeat_block35_10"
  top: "InceptionResnetV2_InceptionResnetV2_Repeat_block35_10_r"
}
layer {
  name: "Convolution:JJ"
  type: "Convolution"
  bottom: "InceptionResnetV2_InceptionResnetV2_Repeat_block35_10_r"
  top: "InceptionResnetV2_InceptionResnetV2_Mixed_6a_Branch_0_Conv2d_1a_3x3"
  convolution_param {
    num_output: 384
    bias_term: false
    group: 1
    pad_h: 0
    pad_w: 0
    kernel_h: 3
    kernel_w: 3
    stride_h: 2
    stride_w: 2
  }
}
layer {
  name: "BatchNorm:JK"
  type: "BatchNorm"
  bottom: "InceptionResnetV2_InceptionResnetV2_Mixed_6a_Branch_0_Conv2d_1a_3x3"
  top: "InceptionResnetV2_InceptionResnetV2_Mixed_6a_Branch_0_Conv2d_1a_3x3_bn"
  batch_norm_param {
    use_global_stats: true
    eps: 0.0010000000475
  }
}
layer {
  name: "Scale:JL"
  type: "Scale"
  bottom: "InceptionResnetV2_InceptionResnetV2_Mixed_6a_Branch_0_Conv2d_1a_3x3_bn"
  top: "InceptionResnetV2_InceptionResnetV2_Mixed_6a_Branch_0_Conv2d_1a_3x3_scale"
  scale_param {
    bias_term: true
  }
}
layer {
  name: "ReLU:JM"
  type: "ReLU"
  bottom: "InceptionResnetV2_InceptionResnetV2_Mixed_6a_Branch_0_Conv2d_1a_3x3_scale"
  top: "InceptionResnetV2_InceptionResnetV2_Mixed_6a_Branch_0_Conv2d_1a_3x3_r"
}
layer {
  name: "Convolution:JN"
  type: "Convolution"
  bottom: "InceptionResnetV2_InceptionResnetV2_Repeat_block35_10_r"
  top: "InceptionResnetV2_InceptionResnetV2_Mixed_6a_Branch_1_Conv2d_0a_1x1"
  convolution_param {
    num_output: 256
    bias_term: false
    group: 1
    pad_h: 0
    pad_w: 0
    kernel_h: 1
    kernel_w: 1
    stride_h: 1
    stride_w: 1
  }
}
layer {
  name: "BatchNorm:JO"
  type: "BatchNorm"
  bottom: "InceptionResnetV2_InceptionResnetV2_Mixed_6a_Branch_1_Conv2d_0a_1x1"
  top: "InceptionResnetV2_InceptionResnetV2_Mixed_6a_Branch_1_Conv2d_0a_1x1_bn"
  batch_norm_param {
    use_global_stats: true
    eps: 0.0010000000475
  }
}
layer {
  name: "Scale:JP"
  type: "Scale"
  bottom: "InceptionResnetV2_InceptionResnetV2_Mixed_6a_Branch_1_Conv2d_0a_1x1_bn"
  top: "InceptionResnetV2_InceptionResnetV2_Mixed_6a_Branch_1_Conv2d_0a_1x1_scale"
  scale_param {
    bias_term: true
  }
}
layer {
  name: "ReLU:JQ"
  type: "ReLU"
  bottom: "InceptionResnetV2_InceptionResnetV2_Mixed_6a_Branch_1_Conv2d_0a_1x1_scale"
  top: "InceptionResnetV2_InceptionResnetV2_Mixed_6a_Branch_1_Conv2d_0a_1x1_r"
}
layer {
  name: "Convolution:JR"
  type: "Convolution"
  bottom: "InceptionResnetV2_InceptionResnetV2_Mixed_6a_Branch_1_Conv2d_0a_1x1_r"
  top: "InceptionResnetV2_InceptionResnetV2_Mixed_6a_Branch_1_Conv2d_0b_3x3"
  convolution_param {
    num_output: 256
    bias_term: false
    group: 1
    pad_h: 1
    pad_w: 1
    kernel_h: 3
    kernel_w: 3
    stride_h: 1
    stride_w: 1
  }
}
layer {
  name: "BatchNorm:JS"
  type: "BatchNorm"
  bottom: "InceptionResnetV2_InceptionResnetV2_Mixed_6a_Branch_1_Conv2d_0b_3x3"
  top: "InceptionResnetV2_InceptionResnetV2_Mixed_6a_Branch_1_Conv2d_0b_3x3_bn"
  batch_norm_param {
    use_global_stats: true
    eps: 0.0010000000475
  }
}
layer {
  name: "Scale:JT"
  type: "Scale"
  bottom: "InceptionResnetV2_InceptionResnetV2_Mixed_6a_Branch_1_Conv2d_0b_3x3_bn"
  top: "InceptionResnetV2_InceptionResnetV2_Mixed_6a_Branch_1_Conv2d_0b_3x3_scale"
  scale_param {
    bias_term: true
  }
}
layer {
  name: "ReLU:JU"
  type: "ReLU"
  bottom: "InceptionResnetV2_InceptionResnetV2_Mixed_6a_Branch_1_Conv2d_0b_3x3_scale"
  top: "InceptionResnetV2_InceptionResnetV2_Mixed_6a_Branch_1_Conv2d_0b_3x3_r"
}
layer {
  name: "Convolution:JV"
  type: "Convolution"
  bottom: "InceptionResnetV2_InceptionResnetV2_Mixed_6a_Branch_1_Conv2d_0b_3x3_r"
  top: "InceptionResnetV2_InceptionResnetV2_Mixed_6a_Branch_1_Conv2d_1a_3x3"
  convolution_param {
    num_output: 384
    bias_term: false
    group: 1
    pad_h: 0
    pad_w: 0
    kernel_h: 3
    kernel_w: 3
    stride_h: 2
    stride_w: 2
  }
}
layer {
  name: "BatchNorm:JW"
  type: "BatchNorm"
  bottom: "InceptionResnetV2_InceptionResnetV2_Mixed_6a_Branch_1_Conv2d_1a_3x3"
  top: "InceptionResnetV2_InceptionResnetV2_Mixed_6a_Branch_1_Conv2d_1a_3x3_bn"
  batch_norm_param {
    use_global_stats: true
    eps: 0.0010000000475
  }
}
layer {
  name: "Scale:JX"
  type: "Scale"
  bottom: "InceptionResnetV2_InceptionResnetV2_Mixed_6a_Branch_1_Conv2d_1a_3x3_bn"
  top: "InceptionResnetV2_InceptionResnetV2_Mixed_6a_Branch_1_Conv2d_1a_3x3_scale"
  scale_param {
    bias_term: true
  }
}
layer {
  name: "ReLU:JY"
  type: "ReLU"
  bottom: "InceptionResnetV2_InceptionResnetV2_Mixed_6a_Branch_1_Conv2d_1a_3x3_scale"
  top: "InceptionResnetV2_InceptionResnetV2_Mixed_6a_Branch_1_Conv2d_1a_3x3_r"
}
layer {
  name: "Pooling:JZ"
  type: "Pooling"
  bottom: "InceptionResnetV2_InceptionResnetV2_Repeat_block35_10_r"
  top: "InceptionResnetV2_InceptionResnetV2_Mixed_6a_Branch_2_MaxPool_1a_3x3_MaxPool"
  pooling_param {
    pool: MAX
    kernel_h: 3
    kernel_w: 3
    stride_h: 2
    stride_w: 2
    pad_h: 0
    pad_w: 0
  }
}
layer {
  name: "Concat:J0"
  type: "Concat"
  bottom: "InceptionResnetV2_InceptionResnetV2_Mixed_6a_Branch_0_Conv2d_1a_3x3_r"
  bottom: "InceptionResnetV2_InceptionResnetV2_Mixed_6a_Branch_1_Conv2d_1a_3x3_r"
  bottom: "InceptionResnetV2_InceptionResnetV2_Mixed_6a_Branch_2_MaxPool_1a_3x3_MaxPool"
  top: "InceptionResnetV2_InceptionResnetV2_Mixed_6a_concat"
  concat_param {
    axis: 1
  }
}
layer {
  name: "Convolution:J1"
  type: "Convolution"
  bottom: "InceptionResnetV2_InceptionResnetV2_Mixed_6a_concat"
  top: "InceptionResnetV2_InceptionResnetV2_Repeat_1_block17_1_Branch_0_Conv2d_1x1"
  convolution_param {
    num_output: 192
    bias_term: false
    group: 1
    pad_h: 0
    pad_w: 0
    kernel_h: 1
    kernel_w: 1
    stride_h: 1
    stride_w: 1
  }
}
layer {
  name: "BatchNorm:J2"
  type: "BatchNorm"
  bottom: "InceptionResnetV2_InceptionResnetV2_Repeat_1_block17_1_Branch_0_Conv2d_1x1"
  top: "InceptionResnetV2_InceptionResnetV2_Repeat_1_block17_1_Branch_0_Conv2d_1x1_bn"
  batch_norm_param {
    use_global_stats: true
    eps: 0.0010000000475
  }
}
layer {
  name: "Scale:J3"
  type: "Scale"
  bottom: "InceptionResnetV2_InceptionResnetV2_Repeat_1_block17_1_Branch_0_Conv2d_1x1_bn"
  top: "InceptionResnetV2_InceptionResnetV2_Repeat_1_block17_1_Branch_0_Conv2d_1x1_scale"
  scale_param {
    bias_term: true
  }
}
layer {
  name: "ReLU:J4"
  type: "ReLU"
  bottom: "InceptionResnetV2_InceptionResnetV2_Repeat_1_block17_1_Branch_0_Conv2d_1x1_scale"
  top: "InceptionResnetV2_InceptionResnetV2_Repeat_1_block17_1_Branch_0_Conv2d_1x1_r"
}
layer {
  name: "Convolution:J5"
  type: "Convolution"
  bottom: "InceptionResnetV2_InceptionResnetV2_Mixed_6a_concat"
  top: "InceptionResnetV2_InceptionResnetV2_Repeat_1_block17_1_Branch_1_Conv2d_0a_1x1"
  convolution_param {
    num_output: 128
    bias_term: false
    group: 1
    pad_h: 0
    pad_w: 0
    kernel_h: 1
    kernel_w: 1
    stride_h: 1
    stride_w: 1
  }
}
layer {
  name: "BatchNorm:J6"
  type: "BatchNorm"
  bottom: "InceptionResnetV2_InceptionResnetV2_Repeat_1_block17_1_Branch_1_Conv2d_0a_1x1"
  top: "InceptionResnetV2_InceptionResnetV2_Repeat_1_block17_1_Branch_1_Conv2d_0a_1x1_bn"
  batch_norm_param {
    use_global_stats: true
    eps: 0.0010000000475
  }
}
layer {
  name: "Scale:J7"
  type: "Scale"
  bottom: "InceptionResnetV2_InceptionResnetV2_Repeat_1_block17_1_Branch_1_Conv2d_0a_1x1_bn"
  top: "InceptionResnetV2_InceptionResnetV2_Repeat_1_block17_1_Branch_1_Conv2d_0a_1x1_scale"
  scale_param {
    bias_term: true
  }
}
layer {
  name: "ReLU:J8"
  type: "ReLU"
  bottom: "InceptionResnetV2_InceptionResnetV2_Repeat_1_block17_1_Branch_1_Conv2d_0a_1x1_scale"
  top: "InceptionResnetV2_InceptionResnetV2_Repeat_1_block17_1_Branch_1_Conv2d_0a_1x1_r"
}
layer {
  name: "Convolution:J9"
  type: "Convolution"
  bottom: "InceptionResnetV2_InceptionResnetV2_Repeat_1_block17_1_Branch_1_Conv2d_0a_1x1_r"
  top: "InceptionResnetV2_InceptionResnetV2_Repeat_1_block17_1_Branch_1_Conv2d_0b_1x7"
  convolution_param {
    num_output: 160
    bias_term: false
    group: 1
    pad_h: 0
    pad_w: 3
    kernel_h: 1
    kernel_w: 7
    stride_h: 1
    stride_w: 1
  }
}
layer {
  name: "BatchNorm:KA"
  type: "BatchNorm"
  bottom: "InceptionResnetV2_InceptionResnetV2_Repeat_1_block17_1_Branch_1_Conv2d_0b_1x7"
  top: "InceptionResnetV2_InceptionResnetV2_Repeat_1_block17_1_Branch_1_Conv2d_0b_1x7_bn"
  batch_norm_param {
    use_global_stats: true
    eps: 0.0010000000475
  }
}
layer {
  name: "Scale:KB"
  type: "Scale"
  bottom: "InceptionResnetV2_InceptionResnetV2_Repeat_1_block17_1_Branch_1_Conv2d_0b_1x7_bn"
  top: "InceptionResnetV2_InceptionResnetV2_Repeat_1_block17_1_Branch_1_Conv2d_0b_1x7_scale"
  scale_param {
    bias_term: true
  }
}
layer {
  name: "ReLU:KC"
  type: "ReLU"
  bottom: "InceptionResnetV2_InceptionResnetV2_Repeat_1_block17_1_Branch_1_Conv2d_0b_1x7_scale"
  top: "InceptionResnetV2_InceptionResnetV2_Repeat_1_block17_1_Branch_1_Conv2d_0b_1x7_r"
}
layer {
  name: "Convolution:KD"
  type: "Convolution"
  bottom: "InceptionResnetV2_InceptionResnetV2_Repeat_1_block17_1_Branch_1_Conv2d_0b_1x7_r"
  top: "InceptionResnetV2_InceptionResnetV2_Repeat_1_block17_1_Branch_1_Conv2d_0c_7x1"
  convolution_param {
    num_output: 192
    bias_term: false
    group: 1
    pad_h: 3
    pad_w: 0
    kernel_h: 7
    kernel_w: 1
    stride_h: 1
    stride_w: 1
  }
}
layer {
  name: "BatchNorm:KE"
  type: "BatchNorm"
  bottom: "InceptionResnetV2_InceptionResnetV2_Repeat_1_block17_1_Branch_1_Conv2d_0c_7x1"
  top: "InceptionResnetV2_InceptionResnetV2_Repeat_1_block17_1_Branch_1_Conv2d_0c_7x1_bn"
  batch_norm_param {
    use_global_stats: true
    eps: 0.0010000000475
  }
}
layer {
  name: "Scale:KF"
  type: "Scale"
  bottom: "InceptionResnetV2_InceptionResnetV2_Repeat_1_block17_1_Branch_1_Conv2d_0c_7x1_bn"
  top: "InceptionResnetV2_InceptionResnetV2_Repeat_1_block17_1_Branch_1_Conv2d_0c_7x1_scale"
  scale_param {
    bias_term: true
  }
}
layer {
  name: "ReLU:KG"
  type: "ReLU"
  bottom: "InceptionResnetV2_InceptionResnetV2_Repeat_1_block17_1_Branch_1_Conv2d_0c_7x1_scale"
  top: "InceptionResnetV2_InceptionResnetV2_Repeat_1_block17_1_Branch_1_Conv2d_0c_7x1_r"
}
layer {
  name: "Concat:KH"
  type: "Concat"
  bottom: "InceptionResnetV2_InceptionResnetV2_Repeat_1_block17_1_Branch_0_Conv2d_1x1_r"
  bottom: "InceptionResnetV2_InceptionResnetV2_Repeat_1_block17_1_Branch_1_Conv2d_0c_7x1_r"
  top: "InceptionResnetV2_InceptionResnetV2_Repeat_1_block17_1_concat"
  concat_param {
    axis: 1
  }
}
layer {
  name: "Convolution:KI"
  type: "Convolution"
  bottom: "InceptionResnetV2_InceptionResnetV2_Repeat_1_block17_1_concat"
  top: "InceptionResnetV2_InceptionResnetV2_Repeat_1_block17_1_Conv2d_1x1"
  convolution_param {
    num_output: 1088
    bias_term: true
    group: 1
    pad_h: 0
    pad_w: 0
    kernel_h: 1
    kernel_w: 1
    stride_h: 1
    stride_w: 1
  }
}
layer {
  name: "Eltwise:KJ"
  type: "Eltwise"
  bottom: "InceptionResnetV2_InceptionResnetV2_Mixed_6a_concat"
  bottom: "InceptionResnetV2_InceptionResnetV2_Repeat_1_block17_1_Conv2d_1x1"
  top: "InceptionResnetV2_InceptionResnetV2_Repeat_1_block17_1"
  eltwise_param {
    operation: SUM
    coeff: 1.0
    coeff: 0.10000000149
  }
}
layer {
  name: "ReLU:KK"
  type: "ReLU"
  bottom: "InceptionResnetV2_InceptionResnetV2_Repeat_1_block17_1"
  top: "InceptionResnetV2_InceptionResnetV2_Repeat_1_block17_1_r"
}
layer {
  name: "Convolution:KL"
  type: "Convolution"
  bottom: "InceptionResnetV2_InceptionResnetV2_Repeat_1_block17_1_r"
  top: "InceptionResnetV2_InceptionResnetV2_Repeat_1_block17_2_Branch_0_Conv2d_1x1"
  convolution_param {
    num_output: 192
    bias_term: false
    group: 1
    pad_h: 0
    pad_w: 0
    kernel_h: 1
    kernel_w: 1
    stride_h: 1
    stride_w: 1
  }
}
layer {
  name: "BatchNorm:KM"
  type: "BatchNorm"
  bottom: "InceptionResnetV2_InceptionResnetV2_Repeat_1_block17_2_Branch_0_Conv2d_1x1"
  top: "InceptionResnetV2_InceptionResnetV2_Repeat_1_block17_2_Branch_0_Conv2d_1x1_bn"
  batch_norm_param {
    use_global_stats: true
    eps: 0.0010000000475
  }
}
layer {
  name: "Scale:KN"
  type: "Scale"
  bottom: "InceptionResnetV2_InceptionResnetV2_Repeat_1_block17_2_Branch_0_Conv2d_1x1_bn"
  top: "InceptionResnetV2_InceptionResnetV2_Repeat_1_block17_2_Branch_0_Conv2d_1x1_scale"
  scale_param {
    bias_term: true
  }
}
layer {
  name: "ReLU:KO"
  type: "ReLU"
  bottom: "InceptionResnetV2_InceptionResnetV2_Repeat_1_block17_2_Branch_0_Conv2d_1x1_scale"
  top: "InceptionResnetV2_InceptionResnetV2_Repeat_1_block17_2_Branch_0_Conv2d_1x1_r"
}
layer {
  name: "Convolution:KP"
  type: "Convolution"
  bottom: "InceptionResnetV2_InceptionResnetV2_Repeat_1_block17_1_r"
  top: "InceptionResnetV2_InceptionResnetV2_Repeat_1_block17_2_Branch_1_Conv2d_0a_1x1"
  convolution_param {
    num_output: 128
    bias_term: false
    group: 1
    pad_h: 0
    pad_w: 0
    kernel_h: 1
    kernel_w: 1
    stride_h: 1
    stride_w: 1
  }
}
layer {
  name: "BatchNorm:KQ"
  type: "BatchNorm"
  bottom: "InceptionResnetV2_InceptionResnetV2_Repeat_1_block17_2_Branch_1_Conv2d_0a_1x1"
  top: "InceptionResnetV2_InceptionResnetV2_Repeat_1_block17_2_Branch_1_Conv2d_0a_1x1_bn"
  batch_norm_param {
    use_global_stats: true
    eps: 0.0010000000475
  }
}
layer {
  name: "Scale:KR"
  type: "Scale"
  bottom: "InceptionResnetV2_InceptionResnetV2_Repeat_1_block17_2_Branch_1_Conv2d_0a_1x1_bn"
  top: "InceptionResnetV2_InceptionResnetV2_Repeat_1_block17_2_Branch_1_Conv2d_0a_1x1_scale"
  scale_param {
    bias_term: true
  }
}
layer {
  name: "ReLU:KS"
  type: "ReLU"
  bottom: "InceptionResnetV2_InceptionResnetV2_Repeat_1_block17_2_Branch_1_Conv2d_0a_1x1_scale"
  top: "InceptionResnetV2_InceptionResnetV2_Repeat_1_block17_2_Branch_1_Conv2d_0a_1x1_r"
}
layer {
  name: "Convolution:KT"
  type: "Convolution"
  bottom: "InceptionResnetV2_InceptionResnetV2_Repeat_1_block17_2_Branch_1_Conv2d_0a_1x1_r"
  top: "InceptionResnetV2_InceptionResnetV2_Repeat_1_block17_2_Branch_1_Conv2d_0b_1x7"
  convolution_param {
    num_output: 160
    bias_term: false
    group: 1
    pad_h: 0
    pad_w: 3
    kernel_h: 1
    kernel_w: 7
    stride_h: 1
    stride_w: 1
  }
}
layer {
  name: "BatchNorm:KU"
  type: "BatchNorm"
  bottom: "InceptionResnetV2_InceptionResnetV2_Repeat_1_block17_2_Branch_1_Conv2d_0b_1x7"
  top: "InceptionResnetV2_InceptionResnetV2_Repeat_1_block17_2_Branch_1_Conv2d_0b_1x7_bn"
  batch_norm_param {
    use_global_stats: true
    eps: 0.0010000000475
  }
}
layer {
  name: "Scale:KV"
  type: "Scale"
  bottom: "InceptionResnetV2_InceptionResnetV2_Repeat_1_block17_2_Branch_1_Conv2d_0b_1x7_bn"
  top: "InceptionResnetV2_InceptionResnetV2_Repeat_1_block17_2_Branch_1_Conv2d_0b_1x7_scale"
  scale_param {
    bias_term: true
  }
}
layer {
  name: "ReLU:KW"
  type: "ReLU"
  bottom: "InceptionResnetV2_InceptionResnetV2_Repeat_1_block17_2_Branch_1_Conv2d_0b_1x7_scale"
  top: "InceptionResnetV2_InceptionResnetV2_Repeat_1_block17_2_Branch_1_Conv2d_0b_1x7_r"
}
layer {
  name: "Convolution:KX"
  type: "Convolution"
  bottom: "InceptionResnetV2_InceptionResnetV2_Repeat_1_block17_2_Branch_1_Conv2d_0b_1x7_r"
  top: "InceptionResnetV2_InceptionResnetV2_Repeat_1_block17_2_Branch_1_Conv2d_0c_7x1"
  convolution_param {
    num_output: 192
    bias_term: false
    group: 1
    pad_h: 3
    pad_w: 0
    kernel_h: 7
    kernel_w: 1
    stride_h: 1
    stride_w: 1
  }
}
layer {
  name: "BatchNorm:KY"
  type: "BatchNorm"
  bottom: "InceptionResnetV2_InceptionResnetV2_Repeat_1_block17_2_Branch_1_Conv2d_0c_7x1"
  top: "InceptionResnetV2_InceptionResnetV2_Repeat_1_block17_2_Branch_1_Conv2d_0c_7x1_bn"
  batch_norm_param {
    use_global_stats: true
    eps: 0.0010000000475
  }
}
layer {
  name: "Scale:KZ"
  type: "Scale"
  bottom: "InceptionResnetV2_InceptionResnetV2_Repeat_1_block17_2_Branch_1_Conv2d_0c_7x1_bn"
  top: "InceptionResnetV2_InceptionResnetV2_Repeat_1_block17_2_Branch_1_Conv2d_0c_7x1_scale"
  scale_param {
    bias_term: true
  }
}
layer {
  name: "ReLU:K0"
  type: "ReLU"
  bottom: "InceptionResnetV2_InceptionResnetV2_Repeat_1_block17_2_Branch_1_Conv2d_0c_7x1_scale"
  top: "InceptionResnetV2_InceptionResnetV2_Repeat_1_block17_2_Branch_1_Conv2d_0c_7x1_r"
}
layer {
  name: "Concat:K1"
  type: "Concat"
  bottom: "InceptionResnetV2_InceptionResnetV2_Repeat_1_block17_2_Branch_0_Conv2d_1x1_r"
  bottom: "InceptionResnetV2_InceptionResnetV2_Repeat_1_block17_2_Branch_1_Conv2d_0c_7x1_r"
  top: "InceptionResnetV2_InceptionResnetV2_Repeat_1_block17_2_concat"
  concat_param {
    axis: 1
  }
}
layer {
  name: "Convolution:K2"
  type: "Convolution"
  bottom: "InceptionResnetV2_InceptionResnetV2_Repeat_1_block17_2_concat"
  top: "InceptionResnetV2_InceptionResnetV2_Repeat_1_block17_2_Conv2d_1x1"
  convolution_param {
    num_output: 1088
    bias_term: true
    group: 1
    pad_h: 0
    pad_w: 0
    kernel_h: 1
    kernel_w: 1
    stride_h: 1
    stride_w: 1
  }
}
layer {
  name: "Eltwise:K3"
  type: "Eltwise"
  bottom: "InceptionResnetV2_InceptionResnetV2_Repeat_1_block17_1_r"
  bottom: "InceptionResnetV2_InceptionResnetV2_Repeat_1_block17_2_Conv2d_1x1"
  top: "InceptionResnetV2_InceptionResnetV2_Repeat_1_block17_2"
  eltwise_param {
    operation: SUM
    coeff: 1.0
    coeff: 0.10000000149
  }
}
layer {
  name: "ReLU:K4"
  type: "ReLU"
  bottom: "InceptionResnetV2_InceptionResnetV2_Repeat_1_block17_2"
  top: "InceptionResnetV2_InceptionResnetV2_Repeat_1_block17_2_r"
}
layer {
  name: "Convolution:K5"
  type: "Convolution"
  bottom: "InceptionResnetV2_InceptionResnetV2_Repeat_1_block17_2_r"
  top: "InceptionResnetV2_InceptionResnetV2_Repeat_1_block17_3_Branch_0_Conv2d_1x1"
  convolution_param {
    num_output: 192
    bias_term: false
    group: 1
    pad_h: 0
    pad_w: 0
    kernel_h: 1
    kernel_w: 1
    stride_h: 1
    stride_w: 1
  }
}
layer {
  name: "BatchNorm:K6"
  type: "BatchNorm"
  bottom: "InceptionResnetV2_InceptionResnetV2_Repeat_1_block17_3_Branch_0_Conv2d_1x1"
  top: "InceptionResnetV2_InceptionResnetV2_Repeat_1_block17_3_Branch_0_Conv2d_1x1_bn"
  batch_norm_param {
    use_global_stats: true
    eps: 0.0010000000475
  }
}
layer {
  name: "Scale:K7"
  type: "Scale"
  bottom: "InceptionResnetV2_InceptionResnetV2_Repeat_1_block17_3_Branch_0_Conv2d_1x1_bn"
  top: "InceptionResnetV2_InceptionResnetV2_Repeat_1_block17_3_Branch_0_Conv2d_1x1_scale"
  scale_param {
    bias_term: true
  }
}
layer {
  name: "ReLU:K8"
  type: "ReLU"
  bottom: "InceptionResnetV2_InceptionResnetV2_Repeat_1_block17_3_Branch_0_Conv2d_1x1_scale"
  top: "InceptionResnetV2_InceptionResnetV2_Repeat_1_block17_3_Branch_0_Conv2d_1x1_r"
}
layer {
  name: "Convolution:K9"
  type: "Convolution"
  bottom: "InceptionResnetV2_InceptionResnetV2_Repeat_1_block17_2_r"
  top: "InceptionResnetV2_InceptionResnetV2_Repeat_1_block17_3_Branch_1_Conv2d_0a_1x1"
  convolution_param {
    num_output: 128
    bias_term: false
    group: 1
    pad_h: 0
    pad_w: 0
    kernel_h: 1
    kernel_w: 1
    stride_h: 1
    stride_w: 1
  }
}
layer {
  name: "BatchNorm:LA"
  type: "BatchNorm"
  bottom: "InceptionResnetV2_InceptionResnetV2_Repeat_1_block17_3_Branch_1_Conv2d_0a_1x1"
  top: "InceptionResnetV2_InceptionResnetV2_Repeat_1_block17_3_Branch_1_Conv2d_0a_1x1_bn"
  batch_norm_param {
    use_global_stats: true
    eps: 0.0010000000475
  }
}
layer {
  name: "Scale:LB"
  type: "Scale"
  bottom: "InceptionResnetV2_InceptionResnetV2_Repeat_1_block17_3_Branch_1_Conv2d_0a_1x1_bn"
  top: "InceptionResnetV2_InceptionResnetV2_Repeat_1_block17_3_Branch_1_Conv2d_0a_1x1_scale"
  scale_param {
    bias_term: true
  }
}
layer {
  name: "ReLU:LC"
  type: "ReLU"
  bottom: "InceptionResnetV2_InceptionResnetV2_Repeat_1_block17_3_Branch_1_Conv2d_0a_1x1_scale"
  top: "InceptionResnetV2_InceptionResnetV2_Repeat_1_block17_3_Branch_1_Conv2d_0a_1x1_r"
}
layer {
  name: "Convolution:LD"
  type: "Convolution"
  bottom: "InceptionResnetV2_InceptionResnetV2_Repeat_1_block17_3_Branch_1_Conv2d_0a_1x1_r"
  top: "InceptionResnetV2_InceptionResnetV2_Repeat_1_block17_3_Branch_1_Conv2d_0b_1x7"
  convolution_param {
    num_output: 160
    bias_term: false
    group: 1
    pad_h: 0
    pad_w: 3
    kernel_h: 1
    kernel_w: 7
    stride_h: 1
    stride_w: 1
  }
}
layer {
  name: "BatchNorm:LE"
  type: "BatchNorm"
  bottom: "InceptionResnetV2_InceptionResnetV2_Repeat_1_block17_3_Branch_1_Conv2d_0b_1x7"
  top: "InceptionResnetV2_InceptionResnetV2_Repeat_1_block17_3_Branch_1_Conv2d_0b_1x7_bn"
  batch_norm_param {
    use_global_stats: true
    eps: 0.0010000000475
  }
}
layer {
  name: "Scale:LF"
  type: "Scale"
  bottom: "InceptionResnetV2_InceptionResnetV2_Repeat_1_block17_3_Branch_1_Conv2d_0b_1x7_bn"
  top: "InceptionResnetV2_InceptionResnetV2_Repeat_1_block17_3_Branch_1_Conv2d_0b_1x7_scale"
  scale_param {
    bias_term: true
  }
}
layer {
  name: "ReLU:LG"
  type: "ReLU"
  bottom: "InceptionResnetV2_InceptionResnetV2_Repeat_1_block17_3_Branch_1_Conv2d_0b_1x7_scale"
  top: "InceptionResnetV2_InceptionResnetV2_Repeat_1_block17_3_Branch_1_Conv2d_0b_1x7_r"
}
layer {
  name: "Convolution:LH"
  type: "Convolution"
  bottom: "InceptionResnetV2_InceptionResnetV2_Repeat_1_block17_3_Branch_1_Conv2d_0b_1x7_r"
  top: "InceptionResnetV2_InceptionResnetV2_Repeat_1_block17_3_Branch_1_Conv2d_0c_7x1"
  convolution_param {
    num_output: 192
    bias_term: false
    group: 1
    pad_h: 3
    pad_w: 0
    kernel_h: 7
    kernel_w: 1
    stride_h: 1
    stride_w: 1
  }
}
layer {
  name: "BatchNorm:LI"
  type: "BatchNorm"
  bottom: "InceptionResnetV2_InceptionResnetV2_Repeat_1_block17_3_Branch_1_Conv2d_0c_7x1"
  top: "InceptionResnetV2_InceptionResnetV2_Repeat_1_block17_3_Branch_1_Conv2d_0c_7x1_bn"
  batch_norm_param {
    use_global_stats: true
    eps: 0.0010000000475
  }
}
layer {
  name: "Scale:LJ"
  type: "Scale"
  bottom: "InceptionResnetV2_InceptionResnetV2_Repeat_1_block17_3_Branch_1_Conv2d_0c_7x1_bn"
  top: "InceptionResnetV2_InceptionResnetV2_Repeat_1_block17_3_Branch_1_Conv2d_0c_7x1_scale"
  scale_param {
    bias_term: true
  }
}
layer {
  name: "ReLU:LK"
  type: "ReLU"
  bottom: "InceptionResnetV2_InceptionResnetV2_Repeat_1_block17_3_Branch_1_Conv2d_0c_7x1_scale"
  top: "InceptionResnetV2_InceptionResnetV2_Repeat_1_block17_3_Branch_1_Conv2d_0c_7x1_r"
}
layer {
  name: "Concat:LL"
  type: "Concat"
  bottom: "InceptionResnetV2_InceptionResnetV2_Repeat_1_block17_3_Branch_0_Conv2d_1x1_r"
  bottom: "InceptionResnetV2_InceptionResnetV2_Repeat_1_block17_3_Branch_1_Conv2d_0c_7x1_r"
  top: "InceptionResnetV2_InceptionResnetV2_Repeat_1_block17_3_concat"
  concat_param {
    axis: 1
  }
}
layer {
  name: "Convolution:LM"
  type: "Convolution"
  bottom: "InceptionResnetV2_InceptionResnetV2_Repeat_1_block17_3_concat"
  top: "InceptionResnetV2_InceptionResnetV2_Repeat_1_block17_3_Conv2d_1x1"
  convolution_param {
    num_output: 1088
    bias_term: true
    group: 1
    pad_h: 0
    pad_w: 0
    kernel_h: 1
    kernel_w: 1
    stride_h: 1
    stride_w: 1
  }
}
layer {
  name: "Eltwise:LN"
  type: "Eltwise"
  bottom: "InceptionResnetV2_InceptionResnetV2_Repeat_1_block17_2_r"
  bottom: "InceptionResnetV2_InceptionResnetV2_Repeat_1_block17_3_Conv2d_1x1"
  top: "InceptionResnetV2_InceptionResnetV2_Repeat_1_block17_3"
  eltwise_param {
    operation: SUM
    coeff: 1.0
    coeff: 0.10000000149
  }
}
layer {
  name: "ReLU:LO"
  type: "ReLU"
  bottom: "InceptionResnetV2_InceptionResnetV2_Repeat_1_block17_3"
  top: "InceptionResnetV2_InceptionResnetV2_Repeat_1_block17_3_r"
}
layer {
  name: "Convolution:LP"
  type: "Convolution"
  bottom: "InceptionResnetV2_InceptionResnetV2_Repeat_1_block17_3_r"
  top: "InceptionResnetV2_InceptionResnetV2_Repeat_1_block17_4_Branch_0_Conv2d_1x1"
  convolution_param {
    num_output: 192
    bias_term: false
    group: 1
    pad_h: 0
    pad_w: 0
    kernel_h: 1
    kernel_w: 1
    stride_h: 1
    stride_w: 1
  }
}
layer {
  name: "BatchNorm:LQ"
  type: "BatchNorm"
  bottom: "InceptionResnetV2_InceptionResnetV2_Repeat_1_block17_4_Branch_0_Conv2d_1x1"
  top: "InceptionResnetV2_InceptionResnetV2_Repeat_1_block17_4_Branch_0_Conv2d_1x1_bn"
  batch_norm_param {
    use_global_stats: true
    eps: 0.0010000000475
  }
}
layer {
  name: "Scale:LR"
  type: "Scale"
  bottom: "InceptionResnetV2_InceptionResnetV2_Repeat_1_block17_4_Branch_0_Conv2d_1x1_bn"
  top: "InceptionResnetV2_InceptionResnetV2_Repeat_1_block17_4_Branch_0_Conv2d_1x1_scale"
  scale_param {
    bias_term: true
  }
}
layer {
  name: "ReLU:LS"
  type: "ReLU"
  bottom: "InceptionResnetV2_InceptionResnetV2_Repeat_1_block17_4_Branch_0_Conv2d_1x1_scale"
  top: "InceptionResnetV2_InceptionResnetV2_Repeat_1_block17_4_Branch_0_Conv2d_1x1_r"
}
layer {
  name: "Convolution:LT"
  type: "Convolution"
  bottom: "InceptionResnetV2_InceptionResnetV2_Repeat_1_block17_3_r"
  top: "InceptionResnetV2_InceptionResnetV2_Repeat_1_block17_4_Branch_1_Conv2d_0a_1x1"
  convolution_param {
    num_output: 128
    bias_term: false
    group: 1
    pad_h: 0
    pad_w: 0
    kernel_h: 1
    kernel_w: 1
    stride_h: 1
    stride_w: 1
  }
}
layer {
  name: "BatchNorm:LU"
  type: "BatchNorm"
  bottom: "InceptionResnetV2_InceptionResnetV2_Repeat_1_block17_4_Branch_1_Conv2d_0a_1x1"
  top: "InceptionResnetV2_InceptionResnetV2_Repeat_1_block17_4_Branch_1_Conv2d_0a_1x1_bn"
  batch_norm_param {
    use_global_stats: true
    eps: 0.0010000000475
  }
}
layer {
  name: "Scale:LV"
  type: "Scale"
  bottom: "InceptionResnetV2_InceptionResnetV2_Repeat_1_block17_4_Branch_1_Conv2d_0a_1x1_bn"
  top: "InceptionResnetV2_InceptionResnetV2_Repeat_1_block17_4_Branch_1_Conv2d_0a_1x1_scale"
  scale_param {
    bias_term: true
  }
}
layer {
  name: "ReLU:LW"
  type: "ReLU"
  bottom: "InceptionResnetV2_InceptionResnetV2_Repeat_1_block17_4_Branch_1_Conv2d_0a_1x1_scale"
  top: "InceptionResnetV2_InceptionResnetV2_Repeat_1_block17_4_Branch_1_Conv2d_0a_1x1_r"
}
layer {
  name: "Convolution:LX"
  type: "Convolution"
  bottom: "InceptionResnetV2_InceptionResnetV2_Repeat_1_block17_4_Branch_1_Conv2d_0a_1x1_r"
  top: "InceptionResnetV2_InceptionResnetV2_Repeat_1_block17_4_Branch_1_Conv2d_0b_1x7"
  convolution_param {
    num_output: 160
    bias_term: false
    group: 1
    pad_h: 0
    pad_w: 3
    kernel_h: 1
    kernel_w: 7
    stride_h: 1
    stride_w: 1
  }
}
layer {
  name: "BatchNorm:LY"
  type: "BatchNorm"
  bottom: "InceptionResnetV2_InceptionResnetV2_Repeat_1_block17_4_Branch_1_Conv2d_0b_1x7"
  top: "InceptionResnetV2_InceptionResnetV2_Repeat_1_block17_4_Branch_1_Conv2d_0b_1x7_bn"
  batch_norm_param {
    use_global_stats: true
    eps: 0.0010000000475
  }
}
layer {
  name: "Scale:LZ"
  type: "Scale"
  bottom: "InceptionResnetV2_InceptionResnetV2_Repeat_1_block17_4_Branch_1_Conv2d_0b_1x7_bn"
  top: "InceptionResnetV2_InceptionResnetV2_Repeat_1_block17_4_Branch_1_Conv2d_0b_1x7_scale"
  scale_param {
    bias_term: true
  }
}
layer {
  name: "ReLU:L0"
  type: "ReLU"
  bottom: "InceptionResnetV2_InceptionResnetV2_Repeat_1_block17_4_Branch_1_Conv2d_0b_1x7_scale"
  top: "InceptionResnetV2_InceptionResnetV2_Repeat_1_block17_4_Branch_1_Conv2d_0b_1x7_r"
}
layer {
  name: "Convolution:L1"
  type: "Convolution"
  bottom: "InceptionResnetV2_InceptionResnetV2_Repeat_1_block17_4_Branch_1_Conv2d_0b_1x7_r"
  top: "InceptionResnetV2_InceptionResnetV2_Repeat_1_block17_4_Branch_1_Conv2d_0c_7x1"
  convolution_param {
    num_output: 192
    bias_term: false
    group: 1
    pad_h: 3
    pad_w: 0
    kernel_h: 7
    kernel_w: 1
    stride_h: 1
    stride_w: 1
  }
}
layer {
  name: "BatchNorm:L2"
  type: "BatchNorm"
  bottom: "InceptionResnetV2_InceptionResnetV2_Repeat_1_block17_4_Branch_1_Conv2d_0c_7x1"
  top: "InceptionResnetV2_InceptionResnetV2_Repeat_1_block17_4_Branch_1_Conv2d_0c_7x1_bn"
  batch_norm_param {
    use_global_stats: true
    eps: 0.0010000000475
  }
}
layer {
  name: "Scale:L3"
  type: "Scale"
  bottom: "InceptionResnetV2_InceptionResnetV2_Repeat_1_block17_4_Branch_1_Conv2d_0c_7x1_bn"
  top: "InceptionResnetV2_InceptionResnetV2_Repeat_1_block17_4_Branch_1_Conv2d_0c_7x1_scale"
  scale_param {
    bias_term: true
  }
}
layer {
  name: "ReLU:L4"
  type: "ReLU"
  bottom: "InceptionResnetV2_InceptionResnetV2_Repeat_1_block17_4_Branch_1_Conv2d_0c_7x1_scale"
  top: "InceptionResnetV2_InceptionResnetV2_Repeat_1_block17_4_Branch_1_Conv2d_0c_7x1_r"
}
layer {
  name: "Concat:L5"
  type: "Concat"
  bottom: "InceptionResnetV2_InceptionResnetV2_Repeat_1_block17_4_Branch_0_Conv2d_1x1_r"
  bottom: "InceptionResnetV2_InceptionResnetV2_Repeat_1_block17_4_Branch_1_Conv2d_0c_7x1_r"
  top: "InceptionResnetV2_InceptionResnetV2_Repeat_1_block17_4_concat"
  concat_param {
    axis: 1
  }
}
layer {
  name: "Convolution:L6"
  type: "Convolution"
  bottom: "InceptionResnetV2_InceptionResnetV2_Repeat_1_block17_4_concat"
  top: "InceptionResnetV2_InceptionResnetV2_Repeat_1_block17_4_Conv2d_1x1"
  convolution_param {
    num_output: 1088
    bias_term: true
    group: 1
    pad_h: 0
    pad_w: 0
    kernel_h: 1
    kernel_w: 1
    stride_h: 1
    stride_w: 1
  }
}
layer {
  name: "Eltwise:L7"
  type: "Eltwise"
  bottom: "InceptionResnetV2_InceptionResnetV2_Repeat_1_block17_3_r"
  bottom: "InceptionResnetV2_InceptionResnetV2_Repeat_1_block17_4_Conv2d_1x1"
  top: "InceptionResnetV2_InceptionResnetV2_Repeat_1_block17_4"
  eltwise_param {
    operation: SUM
    coeff: 1.0
    coeff: 0.10000000149
  }
}
layer {
  name: "ReLU:L8"
  type: "ReLU"
  bottom: "InceptionResnetV2_InceptionResnetV2_Repeat_1_block17_4"
  top: "InceptionResnetV2_InceptionResnetV2_Repeat_1_block17_4_r"
}
layer {
  name: "Convolution:L9"
  type: "Convolution"
  bottom: "InceptionResnetV2_InceptionResnetV2_Repeat_1_block17_4_r"
  top: "InceptionResnetV2_InceptionResnetV2_Repeat_1_block17_5_Branch_0_Conv2d_1x1"
  convolution_param {
    num_output: 192
    bias_term: false
    group: 1
    pad_h: 0
    pad_w: 0
    kernel_h: 1
    kernel_w: 1
    stride_h: 1
    stride_w: 1
  }
}
layer {
  name: "BatchNorm:MA"
  type: "BatchNorm"
  bottom: "InceptionResnetV2_InceptionResnetV2_Repeat_1_block17_5_Branch_0_Conv2d_1x1"
  top: "InceptionResnetV2_InceptionResnetV2_Repeat_1_block17_5_Branch_0_Conv2d_1x1_bn"
  batch_norm_param {
    use_global_stats: true
    eps: 0.0010000000475
  }
}
layer {
  name: "Scale:MB"
  type: "Scale"
  bottom: "InceptionResnetV2_InceptionResnetV2_Repeat_1_block17_5_Branch_0_Conv2d_1x1_bn"
  top: "InceptionResnetV2_InceptionResnetV2_Repeat_1_block17_5_Branch_0_Conv2d_1x1_scale"
  scale_param {
    bias_term: true
  }
}
layer {
  name: "ReLU:MC"
  type: "ReLU"
  bottom: "InceptionResnetV2_InceptionResnetV2_Repeat_1_block17_5_Branch_0_Conv2d_1x1_scale"
  top: "InceptionResnetV2_InceptionResnetV2_Repeat_1_block17_5_Branch_0_Conv2d_1x1_r"
}
layer {
  name: "Convolution:MD"
  type: "Convolution"
  bottom: "InceptionResnetV2_InceptionResnetV2_Repeat_1_block17_4_r"
  top: "InceptionResnetV2_InceptionResnetV2_Repeat_1_block17_5_Branch_1_Conv2d_0a_1x1"
  convolution_param {
    num_output: 128
    bias_term: false
    group: 1
    pad_h: 0
    pad_w: 0
    kernel_h: 1
    kernel_w: 1
    stride_h: 1
    stride_w: 1
  }
}
layer {
  name: "BatchNorm:ME"
  type: "BatchNorm"
  bottom: "InceptionResnetV2_InceptionResnetV2_Repeat_1_block17_5_Branch_1_Conv2d_0a_1x1"
  top: "InceptionResnetV2_InceptionResnetV2_Repeat_1_block17_5_Branch_1_Conv2d_0a_1x1_bn"
  batch_norm_param {
    use_global_stats: true
    eps: 0.0010000000475
  }
}
layer {
  name: "Scale:MF"
  type: "Scale"
  bottom: "InceptionResnetV2_InceptionResnetV2_Repeat_1_block17_5_Branch_1_Conv2d_0a_1x1_bn"
  top: "InceptionResnetV2_InceptionResnetV2_Repeat_1_block17_5_Branch_1_Conv2d_0a_1x1_scale"
  scale_param {
    bias_term: true
  }
}
layer {
  name: "ReLU:MG"
  type: "ReLU"
  bottom: "InceptionResnetV2_InceptionResnetV2_Repeat_1_block17_5_Branch_1_Conv2d_0a_1x1_scale"
  top: "InceptionResnetV2_InceptionResnetV2_Repeat_1_block17_5_Branch_1_Conv2d_0a_1x1_r"
}
layer {
  name: "Convolution:MH"
  type: "Convolution"
  bottom: "InceptionResnetV2_InceptionResnetV2_Repeat_1_block17_5_Branch_1_Conv2d_0a_1x1_r"
  top: "InceptionResnetV2_InceptionResnetV2_Repeat_1_block17_5_Branch_1_Conv2d_0b_1x7"
  convolution_param {
    num_output: 160
    bias_term: false
    group: 1
    pad_h: 0
    pad_w: 3
    kernel_h: 1
    kernel_w: 7
    stride_h: 1
    stride_w: 1
  }
}
layer {
  name: "BatchNorm:MI"
  type: "BatchNorm"
  bottom: "InceptionResnetV2_InceptionResnetV2_Repeat_1_block17_5_Branch_1_Conv2d_0b_1x7"
  top: "InceptionResnetV2_InceptionResnetV2_Repeat_1_block17_5_Branch_1_Conv2d_0b_1x7_bn"
  batch_norm_param {
    use_global_stats: true
    eps: 0.0010000000475
  }
}
layer {
  name: "Scale:MJ"
  type: "Scale"
  bottom: "InceptionResnetV2_InceptionResnetV2_Repeat_1_block17_5_Branch_1_Conv2d_0b_1x7_bn"
  top: "InceptionResnetV2_InceptionResnetV2_Repeat_1_block17_5_Branch_1_Conv2d_0b_1x7_scale"
  scale_param {
    bias_term: true
  }
}
layer {
  name: "ReLU:MK"
  type: "ReLU"
  bottom: "InceptionResnetV2_InceptionResnetV2_Repeat_1_block17_5_Branch_1_Conv2d_0b_1x7_scale"
  top: "InceptionResnetV2_InceptionResnetV2_Repeat_1_block17_5_Branch_1_Conv2d_0b_1x7_r"
}
layer {
  name: "Convolution:ML"
  type: "Convolution"
  bottom: "InceptionResnetV2_InceptionResnetV2_Repeat_1_block17_5_Branch_1_Conv2d_0b_1x7_r"
  top: "InceptionResnetV2_InceptionResnetV2_Repeat_1_block17_5_Branch_1_Conv2d_0c_7x1"
  convolution_param {
    num_output: 192
    bias_term: false
    group: 1
    pad_h: 3
    pad_w: 0
    kernel_h: 7
    kernel_w: 1
    stride_h: 1
    stride_w: 1
  }
}
layer {
  name: "BatchNorm:MM"
  type: "BatchNorm"
  bottom: "InceptionResnetV2_InceptionResnetV2_Repeat_1_block17_5_Branch_1_Conv2d_0c_7x1"
  top: "InceptionResnetV2_InceptionResnetV2_Repeat_1_block17_5_Branch_1_Conv2d_0c_7x1_bn"
  batch_norm_param {
    use_global_stats: true
    eps: 0.0010000000475
  }
}
layer {
  name: "Scale:MN"
  type: "Scale"
  bottom: "InceptionResnetV2_InceptionResnetV2_Repeat_1_block17_5_Branch_1_Conv2d_0c_7x1_bn"
  top: "InceptionResnetV2_InceptionResnetV2_Repeat_1_block17_5_Branch_1_Conv2d_0c_7x1_scale"
  scale_param {
    bias_term: true
  }
}
layer {
  name: "ReLU:MO"
  type: "ReLU"
  bottom: "InceptionResnetV2_InceptionResnetV2_Repeat_1_block17_5_Branch_1_Conv2d_0c_7x1_scale"
  top: "InceptionResnetV2_InceptionResnetV2_Repeat_1_block17_5_Branch_1_Conv2d_0c_7x1_r"
}
layer {
  name: "Concat:MP"
  type: "Concat"
  bottom: "InceptionResnetV2_InceptionResnetV2_Repeat_1_block17_5_Branch_0_Conv2d_1x1_r"
  bottom: "InceptionResnetV2_InceptionResnetV2_Repeat_1_block17_5_Branch_1_Conv2d_0c_7x1_r"
  top: "InceptionResnetV2_InceptionResnetV2_Repeat_1_block17_5_concat"
  concat_param {
    axis: 1
  }
}
layer {
  name: "Convolution:MQ"
  type: "Convolution"
  bottom: "InceptionResnetV2_InceptionResnetV2_Repeat_1_block17_5_concat"
  top: "InceptionResnetV2_InceptionResnetV2_Repeat_1_block17_5_Conv2d_1x1"
  convolution_param {
    num_output: 1088
    bias_term: true
    group: 1
    pad_h: 0
    pad_w: 0
    kernel_h: 1
    kernel_w: 1
    stride_h: 1
    stride_w: 1
  }
}
layer {
  name: "Eltwise:MR"
  type: "Eltwise"
  bottom: "InceptionResnetV2_InceptionResnetV2_Repeat_1_block17_4_r"
  bottom: "InceptionResnetV2_InceptionResnetV2_Repeat_1_block17_5_Conv2d_1x1"
  top: "InceptionResnetV2_InceptionResnetV2_Repeat_1_block17_5"
  eltwise_param {
    operation: SUM
    coeff: 1.0
    coeff: 0.10000000149
  }
}
layer {
  name: "ReLU:MS"
  type: "ReLU"
  bottom: "InceptionResnetV2_InceptionResnetV2_Repeat_1_block17_5"
  top: "InceptionResnetV2_InceptionResnetV2_Repeat_1_block17_5_r"
}
layer {
  name: "Convolution:MT"
  type: "Convolution"
  bottom: "InceptionResnetV2_InceptionResnetV2_Repeat_1_block17_5_r"
  top: "InceptionResnetV2_InceptionResnetV2_Repeat_1_block17_6_Branch_0_Conv2d_1x1"
  convolution_param {
    num_output: 192
    bias_term: false
    group: 1
    pad_h: 0
    pad_w: 0
    kernel_h: 1
    kernel_w: 1
    stride_h: 1
    stride_w: 1
  }
}
layer {
  name: "BatchNorm:MU"
  type: "BatchNorm"
  bottom: "InceptionResnetV2_InceptionResnetV2_Repeat_1_block17_6_Branch_0_Conv2d_1x1"
  top: "InceptionResnetV2_InceptionResnetV2_Repeat_1_block17_6_Branch_0_Conv2d_1x1_bn"
  batch_norm_param {
    use_global_stats: true
    eps: 0.0010000000475
  }
}
layer {
  name: "Scale:MV"
  type: "Scale"
  bottom: "InceptionResnetV2_InceptionResnetV2_Repeat_1_block17_6_Branch_0_Conv2d_1x1_bn"
  top: "InceptionResnetV2_InceptionResnetV2_Repeat_1_block17_6_Branch_0_Conv2d_1x1_scale"
  scale_param {
    bias_term: true
  }
}
layer {
  name: "ReLU:MW"
  type: "ReLU"
  bottom: "InceptionResnetV2_InceptionResnetV2_Repeat_1_block17_6_Branch_0_Conv2d_1x1_scale"
  top: "InceptionResnetV2_InceptionResnetV2_Repeat_1_block17_6_Branch_0_Conv2d_1x1_r"
}
layer {
  name: "Convolution:MX"
  type: "Convolution"
  bottom: "InceptionResnetV2_InceptionResnetV2_Repeat_1_block17_5_r"
  top: "InceptionResnetV2_InceptionResnetV2_Repeat_1_block17_6_Branch_1_Conv2d_0a_1x1"
  convolution_param {
    num_output: 128
    bias_term: false
    group: 1
    pad_h: 0
    pad_w: 0
    kernel_h: 1
    kernel_w: 1
    stride_h: 1
    stride_w: 1
  }
}
layer {
  name: "BatchNorm:MY"
  type: "BatchNorm"
  bottom: "InceptionResnetV2_InceptionResnetV2_Repeat_1_block17_6_Branch_1_Conv2d_0a_1x1"
  top: "InceptionResnetV2_InceptionResnetV2_Repeat_1_block17_6_Branch_1_Conv2d_0a_1x1_bn"
  batch_norm_param {
    use_global_stats: true
    eps: 0.0010000000475
  }
}
layer {
  name: "Scale:MZ"
  type: "Scale"
  bottom: "InceptionResnetV2_InceptionResnetV2_Repeat_1_block17_6_Branch_1_Conv2d_0a_1x1_bn"
  top: "InceptionResnetV2_InceptionResnetV2_Repeat_1_block17_6_Branch_1_Conv2d_0a_1x1_scale"
  scale_param {
    bias_term: true
  }
}
layer {
  name: "ReLU:M0"
  type: "ReLU"
  bottom: "InceptionResnetV2_InceptionResnetV2_Repeat_1_block17_6_Branch_1_Conv2d_0a_1x1_scale"
  top: "InceptionResnetV2_InceptionResnetV2_Repeat_1_block17_6_Branch_1_Conv2d_0a_1x1_r"
}
layer {
  name: "Convolution:M1"
  type: "Convolution"
  bottom: "InceptionResnetV2_InceptionResnetV2_Repeat_1_block17_6_Branch_1_Conv2d_0a_1x1_r"
  top: "InceptionResnetV2_InceptionResnetV2_Repeat_1_block17_6_Branch_1_Conv2d_0b_1x7"
  convolution_param {
    num_output: 160
    bias_term: false
    group: 1
    pad_h: 0
    pad_w: 3
    kernel_h: 1
    kernel_w: 7
    stride_h: 1
    stride_w: 1
  }
}
layer {
  name: "BatchNorm:M2"
  type: "BatchNorm"
  bottom: "InceptionResnetV2_InceptionResnetV2_Repeat_1_block17_6_Branch_1_Conv2d_0b_1x7"
  top: "InceptionResnetV2_InceptionResnetV2_Repeat_1_block17_6_Branch_1_Conv2d_0b_1x7_bn"
  batch_norm_param {
    use_global_stats: true
    eps: 0.0010000000475
  }
}
layer {
  name: "Scale:M3"
  type: "Scale"
  bottom: "InceptionResnetV2_InceptionResnetV2_Repeat_1_block17_6_Branch_1_Conv2d_0b_1x7_bn"
  top: "InceptionResnetV2_InceptionResnetV2_Repeat_1_block17_6_Branch_1_Conv2d_0b_1x7_scale"
  scale_param {
    bias_term: true
  }
}
layer {
  name: "ReLU:M4"
  type: "ReLU"
  bottom: "InceptionResnetV2_InceptionResnetV2_Repeat_1_block17_6_Branch_1_Conv2d_0b_1x7_scale"
  top: "InceptionResnetV2_InceptionResnetV2_Repeat_1_block17_6_Branch_1_Conv2d_0b_1x7_r"
}
layer {
  name: "Convolution:M5"
  type: "Convolution"
  bottom: "InceptionResnetV2_InceptionResnetV2_Repeat_1_block17_6_Branch_1_Conv2d_0b_1x7_r"
  top: "InceptionResnetV2_InceptionResnetV2_Repeat_1_block17_6_Branch_1_Conv2d_0c_7x1"
  convolution_param {
    num_output: 192
    bias_term: false
    group: 1
    pad_h: 3
    pad_w: 0
    kernel_h: 7
    kernel_w: 1
    stride_h: 1
    stride_w: 1
  }
}
layer {
  name: "BatchNorm:M6"
  type: "BatchNorm"
  bottom: "InceptionResnetV2_InceptionResnetV2_Repeat_1_block17_6_Branch_1_Conv2d_0c_7x1"
  top: "InceptionResnetV2_InceptionResnetV2_Repeat_1_block17_6_Branch_1_Conv2d_0c_7x1_bn"
  batch_norm_param {
    use_global_stats: true
    eps: 0.0010000000475
  }
}
layer {
  name: "Scale:M7"
  type: "Scale"
  bottom: "InceptionResnetV2_InceptionResnetV2_Repeat_1_block17_6_Branch_1_Conv2d_0c_7x1_bn"
  top: "InceptionResnetV2_InceptionResnetV2_Repeat_1_block17_6_Branch_1_Conv2d_0c_7x1_scale"
  scale_param {
    bias_term: true
  }
}
layer {
  name: "ReLU:M8"
  type: "ReLU"
  bottom: "InceptionResnetV2_InceptionResnetV2_Repeat_1_block17_6_Branch_1_Conv2d_0c_7x1_scale"
  top: "InceptionResnetV2_InceptionResnetV2_Repeat_1_block17_6_Branch_1_Conv2d_0c_7x1_r"
}
layer {
  name: "Concat:M9"
  type: "Concat"
  bottom: "InceptionResnetV2_InceptionResnetV2_Repeat_1_block17_6_Branch_0_Conv2d_1x1_r"
  bottom: "InceptionResnetV2_InceptionResnetV2_Repeat_1_block17_6_Branch_1_Conv2d_0c_7x1_r"
  top: "InceptionResnetV2_InceptionResnetV2_Repeat_1_block17_6_concat"
  concat_param {
    axis: 1
  }
}
layer {
  name: "Convolution:NA"
  type: "Convolution"
  bottom: "InceptionResnetV2_InceptionResnetV2_Repeat_1_block17_6_concat"
  top: "InceptionResnetV2_InceptionResnetV2_Repeat_1_block17_6_Conv2d_1x1"
  convolution_param {
    num_output: 1088
    bias_term: true
    group: 1
    pad_h: 0
    pad_w: 0
    kernel_h: 1
    kernel_w: 1
    stride_h: 1
    stride_w: 1
  }
}
layer {
  name: "Eltwise:NB"
  type: "Eltwise"
  bottom: "InceptionResnetV2_InceptionResnetV2_Repeat_1_block17_5_r"
  bottom: "InceptionResnetV2_InceptionResnetV2_Repeat_1_block17_6_Conv2d_1x1"
  top: "InceptionResnetV2_InceptionResnetV2_Repeat_1_block17_6"
  eltwise_param {
    operation: SUM
    coeff: 1.0
    coeff: 0.10000000149
  }
}
layer {
  name: "ReLU:NC"
  type: "ReLU"
  bottom: "InceptionResnetV2_InceptionResnetV2_Repeat_1_block17_6"
  top: "InceptionResnetV2_InceptionResnetV2_Repeat_1_block17_6_r"
}
layer {
  name: "Convolution:ND"
  type: "Convolution"
  bottom: "InceptionResnetV2_InceptionResnetV2_Repeat_1_block17_6_r"
  top: "InceptionResnetV2_InceptionResnetV2_Repeat_1_block17_7_Branch_0_Conv2d_1x1"
  convolution_param {
    num_output: 192
    bias_term: false
    group: 1
    pad_h: 0
    pad_w: 0
    kernel_h: 1
    kernel_w: 1
    stride_h: 1
    stride_w: 1
  }
}
layer {
  name: "BatchNorm:NE"
  type: "BatchNorm"
  bottom: "InceptionResnetV2_InceptionResnetV2_Repeat_1_block17_7_Branch_0_Conv2d_1x1"
  top: "InceptionResnetV2_InceptionResnetV2_Repeat_1_block17_7_Branch_0_Conv2d_1x1_bn"
  batch_norm_param {
    use_global_stats: true
    eps: 0.0010000000475
  }
}
layer {
  name: "Scale:NF"
  type: "Scale"
  bottom: "InceptionResnetV2_InceptionResnetV2_Repeat_1_block17_7_Branch_0_Conv2d_1x1_bn"
  top: "InceptionResnetV2_InceptionResnetV2_Repeat_1_block17_7_Branch_0_Conv2d_1x1_scale"
  scale_param {
    bias_term: true
  }
}
layer {
  name: "ReLU:NG"
  type: "ReLU"
  bottom: "InceptionResnetV2_InceptionResnetV2_Repeat_1_block17_7_Branch_0_Conv2d_1x1_scale"
  top: "InceptionResnetV2_InceptionResnetV2_Repeat_1_block17_7_Branch_0_Conv2d_1x1_r"
}
layer {
  name: "Convolution:NH"
  type: "Convolution"
  bottom: "InceptionResnetV2_InceptionResnetV2_Repeat_1_block17_6_r"
  top: "InceptionResnetV2_InceptionResnetV2_Repeat_1_block17_7_Branch_1_Conv2d_0a_1x1"
  convolution_param {
    num_output: 128
    bias_term: false
    group: 1
    pad_h: 0
    pad_w: 0
    kernel_h: 1
    kernel_w: 1
    stride_h: 1
    stride_w: 1
  }
}
layer {
  name: "BatchNorm:NI"
  type: "BatchNorm"
  bottom: "InceptionResnetV2_InceptionResnetV2_Repeat_1_block17_7_Branch_1_Conv2d_0a_1x1"
  top: "InceptionResnetV2_InceptionResnetV2_Repeat_1_block17_7_Branch_1_Conv2d_0a_1x1_bn"
  batch_norm_param {
    use_global_stats: true
    eps: 0.0010000000475
  }
}
layer {
  name: "Scale:NJ"
  type: "Scale"
  bottom: "InceptionResnetV2_InceptionResnetV2_Repeat_1_block17_7_Branch_1_Conv2d_0a_1x1_bn"
  top: "InceptionResnetV2_InceptionResnetV2_Repeat_1_block17_7_Branch_1_Conv2d_0a_1x1_scale"
  scale_param {
    bias_term: true
  }
}
layer {
  name: "ReLU:NK"
  type: "ReLU"
  bottom: "InceptionResnetV2_InceptionResnetV2_Repeat_1_block17_7_Branch_1_Conv2d_0a_1x1_scale"
  top: "InceptionResnetV2_InceptionResnetV2_Repeat_1_block17_7_Branch_1_Conv2d_0a_1x1_r"
}
layer {
  name: "Convolution:NL"
  type: "Convolution"
  bottom: "InceptionResnetV2_InceptionResnetV2_Repeat_1_block17_7_Branch_1_Conv2d_0a_1x1_r"
  top: "InceptionResnetV2_InceptionResnetV2_Repeat_1_block17_7_Branch_1_Conv2d_0b_1x7"
  convolution_param {
    num_output: 160
    bias_term: false
    group: 1
    pad_h: 0
    pad_w: 3
    kernel_h: 1
    kernel_w: 7
    stride_h: 1
    stride_w: 1
  }
}
layer {
  name: "BatchNorm:NM"
  type: "BatchNorm"
  bottom: "InceptionResnetV2_InceptionResnetV2_Repeat_1_block17_7_Branch_1_Conv2d_0b_1x7"
  top: "InceptionResnetV2_InceptionResnetV2_Repeat_1_block17_7_Branch_1_Conv2d_0b_1x7_bn"
  batch_norm_param {
    use_global_stats: true
    eps: 0.0010000000475
  }
}
layer {
  name: "Scale:NN"
  type: "Scale"
  bottom: "InceptionResnetV2_InceptionResnetV2_Repeat_1_block17_7_Branch_1_Conv2d_0b_1x7_bn"
  top: "InceptionResnetV2_InceptionResnetV2_Repeat_1_block17_7_Branch_1_Conv2d_0b_1x7_scale"
  scale_param {
    bias_term: true
  }
}
layer {
  name: "ReLU:NO"
  type: "ReLU"
  bottom: "InceptionResnetV2_InceptionResnetV2_Repeat_1_block17_7_Branch_1_Conv2d_0b_1x7_scale"
  top: "InceptionResnetV2_InceptionResnetV2_Repeat_1_block17_7_Branch_1_Conv2d_0b_1x7_r"
}
layer {
  name: "Convolution:NP"
  type: "Convolution"
  bottom: "InceptionResnetV2_InceptionResnetV2_Repeat_1_block17_7_Branch_1_Conv2d_0b_1x7_r"
  top: "InceptionResnetV2_InceptionResnetV2_Repeat_1_block17_7_Branch_1_Conv2d_0c_7x1"
  convolution_param {
    num_output: 192
    bias_term: false
    group: 1
    pad_h: 3
    pad_w: 0
    kernel_h: 7
    kernel_w: 1
    stride_h: 1
    stride_w: 1
  }
}
layer {
  name: "BatchNorm:NQ"
  type: "BatchNorm"
  bottom: "InceptionResnetV2_InceptionResnetV2_Repeat_1_block17_7_Branch_1_Conv2d_0c_7x1"
  top: "InceptionResnetV2_InceptionResnetV2_Repeat_1_block17_7_Branch_1_Conv2d_0c_7x1_bn"
  batch_norm_param {
    use_global_stats: true
    eps: 0.0010000000475
  }
}
layer {
  name: "Scale:NR"
  type: "Scale"
  bottom: "InceptionResnetV2_InceptionResnetV2_Repeat_1_block17_7_Branch_1_Conv2d_0c_7x1_bn"
  top: "InceptionResnetV2_InceptionResnetV2_Repeat_1_block17_7_Branch_1_Conv2d_0c_7x1_scale"
  scale_param {
    bias_term: true
  }
}
layer {
  name: "ReLU:NS"
  type: "ReLU"
  bottom: "InceptionResnetV2_InceptionResnetV2_Repeat_1_block17_7_Branch_1_Conv2d_0c_7x1_scale"
  top: "InceptionResnetV2_InceptionResnetV2_Repeat_1_block17_7_Branch_1_Conv2d_0c_7x1_r"
}
layer {
  name: "Concat:NT"
  type: "Concat"
  bottom: "InceptionResnetV2_InceptionResnetV2_Repeat_1_block17_7_Branch_0_Conv2d_1x1_r"
  bottom: "InceptionResnetV2_InceptionResnetV2_Repeat_1_block17_7_Branch_1_Conv2d_0c_7x1_r"
  top: "InceptionResnetV2_InceptionResnetV2_Repeat_1_block17_7_concat"
  concat_param {
    axis: 1
  }
}
layer {
  name: "Convolution:NU"
  type: "Convolution"
  bottom: "InceptionResnetV2_InceptionResnetV2_Repeat_1_block17_7_concat"
  top: "InceptionResnetV2_InceptionResnetV2_Repeat_1_block17_7_Conv2d_1x1"
  convolution_param {
    num_output: 1088
    bias_term: true
    group: 1
    pad_h: 0
    pad_w: 0
    kernel_h: 1
    kernel_w: 1
    stride_h: 1
    stride_w: 1
  }
}
layer {
  name: "Eltwise:NV"
  type: "Eltwise"
  bottom: "InceptionResnetV2_InceptionResnetV2_Repeat_1_block17_6_r"
  bottom: "InceptionResnetV2_InceptionResnetV2_Repeat_1_block17_7_Conv2d_1x1"
  top: "InceptionResnetV2_InceptionResnetV2_Repeat_1_block17_7"
  eltwise_param {
    operation: SUM
    coeff: 1.0
    coeff: 0.10000000149
  }
}
layer {
  name: "ReLU:NW"
  type: "ReLU"
  bottom: "InceptionResnetV2_InceptionResnetV2_Repeat_1_block17_7"
  top: "InceptionResnetV2_InceptionResnetV2_Repeat_1_block17_7_r"
}
layer {
  name: "Convolution:NX"
  type: "Convolution"
  bottom: "InceptionResnetV2_InceptionResnetV2_Repeat_1_block17_7_r"
  top: "InceptionResnetV2_InceptionResnetV2_Repeat_1_block17_8_Branch_0_Conv2d_1x1"
  convolution_param {
    num_output: 192
    bias_term: false
    group: 1
    pad_h: 0
    pad_w: 0
    kernel_h: 1
    kernel_w: 1
    stride_h: 1
    stride_w: 1
  }
}
layer {
  name: "BatchNorm:NY"
  type: "BatchNorm"
  bottom: "InceptionResnetV2_InceptionResnetV2_Repeat_1_block17_8_Branch_0_Conv2d_1x1"
  top: "InceptionResnetV2_InceptionResnetV2_Repeat_1_block17_8_Branch_0_Conv2d_1x1_bn"
  batch_norm_param {
    use_global_stats: true
    eps: 0.0010000000475
  }
}
layer {
  name: "Scale:NZ"
  type: "Scale"
  bottom: "InceptionResnetV2_InceptionResnetV2_Repeat_1_block17_8_Branch_0_Conv2d_1x1_bn"
  top: "InceptionResnetV2_InceptionResnetV2_Repeat_1_block17_8_Branch_0_Conv2d_1x1_scale"
  scale_param {
    bias_term: true
  }
}
layer {
  name: "ReLU:N0"
  type: "ReLU"
  bottom: "InceptionResnetV2_InceptionResnetV2_Repeat_1_block17_8_Branch_0_Conv2d_1x1_scale"
  top: "InceptionResnetV2_InceptionResnetV2_Repeat_1_block17_8_Branch_0_Conv2d_1x1_r"
}
layer {
  name: "Convolution:N1"
  type: "Convolution"
  bottom: "InceptionResnetV2_InceptionResnetV2_Repeat_1_block17_7_r"
  top: "InceptionResnetV2_InceptionResnetV2_Repeat_1_block17_8_Branch_1_Conv2d_0a_1x1"
  convolution_param {
    num_output: 128
    bias_term: false
    group: 1
    pad_h: 0
    pad_w: 0
    kernel_h: 1
    kernel_w: 1
    stride_h: 1
    stride_w: 1
  }
}
layer {
  name: "BatchNorm:N2"
  type: "BatchNorm"
  bottom: "InceptionResnetV2_InceptionResnetV2_Repeat_1_block17_8_Branch_1_Conv2d_0a_1x1"
  top: "InceptionResnetV2_InceptionResnetV2_Repeat_1_block17_8_Branch_1_Conv2d_0a_1x1_bn"
  batch_norm_param {
    use_global_stats: true
    eps: 0.0010000000475
  }
}
layer {
  name: "Scale:N3"
  type: "Scale"
  bottom: "InceptionResnetV2_InceptionResnetV2_Repeat_1_block17_8_Branch_1_Conv2d_0a_1x1_bn"
  top: "InceptionResnetV2_InceptionResnetV2_Repeat_1_block17_8_Branch_1_Conv2d_0a_1x1_scale"
  scale_param {
    bias_term: true
  }
}
layer {
  name: "ReLU:N4"
  type: "ReLU"
  bottom: "InceptionResnetV2_InceptionResnetV2_Repeat_1_block17_8_Branch_1_Conv2d_0a_1x1_scale"
  top: "InceptionResnetV2_InceptionResnetV2_Repeat_1_block17_8_Branch_1_Conv2d_0a_1x1_r"
}
layer {
  name: "Convolution:N5"
  type: "Convolution"
  bottom: "InceptionResnetV2_InceptionResnetV2_Repeat_1_block17_8_Branch_1_Conv2d_0a_1x1_r"
  top: "InceptionResnetV2_InceptionResnetV2_Repeat_1_block17_8_Branch_1_Conv2d_0b_1x7"
  convolution_param {
    num_output: 160
    bias_term: false
    group: 1
    pad_h: 0
    pad_w: 3
    kernel_h: 1
    kernel_w: 7
    stride_h: 1
    stride_w: 1
  }
}
layer {
  name: "BatchNorm:N6"
  type: "BatchNorm"
  bottom: "InceptionResnetV2_InceptionResnetV2_Repeat_1_block17_8_Branch_1_Conv2d_0b_1x7"
  top: "InceptionResnetV2_InceptionResnetV2_Repeat_1_block17_8_Branch_1_Conv2d_0b_1x7_bn"
  batch_norm_param {
    use_global_stats: true
    eps: 0.0010000000475
  }
}
layer {
  name: "Scale:N7"
  type: "Scale"
  bottom: "InceptionResnetV2_InceptionResnetV2_Repeat_1_block17_8_Branch_1_Conv2d_0b_1x7_bn"
  top: "InceptionResnetV2_InceptionResnetV2_Repeat_1_block17_8_Branch_1_Conv2d_0b_1x7_scale"
  scale_param {
    bias_term: true
  }
}
layer {
  name: "ReLU:N8"
  type: "ReLU"
  bottom: "InceptionResnetV2_InceptionResnetV2_Repeat_1_block17_8_Branch_1_Conv2d_0b_1x7_scale"
  top: "InceptionResnetV2_InceptionResnetV2_Repeat_1_block17_8_Branch_1_Conv2d_0b_1x7_r"
}
layer {
  name: "Convolution:N9"
  type: "Convolution"
  bottom: "InceptionResnetV2_InceptionResnetV2_Repeat_1_block17_8_Branch_1_Conv2d_0b_1x7_r"
  top: "InceptionResnetV2_InceptionResnetV2_Repeat_1_block17_8_Branch_1_Conv2d_0c_7x1"
  convolution_param {
    num_output: 192
    bias_term: false
    group: 1
    pad_h: 3
    pad_w: 0
    kernel_h: 7
    kernel_w: 1
    stride_h: 1
    stride_w: 1
  }
}
layer {
  name: "BatchNorm:OA"
  type: "BatchNorm"
  bottom: "InceptionResnetV2_InceptionResnetV2_Repeat_1_block17_8_Branch_1_Conv2d_0c_7x1"
  top: "InceptionResnetV2_InceptionResnetV2_Repeat_1_block17_8_Branch_1_Conv2d_0c_7x1_bn"
  batch_norm_param {
    use_global_stats: true
    eps: 0.0010000000475
  }
}
layer {
  name: "Scale:OB"
  type: "Scale"
…
    kernel_w: 1
    stride_h: 1
    stride_w: 1
  }
}
layer {
  name: "BatchNorm:W8"
  type: "BatchNorm"
  bottom: "InceptionResnetV2_InceptionResnetV2_Repeat_2_block8_3_Branch_1_Conv2d_0a_1x1"
  top: "InceptionResnetV2_InceptionResnetV2_Repeat_2_block8_3_Branch_1_Conv2d_0a_1x1_bn"
  batch_norm_param {
    use_global_stats: true
    eps: 0.0010000000475
  }
}
layer {
  name: "Scale:W9"
  type: "Scale"
  bottom: "InceptionResnetV2_InceptionResnetV2_Repeat_2_block8_3_Branch_1_Conv2d_0a_1x1_bn"
  top: "InceptionResnetV2_InceptionResnetV2_Repeat_2_block8_3_Branch_1_Conv2d_0a_1x1_scale"
  scale_param {
    bias_term: true
  }
}
layer {
  name: "ReLU:XA"
  type: "ReLU"
  bottom: "InceptionResnetV2_InceptionResnetV2_Repeat_2_block8_3_Branch_1_Conv2d_0a_1x1_scale"
  top: "InceptionResnetV2_InceptionResnetV2_Repeat_2_block8_3_Branch_1_Conv2d_0a_1x1_r"
}
layer {
  name: "Convolution:XB"
  type: "Convolution"
  bottom: "InceptionResnetV2_InceptionResnetV2_Repeat_2_block8_3_Branch_1_Conv2d_0a_1x1_r"
  top: "InceptionResnetV2_InceptionResnetV2_Repeat_2_block8_3_Branch_1_Conv2d_0b_1x3"
  convolution_param {
    num_output: 224
    bias_term: false
    group: 1
    pad_h: 0
    pad_w: 1
    kernel_h: 1
    kernel_w: 3
    stride_h: 1
    stride_w: 1
  }
}
layer {
  name: "BatchNorm:XC"
  type: "BatchNorm"
  bottom: "InceptionResnetV2_InceptionResnetV2_Repeat_2_block8_3_Branch_1_Conv2d_0b_1x3"
  top: "InceptionResnetV2_InceptionResnetV2_Repeat_2_block8_3_Branch_1_Conv2d_0b_1x3_bn"
  batch_norm_param {
    use_global_stats: true
    eps: 0.0010000000475
  }
}
layer {
  name: "Scale:XD"
  type: "Scale"
  bottom: "InceptionResnetV2_InceptionResnetV2_Repeat_2_block8_3_Branch_1_Conv2d_0b_1x3_bn"
  top: "InceptionResnetV2_InceptionResnetV2_Repeat_2_block8_3_Branch_1_Conv2d_0b_1x3_scale"
  scale_param {
    bias_term: true
  }
}
layer {
  name: "ReLU:XE"
  type: "ReLU"
  bottom: "InceptionResnetV2_InceptionResnetV2_Repeat_2_block8_3_Branch_1_Conv2d_0b_1x3_scale"
  top: "InceptionResnetV2_InceptionResnetV2_Repeat_2_block8_3_Branch_1_Conv2d_0b_1x3_r"
}
layer {
  name: "Convolution:XF"
  type: "Convolution"
  bottom: "InceptionResnetV2_InceptionResnetV2_Repeat_2_block8_3_Branch_1_Conv2d_0b_1x3_r"
  top: "InceptionResnetV2_InceptionResnetV2_Repeat_2_block8_3_Branch_1_Conv2d_0c_3x1"
  convolution_param {
    num_output: 256
    bias_term: false
    group: 1
    pad_h: 1
    pad_w: 0
    kernel_h: 3
    kernel_w: 1
    stride_h: 1
    stride_w: 1
  }
}
layer {
  name: "BatchNorm:XG"
  type: "BatchNorm"
  bottom: "InceptionResnetV2_InceptionResnetV2_Repeat_2_block8_3_Branch_1_Conv2d_0c_3x1"
  top: "InceptionResnetV2_InceptionResnetV2_Repeat_2_block8_3_Branch_1_Conv2d_0c_3x1_bn"
  batch_norm_param {
    use_global_stats: true
    eps: 0.0010000000475
  }
}
layer {
  name: "Scale:XH"
  type: "Scale"
  bottom: "InceptionResnetV2_InceptionResnetV2_Repeat_2_block8_3_Branch_1_Conv2d_0c_3x1_bn"
  top: "InceptionResnetV2_InceptionResnetV2_Repeat_2_block8_3_Branch_1_Conv2d_0c_3x1_scale"
  scale_param {
    bias_term: true
  }
}
layer {
  name: "ReLU:XI"
  type: "ReLU"
  bottom: "InceptionResnetV2_InceptionResnetV2_Repeat_2_block8_3_Branch_1_Conv2d_0c_3x1_scale"
  top: "InceptionResnetV2_InceptionResnetV2_Repeat_2_block8_3_Branch_1_Conv2d_0c_3x1_r"
}
layer {
  name: "Concat:XJ"
  type: "Concat"
  bottom: "InceptionResnetV2_InceptionResnetV2_Repeat_2_block8_3_Branch_0_Conv2d_1x1_r"
  bottom: "InceptionResnetV2_InceptionResnetV2_Repeat_2_block8_3_Branch_1_Conv2d_0c_3x1_r"
  top: "InceptionResnetV2_InceptionResnetV2_Repeat_2_block8_3_concat"
  concat_param {
    axis: 1
  }
}
layer {
  name: "Convolution:XK"
  type: "Convolution"
  bottom: "InceptionResnetV2_InceptionResnetV2_Repeat_2_block8_3_concat"
  top: "InceptionResnetV2_InceptionResnetV2_Repeat_2_block8_3_Conv2d_1x1"
  convolution_param {
    num_output: 2080
    bias_term: true
    group: 1
    pad_h: 0
    pad_w: 0
    kernel_h: 1
    kernel_w: 1
    stride_h: 1
    stride_w: 1
  }
}
layer {
  name: "Eltwise:XL"
  type: "Eltwise"
  bottom: "InceptionResnetV2_InceptionResnetV2_Repeat_2_block8_2_r"
  bottom: "InceptionResnetV2_InceptionResnetV2_Repeat_2_block8_3_Conv2d_1x1"
  top: "InceptionResnetV2_InceptionResnetV2_Repeat_2_block8_3"
  eltwise_param {
    operation: SUM
    coeff: 1.0
    coeff: 0.20000000298
  }
}
layer {
  name: "ReLU:XM"
  type: "ReLU"
  bottom: "InceptionResnetV2_InceptionResnetV2_Repeat_2_block8_3"
  top: "InceptionResnetV2_InceptionResnetV2_Repeat_2_block8_3_r"
}
layer {
  name: "Convolution:XN"
  type: "Convolution"
  bottom: "InceptionResnetV2_InceptionResnetV2_Repeat_2_block8_3_r"
  top: "InceptionResnetV2_InceptionResnetV2_Repeat_2_block8_4_Branch_0_Conv2d_1x1"
  convolution_param {
    num_output: 192
    bias_term: false
    group: 1
    pad_h: 0
    pad_w: 0
    kernel_h: 1
    kernel_w: 1
    stride_h: 1
    stride_w: 1
  }
}
layer {
  name: "BatchNorm:XO"
  type: "BatchNorm"
  bottom: "InceptionResnetV2_InceptionResnetV2_Repeat_2_block8_4_Branch_0_Conv2d_1x1"
  top: "InceptionResnetV2_InceptionResnetV2_Repeat_2_block8_4_Branch_0_Conv2d_1x1_bn"
  batch_norm_param {
    use_global_stats: true
    eps: 0.0010000000475
  }
}
layer {
  name: "Scale:XP"
  type: "Scale"
  bottom: "InceptionResnetV2_InceptionResnetV2_Repeat_2_block8_4_Branch_0_Conv2d_1x1_bn"
  top: "InceptionResnetV2_InceptionResnetV2_Repeat_2_block8_4_Branch_0_Conv2d_1x1_scale"
  scale_param {
    bias_term: true
  }
}
layer {
  name: "ReLU:XQ"
  type: "ReLU"
  bottom: "InceptionResnetV2_InceptionResnetV2_Repeat_2_block8_4_Branch_0_Conv2d_1x1_scale"
  top: "InceptionResnetV2_InceptionResnetV2_Repeat_2_block8_4_Branch_0_Conv2d_1x1_r"
}
layer {
  name: "Convolution:XR"
  type: "Convolution"
  bottom: "InceptionResnetV2_InceptionResnetV2_Repeat_2_block8_3_r"
  top: "InceptionResnetV2_InceptionResnetV2_Repeat_2_block8_4_Branch_1_Conv2d_0a_1x1"
  convolution_param {
    num_output: 192
    bias_term: false
    group: 1
    pad_h: 0
    pad_w: 0
    kernel_h: 1
    kernel_w: 1
    stride_h: 1
    stride_w: 1
  }
}
layer {
  name: "BatchNorm:XS"
  type: "BatchNorm"
  bottom: "InceptionResnetV2_InceptionResnetV2_Repeat_2_block8_4_Branch_1_Conv2d_0a_1x1"
  top: "InceptionResnetV2_InceptionResnetV2_Repeat_2_block8_4_Branch_1_Conv2d_0a_1x1_bn"
  batch_norm_param {
    use_global_stats: true
    eps: 0.0010000000475
  }
}
layer {
  name: "Scale:XT"
  type: "Scale"
  bottom: "InceptionResnetV2_InceptionResnetV2_Repeat_2_block8_4_Branch_1_Conv2d_0a_1x1_bn"
  top: "InceptionResnetV2_InceptionResnetV2_Repeat_2_block8_4_Branch_1_Conv2d_0a_1x1_scale"
  scale_param {
    bias_term: true
  }
}
layer {
  name: "ReLU:XU"
  type: "ReLU"
  bottom: "InceptionResnetV2_InceptionResnetV2_Repeat_2_block8_4_Branch_1_Conv2d_0a_1x1_scale"
  top: "InceptionResnetV2_InceptionResnetV2_Repeat_2_block8_4_Branch_1_Conv2d_0a_1x1_r"
}
layer {
  name: "Convolution:XV"
  type: "Convolution"
  bottom: "InceptionResnetV2_InceptionResnetV2_Repeat_2_block8_4_Branch_1_Conv2d_0a_1x1_r"
  top: "InceptionResnetV2_InceptionResnetV2_Repeat_2_block8_4_Branch_1_Conv2d_0b_1x3"
  convolution_param {
    num_output: 224
    bias_term: false
    group: 1
    pad_h: 0
    pad_w: 1
    kernel_h: 1
    kernel_w: 3
    stride_h: 1
    stride_w: 1
  }
}
layer {
  name: "BatchNorm:XW"
  type: "BatchNorm"
  bottom: "InceptionResnetV2_InceptionResnetV2_Repeat_2_block8_4_Branch_1_Conv2d_0b_1x3"
  top: "InceptionResnetV2_InceptionResnetV2_Repeat_2_block8_4_Branch_1_Conv2d_0b_1x3_bn"
  batch_norm_param {
    use_global_stats: true
    eps: 0.0010000000475
  }
}
layer {
  name: "Scale:XX"
  type: "Scale"
  bottom: "InceptionResnetV2_InceptionResnetV2_Repeat_2_block8_4_Branch_1_Conv2d_0b_1x3_bn"
  top: "InceptionResnetV2_InceptionResnetV2_Repeat_2_block8_4_Branch_1_Conv2d_0b_1x3_scale"
  scale_param {
    bias_term: true
  }
}
layer {
  name: "ReLU:XY"
  type: "ReLU"
  bottom: "InceptionResnetV2_InceptionResnetV2_Repeat_2_block8_4_Branch_1_Conv2d_0b_1x3_scale"
  top: "InceptionResnetV2_InceptionResnetV2_Repeat_2_block8_4_Branch_1_Conv2d_0b_1x3_r"
}
layer {
  name: "Convolution:XZ"
  type: "Convolution"
  bottom: "InceptionResnetV2_InceptionResnetV2_Repeat_2_block8_4_Branch_1_Conv2d_0b_1x3_r"
  top: "InceptionResnetV2_InceptionResnetV2_Repeat_2_block8_4_Branch_1_Conv2d_0c_3x1"
  convolution_param {
    num_output: 256
    bias_term: false
    group: 1
    pad_h: 1
    pad_w: 0
    kernel_h: 3
    kernel_w: 1
    stride_h: 1
    stride_w: 1
  }
}
layer {
  name: "BatchNorm:X0"
  type: "BatchNorm"
  bottom: "InceptionResnetV2_InceptionResnetV2_Repeat_2_block8_4_Branch_1_Conv2d_0c_3x1"
  top: "InceptionResnetV2_InceptionResnetV2_Repeat_2_block8_4_Branch_1_Conv2d_0c_3x1_bn"
  batch_norm_param {
    use_global_stats: true
    eps: 0.0010000000475
  }
}
layer {
  name: "Scale:X1"
  type: "Scale"
  bottom: "InceptionResnetV2_InceptionResnetV2_Repeat_2_block8_4_Branch_1_Conv2d_0c_3x1_bn"
  top: "InceptionResnetV2_InceptionResnetV2_Repeat_2_block8_4_Branch_1_Conv2d_0c_3x1_scale"
  scale_param {
    bias_term: true
  }
}
layer {
  name: "ReLU:X2"
  type: "ReLU"
  bottom: "InceptionResnetV2_InceptionResnetV2_Repeat_2_block8_4_Branch_1_Conv2d_0c_3x1_scale"
  top: "InceptionResnetV2_InceptionResnetV2_Repeat_2_block8_4_Branch_1_Conv2d_0c_3x1_r"
}
layer {
  name: "Concat:X3"
  type: "Concat"
  bottom: "InceptionResnetV2_InceptionResnetV2_Repeat_2_block8_4_Branch_0_Conv2d_1x1_r"
  bottom: "InceptionResnetV2_InceptionResnetV2_Repeat_2_block8_4_Branch_1_Conv2d_0c_3x1_r"
  top: "InceptionResnetV2_InceptionResnetV2_Repeat_2_block8_4_concat"
  concat_param {
    axis: 1
  }
}
layer {
  name: "Convolution:X4"
  type: "Convolution"
  bottom: "InceptionResnetV2_InceptionResnetV2_Repeat_2_block8_4_concat"
  top: "InceptionResnetV2_InceptionResnetV2_Repeat_2_block8_4_Conv2d_1x1"
  convolution_param {
    num_output: 2080
    bias_term: true
    group: 1
    pad_h: 0
    pad_w: 0
    kernel_h: 1
    kernel_w: 1
    stride_h: 1
    stride_w: 1
  }
}
layer {
  name: "Eltwise:X5"
  type: "Eltwise"
  bottom: "InceptionResnetV2_InceptionResnetV2_Repeat_2_block8_3_r"
  bottom: "InceptionResnetV2_InceptionResnetV2_Repeat_2_block8_4_Conv2d_1x1"
  top: "InceptionResnetV2_InceptionResnetV2_Repeat_2_block8_4"
  eltwise_param {
    operation: SUM
    coeff: 1.0
    coeff: 0.20000000298
  }
}
layer {
  name: "ReLU:X6"
  type: "ReLU"
  bottom: "InceptionResnetV2_InceptionResnetV2_Repeat_2_block8_4"
  top: "InceptionResnetV2_InceptionResnetV2_Repeat_2_block8_4_r"
}
layer {
  name: "Convolution:X7"
  type: "Convolution"
  bottom: "InceptionResnetV2_InceptionResnetV2_Repeat_2_block8_4_r"
  top: "InceptionResnetV2_InceptionResnetV2_Repeat_2_block8_5_Branch_0_Conv2d_1x1"
  convolution_param {
    num_output: 192
    bias_term: false
    group: 1
    pad_h: 0
    pad_w: 0
    kernel_h: 1
    kernel_w: 1
    stride_h: 1
    stride_w: 1
  }
}
layer {
  name: "BatchNorm:X8"
  type: "BatchNorm"
  bottom: "InceptionResnetV2_InceptionResnetV2_Repeat_2_block8_5_Branch_0_Conv2d_1x1"
  top: "InceptionResnetV2_InceptionResnetV2_Repeat_2_block8_5_Branch_0_Conv2d_1x1_bn"
  batch_norm_param {
    use_global_stats: true
    eps: 0.0010000000475
  }
}
layer {
  name: "Scale:X9"
  type: "Scale"
  bottom: "InceptionResnetV2_InceptionResnetV2_Repeat_2_block8_5_Branch_0_Conv2d_1x1_bn"
  top: "InceptionResnetV2_InceptionResnetV2_Repeat_2_block8_5_Branch_0_Conv2d_1x1_scale"
  scale_param {
    bias_term: true
  }
}
layer {
  name: "ReLU:YA"
  type: "ReLU"
  bottom: "InceptionResnetV2_InceptionResnetV2_Repeat_2_block8_5_Branch_0_Conv2d_1x1_scale"
  top: "InceptionResnetV2_InceptionResnetV2_Repeat_2_block8_5_Branch_0_Conv2d_1x1_r"
}
layer {
  name: "Convolution:YB"
  type: "Convolution"
  bottom: "InceptionResnetV2_InceptionResnetV2_Repeat_2_block8_4_r"
  top: "InceptionResnetV2_InceptionResnetV2_Repeat_2_block8_5_Branch_1_Conv2d_0a_1x1"
  convolution_param {
    num_output: 192
    bias_term: false
    group: 1
    pad_h: 0
    pad_w: 0
    kernel_h: 1
    kernel_w: 1
    stride_h: 1
    stride_w: 1
  }
}
layer {
  name: "BatchNorm:YC"
  type: "BatchNorm"
  bottom: "InceptionResnetV2_InceptionResnetV2_Repeat_2_block8_5_Branch_1_Conv2d_0a_1x1"
  top: "InceptionResnetV2_InceptionResnetV2_Repeat_2_block8_5_Branch_1_Conv2d_0a_1x1_bn"
  batch_norm_param {
    use_global_stats: true
    eps: 0.0010000000475
  }
}
layer {
  name: "Scale:YD"
  type: "Scale"
  bottom: "InceptionResnetV2_InceptionResnetV2_Repeat_2_block8_5_Branch_1_Conv2d_0a_1x1_bn"
  top: "InceptionResnetV2_InceptionResnetV2_Repeat_2_block8_5_Branch_1_Conv2d_0a_1x1_scale"
  scale_param {
    bias_term: true
  }
}
layer {
  name: "ReLU:YE"
  type: "ReLU"
  bottom: "InceptionResnetV2_InceptionResnetV2_Repeat_2_block8_5_Branch_1_Conv2d_0a_1x1_scale"
  top: "InceptionResnetV2_InceptionResnetV2_Repeat_2_block8_5_Branch_1_Conv2d_0a_1x1_r"
}
layer {
  name: "Convolution:YF"
  type: "Convolution"
  bottom: "InceptionResnetV2_InceptionResnetV2_Repeat_2_block8_5_Branch_1_Conv2d_0a_1x1_r"
  top: "InceptionResnetV2_InceptionResnetV2_Repeat_2_block8_5_Branch_1_Conv2d_0b_1x3"
  convolution_param {
    num_output: 224
    bias_term: false
    group: 1
    pad_h: 0
    pad_w: 1
    kernel_h: 1
    kernel_w: 3
    stride_h: 1
    stride_w: 1
  }
}
layer {
  name: "BatchNorm:YG"
  type: "BatchNorm"
  bottom: "InceptionResnetV2_InceptionResnetV2_Repeat_2_block8_5_Branch_1_Conv2d_0b_1x3"
  top: "InceptionResnetV2_InceptionResnetV2_Repeat_2_block8_5_Branch_1_Conv2d_0b_1x3_bn"
  batch_norm_param {
    use_global_stats: true
    eps: 0.0010000000475
  }
}
layer {
  name: "Scale:YH"
  type: "Scale"
  bottom: "InceptionResnetV2_InceptionResnetV2_Repeat_2_block8_5_Branch_1_Conv2d_0b_1x3_bn"
  top: "InceptionResnetV2_InceptionResnetV2_Repeat_2_block8_5_Branch_1_Conv2d_0b_1x3_scale"
  scale_param {
    bias_term: true
  }
}
layer {
  name: "ReLU:YI"
  type: "ReLU"
  bottom: "InceptionResnetV2_InceptionResnetV2_Repeat_2_block8_5_Branch_1_Conv2d_0b_1x3_scale"
  top: "InceptionResnetV2_InceptionResnetV2_Repeat_2_block8_5_Branch_1_Conv2d_0b_1x3_r"
}
layer {
  name: "Convolution:YJ"
  type: "Convolution"
  bottom: "InceptionResnetV2_InceptionResnetV2_Repeat_2_block8_5_Branch_1_Conv2d_0b_1x3_r"
  top: "InceptionResnetV2_InceptionResnetV2_Repeat_2_block8_5_Branch_1_Conv2d_0c_3x1"
  convolution_param {
    num_output: 256
    bias_term: false
    group: 1
    pad_h: 1
    pad_w: 0
    kernel_h: 3
    kernel_w: 1
    stride_h: 1
    stride_w: 1
  }
}
layer {
  name: "BatchNorm:YK"
  type: "BatchNorm"
  bottom: "InceptionResnetV2_InceptionResnetV2_Repeat_2_block8_5_Branch_1_Conv2d_0c_3x1"
  top: "InceptionResnetV2_InceptionResnetV2_Repeat_2_block8_5_Branch_1_Conv2d_0c_3x1_bn"
  batch_norm_param {
    use_global_stats: true
    eps: 0.0010000000475
  }
}
layer {
  name: "Scale:YL"
  type: "Scale"
  bottom: "InceptionResnetV2_InceptionResnetV2_Repeat_2_block8_5_Branch_1_Conv2d_0c_3x1_bn"
  top: "InceptionResnetV2_InceptionResnetV2_Repeat_2_block8_5_Branch_1_Conv2d_0c_3x1_scale"
  scale_param {
    bias_term: true
  }
}
layer {
  name: "ReLU:YM"
  type: "ReLU"
  bottom: "InceptionResnetV2_InceptionResnetV2_Repeat_2_block8_5_Branch_1_Conv2d_0c_3x1_scale"
  top: "InceptionResnetV2_InceptionResnetV2_Repeat_2_block8_5_Branch_1_Conv2d_0c_3x1_r"
}
layer {
  name: "Concat:YN"
  type: "Concat"
  bottom: "InceptionResnetV2_InceptionResnetV2_Repeat_2_block8_5_Branch_0_Conv2d_1x1_r"
  bottom: "InceptionResnetV2_InceptionResnetV2_Repeat_2_block8_5_Branch_1_Conv2d_0c_3x1_r"
  top: "InceptionResnetV2_InceptionResnetV2_Repeat_2_block8_5_concat"
  concat_param {
    axis: 1
  }
}
layer {
  name: "Convolution:YO"
  type: "Convolution"
  bottom: "InceptionResnetV2_InceptionResnetV2_Repeat_2_block8_5_concat"
  top: "InceptionResnetV2_InceptionResnetV2_Repeat_2_block8_5_Conv2d_1x1"
  convolution_param {
    num_output: 2080
    bias_term: true
    group: 1
    pad_h: 0
    pad_w: 0
    kernel_h: 1
    kernel_w: 1
    stride_h: 1
    stride_w: 1
  }
}
layer {
  name: "Eltwise:YP"
  type: "Eltwise"
  bottom: "InceptionResnetV2_InceptionResnetV2_Repeat_2_block8_4_r"
  bottom: "InceptionResnetV2_InceptionResnetV2_Repeat_2_block8_5_Conv2d_1x1"
  top: "InceptionResnetV2_InceptionResnetV2_Repeat_2_block8_5"
  eltwise_param {
    operation: SUM
    coeff: 1.0
    coeff: 0.20000000298
  }
}
layer {
  name: "ReLU:YQ"
  type: "ReLU"
  bottom: "InceptionResnetV2_InceptionResnetV2_Repeat_2_block8_5"
  top: "InceptionResnetV2_InceptionResnetV2_Repeat_2_block8_5_r"
}
layer {
  name: "Convolution:YR"
  type: "Convolution"
  bottom: "InceptionResnetV2_InceptionResnetV2_Repeat_2_block8_5_r"
  top: "InceptionResnetV2_InceptionResnetV2_Repeat_2_block8_6_Branch_0_Conv2d_1x1"
  convolution_param {
    num_output: 192
    bias_term: false
    group: 1
    pad_h: 0
    pad_w: 0
    kernel_h: 1
    kernel_w: 1
    stride_h: 1
    stride_w: 1
  }
}
layer {
  name: "BatchNorm:YS"
  type: "BatchNorm"
  bottom: "InceptionResnetV2_InceptionResnetV2_Repeat_2_block8_6_Branch_0_Conv2d_1x1"
  top: "InceptionResnetV2_InceptionResnetV2_Repeat_2_block8_6_Branch_0_Conv2d_1x1_bn"
  batch_norm_param {
    use_global_stats: true
    eps: 0.0010000000475
  }
}
layer {
  name: "Scale:YT"
  type: "Scale"
  bottom: "InceptionResnetV2_InceptionResnetV2_Repeat_2_block8_6_Branch_0_Conv2d_1x1_bn"
  top: "InceptionResnetV2_InceptionResnetV2_Repeat_2_block8_6_Branch_0_Conv2d_1x1_scale"
  scale_param {
    bias_term: true
  }
}
layer {
  name: "ReLU:YU"
  type: "ReLU"
  bottom: "InceptionResnetV2_InceptionResnetV2_Repeat_2_block8_6_Branch_0_Conv2d_1x1_scale"
  top: "InceptionResnetV2_InceptionResnetV2_Repeat_2_block8_6_Branch_0_Conv2d_1x1_r"
}
layer {
  name: "Convolution:YV"
  type: "Convolution"
  bottom: "InceptionResnetV2_InceptionResnetV2_Repeat_2_block8_5_r"
  top: "InceptionResnetV2_InceptionResnetV2_Repeat_2_block8_6_Branch_1_Conv2d_0a_1x1"
  convolution_param {
    num_output: 192
    bias_term: false
    group: 1
    pad_h: 0
    pad_w: 0
    kernel_h: 1
    kernel_w: 1
    stride_h: 1
    stride_w: 1
  }
}
layer {
  name: "BatchNorm:YW"
  type: "BatchNorm"
  bottom: "InceptionResnetV2_InceptionResnetV2_Repeat_2_block8_6_Branch_1_Conv2d_0a_1x1"
  top: "InceptionResnetV2_InceptionResnetV2_Repeat_2_block8_6_Branch_1_Conv2d_0a_1x1_bn"
  batch_norm_param {
    use_global_stats: true
    eps: 0.0010000000475
  }
}
layer {
  name: "Scale:YX"
  type: "Scale"
  bottom: "InceptionResnetV2_InceptionResnetV2_Repeat_2_block8_6_Branch_1_Conv2d_0a_1x1_bn"
  top: "InceptionResnetV2_InceptionResnetV2_Repeat_2_block8_6_Branch_1_Conv2d_0a_1x1_scale"
  scale_param {
    bias_term: true
  }
}
layer {
  name: "ReLU:YY"
  type: "ReLU"
  bottom: "InceptionResnetV2_InceptionResnetV2_Repeat_2_block8_6_Branch_1_Conv2d_0a_1x1_scale"
  top: "InceptionResnetV2_InceptionResnetV2_Repeat_2_block8_6_Branch_1_Conv2d_0a_1x1_r"
}
layer {
  name: "Convolution:YZ"
  type: "Convolution"
  bottom: "InceptionResnetV2_InceptionResnetV2_Repeat_2_block8_6_Branch_1_Conv2d_0a_1x1_r"
  top: "InceptionResnetV2_InceptionResnetV2_Repeat_2_block8_6_Branch_1_Conv2d_0b_1x3"
  convolution_param {
    num_output: 224
    bias_term: false
    group: 1
    pad_h: 0
    pad_w: 1
    kernel_h: 1
    kernel_w: 3
    stride_h: 1
    stride_w: 1
  }
}
layer {
  name: "BatchNorm:Y0"
  type: "BatchNorm"
  bottom: "InceptionResnetV2_InceptionResnetV2_Repeat_2_block8_6_Branch_1_Conv2d_0b_1x3"
  top: "InceptionResnetV2_InceptionResnetV2_Repeat_2_block8_6_Branch_1_Conv2d_0b_1x3_bn"
  batch_norm_param {
    use_global_stats: true
    eps: 0.0010000000475
  }
}
layer {
  name: "Scale:Y1"
  type: "Scale"
  bottom: "InceptionResnetV2_InceptionResnetV2_Repeat_2_block8_6_Branch_1_Conv2d_0b_1x3_bn"
  top: "InceptionResnetV2_InceptionResnetV2_Repeat_2_block8_6_Branch_1_Conv2d_0b_1x3_scale"
  scale_param {
    bias_term: true
  }
}
layer {
  name: "ReLU:Y2"
  type: "ReLU"
  bottom: "InceptionResnetV2_InceptionResnetV2_Repeat_2_block8_6_Branch_1_Conv2d_0b_1x3_scale"
  top: "InceptionResnetV2_InceptionResnetV2_Repeat_2_block8_6_Branch_1_Conv2d_0b_1x3_r"
}
layer {
  name: "Convolution:Y3"
  type: "Convolution"
  bottom: "InceptionResnetV2_InceptionResnetV2_Repeat_2_block8_6_Branch_1_Conv2d_0b_1x3_r"
  top: "InceptionResnetV2_InceptionResnetV2_Repeat_2_block8_6_Branch_1_Conv2d_0c_3x1"
  convolution_param {
    num_output: 256
    bias_term: false
    group: 1
    pad_h: 1
    pad_w: 0
    kernel_h: 3
    kernel_w: 1
    stride_h: 1
    stride_w: 1
  }
}
layer {
  name: "BatchNorm:Y4"
  type: "BatchNorm"
  bottom: "InceptionResnetV2_InceptionResnetV2_Repeat_2_block8_6_Branch_1_Conv2d_0c_3x1"
  top: "InceptionResnetV2_InceptionResnetV2_Repeat_2_block8_6_Branch_1_Conv2d_0c_3x1_bn"
  batch_norm_param {
    use_global_stats: true
    eps: 0.0010000000475
  }
}
layer {
  name: "Scale:Y5"
  type: "Scale"
  bottom: "InceptionResnetV2_InceptionResnetV2_Repeat_2_block8_6_Branch_1_Conv2d_0c_3x1_bn"
  top: "InceptionResnetV2_InceptionResnetV2_Repeat_2_block8_6_Branch_1_Conv2d_0c_3x1_scale"
  scale_param {
    bias_term: true
  }
}
layer {
  name: "ReLU:Y6"
  type: "ReLU"
  bottom: "InceptionResnetV2_InceptionResnetV2_Repeat_2_block8_6_Branch_1_Conv2d_0c_3x1_scale"
  top: "InceptionResnetV2_InceptionResnetV2_Repeat_2_block8_6_Branch_1_Conv2d_0c_3x1_r"
}
layer {
  name: "Concat:Y7"
  type: "Concat"
  bottom: "InceptionResnetV2_InceptionResnetV2_Repeat_2_block8_6_Branch_0_Conv2d_1x1_r"
  bottom: "InceptionResnetV2_InceptionResnetV2_Repeat_2_block8_6_Branch_1_Conv2d_0c_3x1_r"
  top: "InceptionResnetV2_InceptionResnetV2_Repeat_2_block8_6_concat"
  concat_param {
    axis: 1
  }
}
layer {
  name: "Convolution:Y8"
  type: "Convolution"
  bottom: "InceptionResnetV2_InceptionResnetV2_Repeat_2_block8_6_concat"
  top: "InceptionResnetV2_InceptionResnetV2_Repeat_2_block8_6_Conv2d_1x1"
  convolution_param {
    num_output: 2080
    bias_term: true
    group: 1
    pad_h: 0
    pad_w: 0
    kernel_h: 1
    kernel_w: 1
    stride_h: 1
    stride_w: 1
  }
}
layer {
  name: "Eltwise:Y9"
  type: "Eltwise"
  bottom: "InceptionResnetV2_InceptionResnetV2_Repeat_2_block8_5_r"
  bottom: "InceptionResnetV2_InceptionResnetV2_Repeat_2_block8_6_Conv2d_1x1"
  top: "InceptionResnetV2_InceptionResnetV2_Repeat_2_block8_6"
  eltwise_param {
    operation: SUM
    coeff: 1.0
    coeff: 0.20000000298
  }
}
layer {
  name: "ReLU:ZA"
  type: "ReLU"
  bottom: "InceptionResnetV2_InceptionResnetV2_Repeat_2_block8_6"
  top: "InceptionResnetV2_InceptionResnetV2_Repeat_2_block8_6_r"
}
layer {
  name: "Convolution:ZB"
  type: "Convolution"
  bottom: "InceptionResnetV2_InceptionResnetV2_Repeat_2_block8_6_r"
  top: "InceptionResnetV2_InceptionResnetV2_Repeat_2_block8_7_Branch_0_Conv2d_1x1"
  convolution_param {
    num_output: 192
    bias_term: false
    group: 1
    pad_h: 0
    pad_w: 0
    kernel_h: 1
    kernel_w: 1
    stride_h: 1
    stride_w: 1
  }
}
layer {
  name: "BatchNorm:ZC"
  type: "BatchNorm"
  bottom: "InceptionResnetV2_InceptionResnetV2_Repeat_2_block8_7_Branch_0_Conv2d_1x1"
  top: "InceptionResnetV2_InceptionResnetV2_Repeat_2_block8_7_Branch_0_Conv2d_1x1_bn"
  batch_norm_param {
    use_global_stats: true
    eps: 0.0010000000475
  }
}
layer {
  name: "Scale:ZD"
  type: "Scale"
  bottom: "InceptionResnetV2_InceptionResnetV2_Repeat_2_block8_7_Branch_0_Conv2d_1x1_bn"
  top: "InceptionResnetV2_InceptionResnetV2_Repeat_2_block8_7_Branch_0_Conv2d_1x1_scale"
  scale_param {
    bias_term: true
  }
}
layer {
  name: "ReLU:ZE"
  type: "ReLU"
  bottom: "InceptionResnetV2_InceptionResnetV2_Repeat_2_block8_7_Branch_0_Conv2d_1x1_scale"
  top: "InceptionResnetV2_InceptionResnetV2_Repeat_2_block8_7_Branch_0_Conv2d_1x1_r"
}
layer {
  name: "Convolution:ZF"
  type: "Convolution"
  bottom: "InceptionResnetV2_InceptionResnetV2_Repeat_2_block8_6_r"
  top: "InceptionResnetV2_InceptionResnetV2_Repeat_2_block8_7_Branch_1_Conv2d_0a_1x1"
  convolution_param {
    num_output: 192
    bias_term: false
    group: 1
    pad_h: 0
    pad_w: 0
    kernel_h: 1
    kernel_w: 1
    stride_h: 1
    stride_w: 1
  }
}
layer {
  name: "BatchNorm:ZG"
  type: "BatchNorm"
  bottom: "InceptionResnetV2_InceptionResnetV2_Repeat_2_block8_7_Branch_1_Conv2d_0a_1x1"
  top: "InceptionResnetV2_InceptionResnetV2_Repeat_2_block8_7_Branch_1_Conv2d_0a_1x1_bn"
  batch_norm_param {
    use_global_stats: true
    eps: 0.0010000000475
  }
}
layer {
  name: "Scale:ZH"
  type: "Scale"
  bottom: "InceptionResnetV2_InceptionResnetV2_Repeat_2_block8_7_Branch_1_Conv2d_0a_1x1_bn"
  top: "InceptionResnetV2_InceptionResnetV2_Repeat_2_block8_7_Branch_1_Conv2d_0a_1x1_scale"
  scale_param {
    bias_term: true
  }
}
layer {
  name: "ReLU:ZI"
  type: "ReLU"
  bottom: "InceptionResnetV2_InceptionResnetV2_Repeat_2_block8_7_Branch_1_Conv2d_0a_1x1_scale"
  top: "InceptionResnetV2_InceptionResnetV2_Repeat_2_block8_7_Branch_1_Conv2d_0a_1x1_r"
}
layer {
  name: "Convolution:ZJ"
  type: "Convolution"
  bottom: "InceptionResnetV2_InceptionResnetV2_Repeat_2_block8_7_Branch_1_Conv2d_0a_1x1_r"
  top: "InceptionResnetV2_InceptionResnetV2_Repeat_2_block8_7_Branch_1_Conv2d_0b_1x3"
  convolution_param {
    num_output: 224
    bias_term: false
    group: 1
    pad_h: 0
    pad_w: 1
    kernel_h: 1
    kernel_w: 3
    stride_h: 1
    stride_w: 1
  }
}
layer {
  name: "BatchNorm:ZK"
  type: "BatchNorm"
  bottom: "InceptionResnetV2_InceptionResnetV2_Repeat_2_block8_7_Branch_1_Conv2d_0b_1x3"
  top: "InceptionResnetV2_InceptionResnetV2_Repeat_2_block8_7_Branch_1_Conv2d_0b_1x3_bn"
  batch_norm_param {
    use_global_stats: true
    eps: 0.0010000000475
  }
}
layer {
  name: "Scale:ZL"
  type: "Scale"
  bottom: "InceptionResnetV2_InceptionResnetV2_Repeat_2_block8_7_Branch_1_Conv2d_0b_1x3_bn"
  top: "InceptionResnetV2_InceptionResnetV2_Repeat_2_block8_7_Branch_1_Conv2d_0b_1x3_scale"
  scale_param {
    bias_term: true
  }
}
layer {
  name: "ReLU:ZM"
  type: "ReLU"
  bottom: "InceptionResnetV2_InceptionResnetV2_Repeat_2_block8_7_Branch_1_Conv2d_0b_1x3_scale"
  top: "InceptionResnetV2_InceptionResnetV2_Repeat_2_block8_7_Branch_1_Conv2d_0b_1x3_r"
}
layer {
  name: "Convolution:ZN"
  type: "Convolution"
  bottom: "InceptionResnetV2_InceptionResnetV2_Repeat_2_block8_7_Branch_1_Conv2d_0b_1x3_r"
  top: "InceptionResnetV2_InceptionResnetV2_Repeat_2_block8_7_Branch_1_Conv2d_0c_3x1"
  convolution_param {
    num_output: 256
    bias_term: false
    group: 1
    pad_h: 1
    pad_w: 0
    kernel_h: 3
    kernel_w: 1
    stride_h: 1
    stride_w: 1
  }
}
layer {
  name: "BatchNorm:ZO"
  type: "BatchNorm"
  bottom: "InceptionResnetV2_InceptionResnetV2_Repeat_2_block8_7_Branch_1_Conv2d_0c_3x1"
  top: "InceptionResnetV2_InceptionResnetV2_Repeat_2_block8_7_Branch_1_Conv2d_0c_3x1_bn"
  batch_norm_param {
    use_global_stats: true
    eps: 0.0010000000475
  }
}
layer {
  name: "Scale:ZP"
  type: "Scale"
  bottom: "InceptionResnetV2_InceptionResnetV2_Repeat_2_block8_7_Branch_1_Conv2d_0c_3x1_bn"
  top: "InceptionResnetV2_InceptionResnetV2_Repeat_2_block8_7_Branch_1_Conv2d_0c_3x1_scale"
  scale_param {
    bias_term: true
  }
}
layer {
  name: "ReLU:ZQ"
  type: "ReLU"
  bottom: "InceptionResnetV2_InceptionResnetV2_Repeat_2_block8_7_Branch_1_Conv2d_0c_3x1_scale"
  top: "InceptionResnetV2_InceptionResnetV2_Repeat_2_block8_7_Branch_1_Conv2d_0c_3x1_r"
}
layer {
  name: "Concat:ZR"
  type: "Concat"
  bottom: "InceptionResnetV2_InceptionResnetV2_Repeat_2_block8_7_Branch_0_Conv2d_1x1_r"
  bottom: "InceptionResnetV2_InceptionResnetV2_Repeat_2_block8_7_Branch_1_Conv2d_0c_3x1_r"
  top: "InceptionResnetV2_InceptionResnetV2_Repeat_2_block8_7_concat"
  concat_param {
    axis: 1
  }
}
layer {
  name: "Convolution:ZS"
  type: "Convolution"
  bottom: "InceptionResnetV2_InceptionResnetV2_Repeat_2_block8_7_concat"
  top: "InceptionResnetV2_InceptionResnetV2_Repeat_2_block8_7_Conv2d_1x1"
  convolution_param {
    num_output: 2080
    bias_term: true
    group: 1
    pad_h: 0
    pad_w: 0
    kernel_h: 1
    kernel_w: 1
    stride_h: 1
    stride_w: 1
  }
}
layer {
  name: "Eltwise:ZT"
  type: "Eltwise"
  bottom: "InceptionResnetV2_InceptionResnetV2_Repeat_2_block8_6_r"
  bottom: "InceptionResnetV2_InceptionResnetV2_Repeat_2_block8_7_Conv2d_1x1"
  top: "InceptionResnetV2_InceptionResnetV2_Repeat_2_block8_7"
  eltwise_param {
    operation: SUM
    coeff: 1.0
    coeff: 0.20000000298
  }
}
layer {
  name: "ReLU:ZU"
  type: "ReLU"
  bottom: "InceptionResnetV2_InceptionResnetV2_Repeat_2_block8_7"
  top: "InceptionResnetV2_InceptionResnetV2_Repeat_2_block8_7_r"
}
layer {
  name: "Convolution:ZV"
  type: "Convolution"
  bottom: "InceptionResnetV2_InceptionResnetV2_Repeat_2_block8_7_r"
  top: "InceptionResnetV2_InceptionResnetV2_Repeat_2_block8_8_Branch_0_Conv2d_1x1"
  convolution_param {
    num_output: 192
    bias_term: false
    group: 1
    pad_h: 0
    pad_w: 0
    kernel_h: 1
    kernel_w: 1
    stride_h: 1
    stride_w: 1
  }
}
layer {
  name: "BatchNorm:ZW"
  type: "BatchNorm"
  bottom: "InceptionResnetV2_InceptionResnetV2_Repeat_2_block8_8_Branch_0_Conv2d_1x1"
  top: "InceptionResnetV2_InceptionResnetV2_Repeat_2_block8_8_Branch_0_Conv2d_1x1_bn"
  batch_norm_param {
    use_global_stats: true
    eps: 0.0010000000475
  }
}
layer {
  name: "Scale:ZX"
  type: "Scale"
  bottom: "InceptionResnetV2_InceptionResnetV2_Repeat_2_block8_8_Branch_0_Conv2d_1x1_bn"
  top: "InceptionResnetV2_InceptionResnetV2_Repeat_2_block8_8_Branch_0_Conv2d_1x1_scale"
  scale_param {
    bias_term: true
  }
}
layer {
  name: "ReLU:ZY"
  type: "ReLU"
  bottom: "InceptionResnetV2_InceptionResnetV2_Repeat_2_block8_8_Branch_0_Conv2d_1x1_scale"
  top: "InceptionResnetV2_InceptionResnetV2_Repeat_2_block8_8_Branch_0_Conv2d_1x1_r"
}
layer {
  name: "Convolution:ZZ"
  type: "Convolution"
  bottom: "InceptionResnetV2_InceptionResnetV2_Repeat_2_block8_7_r"
  top: "InceptionResnetV2_InceptionResnetV2_Repeat_2_block8_8_Branch_1_Conv2d_0a_1x1"
  convolution_param {
    num_output: 192
    bias_term: false
    group: 1
    pad_h: 0
    pad_w: 0
    kernel_h: 1
    kernel_w: 1
    stride_h: 1
    stride_w: 1
  }
}
layer {
  name: "BatchNorm:Z0"
  type: "BatchNorm"
  bottom: "InceptionResnetV2_InceptionResnetV2_Repeat_2_block8_8_Branch_1_Conv2d_0a_1x1"
  top: "InceptionResnetV2_InceptionResnetV2_Repeat_2_block8_8_Branch_1_Conv2d_0a_1x1_bn"
  batch_norm_param {
    use_global_stats: true
    eps: 0.0010000000475
  }
}
layer {
  name: "Scale:Z1"
  type: "Scale"
  bottom: "InceptionResnetV2_InceptionResnetV2_Repeat_2_block8_8_Branch_1_Conv2d_0a_1x1_bn"
  top: "InceptionResnetV2_InceptionResnetV2_Repeat_2_block8_8_Branch_1_Conv2d_0a_1x1_scale"
  scale_param {
    bias_term: true
  }
}
layer {
  name: "ReLU:Z2"
  type: "ReLU"
  bottom: "InceptionResnetV2_InceptionResnetV2_Repeat_2_block8_8_Branch_1_Conv2d_0a_1x1_scale"
  top: "InceptionResnetV2_InceptionResnetV2_Repeat_2_block8_8_Branch_1_Conv2d_0a_1x1_r"
}
layer {
  name: "Convolution:Z3"
  type: "Convolution"
  bottom: "InceptionResnetV2_InceptionResnetV2_Repeat_2_block8_8_Branch_1_Conv2d_0a_1x1_r"
  top: "InceptionResnetV2_InceptionResnetV2_Repeat_2_block8_8_Branch_1_Conv2d_0b_1x3"
  convolution_param {
    num_output: 224
    bias_term: false
    group: 1
    pad_h: 0
    pad_w: 1
    kernel_h: 1
    kernel_w: 3
    stride_h: 1
    stride_w: 1
  }
}
layer {
  name: "BatchNorm:Z4"
  type: "BatchNorm"
  bottom: "InceptionResnetV2_InceptionResnetV2_Repeat_2_block8_8_Branch_1_Conv2d_0b_1x3"
  top: "InceptionResnetV2_InceptionResnetV2_Repeat_2_block8_8_Branch_1_Conv2d_0b_1x3_bn"
  batch_norm_param {
    use_global_stats: true
    eps: 0.0010000000475
  }
}
layer {
  name: "Scale:Z5"
  type: "Scale"
  bottom: "InceptionResnetV2_InceptionResnetV2_Repeat_2_block8_8_Branch_1_Conv2d_0b_1x3_bn"
  top: "InceptionResnetV2_InceptionResnetV2_Repeat_2_block8_8_Branch_1_Conv2d_0b_1x3_scale"
  scale_param {
    bias_term: true
  }
}
layer {
  name: "ReLU:Z6"
  type: "ReLU"
  bottom: "InceptionResnetV2_InceptionResnetV2_Repeat_2_block8_8_Branch_1_Conv2d_0b_1x3_scale"
  top: "InceptionResnetV2_InceptionResnetV2_Repeat_2_block8_8_Branch_1_Conv2d_0b_1x3_r"
}
layer {
  name: "Convolution:Z7"
  type: "Convolution"
  bottom: "InceptionResnetV2_InceptionResnetV2_Repeat_2_block8_8_Branch_1_Conv2d_0b_1x3_r"
  top: "InceptionResnetV2_InceptionResnetV2_Repeat_2_block8_8_Branch_1_Conv2d_0c_3x1"
  convolution_param {
    num_output: 256
    bias_term: false
    group: 1
    pad_h: 1
    pad_w: 0
    kernel_h: 3
    kernel_w: 1
    stride_h: 1
    stride_w: 1
  }
}
layer {
  name: "BatchNorm:Z8"
  type: "BatchNorm"
  bottom: "InceptionResnetV2_InceptionResnetV2_Repeat_2_block8_8_Branch_1_Conv2d_0c_3x1"
  top: "InceptionResnetV2_InceptionResnetV2_Repeat_2_block8_8_Branch_1_Conv2d_0c_3x1_bn"
  batch_norm_param {
    use_global_stats: true
    eps: 0.0010000000475
  }
}
layer {
  name: "Scale:Z9"
  type: "Scale"
  bottom: "InceptionResnetV2_InceptionResnetV2_Repeat_2_block8_8_Branch_1_Conv2d_0c_3x1_bn"
  top: "InceptionResnetV2_InceptionResnetV2_Repeat_2_block8_8_Branch_1_Conv2d_0c_3x1_scale"
  scale_param {
    bias_term: true
  }
}
layer {
  name: "ReLU:0A"
  type: "ReLU"
  bottom: "InceptionResnetV2_InceptionResnetV2_Repeat_2_block8_8_Branch_1_Conv2d_0c_3x1_scale"
  top: "InceptionResnetV2_InceptionResnetV2_Repeat_2_block8_8_Branch_1_Conv2d_0c_3x1_r"
}
layer {
  name: "Concat:0B"
  type: "Concat"
  bottom: "InceptionResnetV2_InceptionResnetV2_Repeat_2_block8_8_Branch_0_Conv2d_1x1_r"
  bottom: "InceptionResnetV2_InceptionResnetV2_Repeat_2_block8_8_Branch_1_Conv2d_0c_3x1_r"
  top: "InceptionResnetV2_InceptionResnetV2_Repeat_2_block8_8_concat"
  concat_param {
    axis: 1
  }
}
layer {
  name: "Convolution:0C"
  type: "Convolution"
  bottom: "InceptionResnetV2_InceptionResnetV2_Repeat_2_block8_8_concat"
  top: "InceptionResnetV2_InceptionResnetV2_Repeat_2_block8_8_Conv2d_1x1"
  convolution_param {
    num_output: 2080
    bias_term: true
    group: 1
    pad_h: 0
    pad_w: 0
    kernel_h: 1
    kernel_w: 1
    stride_h: 1
    stride_w: 1
  }
}
layer {
  name: "Eltwise:0D"
  type: "Eltwise"
  bottom: "InceptionResnetV2_InceptionResnetV2_Repeat_2_block8_7_r"
  bottom: "InceptionResnetV2_InceptionResnetV2_Repeat_2_block8_8_Conv2d_1x1"
  top: "InceptionResnetV2_InceptionResnetV2_Repeat_2_block8_8"
  eltwise_param {
    operation: SUM
    coeff: 1.0
    coeff: 0.20000000298
  }
}
layer {
  name: "ReLU:0E"
  type: "ReLU"
  bottom: "InceptionResnetV2_InceptionResnetV2_Repeat_2_block8_8"
  top: "InceptionResnetV2_InceptionResnetV2_Repeat_2_block8_8_r"
}
layer {
  name: "Convolution:0F"
  type: "Convolution"
  bottom: "InceptionResnetV2_InceptionResnetV2_Repeat_2_block8_8_r"
  top: "InceptionResnetV2_InceptionResnetV2_Repeat_2_block8_9_Branch_0_Conv2d_1x1"
  convolution_param {
    num_output: 192
    bias_term: false
    group: 1
    pad_h: 0
    pad_w: 0
    kernel_h: 1
    kernel_w: 1
    stride_h: 1
    stride_w: 1
  }
}
layer {
  name: "BatchNorm:0G"
  type: "BatchNorm"
  bottom: "InceptionResnetV2_InceptionResnetV2_Repeat_2_block8_9_Branch_0_Conv2d_1x1"
  top: "InceptionResnetV2_InceptionResnetV2_Repeat_2_block8_9_Branch_0_Conv2d_1x1_bn"
  batch_norm_param {
    use_global_stats: true
    eps: 0.0010000000475
  }
}
layer {
  name: "Scale:0H"
  type: "Scale"
  bottom: "InceptionResnetV2_InceptionResnetV2_Repeat_2_block8_9_Branch_0_Conv2d_1x1_bn"
  top: "InceptionResnetV2_InceptionResnetV2_Repeat_2_block8_9_Branch_0_Conv2d_1x1_scale"
  scale_param {
    bias_term: true
  }
}
layer {
  name: "ReLU:0I"
  type: "ReLU"
  bottom: "InceptionResnetV2_InceptionResnetV2_Repeat_2_block8_9_Branch_0_Conv2d_1x1_scale"
  top: "InceptionResnetV2_InceptionResnetV2_Repeat_2_block8_9_Branch_0_Conv2d_1x1_r"
}
layer {
  name: "Convolution:0J"
  type: "Convolution"
  bottom: "InceptionResnetV2_InceptionResnetV2_Repeat_2_block8_8_r"
  top: "InceptionResnetV2_InceptionResnetV2_Repeat_2_block8_9_Branch_1_Conv2d_0a_1x1"
  convolution_param {
    num_output: 192
    bias_term: false
    group: 1
    pad_h: 0
    pad_w: 0
    kernel_h: 1
    kernel_w: 1
    stride_h: 1
    stride_w: 1
  }
}
layer {
  name: "BatchNorm:0K"
  type: "BatchNorm"
  bottom: "InceptionResnetV2_InceptionResnetV2_Repeat_2_block8_9_Branch_1_Conv2d_0a_1x1"
  top: "InceptionResnetV2_InceptionResnetV2_Repeat_2_block8_9_Branch_1_Conv2d_0a_1x1_bn"
  batch_norm_param {
    use_global_stats: true
    eps: 0.0010000000475
  }
}
layer {
  name: "Scale:0L"
  type: "Scale"
  bottom: "InceptionResnetV2_InceptionResnetV2_Repeat_2_block8_9_Branch_1_Conv2d_0a_1x1_bn"
  top: "InceptionResnetV2_InceptionResnetV2_Repeat_2_block8_9_Branch_1_Conv2d_0a_1x1_scale"
  scale_param {
    bias_term: true
  }
}
layer {
  name: "ReLU:0M"
  type: "ReLU"
  bottom: "InceptionResnetV2_InceptionResnetV2_Repeat_2_block8_9_Branch_1_Conv2d_0a_1x1_scale"
  top: "InceptionResnetV2_InceptionResnetV2_Repeat_2_block8_9_Branch_1_Conv2d_0a_1x1_r"
}
layer {
  name: "Convolution:0N"
  type: "Convolution"
  bottom: "InceptionResnetV2_InceptionResnetV2_Repeat_2_block8_9_Branch_1_Conv2d_0a_1x1_r"
  top: "InceptionResnetV2_InceptionResnetV2_Repeat_2_block8_9_Branch_1_Conv2d_0b_1x3"
  convolution_param {
    num_output: 224
    bias_term: false
    group: 1
    pad_h: 0
    pad_w: 1
    kernel_h: 1
    kernel_w: 3
    stride_h: 1
    stride_w: 1
  }
}
layer {
  name: "BatchNorm:0O"
  type: "BatchNorm"
  bottom: "InceptionResnetV2_InceptionResnetV2_Repeat_2_block8_9_Branch_1_Conv2d_0b_1x3"
  top: "InceptionResnetV2_InceptionResnetV2_Repeat_2_block8_9_Branch_1_Conv2d_0b_1x3_bn"
  batch_norm_param {
    use_global_stats: true
    eps: 0.0010000000475
  }
}
layer {
  name: "Scale:0P"
  type: "Scale"
  bottom: "InceptionResnetV2_InceptionResnetV2_Repeat_2_block8_9_Branch_1_Conv2d_0b_1x3_bn"
  top: "InceptionResnetV2_InceptionResnetV2_Repeat_2_block8_9_Branch_1_Conv2d_0b_1x3_scale"
  scale_param {
    bias_term: true
  }
}
layer {
  name: "ReLU:0Q"
  type: "ReLU"
  bottom: "InceptionResnetV2_InceptionResnetV2_Repeat_2_block8_9_Branch_1_Conv2d_0b_1x3_scale"
  top: "InceptionResnetV2_InceptionResnetV2_Repeat_2_block8_9_Branch_1_Conv2d_0b_1x3_r"
}
layer {
  name: "Convolution:0R"
  type: "Convolution"
  bottom: "InceptionResnetV2_InceptionResnetV2_Repeat_2_block8_9_Branch_1_Conv2d_0b_1x3_r"
  top: "InceptionResnetV2_InceptionResnetV2_Repeat_2_block8_9_Branch_1_Conv2d_0c_3x1"
  convolution_param {
    num_output: 256
    bias_term: false
    group: 1
    pad_h: 1
    pad_w: 0
    kernel_h: 3
    kernel_w: 1
    stride_h: 1
    stride_w: 1
  }
}
layer {
  name: "BatchNorm:0S"
  type: "BatchNorm"
  bottom: "InceptionResnetV2_InceptionResnetV2_Repeat_2_block8_9_Branch_1_Conv2d_0c_3x1"
  top: "InceptionResnetV2_InceptionResnetV2_Repeat_2_block8_9_Branch_1_Conv2d_0c_3x1_bn"
  batch_norm_param {
    use_global_stats: true
    eps: 0.0010000000475
  }
}
layer {
  name: "Scale:0T"
  type: "Scale"
  bottom: "InceptionResnetV2_InceptionResnetV2_Repeat_2_block8_9_Branch_1_Conv2d_0c_3x1_bn"
  top: "InceptionResnetV2_InceptionResnetV2_Repeat_2_block8_9_Branch_1_Conv2d_0c_3x1_scale"
  scale_param {
    bias_term: true
  }
}
layer {
  name: "ReLU:0U"
  type: "ReLU"
  bottom: "InceptionResnetV2_InceptionResnetV2_Repeat_2_block8_9_Branch_1_Conv2d_0c_3x1_scale"
  top: "InceptionResnetV2_InceptionResnetV2_Repeat_2_block8_9_Branch_1_Conv2d_0c_3x1_r"
}
layer {
  name: "Concat:0V"
  type: "Concat"
  bottom: "InceptionResnetV2_InceptionResnetV2_Repeat_2_block8_9_Branch_0_Conv2d_1x1_r"
  bottom: "InceptionResnetV2_InceptionResnetV2_Repeat_2_block8_9_Branch_1_Conv2d_0c_3x1_r"
  top: "InceptionResnetV2_InceptionResnetV2_Repeat_2_block8_9_concat"
  concat_param {
    axis: 1
  }
}
layer {
  name: "Convolution:0W"
  type: "Convolution"
  bottom: "InceptionResnetV2_InceptionResnetV2_Repeat_2_block8_9_concat"
  top: "InceptionResnetV2_InceptionResnetV2_Repeat_2_block8_9_Conv2d_1x1"
  convolution_param {
    num_output: 2080
    bias_term: true
    group: 1
    pad_h: 0
    pad_w: 0
    kernel_h: 1
    kernel_w: 1
    stride_h: 1
    stride_w: 1
  }
}
layer {
  name: "Eltwise:0X"
  type: "Eltwise"
  bottom: "InceptionResnetV2_InceptionResnetV2_Repeat_2_block8_8_r"
  bottom: "InceptionResnetV2_InceptionResnetV2_Repeat_2_block8_9_Conv2d_1x1"
  top: "InceptionResnetV2_InceptionResnetV2_Repeat_2_block8_9"
  eltwise_param {
    operation: SUM
    coeff: 1.0
    coeff: 0.20000000298
  }
}
layer {
  name: "ReLU:0Y"
  type: "ReLU"
  bottom: "InceptionResnetV2_InceptionResnetV2_Repeat_2_block8_9"
  top: "InceptionResnetV2_InceptionResnetV2_Repeat_2_block8_9_r"
}
layer {
  name: "Convolution:0Z"
  type: "Convolution"
  bottom: "InceptionResnetV2_InceptionResnetV2_Repeat_2_block8_9_r"
  top: "InceptionResnetV2_InceptionResnetV2_Block8_Branch_0_Conv2d_1x1"
  convolution_param {
    num_output: 192
    bias_term: false
    group: 1
    pad_h: 0
    pad_w: 0
    kernel_h: 1
    kernel_w: 1
    stride_h: 1
    stride_w: 1
  }
}
layer {
  name: "BatchNorm:00"
  type: "BatchNorm"
  bottom: "InceptionResnetV2_InceptionResnetV2_Block8_Branch_0_Conv2d_1x1"
  top: "InceptionResnetV2_InceptionResnetV2_Block8_Branch_0_Conv2d_1x1_bn"
  batch_norm_param {
    use_global_stats: true
    eps: 0.0010000000475
  }
}
layer {
  name: "Scale:01"
  type: "Scale"
  bottom: "InceptionResnetV2_InceptionResnetV2_Block8_Branch_0_Conv2d_1x1_bn"
  top: "InceptionResnetV2_InceptionResnetV2_Block8_Branch_0_Conv2d_1x1_scale"
  scale_param {
    bias_term: true
  }
}
layer {
  name: "ReLU:02"
  type: "ReLU"
  bottom: "InceptionResnetV2_InceptionResnetV2_Block8_Branch_0_Conv2d_1x1_scale"
  top: "InceptionResnetV2_InceptionResnetV2_Block8_Branch_0_Conv2d_1x1_r"
}
layer {
  name: "Convolution:03"
  type: "Convolution"
  bottom: "InceptionResnetV2_InceptionResnetV2_Repeat_2_block8_9_r"
  top: "InceptionResnetV2_InceptionResnetV2_Block8_Branch_1_Conv2d_0a_1x1"
  convolution_param {
    num_output: 192
    bias_term: false
    group: 1
    pad_h: 0
    pad_w: 0
    kernel_h: 1
    kernel_w: 1
    stride_h: 1
    stride_w: 1
  }
}
layer {
  name: "BatchNorm:04"
  type: "BatchNorm"
  bottom: "InceptionResnetV2_InceptionResnetV2_Block8_Branch_1_Conv2d_0a_1x1"
  top: "InceptionResnetV2_InceptionResnetV2_Block8_Branch_1_Conv2d_0a_1x1_bn"
  batch_norm_param {
    use_global_stats: true
    eps: 0.0010000000475
  }
}
layer {
  name: "Scale:05"
  type: "Scale"
  bottom: "InceptionResnetV2_InceptionResnetV2_Block8_Branch_1_Conv2d_0a_1x1_bn"
  top: "InceptionResnetV2_InceptionResnetV2_Block8_Branch_1_Conv2d_0a_1x1_scale"
  scale_param {
    bias_term: true
  }
}
layer {
  name: "ReLU:06"
  type: "ReLU"
  bottom: "InceptionResnetV2_InceptionResnetV2_Block8_Branch_1_Conv2d_0a_1x1_scale"
  top: "InceptionResnetV2_InceptionResnetV2_Block8_Branch_1_Conv2d_0a_1x1_r"
}
layer {
  name: "Convolution:07"
  type: "Convolution"
  bottom: "InceptionResnetV2_InceptionResnetV2_Block8_Branch_1_Conv2d_0a_1x1_r"
  top: "InceptionResnetV2_InceptionResnetV2_Block8_Branch_1_Conv2d_0b_1x3"
  convolution_param {
    num_output: 224
    bias_term: false
    group: 1
    pad_h: 0
    pad_w: 1
    kernel_h: 1
    kernel_w: 3
    stride_h: 1
    stride_w: 1
  }
}
layer {
  name: "BatchNorm:08"
  type: "BatchNorm"
  bottom: "InceptionResnetV2_InceptionResnetV2_Block8_Branch_1_Conv2d_0b_1x3"
  top: "InceptionResnetV2_InceptionResnetV2_Block8_Branch_1_Conv2d_0b_1x3_bn"
  batch_norm_param {
    use_global_stats: true
    eps: 0.0010000000475
  }
}
layer {
  name: "Scale:09"
  type: "Scale"
  bottom: "InceptionResnetV2_InceptionResnetV2_Block8_Branch_1_Conv2d_0b_1x3_bn"
  top: "InceptionResnetV2_InceptionResnetV2_Block8_Branch_1_Conv2d_0b_1x3_scale"
  scale_param {
    bias_term: true
  }
}
layer {
  name: "ReLU:1A"
  type: "ReLU"
  bottom: "InceptionResnetV2_InceptionResnetV2_Block8_Branch_1_Conv2d_0b_1x3_scale"
  top: "InceptionResnetV2_InceptionResnetV2_Block8_Branch_1_Conv2d_0b_1x3_r"
}
layer {
  name: "Convolution:1B"
  type: "Convolution"
  bottom: "InceptionResnetV2_InceptionResnetV2_Block8_Branch_1_Conv2d_0b_1x3_r"
  top: "InceptionResnetV2_InceptionResnetV2_Block8_Branch_1_Conv2d_0c_3x1"
  convolution_param {
    num_output: 256
    bias_term: false
    group: 1
    pad_h: 1
    pad_w: 0
    kernel_h: 3
    kernel_w: 1
    stride_h: 1
    stride_w: 1
  }
}
layer {
  name: "BatchNorm:1C"
  type: "BatchNorm"
  bottom: "InceptionResnetV2_InceptionResnetV2_Block8_Branch_1_Conv2d_0c_3x1"
  top: "InceptionResnetV2_InceptionResnetV2_Block8_Branch_1_Conv2d_0c_3x1_bn"
  batch_norm_param {
    use_global_stats: true
    eps: 0.0010000000475
  }
}
layer {
  name: "Scale:1D"
  type: "Scale"
  bottom: "InceptionResnetV2_InceptionResnetV2_Block8_Branch_1_Conv2d_0c_3x1_bn"
  top: "InceptionResnetV2_InceptionResnetV2_Block8_Branch_1_Conv2d_0c_3x1_scale"
  scale_param {
    bias_term: true
  }
}
layer {
  name: "ReLU:1E"
  type: "ReLU"
  bottom: "InceptionResnetV2_InceptionResnetV2_Block8_Branch_1_Conv2d_0c_3x1_scale"
  top: "InceptionResnetV2_InceptionResnetV2_Block8_Branch_1_Conv2d_0c_3x1_r"
}
layer {
  name: "Concat:1F"
  type: "Concat"
  bottom: "InceptionResnetV2_InceptionResnetV2_Block8_Branch_0_Conv2d_1x1_r"
  bottom: "InceptionResnetV2_InceptionResnetV2_Block8_Branch_1_Conv2d_0c_3x1_r"
  top: "InceptionResnetV2_InceptionResnetV2_Block8_concat"
  concat_param {
    axis: 1
  }
}
layer {
  name: "Convolution:1G"
  type: "Convolution"
  bottom: "InceptionResnetV2_InceptionResnetV2_Block8_concat"
  top: "InceptionResnetV2_InceptionResnetV2_Block8_Conv2d_1x1"
  convolution_param {
    num_output: 2080
    bias_term: true
    group: 1
    pad_h: 0
    pad_w: 0
    kernel_h: 1
    kernel_w: 1
    stride_h: 1
    stride_w: 1
  }
}
layer {
  name: "Eltwise:1H"
  type: "Eltwise"
  bottom: "InceptionResnetV2_InceptionResnetV2_Repeat_2_block8_9_r"
  bottom: "InceptionResnetV2_InceptionResnetV2_Block8_Conv2d_1x1"
  top: "InceptionResnetV2_InceptionResnetV2_Block8"
  eltwise_param {
    operation: SUM
    coeff: 1.0
    coeff: 1.0
  }
}
layer {
  name: "Convolution:1I"
  type: "Convolution"
  bottom: "InceptionResnetV2_InceptionResnetV2_Block8"
  top: "InceptionResnetV2_InceptionResnetV2_Conv2d_7b_1x1"
  convolution_param {
    num_output: 1536
    bias_term: false
    group: 1
    pad_h: 0
    pad_w: 0
    kernel_h: 1
    kernel_w: 1
    stride_h: 1
    stride_w: 1
  }
}
layer {
  name: "BatchNorm:1J"
  type: "BatchNorm"
  bottom: "InceptionResnetV2_InceptionResnetV2_Conv2d_7b_1x1"
  top: "InceptionResnetV2_InceptionResnetV2_Conv2d_7b_1x1_bn"
  batch_norm_param {
    use_global_stats: true
    eps: 0.0010000000475
  }
}
layer {
  name: "Scale:1K"
  type: "Scale"
  bottom: "InceptionResnetV2_InceptionResnetV2_Conv2d_7b_1x1_bn"
  top: "InceptionResnetV2_InceptionResnetV2_Conv2d_7b_1x1_scale"
  scale_param {
    bias_term: true
  }
}
layer {
  name: "ReLU:1L"
  type: "ReLU"
  bottom: "InceptionResnetV2_InceptionResnetV2_Conv2d_7b_1x1_scale"
  top: "InceptionResnetV2_InceptionResnetV2_Conv2d_7b_1x1_r"
}
layer {
  name: "Pooling:1M"
  type: "Pooling"
  bottom: "InceptionResnetV2_InceptionResnetV2_Repeat_1_block17_20_r"
  top: "InceptionResnetV2_AuxLogits_Conv2d_1a_3x3_AvgPool"
  pooling_param {
    pool: AVE_TF
    kernel_h: 5
    kernel_w: 5
    stride_h: 3
    stride_w: 3
    pad_h: 0
    pad_w: 0
  }
}
layer {
  name: "Convolution:1N"
  type: "Convolution"
  bottom: "InceptionResnetV2_AuxLogits_Conv2d_1a_3x3_AvgPool"
  top: "InceptionResnetV2_AuxLogits_Conv2d_1b_1x1"
  convolution_param {
    num_output: 128
    bias_term: false
    group: 1
    pad_h: 0
    pad_w: 0
    kernel_h: 1
    kernel_w: 1
    stride_h: 1
    stride_w: 1
  }
}
layer {
  name: "BatchNorm:1O"
  type: "BatchNorm"
  bottom: "InceptionResnetV2_AuxLogits_Conv2d_1b_1x1"
  top: "InceptionResnetV2_AuxLogits_Conv2d_1b_1x1_bn"
  batch_norm_param {
    use_global_stats: true
    eps: 0.0010000000475
  }
}
layer {
  name: "Scale:1P"
  type: "Scale"
  bottom: "InceptionResnetV2_AuxLogits_Conv2d_1b_1x1_bn"
  top: "InceptionResnetV2_AuxLogits_Conv2d_1b_1x1_scale"
  scale_param {
    bias_term: true
  }
}
layer {
  name: "ReLU:1Q"
  type: "ReLU"
  bottom: "InceptionResnetV2_AuxLogits_Conv2d_1b_1x1_scale"
  top: "InceptionResnetV2_AuxLogits_Conv2d_1b_1x1_r"
}
layer {
  name: "Convolution:1R"
  type: "Convolution"
  bottom: "InceptionResnetV2_AuxLogits_Conv2d_1b_1x1_r"
  top: "InceptionResnetV2_AuxLogits_Conv2d_2a_5x5"
  convolution_param {
    num_output: 768
    bias_term: false
    group: 1
    pad_h: 0
    pad_w: 0
    kernel_h: 5
    kernel_w: 5
    stride_h: 1
    stride_w: 1
  }
}
layer {
  name: "BatchNorm:1S"
  type: "BatchNorm"
  bottom: "InceptionResnetV2_AuxLogits_Conv2d_2a_5x5"
  top: "InceptionResnetV2_AuxLogits_Conv2d_2a_5x5_bn"
  batch_norm_param {
    use_global_stats: true
    eps: 0.0010000000475
  }
}
layer {
  name: "Scale:1T"
  type: "Scale"
  bottom: "InceptionResnetV2_AuxLogits_Conv2d_2a_5x5_bn"
  top: "InceptionResnetV2_AuxLogits_Conv2d_2a_5x5_scale"
  scale_param {
    bias_term: true
  }
}
layer {
  name: "ReLU:1U"
  type: "ReLU"
  bottom: "InceptionResnetV2_AuxLogits_Conv2d_2a_5x5_scale"
  top: "InceptionResnetV2_AuxLogits_Conv2d_2a_5x5_r"
}
layer {
  name: "Flatten:1V"
  type: "Flatten"
  bottom: "InceptionResnetV2_AuxLogits_Conv2d_2a_5x5_r"
  top: "InceptionResnetV2_AuxLogits_Flatten"
}
layer {
  name: "InnerProduct:1W"
  type: "InnerProduct"
  bottom: "InceptionResnetV2_AuxLogits_Flatten"
  top: "InceptionResnetV2_AuxLogits_Logits"
  inner_product_param {
    num_output: 1001
  }
}
layer {
  name: "Pooling:1X"
  type: "Pooling"
  bottom: "InceptionResnetV2_InceptionResnetV2_Conv2d_7b_1x1_r"
  top: "InceptionResnetV2_Logits_AvgPool_1a_8x8_AvgPool"
  pooling_param {
    pool: AVE_TF
    kernel_h: 8
    kernel_w: 8
    stride_h: 2
    stride_w: 2
    pad_h: 0
    pad_w: 0
  }
}
layer {
  name: "Flatten:1Y"
  type: "Flatten"
  bottom: "InceptionResnetV2_Logits_AvgPool_1a_8x8_AvgPool"
  top: "InceptionResnetV2_Logits_Flatten"
}
layer {
  name: "InnerProduct:1Z"
  type: "InnerProduct"
  bottom: "InceptionResnetV2_Logits_Flatten"
  top: "InceptionResnetV2_Logits_Logits"
  inner_product_param {
    num_output: 1001
  }
}
layer {
  name: "Softmax:10"
  type: "Softmax"
  bottom: "InceptionResnetV2_Logits_Logits"
  top: "InceptionResnetV2_Logits_Predictions"
}
