name: "TensorFlowToCaffe"
layer {
  name: "data"
  type: "Data"
  top: "data"
  top: "label"
  include {
    phase: TRAIN
  }
  transform_param {
    scale: 0.0078431368
    mean_value: 127.5 
    mean_value: 127.5
    mean_value: 127.5
    mirror: true
    crop_size: 224
  }
  data_param {
    source: "imagenet_rgb/ilsvrc12_train_lmdb"
    batch_size: 48
    backend: LMDB
  }
}
layer {
  name: "data"
  type: "Data"
  top: "data"
  top: "label"
  include {
    phase: TEST
  }
  transform_param {
    scale: 0.0078431368
    mean_value: 127.5 
    mean_value: 127.5
    mean_value: 127.5
    mirror: false
    crop_size: 224
  }
  data_param {
    source: "imagenet_rgb/ilsvrc12_val_lmdb"
    batch_size: 20
    backend: LMDB
  }
}
layer {
  name: "InceptionV1__InceptionV1__Conv2d_1a_7x7__Conv2D"
  type: "Convolution"
  bottom: "data"
  top: "InceptionV1__InceptionV1__Conv2d_1a_7x7__Conv2D"
  convolution_param {
    num_output: 64
    bias_term: false
    kernel_h: 7
    kernel_w: 7
    stride_h: 2
    stride_w: 2
    pad_l: 2
    pad_r: 3
    pad_t: 2
    pad_b: 3
  }
}
layer {
  name: "InceptionV1__InceptionV1__Conv2d_1a_7x7__BatchNorm__FusedBatchNorm"
  type: "BatchNorm"
  bottom: "InceptionV1__InceptionV1__Conv2d_1a_7x7__Conv2D"
  top: "InceptionV1__InceptionV1__Conv2d_1a_7x7__BatchNorm__FusedBatchNorm"
  batch_norm_param {
    use_global_stats: true
    eps: 0.0010000000475
  }
}
layer {
  name: "InceptionV1__InceptionV1__Conv2d_1a_7x7__BatchNorm__FusedBatchNorm__scale"
  type: "Scale"
  bottom: "InceptionV1__InceptionV1__Conv2d_1a_7x7__BatchNorm__FusedBatchNorm"
  top: "InceptionV1__InceptionV1__Conv2d_1a_7x7__BatchNorm__FusedBatchNorm__scale"
  scale_param {
    bias_term: true
  }
}
layer {
  name: "InceptionV1__InceptionV1__Conv2d_1a_7x7__Relu"
  type: "ReLU"
  bottom: "InceptionV1__InceptionV1__Conv2d_1a_7x7__BatchNorm__FusedBatchNorm__scale"
  top: "InceptionV1__InceptionV1__Conv2d_1a_7x7__Relu"
}
layer {
  name: "InceptionV1__InceptionV1__MaxPool_2a_3x3__MaxPool"
  type: "Pooling"
  bottom: "InceptionV1__InceptionV1__Conv2d_1a_7x7__Relu"
  top: "InceptionV1__InceptionV1__MaxPool_2a_3x3__MaxPool"
  pooling_param {
    pool: MAX
    kernel_h: 3
    kernel_w: 3
    stride_h: 2
    stride_w: 2
    ceil_mode: false
    pad_l: 0
    pad_r: 1
    pad_t: 0
    pad_b: 1
  }
}
layer {
  name: "InceptionV1__InceptionV1__Conv2d_2b_1x1__Conv2D"
  type: "Convolution"
  bottom: "InceptionV1__InceptionV1__MaxPool_2a_3x3__MaxPool"
  top: "InceptionV1__InceptionV1__Conv2d_2b_1x1__Conv2D"
  convolution_param {
    num_output: 64
    bias_term: false
    kernel_h: 1
    kernel_w: 1
    stride_h: 1
    stride_w: 1
    pad_l: 0
    pad_r: 0
    pad_t: 0
    pad_b: 0
  }
}
layer {
  name: "InceptionV1__InceptionV1__Conv2d_2b_1x1__BatchNorm__FusedBatchNorm"
  type: "BatchNorm"
  bottom: "InceptionV1__InceptionV1__Conv2d_2b_1x1__Conv2D"
  top: "InceptionV1__InceptionV1__Conv2d_2b_1x1__BatchNorm__FusedBatchNorm"
  batch_norm_param {
    use_global_stats: true
    eps: 0.0010000000475
  }
}
layer {
  name: "InceptionV1__InceptionV1__Conv2d_2b_1x1__BatchNorm__FusedBatchNorm__scale"
  type: "Scale"
  bottom: "InceptionV1__InceptionV1__Conv2d_2b_1x1__BatchNorm__FusedBatchNorm"
  top: "InceptionV1__InceptionV1__Conv2d_2b_1x1__BatchNorm__FusedBatchNorm__scale"
  scale_param {
    bias_term: true
  }
}
layer {
  name: "InceptionV1__InceptionV1__Conv2d_2b_1x1__Relu"
  type: "ReLU"
  bottom: "InceptionV1__InceptionV1__Conv2d_2b_1x1__BatchNorm__FusedBatchNorm__scale"
  top: "InceptionV1__InceptionV1__Conv2d_2b_1x1__Relu"
}
layer {
  name: "InceptionV1__InceptionV1__Conv2d_2c_3x3__Conv2D"
  type: "Convolution"
  bottom: "InceptionV1__InceptionV1__Conv2d_2b_1x1__Relu"
  top: "InceptionV1__InceptionV1__Conv2d_2c_3x3__Conv2D"
  convolution_param {
    num_output: 192
    bias_term: false
    kernel_h: 3
    kernel_w: 3
    stride_h: 1
    stride_w: 1
    pad_l: 1
    pad_r: 1
    pad_t: 1
    pad_b: 1
  }
}
layer {
  name: "InceptionV1__InceptionV1__Conv2d_2c_3x3__BatchNorm__FusedBatchNorm"
  type: "BatchNorm"
  bottom: "InceptionV1__InceptionV1__Conv2d_2c_3x3__Conv2D"
  top: "InceptionV1__InceptionV1__Conv2d_2c_3x3__BatchNorm__FusedBatchNorm"
  batch_norm_param {
    use_global_stats: true
    eps: 0.0010000000475
  }
}
layer {
  name: "InceptionV1__InceptionV1__Conv2d_2c_3x3__BatchNorm__FusedBatchNorm__scale"
  type: "Scale"
  bottom: "InceptionV1__InceptionV1__Conv2d_2c_3x3__BatchNorm__FusedBatchNorm"
  top: "InceptionV1__InceptionV1__Conv2d_2c_3x3__BatchNorm__FusedBatchNorm__scale"
  scale_param {
    bias_term: true
  }
}
layer {
  name: "InceptionV1__InceptionV1__Conv2d_2c_3x3__Relu"
  type: "ReLU"
  bottom: "InceptionV1__InceptionV1__Conv2d_2c_3x3__BatchNorm__FusedBatchNorm__scale"
  top: "InceptionV1__InceptionV1__Conv2d_2c_3x3__Relu"
}
layer {
  name: "InceptionV1__InceptionV1__MaxPool_3a_3x3__MaxPool"
  type: "Pooling"
  bottom: "InceptionV1__InceptionV1__Conv2d_2c_3x3__Relu"
  top: "InceptionV1__InceptionV1__MaxPool_3a_3x3__MaxPool"
  pooling_param {
    pool: MAX
    kernel_h: 3
    kernel_w: 3
    stride_h: 2
    stride_w: 2
    ceil_mode: false
    pad_l: 0
    pad_r: 1
    pad_t: 0
    pad_b: 1
  }
}
layer {
  name: "InceptionV1__InceptionV1__Mixed_3b__Branch_0__Conv2d_0a_1x1__Conv2D"
  type: "Convolution"
  bottom: "InceptionV1__InceptionV1__MaxPool_3a_3x3__MaxPool"
  top: "InceptionV1__InceptionV1__Mixed_3b__Branch_0__Conv2d_0a_1x1__Conv2D"
  convolution_param {
    num_output: 64
    bias_term: false
    kernel_h: 1
    kernel_w: 1
    stride_h: 1
    stride_w: 1
    pad_l: 0
    pad_r: 0
    pad_t: 0
    pad_b: 0
  }
}
layer {
  name: "InceptionV1__InceptionV1__Mixed_3b__Branch_1__Conv2d_0a_1x1__Conv2D"
  type: "Convolution"
  bottom: "InceptionV1__InceptionV1__MaxPool_3a_3x3__MaxPool"
  top: "InceptionV1__InceptionV1__Mixed_3b__Branch_1__Conv2d_0a_1x1__Conv2D"
  convolution_param {
    num_output: 96
    bias_term: false
    kernel_h: 1
    kernel_w: 1
    stride_h: 1
    stride_w: 1
    pad_l: 0
    pad_r: 0
    pad_t: 0
    pad_b: 0
  }
}
layer {
  name: "InceptionV1__InceptionV1__Mixed_3b__Branch_2__Conv2d_0a_1x1__Conv2D"
  type: "Convolution"
  bottom: "InceptionV1__InceptionV1__MaxPool_3a_3x3__MaxPool"
  top: "InceptionV1__InceptionV1__Mixed_3b__Branch_2__Conv2d_0a_1x1__Conv2D"
  convolution_param {
    num_output: 16
    bias_term: false
    kernel_h: 1
    kernel_w: 1
    stride_h: 1
    stride_w: 1
    pad_l: 0
    pad_r: 0
    pad_t: 0
    pad_b: 0
  }
}
layer {
  name: "InceptionV1__InceptionV1__Mixed_3b__Branch_3__MaxPool_0a_3x3__MaxPool"
  type: "Pooling"
  bottom: "InceptionV1__InceptionV1__MaxPool_3a_3x3__MaxPool"
  top: "InceptionV1__InceptionV1__Mixed_3b__Branch_3__MaxPool_0a_3x3__MaxPool"
  pooling_param {
    pool: MAX
    kernel_h: 3
    kernel_w: 3
    stride_h: 1
    stride_w: 1
    ceil_mode: false
    pad_l: 1
    pad_r: 1
    pad_t: 1
    pad_b: 1
  }
}
layer {
  name: "InceptionV1__InceptionV1__Mixed_3b__Branch_0__Conv2d_0a_1x1__BatchNorm__FusedBatchNorm"
  type: "BatchNorm"
  bottom: "InceptionV1__InceptionV1__Mixed_3b__Branch_0__Conv2d_0a_1x1__Conv2D"
  top: "InceptionV1__InceptionV1__Mixed_3b__Branch_0__Conv2d_0a_1x1__BatchNorm__FusedBatchNorm"
  batch_norm_param {
    use_global_stats: true
    eps: 0.0010000000475
  }
}
layer {
  name: "InceptionV1__InceptionV1__Mixed_3b__Branch_0__Conv2d_0a_1x1__BatchNorm__FusedBatchNorm__scale"
  type: "Scale"
  bottom: "InceptionV1__InceptionV1__Mixed_3b__Branch_0__Conv2d_0a_1x1__BatchNorm__FusedBatchNorm"
  top: "InceptionV1__InceptionV1__Mixed_3b__Branch_0__Conv2d_0a_1x1__BatchNorm__FusedBatchNorm__scale"
  scale_param {
    bias_term: true
  }
}
layer {
  name: "InceptionV1__InceptionV1__Mixed_3b__Branch_1__Conv2d_0a_1x1__BatchNorm__FusedBatchNorm"
  type: "BatchNorm"
  bottom: "InceptionV1__InceptionV1__Mixed_3b__Branch_1__Conv2d_0a_1x1__Conv2D"
  top: "InceptionV1__InceptionV1__Mixed_3b__Branch_1__Conv2d_0a_1x1__BatchNorm__FusedBatchNorm"
  batch_norm_param {
    use_global_stats: true
    eps: 0.0010000000475
  }
}
layer {
  name: "InceptionV1__InceptionV1__Mixed_3b__Branch_1__Conv2d_0a_1x1__BatchNorm__FusedBatchNorm__scale"
  type: "Scale"
  bottom: "InceptionV1__InceptionV1__Mixed_3b__Branch_1__Conv2d_0a_1x1__BatchNorm__FusedBatchNorm"
  top: "InceptionV1__InceptionV1__Mixed_3b__Branch_1__Conv2d_0a_1x1__BatchNorm__FusedBatchNorm__scale"
  scale_param {
    bias_term: true
  }
}
layer {
  name: "InceptionV1__InceptionV1__Mixed_3b__Branch_2__Conv2d_0a_1x1__BatchNorm__FusedBatchNorm"
  type: "BatchNorm"
  bottom: "InceptionV1__InceptionV1__Mixed_3b__Branch_2__Conv2d_0a_1x1__Conv2D"
  top: "InceptionV1__InceptionV1__Mixed_3b__Branch_2__Conv2d_0a_1x1__BatchNorm__FusedBatchNorm"
  batch_norm_param {
    use_global_stats: true
    eps: 0.0010000000475
  }
}
layer {
  name: "InceptionV1__InceptionV1__Mixed_3b__Branch_2__Conv2d_0a_1x1__BatchNorm__FusedBatchNorm__scale"
  type: "Scale"
  bottom: "InceptionV1__InceptionV1__Mixed_3b__Branch_2__Conv2d_0a_1x1__BatchNorm__FusedBatchNorm"
  top: "InceptionV1__InceptionV1__Mixed_3b__Branch_2__Conv2d_0a_1x1__BatchNorm__FusedBatchNorm__scale"
  scale_param {
    bias_term: true
  }
}
layer {
  name: "InceptionV1__InceptionV1__Mixed_3b__Branch_3__Conv2d_0b_1x1__Conv2D"
  type: "Convolution"
  bottom: "InceptionV1__InceptionV1__Mixed_3b__Branch_3__MaxPool_0a_3x3__MaxPool"
  top: "InceptionV1__InceptionV1__Mixed_3b__Branch_3__Conv2d_0b_1x1__Conv2D"
  convolution_param {
    num_output: 32
    bias_term: false
    kernel_h: 1
    kernel_w: 1
    stride_h: 1
    stride_w: 1
    pad_l: 0
    pad_r: 0
    pad_t: 0
    pad_b: 0
  }
}
layer {
  name: "InceptionV1__InceptionV1__Mixed_3b__Branch_0__Conv2d_0a_1x1__Relu"
  type: "ReLU"
  bottom: "InceptionV1__InceptionV1__Mixed_3b__Branch_0__Conv2d_0a_1x1__BatchNorm__FusedBatchNorm__scale"
  top: "InceptionV1__InceptionV1__Mixed_3b__Branch_0__Conv2d_0a_1x1__Relu"
}
layer {
  name: "InceptionV1__InceptionV1__Mixed_3b__Branch_1__Conv2d_0a_1x1__Relu"
  type: "ReLU"
  bottom: "InceptionV1__InceptionV1__Mixed_3b__Branch_1__Conv2d_0a_1x1__BatchNorm__FusedBatchNorm__scale"
  top: "InceptionV1__InceptionV1__Mixed_3b__Branch_1__Conv2d_0a_1x1__Relu"
}
layer {
  name: "InceptionV1__InceptionV1__Mixed_3b__Branch_2__Conv2d_0a_1x1__Relu"
  type: "ReLU"
  bottom: "InceptionV1__InceptionV1__Mixed_3b__Branch_2__Conv2d_0a_1x1__BatchNorm__FusedBatchNorm__scale"
  top: "InceptionV1__InceptionV1__Mixed_3b__Branch_2__Conv2d_0a_1x1__Relu"
}
layer {
  name: "InceptionV1__InceptionV1__Mixed_3b__Branch_3__Conv2d_0b_1x1__BatchNorm__FusedBatchNorm"
  type: "BatchNorm"
  bottom: "InceptionV1__InceptionV1__Mixed_3b__Branch_3__Conv2d_0b_1x1__Conv2D"
  top: "InceptionV1__InceptionV1__Mixed_3b__Branch_3__Conv2d_0b_1x1__BatchNorm__FusedBatchNorm"
  batch_norm_param {
    use_global_stats: true
    eps: 0.0010000000475
  }
}
layer {
  name: "InceptionV1__InceptionV1__Mixed_3b__Branch_3__Conv2d_0b_1x1__BatchNorm__FusedBatchNorm__scale"
  type: "Scale"
  bottom: "InceptionV1__InceptionV1__Mixed_3b__Branch_3__Conv2d_0b_1x1__BatchNorm__FusedBatchNorm"
  top: "InceptionV1__InceptionV1__Mixed_3b__Branch_3__Conv2d_0b_1x1__BatchNorm__FusedBatchNorm__scale"
  scale_param {
    bias_term: true
  }
}
layer {
  name: "InceptionV1__InceptionV1__Mixed_3b__Branch_1__Conv2d_0b_3x3__Conv2D"
  type: "Convolution"
  bottom: "InceptionV1__InceptionV1__Mixed_3b__Branch_1__Conv2d_0a_1x1__Relu"
  top: "InceptionV1__InceptionV1__Mixed_3b__Branch_1__Conv2d_0b_3x3__Conv2D"
  convolution_param {
    num_output: 128
    bias_term: false
    kernel_h: 3
    kernel_w: 3
    stride_h: 1
    stride_w: 1
    pad_l: 1
    pad_r: 1
    pad_t: 1
    pad_b: 1
  }
}
layer {
  name: "InceptionV1__InceptionV1__Mixed_3b__Branch_2__Conv2d_0b_3x3__Conv2D"
  type: "Convolution"
  bottom: "InceptionV1__InceptionV1__Mixed_3b__Branch_2__Conv2d_0a_1x1__Relu"
  top: "InceptionV1__InceptionV1__Mixed_3b__Branch_2__Conv2d_0b_3x3__Conv2D"
  convolution_param {
    num_output: 32
    bias_term: false
    kernel_h: 3
    kernel_w: 3
    stride_h: 1
    stride_w: 1
    pad_l: 1
    pad_r: 1
    pad_t: 1
    pad_b: 1
  }
}
layer {
  name: "InceptionV1__InceptionV1__Mixed_3b__Branch_3__Conv2d_0b_1x1__Relu"
  type: "ReLU"
  bottom: "InceptionV1__InceptionV1__Mixed_3b__Branch_3__Conv2d_0b_1x1__BatchNorm__FusedBatchNorm__scale"
  top: "InceptionV1__InceptionV1__Mixed_3b__Branch_3__Conv2d_0b_1x1__Relu"
}
layer {
  name: "InceptionV1__InceptionV1__Mixed_3b__Branch_1__Conv2d_0b_3x3__BatchNorm__FusedBatchNorm"
  type: "BatchNorm"
  bottom: "InceptionV1__InceptionV1__Mixed_3b__Branch_1__Conv2d_0b_3x3__Conv2D"
  top: "InceptionV1__InceptionV1__Mixed_3b__Branch_1__Conv2d_0b_3x3__BatchNorm__FusedBatchNorm"
  batch_norm_param {
    use_global_stats: true
    eps: 0.0010000000475
  }
}
layer {
  name: "InceptionV1__InceptionV1__Mixed_3b__Branch_1__Conv2d_0b_3x3__BatchNorm__FusedBatchNorm__scale"
  type: "Scale"
  bottom: "InceptionV1__InceptionV1__Mixed_3b__Branch_1__Conv2d_0b_3x3__BatchNorm__FusedBatchNorm"
  top: "InceptionV1__InceptionV1__Mixed_3b__Branch_1__Conv2d_0b_3x3__BatchNorm__FusedBatchNorm__scale"
  scale_param {
    bias_term: true
  }
}
layer {
  name: "InceptionV1__InceptionV1__Mixed_3b__Branch_2__Conv2d_0b_3x3__BatchNorm__FusedBatchNorm"
  type: "BatchNorm"
  bottom: "InceptionV1__InceptionV1__Mixed_3b__Branch_2__Conv2d_0b_3x3__Conv2D"
  top: "InceptionV1__InceptionV1__Mixed_3b__Branch_2__Conv2d_0b_3x3__BatchNorm__FusedBatchNorm"
  batch_norm_param {
    use_global_stats: true
    eps: 0.0010000000475
  }
}
layer {
  name: "InceptionV1__InceptionV1__Mixed_3b__Branch_2__Conv2d_0b_3x3__BatchNorm__FusedBatchNorm__scale"
  type: "Scale"
  bottom: "InceptionV1__InceptionV1__Mixed_3b__Branch_2__Conv2d_0b_3x3__BatchNorm__FusedBatchNorm"
  top: "InceptionV1__InceptionV1__Mixed_3b__Branch_2__Conv2d_0b_3x3__BatchNorm__FusedBatchNorm__scale"
  scale_param {
    bias_term: true
  }
}
layer {
  name: "InceptionV1__InceptionV1__Mixed_3b__Branch_1__Conv2d_0b_3x3__Relu"
  type: "ReLU"
  bottom: "InceptionV1__InceptionV1__Mixed_3b__Branch_1__Conv2d_0b_3x3__BatchNorm__FusedBatchNorm__scale"
  top: "InceptionV1__InceptionV1__Mixed_3b__Branch_1__Conv2d_0b_3x3__Relu"
}
layer {
  name: "InceptionV1__InceptionV1__Mixed_3b__Branch_2__Conv2d_0b_3x3__Relu"
  type: "ReLU"
  bottom: "InceptionV1__InceptionV1__Mixed_3b__Branch_2__Conv2d_0b_3x3__BatchNorm__FusedBatchNorm__scale"
  top: "InceptionV1__InceptionV1__Mixed_3b__Branch_2__Conv2d_0b_3x3__Relu"
}
layer {
  name: "InceptionV1__InceptionV1__Mixed_3b__concat"
  type: "Concat"
  bottom: "InceptionV1__InceptionV1__Mixed_3b__Branch_0__Conv2d_0a_1x1__Relu"
  bottom: "InceptionV1__InceptionV1__Mixed_3b__Branch_1__Conv2d_0b_3x3__Relu"
  bottom: "InceptionV1__InceptionV1__Mixed_3b__Branch_2__Conv2d_0b_3x3__Relu"
  bottom: "InceptionV1__InceptionV1__Mixed_3b__Branch_3__Conv2d_0b_1x1__Relu"
  top: "InceptionV1__InceptionV1__Mixed_3b__concat"
  concat_param {
    axis: 1
  }
}
layer {
  name: "InceptionV1__InceptionV1__Mixed_3c__Branch_0__Conv2d_0a_1x1__Conv2D"
  type: "Convolution"
  bottom: "InceptionV1__InceptionV1__Mixed_3b__concat"
  top: "InceptionV1__InceptionV1__Mixed_3c__Branch_0__Conv2d_0a_1x1__Conv2D"
  convolution_param {
    num_output: 128
    bias_term: false
    kernel_h: 1
    kernel_w: 1
    stride_h: 1
    stride_w: 1
    pad_l: 0
    pad_r: 0
    pad_t: 0
    pad_b: 0
  }
}
layer {
  name: "InceptionV1__InceptionV1__Mixed_3c__Branch_1__Conv2d_0a_1x1__Conv2D"
  type: "Convolution"
  bottom: "InceptionV1__InceptionV1__Mixed_3b__concat"
  top: "InceptionV1__InceptionV1__Mixed_3c__Branch_1__Conv2d_0a_1x1__Conv2D"
  convolution_param {
    num_output: 128
    bias_term: false
    kernel_h: 1
    kernel_w: 1
    stride_h: 1
    stride_w: 1
    pad_l: 0
    pad_r: 0
    pad_t: 0
    pad_b: 0
  }
}
layer {
  name: "InceptionV1__InceptionV1__Mixed_3c__Branch_2__Conv2d_0a_1x1__Conv2D"
  type: "Convolution"
  bottom: "InceptionV1__InceptionV1__Mixed_3b__concat"
  top: "InceptionV1__InceptionV1__Mixed_3c__Branch_2__Conv2d_0a_1x1__Conv2D"
  convolution_param {
    num_output: 32
    bias_term: false
    kernel_h: 1
    kernel_w: 1
    stride_h: 1
    stride_w: 1
    pad_l: 0
    pad_r: 0
    pad_t: 0
    pad_b: 0
  }
}
layer {
  name: "InceptionV1__InceptionV1__Mixed_3c__Branch_3__MaxPool_0a_3x3__MaxPool"
  type: "Pooling"
  bottom: "InceptionV1__InceptionV1__Mixed_3b__concat"
  top: "InceptionV1__InceptionV1__Mixed_3c__Branch_3__MaxPool_0a_3x3__MaxPool"
  pooling_param {
    pool: MAX
    kernel_h: 3
    kernel_w: 3
    stride_h: 1
    stride_w: 1
    ceil_mode: false
    pad_l: 1
    pad_r: 1
    pad_t: 1
    pad_b: 1
  }
}
layer {
  name: "InceptionV1__InceptionV1__Mixed_3c__Branch_0__Conv2d_0a_1x1__BatchNorm__FusedBatchNorm"
  type: "BatchNorm"
  bottom: "InceptionV1__InceptionV1__Mixed_3c__Branch_0__Conv2d_0a_1x1__Conv2D"
  top: "InceptionV1__InceptionV1__Mixed_3c__Branch_0__Conv2d_0a_1x1__BatchNorm__FusedBatchNorm"
  batch_norm_param {
    use_global_stats: true
    eps: 0.0010000000475
  }
}
layer {
  name: "InceptionV1__InceptionV1__Mixed_3c__Branch_0__Conv2d_0a_1x1__BatchNorm__FusedBatchNorm__scale"
  type: "Scale"
  bottom: "InceptionV1__InceptionV1__Mixed_3c__Branch_0__Conv2d_0a_1x1__BatchNorm__FusedBatchNorm"
  top: "InceptionV1__InceptionV1__Mixed_3c__Branch_0__Conv2d_0a_1x1__BatchNorm__FusedBatchNorm__scale"
  scale_param {
    bias_term: true
  }
}
layer {
  name: "InceptionV1__InceptionV1__Mixed_3c__Branch_1__Conv2d_0a_1x1__BatchNorm__FusedBatchNorm"
  type: "BatchNorm"
  bottom: "InceptionV1__InceptionV1__Mixed_3c__Branch_1__Conv2d_0a_1x1__Conv2D"
  top: "InceptionV1__InceptionV1__Mixed_3c__Branch_1__Conv2d_0a_1x1__BatchNorm__FusedBatchNorm"
  batch_norm_param {
    use_global_stats: true
    eps: 0.0010000000475
  }
}
layer {
  name: "InceptionV1__InceptionV1__Mixed_3c__Branch_1__Conv2d_0a_1x1__BatchNorm__FusedBatchNorm__scale"
  type: "Scale"
  bottom: "InceptionV1__InceptionV1__Mixed_3c__Branch_1__Conv2d_0a_1x1__BatchNorm__FusedBatchNorm"
  top: "InceptionV1__InceptionV1__Mixed_3c__Branch_1__Conv2d_0a_1x1__BatchNorm__FusedBatchNorm__scale"
  scale_param {
    bias_term: true
  }
}
layer {
  name: "InceptionV1__InceptionV1__Mixed_3c__Branch_2__Conv2d_0a_1x1__BatchNorm__FusedBatchNorm"
  type: "BatchNorm"
  bottom: "InceptionV1__InceptionV1__Mixed_3c__Branch_2__Conv2d_0a_1x1__Conv2D"
  top: "InceptionV1__InceptionV1__Mixed_3c__Branch_2__Conv2d_0a_1x1__BatchNorm__FusedBatchNorm"
  batch_norm_param {
    use_global_stats: true
    eps: 0.0010000000475
  }
}
layer {
  name: "InceptionV1__InceptionV1__Mixed_3c__Branch_2__Conv2d_0a_1x1__BatchNorm__FusedBatchNorm__scale"
  type: "Scale"
  bottom: "InceptionV1__InceptionV1__Mixed_3c__Branch_2__Conv2d_0a_1x1__BatchNorm__FusedBatchNorm"
  top: "InceptionV1__InceptionV1__Mixed_3c__Branch_2__Conv2d_0a_1x1__BatchNorm__FusedBatchNorm__scale"
  scale_param {
    bias_term: true
  }
}
layer {
  name: "InceptionV1__InceptionV1__Mixed_3c__Branch_3__Conv2d_0b_1x1__Conv2D"
  type: "Convolution"
  bottom: "InceptionV1__InceptionV1__Mixed_3c__Branch_3__MaxPool_0a_3x3__MaxPool"
  top: "InceptionV1__InceptionV1__Mixed_3c__Branch_3__Conv2d_0b_1x1__Conv2D"
  convolution_param {
    num_output: 64
    bias_term: false
    kernel_h: 1
    kernel_w: 1
    stride_h: 1
    stride_w: 1
    pad_l: 0
    pad_r: 0
    pad_t: 0
    pad_b: 0
  }
}
layer {
  name: "InceptionV1__InceptionV1__Mixed_3c__Branch_0__Conv2d_0a_1x1__Relu"
  type: "ReLU"
  bottom: "InceptionV1__InceptionV1__Mixed_3c__Branch_0__Conv2d_0a_1x1__BatchNorm__FusedBatchNorm__scale"
  top: "InceptionV1__InceptionV1__Mixed_3c__Branch_0__Conv2d_0a_1x1__Relu"
}
layer {
  name: "InceptionV1__InceptionV1__Mixed_3c__Branch_1__Conv2d_0a_1x1__Relu"
  type: "ReLU"
  bottom: "InceptionV1__InceptionV1__Mixed_3c__Branch_1__Conv2d_0a_1x1__BatchNorm__FusedBatchNorm__scale"
  top: "InceptionV1__InceptionV1__Mixed_3c__Branch_1__Conv2d_0a_1x1__Relu"
}
layer {
  name: "InceptionV1__InceptionV1__Mixed_3c__Branch_2__Conv2d_0a_1x1__Relu"
  type: "ReLU"
  bottom: "InceptionV1__InceptionV1__Mixed_3c__Branch_2__Conv2d_0a_1x1__BatchNorm__FusedBatchNorm__scale"
  top: "InceptionV1__InceptionV1__Mixed_3c__Branch_2__Conv2d_0a_1x1__Relu"
}
layer {
  name: "InceptionV1__InceptionV1__Mixed_3c__Branch_3__Conv2d_0b_1x1__BatchNorm__FusedBatchNorm"
  type: "BatchNorm"
  bottom: "InceptionV1__InceptionV1__Mixed_3c__Branch_3__Conv2d_0b_1x1__Conv2D"
  top: "InceptionV1__InceptionV1__Mixed_3c__Branch_3__Conv2d_0b_1x1__BatchNorm__FusedBatchNorm"
  batch_norm_param {
    use_global_stats: true
    eps: 0.0010000000475
  }
}
layer {
  name: "InceptionV1__InceptionV1__Mixed_3c__Branch_3__Conv2d_0b_1x1__BatchNorm__FusedBatchNorm__scale"
  type: "Scale"
  bottom: "InceptionV1__InceptionV1__Mixed_3c__Branch_3__Conv2d_0b_1x1__BatchNorm__FusedBatchNorm"
  top: "InceptionV1__InceptionV1__Mixed_3c__Branch_3__Conv2d_0b_1x1__BatchNorm__FusedBatchNorm__scale"
  scale_param {
    bias_term: true
  }
}
layer {
  name: "InceptionV1__InceptionV1__Mixed_3c__Branch_1__Conv2d_0b_3x3__Conv2D"
  type: "Convolution"
  bottom: "InceptionV1__InceptionV1__Mixed_3c__Branch_1__Conv2d_0a_1x1__Relu"
  top: "InceptionV1__InceptionV1__Mixed_3c__Branch_1__Conv2d_0b_3x3__Conv2D"
  convolution_param {
    num_output: 192
    bias_term: false
    kernel_h: 3
    kernel_w: 3
    stride_h: 1
    stride_w: 1
    pad_l: 1
    pad_r: 1
    pad_t: 1
    pad_b: 1
  }
}
layer {
  name: "InceptionV1__InceptionV1__Mixed_3c__Branch_2__Conv2d_0b_3x3__Conv2D"
  type: "Convolution"
  bottom: "InceptionV1__InceptionV1__Mixed_3c__Branch_2__Conv2d_0a_1x1__Relu"
  top: "InceptionV1__InceptionV1__Mixed_3c__Branch_2__Conv2d_0b_3x3__Conv2D"
  convolution_param {
    num_output: 96
    bias_term: false
    kernel_h: 3
    kernel_w: 3
    stride_h: 1
    stride_w: 1
    pad_l: 1
    pad_r: 1
    pad_t: 1
    pad_b: 1
  }
}
layer {
  name: "InceptionV1__InceptionV1__Mixed_3c__Branch_3__Conv2d_0b_1x1__Relu"
  type: "ReLU"
  bottom: "InceptionV1__InceptionV1__Mixed_3c__Branch_3__Conv2d_0b_1x1__BatchNorm__FusedBatchNorm__scale"
  top: "InceptionV1__InceptionV1__Mixed_3c__Branch_3__Conv2d_0b_1x1__Relu"
}
layer {
  name: "InceptionV1__InceptionV1__Mixed_3c__Branch_1__Conv2d_0b_3x3__BatchNorm__FusedBatchNorm"
  type: "BatchNorm"
  bottom: "InceptionV1__InceptionV1__Mixed_3c__Branch_1__Conv2d_0b_3x3__Conv2D"
  top: "InceptionV1__InceptionV1__Mixed_3c__Branch_1__Conv2d_0b_3x3__BatchNorm__FusedBatchNorm"
  batch_norm_param {
    use_global_stats: true
    eps: 0.0010000000475
  }
}
layer {
  name: "InceptionV1__InceptionV1__Mixed_3c__Branch_1__Conv2d_0b_3x3__BatchNorm__FusedBatchNorm__scale"
  type: "Scale"
  bottom: "InceptionV1__InceptionV1__Mixed_3c__Branch_1__Conv2d_0b_3x3__BatchNorm__FusedBatchNorm"
  top: "InceptionV1__InceptionV1__Mixed_3c__Branch_1__Conv2d_0b_3x3__BatchNorm__FusedBatchNorm__scale"
  scale_param {
    bias_term: true
  }
}
layer {
  name: "InceptionV1__InceptionV1__Mixed_3c__Branch_2__Conv2d_0b_3x3__BatchNorm__FusedBatchNorm"
  type: "BatchNorm"
  bottom: "InceptionV1__InceptionV1__Mixed_3c__Branch_2__Conv2d_0b_3x3__Conv2D"
  top: "InceptionV1__InceptionV1__Mixed_3c__Branch_2__Conv2d_0b_3x3__BatchNorm__FusedBatchNorm"
  batch_norm_param {
    use_global_stats: true
    eps: 0.0010000000475
  }
}
layer {
  name: "InceptionV1__InceptionV1__Mixed_3c__Branch_2__Conv2d_0b_3x3__BatchNorm__FusedBatchNorm__scale"
  type: "Scale"
  bottom: "InceptionV1__InceptionV1__Mixed_3c__Branch_2__Conv2d_0b_3x3__BatchNorm__FusedBatchNorm"
  top: "InceptionV1__InceptionV1__Mixed_3c__Branch_2__Conv2d_0b_3x3__BatchNorm__FusedBatchNorm__scale"
  scale_param {
    bias_term: true
  }
}
layer {
  name: "InceptionV1__InceptionV1__Mixed_3c__Branch_1__Conv2d_0b_3x3__Relu"
  type: "ReLU"
  bottom: "InceptionV1__InceptionV1__Mixed_3c__Branch_1__Conv2d_0b_3x3__BatchNorm__FusedBatchNorm__scale"
  top: "InceptionV1__InceptionV1__Mixed_3c__Branch_1__Conv2d_0b_3x3__Relu"
}
layer {
  name: "InceptionV1__InceptionV1__Mixed_3c__Branch_2__Conv2d_0b_3x3__Relu"
  type: "ReLU"
  bottom: "InceptionV1__InceptionV1__Mixed_3c__Branch_2__Conv2d_0b_3x3__BatchNorm__FusedBatchNorm__scale"
  top: "InceptionV1__InceptionV1__Mixed_3c__Branch_2__Conv2d_0b_3x3__Relu"
}
layer {
  name: "InceptionV1__InceptionV1__Mixed_3c__concat"
  type: "Concat"
  bottom: "InceptionV1__InceptionV1__Mixed_3c__Branch_0__Conv2d_0a_1x1__Relu"
  bottom: "InceptionV1__InceptionV1__Mixed_3c__Branch_1__Conv2d_0b_3x3__Relu"
  bottom: "InceptionV1__InceptionV1__Mixed_3c__Branch_2__Conv2d_0b_3x3__Relu"
  bottom: "InceptionV1__InceptionV1__Mixed_3c__Branch_3__Conv2d_0b_1x1__Relu"
  top: "InceptionV1__InceptionV1__Mixed_3c__concat"
  concat_param {
    axis: 1
  }
}
layer {
  name: "InceptionV1__InceptionV1__MaxPool_4a_3x3__MaxPool"
  type: "Pooling"
  bottom: "InceptionV1__InceptionV1__Mixed_3c__concat"
  top: "InceptionV1__InceptionV1__MaxPool_4a_3x3__MaxPool"
  pooling_param {
    pool: MAX
    kernel_h: 3
    kernel_w: 3
    stride_h: 2
    stride_w: 2
    ceil_mode: false
    pad_l: 0
    pad_r: 1
    pad_t: 0
    pad_b: 1
  }
}
layer {
  name: "InceptionV1__InceptionV1__Mixed_4b__Branch_0__Conv2d_0a_1x1__Conv2D"
  type: "Convolution"
  bottom: "InceptionV1__InceptionV1__MaxPool_4a_3x3__MaxPool"
  top: "InceptionV1__InceptionV1__Mixed_4b__Branch_0__Conv2d_0a_1x1__Conv2D"
  convolution_param {
    num_output: 192
    bias_term: false
    kernel_h: 1
    kernel_w: 1
    stride_h: 1
    stride_w: 1
    pad_l: 0
    pad_r: 0
    pad_t: 0
    pad_b: 0
  }
}
layer {
  name: "InceptionV1__InceptionV1__Mixed_4b__Branch_1__Conv2d_0a_1x1__Conv2D"
  type: "Convolution"
  bottom: "InceptionV1__InceptionV1__MaxPool_4a_3x3__MaxPool"
  top: "InceptionV1__InceptionV1__Mixed_4b__Branch_1__Conv2d_0a_1x1__Conv2D"
  convolution_param {
    num_output: 96
    bias_term: false
    kernel_h: 1
    kernel_w: 1
    stride_h: 1
    stride_w: 1
    pad_l: 0
    pad_r: 0
    pad_t: 0
    pad_b: 0
  }
}
layer {
  name: "InceptionV1__InceptionV1__Mixed_4b__Branch_2__Conv2d_0a_1x1__Conv2D"
  type: "Convolution"
  bottom: "InceptionV1__InceptionV1__MaxPool_4a_3x3__MaxPool"
  top: "InceptionV1__InceptionV1__Mixed_4b__Branch_2__Conv2d_0a_1x1__Conv2D"
  convolution_param {
    num_output: 16
    bias_term: false
    kernel_h: 1
    kernel_w: 1
    stride_h: 1
    stride_w: 1
    pad_l: 0
    pad_r: 0
    pad_t: 0
    pad_b: 0
  }
}
layer {
  name: "InceptionV1__InceptionV1__Mixed_4b__Branch_3__MaxPool_0a_3x3__MaxPool"
  type: "Pooling"
  bottom: "InceptionV1__InceptionV1__MaxPool_4a_3x3__MaxPool"
  top: "InceptionV1__InceptionV1__Mixed_4b__Branch_3__MaxPool_0a_3x3__MaxPool"
  pooling_param {
    pool: MAX
    kernel_h: 3
    kernel_w: 3
    stride_h: 1
    stride_w: 1
    ceil_mode: false
    pad_l: 1
    pad_r: 1
    pad_t: 1
    pad_b: 1
  }
}
layer {
  name: "InceptionV1__InceptionV1__Mixed_4b__Branch_0__Conv2d_0a_1x1__BatchNorm__FusedBatchNorm"
  type: "BatchNorm"
  bottom: "InceptionV1__InceptionV1__Mixed_4b__Branch_0__Conv2d_0a_1x1__Conv2D"
  top: "InceptionV1__InceptionV1__Mixed_4b__Branch_0__Conv2d_0a_1x1__BatchNorm__FusedBatchNorm"
  batch_norm_param {
    use_global_stats: true
    eps: 0.0010000000475
  }
}
layer {
  name: "InceptionV1__InceptionV1__Mixed_4b__Branch_0__Conv2d_0a_1x1__BatchNorm__FusedBatchNorm__scale"
  type: "Scale"
  bottom: "InceptionV1__InceptionV1__Mixed_4b__Branch_0__Conv2d_0a_1x1__BatchNorm__FusedBatchNorm"
  top: "InceptionV1__InceptionV1__Mixed_4b__Branch_0__Conv2d_0a_1x1__BatchNorm__FusedBatchNorm__scale"
  scale_param {
    bias_term: true
  }
}
layer {
  name: "InceptionV1__InceptionV1__Mixed_4b__Branch_1__Conv2d_0a_1x1__BatchNorm__FusedBatchNorm"
  type: "BatchNorm"
  bottom: "InceptionV1__InceptionV1__Mixed_4b__Branch_1__Conv2d_0a_1x1__Conv2D"
  top: "InceptionV1__InceptionV1__Mixed_4b__Branch_1__Conv2d_0a_1x1__BatchNorm__FusedBatchNorm"
  batch_norm_param {
    use_global_stats: true
    eps: 0.0010000000475
  }
}
layer {
  name: "InceptionV1__InceptionV1__Mixed_4b__Branch_1__Conv2d_0a_1x1__BatchNorm__FusedBatchNorm__scale"
  type: "Scale"
  bottom: "InceptionV1__InceptionV1__Mixed_4b__Branch_1__Conv2d_0a_1x1__BatchNorm__FusedBatchNorm"
  top: "InceptionV1__InceptionV1__Mixed_4b__Branch_1__Conv2d_0a_1x1__BatchNorm__FusedBatchNorm__scale"
  scale_param {
    bias_term: true
  }
}
layer {
  name: "InceptionV1__InceptionV1__Mixed_4b__Branch_2__Conv2d_0a_1x1__BatchNorm__FusedBatchNorm"
  type: "BatchNorm"
  bottom: "InceptionV1__InceptionV1__Mixed_4b__Branch_2__Conv2d_0a_1x1__Conv2D"
  top: "InceptionV1__InceptionV1__Mixed_4b__Branch_2__Conv2d_0a_1x1__BatchNorm__FusedBatchNorm"
  batch_norm_param {
    use_global_stats: true
    eps: 0.0010000000475
  }
}
layer {
  name: "InceptionV1__InceptionV1__Mixed_4b__Branch_2__Conv2d_0a_1x1__BatchNorm__FusedBatchNorm__scale"
  type: "Scale"
  bottom: "InceptionV1__InceptionV1__Mixed_4b__Branch_2__Conv2d_0a_1x1__BatchNorm__FusedBatchNorm"
  top: "InceptionV1__InceptionV1__Mixed_4b__Branch_2__Conv2d_0a_1x1__BatchNorm__FusedBatchNorm__scale"
  scale_param {
    bias_term: true
  }
}
layer {
  name: "InceptionV1__InceptionV1__Mixed_4b__Branch_3__Conv2d_0b_1x1__Conv2D"
  type: "Convolution"
  bottom: "InceptionV1__InceptionV1__Mixed_4b__Branch_3__MaxPool_0a_3x3__MaxPool"
  top: "InceptionV1__InceptionV1__Mixed_4b__Branch_3__Conv2d_0b_1x1__Conv2D"
  convolution_param {
    num_output: 64
    bias_term: false
    kernel_h: 1
    kernel_w: 1
    stride_h: 1
    stride_w: 1
    pad_l: 0
    pad_r: 0
    pad_t: 0
    pad_b: 0
  }
}
layer {
  name: "InceptionV1__InceptionV1__Mixed_4b__Branch_0__Conv2d_0a_1x1__Relu"
  type: "ReLU"
  bottom: "InceptionV1__InceptionV1__Mixed_4b__Branch_0__Conv2d_0a_1x1__BatchNorm__FusedBatchNorm__scale"
  top: "InceptionV1__InceptionV1__Mixed_4b__Branch_0__Conv2d_0a_1x1__Relu"
}
layer {
  name: "InceptionV1__InceptionV1__Mixed_4b__Branch_1__Conv2d_0a_1x1__Relu"
  type: "ReLU"
  bottom: "InceptionV1__InceptionV1__Mixed_4b__Branch_1__Conv2d_0a_1x1__BatchNorm__FusedBatchNorm__scale"
  top: "InceptionV1__InceptionV1__Mixed_4b__Branch_1__Conv2d_0a_1x1__Relu"
}
layer {
  name: "InceptionV1__InceptionV1__Mixed_4b__Branch_2__Conv2d_0a_1x1__Relu"
  type: "ReLU"
  bottom: "InceptionV1__InceptionV1__Mixed_4b__Branch_2__Conv2d_0a_1x1__BatchNorm__FusedBatchNorm__scale"
  top: "InceptionV1__InceptionV1__Mixed_4b__Branch_2__Conv2d_0a_1x1__Relu"
}
layer {
  name: "InceptionV1__InceptionV1__Mixed_4b__Branch_3__Conv2d_0b_1x1__BatchNorm__FusedBatchNorm"
  type: "BatchNorm"
  bottom: "InceptionV1__InceptionV1__Mixed_4b__Branch_3__Conv2d_0b_1x1__Conv2D"
  top: "InceptionV1__InceptionV1__Mixed_4b__Branch_3__Conv2d_0b_1x1__BatchNorm__FusedBatchNorm"
  batch_norm_param {
    use_global_stats: true
    eps: 0.0010000000475
  }
}
layer {
  name: "InceptionV1__InceptionV1__Mixed_4b__Branch_3__Conv2d_0b_1x1__BatchNorm__FusedBatchNorm__scale"
  type: "Scale"
  bottom: "InceptionV1__InceptionV1__Mixed_4b__Branch_3__Conv2d_0b_1x1__BatchNorm__FusedBatchNorm"
  top: "InceptionV1__InceptionV1__Mixed_4b__Branch_3__Conv2d_0b_1x1__BatchNorm__FusedBatchNorm__scale"
  scale_param {
    bias_term: true
  }
}
layer {
  name: "InceptionV1__InceptionV1__Mixed_4b__Branch_1__Conv2d_0b_3x3__Conv2D"
  type: "Convolution"
  bottom: "InceptionV1__InceptionV1__Mixed_4b__Branch_1__Conv2d_0a_1x1__Relu"
  top: "InceptionV1__InceptionV1__Mixed_4b__Branch_1__Conv2d_0b_3x3__Conv2D"
  convolution_param {
    num_output: 208
    bias_term: false
    kernel_h: 3
    kernel_w: 3
    stride_h: 1
    stride_w: 1
    pad_l: 1
    pad_r: 1
    pad_t: 1
    pad_b: 1
  }
}
layer {
  name: "InceptionV1__InceptionV1__Mixed_4b__Branch_2__Conv2d_0b_3x3__Conv2D"
  type: "Convolution"
  bottom: "InceptionV1__InceptionV1__Mixed_4b__Branch_2__Conv2d_0a_1x1__Relu"
  top: "InceptionV1__InceptionV1__Mixed_4b__Branch_2__Conv2d_0b_3x3__Conv2D"
  convolution_param {
    num_output: 48
    bias_term: false
    kernel_h: 3
    kernel_w: 3
    stride_h: 1
    stride_w: 1
    pad_l: 1
    pad_r: 1
    pad_t: 1
    pad_b: 1
  }
}
layer {
  name: "InceptionV1__InceptionV1__Mixed_4b__Branch_3__Conv2d_0b_1x1__Relu"
  type: "ReLU"
  bottom: "InceptionV1__InceptionV1__Mixed_4b__Branch_3__Conv2d_0b_1x1__BatchNorm__FusedBatchNorm__scale"
  top: "InceptionV1__InceptionV1__Mixed_4b__Branch_3__Conv2d_0b_1x1__Relu"
}
layer {
  name: "InceptionV1__InceptionV1__Mixed_4b__Branch_1__Conv2d_0b_3x3__BatchNorm__FusedBatchNorm"
  type: "BatchNorm"
  bottom: "InceptionV1__InceptionV1__Mixed_4b__Branch_1__Conv2d_0b_3x3__Conv2D"
  top: "InceptionV1__InceptionV1__Mixed_4b__Branch_1__Conv2d_0b_3x3__BatchNorm__FusedBatchNorm"
  batch_norm_param {
    use_global_stats: true
    eps: 0.0010000000475
  }
}
layer {
  name: "InceptionV1__InceptionV1__Mixed_4b__Branch_1__Conv2d_0b_3x3__BatchNorm__FusedBatchNorm__scale"
  type: "Scale"
  bottom: "InceptionV1__InceptionV1__Mixed_4b__Branch_1__Conv2d_0b_3x3__BatchNorm__FusedBatchNorm"
  top: "InceptionV1__InceptionV1__Mixed_4b__Branch_1__Conv2d_0b_3x3__BatchNorm__FusedBatchNorm__scale"
  scale_param {
    bias_term: true
  }
}
layer {
  name: "InceptionV1__InceptionV1__Mixed_4b__Branch_2__Conv2d_0b_3x3__BatchNorm__FusedBatchNorm"
  type: "BatchNorm"
  bottom: "InceptionV1__InceptionV1__Mixed_4b__Branch_2__Conv2d_0b_3x3__Conv2D"
  top: "InceptionV1__InceptionV1__Mixed_4b__Branch_2__Conv2d_0b_3x3__BatchNorm__FusedBatchNorm"
  batch_norm_param {
    use_global_stats: true
    eps: 0.0010000000475
  }
}
layer {
  name: "InceptionV1__InceptionV1__Mixed_4b__Branch_2__Conv2d_0b_3x3__BatchNorm__FusedBatchNorm__scale"
  type: "Scale"
  bottom: "InceptionV1__InceptionV1__Mixed_4b__Branch_2__Conv2d_0b_3x3__BatchNorm__FusedBatchNorm"
  top: "InceptionV1__InceptionV1__Mixed_4b__Branch_2__Conv2d_0b_3x3__BatchNorm__FusedBatchNorm__scale"
  scale_param {
    bias_term: true
  }
}
layer {
  name: "InceptionV1__InceptionV1__Mixed_4b__Branch_1__Conv2d_0b_3x3__Relu"
  type: "ReLU"
  bottom: "InceptionV1__InceptionV1__Mixed_4b__Branch_1__Conv2d_0b_3x3__BatchNorm__FusedBatchNorm__scale"
  top: "InceptionV1__InceptionV1__Mixed_4b__Branch_1__Conv2d_0b_3x3__Relu"
}
layer {
  name: "InceptionV1__InceptionV1__Mixed_4b__Branch_2__Conv2d_0b_3x3__Relu"
  type: "ReLU"
  bottom: "InceptionV1__InceptionV1__Mixed_4b__Branch_2__Conv2d_0b_3x3__BatchNorm__FusedBatchNorm__scale"
  top: "InceptionV1__InceptionV1__Mixed_4b__Branch_2__Conv2d_0b_3x3__Relu"
}
layer {
  name: "InceptionV1__InceptionV1__Mixed_4b__concat"
  type: "Concat"
  bottom: "InceptionV1__InceptionV1__Mixed_4b__Branch_0__Conv2d_0a_1x1__Relu"
  bottom: "InceptionV1__InceptionV1__Mixed_4b__Branch_1__Conv2d_0b_3x3__Relu"
  bottom: "InceptionV1__InceptionV1__Mixed_4b__Branch_2__Conv2d_0b_3x3__Relu"
  bottom: "InceptionV1__InceptionV1__Mixed_4b__Branch_3__Conv2d_0b_1x1__Relu"
  top: "InceptionV1__InceptionV1__Mixed_4b__concat"
  concat_param {
    axis: 1
  }
}
layer {
  name: "InceptionV1__InceptionV1__Mixed_4c__Branch_0__Conv2d_0a_1x1__Conv2D"
  type: "Convolution"
  bottom: "InceptionV1__InceptionV1__Mixed_4b__concat"
  top: "InceptionV1__InceptionV1__Mixed_4c__Branch_0__Conv2d_0a_1x1__Conv2D"
  convolution_param {
    num_output: 160
    bias_term: false
    kernel_h: 1
    kernel_w: 1
    stride_h: 1
    stride_w: 1
    pad_l: 0
    pad_r: 0
    pad_t: 0
    pad_b: 0
  }
}
layer {
  name: "InceptionV1__InceptionV1__Mixed_4c__Branch_1__Conv2d_0a_1x1__Conv2D"
  type: "Convolution"
  bottom: "InceptionV1__InceptionV1__Mixed_4b__concat"
  top: "InceptionV1__InceptionV1__Mixed_4c__Branch_1__Conv2d_0a_1x1__Conv2D"
  convolution_param {
    num_output: 112
    bias_term: false
    kernel_h: 1
    kernel_w: 1
    stride_h: 1
    stride_w: 1
    pad_l: 0
    pad_r: 0
    pad_t: 0
    pad_b: 0
  }
}
layer {
  name: "InceptionV1__InceptionV1__Mixed_4c__Branch_2__Conv2d_0a_1x1__Conv2D"
  type: "Convolution"
  bottom: "InceptionV1__InceptionV1__Mixed_4b__concat"
  top: "InceptionV1__InceptionV1__Mixed_4c__Branch_2__Conv2d_0a_1x1__Conv2D"
  convolution_param {
    num_output: 24
    bias_term: false
    kernel_h: 1
    kernel_w: 1
    stride_h: 1
    stride_w: 1
    pad_l: 0
    pad_r: 0
    pad_t: 0
    pad_b: 0
  }
}
layer {
  name: "InceptionV1__InceptionV1__Mixed_4c__Branch_3__MaxPool_0a_3x3__MaxPool"
  type: "Pooling"
  bottom: "InceptionV1__InceptionV1__Mixed_4b__concat"
  top: "InceptionV1__InceptionV1__Mixed_4c__Branch_3__MaxPool_0a_3x3__MaxPool"
  pooling_param {
    pool: MAX
    kernel_h: 3
    kernel_w: 3
    stride_h: 1
    stride_w: 1
    ceil_mode: false
    pad_l: 1
    pad_r: 1
    pad_t: 1
    pad_b: 1
  }
}
layer {
  name: "InceptionV1__InceptionV1__Mixed_4c__Branch_0__Conv2d_0a_1x1__BatchNorm__FusedBatchNorm"
  type: "BatchNorm"
  bottom: "InceptionV1__InceptionV1__Mixed_4c__Branch_0__Conv2d_0a_1x1__Conv2D"
  top: "InceptionV1__InceptionV1__Mixed_4c__Branch_0__Conv2d_0a_1x1__BatchNorm__FusedBatchNorm"
  batch_norm_param {
    use_global_stats: true
    eps: 0.0010000000475
  }
}
layer {
  name: "InceptionV1__InceptionV1__Mixed_4c__Branch_0__Conv2d_0a_1x1__BatchNorm__FusedBatchNorm__scale"
  type: "Scale"
  bottom: "InceptionV1__InceptionV1__Mixed_4c__Branch_0__Conv2d_0a_1x1__BatchNorm__FusedBatchNorm"
  top: "InceptionV1__InceptionV1__Mixed_4c__Branch_0__Conv2d_0a_1x1__BatchNorm__FusedBatchNorm__scale"
  scale_param {
    bias_term: true
  }
}
layer {
  name: "InceptionV1__InceptionV1__Mixed_4c__Branch_1__Conv2d_0a_1x1__BatchNorm__FusedBatchNorm"
  type: "BatchNorm"
  bottom: "InceptionV1__InceptionV1__Mixed_4c__Branch_1__Conv2d_0a_1x1__Conv2D"
  top: "InceptionV1__InceptionV1__Mixed_4c__Branch_1__Conv2d_0a_1x1__BatchNorm__FusedBatchNorm"
  batch_norm_param {
    use_global_stats: true
    eps: 0.0010000000475
  }
}
layer {
  name: "InceptionV1__InceptionV1__Mixed_4c__Branch_1__Conv2d_0a_1x1__BatchNorm__FusedBatchNorm__scale"
  type: "Scale"
  bottom: "InceptionV1__InceptionV1__Mixed_4c__Branch_1__Conv2d_0a_1x1__BatchNorm__FusedBatchNorm"
  top: "InceptionV1__InceptionV1__Mixed_4c__Branch_1__Conv2d_0a_1x1__BatchNorm__FusedBatchNorm__scale"
  scale_param {
    bias_term: true
  }
}
layer {
  name: "InceptionV1__InceptionV1__Mixed_4c__Branch_2__Conv2d_0a_1x1__BatchNorm__FusedBatchNorm"
  type: "BatchNorm"
  bottom: "InceptionV1__InceptionV1__Mixed_4c__Branch_2__Conv2d_0a_1x1__Conv2D"
  top: "InceptionV1__InceptionV1__Mixed_4c__Branch_2__Conv2d_0a_1x1__BatchNorm__FusedBatchNorm"
  batch_norm_param {
    use_global_stats: true
    eps: 0.0010000000475
  }
}
layer {
  name: "InceptionV1__InceptionV1__Mixed_4c__Branch_2__Conv2d_0a_1x1__BatchNorm__FusedBatchNorm__scale"
  type: "Scale"
  bottom: "InceptionV1__InceptionV1__Mixed_4c__Branch_2__Conv2d_0a_1x1__BatchNorm__FusedBatchNorm"
  top: "InceptionV1__InceptionV1__Mixed_4c__Branch_2__Conv2d_0a_1x1__BatchNorm__FusedBatchNorm__scale"
  scale_param {
    bias_term: true
  }
}
layer {
  name: "InceptionV1__InceptionV1__Mixed_4c__Branch_3__Conv2d_0b_1x1__Conv2D"
  type: "Convolution"
  bottom: "InceptionV1__InceptionV1__Mixed_4c__Branch_3__MaxPool_0a_3x3__MaxPool"
  top: "InceptionV1__InceptionV1__Mixed_4c__Branch_3__Conv2d_0b_1x1__Conv2D"
  convolution_param {
    num_output: 64
    bias_term: false
    kernel_h: 1
    kernel_w: 1
    stride_h: 1
    stride_w: 1
    pad_l: 0
    pad_r: 0
    pad_t: 0
    pad_b: 0
  }
}
layer {
  name: "InceptionV1__InceptionV1__Mixed_4c__Branch_0__Conv2d_0a_1x1__Relu"
  type: "ReLU"
  bottom: "InceptionV1__InceptionV1__Mixed_4c__Branch_0__Conv2d_0a_1x1__BatchNorm__FusedBatchNorm__scale"
  top: "InceptionV1__InceptionV1__Mixed_4c__Branch_0__Conv2d_0a_1x1__Relu"
}
layer {
  name: "InceptionV1__InceptionV1__Mixed_4c__Branch_1__Conv2d_0a_1x1__Relu"
  type: "ReLU"
  bottom: "InceptionV1__InceptionV1__Mixed_4c__Branch_1__Conv2d_0a_1x1__BatchNorm__FusedBatchNorm__scale"
  top: "InceptionV1__InceptionV1__Mixed_4c__Branch_1__Conv2d_0a_1x1__Relu"
}
layer {
  name: "InceptionV1__InceptionV1__Mixed_4c__Branch_2__Conv2d_0a_1x1__Relu"
  type: "ReLU"
  bottom: "InceptionV1__InceptionV1__Mixed_4c__Branch_2__Conv2d_0a_1x1__BatchNorm__FusedBatchNorm__scale"
  top: "InceptionV1__InceptionV1__Mixed_4c__Branch_2__Conv2d_0a_1x1__Relu"
}
layer {
  name: "InceptionV1__InceptionV1__Mixed_4c__Branch_3__Conv2d_0b_1x1__BatchNorm__FusedBatchNorm"
  type: "BatchNorm"
  bottom: "InceptionV1__InceptionV1__Mixed_4c__Branch_3__Conv2d_0b_1x1__Conv2D"
  top: "InceptionV1__InceptionV1__Mixed_4c__Branch_3__Conv2d_0b_1x1__BatchNorm__FusedBatchNorm"
  batch_norm_param {
    use_global_stats: true
    eps: 0.0010000000475
  }
}
layer {
  name: "InceptionV1__InceptionV1__Mixed_4c__Branch_3__Conv2d_0b_1x1__BatchNorm__FusedBatchNorm__scale"
  type: "Scale"
  bottom: "InceptionV1__InceptionV1__Mixed_4c__Branch_3__Conv2d_0b_1x1__BatchNorm__FusedBatchNorm"
  top: "InceptionV1__InceptionV1__Mixed_4c__Branch_3__Conv2d_0b_1x1__BatchNorm__FusedBatchNorm__scale"
  scale_param {
    bias_term: true
  }
}
layer {
  name: "InceptionV1__InceptionV1__Mixed_4c__Branch_1__Conv2d_0b_3x3__Conv2D"
  type: "Convolution"
  bottom: "InceptionV1__InceptionV1__Mixed_4c__Branch_1__Conv2d_0a_1x1__Relu"
  top: "InceptionV1__InceptionV1__Mixed_4c__Branch_1__Conv2d_0b_3x3__Conv2D"
  convolution_param {
    num_output: 224
    bias_term: false
    kernel_h: 3
    kernel_w: 3
    stride_h: 1
    stride_w: 1
    pad_l: 1
    pad_r: 1
    pad_t: 1
    pad_b: 1
  }
}
layer {
  name: "InceptionV1__InceptionV1__Mixed_4c__Branch_2__Conv2d_0b_3x3__Conv2D"
  type: "Convolution"
  bottom: "InceptionV1__InceptionV1__Mixed_4c__Branch_2__Conv2d_0a_1x1__Relu"
  top: "InceptionV1__InceptionV1__Mixed_4c__Branch_2__Conv2d_0b_3x3__Conv2D"
  convolution_param {
    num_output: 64
    bias_term: false
    kernel_h: 3
    kernel_w: 3
    stride_h: 1
    stride_w: 1
    pad_l: 1
    pad_r: 1
    pad_t: 1
    pad_b: 1
  }
}
layer {
  name: "InceptionV1__InceptionV1__Mixed_4c__Branch_3__Conv2d_0b_1x1__Relu"
  type: "ReLU"
  bottom: "InceptionV1__InceptionV1__Mixed_4c__Branch_3__Conv2d_0b_1x1__BatchNorm__FusedBatchNorm__scale"
  top: "InceptionV1__InceptionV1__Mixed_4c__Branch_3__Conv2d_0b_1x1__Relu"
}
layer {
  name: "InceptionV1__InceptionV1__Mixed_4c__Branch_1__Conv2d_0b_3x3__BatchNorm__FusedBatchNorm"
  type: "BatchNorm"
  bottom: "InceptionV1__InceptionV1__Mixed_4c__Branch_1__Conv2d_0b_3x3__Conv2D"
  top: "InceptionV1__InceptionV1__Mixed_4c__Branch_1__Conv2d_0b_3x3__BatchNorm__FusedBatchNorm"
  batch_norm_param {
    use_global_stats: true
    eps: 0.0010000000475
  }
}
layer {
  name: "InceptionV1__InceptionV1__Mixed_4c__Branch_1__Conv2d_0b_3x3__BatchNorm__FusedBatchNorm__scale"
  type: "Scale"
  bottom: "InceptionV1__InceptionV1__Mixed_4c__Branch_1__Conv2d_0b_3x3__BatchNorm__FusedBatchNorm"
  top: "InceptionV1__InceptionV1__Mixed_4c__Branch_1__Conv2d_0b_3x3__BatchNorm__FusedBatchNorm__scale"
  scale_param {
    bias_term: true
  }
}
layer {
  name: "InceptionV1__InceptionV1__Mixed_4c__Branch_2__Conv2d_0b_3x3__BatchNorm__FusedBatchNorm"
  type: "BatchNorm"
  bottom: "InceptionV1__InceptionV1__Mixed_4c__Branch_2__Conv2d_0b_3x3__Conv2D"
  top: "InceptionV1__InceptionV1__Mixed_4c__Branch_2__Conv2d_0b_3x3__BatchNorm__FusedBatchNorm"
  batch_norm_param {
    use_global_stats: true
    eps: 0.0010000000475
  }
}
layer {
  name: "InceptionV1__InceptionV1__Mixed_4c__Branch_2__Conv2d_0b_3x3__BatchNorm__FusedBatchNorm__scale"
  type: "Scale"
  bottom: "InceptionV1__InceptionV1__Mixed_4c__Branch_2__Conv2d_0b_3x3__BatchNorm__FusedBatchNorm"
  top: "InceptionV1__InceptionV1__Mixed_4c__Branch_2__Conv2d_0b_3x3__BatchNorm__FusedBatchNorm__scale"
  scale_param {
    bias_term: true
  }
}
layer {
  name: "InceptionV1__InceptionV1__Mixed_4c__Branch_1__Conv2d_0b_3x3__Relu"
  type: "ReLU"
  bottom: "InceptionV1__InceptionV1__Mixed_4c__Branch_1__Conv2d_0b_3x3__BatchNorm__FusedBatchNorm__scale"
  top: "InceptionV1__InceptionV1__Mixed_4c__Branch_1__Conv2d_0b_3x3__Relu"
}
layer {
  name: "InceptionV1__InceptionV1__Mixed_4c__Branch_2__Conv2d_0b_3x3__Relu"
  type: "ReLU"
  bottom: "InceptionV1__InceptionV1__Mixed_4c__Branch_2__Conv2d_0b_3x3__BatchNorm__FusedBatchNorm__scale"
  top: "InceptionV1__InceptionV1__Mixed_4c__Branch_2__Conv2d_0b_3x3__Relu"
}
layer {
  name: "InceptionV1__InceptionV1__Mixed_4c__concat"
  type: "Concat"
  bottom: "InceptionV1__InceptionV1__Mixed_4c__Branch_0__Conv2d_0a_1x1__Relu"
  bottom: "InceptionV1__InceptionV1__Mixed_4c__Branch_1__Conv2d_0b_3x3__Relu"
  bottom: "InceptionV1__InceptionV1__Mixed_4c__Branch_2__Conv2d_0b_3x3__Relu"
  bottom: "InceptionV1__InceptionV1__Mixed_4c__Branch_3__Conv2d_0b_1x1__Relu"
  top: "InceptionV1__InceptionV1__Mixed_4c__concat"
  concat_param {
    axis: 1
  }
}
layer {
  name: "InceptionV1__InceptionV1__Mixed_4d__Branch_0__Conv2d_0a_1x1__Conv2D"
  type: "Convolution"
  bottom: "InceptionV1__InceptionV1__Mixed_4c__concat"
  top: "InceptionV1__InceptionV1__Mixed_4d__Branch_0__Conv2d_0a_1x1__Conv2D"
  convolution_param {
    num_output: 128
    bias_term: false
    kernel_h: 1
    kernel_w: 1
    stride_h: 1
    stride_w: 1
    pad_l: 0
    pad_r: 0
    pad_t: 0
    pad_b: 0
  }
}
layer {
  name: "InceptionV1__InceptionV1__Mixed_4d__Branch_1__Conv2d_0a_1x1__Conv2D"
  type: "Convolution"
  bottom: "InceptionV1__InceptionV1__Mixed_4c__concat"
  top: "InceptionV1__InceptionV1__Mixed_4d__Branch_1__Conv2d_0a_1x1__Conv2D"
  convolution_param {
    num_output: 128
    bias_term: false
    kernel_h: 1
    kernel_w: 1
    stride_h: 1
    stride_w: 1
    pad_l: 0
    pad_r: 0
    pad_t: 0
    pad_b: 0
  }
}
layer {
  name: "InceptionV1__InceptionV1__Mixed_4d__Branch_2__Conv2d_0a_1x1__Conv2D"
  type: "Convolution"
  bottom: "InceptionV1__InceptionV1__Mixed_4c__concat"
  top: "InceptionV1__InceptionV1__Mixed_4d__Branch_2__Conv2d_0a_1x1__Conv2D"
  convolution_param {
    num_output: 24
    bias_term: false
    kernel_h: 1
    kernel_w: 1
    stride_h: 1
    stride_w: 1
    pad_l: 0
    pad_r: 0
    pad_t: 0
    pad_b: 0
  }
}
layer {
  name: "InceptionV1__InceptionV1__Mixed_4d__Branch_3__MaxPool_0a_3x3__MaxPool"
  type: "Pooling"
  bottom: "InceptionV1__InceptionV1__Mixed_4c__concat"
  top: "InceptionV1__InceptionV1__Mixed_4d__Branch_3__MaxPool_0a_3x3__MaxPool"
  pooling_param {
    pool: MAX
    kernel_h: 3
    kernel_w: 3
    stride_h: 1
    stride_w: 1
    ceil_mode: false
    pad_l: 1
    pad_r: 1
    pad_t: 1
    pad_b: 1
  }
}
layer {
  name: "InceptionV1__InceptionV1__Mixed_4d__Branch_0__Conv2d_0a_1x1__BatchNorm__FusedBatchNorm"
  type: "BatchNorm"
  bottom: "InceptionV1__InceptionV1__Mixed_4d__Branch_0__Conv2d_0a_1x1__Conv2D"
  top: "InceptionV1__InceptionV1__Mixed_4d__Branch_0__Conv2d_0a_1x1__BatchNorm__FusedBatchNorm"
  batch_norm_param {
    use_global_stats: true
    eps: 0.0010000000475
  }
}
layer {
  name: "InceptionV1__InceptionV1__Mixed_4d__Branch_0__Conv2d_0a_1x1__BatchNorm__FusedBatchNorm__scale"
  type: "Scale"
  bottom: "InceptionV1__InceptionV1__Mixed_4d__Branch_0__Conv2d_0a_1x1__BatchNorm__FusedBatchNorm"
  top: "InceptionV1__InceptionV1__Mixed_4d__Branch_0__Conv2d_0a_1x1__BatchNorm__FusedBatchNorm__scale"
  scale_param {
    bias_term: true
  }
}
layer {
  name: "InceptionV1__InceptionV1__Mixed_4d__Branch_1__Conv2d_0a_1x1__BatchNorm__FusedBatchNorm"
  type: "BatchNorm"
  bottom: "InceptionV1__InceptionV1__Mixed_4d__Branch_1__Conv2d_0a_1x1__Conv2D"
  top: "InceptionV1__InceptionV1__Mixed_4d__Branch_1__Conv2d_0a_1x1__BatchNorm__FusedBatchNorm"
  batch_norm_param {
    use_global_stats: true
    eps: 0.0010000000475
  }
}
layer {
  name: "InceptionV1__InceptionV1__Mixed_4d__Branch_1__Conv2d_0a_1x1__BatchNorm__FusedBatchNorm__scale"
  type: "Scale"
  bottom: "InceptionV1__InceptionV1__Mixed_4d__Branch_1__Conv2d_0a_1x1__BatchNorm__FusedBatchNorm"
  top: "InceptionV1__InceptionV1__Mixed_4d__Branch_1__Conv2d_0a_1x1__BatchNorm__FusedBatchNorm__scale"
  scale_param {
    bias_term: true
  }
}
layer {
  name: "InceptionV1__InceptionV1__Mixed_4d__Branch_2__Conv2d_0a_1x1__BatchNorm__FusedBatchNorm"
  type: "BatchNorm"
  bottom: "InceptionV1__InceptionV1__Mixed_4d__Branch_2__Conv2d_0a_1x1__Conv2D"
  top: "InceptionV1__InceptionV1__Mixed_4d__Branch_2__Conv2d_0a_1x1__BatchNorm__FusedBatchNorm"
  batch_norm_param {
    use_global_stats: true
    eps: 0.0010000000475
  }
}
layer {
  name: "InceptionV1__InceptionV1__Mixed_4d__Branch_2__Conv2d_0a_1x1__BatchNorm__FusedBatchNorm__scale"
  type: "Scale"
  bottom: "InceptionV1__InceptionV1__Mixed_4d__Branch_2__Conv2d_0a_1x1__BatchNorm__FusedBatchNorm"
  top: "InceptionV1__InceptionV1__Mixed_4d__Branch_2__Conv2d_0a_1x1__BatchNorm__FusedBatchNorm__scale"
  scale_param {
    bias_term: true
  }
}
layer {
  name: "InceptionV1__InceptionV1__Mixed_4d__Branch_3__Conv2d_0b_1x1__Conv2D"
  type: "Convolution"
  bottom: "InceptionV1__InceptionV1__Mixed_4d__Branch_3__MaxPool_0a_3x3__MaxPool"
  top: "InceptionV1__InceptionV1__Mixed_4d__Branch_3__Conv2d_0b_1x1__Conv2D"
  convolution_param {
    num_output: 64
    bias_term: false
    kernel_h: 1
    kernel_w: 1
    stride_h: 1
    stride_w: 1
    pad_l: 0
    pad_r: 0
    pad_t: 0
    pad_b: 0
  }
}
layer {
  name: "InceptionV1__InceptionV1__Mixed_4d__Branch_0__Conv2d_0a_1x1__Relu"
  type: "ReLU"
  bottom: "InceptionV1__InceptionV1__Mixed_4d__Branch_0__Conv2d_0a_1x1__BatchNorm__FusedBatchNorm__scale"
  top: "InceptionV1__InceptionV1__Mixed_4d__Branch_0__Conv2d_0a_1x1__Relu"
}
layer {
  name: "InceptionV1__InceptionV1__Mixed_4d__Branch_1__Conv2d_0a_1x1__Relu"
  type: "ReLU"
  bottom: "InceptionV1__InceptionV1__Mixed_4d__Branch_1__Conv2d_0a_1x1__BatchNorm__FusedBatchNorm__scale"
  top: "InceptionV1__InceptionV1__Mixed_4d__Branch_1__Conv2d_0a_1x1__Relu"
}
layer {
  name: "InceptionV1__InceptionV1__Mixed_4d__Branch_2__Conv2d_0a_1x1__Relu"
  type: "ReLU"
  bottom: "InceptionV1__InceptionV1__Mixed_4d__Branch_2__Conv2d_0a_1x1__BatchNorm__FusedBatchNorm__scale"
  top: "InceptionV1__InceptionV1__Mixed_4d__Branch_2__Conv2d_0a_1x1__Relu"
}
layer {
  name: "InceptionV1__InceptionV1__Mixed_4d__Branch_3__Conv2d_0b_1x1__BatchNorm__FusedBatchNorm"
  type: "BatchNorm"
  bottom: "InceptionV1__InceptionV1__Mixed_4d__Branch_3__Conv2d_0b_1x1__Conv2D"
  top: "InceptionV1__InceptionV1__Mixed_4d__Branch_3__Conv2d_0b_1x1__BatchNorm__FusedBatchNorm"
  batch_norm_param {
    use_global_stats: true
    eps: 0.0010000000475
  }
}
layer {
  name: "InceptionV1__InceptionV1__Mixed_4d__Branch_3__Conv2d_0b_1x1__BatchNorm__FusedBatchNorm__scale"
  type: "Scale"
  bottom: "InceptionV1__InceptionV1__Mixed_4d__Branch_3__Conv2d_0b_1x1__BatchNorm__FusedBatchNorm"
  top: "InceptionV1__InceptionV1__Mixed_4d__Branch_3__Conv2d_0b_1x1__BatchNorm__FusedBatchNorm__scale"
  scale_param {
    bias_term: true
  }
}
layer {
  name: "InceptionV1__InceptionV1__Mixed_4d__Branch_1__Conv2d_0b_3x3__Conv2D"
  type: "Convolution"
  bottom: "InceptionV1__InceptionV1__Mixed_4d__Branch_1__Conv2d_0a_1x1__Relu"
  top: "InceptionV1__InceptionV1__Mixed_4d__Branch_1__Conv2d_0b_3x3__Conv2D"
  convolution_param {
    num_output: 256
    bias_term: false
    kernel_h: 3
    kernel_w: 3
    stride_h: 1
    stride_w: 1
    pad_l: 1
    pad_r: 1
    pad_t: 1
    pad_b: 1
  }
}
layer {
  name: "InceptionV1__InceptionV1__Mixed_4d__Branch_2__Conv2d_0b_3x3__Conv2D"
  type: "Convolution"
  bottom: "InceptionV1__InceptionV1__Mixed_4d__Branch_2__Conv2d_0a_1x1__Relu"
  top: "InceptionV1__InceptionV1__Mixed_4d__Branch_2__Conv2d_0b_3x3__Conv2D"
  convolution_param {
    num_output: 64
    bias_term: false
    kernel_h: 3
    kernel_w: 3
    stride_h: 1
    stride_w: 1
    pad_l: 1
    pad_r: 1
    pad_t: 1
    pad_b: 1
  }
}
layer {
  name: "InceptionV1__InceptionV1__Mixed_4d__Branch_3__Conv2d_0b_1x1__Relu"
  type: "ReLU"
  bottom: "InceptionV1__InceptionV1__Mixed_4d__Branch_3__Conv2d_0b_1x1__BatchNorm__FusedBatchNorm__scale"
  top: "InceptionV1__InceptionV1__Mixed_4d__Branch_3__Conv2d_0b_1x1__Relu"
}
layer {
  name: "InceptionV1__InceptionV1__Mixed_4d__Branch_1__Conv2d_0b_3x3__BatchNorm__FusedBatchNorm"
  type: "BatchNorm"
  bottom: "InceptionV1__InceptionV1__Mixed_4d__Branch_1__Conv2d_0b_3x3__Conv2D"
  top: "InceptionV1__InceptionV1__Mixed_4d__Branch_1__Conv2d_0b_3x3__BatchNorm__FusedBatchNorm"
  batch_norm_param {
    use_global_stats: true
    eps: 0.0010000000475
  }
}
layer {
  name: "InceptionV1__InceptionV1__Mixed_4d__Branch_1__Conv2d_0b_3x3__BatchNorm__FusedBatchNorm__scale"
  type: "Scale"
  bottom: "InceptionV1__InceptionV1__Mixed_4d__Branch_1__Conv2d_0b_3x3__BatchNorm__FusedBatchNorm"
  top: "InceptionV1__InceptionV1__Mixed_4d__Branch_1__Conv2d_0b_3x3__BatchNorm__FusedBatchNorm__scale"
  scale_param {
    bias_term: true
  }
}
layer {
  name: "InceptionV1__InceptionV1__Mixed_4d__Branch_2__Conv2d_0b_3x3__BatchNorm__FusedBatchNorm"
  type: "BatchNorm"
  bottom: "InceptionV1__InceptionV1__Mixed_4d__Branch_2__Conv2d_0b_3x3__Conv2D"
  top: "InceptionV1__InceptionV1__Mixed_4d__Branch_2__Conv2d_0b_3x3__BatchNorm__FusedBatchNorm"
  batch_norm_param {
    use_global_stats: true
    eps: 0.0010000000475
  }
}
layer {
  name: "InceptionV1__InceptionV1__Mixed_4d__Branch_2__Conv2d_0b_3x3__BatchNorm__FusedBatchNorm__scale"
  type: "Scale"
  bottom: "InceptionV1__InceptionV1__Mixed_4d__Branch_2__Conv2d_0b_3x3__BatchNorm__FusedBatchNorm"
  top: "InceptionV1__InceptionV1__Mixed_4d__Branch_2__Conv2d_0b_3x3__BatchNorm__FusedBatchNorm__scale"
  scale_param {
    bias_term: true
  }
}
layer {
  name: "InceptionV1__InceptionV1__Mixed_4d__Branch_1__Conv2d_0b_3x3__Relu"
  type: "ReLU"
  bottom: "InceptionV1__InceptionV1__Mixed_4d__Branch_1__Conv2d_0b_3x3__BatchNorm__FusedBatchNorm__scale"
  top: "InceptionV1__InceptionV1__Mixed_4d__Branch_1__Conv2d_0b_3x3__Relu"
}
layer {
  name: "InceptionV1__InceptionV1__Mixed_4d__Branch_2__Conv2d_0b_3x3__Relu"
  type: "ReLU"
  bottom: "InceptionV1__InceptionV1__Mixed_4d__Branch_2__Conv2d_0b_3x3__BatchNorm__FusedBatchNorm__scale"
  top: "InceptionV1__InceptionV1__Mixed_4d__Branch_2__Conv2d_0b_3x3__Relu"
}
layer {
  name: "InceptionV1__InceptionV1__Mixed_4d__concat"
  type: "Concat"
  bottom: "InceptionV1__InceptionV1__Mixed_4d__Branch_0__Conv2d_0a_1x1__Relu"
  bottom: "InceptionV1__InceptionV1__Mixed_4d__Branch_1__Conv2d_0b_3x3__Relu"
  bottom: "InceptionV1__InceptionV1__Mixed_4d__Branch_2__Conv2d_0b_3x3__Relu"
  bottom: "InceptionV1__InceptionV1__Mixed_4d__Branch_3__Conv2d_0b_1x1__Relu"
  top: "InceptionV1__InceptionV1__Mixed_4d__concat"
  concat_param {
    axis: 1
  }
}
layer {
  name: "InceptionV1__InceptionV1__Mixed_4e__Branch_0__Conv2d_0a_1x1__Conv2D"
  type: "Convolution"
  bottom: "InceptionV1__InceptionV1__Mixed_4d__concat"
  top: "InceptionV1__InceptionV1__Mixed_4e__Branch_0__Conv2d_0a_1x1__Conv2D"
  convolution_param {
    num_output: 112
    bias_term: false
    kernel_h: 1
    kernel_w: 1
    stride_h: 1
    stride_w: 1
    pad_l: 0
    pad_r: 0
    pad_t: 0
    pad_b: 0
  }
}
layer {
  name: "InceptionV1__InceptionV1__Mixed_4e__Branch_1__Conv2d_0a_1x1__Conv2D"
  type: "Convolution"
  bottom: "InceptionV1__InceptionV1__Mixed_4d__concat"
  top: "InceptionV1__InceptionV1__Mixed_4e__Branch_1__Conv2d_0a_1x1__Conv2D"
  convolution_param {
    num_output: 144
    bias_term: false
    kernel_h: 1
    kernel_w: 1
    stride_h: 1
    stride_w: 1
    pad_l: 0
    pad_r: 0
    pad_t: 0
    pad_b: 0
  }
}
layer {
  name: "InceptionV1__InceptionV1__Mixed_4e__Branch_2__Conv2d_0a_1x1__Conv2D"
  type: "Convolution"
  bottom: "InceptionV1__InceptionV1__Mixed_4d__concat"
  top: "InceptionV1__InceptionV1__Mixed_4e__Branch_2__Conv2d_0a_1x1__Conv2D"
  convolution_param {
    num_output: 32
    bias_term: false
    kernel_h: 1
    kernel_w: 1
    stride_h: 1
    stride_w: 1
    pad_l: 0
    pad_r: 0
    pad_t: 0
    pad_b: 0
  }
}
layer {
  name: "InceptionV1__InceptionV1__Mixed_4e__Branch_3__MaxPool_0a_3x3__MaxPool"
  type: "Pooling"
  bottom: "InceptionV1__InceptionV1__Mixed_4d__concat"
  top: "InceptionV1__InceptionV1__Mixed_4e__Branch_3__MaxPool_0a_3x3__MaxPool"
  pooling_param {
    pool: MAX
    kernel_h: 3
    kernel_w: 3
    stride_h: 1
    stride_w: 1
    ceil_mode: false
    pad_l: 1
    pad_r: 1
    pad_t: 1
    pad_b: 1
  }
}
layer {
  name: "InceptionV1__InceptionV1__Mixed_4e__Branch_0__Conv2d_0a_1x1__BatchNorm__FusedBatchNorm"
  type: "BatchNorm"
  bottom: "InceptionV1__InceptionV1__Mixed_4e__Branch_0__Conv2d_0a_1x1__Conv2D"
  top: "InceptionV1__InceptionV1__Mixed_4e__Branch_0__Conv2d_0a_1x1__BatchNorm__FusedBatchNorm"
  batch_norm_param {
    use_global_stats: true
    eps: 0.0010000000475
  }
}
layer {
  name: "InceptionV1__InceptionV1__Mixed_4e__Branch_0__Conv2d_0a_1x1__BatchNorm__FusedBatchNorm__scale"
  type: "Scale"
  bottom: "InceptionV1__InceptionV1__Mixed_4e__Branch_0__Conv2d_0a_1x1__BatchNorm__FusedBatchNorm"
  top: "InceptionV1__InceptionV1__Mixed_4e__Branch_0__Conv2d_0a_1x1__BatchNorm__FusedBatchNorm__scale"
  scale_param {
    bias_term: true
  }
}
layer {
  name: "InceptionV1__InceptionV1__Mixed_4e__Branch_1__Conv2d_0a_1x1__BatchNorm__FusedBatchNorm"
  type: "BatchNorm"
  bottom: "InceptionV1__InceptionV1__Mixed_4e__Branch_1__Conv2d_0a_1x1__Conv2D"
  top: "InceptionV1__InceptionV1__Mixed_4e__Branch_1__Conv2d_0a_1x1__BatchNorm__FusedBatchNorm"
  batch_norm_param {
    use_global_stats: true
    eps: 0.0010000000475
  }
}
layer {
  name: "InceptionV1__InceptionV1__Mixed_4e__Branch_1__Conv2d_0a_1x1__BatchNorm__FusedBatchNorm__scale"
  type: "Scale"
  bottom: "InceptionV1__InceptionV1__Mixed_4e__Branch_1__Conv2d_0a_1x1__BatchNorm__FusedBatchNorm"
  top: "InceptionV1__InceptionV1__Mixed_4e__Branch_1__Conv2d_0a_1x1__BatchNorm__FusedBatchNorm__scale"
  scale_param {
    bias_term: true
  }
}
layer {
  name: "InceptionV1__InceptionV1__Mixed_4e__Branch_2__Conv2d_0a_1x1__BatchNorm__FusedBatchNorm"
  type: "BatchNorm"
  bottom: "InceptionV1__InceptionV1__Mixed_4e__Branch_2__Conv2d_0a_1x1__Conv2D"
  top: "InceptionV1__InceptionV1__Mixed_4e__Branch_2__Conv2d_0a_1x1__BatchNorm__FusedBatchNorm"
  batch_norm_param {
    use_global_stats: true
    eps: 0.0010000000475
  }
}
layer {
  name: "InceptionV1__InceptionV1__Mixed_4e__Branch_2__Conv2d_0a_1x1__BatchNorm__FusedBatchNorm__scale"
  type: "Scale"
  bottom: "InceptionV1__InceptionV1__Mixed_4e__Branch_2__Conv2d_0a_1x1__BatchNorm__FusedBatchNorm"
  top: "InceptionV1__InceptionV1__Mixed_4e__Branch_2__Conv2d_0a_1x1__BatchNorm__FusedBatchNorm__scale"
  scale_param {
    bias_term: true
  }
}
layer {
  name: "InceptionV1__InceptionV1__Mixed_4e__Branch_3__Conv2d_0b_1x1__Conv2D"
  type: "Convolution"
  bottom: "InceptionV1__InceptionV1__Mixed_4e__Branch_3__MaxPool_0a_3x3__MaxPool"
  top: "InceptionV1__InceptionV1__Mixed_4e__Branch_3__Conv2d_0b_1x1__Conv2D"
  convolution_param {
    num_output: 64
    bias_term: false
    kernel_h: 1
    kernel_w: 1
    stride_h: 1
    stride_w: 1
    pad_l: 0
    pad_r: 0
    pad_t: 0
    pad_b: 0
  }
}
layer {
  name: "InceptionV1__InceptionV1__Mixed_4e__Branch_0__Conv2d_0a_1x1__Relu"
  type: "ReLU"
  bottom: "InceptionV1__InceptionV1__Mixed_4e__Branch_0__Conv2d_0a_1x1__BatchNorm__FusedBatchNorm__scale"
  top: "InceptionV1__InceptionV1__Mixed_4e__Branch_0__Conv2d_0a_1x1__Relu"
}
layer {
  name: "InceptionV1__InceptionV1__Mixed_4e__Branch_1__Conv2d_0a_1x1__Relu"
  type: "ReLU"
  bottom: "InceptionV1__InceptionV1__Mixed_4e__Branch_1__Conv2d_0a_1x1__BatchNorm__FusedBatchNorm__scale"
  top: "InceptionV1__InceptionV1__Mixed_4e__Branch_1__Conv2d_0a_1x1__Relu"
}
layer {
  name: "InceptionV1__InceptionV1__Mixed_4e__Branch_2__Conv2d_0a_1x1__Relu"
  type: "ReLU"
  bottom: "InceptionV1__InceptionV1__Mixed_4e__Branch_2__Conv2d_0a_1x1__BatchNorm__FusedBatchNorm__scale"
  top: "InceptionV1__InceptionV1__Mixed_4e__Branch_2__Conv2d_0a_1x1__Relu"
}
layer {
  name: "InceptionV1__InceptionV1__Mixed_4e__Branch_3__Conv2d_0b_1x1__BatchNorm__FusedBatchNorm"
  type: "BatchNorm"
  bottom: "InceptionV1__InceptionV1__Mixed_4e__Branch_3__Conv2d_0b_1x1__Conv2D"
  top: "InceptionV1__InceptionV1__Mixed_4e__Branch_3__Conv2d_0b_1x1__BatchNorm__FusedBatchNorm"
  batch_norm_param {
    use_global_stats: true
    eps: 0.0010000000475
  }
}
layer {
  name: "InceptionV1__InceptionV1__Mixed_4e__Branch_3__Conv2d_0b_1x1__BatchNorm__FusedBatchNorm__scale"
  type: "Scale"
  bottom: "InceptionV1__InceptionV1__Mixed_4e__Branch_3__Conv2d_0b_1x1__BatchNorm__FusedBatchNorm"
  top: "InceptionV1__InceptionV1__Mixed_4e__Branch_3__Conv2d_0b_1x1__BatchNorm__FusedBatchNorm__scale"
  scale_param {
    bias_term: true
  }
}
layer {
  name: "InceptionV1__InceptionV1__Mixed_4e__Branch_1__Conv2d_0b_3x3__Conv2D"
  type: "Convolution"
  bottom: "InceptionV1__InceptionV1__Mixed_4e__Branch_1__Conv2d_0a_1x1__Relu"
  top: "InceptionV1__InceptionV1__Mixed_4e__Branch_1__Conv2d_0b_3x3__Conv2D"
  convolution_param {
    num_output: 288
    bias_term: false
    kernel_h: 3
    kernel_w: 3
    stride_h: 1
    stride_w: 1
    pad_l: 1
    pad_r: 1
    pad_t: 1
    pad_b: 1
  }
}
layer {
  name: "InceptionV1__InceptionV1__Mixed_4e__Branch_2__Conv2d_0b_3x3__Conv2D"
  type: "Convolution"
  bottom: "InceptionV1__InceptionV1__Mixed_4e__Branch_2__Conv2d_0a_1x1__Relu"
  top: "InceptionV1__InceptionV1__Mixed_4e__Branch_2__Conv2d_0b_3x3__Conv2D"
  convolution_param {
    num_output: 64
    bias_term: false
    kernel_h: 3
    kernel_w: 3
    stride_h: 1
    stride_w: 1
    pad_l: 1
    pad_r: 1
    pad_t: 1
    pad_b: 1
  }
}
layer {
  name: "InceptionV1__InceptionV1__Mixed_4e__Branch_3__Conv2d_0b_1x1__Relu"
  type: "ReLU"
  bottom: "InceptionV1__InceptionV1__Mixed_4e__Branch_3__Conv2d_0b_1x1__BatchNorm__FusedBatchNorm__scale"
  top: "InceptionV1__InceptionV1__Mixed_4e__Branch_3__Conv2d_0b_1x1__Relu"
}
layer {
  name: "InceptionV1__InceptionV1__Mixed_4e__Branch_1__Conv2d_0b_3x3__BatchNorm__FusedBatchNorm"
  type: "BatchNorm"
  bottom: "InceptionV1__InceptionV1__Mixed_4e__Branch_1__Conv2d_0b_3x3__Conv2D"
  top: "InceptionV1__InceptionV1__Mixed_4e__Branch_1__Conv2d_0b_3x3__BatchNorm__FusedBatchNorm"
  batch_norm_param {
    use_global_stats: true
    eps: 0.0010000000475
  }
}
layer {
  name: "InceptionV1__InceptionV1__Mixed_4e__Branch_1__Conv2d_0b_3x3__BatchNorm__FusedBatchNorm__scale"
  type: "Scale"
  bottom: "InceptionV1__InceptionV1__Mixed_4e__Branch_1__Conv2d_0b_3x3__BatchNorm__FusedBatchNorm"
  top: "InceptionV1__InceptionV1__Mixed_4e__Branch_1__Conv2d_0b_3x3__BatchNorm__FusedBatchNorm__scale"
  scale_param {
    bias_term: true
  }
}
layer {
  name: "InceptionV1__InceptionV1__Mixed_4e__Branch_2__Conv2d_0b_3x3__BatchNorm__FusedBatchNorm"
  type: "BatchNorm"
  bottom: "InceptionV1__InceptionV1__Mixed_4e__Branch_2__Conv2d_0b_3x3__Conv2D"
  top: "InceptionV1__InceptionV1__Mixed_4e__Branch_2__Conv2d_0b_3x3__BatchNorm__FusedBatchNorm"
  batch_norm_param {
    use_global_stats: true
    eps: 0.0010000000475
  }
}
layer {
  name: "InceptionV1__InceptionV1__Mixed_4e__Branch_2__Conv2d_0b_3x3__BatchNorm__FusedBatchNorm__scale"
  type: "Scale"
  bottom: "InceptionV1__InceptionV1__Mixed_4e__Branch_2__Conv2d_0b_3x3__BatchNorm__FusedBatchNorm"
  top: "InceptionV1__InceptionV1__Mixed_4e__Branch_2__Conv2d_0b_3x3__BatchNorm__FusedBatchNorm__scale"
  scale_param {
    bias_term: true
  }
}
layer {
  name: "InceptionV1__InceptionV1__Mixed_4e__Branch_1__Conv2d_0b_3x3__Relu"
  type: "ReLU"
  bottom: "InceptionV1__InceptionV1__Mixed_4e__Branch_1__Conv2d_0b_3x3__BatchNorm__FusedBatchNorm__scale"
  top: "InceptionV1__InceptionV1__Mixed_4e__Branch_1__Conv2d_0b_3x3__Relu"
}
layer {
  name: "InceptionV1__InceptionV1__Mixed_4e__Branch_2__Conv2d_0b_3x3__Relu"
  type: "ReLU"
  bottom: "InceptionV1__InceptionV1__Mixed_4e__Branch_2__Conv2d_0b_3x3__BatchNorm__FusedBatchNorm__scale"
  top: "InceptionV1__InceptionV1__Mixed_4e__Branch_2__Conv2d_0b_3x3__Relu"
}
layer {
  name: "InceptionV1__InceptionV1__Mixed_4e__concat"
  type: "Concat"
  bottom: "InceptionV1__InceptionV1__Mixed_4e__Branch_0__Conv2d_0a_1x1__Relu"
  bottom: "InceptionV1__InceptionV1__Mixed_4e__Branch_1__Conv2d_0b_3x3__Relu"
  bottom: "InceptionV1__InceptionV1__Mixed_4e__Branch_2__Conv2d_0b_3x3__Relu"
  bottom: "InceptionV1__InceptionV1__Mixed_4e__Branch_3__Conv2d_0b_1x1__Relu"
  top: "InceptionV1__InceptionV1__Mixed_4e__concat"
  concat_param {
    axis: 1
  }
}
layer {
  name: "InceptionV1__InceptionV1__Mixed_4f__Branch_0__Conv2d_0a_1x1__Conv2D"
  type: "Convolution"
  bottom: "InceptionV1__InceptionV1__Mixed_4e__concat"
  top: "InceptionV1__InceptionV1__Mixed_4f__Branch_0__Conv2d_0a_1x1__Conv2D"
  convolution_param {
    num_output: 256
    bias_term: false
    kernel_h: 1
    kernel_w: 1
    stride_h: 1
    stride_w: 1
    pad_l: 0
    pad_r: 0
    pad_t: 0
    pad_b: 0
  }
}
layer {
  name: "InceptionV1__InceptionV1__Mixed_4f__Branch_1__Conv2d_0a_1x1__Conv2D"
  type: "Convolution"
  bottom: "InceptionV1__InceptionV1__Mixed_4e__concat"
  top: "InceptionV1__InceptionV1__Mixed_4f__Branch_1__Conv2d_0a_1x1__Conv2D"
  convolution_param {
    num_output: 160
    bias_term: false
    kernel_h: 1
    kernel_w: 1
    stride_h: 1
    stride_w: 1
    pad_l: 0
    pad_r: 0
    pad_t: 0
    pad_b: 0
  }
}
layer {
  name: "InceptionV1__InceptionV1__Mixed_4f__Branch_2__Conv2d_0a_1x1__Conv2D"
  type: "Convolution"
  bottom: "InceptionV1__InceptionV1__Mixed_4e__concat"
  top: "InceptionV1__InceptionV1__Mixed_4f__Branch_2__Conv2d_0a_1x1__Conv2D"
  convolution_param {
    num_output: 32
    bias_term: false
    kernel_h: 1
    kernel_w: 1
    stride_h: 1
    stride_w: 1
    pad_l: 0
    pad_r: 0
    pad_t: 0
    pad_b: 0
  }
}
layer {
  name: "InceptionV1__InceptionV1__Mixed_4f__Branch_3__MaxPool_0a_3x3__MaxPool"
  type: "Pooling"
  bottom: "InceptionV1__InceptionV1__Mixed_4e__concat"
  top: "InceptionV1__InceptionV1__Mixed_4f__Branch_3__MaxPool_0a_3x3__MaxPool"
  pooling_param {
    pool: MAX
    kernel_h: 3
    kernel_w: 3
    stride_h: 1
    stride_w: 1
    ceil_mode: false
    pad_l: 1
    pad_r: 1
    pad_t: 1
    pad_b: 1
  }
}
layer {
  name: "InceptionV1__InceptionV1__Mixed_4f__Branch_0__Conv2d_0a_1x1__BatchNorm__FusedBatchNorm"
  type: "BatchNorm"
  bottom: "InceptionV1__InceptionV1__Mixed_4f__Branch_0__Conv2d_0a_1x1__Conv2D"
  top: "InceptionV1__InceptionV1__Mixed_4f__Branch_0__Conv2d_0a_1x1__BatchNorm__FusedBatchNorm"
  batch_norm_param {
    use_global_stats: true
    eps: 0.0010000000475
  }
}
layer {
  name: "InceptionV1__InceptionV1__Mixed_4f__Branch_0__Conv2d_0a_1x1__BatchNorm__FusedBatchNorm__scale"
  type: "Scale"
  bottom: "InceptionV1__InceptionV1__Mixed_4f__Branch_0__Conv2d_0a_1x1__BatchNorm__FusedBatchNorm"
  top: "InceptionV1__InceptionV1__Mixed_4f__Branch_0__Conv2d_0a_1x1__BatchNorm__FusedBatchNorm__scale"
  scale_param {
    bias_term: true
  }
}
layer {
  name: "InceptionV1__InceptionV1__Mixed_4f__Branch_1__Conv2d_0a_1x1__BatchNorm__FusedBatchNorm"
  type: "BatchNorm"
  bottom: "InceptionV1__InceptionV1__Mixed_4f__Branch_1__Conv2d_0a_1x1__Conv2D"
  top: "InceptionV1__InceptionV1__Mixed_4f__Branch_1__Conv2d_0a_1x1__BatchNorm__FusedBatchNorm"
  batch_norm_param {
    use_global_stats: true
    eps: 0.0010000000475
  }
}
layer {
  name: "InceptionV1__InceptionV1__Mixed_4f__Branch_1__Conv2d_0a_1x1__BatchNorm__FusedBatchNorm__scale"
  type: "Scale"
  bottom: "InceptionV1__InceptionV1__Mixed_4f__Branch_1__Conv2d_0a_1x1__BatchNorm__FusedBatchNorm"
  top: "InceptionV1__InceptionV1__Mixed_4f__Branch_1__Conv2d_0a_1x1__BatchNorm__FusedBatchNorm__scale"
  scale_param {
    bias_term: true
  }
}
layer {
  name: "InceptionV1__InceptionV1__Mixed_4f__Branch_2__Conv2d_0a_1x1__BatchNorm__FusedBatchNorm"
  type: "BatchNorm"
  bottom: "InceptionV1__InceptionV1__Mixed_4f__Branch_2__Conv2d_0a_1x1__Conv2D"
  top: "InceptionV1__InceptionV1__Mixed_4f__Branch_2__Conv2d_0a_1x1__BatchNorm__FusedBatchNorm"
  batch_norm_param {
    use_global_stats: true
    eps: 0.0010000000475
  }
}
layer {
  name: "InceptionV1__InceptionV1__Mixed_4f__Branch_2__Conv2d_0a_1x1__BatchNorm__FusedBatchNorm__scale"
  type: "Scale"
  bottom: "InceptionV1__InceptionV1__Mixed_4f__Branch_2__Conv2d_0a_1x1__BatchNorm__FusedBatchNorm"
  top: "InceptionV1__InceptionV1__Mixed_4f__Branch_2__Conv2d_0a_1x1__BatchNorm__FusedBatchNorm__scale"
  scale_param {
    bias_term: true
  }
}
layer {
  name: "InceptionV1__InceptionV1__Mixed_4f__Branch_3__Conv2d_0b_1x1__Conv2D"
  type: "Convolution"
  bottom: "InceptionV1__InceptionV1__Mixed_4f__Branch_3__MaxPool_0a_3x3__MaxPool"
  top: "InceptionV1__InceptionV1__Mixed_4f__Branch_3__Conv2d_0b_1x1__Conv2D"
  convolution_param {
    num_output: 128
    bias_term: false
    kernel_h: 1
    kernel_w: 1
    stride_h: 1
    stride_w: 1
    pad_l: 0
    pad_r: 0
    pad_t: 0
    pad_b: 0
  }
}
layer {
  name: "InceptionV1__InceptionV1__Mixed_4f__Branch_0__Conv2d_0a_1x1__Relu"
  type: "ReLU"
  bottom: "InceptionV1__InceptionV1__Mixed_4f__Branch_0__Conv2d_0a_1x1__BatchNorm__FusedBatchNorm__scale"
  top: "InceptionV1__InceptionV1__Mixed_4f__Branch_0__Conv2d_0a_1x1__Relu"
}
layer {
  name: "InceptionV1__InceptionV1__Mixed_4f__Branch_1__Conv2d_0a_1x1__Relu"
  type: "ReLU"
  bottom: "InceptionV1__InceptionV1__Mixed_4f__Branch_1__Conv2d_0a_1x1__BatchNorm__FusedBatchNorm__scale"
  top: "InceptionV1__InceptionV1__Mixed_4f__Branch_1__Conv2d_0a_1x1__Relu"
}
layer {
  name: "InceptionV1__InceptionV1__Mixed_4f__Branch_2__Conv2d_0a_1x1__Relu"
  type: "ReLU"
  bottom: "InceptionV1__InceptionV1__Mixed_4f__Branch_2__Conv2d_0a_1x1__BatchNorm__FusedBatchNorm__scale"
  top: "InceptionV1__InceptionV1__Mixed_4f__Branch_2__Conv2d_0a_1x1__Relu"
}
layer {
  name: "InceptionV1__InceptionV1__Mixed_4f__Branch_3__Conv2d_0b_1x1__BatchNorm__FusedBatchNorm"
  type: "BatchNorm"
  bottom: "InceptionV1__InceptionV1__Mixed_4f__Branch_3__Conv2d_0b_1x1__Conv2D"
  top: "InceptionV1__InceptionV1__Mixed_4f__Branch_3__Conv2d_0b_1x1__BatchNorm__FusedBatchNorm"
  batch_norm_param {
    use_global_stats: true
    eps: 0.0010000000475
  }
}
layer {
  name: "InceptionV1__InceptionV1__Mixed_4f__Branch_3__Conv2d_0b_1x1__BatchNorm__FusedBatchNorm__scale"
  type: "Scale"
  bottom: "InceptionV1__InceptionV1__Mixed_4f__Branch_3__Conv2d_0b_1x1__BatchNorm__FusedBatchNorm"
  top: "InceptionV1__InceptionV1__Mixed_4f__Branch_3__Conv2d_0b_1x1__BatchNorm__FusedBatchNorm__scale"
  scale_param {
    bias_term: true
  }
}
layer {
  name: "InceptionV1__InceptionV1__Mixed_4f__Branch_1__Conv2d_0b_3x3__Conv2D"
  type: "Convolution"
  bottom: "InceptionV1__InceptionV1__Mixed_4f__Branch_1__Conv2d_0a_1x1__Relu"
  top: "InceptionV1__InceptionV1__Mixed_4f__Branch_1__Conv2d_0b_3x3__Conv2D"
  convolution_param {
    num_output: 320
    bias_term: false
    kernel_h: 3
    kernel_w: 3
    stride_h: 1
    stride_w: 1
    pad_l: 1
    pad_r: 1
    pad_t: 1
    pad_b: 1
  }
}
layer {
  name: "InceptionV1__InceptionV1__Mixed_4f__Branch_2__Conv2d_0b_3x3__Conv2D"
  type: "Convolution"
  bottom: "InceptionV1__InceptionV1__Mixed_4f__Branch_2__Conv2d_0a_1x1__Relu"
  top: "InceptionV1__InceptionV1__Mixed_4f__Branch_2__Conv2d_0b_3x3__Conv2D"
  convolution_param {
    num_output: 128
    bias_term: false
    kernel_h: 3
    kernel_w: 3
    stride_h: 1
    stride_w: 1
    pad_l: 1
    pad_r: 1
    pad_t: 1
    pad_b: 1
  }
}
layer {
  name: "InceptionV1__InceptionV1__Mixed_4f__Branch_3__Conv2d_0b_1x1__Relu"
  type: "ReLU"
  bottom: "InceptionV1__InceptionV1__Mixed_4f__Branch_3__Conv2d_0b_1x1__BatchNorm__FusedBatchNorm__scale"
  top: "InceptionV1__InceptionV1__Mixed_4f__Branch_3__Conv2d_0b_1x1__Relu"
}
layer {
  name: "InceptionV1__InceptionV1__Mixed_4f__Branch_1__Conv2d_0b_3x3__BatchNorm__FusedBatchNorm"
  type: "BatchNorm"
  bottom: "InceptionV1__InceptionV1__Mixed_4f__Branch_1__Conv2d_0b_3x3__Conv2D"
  top: "InceptionV1__InceptionV1__Mixed_4f__Branch_1__Conv2d_0b_3x3__BatchNorm__FusedBatchNorm"
  batch_norm_param {
    use_global_stats: true
    eps: 0.0010000000475
  }
}
layer {
  name: "InceptionV1__InceptionV1__Mixed_4f__Branch_1__Conv2d_0b_3x3__BatchNorm__FusedBatchNorm__scale"
  type: "Scale"
  bottom: "InceptionV1__InceptionV1__Mixed_4f__Branch_1__Conv2d_0b_3x3__BatchNorm__FusedBatchNorm"
  top: "InceptionV1__InceptionV1__Mixed_4f__Branch_1__Conv2d_0b_3x3__BatchNorm__FusedBatchNorm__scale"
  scale_param {
    bias_term: true
  }
}
layer {
  name: "InceptionV1__InceptionV1__Mixed_4f__Branch_2__Conv2d_0b_3x3__BatchNorm__FusedBatchNorm"
  type: "BatchNorm"
  bottom: "InceptionV1__InceptionV1__Mixed_4f__Branch_2__Conv2d_0b_3x3__Conv2D"
  top: "InceptionV1__InceptionV1__Mixed_4f__Branch_2__Conv2d_0b_3x3__BatchNorm__FusedBatchNorm"
  batch_norm_param {
    use_global_stats: true
    eps: 0.0010000000475
  }
}
layer {
  name: "InceptionV1__InceptionV1__Mixed_4f__Branch_2__Conv2d_0b_3x3__BatchNorm__FusedBatchNorm__scale"
  type: "Scale"
  bottom: "InceptionV1__InceptionV1__Mixed_4f__Branch_2__Conv2d_0b_3x3__BatchNorm__FusedBatchNorm"
  top: "InceptionV1__InceptionV1__Mixed_4f__Branch_2__Conv2d_0b_3x3__BatchNorm__FusedBatchNorm__scale"
  scale_param {
    bias_term: true
  }
}
layer {
  name: "InceptionV1__InceptionV1__Mixed_4f__Branch_1__Conv2d_0b_3x3__Relu"
  type: "ReLU"
  bottom: "InceptionV1__InceptionV1__Mixed_4f__Branch_1__Conv2d_0b_3x3__BatchNorm__FusedBatchNorm__scale"
  top: "InceptionV1__InceptionV1__Mixed_4f__Branch_1__Conv2d_0b_3x3__Relu"
}
layer {
  name: "InceptionV1__InceptionV1__Mixed_4f__Branch_2__Conv2d_0b_3x3__Relu"
  type: "ReLU"
  bottom: "InceptionV1__InceptionV1__Mixed_4f__Branch_2__Conv2d_0b_3x3__BatchNorm__FusedBatchNorm__scale"
  top: "InceptionV1__InceptionV1__Mixed_4f__Branch_2__Conv2d_0b_3x3__Relu"
}
layer {
  name: "InceptionV1__InceptionV1__Mixed_4f__concat"
  type: "Concat"
  bottom: "InceptionV1__InceptionV1__Mixed_4f__Branch_0__Conv2d_0a_1x1__Relu"
  bottom: "InceptionV1__InceptionV1__Mixed_4f__Branch_1__Conv2d_0b_3x3__Relu"
  bottom: "InceptionV1__InceptionV1__Mixed_4f__Branch_2__Conv2d_0b_3x3__Relu"
  bottom: "InceptionV1__InceptionV1__Mixed_4f__Branch_3__Conv2d_0b_1x1__Relu"
  top: "InceptionV1__InceptionV1__Mixed_4f__concat"
  concat_param {
    axis: 1
  }
}
layer {
  name: "InceptionV1__InceptionV1__MaxPool_5a_2x2__MaxPool"
  type: "Pooling"
  bottom: "InceptionV1__InceptionV1__Mixed_4f__concat"
  top: "InceptionV1__InceptionV1__MaxPool_5a_2x2__MaxPool"
  pooling_param {
    pool: MAX
    kernel_h: 2
    kernel_w: 2
    stride_h: 2
    stride_w: 2
    ceil_mode: false
    pad_l: 0
    pad_r: 0
    pad_t: 0
    pad_b: 0
  }
}
layer {
  name: "InceptionV1__InceptionV1__Mixed_5b__Branch_0__Conv2d_0a_1x1__Conv2D"
  type: "Convolution"
  bottom: "InceptionV1__InceptionV1__MaxPool_5a_2x2__MaxPool"
  top: "InceptionV1__InceptionV1__Mixed_5b__Branch_0__Conv2d_0a_1x1__Conv2D"
  convolution_param {
    num_output: 256
    bias_term: false
    kernel_h: 1
    kernel_w: 1
    stride_h: 1
    stride_w: 1
    pad_l: 0
    pad_r: 0
    pad_t: 0
    pad_b: 0
  }
}
layer {
  name: "InceptionV1__InceptionV1__Mixed_5b__Branch_1__Conv2d_0a_1x1__Conv2D"
  type: "Convolution"
  bottom: "InceptionV1__InceptionV1__MaxPool_5a_2x2__MaxPool"
  top: "InceptionV1__InceptionV1__Mixed_5b__Branch_1__Conv2d_0a_1x1__Conv2D"
  convolution_param {
    num_output: 160
    bias_term: false
    kernel_h: 1
    kernel_w: 1
    stride_h: 1
    stride_w: 1
    pad_l: 0
    pad_r: 0
    pad_t: 0
    pad_b: 0
  }
}
layer {
  name: "InceptionV1__InceptionV1__Mixed_5b__Branch_2__Conv2d_0a_1x1__Conv2D"
  type: "Convolution"
  bottom: "InceptionV1__InceptionV1__MaxPool_5a_2x2__MaxPool"
  top: "InceptionV1__InceptionV1__Mixed_5b__Branch_2__Conv2d_0a_1x1__Conv2D"
  convolution_param {
    num_output: 32
    bias_term: false
    kernel_h: 1
    kernel_w: 1
    stride_h: 1
    stride_w: 1
    pad_l: 0
    pad_r: 0
    pad_t: 0
    pad_b: 0
  }
}
layer {
  name: "InceptionV1__InceptionV1__Mixed_5b__Branch_3__MaxPool_0a_3x3__MaxPool"
  type: "Pooling"
  bottom: "InceptionV1__InceptionV1__MaxPool_5a_2x2__MaxPool"
  top: "InceptionV1__InceptionV1__Mixed_5b__Branch_3__MaxPool_0a_3x3__MaxPool"
  pooling_param {
    pool: MAX
    kernel_h: 3
    kernel_w: 3
    stride_h: 1
    stride_w: 1
    ceil_mode: false
    pad_l: 1
    pad_r: 1
    pad_t: 1
    pad_b: 1
  }
}
layer {
  name: "InceptionV1__InceptionV1__Mixed_5b__Branch_0__Conv2d_0a_1x1__BatchNorm__FusedBatchNorm"
  type: "BatchNorm"
  bottom: "InceptionV1__InceptionV1__Mixed_5b__Branch_0__Conv2d_0a_1x1__Conv2D"
  top: "InceptionV1__InceptionV1__Mixed_5b__Branch_0__Conv2d_0a_1x1__BatchNorm__FusedBatchNorm"
  batch_norm_param {
    use_global_stats: true
    eps: 0.0010000000475
  }
}
layer {
  name: "InceptionV1__InceptionV1__Mixed_5b__Branch_0__Conv2d_0a_1x1__BatchNorm__FusedBatchNorm__scale"
  type: "Scale"
  bottom: "InceptionV1__InceptionV1__Mixed_5b__Branch_0__Conv2d_0a_1x1__BatchNorm__FusedBatchNorm"
  top: "InceptionV1__InceptionV1__Mixed_5b__Branch_0__Conv2d_0a_1x1__BatchNorm__FusedBatchNorm__scale"
  scale_param {
    bias_term: true
  }
}
layer {
  name: "InceptionV1__InceptionV1__Mixed_5b__Branch_1__Conv2d_0a_1x1__BatchNorm__FusedBatchNorm"
  type: "BatchNorm"
  bottom: "InceptionV1__InceptionV1__Mixed_5b__Branch_1__Conv2d_0a_1x1__Conv2D"
  top: "InceptionV1__InceptionV1__Mixed_5b__Branch_1__Conv2d_0a_1x1__BatchNorm__FusedBatchNorm"
  batch_norm_param {
    use_global_stats: true
    eps: 0.0010000000475
  }
}
layer {
  name: "InceptionV1__InceptionV1__Mixed_5b__Branch_1__Conv2d_0a_1x1__BatchNorm__FusedBatchNorm__scale"
  type: "Scale"
  bottom: "InceptionV1__InceptionV1__Mixed_5b__Branch_1__Conv2d_0a_1x1__BatchNorm__FusedBatchNorm"
  top: "InceptionV1__InceptionV1__Mixed_5b__Branch_1__Conv2d_0a_1x1__BatchNorm__FusedBatchNorm__scale"
  scale_param {
    bias_term: true
  }
}
layer {
  name: "InceptionV1__InceptionV1__Mixed_5b__Branch_2__Conv2d_0a_1x1__BatchNorm__FusedBatchNorm"
  type: "BatchNorm"
  bottom: "InceptionV1__InceptionV1__Mixed_5b__Branch_2__Conv2d_0a_1x1__Conv2D"
  top: "InceptionV1__InceptionV1__Mixed_5b__Branch_2__Conv2d_0a_1x1__BatchNorm__FusedBatchNorm"
  batch_norm_param {
    use_global_stats: true
    eps: 0.0010000000475
  }
}
layer {
  name: "InceptionV1__InceptionV1__Mixed_5b__Branch_2__Conv2d_0a_1x1__BatchNorm__FusedBatchNorm__scale"
  type: "Scale"
  bottom: "InceptionV1__InceptionV1__Mixed_5b__Branch_2__Conv2d_0a_1x1__BatchNorm__FusedBatchNorm"
  top: "InceptionV1__InceptionV1__Mixed_5b__Branch_2__Conv2d_0a_1x1__BatchNorm__FusedBatchNorm__scale"
  scale_param {
    bias_term: true
  }
}
layer {
  name: "InceptionV1__InceptionV1__Mixed_5b__Branch_3__Conv2d_0b_1x1__Conv2D"
  type: "Convolution"
  bottom: "InceptionV1__InceptionV1__Mixed_5b__Branch_3__MaxPool_0a_3x3__MaxPool"
  top: "InceptionV1__InceptionV1__Mixed_5b__Branch_3__Conv2d_0b_1x1__Conv2D"
  convolution_param {
    num_output: 128
    bias_term: false
    kernel_h: 1
    kernel_w: 1
    stride_h: 1
    stride_w: 1
    pad_l: 0
    pad_r: 0
    pad_t: 0
    pad_b: 0
  }
}
layer {
  name: "InceptionV1__InceptionV1__Mixed_5b__Branch_0__Conv2d_0a_1x1__Relu"
  type: "ReLU"
  bottom: "InceptionV1__InceptionV1__Mixed_5b__Branch_0__Conv2d_0a_1x1__BatchNorm__FusedBatchNorm__scale"
  top: "InceptionV1__InceptionV1__Mixed_5b__Branch_0__Conv2d_0a_1x1__Relu"
}
layer {
  name: "InceptionV1__InceptionV1__Mixed_5b__Branch_1__Conv2d_0a_1x1__Relu"
  type: "ReLU"
  bottom: "InceptionV1__InceptionV1__Mixed_5b__Branch_1__Conv2d_0a_1x1__BatchNorm__FusedBatchNorm__scale"
  top: "InceptionV1__InceptionV1__Mixed_5b__Branch_1__Conv2d_0a_1x1__Relu"
}
layer {
  name: "InceptionV1__InceptionV1__Mixed_5b__Branch_2__Conv2d_0a_1x1__Relu"
  type: "ReLU"
  bottom: "InceptionV1__InceptionV1__Mixed_5b__Branch_2__Conv2d_0a_1x1__BatchNorm__FusedBatchNorm__scale"
  top: "InceptionV1__InceptionV1__Mixed_5b__Branch_2__Conv2d_0a_1x1__Relu"
}
layer {
  name: "InceptionV1__InceptionV1__Mixed_5b__Branch_3__Conv2d_0b_1x1__BatchNorm__FusedBatchNorm"
  type: "BatchNorm"
  bottom: "InceptionV1__InceptionV1__Mixed_5b__Branch_3__Conv2d_0b_1x1__Conv2D"
  top: "InceptionV1__InceptionV1__Mixed_5b__Branch_3__Conv2d_0b_1x1__BatchNorm__FusedBatchNorm"
  batch_norm_param {
    use_global_stats: true
    eps: 0.0010000000475
  }
}
layer {
  name: "InceptionV1__InceptionV1__Mixed_5b__Branch_3__Conv2d_0b_1x1__BatchNorm__FusedBatchNorm__scale"
  type: "Scale"
  bottom: "InceptionV1__InceptionV1__Mixed_5b__Branch_3__Conv2d_0b_1x1__BatchNorm__FusedBatchNorm"
  top: "InceptionV1__InceptionV1__Mixed_5b__Branch_3__Conv2d_0b_1x1__BatchNorm__FusedBatchNorm__scale"
  scale_param {
    bias_term: true
  }
}
layer {
  name: "InceptionV1__InceptionV1__Mixed_5b__Branch_1__Conv2d_0b_3x3__Conv2D"
  type: "Convolution"
  bottom: "InceptionV1__InceptionV1__Mixed_5b__Branch_1__Conv2d_0a_1x1__Relu"
  top: "InceptionV1__InceptionV1__Mixed_5b__Branch_1__Conv2d_0b_3x3__Conv2D"
  convolution_param {
    num_output: 320
    bias_term: false
    kernel_h: 3
    kernel_w: 3
    stride_h: 1
    stride_w: 1
    pad_l: 1
    pad_r: 1
    pad_t: 1
    pad_b: 1
  }
}
layer {
  name: "InceptionV1__InceptionV1__Mixed_5b__Branch_2__Conv2d_0a_3x3__Conv2D"
  type: "Convolution"
  bottom: "InceptionV1__InceptionV1__Mixed_5b__Branch_2__Conv2d_0a_1x1__Relu"
  top: "InceptionV1__InceptionV1__Mixed_5b__Branch_2__Conv2d_0a_3x3__Conv2D"
  convolution_param {
    num_output: 128
    bias_term: false
    kernel_h: 3
    kernel_w: 3
    stride_h: 1
    stride_w: 1
    pad_l: 1
    pad_r: 1
    pad_t: 1
    pad_b: 1
  }
}
layer {
  name: "InceptionV1__InceptionV1__Mixed_5b__Branch_3__Conv2d_0b_1x1__Relu"
  type: "ReLU"
  bottom: "InceptionV1__InceptionV1__Mixed_5b__Branch_3__Conv2d_0b_1x1__BatchNorm__FusedBatchNorm__scale"
  top: "InceptionV1__InceptionV1__Mixed_5b__Branch_3__Conv2d_0b_1x1__Relu"
}
layer {
  name: "InceptionV1__InceptionV1__Mixed_5b__Branch_1__Conv2d_0b_3x3__BatchNorm__FusedBatchNorm"
  type: "BatchNorm"
  bottom: "InceptionV1__InceptionV1__Mixed_5b__Branch_1__Conv2d_0b_3x3__Conv2D"
  top: "InceptionV1__InceptionV1__Mixed_5b__Branch_1__Conv2d_0b_3x3__BatchNorm__FusedBatchNorm"
  batch_norm_param {
    use_global_stats: true
    eps: 0.0010000000475
  }
}
layer {
  name: "InceptionV1__InceptionV1__Mixed_5b__Branch_1__Conv2d_0b_3x3__BatchNorm__FusedBatchNorm__scale"
  type: "Scale"
  bottom: "InceptionV1__InceptionV1__Mixed_5b__Branch_1__Conv2d_0b_3x3__BatchNorm__FusedBatchNorm"
  top: "InceptionV1__InceptionV1__Mixed_5b__Branch_1__Conv2d_0b_3x3__BatchNorm__FusedBatchNorm__scale"
  scale_param {
    bias_term: true
  }
}
layer {
  name: "InceptionV1__InceptionV1__Mixed_5b__Branch_2__Conv2d_0a_3x3__BatchNorm__FusedBatchNorm"
  type: "BatchNorm"
  bottom: "InceptionV1__InceptionV1__Mixed_5b__Branch_2__Conv2d_0a_3x3__Conv2D"
  top: "InceptionV1__InceptionV1__Mixed_5b__Branch_2__Conv2d_0a_3x3__BatchNorm__FusedBatchNorm"
  batch_norm_param {
    use_global_stats: true
    eps: 0.0010000000475
  }
}
layer {
  name: "InceptionV1__InceptionV1__Mixed_5b__Branch_2__Conv2d_0a_3x3__BatchNorm__FusedBatchNorm__scale"
  type: "Scale"
  bottom: "InceptionV1__InceptionV1__Mixed_5b__Branch_2__Conv2d_0a_3x3__BatchNorm__FusedBatchNorm"
  top: "InceptionV1__InceptionV1__Mixed_5b__Branch_2__Conv2d_0a_3x3__BatchNorm__FusedBatchNorm__scale"
  scale_param {
    bias_term: true
  }
}
layer {
  name: "InceptionV1__InceptionV1__Mixed_5b__Branch_1__Conv2d_0b_3x3__Relu"
  type: "ReLU"
  bottom: "InceptionV1__InceptionV1__Mixed_5b__Branch_1__Conv2d_0b_3x3__BatchNorm__FusedBatchNorm__scale"
  top: "InceptionV1__InceptionV1__Mixed_5b__Branch_1__Conv2d_0b_3x3__Relu"
}
layer {
  name: "InceptionV1__InceptionV1__Mixed_5b__Branch_2__Conv2d_0a_3x3__Relu"
  type: "ReLU"
  bottom: "InceptionV1__InceptionV1__Mixed_5b__Branch_2__Conv2d_0a_3x3__BatchNorm__FusedBatchNorm__scale"
  top: "InceptionV1__InceptionV1__Mixed_5b__Branch_2__Conv2d_0a_3x3__Relu"
}
layer {
  name: "InceptionV1__InceptionV1__Mixed_5b__concat"
  type: "Concat"
  bottom: "InceptionV1__InceptionV1__Mixed_5b__Branch_0__Conv2d_0a_1x1__Relu"
  bottom: "InceptionV1__InceptionV1__Mixed_5b__Branch_1__Conv2d_0b_3x3__Relu"
  bottom: "InceptionV1__InceptionV1__Mixed_5b__Branch_2__Conv2d_0a_3x3__Relu"
  bottom: "InceptionV1__InceptionV1__Mixed_5b__Branch_3__Conv2d_0b_1x1__Relu"
  top: "InceptionV1__InceptionV1__Mixed_5b__concat"
  concat_param {
    axis: 1
  }
}
layer {
  name: "InceptionV1__InceptionV1__Mixed_5c__Branch_0__Conv2d_0a_1x1__Conv2D"
  type: "Convolution"
  bottom: "InceptionV1__InceptionV1__Mixed_5b__concat"
  top: "InceptionV1__InceptionV1__Mixed_5c__Branch_0__Conv2d_0a_1x1__Conv2D"
  convolution_param {
    num_output: 384
    bias_term: false
    kernel_h: 1
    kernel_w: 1
    stride_h: 1
    stride_w: 1
    pad_l: 0
    pad_r: 0
    pad_t: 0
    pad_b: 0
  }
}
layer {
  name: "InceptionV1__InceptionV1__Mixed_5c__Branch_1__Conv2d_0a_1x1__Conv2D"
  type: "Convolution"
  bottom: "InceptionV1__InceptionV1__Mixed_5b__concat"
  top: "InceptionV1__InceptionV1__Mixed_5c__Branch_1__Conv2d_0a_1x1__Conv2D"
  convolution_param {
    num_output: 192
    bias_term: false
    kernel_h: 1
    kernel_w: 1
    stride_h: 1
    stride_w: 1
    pad_l: 0
    pad_r: 0
    pad_t: 0
    pad_b: 0
  }
}
layer {
  name: "InceptionV1__InceptionV1__Mixed_5c__Branch_2__Conv2d_0a_1x1__Conv2D"
  type: "Convolution"
  bottom: "InceptionV1__InceptionV1__Mixed_5b__concat"
  top: "InceptionV1__InceptionV1__Mixed_5c__Branch_2__Conv2d_0a_1x1__Conv2D"
  convolution_param {
    num_output: 48
    bias_term: false
    kernel_h: 1
    kernel_w: 1
    stride_h: 1
    stride_w: 1
    pad_l: 0
    pad_r: 0
    pad_t: 0
    pad_b: 0
  }
}
layer {
  name: "InceptionV1__InceptionV1__Mixed_5c__Branch_3__MaxPool_0a_3x3__MaxPool"
  type: "Pooling"
  bottom: "InceptionV1__InceptionV1__Mixed_5b__concat"
  top: "InceptionV1__InceptionV1__Mixed_5c__Branch_3__MaxPool_0a_3x3__MaxPool"
  pooling_param {
    pool: MAX
    kernel_h: 3
    kernel_w: 3
    stride_h: 1
    stride_w: 1
    ceil_mode: false
    pad_l: 1
    pad_r: 1
    pad_t: 1
    pad_b: 1
  }
}
layer {
  name: "InceptionV1__InceptionV1__Mixed_5c__Branch_0__Conv2d_0a_1x1__BatchNorm__FusedBatchNorm"
  type: "BatchNorm"
  bottom: "InceptionV1__InceptionV1__Mixed_5c__Branch_0__Conv2d_0a_1x1__Conv2D"
  top: "InceptionV1__InceptionV1__Mixed_5c__Branch_0__Conv2d_0a_1x1__BatchNorm__FusedBatchNorm"
  batch_norm_param {
    use_global_stats: true
    eps: 0.0010000000475
  }
}
layer {
  name: "InceptionV1__InceptionV1__Mixed_5c__Branch_0__Conv2d_0a_1x1__BatchNorm__FusedBatchNorm__scale"
  type: "Scale"
  bottom: "InceptionV1__InceptionV1__Mixed_5c__Branch_0__Conv2d_0a_1x1__BatchNorm__FusedBatchNorm"
  top: "InceptionV1__InceptionV1__Mixed_5c__Branch_0__Conv2d_0a_1x1__BatchNorm__FusedBatchNorm__scale"
  scale_param {
    bias_term: true
  }
}
layer {
  name: "InceptionV1__InceptionV1__Mixed_5c__Branch_1__Conv2d_0a_1x1__BatchNorm__FusedBatchNorm"
  type: "BatchNorm"
  bottom: "InceptionV1__InceptionV1__Mixed_5c__Branch_1__Conv2d_0a_1x1__Conv2D"
  top: "InceptionV1__InceptionV1__Mixed_5c__Branch_1__Conv2d_0a_1x1__BatchNorm__FusedBatchNorm"
  batch_norm_param {
    use_global_stats: true
    eps: 0.0010000000475
  }
}
layer {
  name: "InceptionV1__InceptionV1__Mixed_5c__Branch_1__Conv2d_0a_1x1__BatchNorm__FusedBatchNorm__scale"
  type: "Scale"
  bottom: "InceptionV1__InceptionV1__Mixed_5c__Branch_1__Conv2d_0a_1x1__BatchNorm__FusedBatchNorm"
  top: "InceptionV1__InceptionV1__Mixed_5c__Branch_1__Conv2d_0a_1x1__BatchNorm__FusedBatchNorm__scale"
  scale_param {
    bias_term: true
  }
}
layer {
  name: "InceptionV1__InceptionV1__Mixed_5c__Branch_2__Conv2d_0a_1x1__BatchNorm__FusedBatchNorm"
  type: "BatchNorm"
  bottom: "InceptionV1__InceptionV1__Mixed_5c__Branch_2__Conv2d_0a_1x1__Conv2D"
  top: "InceptionV1__InceptionV1__Mixed_5c__Branch_2__Conv2d_0a_1x1__BatchNorm__FusedBatchNorm"
  batch_norm_param {
    use_global_stats: true
    eps: 0.0010000000475
  }
}
layer {
  name: "InceptionV1__InceptionV1__Mixed_5c__Branch_2__Conv2d_0a_1x1__BatchNorm__FusedBatchNorm__scale"
  type: "Scale"
  bottom: "InceptionV1__InceptionV1__Mixed_5c__Branch_2__Conv2d_0a_1x1__BatchNorm__FusedBatchNorm"
  top: "InceptionV1__InceptionV1__Mixed_5c__Branch_2__Conv2d_0a_1x1__BatchNorm__FusedBatchNorm__scale"
  scale_param {
    bias_term: true
  }
}
layer {
  name: "InceptionV1__InceptionV1__Mixed_5c__Branch_3__Conv2d_0b_1x1__Conv2D"
  type: "Convolution"
  bottom: "InceptionV1__InceptionV1__Mixed_5c__Branch_3__MaxPool_0a_3x3__MaxPool"
  top: "InceptionV1__InceptionV1__Mixed_5c__Branch_3__Conv2d_0b_1x1__Conv2D"
  convolution_param {
    num_output: 128
    bias_term: false
    kernel_h: 1
    kernel_w: 1
    stride_h: 1
    stride_w: 1
    pad_l: 0
    pad_r: 0
    pad_t: 0
    pad_b: 0
  }
}
layer {
  name: "InceptionV1__InceptionV1__Mixed_5c__Branch_0__Conv2d_0a_1x1__Relu"
  type: "ReLU"
  bottom: "InceptionV1__InceptionV1__Mixed_5c__Branch_0__Conv2d_0a_1x1__BatchNorm__FusedBatchNorm__scale"
  top: "InceptionV1__InceptionV1__Mixed_5c__Branch_0__Conv2d_0a_1x1__Relu"
}
layer {
  name: "InceptionV1__InceptionV1__Mixed_5c__Branch_1__Conv2d_0a_1x1__Relu"
  type: "ReLU"
  bottom: "InceptionV1__InceptionV1__Mixed_5c__Branch_1__Conv2d_0a_1x1__BatchNorm__FusedBatchNorm__scale"
  top: "InceptionV1__InceptionV1__Mixed_5c__Branch_1__Conv2d_0a_1x1__Relu"
}
layer {
  name: "InceptionV1__InceptionV1__Mixed_5c__Branch_2__Conv2d_0a_1x1__Relu"
  type: "ReLU"
  bottom: "InceptionV1__InceptionV1__Mixed_5c__Branch_2__Conv2d_0a_1x1__BatchNorm__FusedBatchNorm__scale"
  top: "InceptionV1__InceptionV1__Mixed_5c__Branch_2__Conv2d_0a_1x1__Relu"
}
layer {
  name: "InceptionV1__InceptionV1__Mixed_5c__Branch_3__Conv2d_0b_1x1__BatchNorm__FusedBatchNorm"
  type: "BatchNorm"
  bottom: "InceptionV1__InceptionV1__Mixed_5c__Branch_3__Conv2d_0b_1x1__Conv2D"
  top: "InceptionV1__InceptionV1__Mixed_5c__Branch_3__Conv2d_0b_1x1__BatchNorm__FusedBatchNorm"
  batch_norm_param {
    use_global_stats: true
    eps: 0.0010000000475
  }
}
layer {
  name: "InceptionV1__InceptionV1__Mixed_5c__Branch_3__Conv2d_0b_1x1__BatchNorm__FusedBatchNorm__scale"
  type: "Scale"
  bottom: "InceptionV1__InceptionV1__Mixed_5c__Branch_3__Conv2d_0b_1x1__BatchNorm__FusedBatchNorm"
  top: "InceptionV1__InceptionV1__Mixed_5c__Branch_3__Conv2d_0b_1x1__BatchNorm__FusedBatchNorm__scale"
  scale_param {
    bias_term: true
  }
}
layer {
  name: "InceptionV1__InceptionV1__Mixed_5c__Branch_1__Conv2d_0b_3x3__Conv2D"
  type: "Convolution"
  bottom: "InceptionV1__InceptionV1__Mixed_5c__Branch_1__Conv2d_0a_1x1__Relu"
  top: "InceptionV1__InceptionV1__Mixed_5c__Branch_1__Conv2d_0b_3x3__Conv2D"
  convolution_param {
    num_output: 384
    bias_term: false
    kernel_h: 3
    kernel_w: 3
    stride_h: 1
    stride_w: 1
    pad_l: 1
    pad_r: 1
    pad_t: 1
    pad_b: 1
  }
}
layer {
  name: "InceptionV1__InceptionV1__Mixed_5c__Branch_2__Conv2d_0b_3x3__Conv2D"
  type: "Convolution"
  bottom: "InceptionV1__InceptionV1__Mixed_5c__Branch_2__Conv2d_0a_1x1__Relu"
  top: "InceptionV1__InceptionV1__Mixed_5c__Branch_2__Conv2d_0b_3x3__Conv2D"
  convolution_param {
    num_output: 128
    bias_term: false
    kernel_h: 3
    kernel_w: 3
    stride_h: 1
    stride_w: 1
    pad_l: 1
    pad_r: 1
    pad_t: 1
    pad_b: 1
  }
}
layer {
  name: "InceptionV1__InceptionV1__Mixed_5c__Branch_3__Conv2d_0b_1x1__Relu"
  type: "ReLU"
  bottom: "InceptionV1__InceptionV1__Mixed_5c__Branch_3__Conv2d_0b_1x1__BatchNorm__FusedBatchNorm__scale"
  top: "InceptionV1__InceptionV1__Mixed_5c__Branch_3__Conv2d_0b_1x1__Relu"
}
layer {
  name: "InceptionV1__InceptionV1__Mixed_5c__Branch_1__Conv2d_0b_3x3__BatchNorm__FusedBatchNorm"
  type: "BatchNorm"
  bottom: "InceptionV1__InceptionV1__Mixed_5c__Branch_1__Conv2d_0b_3x3__Conv2D"
  top: "InceptionV1__InceptionV1__Mixed_5c__Branch_1__Conv2d_0b_3x3__BatchNorm__FusedBatchNorm"
  batch_norm_param {
    use_global_stats: true
    eps: 0.0010000000475
  }
}
layer {
  name: "InceptionV1__InceptionV1__Mixed_5c__Branch_1__Conv2d_0b_3x3__BatchNorm__FusedBatchNorm__scale"
  type: "Scale"
  bottom: "InceptionV1__InceptionV1__Mixed_5c__Branch_1__Conv2d_0b_3x3__BatchNorm__FusedBatchNorm"
  top: "InceptionV1__InceptionV1__Mixed_5c__Branch_1__Conv2d_0b_3x3__BatchNorm__FusedBatchNorm__scale"
  scale_param {
    bias_term: true
  }
}
layer {
  name: "InceptionV1__InceptionV1__Mixed_5c__Branch_2__Conv2d_0b_3x3__BatchNorm__FusedBatchNorm"
  type: "BatchNorm"
  bottom: "InceptionV1__InceptionV1__Mixed_5c__Branch_2__Conv2d_0b_3x3__Conv2D"
  top: "InceptionV1__InceptionV1__Mixed_5c__Branch_2__Conv2d_0b_3x3__BatchNorm__FusedBatchNorm"
  batch_norm_param {
    use_global_stats: true
    eps: 0.0010000000475
  }
}
layer {
  name: "InceptionV1__InceptionV1__Mixed_5c__Branch_2__Conv2d_0b_3x3__BatchNorm__FusedBatchNorm__scale"
  type: "Scale"
  bottom: "InceptionV1__InceptionV1__Mixed_5c__Branch_2__Conv2d_0b_3x3__BatchNorm__FusedBatchNorm"
  top: "InceptionV1__InceptionV1__Mixed_5c__Branch_2__Conv2d_0b_3x3__BatchNorm__FusedBatchNorm__scale"
  scale_param {
    bias_term: true
  }
}
layer {
  name: "InceptionV1__InceptionV1__Mixed_5c__Branch_1__Conv2d_0b_3x3__Relu"
  type: "ReLU"
  bottom: "InceptionV1__InceptionV1__Mixed_5c__Branch_1__Conv2d_0b_3x3__BatchNorm__FusedBatchNorm__scale"
  top: "InceptionV1__InceptionV1__Mixed_5c__Branch_1__Conv2d_0b_3x3__Relu"
}
layer {
  name: "InceptionV1__InceptionV1__Mixed_5c__Branch_2__Conv2d_0b_3x3__Relu"
  type: "ReLU"
  bottom: "InceptionV1__InceptionV1__Mixed_5c__Branch_2__Conv2d_0b_3x3__BatchNorm__FusedBatchNorm__scale"
  top: "InceptionV1__InceptionV1__Mixed_5c__Branch_2__Conv2d_0b_3x3__Relu"
}
layer {
  name: "InceptionV1__InceptionV1__Mixed_5c__concat"
  type: "Concat"
  bottom: "InceptionV1__InceptionV1__Mixed_5c__Branch_0__Conv2d_0a_1x1__Relu"
  bottom: "InceptionV1__InceptionV1__Mixed_5c__Branch_1__Conv2d_0b_3x3__Relu"
  bottom: "InceptionV1__InceptionV1__Mixed_5c__Branch_2__Conv2d_0b_3x3__Relu"
  bottom: "InceptionV1__InceptionV1__Mixed_5c__Branch_3__Conv2d_0b_1x1__Relu"
  top: "InceptionV1__InceptionV1__Mixed_5c__concat"
  concat_param {
    axis: 1
  }
}
layer {
  name: "InceptionV1__Logits__AvgPool_0a_7x7__AvgPool"
  type: "Pooling"
  bottom: "InceptionV1__InceptionV1__Mixed_5c__concat"
  top: "InceptionV1__Logits__AvgPool_0a_7x7__AvgPool"
  pooling_param {
    pool: AVE_EXC_PAD
    kernel_h: 7
    kernel_w: 7
    stride_h: 1
    stride_w: 1
    ceil_mode: false
    pad_l: 0
    pad_r: 0
    pad_t: 0
    pad_b: 0
  }
}
layer {
  name: "InceptionV1__Logits__Conv2d_0c_1x1__Conv2D"
  type: "Convolution"
  bottom: "InceptionV1__Logits__AvgPool_0a_7x7__AvgPool"
  top: "InceptionV1__Logits__Conv2d_0c_1x1__Conv2D"
  convolution_param {
    num_output: 1001
    bias_term: false
    kernel_h: 1
    kernel_w: 1
    stride_h: 1
    stride_w: 1
    pad_l: 0
    pad_r: 0
    pad_t: 0
    pad_b: 0
  }
}
layer {
  name: "InceptionV1__Logits__Conv2d_0c_1x1__BiasAdd"
  type: "Bias"
  bottom: "InceptionV1__Logits__Conv2d_0c_1x1__Conv2D"
  top: "InceptionV1__Logits__Conv2d_0c_1x1__BiasAdd"
}
layer {
  name: "InceptionV1__Logits__SpatialSqueeze"
  type: "Flatten"
  bottom: "InceptionV1__Logits__Conv2d_0c_1x1__BiasAdd"
  top: "InceptionV1__Logits__SpatialSqueeze"
}
layer {
  name: "InceptionV1__Logits__Predictions__Reshape"
  type: "Reshape"
  bottom: "InceptionV1__Logits__SpatialSqueeze"
  top: "InceptionV1__Logits__Predictions__Reshape"
  reshape_param {
    shape {
      dim: -1
      dim: 1001
    }
  }
}
#layer {
#  name: "InceptionV1__Logits__Predictions__Softmax"
#  type: "Softmax"
#  bottom: "InceptionV1__Logits__Predictions__Reshape"
#  top: "InceptionV1__Logits__Predictions__Softmax"
#}
#layer {
#  name: "InceptionV1__Logits__Predictions__Reshape_1"
#  type: "Reshape"
#  bottom: "InceptionV1__Logits__Predictions__Softmax"
#  top: "InceptionV1__Logits__Predictions__Reshape_1"
#  reshape_param {
#    shape {
#      dim: 1
#      dim: 1001
#    }
#  }
#}
layer {
  name: "loss"
  type: "SoftmaxWithLoss"
  bottom: "InceptionV1__Logits__Predictions__Reshape"
  bottom: "label"
  top: "loss"
  #loss_weight: 1
  #loss_param {
  #    ignore_label: 0
  #}
}
layer {
  name: "accuracy@1"
  type: "Accuracy"
  bottom: "InceptionV1__Logits__Predictions__Reshape"
  bottom: "label"
  top: "accuracy@1"
  include {
    phase: TEST
  }
  #accuracy_param {
  #  ignore_label: 0
  #}
}
layer {
  name: "accuracy@5"
  type: "Accuracy"
  bottom: "InceptionV1__Logits__Predictions__Reshape"
  bottom: "label"
  top: "accuracy@5"
  include {
    phase: TEST
  }
  accuracy_param {
    top_k: 5
  }
}
